checkpoint/clf/experiment_name/500/netE.pth (torch, 241318 bytes, 33 tensors)

model.0.weight f4 [32, 3, 4, 4]
00000000: cadd 11be ce1e 833d 7772 21bd 4e7d b73c
00000010: 64bd c4bd 517c 113d 7fd3 b3bc 713f a83b
00000020: 2366 df3c 2c09 c03c c69e a93d 02da 23bd
00000030: 4692 3abd 3fea 04bd 0cf4 96bc fcf7 f53c
00000040: e7d7 1f3d 07c9 b2bd b4de e63d cc18 203d
00000050: 0b31 77bd 8d81 4bbd d833 2fbe fedf a3bd
00000060: 2ed8 47bc 7a08 573d 2677 8e3d 5ba0 fd3d
00000070: e1fa 6dbc 9f25 3c3d 456a f9bc 0532 8fbc
00000080: 7745 d2bd 67b8 dcbd 4261 f0bc d60f afba
00000090: 7e41 29be 997a abbc c5e3 323d a4c8 ccbc
000000a0: ae19 4dbd c33f 263d 270a 653c a90b 3fbd
000000b0: 65c5 40bd 7c50 6fbd 83f4 4ebd de31 8bbd
000000c0: d852 22bd 6230 7b3d f82c 9e3d 51b8 a1bd
000000d0: e013 ff3d 3889 c63c 0d08 a83c e6b1 1c3d
000000e0: 12b7 8a3d ddb0 acbc 299b 63bd 138e 253d
000000f0: 144e cfbb 94cc 483d 876e 9d3d 1174 6e3c
00000100: 30f0 bebd 497c 063c de31 94bd b2a4 d63c
00000110: 8cca 77bd b7a9 52bb 25e8 6c3c 1a5e 82bd
00000120: d5a6 8f3d 1a3b 493c dcfd 97bc b037 e93c
00000130: 6d1e 53bd 8b3a 99bd 4ecb 4ebd 8f63 4c3c
00000140: ab49 dabd 6f0f 80bd 7db0 b6bd af52 b33c
00000150: 4380 8a3d ff18 8abd 2d80 223e 5626 893d
00000160: 5943 d33c 4bac 87bd a316 00bd 813a 093d
00000170: 81b4 f63d 497a 853d 81ef 923d 13ed c8bb
00000180: 971a 84bd a417 593d 65a2 cf3d 13eb e6bd
00000190: 2409 30bc 5221 323d c1c1 24bc debd ae3d
000001a0: f9e6 7dbd f6cf 6dbc f71d 41bd a5a1 1bbe
000001b0: 600a 8c3d b7b3 b3bd 3ddf 7c3d 2538 5c3c
000001c0: f34b cdbd 0b3b 943b 7744 b63d 28cb b43d
000001d0: f676 953c 8325 c83d 8d82 ce3b 4e22 253d
000001e0: e61c babc df67 413d feec 61bd f35d 353d
000001f0: 1c73 b8bd 224d 41bc 9e53 333c ea10 243c
00000200: 48c6 8a3d 5c03 19bd 4216 323c bd45 8ab9
00000210: d249 d7bc 9fea 813d dcc5 b3bd c131 973d
00000220: 995b 843c dfe3 3abd e8d0 0e3c a88b e23d
00000230: 4abf 783b b11a 29bd 0b4f 7cbd 7cfc 483d
00000240: 128e 743d ec82 403c e8e5 a6bd 2844 7ebc
00000250: cfb0 0cbe 99da a5bd 85b4 3fbd 5608 ae3a
00000260: 6f6b 21bd e52c 883d d09c 80bd 9936 303d
00000270: 553e 82bd ca71 bebc de2a b9bc 6174 613c
00000280: f307 38ba 9fb7 99bd 7ab6 7cbc 8ea9 1bb8
00000290: 10c8 61bc c0fe 82bc 4cc9 ca3c 46a5 f9bc
000002a0: ca7f ecbb 60c1 94bd 9951 953d 4fa4 b53d
000002b0: 560b 19be ff0d 0dbd 2e4f cd3d 0f46 62bd
000002c0: 4ea9 ccbd 6afc b7bd b387 66bc bde7 9b3d
000002d0: 020c 3cbd 29d4 d93d adeb 3fbd fc35 aa3d
000002e0: 704b 833d a94e 9a3c 8ed2 0ebd 382a 11bc
000002f0: 7834 f43c 2e3e 50bc 57d5 8a3d 8836 7ebc
00000300: 2162 743d 5116 48bd 9531 e3bc 13d3 593c
00000310: a496 413d 5e10 bfbc 0b4e 91bd 1c2c f73b
00000320: 4e29 b53d 5d82 82bc c632 553d c496 2e3b
00000330: 5728 073d ce7d d13c 7b3a 59bc 21c8 edbc
00000340: d4be a73d 64eb 5bbd 01e5 3cbd 6c98 043e
00000350: 4f80 863d d3e6 a2bd d725 02be 152f 04bd
00000360: 19de cb3d b6a8 bf3d 77e7 573a 8d84 b73c
00000370: 1a9e c439 971a c6bd 140f d8bd deb4 7b3d
00000380: a903 913d 92d3 cebb 3bc4 413b 3c34 c4bc
00000390: 2cfb 813d b64c bbbc e3f9 5d3d 4714 233d
000003a0: f6c6 183d d405 fc3c 7c29 d8bc dc65 09be
000003b0: cacd 113d 49d7 363c 928a 263d 42ca 8bbd
000003c0: fde0 b43d 5590 d4bc 167f c8bc b014 0abe
000003d0: 1893 b63c fb46 b9bc 9485 aabb 7502 3b3c
000003e0: ea33 efbc 9291 223d 31c0 433d 2c37 423c
000003f0: 9aa8 babc cd4e 4bbd ae59 04bd 44c4 a6bd
-0.14244762 0.0640236 -0.039415803 0.022398617 -0.09606436 0.035518948 -0.021951435 0.005134516
0.027270382 0.023441873 0.08282237 -0.04000283 -0.045549653 -0.032449957 -0.018426917 0.030025475
0.03902426 -0.08729749 0.11272946 0.03908615 -0.060349505 -0.049684096 -0.1710962 -0.080017075
-0.012197537 0.05249832 0.069563195 0.12384101 -0.014525146 0.045934316 -0.030446181 -0.017479906
-0.102671556 -0.107773595 -0.029343251 -0.001335616 -0.1652889 -0.020932483 0.04367425 -0.024998017
-0.05007332 0.04058815 0.013979471 -0.04664198 -0.04706325 -0.058426365 -0.050526153 -0.06796621
-0.039629787 0.06132544 0.07723421 -0.07896484 0.12454963 0.024235353 0.020511651 0.038255595
0.06773199 -0.021080429 -0.055567894 0.040418696 -0.0063264463 0.049023226 0.07687097 0.01455404
-0.09323156 0.008208343 -0.07236074 0.02620158 -0.060495898 -0.0032144615 0.014459644 -0.06365605
0.070142426 0.012282157 -0.018553667 0.028468937 -0.05154269 -0.07481869 -0.050486855 0.0124749085
-0.10658582 -0.06252944 -0.08920381 0.021890013 0.06762745 -0.06743049 0.15869208 0.06696765
0.02578895 -0.06624659 -0.031271588 0.03350306 0.12046147 0.06517465 0.07174588 -0.006131777
-0.06450384 0.05300106 0.10138396 -0.112753056 -0.010744367 0.043488808 -0.01005596 0.08532308
-0.06198785 -0.014514914 -0.047147717 -0.15198381 0.068379164 -0.08774512 0.061736334 0.01344112
-0.10024252 0.00452364 0.088997774 0.088278115 0.018245202 0.0977278 0.006302184 0.04031592
-0.022718858 0.0472182 -0.055157654 0.04427905 -0.0900633 -0.011798175 0.010945229 0.010013798
0.067761004 -0.03735672 0.0108695645 -0.0002637337 -0.026280317 0.063435785 -0.08777973 0.07382537
0.016156958 -0.04562747 0.008716799 0.110617936 0.0037955814 -0.04128522 -0.06159882 0.049068913
0.0597058 0.011749964 -0.0814932 -0.015519179 -0.13739322 -0.08098335 -0.046803016 0.0013277631
-0.039409097 0.06649188 -0.062799096 0.04302082 -0.06359545 -0.023247618 -0.022603448 0.013760657
-0.00070202275 -0.07505726 -0.015424365 -3.711279e-05 -0.013780609 -0.015990615 0.024754189 -0.030474316
-0.007217382 -0.07263446 0.07290954 0.0886923 -0.1494573 -0.034437176 0.10024868 -0.055242594
-0.0999323 -0.08983691 -0.014070439 0.0761256 -0.04590989 0.106361695 -0.046855617 0.08311078
0.06410873 0.018836336 -0.03486877 -0.008860163 0.029810175 -0.012710137 0.067789726 -0.015515931
0.059663896 -0.048849408 -0.027733603 0.013294953 0.047262803 -0.023323234 -0.07094964 0.0075431
0.08845769 -0.015931303 0.052050374 0.0026640156 0.032997455 0.025572684 -0.013258572 -0.029026093
0.081906945 -0.053691283 -0.046116833 0.1294877 0.06567442 -0.079541825 -0.12709747 -0.032271463
0.09954471 0.09358351 0.000823609 0.022402072 0.00037501828 -0.0967304 -0.10549751 0.061451785
0.07080776 -0.0063118422 0.0029566425 -0.023950689 0.06346735 -0.022863727 0.05419339 0.03981426
0.03729912 0.030764498 -0.026386969 -0.13417763 0.035596646 0.011159726 0.040659495 -0.06825687
0.088319756 -0.02594773 -0.024474662 -0.13484454 0.022286937 -0.022616854 -0.005203912 0.01141416
-0.02919956 0.039689608 0.04779071 0.011853974 -0.022785474 -0.049635697 -0.032312088 -0.081429034

model.0.bias f4 [32]
00000000: bd7d 9f39 0182 4038 8dda 79ba 606f 4638
00000010: e876 13bb fe61 45ba 41aa cfba 87bc 79b9
00000020: 1abc f639 f219 2b3a 17d8 31ba 54c9 b83a
00000030: c14f 7a3a 5ef2 90b9 06c7 013a fc4b efb9
00000040: 3fc2 ccb9 4ec2 09ba 88d0 fcb7 a22e 9aba
00000050: dcea 3a3a 8a40 cf3a cbe8 bd39 a84d a4b9
00000060: 762f e03a 82ad e239 95ba ec39 6c1c c3ba
00000070: c361 c53a e134 663a 8fd6 59b8 b3d3 83ba
0.00030420526 4.5897443e-05 -0.0009531163 4.7310605e-05 -0.0022501294 -0.00075295556 -0.0015843586 -0.00023816722
0.00047060923 0.00065269985 -0.0006784214 0.0014098086 0.00095486274 -0.00027646398 0.0004950616 -0.00045642245
-0.00039054637 -0.0005255089 -3.0137846e-05 -0.0011763165 0.00071303337 0.0015812081 0.00036222333 -0.00031338376
0.0017103988 0.00043235352 0.00045152442 -0.001488579 0.0015059042 0.0008781683 -5.1936655e-05 -0.0010057598

model.1.weight f4 [32]
00000000: c348 813f 6ca6 7c3f 622a 7c3f 956f 7a3f
00000010: b544 823f 4813 823f f8e9 7d3f d0ba 7f3f
00000020: 3f49 7c3f ec73 803f 7224 843f 243b 7c3f
00000030: e0fd 7f3f e8ce 803f f1d6 7e3f 14ca 7c3f
00000040: 5263 803f 72c2 813f 1518 823f 871f 7c3f
00000050: 92d3 803f e2a4 7c3f 934f 803f 678e 863f
00000060: 1437 7e3f 23ec 7c3f a52b 863f d354 793f
00000070: 51b8 7e3f e542 813f e56b 7e3f 2d14 7e3f
1.010033 0.9869144 0.9850217 0.9782651 1.0177218 1.0162134 0.99185133 0.9989443
0.98549265 1.0035377 1.0323622 0.9852774 0.9999676 1.0063143 0.99546725 0.98745847
1.003031 1.0137465 1.0163599 0.98485607 1.0064566 0.9868909 1.0024284 1.0512208
0.9930279 0.98797816 1.0482069 0.97395056 0.99499995 1.009854 0.99383384 0.99249536

model.1.bias f4 [32]
00000000: 3522 e83c 8e07 0c3c 9acf d4bc 0376 40bc
00000010: e12f fa3b 9254 c83c 7162 da3b 6037 d13b
00000020: 9bce 40bc 71c9 783b 40f2 e63c b083 c33c
00000030: 3f06 183c 3162 1f3c 8b95 0bbc b9e8 f1bb
00000040: 3498 fe3c 6af2 943c 6e15 973c f469 1c3c
00000050: 10d5 373c 54cb e63c a9fd 253d a471 c53c
00000060: 7486 9b3c 3629 98bb 2893 3e3d 5eac c23c
00000070: adfb 4e3c 3395 b73c 5398 963c a08f 963c
0.028336624 0.008546723 -0.025977898 -0.011746886 0.007635102 0.024454389 0.006664567 0.006384775
-0.011768009 0.0037961865 0.028191686 0.023866504 0.009278833 0.0097280005 -0.008519541 -0.007382479
0.031078435 0.018181998 0.018442836 0.009546746 0.011220232 0.028173126 0.040525112 0.02410204
0.01898501 -0.0046435846 0.046527058 0.023763832 0.012633246 0.02241001 0.01838318 0.018379033

model.1.gate f4 [32]
00000000: 380c 8a3f b693 7f3f b91f 7c3f 7bca 843f
00000010: d6ea 803f 6041 803f 6d9d 6c3f aac5 6c3f
00000020: a027 6f3f b132 933f 34b3 863f 7c75 653f
00000030: 7fd2 7f3f 342e 723f cfe8 813f b75c 793f
00000040: e89f 763f b049 803f 2539 833f 10b2 6d3f
00000050: 8a91 833f cb72 763f ba2f 893f 9e22 743f
00000060: e936 713f 162b 813f c3c9 813f d0a2 a03f
00000070: ac69 713f ec04 7b3f 52a9 713f 4721 563f
1.0784979 0.99834764 0.98485905 1.0374292 1.0071666 1.0019951 0.9242771 0.9248911
0.9341984 1.1499845 1.0523438 0.8963239 0.99930567 0.9460175 1.0149173 0.97407097
0.9633775 1.0022488 1.0251814 0.92849827 1.027879 0.9626891 1.071769 0.9536532
0.9422441 1.0091274 1.0139698 1.2549686 0.9430187 0.98054385 0.9439899 0.8364453

model.1.running_mean f4 [32]
00000000: 6a6f 373f ad4a 6abe 1204 04be c476 dd3e
00000010: 17be 2fbe a2bc 253f 77dc 99bd 3270 23bf
00000020: fb4f c0be ee3d 9ebd 1213 693f cbb0 aabe
00000030: 7ba0 60be dfa6 183f 5c20 f63c 930f 4a3f
00000040: d59e f8bd b129 973f 5e9b 4a3f a350 c6be
00000050: ed18 133f 86ea 69bf e984 133f f3a6 e93e
00000060: 9b03 54bd 241d 69be 40f4 7f3f 01ae ee3e
00000070: f2ad 76bf 4a47 00bd 0b52 59bd 6679 83bc
0.7165438 -0.22880049 -0.12892178 0.43254673 -0.17162357 0.64740956 -0.075127535 -0.6384307
-0.3756102 -0.07726656 0.91044724 -0.33338007 -0.21936218 0.59629625 0.030044727 0.78930014
-0.1213967 1.1809598 0.7914332 -0.38733396 0.5745991 -0.9137348 0.5762468 0.45635185
-0.05176125 -0.22765023 0.9998207 0.4661713 -0.9635917 -0.031317987 -0.053056758 -0.016049098

model.1.running_var f4 [32]
00000000: b376 a43d 0cf6 1b3d b294 2e3c 814e ea3c
00000010: c1b9 a23c 730b d23c 1363 433d 625c f53c
00000020: fbaf f03c 87ea 583c fd2c 333d 08d4 3c3c
00000030: 4b31 a63c cf6a 373d 0f22 993c 066d 873d
00000040: 1573 b33c 8dfc 803d 2d21 643d 6753 b93c
00000050: d300 b23c 6b37 283d ff4a 703d eaaa bd3c
00000060: 22a7 a33d bce9 5d3d 682f 543d 3cf1 6a3d
00000070: ae2f 6d3d 8ee4 2a3c de91 c53c a001 543d
0.080304526 0.038076445 0.010655569 0.028601887 0.019863965 0.025640225 0.047701906 0.029951278
0.029380789 0.013239509 0.043744076 0.011525162 0.020287177 0.044779595 0.018692998 0.066125914
0.021905461 0.0629817 0.0556957 0.022622777 0.021728909 0.041068476 0.05866527 0.023152787
0.079908624 0.054177985 0.051803023 0.057358965 0.0579068 0.010430468 0.024117406 0.051759362

model.3.main.0.weight f4 [32, 32, 3, 3]
00000000: 9004 05bd 7748 55bb 5d93 9f3d 55b2 eebd
00000010: 0f3f 593d 047d 1fbe 42b2 0dbe 1540 a0bc
00000020: 26cd 043d a082 2cbe 755a 01be a97d ab39
00000030: 9e96 0c3d 560a ddbd 1290 1d3e 12b9 fdbd
00000040: d58f 41be 22bd c5bc b96f 92bd aa3b fcbd
00000050: 310d 46bd db82 60bc 367d de3c 5524 e93c
00000060: ee54 96bd 5d93 b23d 79b9 593d b1c8 0cbe
00000070: 41b7 7abd 67f6 af3b 31b7 f4bd f6b3 cd3d
00000080: 149d aebd b367 7f3d 29af 0d3c 897e 043d
00000090: 5f2a 2fbe 61c5 4f3c 1f66 88bd 217c d0bd
000000a0: 66d9 133d 2d27 f93a 9bf6 4fbd 9e21 1f3d
000000b0: 8242 7ebd d83a b5bd a7ac 1ebd b69d 8bbd
000000c0: f8b5 bc3d 240d d9bd b034 bebc 2d30 27bd
000000d0: f75d 803c 670f 8a3c c566 a63c 9cc7 cebd
000000e0: 7195 883c 2f65 b8bd 93e5 763d a30d 21bd
000000f0: 371f 1e3d d25f d33c 5dc4 d4bc 4e1e a33d
00000100: 2235 b43d 6a08 c43d a775 c7bc b7e0 833d
00000110: 97bb cdbc 3573 8a3d fc1e 10be e841 89bd
00000120: e44e 4abc bcd6 923d 4bab d4bd ad4f dfbc
00000130: 8b3c 38be baf8 08be cb6f 5fbd 490a 5c3d
00000140: 4078 a23d 25c6 88bd 21f5 a83d 874b 4cbc
00000150: a862 42be 821a babc 0639 e23b 4f6a 91bd
00000160: a10b 80bc 7b91 c5bd ae18 3abe 0a17 5bbd
00000170: adbc f9bc b9c7 00bd f291 073c ab16 99bd
00000180: cd3a af3d 276f 03bc 6d89 12be c278 913b
00000190: 95f5 573d 598b 013d bf48 103d 82cc 17be
000001a0: 1d47 56bd 5141 be3b eb43 ddbd b4aa e03d
000001b0: 926b 2a3d 1c0a fdbd c954 26bd 6506 cabd
000001c0: f25a e53c 5675 d7bc aa66 00bd c788 19bd
000001d0: 1522 65be e3c8 0e3e 7b21 c0bc c166 07be
000001e0: dce5 02be 24c7 133e e168 363c 3104 03be
000001f0: b5c5 133d f4e9 3d3e 6b4a 15bd 25ae af3d
00000200: 347a 21bd 0ce1 653d 4f31 acbd 1508 0f3e
00000210: 90c7 0cbe 570b dfbc 0b80 623e e150 3a3d
00000220: 581e 89bd 3d2b d1bc 30d6 f1bd 78cd 42be
00000230: 81cb 14bd 0661 b3bc 36d6 dabc 04a3 363e
00000240: 1e4a ccbd d064 e13c 4d47 0cbb 58e8 e7bd
00000250: 4916 903d 6f06 8a3d 3ed9 82bc f314 3abd
00000260: 3539 9ebc d590 893d 166d d7bd 9d15 253d
00000270: addb 5abd 10e1 93bc e717 28be f45f 743d
00000280: 57ed 4dbd 70d3 1ebe c9ca a33c ce68 8b3d
00000290: 84a0 333d db2a 263c ea29 603c e85b e9bd
000002a0: 7905 f1bc 5a51 04be 27e0 5d3e 7f78 d1ba
000002b0: df23 2a3d 2f0f 013e a5fb 43bc 87a2 e2bd
000002c0: 37c9 71be 4459 1ebd a04c 603b 6e28 2d3d
000002d0: 9949 76bd 8b4c bbbd d735 fdbb 727c c13d
000002e0: edfd 1ebc 1fc9 893d dfa0 473d 9b98 4ebd
000002f0: 7a2b 29be 2e89 95bd b670 293d 609a 63bd
00000300: 8436 253e c600 42bd 8b12 7f3d d907 17bd
00000310: 797e c4bd b7e1 abbd de90 bdbc 82d6 dbbd
00000320: 5421 07be 9f10 2c3e 3842 283d e4a2 0dbc
00000330: 9ab1 73bb cf66 fcbc 46ba f9bc cac0 dbbd
00000340: bf04 083d 3098 96bd 20b6 583d ca88 7dbe
00000350: 8fd1 8ebd ee20 47bc 5d6b 4fbd fe55 c43d
00000360: f808 fc3b e44a ddbc 0d07 f33c 328b 3c3e
00000370: 798b 893b c754 e83d 1c0f 863d 7dbf f23a
00000380: aab3 39be 6503 febb 084e 26bd 94fb 273e
00000390: 1b22 a93a 64ff 953c d9bf adbd 95e2 9cbc
000003a0: a4cc 9ebc 5de4 b83c f66d 9fbd 1b1f 383e
000003b0: 606d 97bd ffdb 3fbd 8d1a 8e3c a18c 00be
000003c0: 3c30 bc3d f69c 17bd 9c77 a03d b936 c63c
000003d0: 7867 863d eea6 113e 7642 02bd 4d85 32bd
000003e0: d7ff 38bd f01c af3c e7cc 3e3c 66ef a23d
000003f0: 3672 d3bc 6fb3 7fbd f8a8 ab3d 6283 9cbc
-0.032475054 -0.0032544413 0.07791779 -0.11655108 0.053038653 -0.15575033 -0.13837531 -0.019561807
0.032422207 -0.16846704 -0.12632163 0.00032709286 0.034323327 -0.10792987 0.1538699 -0.12388815
-0.18902524 -0.024138037 -0.07150216 -0.123160675 -0.048352424 -0.013703073 0.027159315 0.028459707
-0.07340418 0.087195136 0.053155396 -0.13748433 -0.06120992 0.0053699496 -0.119490035 0.100440904
-0.08526054 0.062354755 0.0086477185 0.032347236 -0.17106007 0.012681336 -0.06660103 -0.10179926
0.036096 0.0019008868 -0.05077229 0.03885042 -0.062075146 -0.08849114 -0.038738873 -0.0681719
0.09214395 -0.105982095 -0.023218483 -0.04081743 0.015669806 0.016853048 0.020312676 -0.10096666
0.016672822 -0.09003674 0.060277533 -0.039319646 0.038603988 0.025802527 -0.02597254 0.079647645
0.08799197 0.09571917 -0.024348093 0.06439345 -0.025113864 0.06760255 -0.1407432 -0.06702024
-0.012347911 0.071698636 -0.10384234 -0.027259672 -0.17991845 -0.13376132 -0.054549973 0.053720746
0.07933092 -0.06678418 0.0824988 -0.012469179 -0.18982947 -0.022717718 0.0069037704 -0.07100355
-0.015630545 -0.09646889 -0.18173477 -0.05348877 -0.030485475 -0.03144047 0.008274542 -0.07475027
0.08556137 -0.008022106 -0.14310236 0.0044394443 0.05272444 0.031627033 0.035225626 -0.14824107
-0.052313913 0.005806126 -0.1080397 0.10970059 0.041606493 -0.12355444 -0.0406082 -0.09864501
0.027997468 -0.026301067 -0.031347908 -0.037483957 -0.22376283 0.1394382 -0.023453465 -0.13222791
-0.12782997 0.14431435 0.0111334035 -0.12794568 0.03607722 0.18546277 -0.036447924 0.08578137
-0.039423183 0.056122825 -0.08407842 0.13967927 -0.13748002 -0.027227087 0.22119157 0.04548729
-0.06695241 -0.025533313 -0.11808431 -0.19023693 -0.03632689 -0.02189685 -0.026713472 0.17835623
-0.09975074 0.027513891 -0.0021404803 -0.11323613 0.070355006 0.06739508 -0.01597273 -0.045430135
-0.019314388 0.06717078 -0.10518853 0.040303815 -0.053432155 -0.018051654 -0.16415368 0.05966182
-0.050275173 -0.15510345 0.019994156 0.06807099 0.04385425 0.0101420535 0.013681868 -0.11394483
-0.029421555 -0.12921658 0.21667539 -0.0015981345 0.041538116 0.12603448 -0.011961852 -0.11066156
-0.23611914 -0.03865935 0.003422536 0.042274885 -0.060128782 -0.09145459 -0.0077273655 0.09447564
-0.009704095 0.06727814 0.048737403 -0.050438505 -0.16520491 -0.073015556 0.041367255 -0.055567145
0.16134077 -0.04736402 0.062273543 -0.03687272 -0.09594435 -0.08392661 -0.023140367 -0.107342735
-0.13196307 0.16803215 0.041078776 -0.008644793 -0.0037184716 -0.030810742 -0.03048433 -0.10730131
0.03320765 -0.07353246 0.052908063 -0.24759212 -0.06973564 -0.012153847 -0.0506395 0.09586714
0.007691499 -0.02701325 0.029666448 0.18412474 0.0041975346 0.11344295 0.06545851 0.0018520203
-0.18134943 -0.0077518695 -0.04060176 0.16404563 0.0012903841 0.018310256 -0.08483858 -0.019151011
-0.01938469 0.02256983 -0.07784645 0.17980616 -0.073939085 -0.046840664 0.017346645 -0.12553646
0.091888875 -0.037014924 0.07835314 0.024196016 0.06562704 0.14223835 -0.031801663 -0.043584157
-0.045165863 0.021376103 0.011645532 0.07955818 -0.025811296 -0.06242698 0.083818376 -0.019105617

model.3.main.1.weight f4 [32]
00000000: c890 7f3f 3070 803f fa5b 813f 30f0 813f
00000010: 378f 813f 25be 803f e3aa 7b3f ee22 803f
00000020: 4453 803f deca 823f ca1b 803f 670a 7f3f
00000030: 75e5 7d3f 7430 7f3f 8c42 7a3f 36aa 7b3f
00000040: 51db 813f 530e 803f 4c3b 803f 9ccc 7d3f
00000050: 82bf 823f 3e3e 7d3f 9fee 7e3f 408d 7c3f
00000060: 42fe 7f3f 27f9 7e3f 5b86 803f 76e9 7d3f
00000070: b714 7f3f 1b26 803f acb3 7e3f 0d00 823f
0.99830294 1.0034237 1.0106194 1.0151424 1.0121831 1.0058028 0.9830763 1.001066
1.0025411 1.021816 1.000848 0.9962525 0.9917825 0.9968331 0.9775779 0.98306596
1.0145055 1.0004371 1.0018096 0.99140334 1.0214694 0.989231 0.99582857 0.9865303
0.9999734 0.99598926 1.0041002 0.9918436 0.99640983 1.0011629 0.9949291 1.0156265

model.3.main.1.bias f4 [32]
00000000: fb15 7439 cd7e 133c e69e d8bb 87fe 8a3c
00000010: 118c 773b 460f 8c3c 8877 0d3c d114 9a3c
00000020: f51c fd3c 8605 863c ebae e13c d7ce a33c
00000030: e5ca a13b 0a30 e43b 9427 2139 7b75 f6bb
00000040: feef 983c afde b13c 639e 043c 70a9 efba
00000050: d45b 99bc df4e aebb fd3f eebb 8f98 96bc
00000060: 1c4f 3abb 764f 27ba 94a8 4dbb 715a abbb
00000070: bb33 a0bc 6b7f 133d 28a2 cebb 55ec b33d
0.00023277842 0.0090024 -0.006610739 0.016967071 0.0037772695 0.017097127 0.0086344555 0.018808754
0.030897597 0.016360056 0.027549228 0.01999609 0.004937517 0.0069637345 0.000153689 -0.007521329
0.018669125 0.02171263 0.008094403 -0.0018284749 -0.018720545 -0.0053194608 -0.0072708116 -0.018383292
-0.00284285 -0.0006382385 -0.0031380998 -0.0052292873 -0.019555917 0.036010187 -0.0063059516 0.08785311

model.3.main.1.gate f4 [32]
00000000: 7cdc 813f 60dd 8e3f 3c6f 883f a822 763f
00000010: eeff 793f 065f 5a3f 8946 6a3f 60bc 803f
00000020: c707 843f 79ea 7b3f 2231 683f 8675 743f
00000030: 2ee3 7d3f 2c3e 913f 93b4 763f 8a15 943f
00000040: 924f 7e3f d091 943f 012b 793f 97d3 853f
00000050: d5a3 773f 0bc3 7e3f e3d9 713f bca7 883f
00000060: deda 803f 5751 6d3f 48ed 7d3f d2b8 813f
00000070: d72f 843f 6f65 523f c1aa 843f ed2b 623f
1.0145411 1.1161308 1.0658946 0.9614663 0.9765614 0.85301244 0.9151388 1.0057487
1.0314873 0.9840465 0.9069997 0.95491827 0.99174774 1.1347098 0.96369284 1.1569073
0.99340165 1.1606998 0.97331244 1.0455197 0.9673436 0.9951636 0.94473094 1.0676188
1.0066793 0.9270224 0.9919019 1.0134528 1.03271 0.82186025 1.036461 0.88348275

model.3.main.1.running_mean f4 [32]
00000000: 6705 a8bf aa2a 8c3f 07c3 853e f971 bfbe
00000010: cc30 103f eb75 2dbf 37a0 13bf 87c0 a7be
00000020: 5bfe 1f3f 717f 813e 9cdd 39bf ed9d 373c
00000030: d316 babe 3e93 28bd 0d71 5cbe a0c1 06bf
00000040: 227a 60bf ed65 bdbe f768 353e 0bde a83e
00000050: 9f42 44be 15ce b93d 5a6c 0d3f 8698 0dbf
00000060: 1b6d 4d3f ec3d 323f b8fd 893d 17dc 083e
00000070: 21ce 93bf 8e4d 853e 37b6 083e 2101 1fbd
-1.3126649 1.095052 0.26125357 -0.37391642 0.5632446 -0.67758054 -0.57666343 -0.32764074
0.6249749 0.25292543 -0.72603774 0.011207086 -0.36345538 -0.041156046 -0.215275 -0.526392
-0.8768636 -0.36991826 0.17715822 0.32981905 -0.19166039 0.0907251 0.55243456 -0.5531086
0.80244607 0.69625735 0.06737846 0.13365208 -1.154728 0.26035732 0.1335076 -0.038819436

model.3.main.1.running_var f4 [32]
00000000: f93c 1e3f cdb5 903f 70e1 583f d5e7 a93f
00000010: d2e2 e63f 27fa 2840 52de 303f af65 0d3f
00000020: 3c14 bc3f 8ebf 293f e714 043f bc5d 073f
00000030: e3b5 4f3f bf0b cf3e 7f48 673f 9646 973f
00000040: c5d9 273f 9ad1 5c3f d846 df3e d91a 9f3f
00000050: 004a 103f ea49 943f 89b9 4e3f 9eda 7c3f
00000060: 7043 a33f c574 fa3f 2582 973f 278e 083f
00000070: 8cf2 023f 31c5 a13f 95c1 f73e 3f1d 853f
0.61811787 1.1305481 0.8471899 1.3273875 1.803797 2.640268 0.69089234 0.5523328
1.4693675 0.66307914 0.51594394 0.528774 0.8113691 0.4043865 0.90344995 1.1818416
0.65566665 0.86257327 0.43608737 1.2430068 0.56362915 1.1585057 0.80751854 0.98771083
1.2754955 1.9566885 1.1836592 0.5334191 0.5115135 1.2638303 0.4838988 1.039955

model.3.main.3.weight f4 [32, 32, 3, 3]
00000000: 03a2 d0bc be16 a839 fbd4 96bd 22e5 223e
00000010: fd13 fdbd 9a7f 89bc bbd4 f8bd 0ab5 e5bc
00000020: c862 d8bd fbde 133d 6845 cd3c a0cd 253c
00000030: 8a2c a8bc d796 31bd a4f8 5cbd ff0f dfbd
00000040: 752d 9cbc 8197 c5bd 2406 51bd 9e53 7b3d
00000050: 74a5 b23d a92c c6bd ac7f b33d 96e3 d4bd
00000060: ad13 923d 79cf 1bbd 5f68 51bd c09e a0bd
00000070: 13be 13be 3dce 7a3d ad61 523b 7d9f ee3d
00000080: 431d a3bd 18b9 2f3d 5b08 9abd f8f8 1cbe
00000090: 9358 1d3c 85cd 343e 1be0 75bc 84ff f2bb
000000a0: 6f47 e5bd ce6c c8ba dd6d e13c 68fb 3c3e
000000b0: bafe 7fbc 4ddd 053e eb37 26be 5781 20be
000000c0: a720 753d 19c5 d53a 6596 0d3e 6b09 7cbd
000000d0: 40b1 ba3b 5321 fa3b 8148 a7bc 65eb fb3d
000000e0: 5b4a 2d3c d819 86bc d8d0 bebd ef87 8a3d
000000f0: 3ee9 45bd 2d33 d6bd 89a0 473d 26b8 bbbd
00000100: 24d8 ad3c 7143 573d f4ce 063c 30c1 983d
00000110: e287 9b3c 7553 fbbc 996d e13d 9013 f53c
00000120: 965c f93d cf5e 2d3d 4dea 63bd 6f15 283e
00000130: 0995 20bd 61b4 6abc d7a8 70bd 9f15 bc3d
00000140: 60cb 03be 3980 09bd 46b1 ad3d 966a 273d
00000150: 61b9 1f3e 721c adbd b17c bfbc b460 bcbd
00000160: 5539 3a3c ca7f 14bc e6fb 883d 7c01 b0bd
00000170: 4df4 a03d 2676 6bbd 3462 b4bd 484a e13d
00000180: eb5f 2cbd 56c9 2bbd 257a 463c f0c7 d53d
00000190: 1845 48bc 179f 52bd 8878 5d3d 071c 923c
000001a0: 1d53 c93d 0ec9 37bc 6808 16be 871a ff3c
000001b0: 901f a43d bce7 103e cd5c 17be 05c1 39bd
000001c0: 4613 0f3e 9b60 45bc 4069 d8bc 966a 023c
000001d0: df93 c23c d5e5 e3bb f4b0 cf3d 5629 9c3d
000001e0: b00b 88bc f7ae 7a3d c900 a03b 6a77 133e
000001f0: fd6d 2b3d c323 b7bd 02ac b9bd f072 2ebe
00000200: 8e65 12be 75d3 1cbd d979 1f3c 9065 60bc
00000210: 6055 87bd a167 0c3e 32c8 06be b345 1abe
00000220: a671 703c c3d7 c53d 8f9a 8dbc ad3d e03d
00000230: ee9d 933d 2304 173c cef8 3dbd 49be e83c
00000240: fc1e 38bd 9d06 0e3e 68f9 043d eead 44bd
00000250: bcb1 2dbc 8b76 313e e707 813d ded6 9d3d
00000260: 43f7 37bd 0ef0 fa3d 28a5 5e3d 7ef3 a93c
00000270: d9b7 49bd e8b8 8b3d 0b2f 59be cade 3e3d
00000280: 06ba 953d 5e32 d4bd b009 163e d34b 02bd
00000290: 18bb 0639 6dbe 883d ad3a 063d 51d1 db3c
000002a0: c8ae 883d 737b 14bd eef2 2dbe 58de 933d
000002b0: 7f47 07bd d76b 0ebd e7d0 c7bd 326a 97bc
000002c0: a8e3 e0ba a60b 9d3d 1fd9 73bd c29a b3bd
000002d0: 2c4e d93d 0a78 c1bd 0123 d53d 3937 de3d
000002e0: b6b9 4e3d 7539 283e 9e74 c93c 8b37 2dbd
000002f0: 40e8 12be 3ad0 993b cc6d d7bc e314 1d3e
00000300: fc05 dd3a 3201 71bd 16bc 90bb d9b2 2bbe
00000310: 6e86 80bd 5f7a 1dbd 8002 bdbd 1100 103d
00000320: c5d7 81bd f907 12be 2a91 d13d 0d34 9c3c
00000330: 69cf 6abd 1263 d83d 25b2 d43c de28 053d
00000340: 5e89 413e 841b abbd 5293 9a3d e5be 05bc
00000350: 812b 60bd 696c 76bd 717f 17bd aed7 533d
00000360: 4582 31bd f05f dd3d b42a 303d ee11 a1bd
00000370: 4f40 98bc f48b 3f3d 6a2f e13c 3b8e c9bd
00000380: 66a7 96bc ad00 cc3d 5708 23be 35ff b53c
00000390: f3ba 0e3e cbee ccbd c2ff 963d aa8f 143a
000003a0: 8bc9 6d3d ff67 18be 1200 de3c 0308 893d
000003b0: 9708 d9bd 9c86 b43b de63 debc d736 dbbd
000003c0: 04f8 6a3c 527d 15bb 0bb1 45be 0605 193e
000003d0: 9f8d 293e 6b3c a2bc b8be d33d 866c 3b3e
000003e0: 15a3 603d b386 59bd 86f2 cb3c fae3 11bd
000003f0: 3a6d cd3d 3d6e a5bd a77c 87bd 00df 8ebd
-0.025467878 0.000320604 -0.073648416 0.1590772 -0.12357328 -0.016784478 -0.1214995 -0.028040428
-0.10565716 0.036101323 0.02505751 0.010119826 -0.02052905 -0.043356743 -0.05394806 -0.10891723
-0.019064644 -0.09648038 -0.051031247 0.06135904 0.08722964 -0.09676487 0.08764586 -0.10394971
0.07132659 -0.03803966 -0.051124927 -0.07842779 -0.14427976 0.06123184 0.0032101676 0.11651514
-0.079645656 0.04290113 -0.07521125 -0.15329349 0.009603637 0.17656524 -0.015007044 -0.0074157137
-0.111952655 -0.0015291215 0.027518207 0.18455279 -0.015624696 0.13072701 -0.16232269 -0.15674339
0.059845593 0.001630935 0.13826902 -0.06153242 0.0056973994 0.007633367 -0.020420315 0.12300757
0.01057681 -0.016369745 -0.093171775 0.067642085 -0.04831814 -0.1045898 0.048737083 -0.09165983
0.021221228 0.05255455 0.008228052 0.074587226 0.018985692 -0.030679444 0.11007232 0.029916555
0.121758625 0.042326745 -0.05564337 0.16414426 -0.03920463 -0.014325232 -0.05875477 0.091838114
-0.1287055 -0.03356955 0.08481078 0.040873133 0.1559806 -0.08452691 -0.023374887 -0.09198132
0.011366208 -0.00906367 0.06688671 -0.08594033 0.07859097 -0.057485722 -0.08807793 0.11000496
-0.042083662 -0.041940056 0.012114082 0.10438526 -0.0122235045 -0.05142125 0.054070026 0.01783563
0.09830306 -0.011217369 -0.14651644 0.031140579 0.080138326 0.141509 -0.14781494 -0.045350093
0.13972196 -0.012046958 -0.026417375 0.007959982 0.023752151 -0.0069548883 0.10141173 0.07625072
-0.016607136 0.061202016 0.004882906 0.14401022 0.04185294 -0.08942368 -0.09066011 -0.17036033
-0.14296553 -0.0382876 0.009733641 -0.013696089 -0.06608081 0.13711406 -0.13162306 -0.1506565
0.014675533 0.09660294 -0.017285613 0.10949264 0.07207857 0.009217295 -0.046379857 0.028411048
-0.044951424 0.1386971 0.032464415 -0.048017435 -0.010601457 0.17330377 0.063003354 0.07706998
-0.04491354 0.12252818 0.054356724 0.020745989 -0.049247596 0.068223774 -0.21209352 0.046599187
0.07310872 -0.10361169 0.14652133 -0.031810593 0.00012848934 0.06676946 0.0327708 0.026833208
0.06673962 -0.036250543 -0.16987202 0.07220143 -0.03302717 -0.034770813 -0.09756642 -0.018483255
-0.0017157691 0.076682374 -0.059533235 -0.08769752 0.10610613 -0.09446724 0.10407067 0.10850377
0.050470077 0.16428168 0.02459174 -0.042289298 -0.14346409 0.004694012 -0.026297472 0.15339999
0.0016862745 -0.05883903 -0.004416953 -0.16767444 -0.062756404 -0.03844678 -0.092289925 0.035156313
-0.06339983 -0.14260854 0.10232766 0.019067788 -0.057326708 0.10565771 0.025963852 0.032509677
0.18900058 -0.083548576 0.0754763 -0.008163189 -0.05472899 -0.06016198 -0.036986772 0.05171936
-0.043337125 0.10809314 0.043009475 -0.07864748 -0.018585352 0.04676433 0.02748843 -0.098415814
-0.018390369 0.099610664 -0.1592115 0.022216419 0.13938503 -0.10006484 0.07373001 0.00056671596
0.058053534 -0.14883421 0.027099643 0.06690981 -0.105973415 0.0055092108 -0.02714723 -0.10703819
0.014341358 -0.0022810292 -0.19305818 0.14943323 0.1655793 -0.0198042 0.10339111 0.18303117
0.054843027 -0.053106975 0.024895918 -0.035617806 0.10030599 -0.08077667 -0.066155724 -0.069761276

model.3.main.4.weight f4 [32]
00000000: a503 793f ec30 7b3f acdd 7c3f ed49 773f
00000010: aa55 7d3f c995 7e3f 0775 7c3f 5a24 793f
00000020: fbb1 793f d67d 7f3f 01f9 7d3f 36bc 7a3f
00000030: 9a81 7a3f c0f7 803f 7dce 7b3f cb64 7c3f
00000040: 7f16 803f c7b9 783f d9e2 753f ce64 7c3f
00000050: 5558 7e3f eca3 733f 7062 7e3f db56 7f3f
00000060: 86c1 7a3f 7d6a 763f 9c84 7a3f ea1a 7b3f
00000070: 9d83 7c3f 27af 7a3f 5092 7d3f 32f4 793f
0.97271186 0.98121524 0.98775744 0.96597177 0.9895884 0.99447304 0.9861607 0.97321093
0.975372 0.99801385 0.99208075 0.9794344 0.97854006 1.0075607 0.9836195 0.985913
1.0006865 0.97158474 0.9604927 0.98591316 0.99353534 0.95172 0.99368954 0.99741906
0.97951543 0.9625624 0.97858596 0.9808794 0.98638326 0.9792351 0.9905138 0.9763824

model.3.main.4.bias f4 [32]
00000000: efe9 613c 1448 ec3b d2e0 dfbc 984f 483c
00000010: bb2c d53b bf08 193d 5b51 aebb 05d0 e8ba
00000020: c44a 10b9 4fbf ae3c d22e c33d fa87 083d
00000030: e287 483c ad8c 1d3c e173 a3bc ebba 05bb
00000040: d4f0 bd3c 7a6b 093d 6ed2 233c eff2 fdbb
00000050: eed7 4f3c e945 913b 25e5 f43c df6b 4c3d
00000060: bd2e ce3b 908d 233c a254 1f3d 57a7 493d
00000070: 5411 77bc c386 323d ccee 853c 11f5 0fbd
0.013788684 0.007210741 -0.027328882 0.012226008 0.0065055764 0.037361857 -0.005319757 -0.001776219
-0.00013760763 0.021331457 0.09530415 0.033332802 0.012239428 0.009616059 -0.019952716 -0.0020405601
0.023186125 0.033549763 0.009998901 -0.007749907 0.012685759 0.004433383 0.02989442 0.04990756
0.0062921927 0.009982482 0.03889907 0.049231853 -0.015079815 0.04358555 0.016349219 -0.035145823

model.3.main.4.gate f4 [32]
00000000: 02c3 753f 08ba 813f ee7f 6e3f 0773 8f3f
00000010: 2c65 743f e9f9 7a3f 9f33 8b3f 8110 863f
00000020: d9c4 7e3f 7021 8c3f bd03 833f 0978 753f
00000030: 91d1 693f f577 7c3f 719e 7b3f 7118 723f
00000040: 7376 773f f782 8a3f c95e 693f 154b 723f
00000050: 1ff0 763f 8a2f 723f 2210 723f 4c45 893f
00000060: 01e7 873f fcd6 7e3f 9f0a 853f 4681 893f
00000070: d1c4 873f cad1 703f 0cc1 7d3f 1d45 883f
0.96000683 1.0134897 0.93163955 1.1206979 0.95466876 0.9803758 1.0875129 1.0473787
0.99519116 1.0947704 1.0235516 0.95886284 0.913354 0.9862054 0.9828864 0.94568545
0.96665114 1.0821217 0.91160256 0.94645816 0.96460146 0.9460379 0.94555867 1.0724273
1.0617372 0.9954679 1.0393866 1.0742576 1.0606939 0.9407011 0.9912269 1.0646092

model.3.main.4.running_mean f4 [32]
00000000: ae6d eb3d 5ca8 29bf a0b8 3e3f 82a9 febe
00000010: 5e4e debe 284e 6fbf 8280 0abf 4f65 2fbf
00000020: 373b 103f 9cca 92bf 0f39 cebf 5cca c63e
00000030: c484 bcbe ccba 833e a8b3 ac3f 6d3e 8ebe
00000040: 78a0 03bc c414 23bf 13b6 efbd 4ba7 41bf
00000050: 5a1d 683f 079c 283f 94f1 38bf 6356 de3e
00000060: 05d4 b83e afd4 14be 3405 2cbf 32fb 1fbf
00000070: 95ca 973f 307a e33e 6fcf 1abe 014e 3b3f
0.11495529 -0.6627252 0.74500465 -0.497387 -0.43419164 -0.9347863 -0.5410234 -0.6851396
0.56340355 -1.1468081 -1.6111163 0.38826263 -0.36820042 0.25728452 1.3492327 -0.27782002
-0.008033864 -0.6370356 -0.1170465 -0.75645894 0.90669787 0.6586308 -0.7224362 0.43425283
0.36099258 -0.14534257 -0.6719544 -0.6249267 1.1858698 0.4442916 -0.15118192 0.731659

model.3.main.4.running_var f4 [32]
00000000: c2a7 a13f 2451 b83f 2647 9240 a267 a43f
00000010: 49fe 0040 3994 a23f 2cc6 593f 8f86 b23f
00000020: 3263 d23f 6692 f63f a516 8440 f742 1840
00000030: 5f8e 773f 8322 f73f e8f6 5740 b0ca cb3f
00000040: b654 d13f ea1f 913f 9327 193f 6799 2940
00000050: 1d10 f63f fc56 d43f 007c 0e40 ac1f df3f
00000060: 5ad7 aa3f 4a5f b33f c1c4 f43f cff7 0f40
00000070: 1154 0c40 5f47 a93f 7f33 6f3f d160 923f
1.2629321 1.4399762 4.571185 1.2844126 2.0155203 1.2701484 0.8506801 1.3947314
1.6436522 1.9263427 4.127764 2.3790872 0.96701616 1.9307407 3.374445 1.592123
1.6353977 1.1337864 0.5982601 2.649988 1.9223667 1.6589046 2.2263184 1.743154
1.334697 1.4013455 1.9122545 2.2495 2.192631 1.3224906 0.9343795 1.1435796

model.4.main.0.weight f4 [32, 32, 3, 3]
00000000: dbac ddbd a90c 633c 3042 18be 9c00 bebd
00000010: fe89 f33c 44c2 f2bc 6b26 bcbc fce0 2cbd
00000020: 970c f1bd 1cfd a53d 6cc1 aa3c d7d1 44bd
00000030: 504a 99bd f4bc 2b3d 1935 25be cb9c ebbd
00000040: f5f6 b7bd 77ab ad3d ad50 ab3c 9da2 e03d
00000050: 9a2b d1bd 0bb3 2738 162a 363d 69f5 0cbc
00000060: c060 8cbd f3cd 423d f230 a53d f244 fbbd
00000070: d531 003e 6267 c23d 20e4 7cbc 967b ccbd
00000080: cd83 bfbd e921 023e fa30 e83d 61ea de3c
00000090: d876 4fbd e412 7a3d 995d 0aba 01a4 56be
000000a0: c803 f1bd 50c0 923d ea38 c3bc 37e9 a23c
000000b0: 8767 f03d 0a11 54bd 23a0 b5bd ae2b 323c
000000c0: 800b f33c b42d 1f3d f92e e33c f6d0 ab3c
000000d0: fc73 6dbe 25d7 5a3e 268e 663d 73a6 bdbc
000000e0: ce63 173e 7cf4 a33d b60d 5abc 1acf 423e
000000f0: 9bd3 08bb 5018 d13d b6b2 3fbe 886f b0bd
00000100: 3043 29bd 32a8 123e 14fd fdbd 8111 49bc
00000110: aa9a 44bd 66c1 ec3a 8ebd 0d3d a806 073d
00000120: 9e1a 3f3e 23ca 2a3e 6938 acbc d3f5 3b3d
00000130: f009 8dbd cac3 c03c b2b1 6f3b 5e0f 1fbd
00000140: a4ba 9b3c 809b 44be 97e6 af3d 4fae 88bd
00000150: 9e52 523d 411c 363d 3bce e03d fa92 94bd
00000160: 59f4 5fbd 9086 883d cc31 64bd fdae 1bbd
00000170: 1c31 303e 47d0 b9bd eac7 b73d 20af 85bd
00000180: 3696 a6bd 6584 6dbd 684e 413c 835c 393d
00000190: 1a00 f9bd 65ae c43d a90f 853d 2e84 cf3d
000001a0: 6b24 a63d cf3c c53d bbaa 0d3c 9ceb 00be
000001b0: d207 e53d af37 153d bf3b d5bd e2b8 ffbd
000001c0: ed81 ed3b aea8 aabd 980a 5d3e 82ac 303e
000001d0: 9842 a4bd dcf8 4ebe 16ed 10bd 0098 6e3d
000001e0: 8135 13bd 1aa3 e03c 54f3 963d 6555 333d
000001f0: fecd 64bd b33e 54bd 31a8 693d 4ff1 373d
00000200: eb82 133d 45f1 dfbc 2695 2abd 89ad 173d
00000210: 9eed 49bb a078 7b3d bf3c 683d 09dc 7e3d
00000220: 34cd 85bd ae8b 0cbd 0a4a 21bd ec00 213e
00000230: f064 b73b 2c4c bbbd 7826 c4bd 9a07 4abc
00000240: 2cc0 ce3d c7f4 cdbd bdec e9bd 85ba 62bc
00000250: 6689 fa3d bc81 833c abad 77bd 3919 223d
00000260: 8541 00be 4067 583c e171 1d3d 07f0 743d
00000270: 2a01 29be 0e96 a23c 8354 14bd 344d 7abd
00000280: cdce 763d 4564 e93d ca83 343d e8ff b0bc
00000290: 5355 2c3d aa74 2cbd 96b8 803d 4016 c13d
000002a0: ec7b 79be 33fc c63c 5dca 933d 83e6 c0bd
000002b0: 511f 4abd ad79 a03c 2297 54bd b631 e5bc
000002c0: 9833 053e 4a73 edbd 9a94 7cbd 6de4 893d
000002d0: 4b94 a9ba abd1 153d b8ad 15bd 487e e2bd
000002e0: a3db 9cbd 5fa7 e13c 7401 16bd 6ca3 2b3d
000002f0: 08e5 5c3c a322 28be 1e27 50bd 3c3e 7ebd
00000300: 4ecc 91bc aa50 7f3d 0a3e 3a3c d6b7 973d
00000310: 0b60 df3c a8ef b5bd 4f40 d7ba 87a1 a9bd
00000320: 5e64 363d cd6d 74bd 394f 6abc 9ae1 8e3d
00000330: 6506 98bc 7d9c 8fbd 59f2 b4bc f271 a3bc
00000340: acd2 3dbd b186 9d3d ea1f b83c b16f 76bd
00000350: 5d4a b9bb 1e10 713c 2f4e 7bbd f633 2c3d
00000360: fb58 533d 87c8 b8bd 0822 ca3d 9071 343c
00000370: b119 053e 9522 04be 8054 97bd aec0 aebd
00000380: 2795 1c3e a49c 02be be69 573d 9cef f0bd
00000390: 6e66 413d fd59 d83d 04b1 f3b9 0d62 2a3c
000003a0: 650e 3cbd 20b3 b3bd a78f b7bd 7720 963d
000003b0: c327 cbbc b770 263d 6857 17bd 2b33 053e
000003c0: c152 02bd 281c cf3d 2f98 5bbd 0604 4b3d
000003d0: 677d 57bd 51a0 e9bc b492 aebc 594a 1fbe
000003e0: 89be 2abc ec8f 7ebd ba2d 193d 4f15 173d
000003f0: 0aaa 3e3e 4ec9 7e3c 32ff ee3c 92e5 423e
-0.10823985 0.013857999 -0.14868999 -0.0927746 0.029728886 -0.029633649 -0.022967538 -0.04220675
-0.117699794 0.081049174 0.020844184 -0.04805168 -0.07484877 0.041928247 -0.16133536 -0.11504515
-0.0898265 0.0847997 0.020912493 0.10968516 -0.102133945 3.998265e-05 0.04447373 -0.008603432
-0.06854391 0.04755969 0.08065976 -0.1226901 0.1251901 0.09492375 -0.015435249 -0.0998451
-0.09351311 0.12708248 0.113374665 0.02721137 -0.050650448 0.06105317 -0.00052782294 -0.20961
-0.11768299 0.07165587 -0.02383085 0.019886596 0.11738496 -0.051774062 -0.08868434 0.010874672
0.02966857 0.038861945 0.02773236 0.020973664 -0.23188776 0.21371134 0.056287907 -0.023150658
0.14784166 0.08005616 -0.013308933 0.19024315 -0.002087808 0.10209715 -0.18720517 -0.08615023
-0.04132384 0.14321974 -0.124017864 -0.01227224 -0.04799906 0.0018063008 0.0346046 0.032965332
0.18662497 0.16678672 -0.021022992 0.045888733 -0.06886661 0.02353086 0.003657442 -0.038833015
0.019009896 -0.19199944 0.085889034 -0.06673872 0.05134832 0.04446054 0.10976835 -0.07254596
-0.054676387 0.06666291 -0.055711553 -0.03800868 0.17206234 -0.09072929 0.089736775 -0.06527543
-0.08134119 -0.05798759 0.011798479 0.04525424 -0.121582225 0.096035756 0.064971276 0.10132633
0.08112415 0.09630739 0.008646662 -0.12589878 0.11183132 0.036430057 -0.10411786 -0.124864355
0.0072481544 -0.08332954 0.21586072 0.17253307 -0.08020514 -0.2021212 -0.035382353 0.058250427
-0.035939697 0.027421523 0.0737063 0.04378261 -0.055860512 -0.051817607 0.057045165 0.044907864
0.036013525 -0.027336726 -0.041646145 0.03703073 -0.0030811797 0.061394334 0.056698557 0.06222156
-0.0653328 -0.034312896 -0.03937725 0.15723008 0.0055967495 -0.09145388 -0.0957765 -0.012330914
0.100952476 -0.10056453 -0.11422107 -0.013838415 0.12233238 0.016053073 -0.060468357 0.039574835
-0.12524994 0.0132082105 0.03843868 0.05979922 -0.1650435 0.019846942 -0.03621341 -0.061108783
0.060255814 0.11396078 0.044070996 -0.0216064 0.04207356 -0.042103447 0.06285207 0.09428072
-0.24363679 0.02429018 0.07216332 -0.094189666 -0.049346272 0.01958927 -0.051901944 -0.027977806
0.13007963 -0.11594255 -0.061665155 0.06733022 -0.0012937872 0.036576908 -0.036542624 -0.110592425
-0.0765908 0.02754563 -0.03662248 0.041903898 0.01348234 -0.16419463 -0.050818555 -0.06207107
-0.017797615 0.062332787 0.01136733 0.07408111 0.027267477 -0.088836014 -0.0016422364 -0.08282762
0.04452931 -0.059675027 -0.014301115 0.06976624 -0.018557737 -0.0701227 -0.022088217 -0.019951794
-0.04634349 0.07691706 0.022476155 -0.06016511 -0.0056546167 0.014713315 -0.06135386 0.04204174
0.05159853 -0.090226226 0.09869772 0.011013404 0.12998082 -0.12903817 -0.07389164 -0.085328445
0.15291272 -0.12755066 0.052591078 -0.11764452 0.047216825 0.10564039 -0.0004648046 0.010399354
-0.045912165 -0.087744 -0.089629464 0.07330411 -0.024799233 0.040634837 -0.03694859 0.130078
-0.0318172 0.10112792 -0.05361193 0.049564384 -0.052609827 -0.028518828 -0.021310188 -0.15555705
-0.010421404 -0.062148973 0.037397124 0.036885556 0.18619552 0.015550924 0.029174421 0.19032887

model.4.main.1.weight f4 [32]
00000000: 9c6d 7c3f baf6 823f d956 803f 75ee 733f
00000010: 278f 803f cbf1 7f3f bcad 783f ec45 823f
00000020: 5f8c 823f 1bdf 7c3f 5918 803f b000 833f
00000030: 2975 7c3f 4f86 7c3f 7311 7e3f 9a95 7f3f
00000040: 2d92 813f 0956 7f3f 604b 803f 5967 803f
00000050: e976 823f 58da 813f 6023 803f 4be7 7a3f
00000060: a51e 7f3f d14f 7f3f fc55 7e3f 2676 803f
00000070: dc46 823f 7329 813f 2bf8 803f b69d 7c3f
0.9860475 1.0231545 1.0026504 0.9528573 1.0043687 0.9997832 0.971401 1.0177588
1.0199088 0.9877793 1.000743 1.0234585 0.9861627 0.9864244 0.99245375 0.9983765
1.0122734 0.99740654 1.0023003 1.0031539 1.0192538 1.0144758 1.0010796 0.98009175
0.99656135 0.99731165 0.9934995 1.0036056 1.0177875 1.0090774 1.0075735 0.9867815

model.4.main.1.bias f4 [32]
00000000: d2d3 3bbc 6832 d73c c6dd ad3b 66b6 ecbc
00000010: 7294 c93c 62e5 e63c f01f 7c3b 6843 403c
00000020: f28e 413c d869 133c 215d b63a a41a 483d
00000030: c33a a73a 18d6 d73b e00b 89bc c91b a3bb
00000040: 0a49 943b cd7f bc3c 19db 133d 0ceb 10ba
00000050: f944 773c 8361 043c e345 473c c20e 93bc
00000060: 87c4 5e3c d068 7ebb ea0c ef3b 6630 6f3a
00000070: db3c 6cba 6906 d93c d6cb 8239 7275 29bc
-0.011464076 0.026269153 0.0053059785 -0.028895568 0.024606917 0.02818555 0.0038471185 0.011734821
0.011813866 0.008997403 0.0013913253 0.04885353 0.0012758601 0.0065868013 -0.016729295 -0.0049776775
0.0045253085 0.023010159 0.03609762 -0.0005528189 0.015092128 0.008079889 0.012162658 -0.017951373
0.01359666 -0.0038819797 0.0072952406 0.00091243384 -0.0009011754 0.026492314 0.00024947402 -0.010342943

model.4.main.1.gate f4 [32]
00000000: de99 893f 60dc 923f 9384 883f 13cc 7a3f
00000010: c63d 843f f820 9d3f 45f3 873f f945 823f
00000020: 608e 8d3f a576 883f d7db 8a3f 0d3f 753f
00000030: 5402 763f db9b 893f 4e4a 833f 3728 7c3f
00000040: 4c98 743f 8a60 6b3f b9c0 703f 27d0 953f
00000050: c1be 7d3f a8c2 663f fb26 813f d427 5b3f
00000060: 5c81 843f d8e4 833f 14f0 843f 86d1 893f
00000070: 9327 833f 9a5b 433f c0cc 723f d2cb 823f
1.0750082 1.1473503 1.0665458 0.9796764 1.0331352 1.2275686 1.0621115 1.0177604
1.1059074 1.0661207 1.084834 0.9579933 0.960973 1.0750688 1.0257051 0.98498863
0.95544887 0.9194418 0.9404407 1.1704148 0.9911919 0.9014077 1.0090021 0.8560765
1.0351977 1.0304213 1.0385766 1.0767066 1.0246452 0.7631165 0.94843674 1.0218451

model.4.main.1.running_mean f4 [32]
00000000: 0f42 bebe 6c98 15bf 3746 00bf b40d 94bc
00000010: f684 73be 0c24 39be 95f4 0c3f f625 cbbe
00000020: 2b5a 89be 03f4 19be 6ee6 0a3f 29e8 b43d
00000030: 8766 35bf 48ba a9be 9567 8c3e 647e 3cbf
00000040: db28 6cbf c703 08bf c7b7 0dbd 8973 263e
00000050: ac33 cdbe b359 173e f657 e63d 8bf8 7c3e
00000060: 17e2 043e 1410 053f 6b90 a43e 0573 83be
00000070: 8b2c cbbd ade5 073f 30de a2be c7ff a03e
-0.37159774 -0.584357 -0.5010714 -0.01807294 -0.2378119 -0.18080157 0.550607 -0.396774
-0.26826605 -0.1503449 0.5425786 0.088333435 -0.7085957 -0.33149934 0.27422777 -0.73630357
-0.9224984 -0.53130764 -0.03459909 0.1625501 -0.40078485 0.14780311 0.11247246 0.24704187
0.12976871 0.5197766 0.32141432 -0.2567369 -0.09920605 0.5308483 -0.3181014 0.31445143

model.4.main.1.running_var f4 [32]
00000000: 55be 9040 6fd9 ae40 ca18 2d40 c048 8a40
00000010: b691 f940 983a ac40 0c4f 4d40 800b 1f41
00000020: 251c 3e40 152f 6940 17e3 a340 d457 5d40
00000030: d8c6 8140 51f4 5c40 eba3 3040 f7c3 fa3f
00000040: fc9e 5040 d39e 7140 9cdf cc40 1c95 5140
00000050: 90ae 9e40 1a93 1840 e738 7540 72b3 b740
00000060: 454c 6b40 741a 5b40 7e35 0540 a2c3 c240
00000070: 5cda 8d40 482a 8840 8a14 1d40 8c83 8240
4.523234 5.464042 2.704638 4.3213806 7.799037 5.3821526 3.2079496 9.940308
2.9704678 3.6434987 5.121471 3.4584856 4.055523 3.452412 2.7600048 1.9591054
3.2597036 3.7753189 6.402296 3.274726 4.958809 2.3839784 3.831598 5.740655
3.6765301 3.4234896 2.08139 6.086381 4.432905 4.2551613 2.4543786 4.078558

model.4.main.3.weight f4 [32, 32, 3, 3]
00000000: 1e37 37be e5e4 4dbd 15de 7e3c 0b9f 96bd
00000010: 1b06 b3bd e416 103c 1f20 9d3d 0948 14bd
00000020: 85c0 943d 79c4 d7bd 6bf5 18bd 5e9f 153d
00000030: 795b 8f3c d921 a13d 7168 57bd 2eaf cebd
00000040: 7e69 8bbd 2b7d bfbd c3af 87bc a17b d13d
00000050: cccc e0bd 32c6 453d 8518 5dbd 8421 413e
00000060: c989 79bc 7f8b 13bc 77c6 c83c 94ae 30bd
00000070: 7734 f8bc 23e6 11be 92ab 99bc 47fa 8abd
00000080: acbe 7abd 0e00 18be ccfe b9bd 0ee0 fbbc
00000090: 4484 b4bb 2db8 5dbc 0a13 883d a7e3 07bd
000000a0: 3d33 483e ebfa 76bd dcc8 d1bc 64ee bd3d
000000b0: ebc9 633d 32a7 13be 5818 47bb 552e 963d
000000c0: 199b a6bd 7663 0dbe 61ee 26bd 9796 e7bc
000000d0: e18e 87bd 7d98 1ebe 33dd b0bc d7ef d53d
000000e0: 7a4c aebd c6f8 aebb f3e1 893d c969 0dbd
000000f0: a82f 29bc 1c56 6ebd 05ec 30be ea07 f1bb
00000100: bfb0 f53c 7398 2dbd db31 8e3b 512d fabd
00000110: 33ab 77bc 083e f3bd 972d 6f3c 6cba 61bd
00000120: e57f 56bd 2753 01be 684b 543d 66b6 1bbd
00000130: c7db 75bd cfa2 01be de06 df3d 380c 9e3d
00000140: 85ef 353d 09b4 d93c 60a7 913d 1e31 c9bc
00000150: bbcc 1abe aa0e 73bd eb2d 1b3d 944d 4cbd
00000160: 82a8 283e 1cec 0fbe 1e8c 2b3d e262 29bd
00000170: d743 18be cb4d 393d d453 b53d 9966 49bc
00000180: a583 72bd 6285 3d3d d0b6 8f3d c93d e33d
00000190: 8b7d 943c d316 9cbd d3a4 ac3d 3377 d5bd
000001a0: 5205 a5bb a4af f6bb 8609 10bc 7302 143e
000001b0: a75b 85bc 6fdc 543d aed2 6b3e d154 b7bd
000001c0: bd1a 80bc 1cff 61bd a3f1 213e b27e 483b
000001d0: a535 1c3d e41c 7dbd cae4 45bd 4a1f 6a3d
000001e0: 8165 babc bb1c b63c 2fbf 06be a15f 87bd
000001f0: a3f7 7b3a 97b6 d5bc 57a5 dfbc 11a5 e8bd
00000200: 3ea2 7dbc 8306 e3bc a0cf 1a3c e3a9 8f3d
00000210: ddd1 aabc 8051 36be 0fce 953d ced6 a7bc
00000220: b651 e6ba 05ef ea3d 58f7 aabd ebbf 163e
00000230: d545 a7bd 75db c43b 7c93 60bd 6735 68bd
00000240: af4b 04be bd74 2d3d 65ae 803c 2cdc 713d
00000250: cb79 1cbe a554 cc3d 8afe ad3d fb26 27bc
00000260: f031 81bd 9330 8dbd 1670 053d df12 363d
00000270: e56d 8cbd ac62 77bd cbcc 15be f29f 963b
00000280: d83d 22bc cf99 cd3c 58d3 a0bc 6d54 f1bd
00000290: af36 07bb f569 71bd 0192 c43c 332d fdbc
000002a0: 8d0f 0dbd 21e0 a73d 5c91 c93d a24e abbc
000002b0: 9887 2fbd c22f d83c cefc 6bbd 9ccd a43c
000002c0: 263e 023d 68ff 26be 7088 b03d 41af 3c3e
000002d0: e556 7bbd d862 dc3c 183c 9a3d aded acbd
000002e0: 4869 073d 58b5 993d dcea 83bd a6bd 85bd
000002f0: 1772 a5bd 5cda 813c 72f8 b9bd 9fe2 68be
00000300: 15dd 533d 7480 18bd b72d 0e3e 5220 453d
00000310: 2ae9 943d 6416 d33d 0a1b 3d3e 85e0 95bd
00000320: aff1 d5bd 756e 5b3c 97f7 09bc d5e2 953d
00000330: 8b46 b43c 5504 a23d db51 883d 6ec4 5dbd
00000340: eeda c63c 0025 04be d224 b33d 1d3f 4dbd
00000350: 9853 993c ee40 d9ba 9d64 d0bd c2b5 97bd
00000360: 1918 26bd f42e b6bd 8bed 01bd fe30 7cbd
00000370: e838 1fbe faea 3cbe 3ef1 6fbd 6348 cabc
00000380: eed4 9abd 8f68 fabc beb8 1a3a 7666 193d
00000390: dc2e 453d deec be3d 2264 513d 10d6 0f3e
000003a0: 4ce1 9e3d 97cd bc3b ca54 65bd 19a3 04bd
000003b0: c731 003e d3b9 c53d 58ed d8bd 6901 533d
000003c0: 2cd8 f2bd cf75 a0bd 3a7f 7abc be86 a73d
000003d0: 2a5a 1a3d af7a c93d 06c5 433b 8f85 f8bc
000003e0: 6001 98bd ae1c 583d 3038 e43d c3e5 e1bd
000003f0: 7c33 e2bd a0d7 ffbd 0bac c0bc 5b80 ab3b
-0.1789212 -0.05026712 0.015555878 -0.07354554 -0.08741399 0.00879452 0.07672142 -0.03620151
0.07263283 -0.10535521 -0.037343424 0.036528938 0.017499672 0.07867784 -0.052589837 -0.100920066
-0.068072304 -0.09350046 -0.016563302 0.102286585 -0.10976562 0.048284717 -0.05397846 0.18860441
-0.015230604 -0.009005426 0.024508698 -0.04313524 -0.030298455 -0.14247946 -0.018758569 -0.06786018
-0.061216995 -0.14843771 -0.09081802 -0.030746486 -0.0055089314 -0.01353268 0.066442564 -0.03317609
0.19550796 -0.060297888 -0.025608473 0.09273985 0.055612486 -0.14419249 -0.00303795 0.07333056
-0.08135051 -0.13807473 -0.04075468 -0.028270049 -0.06619049 -0.15487857 -0.021589851 0.104461364
-0.085106805 -0.0053397147 0.067325495 -0.034524713 -0.010326304 -0.05818759 -0.17277534 -0.0073556798
0.029991506 -0.042381715 0.0043394393 -0.12215675 -0.015116501 -0.11877066 0.014598272 -0.055109426
-0.052368063 -0.12629376 0.051829726 -0.038015746 -0.06002405 -0.12659763 0.10889982 0.07717174
0.044417877 0.026575105 0.071120024 -0.024559554 -0.15117161 -0.059340157 0.037885588 -0.04987867
0.1647053 -0.14054912 0.041881673 -0.041354068 -0.14869629 0.045240205 0.088538796 -0.012292528
-0.059207577 0.046269782 0.070172906 0.11095769 0.01812627 -0.07621541 0.08429875 -0.10423126
-0.0050360346 -0.007528262 -0.008791333 0.1445406 -0.016279055 0.051968034 0.23029587 -0.08951724
-0.01563775 -0.055174932 0.15814833 0.0030593094 0.038137097 -0.06179513 -0.048313893 0.057158746
-0.022753479 0.022230497 -0.13158868 -0.06610037 0.0009611791 -0.026088042 -0.02730052 -0.11359609
-0.015480576 -0.027713066 0.009448916 0.07014825 -0.020852024 -0.17804527 0.07314693 -0.020488169
-0.0017571959 0.114713706 -0.08347958 0.14721648 -0.08167616 0.0060076066 -0.054828152 -0.056691553
-0.12919496 0.04234766 0.015708158 0.059047863 -0.15280835 0.09977082 0.08495815 -0.010202165
-0.06308353 -0.068940304 0.032577597 0.04445159 -0.06856898 -0.060396835 -0.14628904 0.0045967037
-0.00990244 0.025097756 -0.019632027 -0.11783681 -0.002063196 -0.05893894 0.023995401 -0.030905342
-0.03443866 0.08197046 0.09842178 -0.020911518 -0.04285392 0.02638996 -0.05761414 0.020117573
0.03179755 -0.16308367 0.086197734 0.18426229 -0.061362166 0.026902601 0.07530993 -0.084437706
0.03305939 0.07505292 -0.0644128 -0.06530313 -0.080784015 0.015851192 -0.0908059 -0.22742699
0.051724512 -0.037231877 0.13884626 0.048126526 0.07271035 0.10307005 0.18467346 -0.07318214
-0.10446488 0.013393034 -0.008420846 0.073186554 0.022006294 0.079109825 0.06656238 -0.054142408
0.024274316 -0.1290474 0.08747257 -0.050109018 0.018716618 -0.0016575137 -0.101754405 -0.074077144
-0.040550325 -0.08895674 -0.03172068 -0.06157016 -0.15549052 -0.18449011 -0.058579676 -0.02469272
-0.07560144 -0.030567436 0.00059021625 0.03745123 0.04814039 0.093225226 0.051120885 0.14046502
0.07757816 0.005761813 -0.055989064 -0.032382105 0.12518989 0.09654584 -0.10592145 0.051515017
-0.11857638 -0.0783497 -0.015289122 0.08179997 0.037683643 0.09837853 0.0029872074 -0.030337123
-0.07422137 0.052761726 0.111435294 -0.11030152 -0.11044976 -0.12492299 -0.023519536 0.005233807

model.4.main.4.weight f4 [32]
00000000: ee3f 783f 9566 723f 7fd8 7b3f 9c86 7b3f
00000010: a705 793f afc4 7d3f df58 7c3f 3c80 7b3f
00000020: e8d8 7d3f f4fe 7d3f 6f58 7b3f 4152 7b3f
00000030: 7abf 793f 9796 763f da8e 803f 3f2f 793f
00000040: aac5 7d3f 87a9 7b3f cc1c 7e3f 40d7 7a3f
00000050: d266 7e3f d72f 813f 2b7a 773f 0271 7c3f
00000060: 912d 803f 86d4 803f 5262 803f 648d 793f
00000070: 30a1 7c3f 3a50 783f e732 7d3f 4161 783f
0.9697255 0.9468778 0.9837722 0.9825227 0.9727425 0.9912824 0.98573107 0.98242545
0.991591 0.9921715 0.98181814 0.98172385 0.97557795 0.9632353 1.0043595 0.97337717
0.99129736 0.98305553 0.9926269 0.97984695 0.9937564 1.0092725 0.9667079 0.98609936
1.0013906 1.0064857 1.0030005 0.9748137 0.9868345 0.96997416 0.98905796 0.970234

model.4.main.4.bias f4 [32]
00000000: 70e4 383c 0687 fd3b 6476 dcbc d1ee 4b3c
00000010: 4837 d13b e575 173d 5d09 94bb 5105 e3ba
00000020: 3d5c a8ba b2d0 b23c 64a9 a53d b34f 383d
00000030: 4da7 443c 098f 103c c174 98bc 5d20 02bb
00000040: 402e c13c bbfc 143d b75d 143c b2a2 02bc
00000050: 1271 413c 5e53 a03b 698f f13c 919d 373d
00000060: a436 db3b bab0 363c a150 2c3d 1cd5 0a3d
00000070: 162f 79bc c774 1d3d 4c18 913c 8098 2ebd
0.0112849325 0.0077370433 -0.026911922 0.012447075 0.006384764 0.036977667 -0.0045177178 -0.001732031
-0.0012844872 0.02182803 0.08088949 0.044997882 0.012002778 0.008823165 -0.01861036 -0.0019855716
0.023581624 0.036373835 0.0090555465 -0.00797336 0.011806743 0.0048927506 0.029487329 0.044828
0.0066898633 0.011150533 0.04206908 0.033894643 -0.01520898 0.038441446 0.017711781 -0.042625904

model.4.main.4.gate f4 [32]
00000000: ce8d 813f 62b1 853f 1ed1 803f ee49 893f
00000010: 156a 813f 9273 893f e254 673f f6c2 853f
00000020: 742d 7f3f c2e2 913f 50d8 6f3f 5071 703f
00000030: ac2d 6c3f a31a 753f 3fd5 7d3f d7b9 6f3f
00000040: e9e3 833f 6b67 7c3f 08cf 7f3f 4065 7a3f
00000050: 4b5e 863f 348b 793f 06d9 6f3f 6831 7d3f
00000060: c443 873f 86e9 513f 0abd 8c3f 17e6 7a3f
00000070: 6dc4 7f3f 1177 6e3f f891 823f a6df 963f
1.01214 1.0444758 1.0063818 1.0725687 1.0110499 1.0738394 0.90363896 1.0450122
0.9967873 1.1397326 0.9368944 0.939229 0.9225719 0.9574377 0.9915351 0.93642944
1.0303928 0.98595303 0.9992528 0.97810745 1.0497526 0.9747803 0.93690526 0.9890351
1.0567555 0.81996953 1.099519 0.9800734 0.99909097 0.9315043 1.0200796 1.1787002
