checkpoint/clf/experiment_name/500/netG.pth (torch, 244594 bytes, 32 tensors)

model.0.bias f4 [32]
00000000: 6d12 78bc f569 a7bb 9e67 993c 1d12 8e3d
00000010: 5dcc dfbc 15be 783d d1a6 b33c fd0b e0bb
00000020: 65cb 6bbd 65b4 553d 7028 b43b 7fc6 1bbd
00000030: b2f8 393d b27d ee3c 8e61 b23b 6644 1e3c
00000040: 77b0 bebc 6adf e63c 2988 44bd fa50 27bd
00000050: 233c dc3d 0fee abbc 89d9 083d d8da 8bbc
00000060: 6e97 afbb f580 3cbd 13ce 79bd 2007 49bd
00000070: a8ae 813d bd18 5e3d 467b e93c 93ae 4dbc
-0.015141112 -0.0051090666 0.018726166 0.069370486 -0.027319128 0.06072815 0.02193013 -0.0068373666
-0.05756702 0.05217399 0.0054979846 -0.038031098 0.04540319 0.02911267 0.0054437583 0.009659862
-0.023277504 0.028182704 -0.047981415 -0.04084871 0.10753658 -0.020987539 0.033410583 -0.017072126
-0.005358628 -0.04602142 -0.060987543 -0.04907906 0.06332141 0.05422281 0.028501164 -0.012553829

model.0.weight_orig f4 [64, 32, 3, 3]
00000000: 83f4 d7bb 5b0f 09bc 5a73 d03b 449a 563c
00000010: f91c 393d e4a5 08bd 14a2 ad3b 4a14 363d
00000020: 3eef 963c 5c7c 043d 66e5 883d d234 f7bc
00000030: 1e6b a13c 6386 3b3d 1b69 d5bc fbdd d23b
00000040: 04db c93b fb7d 2bbd 223a 6b3d 159c 7bbc
00000050: 7fa9 fa3a 6886 19bd d139 1abb 3fc6 05bc
00000060: cd34 e9bc 69a5 43bd b89b c1bc 01a3 68bc
00000070: f716 803c 6d87 493d aacc 703d fe94 ae3d
00000080: 8270 f23b 0cf4 4c3d 6d4e 86bc 869a 893d
00000090: d2b6 bebc 3167 80bd 2d72 5bbd c4bc 3dbd
000000a0: 03df 8a3b 4166 d03c f99a 28bd aa55 4bbd
000000b0: b7ab 78bd 8f57 9fbb 21ab 0f3d 2ab7 e73b
000000c0: d7a8 92bc 45bc 1cbc f9b3 34bd 3ba4 47bc
000000d0: dde4 1b3d cfae 84bd 6328 ebbb d576 09bd
000000e0: e753 68bd dd12 8b3b 9910 dabc 4897 523d
000000f0: 1bc0 fc3c 6555 0ebd 23c6 77bc d1fb 263d
00000100: ceb8 fdbc 6ad6 6cbb 297e cabb 8354 d33c
00000110: 84ac 5abd 0255 a0bc 37cd 21bd a62a 31bd
00000120: 5ba6 3dbd 6d7f 053d 191a 1a3d 5c89 42bd
00000130: 4d1a 863b ce0b eabc 760d 1b3d 72f3 24bd
00000140: 9f78 543d cdd4 57bb f6af 713d 0874 8dbc
00000150: 6cc1 d23c a860 74bc 88aa 6e3c 9a02 823d
00000160: 3530 d2bb dc68 44bd ec1f 4c3b 6ec2 5fbd
00000170: 91d0 183d e15a 10bd f3f8 e93c 9bfe bbbb
00000180: 2c46 79bc c200 3e3d 25c7 33bd 4878 5fbd
00000190: 9419 0e3d f4a8 b1bb 9274 4ebd aef2 51bc
000001a0: e645 933c 019e 993c 79db 67bc 8134 d83b
000001b0: bdef 2d3c 6f77 413d 926c 2cbc 7a7e 773d
000001c0: 1968 a63d b732 aebc 8afd a8bb 85ab 533c
000001d0: 4cac f1bc 68cb 9dba 01b0 f2bc a553 e5ba
000001e0: 06e5 f83c 874a a53b 741e 46bd 5292 e53c
000001f0: 8329 5dbd 1c3c cdbc c3b0 8f3c 0806 38bb
00000200: 1a26 0c3d 81b7 79bc 9044 9c3c b0d1 153d
00000210: b5ac 12bd 7c21 6d3d 3123 1abd ca78 ec3c
00000220: 80aa df3c 194b 4a3d 7f47 483d d1c6 44bd
00000230: 9e1c 9b3c df6b 01bd 7ede 3cbd 1da4 c6bc
00000240: 3c95 133d 5826 52bd c841 1fbd 18c0 453c
00000250: d0c9 67bd 89b7 1e3d a5f5 303d 926b 06bd
00000260: 24b8 093d 6e15 5a3d b7cb a23b 6ecf e03c
00000270: 386f 543d 126b 053c 451b 31bc 522f 583d
00000280: 62c2 683d 927c 9dbc 28b8 4a3d 8fe7 3abd
00000290: 8ac1 963c fd46 103b 05d4 963c 35ba 6ebd
000002a0: 50e2 073d b943 243d 4a4e ca3c ab8c ef3c
000002b0: f962 ecbc a65d c03c 24dd 9fbc 1246 da3b
000002c0: a3bc 6e3d 6953 e63b e260 6f3c 651f c63c
000002d0: 234d 053d 975a 61bc 8133 0bbd 4a2e 5a3d
000002e0: 047b 85bc e733 653d e62b 593d e62e e0bb
000002f0: 7eef df3c deda 95bc 2450 603d e2a3 08bd
00000300: 3b70 4abd 948c 9e3c 943e 25bc 4d1d 543d
00000310: 1b0f 753b 167b 5cbd 2ac8 653b 5c79 73bd
00000320: 64c4 9d3b 2a70 fc3c 922c 323d 96b5 fbbc
00000330: 77cb 3ebd 7394 3fbd c93e 11bd 019c 233b
00000340: ff59 833c ed66 b8bc 6c13 43bd fe31 da3b
00000350: 70ff 4a3c 7a6f 10bc 8b2a 68bd c372 3fbd
00000360: 51f5 fcbc fdae 1abc fa28 6e3c 0b6e 4cbd
00000370: fd6b 323d aa17 be3c b51d 0cbd efad 57bb
00000380: 1d39 6e3d b267 4bba 0de7 8c3c 8f1f 21bd
00000390: d180 42bd 6912 e93b 9efe 1a3d 6b27 4e3d
000003a0: 1f81 753d abd1 0b3d 1aa5 113d 44e9 90bc
000003b0: 59cb 85bc c64d 153d 6cd9 0abd fa34 20bd
000003c0: 4728 d73c a1e8 a6ba 2083 b73c db0f 30bd
000003d0: 5ae5 773d 52d5 e8bc 41f6 d63b ad5a 02bc
000003e0: bd8c d9bc 9664 723d c3e0 073d 16f7 b03c
000003f0: 2d6c 173d 82b7 033d 082d 6fbc d455 4cbd
-0.0065904274 -0.008365477 0.006361407 0.013098303 0.045193646 -0.03336133 0.0052988622 0.044452943
0.018424626 0.03234516 0.06684379 -0.030176554 0.019704398 0.045782458 -0.026051095 0.0064351535
0.006160142 -0.04186819 0.057428487 -0.015357037 0.0019124 -0.037481695 -0.0023532996 -0.008164941
-0.02846756 -0.04776517 -0.023633823 -0.014199019 0.01563595 0.049201418 0.058788933 0.08524512
0.007398666 0.05003743 -0.016394818 0.06718926 -0.023280535 -0.06269682 -0.053575683 -0.0463226
0.004238011 0.025439383 -0.04116342 -0.049642242 -0.060710635 -0.0048627327 0.03507531 0.0070713954
-0.017902775 -0.009566371 -0.044116948 -0.012185152 0.038060058 -0.064786546 -0.0071764453 -0.033560593
-0.05672064 0.004244192 -0.026619243 0.051413804 0.030853322 -0.034749407 -0.015122923 0.040767495
-0.03097191 -0.0036138543 -0.0061795902 0.025797134 -0.05338718 -0.019571785 -0.03950235 -0.043253563
-0.046301227 0.032592226 0.037622545 -0.047494277 0.0040924908 -0.028570082 0.037854634 -0.04027123
0.051872846 -0.0032933236 0.0590057 -0.017267242 0.025726996 -0.014915623 0.014567025 0.063481525
-0.006414438 -0.047951564 0.0031146957 -0.054628782 0.03730828 -0.03524292 0.028561091 -0.0057371384
-0.015214484 0.04638744 -0.04389109 -0.05455807 0.034692362 -0.005421752 -0.05040414 -0.012814207
0.017977666 0.0187521 -0.014151447 0.006598056 0.01061624 0.04723304 -0.010523932 0.06042335
0.08125324 -0.021264417 -0.0051571773 0.012919311 -0.029501103 -0.0012038769 -0.02962494 -0.0017496241
0.030382644 0.0050442847 -0.048368886 0.028023873 -0.053994667 -0.025053076 0.017540341 -0.0028079767
0.034216024 -0.015241505 0.019075662 0.036576927 -0.035809238 0.05789326 -0.037631217 0.02886619
0.02730298 0.049388025 0.04889631 -0.04804117 0.018934544 -0.031597015 -0.046110623 -0.024248177
0.036030993 -0.0513061 -0.038881093 0.0120697245 -0.056588948 0.03874925 0.043203015 -0.03281743
0.033622876 0.053243093 0.0049681324 0.02744266 0.05186388 0.008143203 -0.010809724 0.052779503
0.056826003 -0.019224439 0.04949203 -0.045630988 0.018402833 0.0022014969 0.018411646 -0.05828305
0.033174813 0.040103648 0.024695534 0.02924188 -0.028855788 0.023482155 -0.019514628 0.006661185
0.058285367 0.0070289862 0.014610501 0.024184892 0.032544266 -0.013754508 -0.033984665 0.0532668
-0.01629401 0.0559577 0.05302038 -0.006841528 0.027335878 -0.01829284 0.054763928 -0.033359416
-0.049423438 0.019354142 -0.010085721 0.051785756 0.0037393037 -0.05382832 0.0035061934 -0.05944191
0.0048146714 0.030815203 0.043499537 -0.030726235 -0.046580758 -0.04677243 -0.035460267 0.0024964812
0.016034124 -0.022510016 -0.047625944 0.0066587916 0.012390003 -0.008815641 -0.056681197 -0.046740305
-0.030878695 -0.0094411345 0.014536137 -0.049909633 0.043560017 0.023204643 -0.03420802 -0.003291007
0.058159936 -0.0007759287 0.017200017 -0.039336737 -0.04748613 0.0071127904 0.037840478 0.05033056
0.059937593 0.0341355 0.035557844 -0.017689355 -0.016332315 0.036451124 -0.033898756 -0.039113022
0.026264323 -0.0012734124 0.022401392 -0.04298387 0.06052146 -0.028422032 0.0065601175 -0.007956189
-0.026556367 0.059177957 0.033173334 0.021602195 0.0369684 0.03215743 -0.014598139 -0.04988654

model.0.weight_u f4 [32]
00000000: 811e b93d 34b2 833e cf8b 9f3d 8825 b33e
00000010: 2da1 b9bc 0bc0 653c 0477 bfbc 8b20 12bd
00000020: 6586 33bd f391 6f3e 440d 32bd d14f c4bd
00000030: 8d53 483e 4a85 d5bd 6f17 ba3b a070 89bd
00000040: 355b 18bc 3f2f b93e 178a 14bd 733d 79bd
00000050: 5818 343f 709d 093d f9fa aebd 5b88 cbbc
00000060: 75b1 753d 313c f13c 83b6 62bd 9b65 3c3d
00000070: 74f1 b7bd 1928 2d3d a853 843d 7485 c93d
0.09039021 0.25721896 0.07790338 0.34989572 -0.022659862 0.014022837 -0.02337218 -0.035675567
-0.04382934 0.23395519 -0.043469682 -0.09585536 0.19563122 -0.104258135 0.005679063 -0.06710935
-0.009299089 0.36168858 -0.036264505 -0.06084962 0.70349646 0.03359741 -0.08543963 -0.024845293
0.05998369 0.029447647 -0.055349838 0.045995336 -0.089816004 0.04227457 0.06461269 0.09839907

model.0.weight_v f4 [576]
00000000: 3593 0a3d f72f 443d c2d8 20bc f63a a73d
00000010: d7f9 313d 90a8 073d bc90 ac3d c882 003d
00000020: 9880 2e3c 07f6 9c3c 4bcd 163d 8a60 a43d
00000030: 72f5 5f3d 8671 a73d 48fb cc3d be2d 8a3d
00000040: e9d4 ab3d 483c a63d 4dc8 2f3c 7388 0a3d
00000050: 5e11 913d db04 b03c 6c18 e23c 8151 4e3d
00000060: b567 443d 2cb1 aa3d c89a a43d f5f2 e43c
00000070: 91ef 393c 103b b53b f752 303d 0cf8 013d
00000080: 6f67 c5bb 4ab9 553d 5086 a13d 5a87 903c
00000090: e818 2b3d a600 673d 98a0 8a3d 31bd e43c
000000a0: e3e2 5a3d 1aef df3d 8e5a c7bc d761 733d
000000b0: 4d25 683d 2370 223d c8cd 7e3d 7323 96ba
000000c0: 7114 173d c1ae 953d eafb 853c 39f4 063d
000000d0: 263c 1d3d fdc0 883b 4f1a 193d 6e7a 273d
000000e0: c978 9f3d f45e 693d e275 6c3d 8369 243d
000000f0: cb86 ae3d ef6c 533d e296 503d b74b 993b
00000100: 9072 1e3d 8b1d d73b 3a22 053d 6860 e43c
00000110: 9a53 8fbc b04e 493d a01e 0fbc 605f f139
00000120: a671 e13c 25c4 ab3d 2680 ea3d 32dc f83d
00000130: df42 cb3d 0da6 ec3d 239b 3f3d dbb2 3e3d
00000140: 2e31 fe3c bc14 d13c a63d 823d 865d fb3c
00000150: eecb d13c a82c ae3d 8527 3b3b ab22 2c3c
00000160: 4ae1 94bc b2b9 403b 06eb 15bc 1aa2 8c3c
00000170: 3fb2 2ebb aa23 0b3d 012a 613c c533 6ebb
00000180: 4e23 463d b3ff 493d fd2d c23c 2829 a83c
00000190: d338 823c 6f06 f6bb 2eea 27bc 9da7 49bc
000001a0: f3fa 0abc 300a 343c 82fd 90b8 0346 d73b
000001b0: ecda 95bc b9dd 923b 6878 073d 8a67 97bb
000001c0: a3b3 8b3d 44cb 8c3d b5bc f63a b5c9 883c
000001d0: ae3a ae3d 19cc f93c d13e 13bc 0b62 e23c
000001e0: 433f ff3c 75e9 8f3b 8406 e53c b2ab c63c
000001f0: 59fc ec3b 68b9 453d 1400 573d f34d 993d
00000200: f7e2 4d3d 5755 8c3c 0502 0a3d 6d7b 983d
00000210: 9e79 933d 5749 993d 501a 323d 9173 763d
00000220: 84dd 713d fcaa 41ba b3fe 813d eaf9 8a3d
00000230: 15e3 3f3b 19e7 753d 6dd7 643d 14a2 68bc
00000240: f633 643d 31fa 9f3c d8a8 a43d aef0 bfbc
00000250: 1ab3 0d3d d3f2 7d3d 263b 503c cd1e 893d
00000260: 8927 763d 5a8d 443d c550 f73c 42b3 223d
00000270: 0ba6 483c 339a 413d 92b0 c73c c376 d73c
00000280: f53a 013d bab1 9f3c 82cb cf3d 46d4 083d
00000290: afd1 dc3c 2b62 a13d 3fbc 263d 3f0f a13d
000002a0: 3b97 773d 08bb 243d 4b35 2f3d 343d 093d
000002b0: d659 74bb 1bab 073d 4918 b1bb 01da f83c
000002c0: 095f d83c 6d01 563d a7df 3a3d a020 383d
000002d0: 9f99 ff3c a009 843d e265 bc3d 37de ba3d
000002e0: ae8f ed3c cb1c 893d fa16 d03d a0cb 3e3d
000002f0: f38c 783d 2855 803d 61c6 2f3d b695 0a3d
00000300: 3c1a ae3c afb9 8a3c 05f0 1e3c e951 483c
00000310: c6af d73c 90c7 3a3d 2c08 383c 0995 1c3d
00000320: 53c9 7fbc 981d 42bc c8cf a73b 59d4 0e3c
00000330: 1aa7 663c a1cc 403d f7b7 513c 7442 44bb
00000340: b987 de3c af6a a73c 6f13 713d 876e b13c
00000350: 142d 32bc e452 243d 52e6 8b3c 2f5a 673c
00000360: bcda b43c 1ead 183d e382 eb3b 5ece 60bc
00000370: 6bc4 68bc c217 be3c ea71 ad3c 8b43 893b
00000380: e8f0 0d3d d847 9ebb e11a 62bc c340 c1bb
00000390: 6482 023d 3c18 513d 92b9 1b3d 66b8 363b
000003a0: 6844 d4ba 1be6 ceba 3b2b 723d 86da c23d
000003b0: 6512 8f3d 24f6 623d 0295 903d 34b6 863c
000003c0: 9752 83ba 5525 9d3d 7bfa 8c3c b163 743c
000003d0: b8a1 2b3d dcb3 533d 9999 793d 9e4b 4b3d
000003e0: b812 803d 07b6 833d 86be 403c 1d76 733c
000003f0: eb41 4e3d 1608 533d 2113 053d 317e 2b3d
0.033831794 0.047897305 -0.009817304 0.08165543 0.043451156 0.033119738 0.084260434 0.031374723
0.010650776 0.019160284 0.036816876 0.08026226 0.054677434 0.0817595 0.100088656 0.06747006
0.08390219 0.081169665 0.010728908 0.033821534 0.07083391 0.02148669 0.027599536 0.050370697
0.047950465 0.08334574 0.08037335 0.027947882 0.011348621 0.0055307224 0.04304787 0.031730697
-0.006024293 0.05217866 0.07886946 0.017642666 0.0417718 0.056397103 0.06768912 0.027922245
0.053439032 0.10934277 -0.024335172 0.05941948 0.056676198 0.039657723 0.062207967 -0.0011454656
0.03688473 0.07308722 0.016355474 0.032947753 0.03838744 0.0041733966 0.037378605 0.040888242
0.0778671 0.05697532 0.05772961 0.040139686 0.085218035 0.05161756 0.050925143 0.0046782154
0.038683474 0.006564801 0.032503344 0.027878001 -0.017495919 0.049147308 -0.008735329 0.00046038162
0.027520012 0.08387021 0.114502236 0.12151374 0.09924864 0.11555109 0.04677881 0.04655729
0.03102931 0.025522582 0.06359415 0.030684244 0.025609937 0.08504611 0.002855749 0.010506312
-0.018173832 0.0029407558 -0.009150272 0.01716714 -0.0026656536 0.03396956 0.013742925 -0.0036346775
0.048373513 0.04931612 0.02370357 0.020527437 0.015896237 -0.007508091 -0.010248704 -0.0123080285
-0.0084826825 0.010988757 -6.9136746e-05 0.0065696253 -0.018292867 0.004481998 0.033073813 -0.004620497
0.06821372 0.06874707 0.001882455 0.016697744 0.08507286 0.03049283 -0.008987145 0.027634641
0.031158095 0.004391844 0.027957208 0.024251793 0.0072322306 0.04827252 0.05249031 0.07485571
0.05026528 0.017130537 0.033693332 0.074454166 0.07200931 0.074846916 0.043482125 0.060168806
0.059049144 -0.00073878444 0.06347408 0.067859486 0.0029279639 0.060034845 0.05586951 -0.014198799
0.055713616 0.01952848 0.08040017 -0.023430195 0.034594633 0.061999153 0.012709415 0.06695328
0.060096297 0.047986366 0.030189881 0.039721735 0.012246619 0.047266196 0.024376187 0.026301747
0.031550366 0.019493926 0.10146238 0.033405565 0.026955454 0.07880052 0.04070687 0.07864236
0.06044696 0.04021743 0.042775434 0.033505633 -0.0037284992 0.033122163 -0.0054045063 0.03037739
0.026412504 0.052247453 0.045623448 0.04495299 0.031201182 0.06447148 0.0919912 0.09124415
0.028999176 0.06694945 0.101606324 0.04658091 0.060681295 0.06266242 0.0429138 0.03383418
0.021252744 0.016934244 0.00970078 0.01222656 0.026328932 0.045600474 0.011232417 0.03822807
-0.015611964 -0.011847876 0.005121205 0.00871762 0.014077926 0.04707015 0.012800208 -0.0029946836
0.027164327 0.020436613 0.058856424 0.021659149 -0.010875005 0.040118113 0.017077599 0.014120623
0.022076957 0.037274472 0.007187234 -0.013721077 -0.014206986 0.023204688 0.021172483 0.00418896
0.034653574 -0.004830342 -0.013800354 -0.005897613 0.03186263 0.051048502 0.03801877 0.0027880906
-0.0016194703 -0.001578513 0.05912326 0.09514336 0.0698593 0.05541052 0.07059671 0.016444303
-0.001001912 0.07673136 0.017209282 0.014916346 0.041902274 0.0516852 0.060937498 0.04963266
0.0625357 0.06431203 0.011764174 0.014859703 0.050355833 0.051521383 0.032488946 0.041868392

model.2.main.0.weight f4 [32, 32, 3, 3]
00000000: 8bbc 293e d698 603d 74dc b83d 7ab3 51bd
00000010: 9b71 26bd 0d72 633d 786d b93b 8719 d8bd
00000020: 5992 cb3d f6bc 373c 8fb6 ae3d c955 cc3d
00000030: eeac 833d 7195 153e 1510 76bc 3789 4f3e
00000040: 437a 81bc 15ec 133d bd50 383e 4f45 d33c
00000050: a74c c8bb f8fe 2ebd ac6e a63d f4b9 62bb
00000060: 9e3c cdbd 8ba6 20be 4145 7a3d 7f0c 94bd
00000070: f336 4fbe 2228 9dbc 4c4d 0b3e e8fd 403d
00000080: ffa4 44bb 3325 b83d f570 09bd 8ba3 0bbe
00000090: cc41 cbbd 2a42 94bc 3eaa ea3d 86e2 89bd
000000a0: a773 063a e6e1 ba3c c769 2cbe 315f 173e
000000b0: 49b9 cdbc 267d 523d 9a15 e3bd c661 e0bc
000000c0: 58ca 0a3d 3325 44bd 0ff5 313e 5953 49be
000000d0: ffec 6f3c 83f7 21bd 64ad ff3c 4e46 02be
000000e0: b2a3 cebd 1624 efbc c530 01be 9e23 ebbd
000000f0: 40b9 e2bb 474a 2dbb 18d6 c73b 73b4 e83c
00000100: 716d 43be c43e 2bbd 1973 643d 2e49 0dbe
00000110: 1b8d 72bd 58ea fdbc 5653 1d3d 84f1 093c
00000120: 8372 7abc e1e2 1d3d 25da e43d 8d77 2d3d
00000130: c868 d03d 5587 4abd aaa9 a5bc fea0 31bd
00000140: 5511 043e 3ea6 d4bd b3a1 ddbb b335 88bd
00000150: 18b4 49bb ae50 6fbd 7add b23d 90c5 943c
00000160: 5b20 5f3d e3b9 7fbd 5c41 d13c 21a4 213c
00000170: f685 c1bd f89b 8cbd 6dd7 e6bd 4d99 2a3e
00000180: a184 c13c 9fa7 03be dbc3 b0bd 1407 6ebd
00000190: fa46 97bd 99fc 5d3d 1c03 cdbd fbd0 c53d
000001a0: e568 193d cb45 933e 8333 283d 3764 ce3d
000001b0: 4203 9cbc 35f9 893b 431d 60bc 94fb 73bd
000001c0: a1af 153d 1889 36bd 3115 3ebe 2992 b03d
000001d0: 93bc b4bc 04ea d6bc 25f0 363d 2b6b eabc
000001e0: e3d1 033e 7dd5 113e 9e05 92ba 35e2 273e
000001f0: 152a 0abe 32d3 1cbd 9da2 263c 33ac 9abc
00000200: c3f0 7d3d 536b 8f3d f578 883d 42b3 30bc
00000210: 1b0f 953c 9b10 643d c612 913d 6141 683e
00000220: 6481 273e 77f1 86bd 9e9a f2bd a3cc 843d
00000230: 65d3 d93c 208f 423d 9679 573c 9bd3 983c
00000240: 837f 8d3c d4cc 86bd 8411 2cbc 9443 1d3b
00000250: c2f3 12bc 921c 3e3c 7d20 853d 0c58 2fbe
00000260: 57bf 143d 92ea 8a3d f468 87bd a975 923d
00000270: bdf2 1b3d 34e0 843a 987f 963c 8c28 0ebe
00000280: 8336 c1bd 62bd 50bd 9c6b 323a 4e52 99bc
00000290: 16d7 be3c 4ad8 2c3d 1a76 a23d 6824 e23b
000002a0: be7e 18be 0ab9 27bd f8fa 2e3c f0e5 edbc
000002b0: 673e aebc 5dd9 04bd 3158 963d 2a03 b6bd
000002c0: bb8d 00bb f12b 023d 959e 003e 380c a03d
000002d0: 0d78 1f3e 520e 2ebd 4f6c f9ba d37a c13d
000002e0: 8674 6dbc ad04 1ebd 6410 c5bc ab74 c93d
000002f0: 87e3 fc3d 01a8 c2bd e99c 283c 698e f83c
00000300: 5833 943d 5784 0ebd c283 90bc 38ea 133d
00000310: bda7 87bd 7270 0c3e 40b4 d13d 7f86 5abd
00000320: 74e8 4ebd bfe5 b6bc 1e4d 05bd cda5 aabd
00000330: 3bb7 d13c aea3 b9bd 42e3 62bd 930d 0b3e
00000340: e32e 3cbc 0c9f 28bd c9a3 a7bc 9e6d 0dbd
00000350: 05ed 3bbd 8010 c7bc 6a40 9e3c db7d 78bd
00000360: 85b3 0cbe d84e d33d c65e 24be c977 07be
00000370: 0c61 373d adf5 353e 19fc d23b 0969 9bbc
00000380: 5354 10bb 56db bbbd bdf5 b23c 8efd 46bd
00000390: 570c f8bd 5fab 35bd b1c6 cf3c 937c aa3d
000003a0: fa33 bcbd 1874 b1bb 2f3e 2dbe 7153 683d
000003b0: c120 c6bc 851c 113b fd23 803d 43bb b63c
000003c0: 4df6 8ebd 8829 95bc d23f 9dbd 64c5 153d
000003d0: f73e 043e 19ed 203d c475 aabb a295 0b3c
000003e0: 5dcd e83c bc18 ab3c 9595 16bb ee02 13bc
000003f0: 4ba9 4b3d 0f12 c13c 37b8 37be c8b2 7bbd
0.1657583 0.054833256 0.09026423 -0.051196553 -0.040635686 0.05552869 0.0056588016 -0.10551744
0.09940023 0.011214485 0.08530914 0.099773 0.06429468 0.14607789 -0.015018483 0.20267187
-0.01580537 0.036113817 0.17999549 0.025789885 -0.0061126533 -0.042723626 0.08126578 -0.00345957
-0.100213274 -0.15688531 0.061101202 -0.07228946 -0.20235805 -0.019184176 0.13603705 0.047117144
-0.0030005572 0.0899147 -0.03355499 -0.13636605 -0.09924659 -0.018097956 0.11458252 -0.06732659
0.0005128928 0.022812795 -0.16837226 0.14782406 -0.025112765 0.051388882 -0.110881045 -0.027390372
0.033884376 -0.04788704 0.17378639 -0.19660701 0.014643907 -0.039542686 0.031210609 -0.12722132
-0.10089816 -0.029192012 -0.1261626 -0.11481403 -0.006919056 -0.0026441978 0.00609852 0.028406357
-0.19084717 -0.041807905 0.05577383 -0.13797447 -0.0592166 -0.030995533 0.038409553 0.008419398
-0.015286091 0.038546447 0.1117442 0.04235034 0.101762354 -0.04944547 -0.020222504 -0.043366425
0.12897237 -0.10383271 -0.006763661 -0.06650867 -0.003077751 -0.05842655 0.087336496 0.018160611
0.054474216 -0.062433135 0.025543861 0.009865792 -0.09449379 -0.06865686 -0.11271558 0.16660042
0.023622813 -0.12856911 -0.086311065 -0.05811222 -0.073865846 0.054195974 -0.10010359 0.096590005
0.03745355 0.28764185 0.04106475 0.10077708 -0.019044522 0.004210616 -0.013678852 -0.059566095
0.036544446 -0.044564337 -0.18562771 0.08621628 -0.022062575 -0.026234634 0.044662613 -0.028615555
0.12873034 0.14241596 -0.001114059 0.16394885 -0.13492616 -0.03828735 0.010170606 -0.01888094
0.061997186 0.07002892 0.06663696 -0.010784926 0.01819568 0.0556799 0.07083659 0.2268119
0.16357952 -0.065890245 -0.11845897 0.06484344 0.026590059 0.047499776 0.013151547 0.018655589
0.017272716 -0.065820366 -0.010502223 0.0023996579 -0.008969249 0.011603491 0.06500337 -0.17123431
0.03631529 0.06783022 -0.06611815 0.07151348 0.03807329 0.0010137619 0.018371388 -0.13882655
-0.094342254 -0.05096186 0.0006806196 -0.018716004 0.02329592 0.042198457 0.07932682 0.0069013126
-0.14892098 -0.04094795 0.010679953 -0.029040307 -0.02126999 -0.032433856 0.0734104 -0.08887322
-0.0019615728 0.031780187 0.12560494 0.078148305 0.1557314 -0.042494126 -0.0019029471 0.09447255
-0.014493113 -0.038578678 -0.024055667 0.09836706 0.12348085 -0.095047005 0.010291317 0.030341344
0.072363555 -0.034794178 -0.017640952 0.03611204 -0.066237904 0.1371477 0.10239458 -0.05335092
-0.050514653 -0.022326348 -0.032544248 -0.08332405 0.025600066 -0.090644225 -0.05539251 0.13579397
-0.011485788 -0.041167304 -0.020463841 -0.034528367 -0.045880336 -0.02429986 0.019317824 -0.0606669
-0.13740356 0.103177726 -0.16051778 -0.13229288 0.044770285 0.17769499 0.006438744 -0.018970983
-0.0022022917 -0.091726944 0.021845693 -0.048581652 -0.12111729 -0.044352885 0.025363298 0.08324542
-0.09189601 -0.005415451 -0.16918252 0.0567202 -0.02418554 0.0022142243 0.06256864 0.02230609
-0.06980572 -0.01820828 -0.076781884 0.0365652 0.12914644 0.039288614 -0.005202027 0.008519562
0.028418237 0.020885818 -0.0022977341 -0.008972866 0.049721997 0.023568181 -0.17941366 -0.061449796

model.2.main.1.weight f4 [32]
00000000: 8b14 7e3f dbf8 833f 0adc 7e3f af50 7e3f
00000010: cc2a 7d3f dda7 7d3f bf48 863f 1457 813f
00000020: a84b 853f 3db9 803f 2233 7f3f 286f 7c3f
00000030: b58a 803f d558 833f 7c2f 843f f269 7f3f
00000040: 40e1 823f e2f8 793f 9e54 7e3f 6a95 7e3f
00000050: 734c 833f b880 7e3f 5e8b 803f 8569 7e3f
00000060: d0d8 7d3f 5928 7b3f 6260 7d3f f4ad 803f
00000070: 0ea7 7f3f 7336 7d3f f44d 7f3f 5017 803f
0.99250096 1.031032 0.995545 0.99341863 0.9889343 0.99084264 1.049095 1.0104699
1.0413713 1.005653 0.996874 0.9860711 1.004233 1.0261484 1.0326991 0.99771035
1.0224991 0.9764539 0.99347866 0.9944674 1.0257705 0.9941516 1.0042531 0.9937976
0.99158955 0.9810844 0.98975194 1.0053086 0.9986428 0.9891121 0.9972832 1.0007114

model.2.main.1.bias f4 [32]
00000000: 9a90 8b3a 846d d639 6e75 943b 3fe6 c6bb
00000010: bbc3 2b3c a918 ebbb 56a4 6d3a 8b77 603c
00000020: fdab e93b 74e4 d1bc dad3 0c3c ccd5 47bc
00000030: bb2f d9bb c54c 14bc 4624 a53c 61b8 62bc
00000040: cb6e 1f3c a685 e9bb d5eb 11ba 877d 8939
00000050: 4f97 31bc ae84 c33b f215 cf38 fab5 09bb
00000060: ac32 a2bb bd31 63bc 1eb8 ddbc 3767 f2bb
00000070: aa99 15ba 2c9a 8fbb 91b8 2f3d e8e7 853b
0.0010647953 0.00040898856 0.0045306003 -0.006069928 0.0104836775 -0.0071745706 0.00090653205 0.013700376
0.0071310983 -0.02562163 0.008595431 -0.012196969 -0.0066280044 -0.009051506 0.020158898 -0.013837905
0.009731005 -0.007126528 -0.0005566453 0.000262242 -0.010839297 0.0059667444 9.874617e-05 -0.0021013007
-0.004949888 -0.013866839 -0.027065333 -0.007397558 -0.00057067967 -0.0043823924 0.042900626 0.0040864833

model.2.main.1.gate f4 [32]
00000000: e6f2 7e3f 0ad3 8b3f c999 883f 4758 7f3f
00000010: dd3e 823f 9d07 7a3f 98f8 823f 55f0 7e3f
00000020: 1cbc 8a3f 5eee 843f a380 7d3f 22ba 823f
00000030: e827 913f 4645 783f 2b09 8c3f 9384 833f
00000040: 6355 8a3f 9e67 823f 2225 853f dff0 823f
00000050: 12ad 863f ba9c 863f 175a 823f 7b1d 633f
00000060: 8634 6c3f 8de7 833f 4d44 8b3f 5d08 913f
00000070: ecbe 803f b59a 7c3f 9572 833f 8420 833f
0.99589384 1.0923779 1.0671932 0.99744076 1.0175434 0.97667867 1.0232115 0.9958547
1.0838656 1.0385244 0.9902441 1.0213053 1.1340303 0.969807 1.0940298 1.0274833
1.0807308 1.0187871 1.0401957 1.0229758 1.0521567 1.0516579 1.0183743 0.8871686
0.92267644 1.0305039 1.0880219 1.1330677 1.0058265 0.98673564 1.0269343 1.0244298

model.2.main.1.running_mean f4 [32]
00000000: c0cd 9140 f9a5 53c0 3983 783f 80f7 a23f
00000010: 008e 4fc0 1ed3 cbbf 132f c4bf 4076 afbe
00000020: b943 1b3f 6bb7 173f 1fd4 52bf ae66 d740
00000030: ef43 98c0 b5af dcbe 9391 0c40 fb92 ddbf
00000040: a1eb 8d40 b6e3 873d 3f55 03c0 bb30 8c40
00000050: 7d01 f83f 4f35 7bc0 c1dd 383f 62c0 e6bf
00000060: ddf0 99bd f717 773f 4b74 28c0 30f8 a2c0
00000070: 88ba 6c40 0268 0241 4938 d23f 8abc c43f
4.556366 -3.3070052 0.9707523 1.2731781 -3.243042 -1.5923803 -1.5326866 -0.34269905
0.6065021 0.5926425 -0.8235492 6.731284 -4.7582927 -0.43102804 2.1963851 -1.731048
4.4350133 0.06635229 -2.052078 4.3809485 1.9375454 -3.9251287 0.7221337 -1.802746
-0.07516644 0.9652094 -2.632098 -5.0927963 3.698885 8.150393 1.6423427 1.5370038

model.2.main.1.running_var f4 [32]
00000000: 0910 8040 dca2 3540 2256 0640 745d 1b40
00000010: 4484 5e40 f194 7b40 580d 8b3f 619b 363f
00000020: 9416 5240 3a0c 3d40 4aee d63f 6ae1 8840
00000030: 560e 1840 e0b5 e43f 0e76 3040 5016 3340
00000040: 633d 3240 ce00 513f 970f 1540 5d02 eb3f
00000050: c432 3f40 a0dd b13f 6092 0d40 e40a 7840
00000060: 20f1 0d40 018a 3040 41eb 3b40 be3b 0c40
00000070: e72e e73f f729 f340 d838 0f40 b3cc a640
4.0019574 2.8380651 2.0990071 2.427579 3.4768229 3.9309657 1.0863447 0.7133084
3.282628 2.9538713 1.679147 4.2775164 2.375875 1.7868004 2.7572055 2.7982368
2.7849967 0.8164185 2.3290765 1.8360096 2.9874735 1.389576 2.212059 3.8756647
2.217842 2.758423 2.9362338 2.1911464 1.8061188 7.5988727 2.2378445 5.2124877

model.2.main.3.weight f4 [32, 32, 3, 3]
00000000: 6604 0cbd c45c 24bd 5853 113d 5a14 af3c
00000010: 2327 9abd cf2f 3abc e5b1 4f3c d4cd fb3d
00000020: 0eac 343d e574 0ebd 4bec 65bd 38d3 16bd
00000030: 8d5c 033d 137f 403d ed5d 21be e2cb 66bd
00000040: 2a82 bf3c a161 0abd 4512 763d 4288 16bd
00000050: 963f acbd fb46 0dbe 5020 083e b06b edbd
00000060: 0199 173e d86b e23d e82d e5bd cee3 543e
00000070: 2ccb 393d 2092 e7bc 51a4 023e c3f7 c0bd
00000080: 22db 48bd 68ef 723c fdd2 96bd cfbe 633d
00000090: 0017 463d 32a1 983d db76 953d b782 db3d
000000a0: 271d a83d f64e d03d ff99 f1bd 7f73 e53c
000000b0: 80ab bb3c 95ec ddbc ffe0 e03c 0622 323d
000000c0: 8528 993d f187 babd 7b32 c2bd aa6f 153d
000000d0: 4a9c ad3d 21ef b53d 27e4 b83d 9516 9db8
000000e0: 287b c63d 23c5 b13d 60d9 5b3d 745d 14bd
000000f0: de7a 2d3d 8670 77bd 5ec6 0bbc 073d 013e
00000100: 9712 3cbc ae00 e03c 2c29 16bd 8c87 edbd
00000110: cb2d 613d 8a51 48bc 4b9e f1bc 0e97 0f3d
00000120: 2b78 7fbd 4045 bbba 5919 f6bc 0440 7e3d
00000130: e865 eebd fc10 cf3d 8170 cc3d c583 3d3d
00000140: c10f 8abd de62 b83d 3fb2 8e3d c966 363e
00000150: 4b64 8d3d 2937 4c3b d1e3 9ebc 0a88 813d
00000160: 75b3 62bc 09d3 8ebd 70ca ad3b 2340 953c
00000170: 1678 c7bd d3c0 01be 5402 9fbd 03c7 433d
00000180: d293 82bd 022a 56be fdbe b83c 476a c3bd
00000190: 65a2 ee3d 7b7b 2ebd 12a7 863d abe5 a2bd
000001a0: 4119 0d3e 736b da3d e5d3 4abc e1c3 183d
000001b0: 564f 733d f059 7d3c 756a a63d 993c f4bc
000001c0: d3f1 0d3e 5373 083e aa1a a4bd 900a 8b3d
000001d0: c080 e03d 173c 71bd 2e55 b8bd b677 6f3d
000001e0: c4e0 e63d 4570 1f3d 4a8e acbb 821d c93c
000001f0: 175b b23b 451a bc3c d82b 5c3c b7e8 b6bc
00000200: dd5e 38bd 11ed e2bd 908a cd3d 5e0c 513d
00000210: 58c7 073d 12f3 04be 7f6a 973c 8f6d 0f3e
00000220: 7c31 13be b07b 893d 0a49 023e e743 09bd
00000230: 5efb 36bd e25d d0bb 994e 87bd b772 943b
00000240: 7793 6ebd 8f02 10bb b3bd d63d 6eb3 163c
00000250: aaa1 a23d 220c fdbd 7861 1ebd fd47 29be
00000260: 2271 91bd cd47 78bd 85a5 f2bd a1e7 9fbb
00000270: 1a90 01be 5867 0dbb 1aa2 963a dd19 2bbd
00000280: e529 783d b456 933d 0398 c0bd de17 6cba
00000290: 046e 063e b080 4b3d d249 273e 4602 b6bd
000002a0: 1363 ddbc 6281 4d3e f88f abbc aace 1f3d
000002b0: ca9c 85bd 78d8 bebd 870f 12be b546 223e
000002c0: 7486 d1bc 6ee0 313d ded3 2cbe c1c1 a23d
000002d0: 0bfc 2e3d 33ed 2d3e fd2f b53d c241 3a3d
000002e0: 2e5e ecbc 7b77 47bd 2dd6 cabd cc64 47bd
000002f0: 3f1e 1c3e 22fa de3c d91b f8bc fe61 8e3d
00000300: e1e9 823d f430 353a 48cd 39be 3f75 063d
00000310: 49c9 283a 15e0 123d 2deb 713c f554 cbbd
00000320: 6a15 54be 3f6c 8cbc 0b85 7a3d 0d8f 93bb
00000330: e81a b83c 3a8d 8d3d 7a7a 5c3d 88c2 c43b
00000340: 0ff4 3ebb dc16 13be 1241 f73b a21c 6b3d
00000350: 1faa 71bd 0849 43be 80b3 823b cc9a 58bb
00000360: 294e 74be 27ec 2cbe b00e 3abc d3dd 903b
00000370: 4054 32bd 7f15 5d3d 48ba 06bd f1d3 0c3d
00000380: 2e23 89bd 4fd8 773d b767 acbd 7c27 17bc
00000390: a1db e73c ed72 22be 0a44 c43d 9ea6 973d
000003a0: 5bb9 36be 0341 66bd b8c5 94bd 2e66 743c
000003b0: 70c9 9ebc 8002 9abc 3024 8e3d a650 d33d
000003c0: 377c 743d 3de6 efbd 4827 33bc 320b e7bd
000003d0: faa5 3a3e 8a7a 923c 62dd 8b3d 6dea 523d
000003e0: 08e3 023e cf36 8fbd e111 b0bd 846c ab3d
000003f0: cb14 f43c ad57 4f3d 179f 603c 1049 023e
-0.034183882 -0.04012753 0.035479873 0.02137201 -0.07526996 -0.0113639375 0.012676691 0.12295118
0.044109397 -0.034779448 -0.05613355 -0.036822528 0.032070685 0.046996187 -0.15758486 -0.05634678
0.023377497 -0.033784512 0.060076017 -0.03675104 -0.084105656 -0.13796608 0.13293576 -0.115928054
0.1480446 0.11055726 -0.111903965 0.20790026 0.045359775 -0.02826792 0.12757994 -0.09422257
-0.049037106 0.014827587 -0.073644616 0.05560189 0.04836178 0.074526206 0.072980605 0.10718291
0.08208685 0.101713106 -0.117969505 0.028009174 0.022908926 -0.02709035 0.027451036 0.04348948
0.074784316 -0.0910796 -0.09482285 0.036483444 0.084770754 0.08883501 0.090278916 -7.4905496e-05
0.09691459 0.08680179 0.0536741 -0.036221936 0.042353503 -0.060410045 -0.008531181 0.12620936
-0.011479042 0.027344074 -0.03666036 -0.11598119 0.054975312 -0.012226472 -0.029494425 0.035056166
-0.06237046 -0.0014287606 -0.030041384 0.06207277 -0.11640531 0.101106614 0.09982396 0.046268243
-0.06741286 0.090032324 0.069675915 0.17812647 0.06903895 0.0031160808 -0.01939574 0.063247755
-0.013836731 -0.069738455 0.0053036734 0.01821906 -0.097397014 -0.12671213 -0.07764116 0.047797214
-0.06375851 -0.20914462 0.022552008 -0.09541755 0.11652068 -0.04259823 0.06574835 -0.07953962
0.13779165 0.106650256 -0.012379621 0.03729618 0.059401833 0.015463337 0.08125774 -0.029814051
0.1386178 0.13325243 -0.08012898 0.06789124 0.10962057 -0.058895197 -0.09000622 0.058463775
0.112733394 0.038925428 -0.0052659856 0.024550203 0.0054429877 0.022961745 0.013438188 -0.022327764
-0.045012344 -0.11080373 0.10036194 0.051037185 0.033149093 -0.12983349 0.018483398 0.14006637
-0.14374346 0.06713045 0.12723175 -0.033512022 -0.044673316 -0.006358848 -0.06606788 0.0045302766
-0.058246102 -0.0021974181 0.10485401 0.009198053 0.07940991 -0.1235583 -0.038667172 -0.16531368
-0.071016565 -0.06061535 -0.118479766 -0.0048799072 -0.12652627 -0.002157649 0.0011492402 -0.041772712
0.06058683 0.07194272 -0.09403994 -0.0009006242 0.13127905 0.049683273 0.16336754 -0.088871524
-0.027024781 0.20068887 -0.020942673 0.03901545 -0.06524046 -0.09318632 -0.14263736 0.15847285
-0.025576808 0.043426923 -0.16877696 0.07947112 0.042720836 0.16985016 0.08847044 0.045472868
-0.028853502 -0.04869793 -0.09904132 -0.04868011 0.15245913 0.027218882 -0.030286716 0.06952284
0.06392265 0.00069118966 -0.18144715 0.03282666 0.0006438685 0.035858233 0.014765543 -0.09928314
-0.20711294 -0.01714146 0.061162036 -0.004503137 0.022473767 0.069117025 0.05382774 0.0060046352
-0.002913717 -0.14364189 0.007545599 0.057400353 -0.05900013 -0.19070828 0.003988683 -0.003305125
-0.2385794 -0.1688696 -0.011356041 0.0044209748 -0.04353738 0.05397558 -0.032892495 0.03438181
-0.06696163 0.060509022 -0.084182195 -0.009225722 0.02830297 -0.15864153 0.0958329 0.074048266
-0.17844145 -0.056214344 -0.07264274 0.01491694 -0.019383162 -0.01880002 0.06940496 0.10318117
0.059688773 -0.11713836 -0.010934658 -0.11281432 0.18227378 0.017880697 0.06829335 0.051493097
0.12781918 -0.06992876 -0.0859716 0.08370307 0.029795071 0.050620724 0.013709805 0.12723184

model.2.main.4.weight f4 [32]
00000000: e761 823f 47c5 7d3f 4997 803f 4614 813f
00000010: 9c5e 793f 0af9 7e3f 483b 7f3f 4a6d 7e3f
00000020: 086e 703f b325 7e3f 91a2 783f 7ba9 7b3f
00000030: ee98 7e3f 801b 783f 849c 753f f897 7c3f
00000040: 64e5 753f c6e8 813f 473b 7e3f 4e3c 743f
00000050: 8faa 803f 0a9a 7c3f fd03 7d3f 20af 7b3f
00000060: bf9b 7d3f 8c3f 7e3f 39ed 803f 01be 7a3f
00000070: 89ae 7c3f 3abb 7a3f d3cd 753f 392e 793f
1.0186127 0.99129146 1.0046169 1.0084312 0.9740999 0.99598753 0.9969983 0.9938551
0.93917894 0.99276274 0.97123057 0.9830548 0.994521 0.9691696 0.9594195 0.98669386
0.9605315 1.0149162 0.993092 0.9540452 1.005205 0.98672545 0.9883421 0.98314095
0.99065775 0.99315715 1.0072395 0.9794617 0.9870382 0.97941935 0.9601719 0.97336155

model.2.main.4.bias f4 [32]
00000000: e940 3a3d 9e7c c03c fa46 3d3c c980 323d
00000010: 597b abba 1404 1a3c 6441 6abc 8862 86bc
00000020: 66e4 37bc 8394 863c 6734 5abc 7af1 53bc
00000030: 3308 923c 7bd3 d5bc 6423 87bb 3199 69bc
00000040: 6a07 a33b d392 273d 00c9 c4bb a9be 97bb
00000050: eb52 ad3d 530d c63b 8c6d e7ba 70a8 9dbc
00000060: 76dd ea3b 16d9 883c 47aa ccbc 6717 1a3c
00000070: e69a 313c abcd 703a b4b9 0e3d f63d b63c
0.04547206 0.023496922 0.011552567 0.04357985 -0.0013083025 0.009400386 -0.014297817 -0.016404405
-0.011223888 0.016428238 -0.013318158 -0.0129359905 0.017826175 -0.026101818 -0.004124092 -0.014257715
0.004975249 0.040911507 -0.0060054064 -0.0046308828 0.08463081 0.006044069 -0.0017656549 -0.019245356
0.0071675135 0.016705077 -0.024983538 0.009404994 0.010840153 0.00091859204 0.03484507 0.022246342

model.2.main.4.gate f4 [32]
00000000: 0fb0 653f 1b5d 7e3f 8d79 823f c364 8b3f
00000010: ee0a 853f 9665 7b3f eefd 823f 5aa3 6f3f
00000020: fdd0 863f ba21 7d3f 9d96 833f cc96 803f
00000030: b81a 873f ada9 873f ec3e 873f ca7d 7f3f
00000040: 430a 803f 99cc 7a3f 4658 823f 3af8 803f
00000050: 8e50 873f ab5d 803f eecd 813f 6859 853f
00000060: ad2d 773f 4fa9 7d3f 92ba 7c3f 96fb 813f
00000070: 048c 8e3f e028 7b3f 5ab8 853f fb6f 883f
0.8972177 0.9936082 1.0193344 1.0890125 1.039396 0.9820188 1.0233743 0.9360863
1.0532528 0.9887959 1.0280339 1.004602 1.0555029 1.0598656 1.0566077 0.99801314
1.0003132 0.9796844 1.0183189 1.0075753 1.0571458 1.0028585 1.014097 1.041791
0.9655407 0.9908647 0.98722184 1.0154903 1.1136479 0.98109245 1.0446885 1.0659174

model.2.main.4.running_mean f4 [32]
00000000: 872d bbbd 629a 4b3e 2735 3e3e c737 a03f
00000010: 0027 9d3e 0b40 5fbf 9846 183f 5228 043f
00000020: 75b4 3dbe 59c3 4bbf 1a64 25bf 491c ae3d
00000030: 3cc1 3d3f 2d49 07bb 7d7c 293f d587 e13e
00000040: a173 a3bd eda4 33bf 0d92 dbbe f39e fb3e
00000050: 7c71 1dbe abba 22be 26de 3b3d 2ed1 ed3d
00000060: 82d0 32be d06e 92be 938c 0a3f 322f 163e
00000070: 17ab 0dbf fe5f 4dbf 04c1 b9bf 81ea 09be
-0.09139543 0.19883111 0.18574964 1.2517022 0.30693817 -0.87207097 0.5948272 0.51624024
-0.1852587 -0.7959495 -0.6460587 0.08501489 0.7412298 -0.0020642981 0.6620558 0.44048944
-0.07981039 -0.7017353 -0.42884865 0.49144706 -0.15375322 -0.1589152 0.045866154 0.116121635
-0.17462352 -0.28600168 0.5412075 0.14666441 -0.5533919 -0.802246 -1.4512029 -0.13468362

model.2.main.4.running_var f4 [32]
00000000: e8db 623f 7f9a 403f 9134 813f bed4 f03f
00000010: 13ae aa3f 238c 803f 43c0 b13e 7169 883f
00000020: f08a 443f 7907 7b3f aad3 bb3f 7e96 0e40
00000030: 4841 b23f b9ae d83e eb18 853f 490a 883f
00000040: ace3 9a3f 3219 493f ac04 0a40 d798 c53f
00000050: c1dd 833f 8470 b43f e5b7 853f 0387 5b3f
00000060: f3b5 a43f 8fc6 853f a1eb ce3f a88c 713f
00000070: ad5f 3840 5503 703f 9037 d43f 399f 2c3f
0.886168 0.7523574 1.0094167 1.8814924 1.3334373 1.0042766 0.34716997 1.0657178
0.767745 0.9805828 1.467397 2.2279353 1.3926172 0.42320803 1.0398229 1.0628139
1.210073 0.7855407 2.1565351 1.5437268 1.0302049 1.4096837 1.0446745 0.85752887
1.2868026 1.045122 1.6165658 0.9435525 2.8808396 0.93755084 1.6579456 0.67430454

model.3.main.0.weight f4 [32, 32, 3, 3]
00000000: fe48 56bd 47da 99bd 853c 1c3e ac59 c23d
00000010: a08d 7e3d b614 ec3c 9c2e 883d 894b 99bd
00000020: 3650 013d d5d9 993c bb00 163d f90a a3bd
00000030: 42af aebd 169d 963d 526b 083d e6af 4cbe
00000040: 7c9e 7b3d 5dee 4bbd 65e0 d63d bf1b f0bc
00000050: dc94 c0bc de0b 263e 3f4a 9bbb ce4d f03c
00000060: 57ba adbd ce8e 963d 6dfb db3d dcbb 1d3e
00000070: bba2 dabd 6dda 05bb 2d47 9b3c 4fff c63d
00000080: 2ac9 1ebd 5259 5abd ad37 a23d 20cc 1a3e
00000090: f223 90bd 1859 0c3e 7097 9e3d 97e5 3ebd
000000a0: cee4 b43c fc47 a8bd 471a 5abd 5c31 223c
000000b0: 6bf3 dfbb 310d 8dbc cfaa 873d 307d 883c
000000c0: 55da d43d 110f e53a a503 863d b8b4 99bc
000000d0: 24a1 5cbc f1d0 a8bc 9211 203d c1c7 b03d
000000e0: 24d3 26bd 94f8 d53d 41db c03d 9b83 413c
000000f0: 85dc 9ebd d0b4 cebb 2162 093e 5bd2 4d3e
00000100: 8941 e2bc 1003 303d 0062 8f3d aa34 933d
00000110: bc58 e3bd 4143 dcbd 858c 9e3d f5a9 12be
00000120: 19d5 6e3e f0e4 d73c 8a37 9abd 36dd 09be
00000130: 10bf 7bbd 2ca3 e3bd ce37 debc 8eec 0c3c
00000140: 43b8 083e 55b7 113c 5ef3 16bd 6659 36bc
00000150: 84c9 b33d 7aae 043e 1336 11bd 4c8f 7dbd
00000160: 2cc2 a83d acb8 043d f5a0 1cbc 8772 683e
00000170: 3ffd cdbb 39d2 b03d 09ed 2ebd d972 1fbd
00000180: 583c a6bd 52a6 113d d85a 33bb 0b6f 0fbd
00000190: 5341 36bd a1fa 64bd 18ec 6bbd 76b1 e13c
000001a0: 7355 f43c 4033 8abe 90ba ba3b d0a0 2d3d
000001b0: f894 a43c 3d0e 373d 6c80 00bd 8a89 96bd
000001c0: 4657 fe3d 26e1 b4bc ee65 91bc d218 f5bd
000001d0: 2285 823d 890c 94bd 450e 45bc 1194 fbbd
000001e0: 9fde 073e dcf7 ac3c 92c3 ffbd fc08 223e
000001f0: a847 2bbe 7af0 d8bd ba65 69bd 991f 5a3e
00000200: 35ed 633d a254 633d 1b88 75bd eef4 b93c
00000210: dcf1 183e 398d 813c 0659 54bd a506 6ebd
00000220: 8396 d83d 5f9a 3c3d 4094 203d 7275 843c
00000230: 2f86 34be 1c36 843d 0f62 55bd b8f8 05be
00000240: 6514 80bd af08 e03d c4eb 203e 4795 b9bc
00000250: 58f2 91bd b54a 2e3c a47e 0cbc a9ff 54bd
00000260: eb17 0bbe 8e7c 8f3c 4b12 853c a093 edbc
00000270: 59b1 d83b 4fa2 a23d 8e69 123e 3f02 6b3e
00000280: 3a4b a03c 3caa 663d 3025 af3b 8e8b b1bd
00000290: 3dd5 503c c9d4 183d 2217 95be 64eb 02be
000002a0: 7fe7 bf3d 07ba 213d 4adf 08be 20e2 733d
000002b0: 3f81 853d b613 a13c 3a88 c93b 4da7 a43d
000002c0: e7d9 cb3d 35e8 a33d 32d8 ff3d 2956 7f3d
000002d0: 2cd5 06be d0ac 12bd 0f04 c9bd eadb 9bbd
000002e0: 61a4 723d f269 afbd 0f1e 1bbd 6a60 cdbb
000002f0: 8788 e93d a653 0c3e 7fe2 8e3d b4da 4cbd
00000300: 6dcf c8bc eca5 363e 8949 ba3c aaaa 24bd
00000310: fb63 fb3d f4b3 6d3d 01b5 6e3d 248d 083d
00000320: d3ef 25bd 42c6 8dbd 0cb3 533e daeb cbbd
00000330: bd99 8bbd 3624 52bd 6dfd afbd 4255 39bc
00000340: 519c b9bd 740b 9fbc 63ac adbd 4693 893e
00000350: 5bd2 3cbd 1291 9ebd 0818 f2bc 337a 38be
00000360: 70b7 13be bb87 883d e221 04bd c6ed 4e3c
00000370: d775 85bd 6b70 95bd 52b9 e13d ebed f9bd
00000380: 866a 96ba 8264 8e3d 08d7 95bd cdee c43d
00000390: e72c 25be fbad 64bd 6908 06bd 89f8 80bd
000003a0: ee81 12bc d701 60bb ee10 b73d fc0d 36bd
000003b0: fd0b 4abd 0345 ec3c c5a9 c9bc a9f7 34bd
000003c0: c99c 4a3a daff bf3d 3fe0 21bb d71e dbbc
000003d0: 92ea 41bd d19e 91bc 5cd6 a03d 6573 983c
000003e0: dc46 babd 5614 b9bc 1d5d 4c3d 5058 38ba
000003f0: 13d8 273d 3d26 703d 0cc1 85bc 4dee e83c
-0.052315705 -0.07512336 0.15257461 0.0948976 0.062146783 0.02881847 0.06649515 -0.0748511
0.031570636 0.018780628 0.03662179 -0.07961077 -0.085295215 0.073541805 0.033305474 -0.19988975
0.06143044 -0.049787868 0.104920186 -0.029310105 -0.023508482 0.16215464 -0.0047390754 0.029333975
-0.08482807 0.073514566 0.10741315 0.15403694 -0.106755696 -0.0020424381 0.018954838 0.09716665
-0.038766064 -0.05330784 0.079207756 0.1511693 -0.07038106 0.13705862 0.07743728 -0.046605673
0.022081759 -0.08216855 -0.053247716 0.0098994635 -0.0068344376 -0.017218204 0.06624376 0.016661257
0.10393206 0.0017475804 0.06543664 -0.018762931 -0.013466153 -0.020607444 0.039079256 0.0863185
-0.040728703 0.10447803 0.09416819 0.011811162 -0.077569045 -0.0063081756 0.1341634 0.20099775
-0.02761914 0.04297167 0.07001114 0.07187779 -0.11100909 -0.10755015 0.07741646 -0.14322646
0.23323478 0.026354283 -0.075301245 -0.13463292 -0.06146151 -0.11115107 -0.02712622 0.008601321
0.1335154 0.008893807 -0.036853187 -0.011129713 0.087786704 0.12957183 -0.03545196 -0.061904237
0.0824016 0.03240268 -0.0095598595 0.22699939 -0.006286293 0.08633847 -0.042706523 -0.038927887
-0.081169784 0.035559006 -0.002736738 -0.03501801 -0.04449589 -0.05590308 -0.057598203 0.02755044
0.029825902 -0.26992226 0.0056985095 0.04238969 0.020090565 0.044691313 -0.031372473 -0.07350452
0.1241899 -0.022080015 -0.0177488 -0.11967625 0.06373049 -0.072289534 -0.012027328 -0.12284101
0.13268517 0.021114282 -0.12488474 0.1582374 -0.16726553 -0.10592742 -0.05698178 0.21301116
0.05564614 0.055500634 -0.059944253 0.0226998 0.14936012 0.01581441 -0.051842712 -0.058111805
0.10575583 0.046045657 0.039203882 0.016169284 -0.17629312 0.06455633 -0.05209547 -0.1308316
-0.0625389 0.10939156 0.15714937 -0.022654189 -0.071263015 0.010637929 -0.008575115 -0.05200163
-0.13583343 0.017515447 0.016244074 -0.029001057 0.0066129384 0.07941114 0.14298078 0.22950076
0.01956712 0.056314692 0.0053450093 -0.08669196 0.0127461525 0.037312303 -0.2911921 -0.12785107
0.09370326 0.03948405 -0.13366428 0.05954182 0.06518792 0.01966272 0.0061502727 0.080397226
0.09953671 0.08003274 0.12492408 0.062338028 -0.13167256 -0.035809338 -0.09815227 -0.07610305
0.059238795 -0.08565129 -0.037870463 -0.006267597 0.11402994 0.13703784 0.069767945 -0.05001326
-0.02451297 0.17836732 0.022740142 -0.04020182 0.12274929 0.058032945 0.058278088 0.033337727
-0.040511917 -0.0692258 0.2067377 -0.099570945 -0.068164326 -0.051304065 -0.08593259 -0.011311831
-0.09063018 -0.019414641 -0.08480146 0.26870173 -0.046099048 -0.07742514 -0.029552475 -0.18015365
-0.14425445 0.066665135 -0.032258876 0.012629932 -0.06516617 -0.07296833 0.11021675 -0.122035824
-0.0011475838 0.06952764 -0.073164046 0.0961586 -0.1613041 -0.055829983 -0.032722864 -0.06297404
-0.00894211 -0.0034180784 0.08938776 -0.04444693 -0.04932784 0.028841501 -0.024617085 -0.0441815
0.0007729051 0.09374972 -0.0024700311 -0.026748104 -0.047342844 -0.017775925 0.07853386 0.018609712
-0.090955466 -0.022592705 0.049893487 -0.00070322026 0.04097755 0.058630217 -0.016327403 0.028433943

model.3.main.1.weight f4 [32]
00000000: d1f9 7e3f 869e 7e3f b68d 813f a408 803f
00000010: df1e 753f 63a4 7f3f 6ea2 773f b023 803f
00000020: 718f 7c3f 1e6a 7d3f cb54 7e3f 78f5 7f3f
00000030: 8588 7e3f ef2d 803f 17f4 7e3f 0874 7f3f
00000040: 6c0e 803f dd62 813f ed57 823f 1825 803f
00000050: 2364 803f df19 7f3f bbc8 803f 8144 7d3f
00000060: 1b87 843f 6990 803f daa7 7e3f b761 823f
00000070: 971e 7e3f b0a7 873f ebf7 7f3f 9cc0 813f
0.9959994 0.9946064 1.0121372 1.0002637 0.9575023 0.9986021 0.96732223 1.0010891
0.98656374 0.98990047 0.99348134 0.9998393 0.9942706 1.0014018 0.995912 0.99786425
1.0004401 1.0108296 1.0183083 1.001132 1.0030559 0.9964885 1.0061258 0.98932654
1.0353731 1.004407 0.9947487 1.018607 0.99265426 1.0598049 0.9998767 1.0136905

model.3.main.1.bias f4 [32]
00000000: 70e7 e6ba c04e ac3a 3011 113d bb72 873b
00000010: eb75 793c 5d76 4e3c 1320 3dbc 9db5 863c
00000020: 39d0 bdbc 8d4b 0c3b bd9f 443d 9eb2 8c38
00000030: e5a1 9cbb 05a3 ca3c 22c6 2ebc 4d71 6d3c
00000040: b70e b03c 7201 d73a 2427 2d3d a596 e43b
00000050: 545d 7c3c 9201 9abb 9d5b 333c 7eae 16bb
00000060: 157d 863b a5ed 283a abfa a6bb 4acc dd3c
00000070: a96f ac3c 56f7 a53d fba5 183d 05d2 1b3b
-0.0017616581 0.0013146028 0.035416782 0.00413355 0.015225868 0.012601462 -0.011543292 0.016444022
-0.023170577 0.0021407336 0.0480039 6.70899e-05 -0.0047800415 0.024735937 -0.010667356 0.014492345
0.021491392 0.0016403629 0.042273656 0.006975966 0.0154031105 -0.004699894 0.010947135 -0.002299219
0.0041042664 0.0006444103 -0.0050958 0.027074952 0.021049337 0.08103816 0.037267666 0.0023776304

model.3.main.1.gate f4 [32]
00000000: 45d9 7f3f 8c1d 863f f716 873f 5223 7e3f
00000010: 5aaa 783f 03c2 773f 4409 843f 7125 843f
00000020: 8e5e 7f3f 1776 823f cc0f 673f 4718 803f
00000030: e72f 813f 71c0 823f 1927 863f cecb 813f
00000040: 28a1 823f 7e97 8a3f 2018 8a3f 505b 7b3f
00000050: c258 7f3f d6fb 813f 966d 7e3f 703f 7c3f
00000060: 1058 8b3f 626f 873f e6fb 833f 2f54 813f
00000070: a645 6e3f 3492 823f c5d6 7d3f 8ce5 7d3f
0.999409 1.0477767 1.0553883 0.99272645 0.97134936 0.96780413 1.0315328 1.0323926
0.99753654 1.0192288 0.9025848 1.0007409 1.0092744 1.0214978 1.0480682 1.0140321
1.0205431 1.0827482 1.0788612 0.98186207 0.9974481 1.0154979 0.99385965 0.985343
1.088625 1.0580866 1.0311248 1.0103816 0.93075025 1.0200868 0.9915584 0.99178386

model.3.main.1.running_mean f4 [32]
00000000: b647 5d3f 714d 863e 2965 59be a088 0540
00000010: 266a 55c0 d044 633f a6e9 b63f 8924 7b40
00000020: ca4a 2ebe 6bec 893f 63ef 8fbf 681c d540
00000030: d1f3 6440 d99f 93c0 23ba ca3f 427d 10c0
00000040: 9c7f 8e3f 068c 50c0 f4c0 59bf 9ac2 7cbf
00000050: 4169 b240 f422 8f40 47e5 10c0 6882 4940
00000060: b811 f9bf e199 f0be 5e42 fb3f 38fe bbbf
00000070: 52ec 53c0 40f2 81bf 1402 5e40 024e c7bf
0.8643755 0.26230958 -0.21229996 2.086464 -3.3346038 0.88776875 1.4290054 3.924105
-0.17020717 1.0775274 -1.124493 6.6597176 3.5773814 -4.6132627 1.5838054 -2.2576451
1.1132693 -3.2585464 -0.8506005 -0.9873444 5.5753484 4.4730167 -2.263994 3.1485844
-1.9458532 -0.469924 1.9629629 -1.4686956 -3.3112988 -1.0152054 3.4688768 -1.5570681

model.3.main.1.running_var f4 [32]
00000000: 0d2a ab40 e06a 8e40 34f1 c740 e100 8940
00000010: 8dc9 a040 f80b 6940 2686 df40 0e40 7040
00000020: 22e7 9640 876a 3640 8057 ca40 070c 1b41
00000030: b62c f640 5805 ce40 8350 e340 d3b9 c340
00000040: 0838 8a40 2b7b 0841 d8f1 0b41 e14c b040
00000050: 4719 0141 d986 dd40 9e71 5a40 a5d2 8a40
00000060: 3ff7 1541 eac4 6440 26cd 7d40 99c7 3140
00000070: 92f3 3240 0dc0 3141 82d9 4f40 c0f9 b740
5.348883 4.4505463 6.2481937 4.2813573 5.0246034 3.6413555 6.9851255 3.7539096
4.7157145 2.850252 6.323181 9.690436 7.692958 6.4381523 7.103578 6.1164336
4.3193398 8.53007 8.746544 5.5093846 8.068671 6.922711 3.4131846 4.3382134
9.372863 3.5745187 3.9656463 2.7778075 2.7961164 11.109387 3.2476506 5.749237
