checkpoint/clf/experiment_name/500/netS.pth (torch, 828110 bytes, 10 tensors)

conv.0.bias f4 [64]
-0.009299528 0.00033293432 -0.004695937 0.041623514 0.01256447 -0.008693036 -0.0121351015 0.0003074602
-0.0029961213 0.004429269 -0.0019458426 -0.012453453 0.007835294 -0.004651526 -0.007653595 -0.0013473304
-0.0061156657 -0.0069910353 -0.0037690005 -0.0043250555 0.010328711 -0.026258722 -0.022626279 -0.013061662
-0.004373877 -0.0019106449 -0.004074758 -0.0015881722 0.0030626387 -0.0074407505 0.0028148515 -0.012830275
0.001664363 -0.0018828762 0.00052323885 -0.006802216 -0.008120848 0.0025429982 -0.0018356309 -0.008947637
-0.016108496 0.0021516702 0.0500512 -0.012124813 -0.0089505315 -0.0027396507 -0.007799863 0.0015487392
0.008276793 -0.0007328356 0.0039687497 0.0037906214 0.0050070374 -0.015804688 -0.009114904 0.0070366124
0.009431349 -0.008860082 0.0044536334 0.00079376885 0.029943673 -0.0010906699 0.005767098 0.016710212
00000000: 0c5d 18bc b08d ae39 60e0 99bb 6b7d 2a3d
00000010: 35db 4d3c 3c6d 0ebc 4ed2 46bc 9c32 a139
00000020: 935a 44bb 6723 913b a50b ffba 9109 4cbc
00000030: 9b5f 003c d46b 98bb 02cb fabb e898 b0ba
00000040: ec65 c8bb 0e15 e5bb 5601 77bb 32b9 8dbb
00000050: c139 293c 881c d7bc bf5a b9bc 9500 56bc
00000060: bd52 8fbb 9b6e faba 8c85 85bb 372a d0ba
00000070: 8db6 483b 8ad1 f3bb 5f79 383b 1336 52bc
00000080: c126 da3a d7ca f6ba f729 093a 20e5 debb
00000090: 4e0d 05bc 6ea8 263b 8d99 f0ba 1c99 12bc
000000a0: f7f5 83bc 0903 0d3b 7d02 4d3d 27a7 46bc
000000b0: 40a5 12bc b68b 33bb fe95 ffbb 10ff ca3a
000000c0: 639b 073c c41b 40ba 490c 823b 136c 783b
000000d0: 1312 a43b d578 81bc ae56 15bc 6293 e63b
000000e0: f285 1a3c e129 11bc c9ef 913b ed14 503a
000000f0: 6f4c f53c cff4 8eba edf9 bc3b dbe3 883c

conv.0.weight_orig f4 [64, 64, 3, 3]
0.03302301 -0.026714824 -0.03145267 -0.101655506 -0.10007647 -0.02220165 -0.052712485 0.033439055
-0.037272137 0.023693018 0.07853719 -0.012829384 0.11371525 -0.036611363 -0.073774986 -0.034840923
-0.02433077 0.001210428 0.0588186 0.20197721 0.07110658 0.13709253 0.01241291 0.12938304
-0.0013985129 0.115486026 -0.038980164 -0.09432689 -0.064725615 -0.0106334975 0.06703876 -0.08481184
-0.018105514 0.036404822 0.024639107 -0.016351772 -0.02091171 -0.05162054 0.02369296 -0.06689086
0.02868217 0.0665295 0.0044059358 0.061973058 0.038619325 0.04784225 0.09158885 -0.020461535
0.025102759 0.06833645 0.048709523 0.005364124 0.052765556 0.14139113 -0.019140631 0.019185098
0.04553508 0.0310851 0.13123624 -0.06067153 0.013684678 -0.00965196 0.14503792 0.12661648
0.05514589 0.12354392 -0.05604149 0.112433374 -0.021665467 0.005422785 0.008818275 0.05160427
0.08814893 0.070906445 -0.001474678 0.13576028 0.07399833 0.07749763 -0.016223734 0.07855105
0.019477526 0.039630108 -0.08711231 0.023020688 -0.102200784 0.0672367 -0.0034803755 -0.04021598
-0.016039615 0.046441637 -0.0036318582 0.056979075 -0.09602611 0.059346862 0.008881466 0.0045588072
-0.018166944 -0.030903623 0.052003525 0.12422342 -0.01460968 -0.02126468 0.021708898 -0.09155061
0.08319609 -0.018559085 0.0060612736 -0.033138763 -0.048267737 -0.029002346 0.0076709175 0.04061074
0.029284108 -0.044387307 0.074008785 0.021118702 0.033100788 -0.06414249 0.008290479 -0.12401628
-0.025806062 0.056353547 0.0039497623 -7.340149e-05 -0.062412336 0.05334748 0.11463308 0.02860847
-0.042565543 -0.027366908 -0.10981163 -0.09044777 -0.028193003 -0.04025897 0.016732356 -0.00067814573
0.06756237 0.12373404 0.015404795 0.07785849 -0.07022754 0.048983693 0.040536866 0.024452776
0.046017744 -0.028786108 0.08280845 -0.012924462 0.02038988 -0.034254026 0.0048256055 -0.01309036
0.04915625 0.029896997 0.016324285 -0.0087679755 0.083995 -0.10983467 -0.043136194 0.056015626
0.024512555 -0.10714357 0.0012198178 0.06473327 0.014791313 0.12903918 0.007328716 -0.093713894
-0.13270386 0.043321863 -0.02832408 -0.14569488 -0.0031893265 0.057016846 -0.029801661 -0.20841736
-0.03385507 0.06849038 -0.015891617 0.0057685496 -0.031836446 -0.013996621 0.054763414 0.025066704
-0.08108103 -0.09921237 -0.12147484 0.0031189844 0.031203924 -0.10454763 -0.01641128 0.006078241
-0.00053449225 -0.042120595 -0.0081825 -0.009073648 -0.012339619 -0.080970414 -0.042479143 0.077296115
0.03889522 0.06427257 0.02909943 0.033037163 0.04209237 -0.014436919 0.054598246 -0.05420807
0.023100823 -0.142457 0.06510156 0.07572412 -0.015001703 -0.13455275 -0.047418512 -0.001015644
-0.089070015 0.011904186 0.025370697 0.04224406 -0.034186848 0.034547824 0.04205064 0.046745803
-0.014138372 -0.08395899 0.0058683218 0.026916863 -0.008898279 -0.08274873 -0.04471527 -0.059440736
0.06346608 -0.01812273 0.05750864 -0.022394542 0.030599538 0.028622748 -0.016237551 -0.028938271
-0.06467243 0.15618001 -0.09869523 -0.12200084 -0.038910657 -0.026251357 -0.013831802 0.005803551
0.009837906 -0.06419274 -0.14102967 -0.022959009 -0.013593034 0.023367418 -0.026757803 0.03238748
00000000: 2343 073d 0cd9 dabc 84d4 00bd c330 d0bd
00000010: e4f4 ccbd 3ce0 b5bc 0ce9 57bd 64f7 083d
00000020: abaa 18bd dc17 c23c 1bd8 a03d 5632 52bc
00000030: 8ae3 e83d ccf5 15bd 5717 97bd 5bb5 0ebd
00000040: 5351 c7bc 39a7 9e3a c6eb 703d 1dd3 4e3e
00000050: 54a0 913d fc61 0c3e 855f 4b3c fd7c 043e
00000060: 4e4e b7ba f083 ec3d aaa9 1fbd 752e c1bd
00000070: dd8e 84bd 1f38 2ebc 9e4b 893d d4b1 adbd
00000080: 0452 94bc 391d 153d f4d7 c93c 27f4 85bc
00000090: 094f abbc 0f70 53bd bd17 c23c 13fe 88bd
000000a0: dff6 ea3c 9e40 883d ab5f 903b 76d7 7d3d
000000b0: 4c2f 1e3d 3cf6 433d ef92 bb3d f39e a7bc
000000c0: 4da4 cd3c fbf3 8b3d a383 473d 89c5 af3b
000000d0: b220 583d d6c8 103e d0cc 9cbc 112a 9d3c
000000e0: fe82 3a3d 2ea6 fe3c cb62 063e b682 78bd
000000f0: b335 603c 4123 1ebc d284 143e c0a7 013e
00000100: a8e0 613d 9804 fd3d c38b 65bd 7843 e63d
00000110: c77b b1bc 9eb1 b13b 877a 103c 005f 533d
00000120: 6d87 b43d 6637 913d fc49 c1ba be04 0b3e
00000130: 708c 973d 14b7 9e3d a3e7 84bc 5fdf a03d
00000140: 558f 9f3c 2e53 223d f067 b2bd e295 bc3c
00000150: a54e d1bd 65b3 893d 0317 64bb 83b9 24bd
00000160: 8365 83bc 9639 3e3d 7804 6ebb e462 693d
00000170: 56a9 c4bd b215 733d 9283 113c 0c62 953b
00000180: d8d2 94bc 9829 fdbc a601 553d d968 fe3d
00000190: 705d 6fbc 4433 aebc dcd6 b13c e37e bbbd
000001a0: b662 aa3d 3909 98bc a69d c63b 83bc 07bd
000001b0: 64b4 45bd 5496 edbc 525c fb3b 7357 263d
000001c0: 3ae5 ef3c 77cf 35bd eb91 973d 2101 ad3c
000001d0: b194 073d 235d 83bd cad4 073c 3ffc fdbd
000001e0: 3c67 d3bc fad2 663d 026d 813b 20ef 99b8
000001f0: 14a4 7fbd e382 5a3d c0c4 ea3d 4f5c ea3c
00000200: 3559 2ebd 9130 e0bc ebe4 e0bd ae3c b9bd
00000210: 03f5 e6bc 97e6 24bd 4b12 893c 97c5 31ba
00000220: 245e 8a3d 4668 fd3d 6564 7c3c 4674 9f3d
00000230: 75d3 8fbd 20a3 483d fc09 263d 3051 c83c
00000240: 1a7d 3c3d d8d0 ebbc 7a97 a93d 1fc1 53bc
00000250: ad08 a73c f34d 0cbd 1d20 9e3b f378 56bc
00000260: 1058 493d 8cea f43c 82ba 853c 8ea7 0fbc
00000270: 9205 ac3d 00f1 e0bd 94af 30bd a470 653d
00000280: 8ece c83c 176e dbbd 4be2 9f3a e092 843d
00000290: 4357 723c d922 043e ba25 f03b 12ed bfbd
000002a0: 85e3 07be 4472 313d e707 e8bc 0a31 15be
000002b0: 0504 51bb 7f8a 693d 9d22 f4bc 5c6b 55be
000002c0: 9dab 0abd af44 8c3d 232f 82bc 1a06 bd3b
000002d0: ef66 02bd 1552 65bc 9a4f 603d b058 cd3c
000002e0: d00d a6bd db2f cbbd cdc7 f8bd e067 4c3b
000002f0: 5f9f ff3c 111d d6bd f370 86bc fb2b c73b
00000300: 2b1d 0cba a586 2cbd e40f 06bc a3a9 14bc
00000310: 1d2c 4abc d1d3 a5bd 9cfe 2dbd 6d4d 9e3d
00000320: 9850 1f3d 56a1 833d ee61 ee3c fa51 073d
00000330: 0d69 2c3d d488 6cbc 69a2 5f3d 4809 5ebd
00000340: f03d bd3c 3fe0 11be f753 853d 3f15 9b3d
00000350: b4c9 75bc 32c8 09be ea39 42bd 5c1f 85ba
00000360: 576a b6bd c609 433c 35d6 cf3c 1c08 2d3d
00000370: 8207 0cbd 0582 0d3d 4b3d 2c3d 8778 3f3d
00000380: a1a4 67bc b1f2 abbd 0d4b c03b c180 dc3c
00000390: 16ca 11bc 2b78 a9bd 5c27 37bd 2178 73bd
000003a0: 81fa 813d 1f76 94bc 2e8e 6b3d c274 b7bc
000003b0: e2ab fa3c 417a ea3c 9d04 85bc f40f edbc
000003c0: fb72 84bd a7ed 1f3e ba20 cabd 94db f9bd
000003d0: c860 1fbd 160d d7bc c89e 62bc b72b be3b
000003e0: 2b2f 213c 7c77 83bd 156a 10be 8814 bcbc
000003f0: 51b5 5ebc 076d bf3c 2e33 dbbc bca8 043d

conv.0.weight_u f4 [64]
0.25913584 0.22793353 0.09793652 0.39886636 -0.013678455 -0.09734972 -0.033400588 -0.049442966
0.047669094 0.09806149 -0.0012654017 0.050121203 -0.13955405 0.12552561 -0.031000394 -0.061944798
0.038833726 -0.039356664 0.057339683 -0.043019693 -0.14423585 0.02537769 0.27462667 -0.055252522
-0.0525768 -0.004034342 -0.0509225 -0.044284657 0.0907326 0.15564151 -0.036328986 -0.037245918
-0.07595044 0.02154941 0.013860268 -0.028395647 0.104123406 0.16216648 0.06584739 0.092835404
0.17981157 0.035530787 -0.062759124 0.10122689 -0.07781909 0.09719994 -0.022829149 0.06366377
-0.08854592 0.015736174 -0.19638833 -0.10307867 -0.049853075 -0.08505398 -0.026198104 0.019853452
-0.18423605 -0.11970533 -0.15726905 -0.28792757 -0.24665649 0.04470623 0.088933095 0.27206138
00000000: 74ad 843e 6867 693e f192 c83d 3638 cc3e
00000010: 991b 60bc 4a5f c7bd 0ecf 08bd b584 4abd
00000020: ab40 433d 76d4 c83d d6db a5ba e44b 4d3d
00000030: 42e7 0ebe c989 003e 8af4 fdbc d4b9 7dbd
00000040: 1d10 1f3d 7434 21bd 04dd 6a3d 6b35 30bd
00000050: 90b2 13be e0e4 cf3c de9b 8c3e 7850 62bd
00000060: c55a 57bd 8332 84bb 1d94 50bd d463 35bd
00000070: 03d2 b93d 7d60 1f3e b4cd 14bd 2d8f 18bd
00000080: e78b 9bbd 6388 b03c 2d16 633c fd9d e8bc
00000090: a73e d53d f80e 263e ffda 863d 7d20 be3d
000000a0: 8620 383e bb88 113d db87 80bd 0b50 cf3d
000000b0: 9d5f 9fbd c310 c73d 3204 bbbc 2762 823d
000000c0: 9057 b5bd 26e9 803c 061a 49be e91a d3bd
000000d0: bd32 4cbd c830 aebd 689d d6bc b5a3 a23c
000000e0: 60a8 3cbe 1128 f5bd 230b 21be 3e6b 93be
000000f0: 8593 7cbe e11d 373d 8e22 b63d a14b 8b3e

conv.0.weight_v f4 [576]
-0.054778982 -0.026066046 -0.012529044 0.0050010844 0.0049471385 -0.038571205 0.026726915 0.004271734
-0.08392738 0.0051742545 -0.07078036 0.00340152 0.008400221 -0.02566522 -0.042495552 -0.047981862
-0.04161739 -0.032308884 0.12861855 0.1156348 0.10261017 0.09620666 0.13726044 0.06566409
0.08791965 0.124428466 0.077299066 -0.012086578 0.02701245 0.04360385 0.04179859 0.03199272
-0.018369624 0.05235104 0.025263762 -0.029384403 -0.025370602 -0.05980508 -0.0075836214 -0.010432802
-0.0040789666 -0.016461676 -0.044632293 0.013037438 0.015412687 0.005999156 0.023886641 0.034544088
0.049098935 0.013123874 0.044096895 0.014012484 0.0566985 0.013008638 0.09694704 0.08043759
0.051361527 0.036427125 0.10180496 0.050759494 -0.0016428673 0.050580855 0.08310018 0.069867566
0.04682808 0.023856156 0.051465206 0.087477766 0.024277957 0.011669762 -0.01276207 0.0525359
0.108261734 0.06255693 0.092325576 0.09734606 0.07995498 0.11628505 0.081256606 0.07313528
0.031619903 0.06255429 -0.003891491 0.0076757483 0.0026050156 0.0542681 0.046142466 0.038537268
-0.019941855 -0.036550008 -0.011559962 -0.042397235 -0.034752905 -0.004268538 0.019355152 0.015110484
-0.023582084 0.00083340687 -0.04490072 0.027835112 -0.039163474 0.0016338928 -0.05645177 -0.029044272
-0.027407613 -0.029738173 -0.057720788 -0.010099516 0.06390535 0.02360124 0.044771727 0.07042215
0.073251836 0.01867787 0.040230386 0.036303032 0.05023751 -0.05677546 -0.047239915 0.012475656
-0.0562145 -0.024239944 0.0035782682 -0.054525185 -0.021017406 0.025558159 -0.002776344 0.020915167
-0.029460391 -0.036499064 -0.0057910495 0.011667944 0.04673799 0.016779324 0.026695017 -0.025692264
0.012654124 0.025502555 -0.008237974 0.015115939 -0.013938903 0.01653146 -0.0038670497 -0.023670496
0.023782538 -0.012413668 0.012001822 -0.031500366 0.01146801 -0.065278605 0.016072787 0.0970934
0.016245725 -0.012901507 -0.004497059 0.033414837 0.0022895124 -0.019577751 0.0032596686 -0.0024347494
-0.04986896 -0.065086246 0.044670016 0.025232356 0.0003561942 0.07043052 0.07986866 0.038142655
-0.016133482 -0.0013024498 0.0029744392 -0.049053464 0.027326975 -0.004832028 -0.00026725046 0.04690726
0.013818711 -0.01346673 -0.02762095 0.07496966 0.008646815 -0.015513081 -0.048903596 -0.024482839
-0.03636578 -0.06869043 -0.031001853 0.013822596 -0.021401199 -0.06403774 -0.05426763 -0.06504036
-0.07569196 -0.055648852 -0.0512347 -0.03383975 -0.09061618 -0.104029216 -0.013648245 0.0017483537
-0.040986024 0.0050893743 0.00360431 -0.03057349 -0.029133312 0.003993009 0.0655182 -0.026711151
-0.024923928 -0.057245456 0.061454333 -0.023763828 -0.047074802 -0.017917836 0.03363348 0.009546226
-0.022954645 -0.039059054 0.04692051 0.021581398 0.003875572 0.0100983465 -0.020813247 0.016740747
-0.020412555 -0.00864929 0.008888294 0.02603845 0.0064239213 -0.035475433 0.023526145 -0.057246134
-0.021022988 0.027883044 -0.0343511 -0.06573434 0.0014203881 -0.032086723 -0.056782324 -0.016457304
-0.0049098297 -0.01538821 -0.07138208 -0.09894123 -0.08019785 -0.071204625 -0.038976457 -0.041093856
-0.048861504 -0.039167892 -0.02510005 -0.06481188 0.0018933275 0.00053719233 -0.069871955 0.008039621
00000000: ed5f 60bd 7688 d5bc 9f46 4dbc 23e0 a33b
00000010: 9b1b a23b d7fc 1dbd 67f2 da3c e7f9 8b3b
00000020: 1ee2 abbd cb8c a93b 4bf5 90bd 09ec 5e3b
00000030: 15a1 093c de3f d2bc d10f 2ebd a188 44bd
00000040: ff76 2abd 5256 04bd 95b4 033e f0d1 ec3d
00000050: 4825 d23d ff07 c53d 008e 0c3e e57a 863d
00000060: 380f b43d 5ad4 fe3d f94e 9e3d c806 46bc
00000070: 3749 dd3c f399 323d 0035 2b3d cc0a 033d
00000080: e57b 96bc 0b6e 563d f3f5 ce3c 8fb7 f0bc
00000090: 02d6 cfbc 2cf6 74bd 0780 f8bb 58ee 2abc
000000a0: daa8 85bb a3da 86bc 5ad0 36bd fa9a 553c
000000b0: 7f85 7c3c 9194 c43b ebad c33c 1a7e 0d3d
000000c0: f71b 493d 8405 573c f29e 343d 9e94 653c
000000d0: b03c 683d 2f22 553c 2b8c c63d 77bc a43d
000000e0: 7760 523d 9c34 153d 1e7f d03d 30e9 4f3d
000000f0: 7b55 d7ba df2d 4f3d 6d30 aa3d ba16 8f3d
00000100: cdce 3f3d fc6d c33c 2ecd 523d 8b27 b33d
00000110: 91e2 c63c 8832 3f3c 0018 51bc e22f 573d
00000120: 54b8 dd3d d91d 803d 3115 bd3d 5f5d c73d
00000130: 70bf a33d db26 ee3d dd69 a63d f3c7 953d
00000140: df83 013d 771c 803d 6308 7fbb d884 fb3b
00000150: e9b8 2a3b 3a48 5e3d e2ff 3c3d 41d9 1d3d
00000160: 1a5d a3bc 76b5 15bd ff65 3dbc b9a8 2dbd
00000170: 1059 0ebd 18df 8bbb b28e 9e3c f791 773c
00000180: 372f c1bc fd78 5a3a d1e9 37bd 7606 e43c
00000190: e169 20bd 5828 d63a f939 67bd 41ee edbc
000001a0: ee85 e0bc 789d f3bc a26c 6cbd 7178 25bc
000001b0: cfe0 823d 6357 c13c 8f62 373d 7d39 903d
000001c0: 0f05 963d 5502 993c 9ec8 243d 7db2 143d
000001d0: d9c5 4d3d 628d 68bd a47e 41bd b266 4c3c
000001e0: 2d41 66bd d992 c6bc 6181 6a3b cd55 5fbd
000001f0: b22c acbc 585f d13c 53f3 35bb 4956 ab3c
00000200: eb56 f1bc 0b80 15bd d8c2 bdbb e72a 3f3c
00000210: 5670 3f3d cb74 893c 82af da3c 9578 d2bc
00000220: 3e53 4f3c bcea d03c 91f8 06bc d8a8 773c
00000230: ff5f 64bc fc6c 873c 546e 7dbb a1e8 c1bc
00000240: 99d3 c23c b362 4bbc 4aa3 443c 8706 01bd
00000250: 52e4 3b3c cab0 85bd 14ab 833c e8d8 c63d
00000260: c115 853c d860 53bc 115c 93bb ffdd 083d
00000270: a50b 163b 8561 a0bc 2aa0 553b 5190 1fbb
00000280: 6543 4cbd f04b 85bd e8f7 363d 16b4 ce3c
00000290: 94bf ba39 e03d 903d 2e92 a33d 793b 1c3d
000002a0: 5d2a 84bc f7b6 aaba cfee 423b 49ec 48bd
000002b0: d2dc df3c fd55 9ebb c01d 8cb9 d421 403d
000002c0: e067 623c 8fa3 5cbc 5545 e2bc b189 993d
000002d0: 5fab 0d3c 942a 7ebc 234f 48bd 3c90 c8bc
000002e0: 49f4 14bd 91ad 8cbd 99f7 fdbc 2b78 623c
000002f0: 9151 afbc 3826 83bd bc47 5ebd e133 85bd
00000300: 6304 9bbd 0df0 63bd 7adb 51bd 8d9b 0abd
00000310: fa94 b9bd 450d d5bd e39c 5fbc 0429 e53a
00000320: f6e0 27bd c4c4 a63b 4a36 6c3b 4175 fabc
00000330: fca8 eebc cad7 823b 682e 863d 58d1 dabc
00000340: 442d ccbc 367a 6abd 8ab7 7b3d 5cac c2bc
00000350: 82d1 40bd 6dc8 92bc 43c3 093d c667 1c3c
00000360: 610b bcbc 63fc 1fbd b82f 403d 79cb b03c
00000370: 4ffd 7d3b 8973 253c 8b80 aabc e423 893c
00000380: 3b38 a7bc c0b5 0dbc 35a0 113c 964e d53c
00000390: c27f d23b b04e 11bd e7b9 c03c ec7a 6abd
000003a0: 6738 acbc fb6a e43c bdb3 0cbd ba9f 86bd
000003b0: 512c ba3a 5e6d 03bd 9594 68bd 78d1 86bc
000003c0: a3e2 a0bb d51e 7cbc c530 92bd b3a1 cabd
000003d0: c53e a4bd bbd3 91bd c7a5 1fbd 0852 28bd
000003e0: 0023 48bd 836e 20bd 9f9e cdbc 17bc 84bd
000003f0: 8729 f83a 5ed2 0c3a 0719 8fbd 9db8 033c

conv.2.bias f4 [64]
-0.009054156 -0.02034885 0.03369885 -0.0041617393 -0.0059023667 -0.0062211095 -0.0037159987 -0.007832222
-0.019466752 -0.0002518998 0.004054429 -0.0139882015 -0.0077647106 -0.006370815 -0.01707876 -0.01929834
-0.010318405 -0.016694106 -0.008348995 -0.0061386777 -0.019041607 -0.010881054 -0.006862403 -0.00608034
-0.03665993 -0.008030869 -0.016945643 -0.007211252 -0.009561107 -0.002778036 -0.038217787 -0.004757363
-0.013621219 -0.03240786 -0.009510087 -0.055723846 -0.0064810505 -0.012145948 -0.006972828 -0.018517498
-0.008761049 -0.0059335036 -0.015004111 -0.0042414395 -0.028598452 -0.0074529424 -0.0078006564 -0.005426195
-0.0066817594 -0.00976383 -0.021130174 -0.0076902406 -0.0048279148 -0.0072343303 -0.0070654075 -0.008844678
-0.0044627422 -0.012857714 -0.011132274 -0.006073495 -0.03364581 -0.008340593 -0.010674851 -0.0155604035
00000000: e257 14bc a2b2 a6bc ce07 0a3d 335f 88bb
00000010: a468 c1bb 73da cbbb 1d88 73bb b852 00bc
00000020: bd78 9fbc 6b11 84b9 04db 843b c52e 65bc
00000030: 1d6f febb 45c2 d0bb c1e8 8bbc 8d17 9ebc
00000040: 870e 29bc 14c2 88bc 39ca 08bc f626 c9bb
00000050: 25fd 9bbc 7346 32bc 02de e0bb 973d c7bb
00000060: b928 16bd e893 03bc 97d1 8abc 5e4c ecbb
00000070: 30a6 1cbc b60f 36bb 418a 1cbd a7e3 9bbb
00000080: 892b 5fbc 1bbe 04bd 32d0 1bbc b03e 64bd
00000090: fe5e d4bb ccff 46bc 527c e4bb 02b2 97bc
000000a0: 818a 0fbc d66d c2bb ced3 75bc c6fb 8abb
000000b0: 4d47 eabc d037 f4bb a69c ffbb 39ce b1bb
000000c0: a9f2 dabb 79f8 1fbc 3019 adbc 6afe fbbb
000000d0: 7c33 9ebb f60d edbb ef84 e7bb 45e9 10bc
000000e0: 323c 92bb 29a9 52bc 2464 36bc 2b04 c7bb
000000f0: 30d0 09bd fca6 08bc 92e5 2ebc 10f1 7ebc

conv.2.weight_orig f4 [64, 64, 3, 3]
-0.007830581 0.044429626 -0.051998474 -0.10762456 -0.16293357 0.0037738879 0.007114597 -0.08155843
-0.0012598503 -0.0328561 -0.020780267 -0.009954945 0.04032287 0.019030308 -0.029478977 -0.007979176
-0.030503327 -0.09480342 -0.03465675 0.022562873 -0.05842808 -0.02284883 -0.029744707 0.044996105
-0.11092689 -0.03647322 0.01632452 -0.041276403 -0.0025192501 0.011980107 0.003902022 -0.092953555
0.012937291 0.012399848 0.04483573 0.072212495 0.051276527 0.045748014 0.024854984 0.098391294
-0.010833845 -0.07474901 0.025330702 -0.018449392 0.010129923 -0.035350773 -0.066928916 -0.071493246
0.016335377 0.005246235 -0.0316252 0.00076159055 -0.039319843 -0.042512313 0.0041923383 -0.06105985
0.0046719047 -0.08367497 -0.015507194 -0.030609915 0.0046025547 -0.04758204 0.045633975 -0.081641376
-0.013804536 -0.028962921 -0.012447156 0.10483145 -0.051664285 -0.07138156 -0.04196392 0.0813414
0.020640494 -0.02450657 -0.044089597 -0.027055772 0.0047251764 0.011463517 -0.07426615 -0.015754843
-0.042709287 -0.029536696 -0.022534491 0.01959658 0.040168226 -0.042806394 -0.030521795 -0.012671287
-0.110630065 -0.0432901 -0.0421486 -0.043837495 -0.04377919 -0.103962675 0.13074149 0.103891395
-0.031863052 -0.0246772 0.03853291 0.0020913326 0.081023864 -0.009567552 0.046823066 0.0032288923
-0.017332619 0.05560702 0.055728365 -0.014783459 0.09721003 0.084941246 -0.03390796 -0.030903678
-0.0018318193 -0.08079495 -0.102783225 -0.012105953 0.004711982 -0.065454595 0.019368825 0.04888977
0.02185882 -0.0102534685 -0.05018797 -0.010243515 -0.060312957 -0.040493168 -0.032448184 -0.034681577
0.01637228 0.09105198 0.030333577 0.057734903 0.02073582 0.07174823 0.015021728 -0.0029836004
-0.18535337 -0.0092911 0.08939486 -0.034860183 0.041670524 -0.07916866 -0.008693706 -0.015646067
-0.06813016 -0.022861281 0.041186888 0.0018696166 0.004951125 0.048788216 -0.048157822 0.09096525
-0.0342652 0.034220405 0.050566044 -0.09275192 -0.023338377 0.024458876 -0.033031173 0.09200894
-0.024566807 -0.026133902 -0.014438128 0.05158563 -0.01653041 0.06900936 -0.057899732 -0.0423909
0.021734646 0.0415461 -0.0055424697 0.12274009 0.053418048 -0.015576241 -0.052694958 -0.031766392
0.0073721656 -0.0033004386 0.104511544 0.03984733 0.02699574 0.025898643 0.074869454 -0.09734668
-0.033864267 -0.010437726 -0.075938195 -0.07507891 -0.11029747 0.025185712 0.021556057 -0.043046877
-0.15283394 -0.027188152 0.07964857 0.027690055 0.070229545 -0.04860245 -0.014394497 -0.1295934
-0.022543145 -0.061156284 -0.044608977 0.011857456 -0.049547102 0.08688882 0.01240149 -0.040957298
-0.022368563 -0.027792964 0.095111735 -0.0023226577 0.006222709 -0.08120688 -0.0168343 0.04664039
0.070445806 0.010351073 0.018366314 -0.049042553 0.09236714 -0.016819257 -0.025408378 0.05033551
-0.010997816 0.018072354 -0.005019966 -0.0666278 -0.0059272763 -0.007036609 0.044068962 -0.035634518
-0.034342755 -0.08551409 -0.0047701024 -0.033646706 0.0594612 -0.021568231 0.13497873 -0.018548517
0.011661161 -0.015507 -0.05157247 0.063967675 -0.025740191 -0.05278126 -0.02351754 0.035974465
0.14617854 0.05845879 0.05989403 -0.14770254 0.023197921 0.026478883 0.0747686 -0.027080642
00000000: d64b 00bc d7fb 353d 5afc 54bd 446a dcbd
00000010: 0fd8 26be 5553 773b 9121 e93b 1b08 a7bd
00000020: 9021 a5ba 1e94 06bd 613b aabc 111a 23bc
00000030: 9829 253d 73e5 9b3c e57d f1bc 17bb 02bc
00000040: 1de2 f9bc 4c28 c2bd 3cf4 0dbd c6d5 b83c
00000050: 4852 6fbd 782d bbbc 2cab f3bc d64d 383d
00000060: a32d e3bd f164 15bd 00bb 853c 7211 29bd
00000070: 011a 25bb 3648 443c 11b9 7f3b 6f5e bebd
00000080: eef6 533c bb28 4b3c aca5 373d 25e4 933d
00000090: 5607 523d 4562 3b3d ae9c cb3c 6081 c93d
000000a0: 7080 31bc 0216 99bd 5582 cf3c 2e23 97bc
000000b0: faf7 253c f9cb 10bd 0712 89bd 0d6b 92bd
000000c0: c5d1 853c 9ce8 ab3b 6d89 01bd 7aa5 473a
000000d0: d80d 21bd 6421 2ebd e25f 893b e519 7abd
000000e0: c716 993b c85d abbd e311 7ebc a5c1 fabc
000000f0: 07d1 963b 63e5 42bd b1ea 3a3d 9833 a7bd
00000100: 6c2c 62bc a643 edbc 28ef 4bbc dfb1 d63d
00000110: ee9d 53bd 7f30 92bd 5ce2 2bbd 5296 a63d
00000120: 4116 a93c 01c2 c8bc 4b97 34bd 11a4 ddbc
00000130: a7d5 9a3b 7ad1 3b3c da18 98bd 4d10 81bc
00000140: efef 2ebd f1f6 f1bc 419a b8bc 0289 a03c
00000150: 7087 243d c255 2fbd d808 fabc 3b9b 4fbc
00000160: 0492 e2bd f650 31bd 03a4 2cbd f28e 33bd
00000170: cf51 33bd 62ea d4bd 19e1 053e 03c5 d43d
00000180: d582 02bd d727 cabc afd4 1d3d bd0e 093b
00000190: d7ef a53d 39c1 1cbc 8bc9 3f3d d39b 533b
000001a0: 23fd 8dbc 30c4 633d 6d43 643d 5236 72bc
000001b0: 0d16 c73d adf5 ad3d 13e3 0abd b629 fdbc
000001c0: a819 f0ba d377 a5bd 0380 d2bd 0c58 46bc
000001d0: f866 9a3b 0f0d 86bd 5fab 9e3c a440 483d
000001e0: 4511 b33c 2afe 27bc e791 4dbd 6ad4 27bc
000001f0: b80a 77bd 2adc 25bd 63e8 04bd 450e 0ebd
00000200: 291f 863c 7679 ba3d 1f7e f83c 6f7b 6c3d
00000210: 2bde a93c bcf0 923d b21d 763c 8288 43bb
00000220: 46cd 3dbe b339 18bc a714 b73d 8dc9 0ebd
00000230: b6ae 2a3d 2e23 a2bd 0c70 0ebc 2e2c 80bc
00000240: d387 8bbd 9547 bbbc 95b3 283d ec0d f53a
00000250: 0c3d a23b 27d6 473d 2341 45bd fd4b ba3d
00000260: ab59 0cbd b22a 0c3d 571e 4f3d b8f4 bdbd
00000270: 2030 bfbc fb5d c83c b24b 07bd 2f6f bc3d
00000280: 5440 c9bc c416 d6bc e68d 6cbc 744b 533d
00000290: c86a 87bc c854 8d3d 4528 6dbd 15a2 2dbd
000002a0: db0c b23c 3e2c 2a3d 9b9d b5bb 285f fb3d
000002b0: e2cc 5a3d 7d33 7fbc abd6 57bd 7a1d 02bd
000002c0: 3592 f13b 2c4c 58bb 260a d63d f436 233d
000002d0: 2c26 dd3c 6429 d43c 2855 993d b25d c7bd
000002e0: 42b5 0abd ff02 2bbc 7c85 9bbd f9c2 99bd
000002f0: a4e3 e1bd 4452 ce3c 5496 b03c ec51 30bd
00000300: 8080 1cbe b0b9 debc ca1e a33d 41d6 e23c
00000310: 82d4 8f3d 5d13 47bd e5d6 6bbc 22b4 04be
00000320: 67ac b8bc 037f 7abd e7b7 36bd c645 423c
00000330: e7f1 4abd c4f2 b13d 9e2f 4b3c d7c2 27bd
00000340: 473e b7bc 12ae e3bc f1c9 c23d bb37 18bb
00000350: dee7 cb3b cb4f a6bd 16e8 89bc fe09 3f3d
00000360: e445 903d 8c97 293c f474 963c d8e0 48bd
00000370: fc2a bd3d 8ac8 89bc 3b25 d0bc 9c2c 4e3d
00000380: 2f30 34bc 790c 943c 877e a4bb 2874 88bd
00000390: 9939 c2bb 5b93 e6bb a881 343d 80f5 11bd
000003a0: fdaa 0cbd 0322 afbd 854e 9cbb 21d1 09bd
000003b0: 968d 733d dcaf b0bc dd37 0a3e 0ff3 97bc
000003c0: 740e 3f3c 1211 7ebc a83d 53bd 7c01 833d
000003d0: 18dd d2bc 2a31 58bd dba7 c0bc f659 133d
000003e0: d4af 153e 7c72 6f3d 7153 753d 563f 17be
000003f0: 9109 be3c 3eea d83c 4820 993d 39d8 ddbc

conv.2.weight_u f4 [64]
0.056693494 0.021706063 0.0049635475 0.013555541 0.08022884 -0.048222616 0.02507657 0.018303735
0.22219138 -0.031596966 0.046084754 -0.04819707 -0.046409797 -0.06230048 -0.2206288 0.20312466
0.0331351 0.009227065 -0.02078954 -0.013588123 -0.02846976 -0.05786598 -0.062933415 -0.06651932
0.09818993 0.00041472085 -0.12928662 0.0026791452 0.019438671 0.051427 -0.15506901 -0.09618795
0.0022557129 -0.087152 -0.22022279 -0.049728494 -0.11169065 -0.10298601 0.28108412 -0.084712625
0.09769966 -0.08948135 -0.059314054 -0.037994586 0.18656713 -0.003932014 0.12489637 -0.06207219
-0.18680798 0.013213217 -0.10835686 -0.47764865 -0.1290656 0.069918774 -0.048553914 -0.19088812
-0.1105778 0.14341703 0.18302625 -0.19409722 0.08974296 0.21934745 0.13076982 -0.03741422
00000000: 7037 683d ead0 b13c 41a5 a23b 0f18 5e3c
00000010: 054f a43d 1485 45bd 616d cd3c b7f1 953c
00000020: 2386 633e d26b 01bd 5ec3 3c3d 4a6a 45bd
00000030: 3318 3ebd ca2e 7fbd 84ec 61be e9ff 4f3e
00000040: acb8 073d 1e2d 173c d34e aabc b8a0 5ebc
00000050: 6a39 e9bc e104 6dbd 3ce3 80bd 483b 88bd
00000060: cd17 c93d e46e d939 b663 04be 9994 2f3b
00000070: d93d 9f3c 1ea5 523d 69ca 1ebe 30fe c4bd
00000080: 95d4 133b bf7c b2bd 1582 61be 1bb0 4bbd
00000090: 11be e4bd 54ea d2bd 42ea 8f3e d07d adbd
000000a0: c216 c83d ff41 b7bd 4bf3 72bd 36a0 1bbd
000000b0: 740b 3f3e 20d8 80bb abc9 ff3d 693f 7ebd
000000c0: 974a 3fbe 407c 583c 34ea ddbd 5d8e f4be
000000d0: c629 04be 9331 8f3d 78e0 46bd 2d78 43be
000000e0: 9d76 e2bd eadb 123e 3c6b 3b3e 6cc1 46be
000000f0: 28cb b73d 9e9c 603e 86e8 053e a73f 19bd

conv.2.weight_v f4 [576]
-0.002771938 -0.038422473 -0.019805495 0.045745194 0.030311441 0.022335289 0.038222563 -0.06064026
0.067662865 0.0024770272 0.003306217 0.01986495 0.08126434 0.011891555 -0.013906974 -0.0033651665
0.033439215 0.0012232785 0.009882041 -0.030940795 -0.047606084 -0.034250848 -0.04665561 0.046534665
-0.035778385 -0.020971695 0.08450048 0.060508814 -0.023638468 0.008917424 0.09958995 -0.07759163
0.031466044 0.026621548 0.0014376753 0.003635556 0.009227468 -0.011201959 0.023282345 0.04383431
-0.014201884 -0.025330998 -0.07644767 -0.044345994 -0.044016607 -0.0047720238 0.03720269 -0.005189665
0.06245843 0.044406272 0.05593301 0.035702933 -0.0683827 0.07331211 -0.0034055845 0.013992283
-0.054830678 -0.0019339072 -0.07809409 0.03945704 0.014314106 -0.027082441 -0.017588602 -0.012174424
0.04052378 -0.02417152 -0.027901132 0.035864957 -0.016590536 -0.030045593 -0.019333275 -0.019930473
0.047499094 0.042272136 0.037950926 0.015105904 0.059236743 0.03712461 0.0071141473 -0.04737121
0.022178141 0.032075737 -0.0535988 0.024409913 0.057035133 0.0024221542 -0.014988313 -0.034329485
-0.022232363 0.059001077 0.043571785 -0.034739126 0.07002617 -0.027440019 0.0561364 -0.051466983
-0.0822675 -0.040441368 0.02289108 -0.054708216 0.024483576 -0.0076551368 0.004825555 -0.05267249
0.018983474 0.04409918 -0.016621498 0.013494504 0.048203073 0.021513822 0.0012483217 -0.022755096
-0.024835497 -0.051300712 -0.04496258 -0.00081025553 0.04521286 -0.056897834 -0.025893075 0.084554054
0.049619734 0.077275954 -0.017736388 -0.0005328263 0.008525318 0.040356204 2.796442e-05 0.052345015
-0.022851078 -0.012464355 0.071653545 -0.013507426 0.043931965 -0.01974877 -0.018125437 0.01021677
0.023402233 -0.036800895 0.05803925 -0.03657458 -0.070331275 -0.048578452 0.032819964 0.0143884355
0.052859116 0.064960405 -0.0003051532 0.0497775 -0.028926672 0.0447035 0.010286215 0.07287765
-0.0037009008 0.055239443 0.042310946 -0.03697419 0.09696058 0.0014032178 0.06734846 -0.0029555566
-0.086630754 0.036526855 0.02545857 -0.0421493 -0.04213626 0.007136315 -0.033463914 0.026277019
0.008618795 -0.010870711 -0.043113794 0.04373292 -0.07884854 0.009009808 -0.05865899 0.041129574
-0.0029565697 -0.044817194 0.040031217 0.04957496 -0.08263949 -0.03909509 -0.022452537 0.005668114
-0.019359846 0.01452905 0.0056227017 -0.118048355 -0.05168656 0.023961179 0.024905106 0.064175144
0.015179005 0.010920799 0.008987921 0.04739068 0.075070366 0.008981598 0.07111905 -0.054725412
0.03816957 0.09318715 0.06981681 0.015260318 0.029752083 0.0040608947 -0.0054357084 -0.006550683
0.03224186 0.008206845 -0.026385613 -0.0018062765 0.06166677 0.033755045 -0.014212158 0.0150514385
-0.035307072 -0.0009820968 0.06878877 0.05424656 0.07366724 -0.02419202 -0.03159643 0.035189986
0.021976965 0.01529633 -0.022220457 0.01063163 -0.08936508 0.008333468 0.0036848676 -0.017073186
0.06796769 -0.047540158 0.027258959 0.077546164 0.044852972 -0.013607092 0.04417699 0.02647941
0.039814398 -0.015683949 -0.030835085 -0.02807407 0.099077426 -0.009493244 -0.043198287 -0.036744863
-0.027213061 0.015351464 0.026909137 -0.015711816 -0.0045120097 0.02151261 -0.0126159 -0.030381959
00000000: 67a9 35bb e260 1dbd 223f a2bc 505f 3b3d
00000010: b34f f83c 7ff8 b63c 438f 1c3d ec61 78bd
00000020: d492 8a3d 9f55 223b 1ead 583b d2bb a23c
00000030: eb6d a63d ccd4 423c 14da 63bc 208a 5cbb
00000040: 8ff7 083d 6a56 a03a 49e8 213c 8d77 fdbc
00000050: 99fe 42bd 9e4a 0cbd f419 3fbd 229b 3e3d
00000060: 5b8c 12bd d5cc abbc 960e ad3d 17d8 773d
00000070: 76a5 c1bc 631a 123c d1f5 cb3d 5ce8 9ebd
00000080: 8ae2 003d 6f15 da3c 6170 bc3a 8242 6e3b
00000090: ce2e 173c 6c88 37bc 9eba be3c 9b8b 333d
000000a0: 05af 68bc f482 cfbc 9990 9cbd 25a4 35bd
000000b0: c24a 34bd a35e 9cbb d961 183d 110e aabb
000000c0: 69d4 7f3d 5ae3 353d 031a 653d 3d3d 123d
000000d0: 3b0c 8cbd a924 963d 3a30 5fbb e33f 653c
000000e0: 2296 60bd 287b fdba cbef 9fbd b59d 213d
000000f0: b685 6a3c ffdb ddbc f915 90bc 3c77 47bc
00000100: 43fc 253d 5a03 c6bc ea90 e4bc 22e7 123d
00000110: e0e8 87bc 2d22 f6bc d160 9ebc 3b45 a3bc
00000120: 698e 423d 8c25 2d3d 6e72 1b3d c17e 773c
00000130: 3aa2 723d fa0f 183d cb1d e93b 5008 42bd
00000140: efae b53c d961 033d 6a8a 5bbd 4cf7 c73c
00000150: ac9d 693d 01bd 1e3b 8b91 75bc 139d 0cbd
00000160: a520 b6bc 1dab 713d 5478 323d 9d4a 0ebd
00000170: e169 8f3d e4c9 e0bc 48ef 653d 0bcf 52bd
00000180: dd7b a8bd d9a5 25bd 1386 bb3c b915 60bd
00000190: c891 c83c f1d7 fabb b01f 9e3b 1cbf 57bd
000001a0: 3b83 9b3c 57a1 343d cf29 88bc 0d18 5d3c
000001b0: 9670 453d c13d b03c ba9e a33a e568 babc
000001c0: d073 cbbc b220 52bd af2a 38bd 5467 54ba
000001d0: 1f31 393d b40d 69bd b71d d4bc ad2a ad3d
000001e0: 103e 4b3d db42 9e3d e74b 91bc 5ead 0bba
000001f0: c6ad 0b3c 8c4c 253d 2295 ea37 ba67 563d
00000200: 2f32 bbbc 4b37 4cbc 18bf 923d 404e 5dbc
00000210: 01f2 333d 2cc8 a1bc cc7b 94bc 3d64 273c
00000220: 0ab6 bf3c 89bc 16bd 91ba 6d3d 3acf 15bd
00000230: d809 90bd 33fa 46bd 3a6e 063d 79bd 6b3c
00000240: cd82 583d f609 853d f8fc 9fb9 7ee3 4b3d
00000250: a1f7 ecbc 041b 373d 8387 283c e140 953d
00000260: d08a 72bb c142 623d 3e4e 2d3d 4072 17bd
00000270: 4593 c63d 2dec b73a fded 893d 03b2 41bb
00000280: 776b b1bd 2f9d 153d 7e8e d03c bfa4 2cbd
00000290: 1297 2cbd c0d7 e93b 7511 09bd e742 d73c
000002a0: d935 0d3c 111b 32bc 1798 30bd 4a21 333d
000002b0: 587b a1bd e09d 133c 6944 70bd 7c77 283d
000002c0: 02c3 41bb 3c92 37bd c6f7 233d 1d0f 4b3d
000002d0: e53e a9bd 2c22 20bd 62ee b7bc 96bb b93b
000002e0: 8a98 9ebc 410b 6e3c a43e b83b 56c3 f1bd
000002f0: 49b5 53bd 3c4a c43c cb05 cc3c 426e 833d
00000300: 5db1 783c 27ed 323c 1342 133c bb1c 423d
00000310: 7ebe 993d 8d27 133c dda6 913d c127 60bd
00000320: b257 1c3d e8d8 be3d 1efc 8e3d 6a06 7a3c
00000330: a4ba f33c 4111 853b 071e b2bb 1da7 d6bb
00000340: 0a10 043d 0176 063c a426 d8bc 95c0 ecba
00000350: 4c96 7c3d bb42 0a3d 1cda 68bc 4f9a 763c
00000360: 269e 10bd b3b9 80ba 20e1 8c3d a431 5e3d
00000370: dade 963d 582e c6bc 426b 01bd 6023 103d
00000380: 0909 b43c 759d 7a3c ad07 b6bc 4a30 2e3c
00000390: 0a05 b7bd 1989 083c d27d 713b 11dd 8bbc
000003a0: a532 8b3d 78b9 42bd 2e4e df3c 86d0 9e3d
000003b0: c0b7 373d 48f0 5ebc eef2 343d 59eb d83c
000003c0: 6c14 233d a07b 80bc dc99 fcbc 98fb e5bc
000003d0: 1be9 ca3d 8d89 1bbc b0f0 30bd c881 16bd
000003e0: eded debc b584 7b3c 8d70 dc3c 11b6 80bc
000003f0: 7bd9 93bb 373b b03c ebb2 4ebc 96e3 f8bc

w.M2MM f4 [1, 64, 32, 32]
1.0453329 1.0375357 1.0183109 1.0271095 0.9720263 0.9744516 1.0692105 1.0843946
1.0708722 1.0743185 1.0626309 1.0530914 1.0587294 1.0398686 1.02743 1.0066249
0.98393357 0.96062714 0.9604313 0.9364897 0.96016467 0.9987484 0.99430597 1.0217737
1.0004357 1.0263958 1.080356 1.1049066 0.9939157 1.0153428 0.99208605 1.0832691
1.0395905 1.0026461 1.0065672 1.021497 1.0017157 0.9963786 1.0128145 1.0089462
1.005025 0.9972508 1.0181981 1.0029538 1.0028191 1.0023897 1.0083562 0.9934823
0.98949915 0.987442 0.9877875 0.99280506 0.9949066 0.99779654 1.004141 1.0030221
1.000896 0.99269384 0.9956857 1.0063016 0.98643255 0.96671283 0.9805515 1.0288306
1.003149 0.9849918 0.9856917 0.97203714 0.9810324 0.9827003 0.9860477 0.9942295
0.98760116 0.9626784 0.9757943 0.94993347 0.9861046 0.96358883 0.98273236 0.98565495
1.0013134 0.9976103 0.99690807 0.980789 0.9967408 0.9896126 0.9975495 0.9917721
0.99794877 0.97395223 0.9897417 1.0007626 0.9673457 0.9835388 0.9685486 0.98891044
0.99626136 0.9777621 0.9957674 0.9890949 0.98044825 0.9856919 0.97187716 0.9473726
0.93064624 0.959065 0.94869393 0.9451554 0.9825787 0.97535115 0.9683509 0.9892835
1.0247718 1.0091695 1.0285293 0.99112123 1.0110445 0.9938564 0.9854028 0.9888594
0.980042 0.93686056 0.9408936 0.9609015 0.9682504 1.0062549 0.96210533 0.9544373
0.9995655 1.0005621 0.95984685 1.0257258 1.0014409 0.9971418 0.99206245 0.9980498
1.0003091 0.9844368 0.9916354 0.97340536 0.9982735 1.0000651 0.98511636 0.9856206
0.98808813 0.9859765 0.9926535 0.9785114 0.97226465 0.97924286 0.9755848 0.959198
0.97648513 0.94769853 0.98006237 0.99642944 0.99096787 1.0111607 0.9705279 0.9666936
0.9981129 0.99935347 0.97388244 1.0037504 0.99901235 0.99538326 0.98465425 0.9905683
0.976572 0.9730302 0.9661686 0.9811466 0.94759035 0.9581273 0.96733505 0.9860852
0.9776863 0.98784965 0.9606369 0.96659684 0.98194724 0.9595919 0.9667272 0.9587576
0.9801693 0.9748426 0.9357978 0.99038273 0.9911601 0.9970489 0.9749698 0.96394426
1.0018809 1.004405 0.94708896 1.0164946 0.9922998 0.9996946 0.99613845 0.9847709
0.9863144 0.98799855 0.96034175 0.98115087 0.98051226 0.9749113 0.97536737 0.9404742
0.9712236 0.9801562 0.9627892 0.9838444 0.97523665 0.9386813 0.9795833 0.94953775
0.95024043 0.96332943 0.93822205 0.9893406 0.98197937 0.9919784 0.93892413 0.9760509
1.0023328 1.0000753 0.9102259 1.0182734 0.9994846 0.9998559 0.990213 1.0067852
0.98968583 0.9844135 0.99140996 0.9868448 0.9673529 0.97782296 0.94301754 0.95491767
0.9809008 0.9820772 0.9777975 0.98753 0.9789471 0.98159397 0.94412744 0.97969085
0.95601565 0.960709 0.9127594 0.9886025 0.99281096 0.9921068 0.9144095 0.9420164
00000000: 78cd 853f f8cd 843f 0358 823f 5378 833f
00000010: b7d6 783f a975 793f e4db 883f 71cd 8a3f
00000020: 5712 893f 4583 893f 4a04 883f b3cb 863f
00000030: 7284 873f 6a1a 853f d482 833f 16d9 803f
00000040: 12e3 7b3f a9eb 753f d3de 753f cabd 6f3f
00000050: 5acd 753f faad 7f3f d68a 7e3f 7bc9 823f
00000060: 470e 803f f060 833f 1b49 8a3f 946d 8d3f
00000070: 4271 7e3f c1f6 813f 5af9 7d3f 90a8 8a3f
00000080: 4d11 853f b556 803f 32d7 803f 6ac0 823f
00000090: 3838 803f ab12 7f3f e8a3 813f 2625 813f
000000a0: a9a4 803f d44b 7f3f 5154 823f ca60 803f
000000b0: 605c 803f 4e4e 803f d111 813f db54 7e3f
000000c0: d14f 7d3f 00c9 7c3f a4df 7c3f 7928 7e3f
000000d0: 33b2 7e3f 986f 7f3f b187 803f 0763 803f
000000e0: 5c1d 803f 2f21 7e3f 42e5 7e3f 7ece 803f
000000f0: d886 7c3f 7e7a 773f 6c05 7b3f b9b0 833f
00000100: 3067 803f 6c28 7c3f 4b56 7c3f 6dd7 783f
00000110: f024 7b3f 3f92 7b3f 9f6d 7c3f d385 7e3f
00000120: 6ed3 7c3f 1772 763f a8cd 793f d72e 733f
00000130: 5a71 7c3f c2ad 763f 5994 7b3f e253 7c3f
00000140: 0a2b 803f 6363 7f3f 5e35 7f3f fd14 7b3f
00000150: 682a 7f3f 4057 7d3f 675f 7f3f c7e4 7d3f
00000160: 9279 7f3f ef54 793f b65f 7d3f fd18 803f
00000170: f8a3 773f 33c9 7b3f cdf2 773f 3c29 7d3f
00000180: fc0a 7f3f 9e4e 7a3f 9dea 7e3f 5335 7d3f
00000190: a8fe 7a3f 4e56 7c3f f1cc 783f 0387 723f
000001a0: d53e 6e3f 4985 753f 9bdd 723f b4f5 713f
000001b0: 478a 7b3f 9db0 793f d8e5 773f af41 7d3f
000001c0: b92b 833f 772c 813f d9a6 833f 1fba 7d3f
000001d0: e869 813f 5f6d 7e3f 5c43 7c3f e425 7d3f
000001e0: 08e4 7a3f 18d6 6f3f 67de 703f a4fd 753f
000001f0: 42df 773f f6cc 803f 894c 763f 0156 743f
00000200: 86e3 7f3f 6b12 803f 86b8 753f fc4a 833f
00000210: 372f 803f af44 7f3f cef7 7d3f 3180 7f3f
00000220: 210a 803f 0d04 7c3f d1db 7d3f 1831 793f
00000230: da8e 7f3f 2202 803f 9630 7c3f a251 7c3f
00000240: 58f3 7c3f f568 7c3f 8a1e 7e3f b97f 7a3f
00000250: 56e6 783f a9af 7a3f edbf 793f 008e 753f
00000260: eefa 793f 5f9c 723f 5ee5 7a3f 0016 7f3f
00000270: 12b0 7d3f b76d 813f 8474 783f 3b79 773f
00000280: 5484 7f3f a1d5 7f3f 5c50 793f e57a 803f
00000290: 46bf 7f3f 70d1 7e3f 4d12 7c3f e295 7d3f
000002a0: 9f00 7a3f 8218 793f d356 773f 6c2c 7b3f
000002b0: 4895 723f d547 753f 45a3 773f 1470 7c3f
000002c0: a649 7a3f b7e3 7c3f 4dec 753f e472 773f
000002d0: e560 7b3f d1a7 753f 6f7b 773f 2371 753f
000002e0: 60ec 7a3f 498f 793f 7290 6f3f b989 7d3f
000002f0: abbc 7d3f 993e 7f3f 9f97 793f 0dc5 763f
00000300: a23d 803f 5890 803f 6c74 723f 7f1c 823f
00000310: 5c07 7e3f fceb 7f3f ee02 7f3f f219 7c3f
00000320: 1a7f 7c3f 79ed 7c3f f5d8 753f b42c 7b3f
00000330: da02 7b3f c993 793f adb1 793f ebc2 703f
00000340: 1ca2 783f 84eb 7a3f 5a79 763f 3add 7b3f
00000350: 1ca9 793f 6b4d 703f f9c5 7a3f e814 733f
00000360: f542 733f c29c 763f 522f 703f 6d45 7d3f
00000370: 0063 7b3f 4cf2 7d3f 555d 703f 79de 793f
00000380: 714c 803f 7802 803f 9104 693f c856 823f
00000390: 39de 7f3f 8ef6 7f3f 997e 7d3f 56de 803f
000003a0: 0d5c 7d3f 8602 7c3f 0bcd 7d3f dca1 7c3f
000003b0: 71a4 773f 9b52 7a3f 9969 713f 7c75 743f
000003c0: 511c 7b3f 6969 7b3f f050 7a3f c4ce 7c3f
000003d0: 479c 7a3f be49 7b3f 56b2 713f 05cd 7a3f
000003e0: 71bd 743f 06f1 753f 9aaa 693f 0e15 7d3f
000003f0: dc28 7e3f b6fa 7d3f be16 6a3f fd27 713f

w.MM2M f4 [1, 64, 32, 32]
0.9612699 1.0270714 1.0383707 0.97937703 0.94176507 0.9770959 1.0201623 1.0172244
0.98514676 0.9737858 0.966501 0.9674742 0.9565881 0.95186704 0.94782835 0.9420867
0.93563545 0.9269046 0.9070393 0.8759705 0.8718686 0.9088677 0.9254217 0.94305056
0.94191766 0.94652295 0.9826909 0.98292285 0.9606995 1.0025126 0.92538476 1.1248225
0.9626717 1.0085105 0.9814184 0.96603626 0.9834664 0.9982582 1.0046984 1.0078064
0.98079705 0.9811696 0.9774002 0.9800456 0.9772957 0.9707815 0.97007215 0.94891566
0.9438237 0.95153654 0.9473801 0.94871646 0.9539937 0.9542374 0.96244305 0.98320687
0.99131036 0.9726003 0.972011 0.9909652 0.92299676 0.99078476 0.96313304 1.061885
0.9939876 0.99758685 0.9837632 0.9704611 0.9908928 1.0110201 0.9876008 0.9932425
0.9700498 0.97259307 0.96127546 0.96807474 0.98100305 0.96502835 0.9626619 0.96121943
0.9738444 0.98827666 0.97096103 0.9831502 0.99704784 0.98472893 0.9835394 0.9853884
1.0161512 0.978245 0.98417205 1.0107442 0.9826036 0.98910576 0.92791283 1.0148443
0.98900884 0.9945779 0.98730695 0.9560126 0.866306 0.86822486 0.8962099 0.8249533
0.85510105 0.8803798 0.8803634 0.9084875 0.92409736 0.92657065 0.9516 0.95226455
0.9673779 0.962005 0.9740341 0.9719457 0.99962056 0.9564141 0.94954306 0.96640754
0.95197093 0.9025832 0.87819874 0.9015492 0.93436754 1.0224497 0.92439497 0.9224906
0.9997318 1.0073711 0.862154 0.9790975 0.9872032 0.97161454 0.95976955 0.9826147
0.9735697 0.94320685 0.9473907 0.9523615 0.96381164 0.96246785 0.97628033 0.97351766
0.96762884 0.96788055 0.9811255 0.9618715 1.0036451 0.98049647 0.9857291 0.97087884
0.97442085 0.9376571 0.9527316 0.9463828 0.96382904 1.0119598 0.9411215 0.9665517
0.9894359 1.0134261 0.9007041 0.91799724 0.9691897 0.9519301 0.96767336 0.94674283
0.9649711 0.9572068 0.9465525 0.9502421 0.9562768 0.9713545 0.9771198 0.99587506
1.0003265 1.0176945 1.0074168 1.0026622 1.0035965 0.99436456 0.98581296 0.98933643
0.9765202 0.9485723 0.9521382 0.9708933 0.97365165 0.97963744 0.86398333 0.9766539
0.99790984 1.0142674 0.83517355 0.9537774 0.9616176 0.9841125 0.9523924 0.93007475
0.9358856 0.9518098 0.96700245 0.9586748 0.98223877 0.9996581 1.0140564 0.9930263
0.9909351 1.008399 1.0144371 1.0078335 1.0033944 0.98255855 0.9892556 0.9905213
0.96870667 0.96584004 0.9302776 0.9683119 0.95328873 0.9555811 0.810722 0.97632873
0.9964004 1.012383 0.8084456 0.9427887 0.971314 0.97690535 0.95270306 0.95242685
0.9469518 0.9592436 0.99271977 0.9833928 1.0212996 1.0020565 0.9973017 1.0106363
0.9884914 1.0052941 1.0067422 1.0135196 0.99603385 0.99728155 1.0023937 0.98827934
0.9875354 0.9665435 0.9376171 0.96395946 0.94641775 0.95341563 0.9485723 0.9750693
00000000: c915 763f 1377 833f 55e9 843f 74b8 7a3f
00000010: 8417 713f f522 7a3f ae94 823f 6934 823f
00000020: 9432 7c3f 074a 793f 9c6c 773f 64ac 773f
00000030: f5e2 743f 8fad 733f e1a4 723f 982c 713f
00000040: ce85 6f3f 9f49 6d3f ba33 683f 9a3f 603f
00000050: c832 5f3f 8eab 683f 70e8 6c3f c36b 713f
00000060: 8421 713f 544f 723f a191 7b3f d5a0 7b3f
00000070: 67f0 753f 5552 803f 04e6 6c3f 2ffa 8f3f
00000080: a771 763f df16 813f 3c3e 7b3f 274e 773f
00000090: 74c4 7b3f d98d 7f3f f599 803f cdff 803f
000000a0: 8415 7b3f ee2d 7b3f e636 7a3f 45e4 7a3f
000000b0: 0d30 7a3f 2385 783f a656 783f 23ec 723f
000000c0: 6e9e 713f e697 733f 8187 723f 15df 723f
000000d0: ee38 743f e748 743f ab62 763f 72b3 7b3f
000000e0: 84c6 7d3f 55fc 783f b7d5 783f e5af 7d3f
000000f0: 8449 6c3f 12a4 7d3f e38f 763f d9eb 873f
00000100: f975 7e3f da61 7f3f e8d7 7b3f 2370 783f
00000110: 27ab 7d3f 1b69 813f 68d3 7c3f 2445 7e3f
00000120: 2f55 783f dcfb 783f 2616 763f bfd3 773f
00000130: 0423 7b3f 190c 773f 0371 763f 7a12 763f
00000140: de4d 793f b3ff 7c3f e790 783f bbaf 7b3f
00000150: 873e 7f3f 3217 7c3f 3dc9 7b3f 6a42 7c3f
00000160: 3e11 823f 446e 7a3f b3f2 7b3f 1160 813f
00000170: e98b 7b3f 0936 7d3f b28b 6d3f 6be6 813f
00000180: af2f 7d3f a89c 7e3f 26c0 7c3f 3ebd 743f
00000190: 3bc6 5d3f fc43 5e3f 036e 653f 2430 533f
000001a0: e7e7 5a3f 9260 613f 7f5f 613f a392 683f
000001b0: a591 6c3f bc33 6d3f 0f9c 733f 9cc7 733f
000001c0: 14a6 773f f645 763f 4c5a 793f 6fd1 783f
000001d0: 22e7 7f3f 8ed7 743f 4115 733f 7c66 773f
000001e0: 5eb4 733f b10f 673f a2d1 603f eecb 663f
000001f0: b632 6f3f a2df 823f 26a5 6c3f 5828 6c3f
00000200: 6cee 7f3f 89f1 803f 20b6 5c3f 22a6 7a3f
00000210: 59b9 7c3f bbbb 783f 75b3 753f a38c 7b3f
00000220: dd3b 793f 0176 713f 3288 723f f7cd 733f
00000230: 5cbc 763f 4b64 763f 82ed 793f 7438 793f
00000240: 86b6 773f 05c7 773f 0a2b 7b3f 363d 763f
00000250: 7177 803f d101 7b3f be58 7c3f 848b 783f
00000260: a573 793f 4c0a 703f 38e6 733f 2546 723f
00000270: 80bd 763f e687 813f 57ed 703f ef6f 773f
00000280: ac4b 7d3f f2b7 813f 8b94 663f de01 6b3f
00000290: d11c 783f b1b1 733f 71b9 773f bd5d 723f
000002a0: 5908 773f 810b 753f 4451 723f 1143 733f
000002b0: 8ece 743f b0aa 783f 8624 7a3f abf1 7e3f
000002c0: b30a 803f d043 823f 09f3 803f 3c57 803f
000002d0: da75 803f ad8e 7e3f 3d5e 7c3f 2745 7d3f
000002e0: 3afd 793f a2d5 723f 54bf 733f 778c 783f
000002f0: 3c41 793f 85c9 7a3f 032e 5d3f fd05 7a3f
00000300: 0577 7f3f 84d3 813f efcd 553f c12a 743f
00000310: 922c 763f ccee 7b3f fdcf 733f 6119 6e3f
00000320: 3396 6f3f cfa9 733f 798d 773f b66b 753f
00000330: 0074 7b3f 98e9 7f3f 9acc 813f f936 7e3f
00000340: ecad 7d3f 3813 813f 13d9 813f b000 813f
00000350: 3a6f 803f f588 7b3f db3f 7d3f ce92 7d3f
00000360: 29fd 773f 4b41 773f ac26 6e3f 4ae3 773f
00000370: bb0a 743f f7a0 743f 7a8b 4f3f aef0 793f
00000380: 1914 7f3f c495 813f 4af6 4e3f 9a5a 713f
00000390: 09a8 783f 7816 7a3f 59e4 733f 3fd2 733f
000003a0: 6f6b 723f fd90 753f e222 7e3f a1bf 7b3f
000003b0: f2b9 823f 6343 803f 2a4f 7f3f 885c 813f
000003c0: c60d 7d3f 7aad 803f eedc 803f 03bb 813f
000003d0: 13fc 7e3f d84d 7f3f 704e 803f e0ff 7c3f
000003e0: 1fcf 7c3f 656f 773f ad07 703f 0cc6 763f
000003f0: 6f48 723f 0c13 743f a2d5 723f 249e 793f
