checkpoint/clf/default_clf/1000/netE.pth (torch, 241318 bytes, 33 tensors)

model.0.weight f4 [32, 3, 4, 4]
0.10012805 -0.007160462 0.058725156 0.09599815 0.121120304 -0.04960214 -0.007882462 0.08638057
-0.12996085 -0.056405287 -0.037695404 0.013078685 -0.010508875 0.04589532 0.03354226 0.12236837
0.012649596 0.14505814 -0.07351984 -0.11893343 0.078635685 -0.004875672 0.03604166 0.020365896
0.059827972 0.11539775 -0.031503525 0.09692081 -0.00732412 0.06741015 0.061063018 0.039400082
0.05240854 0.08281231 -0.03194977 -0.009909274 -0.0070698657 -0.09533742 -0.08410402 -0.011183788
-0.058817822 0.06289241 0.0020410512 -0.10850826 0.004233495 -0.026508791 -0.032887828 -0.01570259
-0.018841803 0.015433513 -0.018479051 -0.08399577 -0.052314695 -0.060343105 -0.021325605 -0.0005446221
-0.038968265 0.003557915 0.077429675 0.06548738 -0.06145858 0.025965367 -0.15060692 -0.10001283
0.080298774 -0.027294248 -0.00492964 -0.110379376 0.04345191 0.028468773 -0.0062695555 -0.028227393
-0.07382272 0.079490826 -0.066330075 0.035362955 -0.10200094 -0.025060898 -0.006764798 -0.043302227
-0.03492088 -0.022704955 -0.1007287 0.0582925 0.016178714 -0.043253828 0.034740087 0.049932647
0.06747881 0.030842967 0.010717447 -0.048262164 0.068305716 0.039124217 -0.02903072 -0.026993157
0.030096045 0.020756053 -0.017856555 0.0693739 -0.02291018 -0.037918977 0.047602445 -0.027466564
-0.006401254 -0.1311902 0.031160053 -0.027266523 0.020502426 0.09180766 0.014231504 -0.01995575
0.10458562 -0.03877708 0.13332698 -0.05371868 0.04973119 -0.020657461 -0.045778837 0.09156194
0.11553543 0.0010239528 -0.07042582 0.0015112984 0.10060395 0.041629408 -0.02523093 -0.06613494
0.0020231735 -0.10746387 0.056221914 -0.0047293487 0.012172066 -0.052507013 0.031155609 -0.031543747
-0.053490404 0.07545366 0.04418548 -0.12186002 0.0020203288 0.024591867 0.016094439 -0.043017447
-0.039125904 -0.033347826 0.010853214 0.07776896 0.03887001 -0.043141503 -0.01905032 -0.0052335104
0.05761844 0.09342898 -0.034423754 -0.01079856 -0.07976632 0.037583943 -0.03275686 -0.055401683
0.016677959 -0.059821017 -0.119249895 -0.008200274 0.017265359 0.0031885162 0.033764116 0.021824418
-0.049600825 0.033738047 0.006341637 -0.028281631 -0.078791976 -0.10021056 -0.05950199 0.030428313
0.04328795 0.050114423 -0.041987658 -0.078698836 0.020760696 0.0013375392 0.01762273 0.06695133
-0.10146949 0.09988709 -0.014858755 -0.025473254 0.040402263 0.022063287 -0.029661361 0.09095641
-0.08500866 -0.026998037 -0.008054037 -0.020938471 0.1156959 -0.084818326 -0.04189878 -0.005125034
0.07659855 -0.06169197 0.024477808 -0.04354756 0.0660973 -0.07696569 0.10011619 -0.028594155
-0.12762058 0.06843788 0.08882521 0.03690202 -0.11995633 0.06405809 0.052851737 0.0018724242
-0.04654763 0.06930459 0.009835444 0.07498713 0.112079665 -0.07921184 -0.019700654 0.055424057
-0.050075322 0.030134846 -0.09370432 0.06043741 0.034222484 -0.026008673 -0.021837272 -0.015910845
0.05614109 -0.0030668343 0.07104458 -0.007347284 -0.017929098 -0.07287446 0.01074461 -0.043700494
-0.056357414 0.030221187 0.023935577 0.05144464 0.003198181 -0.0056462795 0.08384974 0.07049598
3.2081807e-05 -0.023948675 0.04470771 0.053919412 0.0755826 -0.0024957792 0.06728823 -0.035857823
00000000: ef0f cd3d 4fa2 eabb ca89 703d ae9a c43d
00000010: ec0d f83d 9d2b 4bbd 7125 01bc 4ce8 b03d
00000020: 7514 05be 3b09 67bd 7f66 1abd fb47 563c
00000030: 6b2d 2cbc bbfc 3b3d 9c63 093d 459c fa3d
00000040: 4040 4f3c 1f8a 143e 9291 96bd 5f93 f3bd
00000050: bf0b a13d 1ac4 9fbb 6ba0 133d 61d6 a63c
00000060: 2d0e 753d a855 ec3d d709 01bd 6b7e c63d
00000070: 2cff efbb 550e 8a3d 371d 7a3d fb61 213d
00000080: 56aa 563d 8099 a93d c3dd 02bd 825a 22bc
00000090: 55aa e7bb 4440 c3bd ba3e acbd 353c 37bc
000000a0: f5ea 70bd bccd 803d 28c3 053b 9439 debd
000000b0: 21b9 8a3b f728 d9bc 63b5 06bd b8a2 80bc
000000c0: 205a 9abc d8dc 7c3c 6161 97bc f905 acbd
000000d0: ef47 56bd 552a 77bd 09b3 aebc f8c4 0eba
000000e0: 309d 1fbd e92b 693b 7393 9e3d 3f1e 863d
000000f0: febb 7bbd 52b5 d43c b338 1abe 87d3 ccbd
00000100: af73 a43d 3098 dfbc d188 a1bb 950e e2bd
00000110: a1fa 313d 5837 e93c d870 cdbb 223d e7bc
00000120: 5e30 97bd 16cc a23d 10d8 87bd bfd8 103d
00000130: dee5 d0bd 834c cdbc 3dab ddbb ad5d 31bd
00000140: 3209 0fbd beff b9bc d94a cebd 1ec4 6e3d
00000150: 3989 843c ed2a 31bd 9f4b 0e3d 2d86 4c3d
00000160: 5532 8a3d 64aa fc3c 3b98 2f3c 8cae 45bd
00000170: dee3 8b3d b740 203d d5d1 edbc c120 ddbc
00000180: fb8b f63c 9908 aa3c e947 92bc e713 8e3d
00000190: 21ae bbbc ee50 1bbd c8fa 423d 8f01 e1bc
000001a0: 9cc1 d1bb b956 06be 5e43 ff3c 0b5e dfbc
000001b0: b4f4 a73c a805 bc3d 412b 693c 3e7a a3bc
000001c0: fc30 d63d b7d4 1ebd de86 083e 1e08 5cbd
000001d0: efb2 4b3d d639 a9bc 9782 3bbd d484 bb3d
000001e0: d79d ec3d 2836 863a 6a3b 90bd c216 c63a
000001f0: 7209 ce3d 9983 2a3d 18b1 cebc c171 87bd
00000200: 3897 043b 0416 dcbd f348 663d a7f8 9abb
00000210: 586d 473c 9811 57bd 0c3a ff3c 0434 01bd
00000220: c118 5bbd 7387 9a3d d5fb 343d bf91 f9bd
00000230: 7e67 043b e274 c93c 7cd8 833c 1033 30bd
00000240: 7c42 20bd bb97 08bd aed1 313c 5545 9f3d
00000250: 2936 1f3d 25b5 30bd 6b0f 9cbc de7d abbb
00000260: 5001 6c3d b157 bf3d ecff 0cbd 72ec 30bc
00000270: 865c a3bd 9ff1 193d 0f2c 06bd e0ec 62bd
00000280: 37a0 883c e206 75bd 4a39 f4bd 715a 06bc
00000290: 1570 8d3c 6df6 503b 3e4c 0a3d 1fc9 b23c
000002a0: 3c2a 4bbd e830 0a3d 82cd cf3b e1ae e7bc
000002b0: b05d a1bd 323b cdbd 5cb8 73bd cc44 f93c
000002c0: b54e 313d c844 4d3d 40fb 2bbd db2c a1bd
000002d0: 5612 aa3c 5e50 af3a 8b5d 903c c71d 893d
000002e0: 3ccf cfbd 9a91 cc3d 2372 73bc 49ad d0bc
000002f0: d87c 253d 11be b43c 62fc f2bc 5b47 ba3d
00000300: 0519 aebd fd2a ddbc 14f5 03bc 2887 abbc
00000310: f9f1 ec3d 3bb5 adbd 0e9e 2bbd e7ef a7bb
00000320: b3df 9c3d b8b0 7cbd af85 c83c ed5e 32bd
00000330: 055e 873d 30a0 9dbd b809 cd3d 4a3e eabc
00000340: f8ae 02be 2929 8c3d fee9 b53d 9326 173d
00000350: aaab f5bd e330 833d 107b 583d 216c f53a
00000360: baa8 3ebd 91ef 8d3d d824 213c da92 993d
00000370: 068a e53d d139 a2bd 4463 a1bc 5604 633d
00000380: c81b 4dbd 5add f63c 0de8 bfbd 388d 773d
00000390: e02c 0c3d 2410 d5bc 14e4 b2bc 7657 82bc
000003a0: 33f4 653d f1fc 48bb d27f 913d 7cc1 f0bb
000003b0: 0be0 92bc 343f 95bd 290a 303c 4aff 32bd
000003c0: 08d7 66bd 6c92 f73c 8b14 c43c 9db7 523d
000003d0: 9398 513b 6d04 b9bb 6ab9 ab3d 3260 903d
000003e0: 948f 0638 0330 c4bc 6f1f 373d 9ada 5c3d
000003f0: 0dcb 9a3d 3a90 23bb 69ce 893d a7df 12bd

model.0.bias f4 [32]
0.0 0.0 0.0 0.0 0.0 0.0 0.0 0.0
0.0 0.0 0.0 0.0 0.0 0.0 0.0 0.0
0.0 0.0 0.0 0.0 0.0 0.0 0.0 0.0
0.0 0.0 0.0 0.0 0.0 0.0 0.0 0.0
00000000: 0000 0000 0000 0000 0000 0000 0000 0000
00000010: 0000 0000 0000 0000 0000 0000 0000 0000
00000020: 0000 0000 0000 0000 0000 0000 0000 0000
00000030: 0000 0000 0000 0000 0000 0000 0000 0000
00000040: 0000 0000 0000 0000 0000 0000 0000 0000
00000050: 0000 0000 0000 0000 0000 0000 0000 0000
00000060: 0000 0000 0000 0000 0000 0000 0000 0000
00000070: 0000 0000 0000 0000 0000 0000 0000 0000

model.1.weight f4 [32]
1.0 1.0 1.0 1.0 1.0 1.0 1.0 1.0
1.0 1.0 1.0 1.0 1.0 1.0 1.0 1.0
1.0 1.0 1.0 1.0 1.0 1.0 1.0 1.0
1.0 1.0 1.0 1.0 1.0 1.0 1.0 1.0
00000000: 0000 803f 0000 803f 0000 803f 0000 803f
00000010: 0000 803f 0000 803f 0000 803f 0000 803f
00000020: 0000 803f 0000 803f 0000 803f 0000 803f
00000030: 0000 803f 0000 803f 0000 803f 0000 803f
00000040: 0000 803f 0000 803f 0000 803f 0000 803f
00000050: 0000 803f 0000 803f 0000 803f 0000 803f
00000060: 0000 803f 0000 803f 0000 803f 0000 803f
00000070: 0000 803f 0000 803f 0000 803f 0000 803f

model.1.bias f4 [32]
0.0 0.0 0.0 0.0 0.0 0.0 0.0 0.0
0.0 0.0 0.0 0.0 0.0 0.0 0.0 0.0
0.0 0.0 0.0 0.0 0.0 0.0 0.0 0.0
0.0 0.0 0.0 0.0 0.0 0.0 0.0 0.0
00000000: 0000 0000 0000 0000 0000 0000 0000 0000
00000010: 0000 0000 0000 0000 0000 0000 0000 0000
00000020: 0000 0000 0000 0000 0000 0000 0000 0000
00000030: 0000 0000 0000 0000 0000 0000 0000 0000
00000040: 0000 0000 0000 0000 0000 0000 0000 0000
00000050: 0000 0000 0000 0000 0000 0000 0000 0000
00000060: 0000 0000 0000 0000 0000 0000 0000 0000
00000070: 0000 0000 0000 0000 0000 0000 0000 0000

model.1.gate f4 [32]
1.0 1.0 1.0 1.0 1.0 1.0 1.0 1.0
1.0 1.0 1.0 1.0 1.0 1.0 1.0 1.0
1.0 1.0 1.0 1.0 1.0 1.0 1.0 1.0
1.0 1.0 1.0 1.0 1.0 1.0 1.0 1.0
00000000: 0000 803f 0000 803f 0000 803f 0000 803f
00000010: 0000 803f 0000 803f 0000 803f 0000 803f
00000020: 0000 803f 0000 803f 0000 803f 0000 803f
00000030: 0000 803f 0000 803f 0000 803f 0000 803f
00000040: 0000 803f 0000 803f 0000 803f 0000 803f
00000050: 0000 803f 0000 803f 0000 803f 0000 803f
00000060: 0000 803f 0000 803f 0000 803f 0000 803f
00000070: 0000 803f 0000 803f 0000 803f 0000 803f

model.1.running_mean f4 [32]
0.0 0.0 0.0 0.0 0.0 0.0 0.0 0.0
0.0 0.0 0.0 0.0 0.0 0.0 0.0 0.0
0.0 0.0 0.0 0.0 0.0 0.0 0.0 0.0
0.0 0.0 0.0 0.0 0.0 0.0 0.0 0.0
00000000: 0000 0000 0000 0000 0000 0000 0000 0000
00000010: 0000 0000 0000 0000 0000 0000 0000 0000
00000020: 0000 0000 0000 0000 0000 0000 0000 0000
00000030: 0000 0000 0000 0000 0000 0000 0000 0000
00000040: 0000 0000 0000 0000 0000 0000 0000 0000
00000050: 0000 0000 0000 0000 0000 0000 0000 0000
00000060: 0000 0000 0000 0000 0000 0000 0000 0000
00000070: 0000 0000 0000 0000 0000 0000 0000 0000

model.1.running_var f4 [32]
1.0 1.0 1.0 1.0 1.0 1.0 1.0 1.0
1.0 1.0 1.0 1.0 1.0 1.0 1.0 1.0
1.0 1.0 1.0 1.0 1.0 1.0 1.0 1.0
1.0 1.0 1.0 1.0 1.0 1.0 1.0 1.0
00000000: 0000 803f 0000 803f 0000 803f 0000 803f
00000010: 0000 803f 0000 803f 0000 803f 0000 803f
00000020: 0000 803f 0000 803f 0000 803f 0000 803f
00000030: 0000 803f 0000 803f 0000 803f 0000 803f
00000040: 0000 803f 0000 803f 0000 803f 0000 803f
00000050: 0000 803f 0000 803f 0000 803f 0000 803f
00000060: 0000 803f 0000 803f 0000 803f 0000 803f
00000070: 0000 803f 0000 803f 0000 803f 0000 803f

model.3.main.0.weight f4 [32, 32, 3, 3]
0.04728019 -0.07110815 -0.0704442 0.007908933 -0.007278803 -0.017575748 -0.10893752 -0.022171207
-0.070938006 0.024989938 0.025995892 0.05083093 -0.016260093 -0.00096276496 0.16724543 0.04964915
-0.091871046 0.091856025 -0.15930504 -0.07575563 -0.10924657 0.054575212 -0.098709665 0.06074637
-0.13196139 0.03665863 -0.010070726 0.02305304 -0.16943681 -0.09259784 0.11216845 0.1055903
0.1119902 0.008139403 0.08256418 0.0947029 -0.04860422 0.07116326 -0.017070234 -0.11394154
-0.15724215 0.021583192 0.04196122 0.023725575 0.059566192 0.035479248 -0.059670907 -0.21503139
-0.037486807 -0.10718958 0.110647514 0.008769897 0.0054321717 -0.042462137 0.026408635 -0.025083838
0.03795658 -0.0005356162 -0.0056748926 0.017683502 -0.061954927 -0.01133025 -0.026421566 0.015192831
-0.10742724 -0.027568247 0.12698457 -0.0069727222 -0.019164419 -0.0338081 -0.13815403 -0.004671053
-0.17163506 0.035303388 -0.062925264 0.16025865 0.074518174 -0.003981254 0.10860859 0.03369198
0.04309558 0.15844668 0.058740567 0.011635147 0.028181184 0.08746192 -0.1786716 0.021916673
0.017929677 0.030781789 0.06978661 -0.08921537 0.027446609 0.021968197 -0.06652901 0.013983427
-0.12645943 -0.04629461 0.030675389 -0.018930564 0.025900705 -0.025286518 0.069095254 0.038900506
-0.091063194 -0.028080514 -0.05992558 -0.060793355 -0.051213514 -0.051363505 0.031480096 0.11835146
-0.006615162 -0.043254476 0.02360708 0.12497492 -0.024590617 -0.11978688 0.04762376 0.035889745
-0.14187574 -0.024735501 0.073641144 -0.010504883 0.056968436 -0.05881266 0.02217916 -0.10513604
0.10821729 0.093412295 -0.048858177 0.05731633 0.048167907 -0.01735517 -0.038599074 -0.056332957
-0.03250988 -0.24791384 0.07865027 0.007822555 0.06259749 0.021648562 0.10083427 -0.051477715
-0.09789073 0.032514155 -0.082359366 -0.13666293 -0.07395047 -0.088846 0.0045350823 0.30244684
0.09180832 0.006588608 0.019361354 0.02002429 0.10324815 -0.0418998 -0.06430641 -0.033280924
0.0060399547 -0.03265463 0.03550124 0.03770097 0.036982864 -0.028827652 -0.0076421686 -0.035921656
-0.0095092 0.17203419 0.05920823 -0.14102684 -0.058511745 -0.092635244 -0.09351942 -0.045122027
-0.05326298 0.056576595 0.11275509 0.024017047 -0.14489499 0.01844695 0.17832755 -0.0016258715
-0.049991097 -0.12237412 0.054094836 0.067189306 0.15702583 -0.08142477 -0.039371487 -0.031110514
0.033718005 0.02575843 -0.002238244 0.05977449 0.001629923 0.089822605 0.014095436 0.053967413
-0.030910699 0.06427468 -0.07286209 0.11106377 0.01747135 0.13301376 0.047104564 -0.052227706
0.02221263 0.10250735 -0.1509895 0.10927892 -0.09373219 0.06628102 -0.06994571 0.07184562
-0.1744228 -0.0554547 -0.029836347 0.0032863438 0.021741664 -0.049400397 -0.07868517 0.038517147
0.047860287 0.07886452 -0.008649035 0.08423307 -0.04787679 -0.007493838 -0.20647244 0.038287196
0.033980027 0.118246704 0.039398488 0.061183553 -0.058330603 0.08960439 0.053981118 0.04725255
-0.151849 0.037588768 0.058234483 0.026562314 -0.022355778 0.0318463 -0.13718924 -0.022565875
-0.045427423 0.14320356 -0.06390168 -0.005270114 0.04159597 0.046879467 0.011860086 0.011310576
00000000: dfa8 413d 26a1 91bd 0c45 90bd 7894 013c
00000010: 0683 eebb 04fb 8fbc a21a dfbd 64a0 b5bc
00000020: f247 91bd b3b7 cc3c 56f5 d43c 1834 503d
00000030: e333 85bc 1062 7cba 6342 2b3e e85c 4b3d
00000040: e326 bcbd 031f bc3d dc20 23be c525 9bbd
00000050: aabc dfbd 428a 5f3d 4b28 cabd 30d1 783d
00000060: e320 07be 5c27 163d b0ff 24bc bbd9 bc3c
00000070: d880 2dbe f0a3 bdbd 93b8 e53d ba3f d83d
00000080: 1e5b e53d 215b 053c 6917 a93d 98f3 c13d
00000090: 3815 47bd 0bbe 913d e0d6 8bbc 2f5a e9bd
000000a0: 1604 21be 3ccf b03c 87df 2b3d 235c c23c
000000b0: aefb 733d b052 113d 7b69 74bd 3031 5cbe
000000c0: c48b 19bd 3686 dbbd 2a9b e23d 9daf 0f3c
000000d0: 5c00 b23b c7ec 2dbd ec56 d83c 9f7c cdbc
000000e0: 5c78 1b3d 9868 0cba 73f4 b9bb fedc 903c
000000f0: 73c4 7dbd 83a2 39bc 0a72 d8bc 5aeb 783c
00000100: d002 dcbd ced6 e1bc 3e08 023e 6f7b e4bb
00000110: b3fe 9cbc 5d7a 0abd 4078 0dbe a20f 99bb
00000120: 1ac1 2fbe 499a 103d f6de 80bd d81a 243e
00000130: fc9c 983d 2e75 82bb 2e6e de3d 9a00 0a3d
00000140: fe84 303d d93f 223e f399 703d 58a1 3e3c
00000150: 3adc e63c 3c1f b33d b0f5 36be 988a b33c
00000160: 42e1 923c 172a fc3c 48ec 8e3d 8cb6 b6bd
00000170: b6d7 e03c a6f6 b33c 5d40 88bd be1a 653c
00000180: 957e 01be 6b9f 3dbd f44a fb3c 4514 9bbc
00000190: b72d d43c ac25 cfbc d081 8d3d 2356 1f3d
000001a0: 577f babd 1b09 e6bc 8674 75bd 7402 79bd
000001b0: 43c5 51bd 8a62 52bd 46f1 003d 4062 f23d
000001c0: 00c4 d8bb 9b2b 31bd a363 c13c daf2 ff3d
000001d0: 4372 c9bc d352 f5bd 2211 433d 2001 133d
000001e0: e047 11be 1ba2 cabc 2bd1 963d ac1c 2cbc
000001f0: bc57 693d 8be5 70bd 12b1 b53c 9051 d7bd
00000200: 07a1 dd3d f24e bf3d 831f 48bd 87c4 6a3d
00000210: b64b 453d 6e2c 8ebc 101a 1ebd 63bd 66bd
00000220: 1429 05bd 20dd 7dbe 6513 a13d 2c2a 003c
00000230: 1d33 803d 5358 b13c 3382 ce3d 4cda 52bd
00000240: ef7a c8bd 902d 053d 07ac a8bd 5ef1 0bbe
00000250: 5873 97bd e4f4 b5bd 079b 943b 50da 9a3e
00000260: 0006 bc3d 40e5 d73b b49b 9e3c fb09 a43c
00000270: c473 d33d 209f 2bbd 14b3 83bd 9451 08bd
00000280: d0ea c53b dcc0 05bd c069 113d 556c 1a3d
00000290: 587b 173d f827 ecbc 286b fabb 9622 13bd
000002a0: 7acc 1bbc bb29 303e 5484 723d 5769 10be
000002b0: 03aa 6fbd 8cb7 bdbd 1c87 bfbd e0d1 38bd
000002c0: 482a 5abd dcbc 673d 24ec e63d 66bf c43c
000002d0: 5a5f 14be 0f1e 973c 7f9b 363e 321b d5ba
000002e0: 77c3 4cbd 489f fabd 8c92 5d3d 8c9a 893d
000002f0: 61cb 203e 08c2 a6bd ff43 21bd 7adb febc
00000300: e41b 0a3d 5803 d33c 81af 12bb 18d6 743d
00000310: 24a3 d53a eaf4 b73d 8bf0 663c ef0c 5d3d
00000320: 6f38 fdbc 72a2 833d b838 95bd 6775 e33d
00000330: 1420 8f3c c234 083e b7f0 403d b8ec 55bd
00000340: 43f7 b53c 60ef d13d fe9c 1abe a0cd df3d
00000350: aaf6 bfbd 58be 873d b23f 8fbd cc23 933d
00000360: e49b 32be 7824 63bd 5b6b f4bc b35f 573b
00000370: 931b b23c 1258 4abd b125 a1bd 28c4 1d3d
00000380: 2609 443d b983 a13d afb4 0dbc 6382 ac3d
00000390: 741a 44bd df8e f5bb 836d 53be 09d3 1c3d
000003a0: a42e 0b3d 542b f23d 4f60 213d 9b9b 7a3d
000003b0: 12ec 6ebd 8282 b73d 4e1b 5d3d e48b 413d
000003c0: 4e7e 1bbe aef6 193d 4887 6e3d 3699 d93c
000003d0: 7723 b7bc 4471 023d 567b 0cbe 12dc b8bc
000003e0: 1b12 3abd f4a3 123e e2de 82bd ecb0 acbb
000003f0: 8960 2a3d af04 403d ce50 423c ff4f 393c

model.3.main.1.weight f4 [32]
1.0 1.0 1.0 1.0 1.0 1.0 1.0 1.0
1.0 1.0 1.0 1.0 1.0 1.0 1.0 1.0
1.0 1.0 1.0 1.0 1.0 1.0 1.0 1.0
1.0 1.0 1.0 1.0 1.0 1.0 1.0 1.0
00000000: 0000 803f 0000 803f 0000 803f 0000 803f
00000010: 0000 803f 0000 803f 0000 803f 0000 803f
00000020: 0000 803f 0000 803f 0000 803f 0000 803f
00000030: 0000 803f 0000 803f 0000 803f 0000 803f
00000040: 0000 803f 0000 803f 0000 803f 0000 803f
00000050: 0000 803f 0000 803f 0000 803f 0000 803f
00000060: 0000 803f 0000 803f 0000 803f 0000 803f
00000070: 0000 803f 0000 803f 0000 803f 0000 803f

model.3.main.1.bias f4 [32]
0.0 0.0 0.0 0.0 0.0 0.0 0.0 0.0
0.0 0.0 0.0 0.0 0.0 0.0 0.0 0.0
0.0 0.0 0.0 0.0 0.0 0.0 0.0 0.0
0.0 0.0 0.0 0.0 0.0 0.0 0.0 0.0
00000000: 0000 0000 0000 0000 0000 0000 0000 0000
00000010: 0000 0000 0000 0000 0000 0000 0000 0000
00000020: 0000 0000 0000 0000 0000 0000 0000 0000
00000030: 0000 0000 0000 0000 0000 0000 0000 0000
00000040: 0000 0000 0000 0000 0000 0000 0000 0000
00000050: 0000 0000 0000 0000 0000 0000 0000 0000
00000060: 0000 0000 0000 0000 0000 0000 0000 0000
00000070: 0000 0000 0000 0000 0000 0000 0000 0000

model.3.main.1.gate f4 [32]
1.0 1.0 1.0 1.0 1.0 1.0 1.0 1.0
1.0 1.0 1.0 1.0 1.0 1.0 1.0 1.0
1.0 1.0 1.0 1.0 1.0 1.0 1.0 1.0
1.0 1.0 1.0 1.0 1.0 1.0 1.0 1.0
00000000: 0000 803f 0000 803f 0000 803f 0000 803f
00000010: 0000 803f 0000 803f 0000 803f 0000 803f
00000020: 0000 803f 0000 803f 0000 803f 0000 803f
00000030: 0000 803f 0000 803f 0000 803f 0000 803f
00000040: 0000 803f 0000 803f 0000 803f 0000 803f
00000050: 0000 803f 0000 803f 0000 803f 0000 803f
00000060: 0000 803f 0000 803f 0000 803f 0000 803f
00000070: 0000 803f 0000 803f 0000 803f 0000 803f

model.3.main.1.running_mean f4 [32]
0.0 0.0 0.0 0.0 0.0 0.0 0.0 0.0
0.0 0.0 0.0 0.0 0.0 0.0 0.0 0.0
0.0 0.0 0.0 0.0 0.0 0.0 0.0 0.0
0.0 0.0 0.0 0.0 0.0 0.0 0.0 0.0
00000000: 0000 0000 0000 0000 0000 0000 0000 0000
00000010: 0000 0000 0000 0000 0000 0000 0000 0000
00000020: 0000 0000 0000 0000 0000 0000 0000 0000
00000030: 0000 0000 0000 0000 0000 0000 0000 0000
00000040: 0000 0000 0000 0000 0000 0000 0000 0000
00000050: 0000 0000 0000 0000 0000 0000 0000 0000
00000060: 0000 0000 0000 0000 0000 0000 0000 0000
00000070: 0000 0000 0000 0000 0000 0000 0000 0000

model.3.main.1.running_var f4 [32]
1.0 1.0 1.0 1.0 1.0 1.0 1.0 1.0
1.0 1.0 1.0 1.0 1.0 1.0 1.0 1.0
1.0 1.0 1.0 1.0 1.0 1.0 1.0 1.0
1.0 1.0 1.0 1.0 1.0 1.0 1.0 1.0
00000000: 0000 803f 0000 803f 0000 803f 0000 803f
00000010: 0000 803f 0000 803f 0000 803f 0000 803f
00000020: 0000 803f 0000 803f 0000 803f 0000 803f
00000030: 0000 803f 0000 803f 0000 803f 0000 803f
00000040: 0000 803f 0000 803f 0000 803f 0000 803f
00000050: 0000 803f 0000 803f 0000 803f 0000 803f
00000060: 0000 803f 0000 803f 0000 803f 0000 803f
00000070: 0000 803f 0000 803f 0000 803f 0000 803f

model.3.main.3.weight f4 [32, 32, 3, 3]
-0.07534282 0.115848795 0.15055932 -0.12159493 -0.0057523223 0.10551217 0.026230616 0.043405883
0.01825742 0.0018474971 -0.118272446 0.09701781 0.123507254 -0.034070067 -0.17928857 -0.11968091
-0.04637114 -0.17304055 -0.010271517 -0.08302245 -0.16817975 -0.14052445 -0.067182854 0.08481443
-0.013668446 0.05503667 0.11225684 -0.0016082213 -0.11715146 0.11085111 0.022565592 0.12604639
0.052301288 0.015886193 0.09972286 -0.08897367 0.035013117 -0.11320569 -0.013021477 -0.02525267
-0.15796012 -0.033637792 0.03604599 -0.14822182 -0.08576884 0.01363072 -0.03233216 -0.047916017
-0.0042292997 -0.010031411 -0.11467473 -0.018600972 -0.004051405 0.026705457 0.095849365 0.017083026
-0.051729634 -0.016297307 -0.09550729 0.07992007 0.06735411 0.0065100333 0.05090806 0.007331859
0.0011766742 -0.025133697 0.20387296 -0.016742142 0.07121559 -0.026670558 -0.01196663 -0.07895781
-0.030929906 -0.0065198797 0.06851974 0.059062403 0.016494073 -0.09147411 0.063231245 -0.007697403
0.010239448 0.015817173 -0.1820209 -0.09781416 0.034412425 0.007110972 0.03494017 -0.026640702
0.09508779 -0.0072345007 -0.08215994 0.11091469 0.09912371 0.04905943 -0.07265268 -0.11282434
-0.019226713 -0.047449842 0.007210221 -0.026413446 0.0033557904 0.018890083 0.0072302627 0.032862034
-0.0051771533 0.029135965 -0.073893726 -0.0057591028 0.04263982 -0.16483402 -0.09421447 0.100285485
0.0057504047 -0.05985258 0.0004900476 0.006060835 -0.20123415 0.08740218 -0.013150993 0.043628015
-0.05415895 0.021791337 0.117134534 -0.06231779 -0.016571973 0.04349927 0.012172671 -0.034230087
0.028986618 0.02625573 -0.038512234 0.12357696 0.0013764598 -0.13039598 0.087377 0.050885297
-0.036728576 0.14404967 -0.013080819 0.026251495 -0.0987633 -0.0020660055 0.06781593 0.047442358
0.02339903 -0.02561818 -0.042542093 -0.019204138 0.018195327 -0.093383186 0.034549795 -0.0039149425
-0.03554886 -0.083129555 0.061756846 0.062323734 0.076698706 -0.03423429 0.046720546 0.054797523
-0.1658491 -0.037934355 0.15060657 0.15781967 0.049276423 -0.081284165 0.200575 -0.02191489
-0.10692686 -0.013839978 0.031279393 -0.061585214 -0.095370345 0.018183835 0.027628474 -0.07969776
-0.10931124 0.03523294 0.00516877 -0.09169285 -0.003864058 -0.04399231 -0.10441869 0.020553108
0.019501146 0.024535751 -0.13659775 -0.035844408 0.045254394 0.035744414 -0.10221895 0.03318149
0.04573611 -0.01209921 0.013095455 0.06046594 0.009946763 0.011710433 0.18863499 -0.11642094
0.060660303 0.11862513 -0.08988499 0.048544653 -0.05084786 0.0075648865 -0.05048372 -0.06554858
-0.08742529 0.066274576 -0.020534294 -0.0038612694 -0.006103515 -0.0012960515 -0.02645152 -0.015891265
-0.023345537 -0.09382798 0.021990528 -0.02966261 -0.034454115 -0.09629248 -0.04236214 0.06635173
0.06570506 0.12682135 0.0055995397 0.008249303 0.058437616 0.0962918 -0.014645766 0.036023267
-0.08077569 0.074894585 -0.04025605 -0.004832942 0.011281235 0.013603361 0.09612512 0.09410085
0.035113752 0.052858107 0.019959606 -0.16068019 0.005825407 0.06928999 0.052085813 0.049740024
0.06098301 -0.051569115 -0.117759034 0.15167466 -0.0048455074 -0.017883928 -0.17454529 -0.23041141
00000000: 564d 9abd 2242 ed3d 392c 1a3e c306 f9bd
00000010: fa7d bcbb c416 d83d 97e1 d63c 5eca 313d
00000020: 9690 953c b727 f23a d338 f2bd 46b1 c63d
00000030: 5ff1 fc3d 0e8d 0bbd 6c97 37be 441b f5bd
00000040: aaef 3dbd 8b31 31be dd49 28bc ad07 aabd
00000050: 5037 2cbe a4e5 0fbe 2a97 89bd 30b3 ad3d
00000060: 9ef1 5fbc 226e 613d eae6 e53d f4ca d2ba
00000070: 1bed efbd e805 e33d 7adb b83c 4e12 013e
00000080: e039 563d c323 823c 803b cc3d d437 b6bd
00000090: ea69 0f3d 63d8 e7bd 0858 55bc b0de cebc
000000a0: 4cc0 21be c8c7 09bd f6a4 133d 76c7 17be
000000b0: 93a7 afbd 6253 5f3c ba6e 04bd 9643 44bd
000000c0: f095 8abb ca5a 24bc 96da eabd 1161 98bc
000000d0: a6c1 84bb 67c5 da3c ac4c c43d b4f1 8b3c
000000e0: 74e2 53bd ee81 85bc 5399 c3bd 22ad a33d
000000f0: f4f0 893d 1e52 d53b f884 503d 1740 f03b
00000100: a23a 9a3a 2fe5 cdbc 13c4 503e d126 89bc
00000110: 7bd9 913d 377c dabc af0f 44bc a2b4 a1bd
00000120: b760 fdbc b7a4 d5bb 1454 8c3d 6beb 713d
00000130: 941e 873c c756 bbbd 627f 813d 7f3a fcbb
00000140: 5cc3 273c 0493 813c b063 3abe ca52 c8bd
00000150: 0bf4 0c3d 2803 e93b 6c1d 0f3d 9a3d dabc
00000160: 63bd c23d 640f edbb 7843 a8bd 3e27 e33d
00000170: 5f01 cb3d 8af2 483d eeca 94bd 7310 e7bd
00000180: 5781 9dbc c45a 42bd b843 ec3b 0361 d8bc
00000190: d2ec 5b3b 60bf 9a3c d7eb ec3b 579a 063d
000001a0: 1ca5 a9bb 8cae ee3c 9855 97bd dbb6 bcbb
000001b0: 18a7 2e3d 40ca 28be 84f3 c0bd 7a62 cd3d
000001c0: e46d bc3b fb27 75bd 8a76 003a f899 c63b
000001d0: 5310 4ebe eaff b23d 4377 57bc 4ab3 323d
000001e0: c6d5 5dbd bf83 b23c 3be4 ef3d f040 7fbd
000001f0: f2c1 87bc 4a2c 323d e26f 473c d934 0cbd
00000200: 5875 ed3c 4216 d73c 01bf 1dbd eb15 fd3d
00000210: 546a b43a 8686 05be b6f2 b23d 1a6d 503d
00000220: b470 16bd c281 133e ee50 56bc 600d d73c
00000230: 6a44 cabd d265 07bb 14e3 8a3d eb52 423d
00000240: 53af bf3c 38dd d1bc 9e40 2ebd ff51 9dbc
00000250: 5e0e 953c af3f bfbd 1684 0d3d eb48 80bb
00000260: ae9b 11bd d43f aabd bff4 7c3d 2c47 7f3d
00000270: 3614 9d3d 4139 0cbd 0b5e 3f3d 5e73 603d
00000280: 59d4 29be 0e61 1bbd 9c38 1a3e 7b9b 213e
00000290: 13d6 493d 5078 a6bd 8863 4d3e db86 b3bc
000002a0: 78fc dabd 13c1 62bc d21e 003d c740 7cbd
000002b0: 8751 c3bd 44f6 943c 1c55 e23c 9438 a3bd
000002c0: 92de dfbd 6a50 103d c95e a93b 76c9 bbbd
000002d0: 233c 7dbb 4831 34bd 77d9 d5bd fe5e a83c
000002e0: dec0 9f3c 33ff c83c 48e0 0bbe 96d1 12bd
000002f0: ac5c 393d bc68 123d 2b58 d1bd 50e9 073d
00000300: ca55 3b3d c43b 46bc 528e 563c 22ab 773d
00000310: bff7 223c 1edd 3f3c 8829 413e 1a6e eebd
00000320: f076 783d bbf1 f23d 9f15 b8bd c2d6 463d
00000330: d845 50bd dee2 f73b 04c8 4ebd 553e 86bd
00000340: 080c b3bd f7ba 873d 8937 a8bc 5a0d 7dbb
00000350: ffff c7bb 46e0 a9ba dcb0 d8bc 662e 82bc
00000360: 243f bfbc e228 c0bd 7b25 b43c 00ff f2bc
00000370: c21f 0dbd fe34 c5bd ec83 2dbd 6ae3 873d
00000380: 6090 863d 75dd 013e 587c b73b 1628 073c
00000390: 485c 6f3d a334 c53d cbf4 6fbc 228d 133d
000003a0: ba6d a5bd 5562 993d 87e3 24bd a85d 9ebb
000003b0: eed4 383c a2e0 5e3c 3fdd c43d f2b7 c03d
000003c0: 70d3 0f3d be81 583d 5482 a33c 5989 24be
000003d0: 0ee3 be3b e9e7 8d3d ef57 553d 32bc 4b3d
000003e0: 52c9 793d 233a 53bd a62b f1bd 9a50 1b3e
000003f0: 10c7 9ebb 5181 92bc 00bc 32be f8f0 6bbe

model.3.main.4.weight f4 [32]
1.0 1.0 1.0 1.0 1.0 1.0 1.0 1.0
1.0 1.0 1.0 1.0 1.0 1.0 1.0 1.0
1.0 1.0 1.0 1.0 1.0 1.0 1.0 1.0
1.0 1.0 1.0 1.0 1.0 1.0 1.0 1.0
00000000: 0000 803f 0000 803f 0000 803f 0000 803f
00000010: 0000 803f 0000 803f 0000 803f 0000 803f
00000020: 0000 803f 0000 803f 0000 803f 0000 803f
00000030: 0000 803f 0000 803f 0000 803f 0000 803f
00000040: 0000 803f 0000 803f 0000 803f 0000 803f
00000050: 0000 803f 0000 803f 0000 803f 0000 803f
00000060: 0000 803f 0000 803f 0000 803f 0000 803f
00000070: 0000 803f 0000 803f 0000 803f 0000 803f

model.3.main.4.bias f4 [32]
0.0 0.0 0.0 0.0 0.0 0.0 0.0 0.0
0.0 0.0 0.0 0.0 0.0 0.0 0.0 0.0
0.0 0.0 0.0 0.0 0.0 0.0 0.0 0.0
0.0 0.0 0.0 0.0 0.0 0.0 0.0 0.0
00000000: 0000 0000 0000 0000 0000 0000 0000 0000
00000010: 0000 0000 0000 0000 0000 0000 0000 0000
00000020: 0000 0000 0000 0000 0000 0000 0000 0000
00000030: 0000 0000 0000 0000 0000 0000 0000 0000
00000040: 0000 0000 0000 0000 0000 0000 0000 0000
00000050: 0000 0000 0000 0000 0000 0000 0000 0000
00000060: 0000 0000 0000 0000 0000 0000 0000 0000
00000070: 0000 0000 0000 0000 0000 0000 0000 0000

model.3.main.4.gate f4 [32]
1.0 1.0 1.0 1.0 1.0 1.0 1.0 1.0
1.0 1.0 1.0 1.0 1.0 1.0 1.0 1.0
1.0 1.0 1.0 1.0 1.0 1.0 1.0 1.0
1.0 1.0 1.0 1.0 1.0 1.0 1.0 1.0
00000000: 0000 803f 0000 803f 0000 803f 0000 803f
00000010: 0000 803f 0000 803f 0000 803f 0000 803f
00000020: 0000 803f 0000 803f 0000 803f 0000 803f
00000030: 0000 803f 0000 803f 0000 803f 0000 803f
00000040: 0000 803f 0000 803f 0000 803f 0000 803f
00000050: 0000 803f 0000 803f 0000 803f 0000 803f
00000060: 0000 803f 0000 803f 0000 803f 0000 803f
00000070: 0000 803f 0000 803f 0000 803f 0000 803f

model.3.main.4.running_mean f4 [32]
0.0 0.0 0.0 0.0 0.0 0.0 0.0 0.0
0.0 0.0 0.0 0.0 0.0 0.0 0.0 0.0
0.0 0.0 0.0 0.0 0.0 0.0 0.0 0.0
0.0 0.0 0.0 0.0 0.0 0.0 0.0 0.0
00000000: 0000 0000 0000 0000 0000 0000 0000 0000
00000010: 0000 0000 0000 0000 0000 0000 0000 0000
00000020: 0000 0000 0000 0000 0000 0000 0000 0000
00000030: 0000 0000 0000 0000 0000 0000 0000 0000
00000040: 0000 0000 0000 0000 0000 0000 0000 0000
00000050: 0000 0000 0000 0000 0000 0000 0000 0000
00000060: 0000 0000 0000 0000 0000 0000 0000 0000
00000070: 0000 0000 0000 0000 0000 0000 0000 0000

model.3.main.4.running_var f4 [32]
1.0 1.0 1.0 1.0 1.0 1.0 1.0 1.0
1.0 1.0 1.0 1.0 1.0 1.0 1.0 1.0
1.0 1.0 1.0 1.0 1.0 1.0 1.0 1.0
1.0 1.0 1.0 1.0 1.0 1.0 1.0 1.0
00000000: 0000 803f 0000 803f 0000 803f 0000 803f
00000010: 0000 803f 0000 803f 0000 803f 0000 803f
00000020: 0000 803f 0000 803f 0000 803f 0000 803f
00000030: 0000 803f 0000 803f 0000 803f 0000 803f
00000040: 0000 803f 0000 803f 0000 803f 0000 803f
00000050: 0000 803f 0000 803f 0000 803f 0000 803f
00000060: 0000 803f 0000 803f 0000 803f 0000 803f
00000070: 0000 803f 0000 803f 0000 803f 0000 803f

model.4.main.0.weight f4 [32, 32, 3, 3]
-0.14845559 -0.04702343 -0.12922461 -0.0107655395 0.02910917 0.17198744 0.041665193 -0.07559793
-0.05861582 -0.10015549 -0.080997914 0.026218865 0.03686733 -0.09391774 -0.18520503 -0.1678339
-0.06141585 0.091264874 -0.06962617 0.110926434 0.0021130638 -0.014148599 -0.08743513 -0.028782617
-0.035240673 0.07060396 -0.14788087 0.047458213 -0.03317294 -0.03282004 -0.036176354 0.12495848
0.052136526 -0.17298327 -0.098605685 0.0057186442 0.07282804 0.124563575 0.07390331 0.25505507
0.16480231 0.076816455 -0.053950682 0.0030689766 -0.13332216 0.101859435 -0.13631284 0.039139055
0.051213756 0.059596863 0.043371834 -0.052311465 -0.091969214 -0.107137844 -0.03560543 0.07737637
0.13843694 -0.09828095 0.024037346 -0.14548299 0.13813113 0.077253155 0.011792115 0.0016870763
-0.071690045 -0.15704846 -0.042751037 -0.0781343 -0.11483024 0.06552076 -0.05118639 -0.082380116
0.16380809 0.037247457 -0.10544776 0.01893864 -0.1349122 -0.07072287 -0.08654972 -0.011406893
0.048286416 0.033104107 -0.026908662 0.057940416 0.075563915 -0.03897418 0.033280727 0.04761746
-0.0525981 0.030582307 0.112649225 -0.011468432 0.005341462 0.022088874 0.007453644 -0.055872507
-0.0343315 -0.2510924 0.12324702 -0.00448351 -0.0829534 0.0021997527 0.06310281 0.07507044
0.059554067 -0.083400354 0.116245404 -0.017185424 -0.03608435 -0.026103688 -0.15354437 0.027362812
0.015392836 0.026620667 -0.14274842 0.05070065 -0.09967126 -0.057587266 0.078486346 -0.013409736
-0.09510125 0.067813486 0.0041276766 -0.12864012 0.1273624 0.03126888 -0.0011749262 0.050372824
0.11231546 0.010762077 0.01940313 0.02060784 -0.064613186 -0.05880332 -0.0146598965 0.02797771
0.03863482 0.13721383 -0.11325069 0.10119918 0.0058568637 0.100194186 0.067399755 0.08576878
-0.15655108 0.07604189 -0.032813974 -0.096397474 -0.007345875 -0.003799683 -0.053774923 0.03924202
0.07944016 0.0826843 -0.010543878 0.10105025 -0.010337841 -0.026034784 -0.024462594 0.068237655
0.0016801853 -0.006161809 0.018549953 0.10283993 -0.013700861 0.007008631 -0.034342334 -0.09631388
-0.17602502 -0.098998204 0.060623046 -0.08188914 -0.062196635 0.030174268 0.05362705 -0.14610279
0.0022731344 0.004218974 0.1253441 -0.090253726 0.029462269 0.048386775 0.014241178 0.088011764
-0.081834555 0.03181455 -0.017272154 0.07273924 -0.09600764 0.07090965 0.113131694 -0.009484073
-0.010123408 -0.13981493 -0.070696294 0.037585054 -0.1331273 0.038310133 0.038466226 -0.07866534
0.18575141 0.019011628 0.06831172 0.016162397 -0.08429651 0.08713546 0.2538171 0.0163134
0.07198041 0.013296517 0.08299705 -0.053569786 0.06113954 -0.07751019 -0.00097591185 -0.06563097
-0.038859308 0.009779414 0.04097137 0.05218504 0.03446369 0.014283474 0.11233799 -0.08026248
0.005327405 0.054549135 0.11921722 0.0810384 -0.06518653 -0.013912555 0.08665374 0.11013642
-0.008555828 -0.04742716 -0.05337029 -0.042208266 -0.09012043 -0.01956134 -0.11299725 -0.024351045
0.12102376 -0.06630501 -0.00022355797 -0.0829919 -0.065450184 -0.068426885 -0.07184536 -0.011470079
-0.09926541 0.06539854 0.029631581 0.12849446 0.017721701 0.08957517 0.041605864 -0.008390892
00000000: be04 18be a49b 40bd 7553 04be f261 30bc
00000010: 5b76 ee3c 7a1d 303e 1fa9 2a3d 16d3 9abd
00000020: 2417 70bd 521e cdbd 3ce2 a5bd f2c8 d63c
00000030: 3302 173d f257 c0bd 63a6 3dbe a6dc 2bbe
00000040: 308f 7bbd 14e9 ba3d 2a98 8ebd 662d e33d
00000050: 547b 0a3b 86cf 67bc 3011 b3bd 86c9 ebbc
00000060: 8658 10bd cf98 903d 156e 17be 8b63 423d
00000070: 59e0 07bd 4e6e 06bd a82d 14bd 3bea ff3d
00000080: 1c8d 553d 8722 31be c7f1 c9bd 7763 bb3b
00000090: de26 953d 301b ff3d 9e5a 973d 9496 823e
000000a0: f0c1 283e f251 9d3d 64fb 5cbd e220 493b
000000b0: 9b85 08be ae9b d03d 9895 0bbe 4650 203d
000000c0: 84c5 513d d71b 743d aaa6 313d 8c44 56bd
000000d0: 5b5a bcbd 166b dbbd 00d7 11bd 8177 9e3d
000000e0: 6ac2 0d3e 8647 c9bd f8e9 c43c 7ef9 14be
000000f0: 3f72 0d3e e736 9e3d b733 413c e320 dd3a
00000100: 3bd2 92bd 50d1 20be b61b 2fbd e004 a0bd
00000110: 1e2c ebbd c02f 863d d2a8 51bd e8b6 a8bd
00000120: 4fbd 273e ca90 183d fff4 d7bd 3525 9b3c
00000130: 6c26 0abe 27d7 90bd fb40 b1bd fae3 3abc
00000140: fac7 453d 2c98 073d 8e6f dcbc ee52 6d3d
00000150: 41c1 9a3d 64a3 1fbd 5f51 083d 870a 433d
00000160: 1b71 57bd bf87 fa3c a3b4 e63d 17e6 3bbc
00000170: 6e07 af3b baf3 b43c b33d f43b 92da 64bd
00000180: 309f 0cbd 2f8f 80be ef68 fc3d 68ea 92bb
00000190: 79e3 a9bd ba29 103b 0c3c 813d 88be 993d
000001a0: f7ee 733d cecd aabd 1212 ee3d 72c8 8cbc
000001b0: 2fcd 13bd 67d7 d5bc bc3a 1dbe fa27 e03c
000001c0: 3c32 7c3c 9613 da3c a42c 12be 7cab 4f3d
000001d0: 7220 ccbd a0e0 6bbd 73bd a03d 82b4 5bbc
000001e0: 72c4 c2bd cce1 8a3d 7641 873b 3cba 03be
000001f0: 4a6b 023e cc13 003d fbff 99ba bc53 4e3d
00000200: a605 e63d 6c53 303c 50f3 9e3c c6d1 a83c
00000210: eb53 84bd c0db 70bd 1030 70bc 8331 e53c
00000220: 8c3f 1e3d c881 0c3e faef e7bd 8441 cf3d
00000230: efea bf3b 9c32 cd3d e208 8a3d 8ba7 af3d
00000240: ed4e 20be dabb 9b3d f267 06bd 0a6c c5bd
00000250: aab5 f0bb 1a04 79bb 1843 5cbd 3ebc 203d
00000260: 86b1 a23d 6356 a93d 3bc0 2cbc 6ff3 ce3d
00000270: 0c60 29bc e646 d5bc c765 c8bc 2fc0 8b3d
00000280: aa39 dc3a 00e9 c9bb 12f6 973c be9d d23d
00000290: 9379 60bc a8a8 e53b 8caa 0cbd 3640 c5bd
000002a0: e73f 34be 92bf cabd df4f 783d 7eb5 a7bd
000002b0: e6c1 7ebd 0730 f73c 0aa8 5b3d f89b 15be
000002c0: def8 143b 523f 8a3b 345a 003e f2d6 b8bd
000002d0: db5a f13c 3631 463d d453 693c 833f b43d
000002e0: e098 a7bd f94f 023d 557e 8dbc 50f8 943d
000002f0: a79f c4bd 1439 913d 97b1 e73d 1663 1bbc
00000300: a7dc 25bc a52b 0fbe 38c9 90bd c9f2 193d
00000310: 8652 08be 16eb 1c3d c38e 1d3d 4b1b a1bd
00000320: 9e35 3e3e 46be 9b3c 04e7 8b3d 0167 843c
00000330: a6a3 acbd 1374 b23d 51f4 813e aea3 853c
00000340: 776a 933d a2d9 593c 5bfa a93d fe6b 5bbd
00000350: 746d 7a3d aabd 9ebd 56d4 7fba 8869 86bd
00000360: f02a 1fbd d639 203c 98d1 273d fbbf 553d
00000370: cc29 0d3d 3b05 6a3c 7611 e63d a860 a4bd
00000380: 8391 ae3b ea6e 5f3d 2828 f43d 76f7 a53d
00000390: 8480 85bd 7cf1 63bc 8477 b13d 348f e13d
000003a0: be2d 0cbc fb42 42bd ce9a 5abd 93e2 2cbd
000003b0: 0f91 b8bd 1a3f a0bc 1a6b e7bd d87b c7bc
000003c0: 4edb f73d ecca 87bd e36a 6ab9 a8f7 a9bd
000003d0: bf0a 86bd 6523 8cbd a923 93bd 00ed 3bbc
000003e0: aa4b cbbd abef 853d eebd f23c 0d94 033e
000003f0: 1a2d 913c 3073 b73d e96a 2a3d f479 09bc

model.4.main.1.weight f4 [32]
1.0 1.0 1.0 1.0 1.0 1.0 1.0 1.0
1.0 1.0 1.0 1.0 1.0 1.0 1.0 1.0
1.0 1.0 1.0 1.0 1.0 1.0 1.0 1.0
1.0 1.0 1.0 1.0 1.0 1.0 1.0 1.0
00000000: 0000 803f 0000 803f 0000 803f 0000 803f
00000010: 0000 803f 0000 803f 0000 803f 0000 803f
00000020: 0000 803f 0000 803f 0000 803f 0000 803f
00000030: 0000 803f 0000 803f 0000 803f 0000 803f
00000040: 0000 803f 0000 803f 0000 803f 0000 803f
00000050: 0000 803f 0000 803f 0000 803f 0000 803f
00000060: 0000 803f 0000 803f 0000 803f 0000 803f
00000070: 0000 803f 0000 803f 0000 803f 0000 803f

model.4.main.1.bias f4 [32]
0.0 0.0 0.0 0.0 0.0 0.0 0.0 0.0
0.0 0.0 0.0 0.0 0.0 0.0 0.0 0.0
0.0 0.0 0.0 0.0 0.0 0.0 0.0 0.0
0.0 0.0 0.0 0.0 0.0 0.0 0.0 0.0
00000000: 0000 0000 0000 0000 0000 0000 0000 0000
00000010: 0000 0000 0000 0000 0000 0000 0000 0000
00000020: 0000 0000 0000 0000 0000 0000 0000 0000
00000030: 0000 0000 0000 0000 0000 0000 0000 0000
00000040: 0000 0000 0000 0000 0000 0000 0000 0000
00000050: 0000 0000 0000 0000 0000 0000 0000 0000
00000060: 0000 0000 0000 0000 0000 0000 0000 0000
00000070: 0000 0000 0000 0000 0000 0000 0000 0000

model.4.main.1.gate f4 [32]
1.0 1.0 1.0 1.0 1.0 1.0 1.0 1.0
1.0 1.0 1.0 1.0 1.0 1.0 1.0 1.0
1.0 1.0 1.0 1.0 1.0 1.0 1.0 1.0
1.0 1.0 1.0 1.0 1.0 1.0 1.0 1.0
00000000: 0000 803f 0000 803f 0000 803f 0000 803f
00000010: 0000 803f 0000 803f 0000 803f 0000 803f
00000020: 0000 803f 0000 803f 0000 803f 0000 803f
00000030: 0000 803f 0000 803f 0000 803f 0000 803f
00000040: 0000 803f 0000 803f 0000 803f 0000 803f
00000050: 0000 803f 0000 803f 0000 803f 0000 803f
00000060: 0000 803f 0000 803f 0000 803f 0000 803f
00000070: 0000 803f 0000 803f 0000 803f 0000 803f

model.4.main.1.running_mean f4 [32]
0.0 0.0 0.0 0.0 0.0 0.0 0.0 0.0
0.0 0.0 0.0 0.0 0.0 0.0 0.0 0.0
0.0 0.0 0.0 0.0 0.0 0.0 0.0 0.0
0.0 0.0 0.0 0.0 0.0 0.0 0.0 0.0
00000000: 0000 0000 0000 0000 0000 0000 0000 0000
00000010: 0000 0000 0000 0000 0000 0000 0000 0000
00000020: 0000 0000 0000 0000 0000 0000 0000 0000
00000030: 0000 0000 0000 0000 0000 0000 0000 0000
00000040: 0000 0000 0000 0000 0000 0000 0000 0000
00000050: 0000 0000 0000 0000 0000 0000 0000 0000
00000060: 0000 0000 0000 0000 0000 0000 0000 0000
00000070: 0000 0000 0000 0000 0000 0000 0000 0000

model.4.main.1.running_var f4 [32]
1.0 1.0 1.0 1.0 1.0 1.0 1.0 1.0
1.0 1.0 1.0 1.0 1.0 1.0 1.0 1.0
1.0 1.0 1.0 1.0 1.0 1.0 1.0 1.0
1.0 1.0 1.0 1.0 1.0 1.0 1.0 1.0
00000000: 0000 803f 0000 803f 0000 803f 0000 803f
00000010: 0000 803f 0000 803f 0000 803f 0000 803f
00000020: 0000 803f 0000 803f 0000 803f 0000 803f
00000030: 0000 803f 0000 803f 0000 803f 0000 803f
00000040: 0000 803f 0000 803f 0000 803f 0000 803f
00000050: 0000 803f 0000 803f 0000 803f 0000 803f
00000060: 0000 803f 0000 803f 0000 803f 0000 803f
00000070: 0000 803f 0000 803f 0000 803f 0000 803f

model.4.main.3.weight f4 [32, 32, 3, 3]
-0.02471593 0.021299448 0.15619205 -0.058006242 -0.00070076156 -0.022700679 -0.0067184474 0.09455498
0.07090068 -0.014757289 -0.13982444 -0.07812172 -0.0051120454 -0.119738266 0.028380847 0.13910191
-0.01810666 0.019850861 0.09659478 -0.046608698 -0.024716726 -0.039061338 0.082137175 -0.046324417
0.0049401913 -0.051910512 0.07537691 -0.0217809 -0.026550967 -0.11377763 0.12633546 -0.05715701
0.14386694 0.06388871 0.021546198 0.03110046 0.099459045 -0.06842071 -0.04805734 -0.14252834
0.16226958 0.004422322 -0.04881095 -0.14656682 -0.011538375 0.028747369 -0.10012305 -0.1473895
-0.05429177 -0.044718992 -0.1414549 0.022991052 0.033783253 -0.07115489 -0.09529914 0.09649867
-0.05469533 0.06442111 -0.16005632 -0.05524908 -0.058845513 0.03643629 -0.030662425 -0.05195479
-0.07411383 -0.07444471 0.015784536 0.009438252 0.033937983 0.06637488 -0.058231786 -0.15801758
-0.015048261 0.00070512923 -0.12847391 0.019105747 -0.0045645656 0.060164668 -0.022581091 0.043507844
-0.052308023 -0.06355609 -0.06693789 -0.046968054 0.07080251 0.051803477 0.011488067 -0.10289868
-0.046549167 0.027758136 0.005028297 0.08417016 0.13208726 -0.025562882 0.0063554365 -0.13240132
0.0060646003 0.07785159 0.034733865 -0.0016784713 0.12866318 0.0837553 0.031968243 0.20147136
-0.088244125 0.10004166 -0.037675947 -0.19006062 0.11771582 0.122125715 0.12580675 -0.031646036
-0.008370779 -0.02921272 -0.04750165 -0.08446922 0.03218746 0.028658219 -0.0466665 0.1634358
-0.07792731 0.00428609 -0.0019316649 -0.02758324 0.0152697 -0.012425147 0.06059673 -0.009927085
-0.03373189 -0.040019497 0.025674995 0.012227876 0.08053976 -0.065135896 0.07564436 -0.18250212
-0.015352622 0.044464972 0.14023665 0.100955546 -0.22915795 -0.1192752 -0.15993783 0.021853399
-0.002755907 0.053789895 -0.022203853 -0.052928664 0.15848148 0.025210563 0.04561668 -0.12331177
-0.0112898415 -0.080762744 0.040446166 -0.029464986 -0.019244418 -0.024155553 -0.0072647054 -0.06654021
0.027725473 -0.057124984 0.08990516 0.15925616 -0.030896742 0.13580614 -0.09020572 -0.15537754
0.00046013 0.0028025236 -0.09962618 0.11650549 0.0969175 -0.0017228102 0.040338457 -0.083477885
-0.05807989 0.097902566 -0.04774428 0.015540801 -0.06410282 -0.13157462 -0.030271657 -1.8565222e-05
0.050631367 0.047196474 0.28679568 -0.030178506 -0.13522033 0.14699835 -0.09067844 -0.005581948
-0.0050717467 0.090270355 0.06780261 -0.042730745 0.095165685 -0.041509427 -0.029105863 -0.11555879
0.13072495 0.017262198 0.075994134 -0.020317288 -0.021784063 -0.010531711 -0.044114336 0.052477732
-0.034385026 -0.0969532 -0.13910381 -0.015074114 0.0027825623 -0.069070876 -0.043667905 -0.021643145
-0.055159234 0.09664809 0.1068878 0.04778664 0.086578384 0.03497374 0.027491175 0.118112266
-0.15117072 0.035667684 0.011923436 -0.0377269 -0.13656324 0.046681933 0.005300709 0.09824707
-0.08010942 -0.046300128 -0.011788707 0.0036426405 -0.05171088 -0.13739255 0.10833299 -0.08767174
-0.069364816 0.015084783 0.056203842 0.012470638 0.0070085106 0.091205314 -0.0920382 0.09018519
0.22291127 0.03286078 0.072957374 -0.01519222 0.005837175 -0.040794477 -0.10934549 -0.1273046
00000000: 1079 cabc 2e7c ae3c cff0 1f3e f497 6dbd
00000010: 50b3 37ba c6f6 b9bc 6c26 dcbb 0ba6 c13d
00000020: 6034 913d 8ec8 71bc 232e 0fbe 48fe 9fbd
00000030: f282 a7bb 5639 f5bd f37e e83c bb70 0e3e
00000040: 6b54 94bc 469e a23c 7cd3 c53d c3e8 3ebd
00000050: bb7a cabc c8fe 1fbd 8937 a83d acbe 3dbd
00000060: 54e1 a13b 1ea0 54bd 365f 9a3d dc6d b2bc
00000070: 6a81 d9bc 3f04 e9bd 155e 013e 781d 6abd
00000080: db51 133e 16d8 823d a781 b03c 64c6 fe3c
00000090: 2fb1 cb3d 2820 8cbd c6d7 44bd f3f2 11be
000000a0: ff29 263e 20e9 903b feed 47bd 9d15 16be
000000b0: 740b 3dbc 9a7f eb3c 500d cdbd 46ed 16be
000000c0: 0c61 5ebd 432b 37bd 8ed9 10be bb57 bc3c
000000d0: 4f60 0a3d a8b9 91bd 322c c3bd 18a1 c53d
000000e0: 3608 60bd 37ef 833d cee5 23be dc4c 62bd
000000f0: fe07 71bd 383e 153d c42f fbbc 8cce 54bd
00000100: fec8 97bd 7876 98bd 924e 813c e6a2 1a3c
00000110: 8e02 0b3d 8eef 873d 7484 6ebd 5ccf 21be
00000120: fb8c 76bc 6cd8 383a aa8e 03be a883 9c3c
00000130: 5a92 95bb 3a6f 763d fbfb b8bc 4835 323d
00000140: f040 56bd b229 82bd bc16 89bd 9361 40bd
00000150: e800 913d e22f 543d 7238 3c3c 8bbc d2bd
00000160: 57aa 3ebd 0865 e33c 6ac4 a43b 6861 ac3d
00000170: e241 073e 4069 d1bc 4441 d03b 3694 07be
00000180: 8eb9 c63b a870 9f3d 1945 0e3d 2700 dcba
00000190: 48c0 033e e687 ab3d 22f1 023d 824e 4e3e
000001a0: 56b9 b4bd a4e2 cc3d 1852 1abd 409f 42be
000001b0: fe14 f13d 0c1d fa3d 7cd3 003e 469f 01bd
000001c0: 9825 09bc 844f efbc 1791 42bd 33fe acbd
000001d0: 00d7 033d a4c4 ea3c 5f25 3fbd b75b 273e
000001e0: 5a98 9fbd 5472 8c3b eb2f fdba 3ff6 e1bc
000001f0: c42d 7a3c d892 4bbc 4734 783d 36a5 22bc
00000200: 732a 0abd 7ceb 23bd 5e54 d23c 6e57 483c
00000210: 08f2 a43d f865 85bd 6eeb 9a3d d6e1 3abe
00000220: 9089 7bbc e720 363d 329a 0f3e c8c1 ce3d
00000230: 62a8 6abe 8e46 f4bd bec6 23be e605 b33c
00000240: 729c 34bb cb52 5c3d dbe4 b5bc bacb 58bd
00000250: f848 223e 6286 ce3c 8ed8 3a3d e28a fcbd
00000260: 07f9 38bc f066 a5bd e1aa 253d 8e60 f1bc
00000270: 78a6 9dbc dee1 c5bc c40c eebb 3c46 88bd
00000280: 8820 e33c e3fb 69bd 3220 b83d 0c14 233e
00000290: 2a1b fdbc c410 0b3e c7bd b8bd 4a1b 1fbe
000002a0: 9a3d f139 8baa 373b d008 ccbd 6e9a ee3d
000002b0: af7c c63d ebcf e1ba f039 253d 74f6 aabd
000002c0: 2ee5 6dbd 2481 c83d 828f 43bd d89e 7e3c
000002d0: 5748 83bd 7fbb 06be 44fc f7bc 83bc 9bb7
000002e0: d662 4f3d 1751 413d e2d6 923e ea38 f7bc
000002f0: 3377 0abe bc86 163e 9eb5 b9bd c6e8 b6bb
00000300: e530 a6bb aadf b83d 18dc 8a3d 6f06 2fbd
00000310: 3ae6 c23d ca05 2abd 6b6f eebc 16aa ecbd
00000320: c3dc 053e 7469 8d3c d0a2 9b3d 7170 a6bc
00000330: 7e74 b2bc 338d 2cbc 3cb1 34bd e4f2 563d
00000340: 50d7 0cbd 668f c6bd 3b71 0ebe 6bf9 76bc
00000350: a65b 363b 0875 8dbd 1edd 32bd f74c b1bc
00000360: a6ee 61bd 6fef c53d fee7 da3d ecbb 433d
00000370: 0250 b13d a040 0f3d 2c35 e13c d8e4 f13d
00000380: 7fcc 1abe 4718 123d 845a 433c 8687 1abd
00000390: 3cd7 0bbe 8e35 3f3d 92b1 ad3b c335 c93d
000003a0: 6810 a4bd 34a5 3dbd 6c25 41bc 5eb9 6e3b
000003b0: cace 53bd a2b0 0cbe b0dd dd3d 3e8d b3bd
000003c0: 240f 8ebd 2a26 773c 0036 663d a651 4c3c
000003d0: a6a7 e53b dac9 ba3d 867e bcbd 03b3 b83d
000003e0: da42 643e 0699 063d ad6a 953d cae8 78bc
000003f0: c645 bf3b 1c18 27bd 87f0 dfbd 235c 02be

model.4.main.4.weight f4 [32]
1.0 1.0 1.0 1.0 1.0 1.0 1.0 1.0
1.0 1.0 1.0 1.0 1.0 1.0 1.0 1.0
1.0 1.0 1.0 1.0 1.0 1.0 1.0 1.0
1.0 1.0 1.0 1.0 1.0 1.0 1.0 1.0
00000000: 0000 803f 0000 803f 0000 803f 0000 803f
00000010: 0000 803f 0000 803f 0000 803f 0000 803f
00000020: 0000 803f 0000 803f 0000 803f 0000 803f
00000030: 0000 803f 0000 803f 0000 803f 0000 803f
00000040: 0000 803f 0000 803f 0000 803f 0000 803f
00000050: 0000 803f 0000 803f 0000 803f 0000 803f
00000060: 0000 803f 0000 803f 0000 803f 0000 803f
00000070: 0000 803f 0000 803f 0000 803f 0000 803f

model.4.main.4.bias f4 [32]
0.0 0.0 0.0 0.0 0.0 0.0 0.0 0.0
0.0 0.0 0.0 0.0 0.0 0.0 0.0 0.0
0.0 0.0 0.0 0.0 0.0 0.0 0.0 0.0
0.0 0.0 0.0 0.0 0.0 0.0 0.0 0.0
00000000: 0000 0000 0000 0000 0000 0000 0000 0000
00000010: 0000 0000 0000 0000 0000 0000 0000 0000
00000020: 0000 0000 0000 0000 0000 0000 0000 0000
00000030: 0000 0000 0000 0000 0000 0000 0000 0000
00000040: 0000 0000 0000 0000 0000 0000 0000 0000
00000050: 0000 0000 0000 0000 0000 0000 0000 0000
00000060: 0000 0000 0000 0000 0000 0000 0000 0000
00000070: 0000 0000 0000 0000 0000 0000 0000 0000

model.4.main.4.gate f4 [32]
1.0 1.0 1.0 1.0 1.0 1.0 1.0 1.0
1.0 1.0 1.0 1.0 1.0 1.0 1.0 1.0
1.0 1.0 1.0 1.0 1.0 1.0 1.0 1.0
1.0 1.0 1.0 1.0 1.0 1.0 1.0 1.0
00000000: 0000 803f 0000 803f 0000 803f 0000 803f
00000010: 0000 803f 0000 803f 0000 803f 0000 803f
00000020: 0000 803f 0000 803f 0000 803f 0000 803f
00000030: 0000 803f 0000 803f 0000 803f 0000 803f
00000040: 0000 803f 0000 803f 0000 803f 0000 803f
00000050: 0000 803f 0000 803f 0000 803f 0000 803f
00000060: 0000 803f 0000 803f 0000 803f 0000 803f
00000070: 0000 803f 0000 803f 0000 803f 0000 803f

model.4.main.4.running_mean f4 [32]
0.0 0.0 0.0 0.0 0.0 0.0 0.0 0.0
0.0 0.0 0.0 0.0 0.0 0.0 0.0 0.0
0.0 0.0 0.0 0.0 0.0 0.0 0.0 0.0
0.0 0.0 0.0 0.0 0.0 0.0 0.0 0.0
00000000: 0000 0000 0000 0000 0000 0000 0000 0000
00000010: 0000 0000 0000 0000 0000 0000 0000 0000
00000020: 0000 0000 0000 0000 0000 0000 0000 0000
00000030: 0000 0000 0000 0000 0000 0000 0000 0000
00000040: 0000 0000 0000 0000 0000 0000 0000 0000
00000050: 0000 0000 0000 0000 0000 0000 0000 0000
00000060: 0000 0000 0000 0000 0000 0000 0000 0000
00000070: 0000 0000 0000 0000 0000 0000 0000 0000

model.4.main.4.running_var f4 [32]
1.0 1.0 1.0 1.0 1.0 1.0 1.0 1.0
1.0 1.0 1.0 1.0 1.0 1.0 1.0 1.0
1.0 1.0 1.0 1.0 1.0 1.0 1.0 1.0
1.0 1.0 1.0 1.0 1.0 1.0 1.0 1.0
00000000: 0000 803f 0000 803f 0000 803f 0000 803f
00000010: 0000 803f 0000 803f 0000 803f 0000 803f
00000020: 0000 803f 0000 803f 0000 803f 0000 803f
00000030: 0000 803f 0000 803f 0000 803f 0000 803f
00000040: 0000 803f 0000 803f 0000 803f 0000 803f
00000050: 0000 803f 0000 803f 0000 803f 0000 803f
00000060: 0000 803f 0000 803f 0000 803f 0000 803f
00000070: 0000 803f 0000 803f 0000 803f 0000 803f
