checkpoint/clf/experiment_name/800/netE.pth (torch, 241318 bytes, 33 tensors)

model.0.weight f4 [32, 3, 4, 4]
0	0xbe10a827	-0.14126645
1	0x3d779aa6	0.06045022
2	0xbd45be8f	-0.048277434
3	0x3c82605f	0.015915094
4	0xbdc1de1a	-0.09466191
5	0x3d02914b	0.031876843
6	0xbcec2662	-0.028826896
7	0xba947740	-0.0011327043
8	0x3d09a77d	0.033606995
9	0x3cd52054	0.026016392
10	0x3da21917	0.07914942
11	0xbd39168a	-0.04518751
12	0xbcf6fee0	-0.03015083
13	0xbcbd03b7	-0.02307306
14	0xbc862eb8	-0.0163797
15	0x3cce648d	0.02519443
16	0x3d0052a9	0.03132883
17	0xbdbe19cf	-0.09282266
18	0x3de30f66	0.110869214
19	0x3d1d9e87	0.03848126
20	0xbd89d884	-0.0673075
21	0xbd5e8084	-0.05432178
22	0xbe30c5ea	-0.17262998
23	0xbda34ab4	-0.07973233
24	0xbc86079c	-0.01636105
25	0x3d4e4e72	0.05036778
26	0x3d8ec836	0.06971781
27	0x3dfff746	0.124983355
28	0xbc7a155b	-0.015263881
29	0x3d3f37a2	0.046683915
30	0xbce9c6c6	-0.028537165
31	0xbc6bfd25	-0.014403616
32	0xbdd8499d	-0.105609156
33	0xbde18c18	-0.11013049
34	0xbce3415c	-0.027741127
35	0x3b09e250	0.0021039434
36	0xbe2d6e1e	-0.16936538
37	0xbcd3db56	-0.025861423
38	0x3d2862a4	0.041109696
39	0xbcbdcbd3	-0.02316848
40	0xbd670869	-0.056404505
41	0x3d05291a	0.0325099
42	0x3c1f59b4	0.009725977
43	0xbd3a95fd	-0.045553196
44	0xbd5033e6	-0.050830744
45	0xbd723bee	-0.059139185
46	0xbd47c8c0	-0.048775434
47	0xbd84ea71	-0.06490029
48	0xbd034d75	-0.03205629
49	0x3d8162a2	0.06317641
50	0x3da11add	0.07866452
51	0xbd94fa3a	-0.072742894
52	0x3e043505	0.1291085
53	0x3cc50cbc	0.024053924
54	0x3ca9e331	0.020738216
55	0x3d339fbb	0.043853503
56	0x3d913aa6	0.070912644
57	0xbcb12600	-0.021624565
58	0xbd5b7a4d	-0.053583432
59	0x3d4a2f91	0.04936177
60	0xbbc5612c	-0.0060235467
61	0x3d42c0ba	0.04754708
62	0x3d9f12a1	0.07767225
63	0x3cc06866	0.023487281
64	0xbdc04a5c	-0.09389183
65	0x3b55b999	0.0032611846
66	0xbd9d5d2d	-0.076837875
67	0x3cd80058	0.026367351
68	0xbd71e9fb	-0.05906103
69	0xbbb48195	-0.0055086114
70	0x3c4e1b8e	0.012579812
71	0xbd7df548	-0.062001497
72	0x3d93977c	0.07206628
73	0x3c2cb1c1	0.010540427
74	0xbca0ac86	-0.019613516
75	0x3cf8b373	0.030359006
76	0xbd3f3eec	-0.046690866
77	0xbd940da8	-0.07229167
78	0xbd43a550	-0.047765076
79	0x3c8d6538	0.017260179
80	0xbdd85c6c	-0.10564503
81	0xbd83bf55	-0.06432978
82	0xbdbc8e49	-0.09206826
83	0x3ca70cc5	0.020391831
84	0x3d8f4858	0.0699622
85	0xbd8baa9f	-0.06819653
86	0x3e207d3a	0.1567277
87	0x3d87058f	0.06592857
88	0x3ce8198e	0.028332498
89	0xbd88c60a	-0.06678398
90	0xbd07fa4b	-0.033197682
91	0x3d0620a1	0.03274596
92	0x3e0037be	0.12521264
93	0x3d85c1cb	0.06531104
94	0x3d903380	0.07041073
95	0xbbd62a46	-0.006535801
96	0xbd932c9d	-0.07186244
97	0x3d4db89a	0.050224878
98	0x3dcff924	0.10154942
99	0xbde307a1	-0.110854395
100	0xbc26a115	-0.010170241
101	0x3d49566d	0.049154688
102	0xbb547215	-0.003241663
103	0x3db65017	0.08901995
104	0xbd75734a	-0.0599244
105	0xbbeb7e41	-0.0071866815
106	0xbd1f67d3	-0.038917374
107	0xbe17c6b5	-0.14821894
108	0x3d8d24b3	0.068917654
109	0xbdaa7537	-0.08323138
110	0x3d86f7d1	0.06590236
111	0x3c828778	0.015933737
112	0xbdd4f8a5	-0.10398988
113	0x3bb3454c	0.0054709073
114	0x3db8f9f5	0.090320505
115	0x3db8d643	0.09025242
116	0x3c8c4ff5	0.01712797
117	0x3dd34d9b	0.103175364
118	0x3c529b65	0.012854432
119	0x3d3a2403	0.0454445
120	0xbcbe0502	-0.023195747
121	0x3d5ffbbd	0.054683436
122	0xbd412115	-0.04715069
123	0x3d44dbe4	0.048061267
124	0xbdc72669	-0.09724123
125	0xbc5ec009	-0.013595589
126	0x3c15ce68	0.009143449
127	0x3b44ede4	0.003004902
128	0x3d7b228d	0.061312247
129	0xbd270c20	-0.040783048
130	0x3c3a8247	0.0113836
131	0x3b5b942d	0.0033505068
132	0xbd02898b	-0.031869452
133	0x3d777c74	0.060421422
134	0xbdb1c00c	-0.08679208
135	0x3d9c27b2	0.07624759
136	0x3c2cb763	0.01054177
137	0xbd42df2d	-0.04757612
138	0x3c2284f6	0.009919396
139	0x3de8412e	0.11340557
140	0xbb66089b	-0.0035100344
141	0xbd388319	-0.0450469
142	0xbd7be47c	-0.061497197
143	0x3d57c22b	0.052675407
144	0x3d64f33d	0.055896033
145	0x3be53e65	0.0069959634
146	0xbdaed4ac	-0.08536658
147	0xbc6411a0	-0.013920218
148	0xbe11a246	-0.14222059
149	0xbdb50b36	-0.08840029
150	0xbd5b5b6f	-0.053553995
151	0x3b10db5a	0.00221034
152	0xbd34e365	-0.044162173
153	0x3d6ffeca	0.058592595
154	0xbd8f647e	-0.07001589
155	0x3d32c43e	0.043644182
156	0xbd8b2d30	-0.06795728
157	0xbcf2bf36	-0.029632192
158	0xbcee006c	-0.029052936
159	0x3c61c9b4	0.013781
160	0x3a41898d	0.00073828624
161	0xbd95ecc5	-0.07320551
162	0xbc5bf517	-0.013425133
163	0x3b5ababd	0.0033375465
164	0xbc4b01b0	-0.012390539
165	0xbc827111	-0.015923055
166	0x3ccfceef	0.025367228
167	0xbce2ed86	-0.02770115
168	0xbbe8e5d7	-0.007107477
169	0xbd975ba7	-0.07390528
170	0x3d8f0331	0.069830306
171	0x3db5acaa	0.08870824
172	0xbe194b18	-0.14970052
173	0xbd178821	-0.036995057
174	0x3dc2b6d7	0.0950753
175	0xbd6d5ae0	-0.057947993
176	0xbdc42bdd	-0.09578679
177	0xbdb388b9	-0.08766312
178	0xbc3173ae	-0.010830803
179	0x3daaeeaf	0.083463065
180	0xbd39f9f0	-0.045404375
181	0x3dd604de	0.10450147
182	0xbd43f694	-0.047842577
183	0x3db1560f	0.086589925
184	0x3d8131d6	0.063083336
185	0x3c84cf46	0.016212117
186	0xbd163ccd	-0.036679078
187	0xbbd5bf0f	-0.00652302
188	0x3cdb7eb4	0.026793815
189	0xbc8a1c00	-0.016859055
190	0x3d84a360	0.06476474
191	0xbc764b76	-0.01503264
192	0x3d8089b8	0.06276268
193	0xbd43b0fd	-0.04777621
194	0xbcceeab0	-0.025258392
195	0x3c8f736d	0.017511094
196	0x3d590c3f	0.052990194
197	0xbcad4941	-0.021153094
198	0xbd858c91	-0.065209515
199	0x3c5a6c38	0.013331465
200	0x3dbeb7f0	0.09312427
201	0xbc812c94	-0.015768327
202	0x3d57acd5	0.05265506
203	0x3aeb86f5	0.0017969297
204	0x3d0c8a3b	0.034311514
205	0x3cbbd8c5	0.022930512
206	0xbc6bdfd5	-0.014396627
207	0xbd04a3b8	-0.032382697
208	0x3da701ce	0.08154641
209	0xbd64e1cc	-0.0558794
210	0xbd43ebee	-0.047832422
211	0x3e03e883	0.12881665
212	0x3d90b78d	0.070662595
213	0xbda98939	-0.08278126
214	0xbe03383d	-0.12814422
215	0xbceca23e	-0.028885957
216	0x3dd70d98	0.1050064
217	0x3db4dd3c	0.088312596
218	0xb9e64113	-0.00043917503
219	0x3cd169ac	0.025563084
220	0x3ad53eae	0.001626929
221	0xbdd928b6	-0.10603468
222	0xbde288d4	-0.11061254
223	0x3d782273	0.06057973
224	0x3d935e2c	0.07195696
225	0xbc1caf09	-0.009563216
226	0xbac868c2	-0.0015290009
227	0xbcf1944e	-0.029489662
228	0x3d89250a	0.06696518
229	0xbcde3f63	-0.027129835
230	0x3d4a3e82	0.04937602
231	0x3d11d416	0.03560265
232	0x3d273c03	0.040828716
233	0x3cf2e5e9	0.029650645
234	0xbcc9e313	-0.02464441
235	0xbe068a1e	-0.13138625
236	0x3d14ed64	0.036359206
237	0x3c20181c	0.009771373
238	0x3d372ab2	0.04471845
239	0xbd81f2c5	-0.06345133
240	0x3db5a986	0.08870225
241	0xbcec7287	-0.028863205
242	0xbcb8487c	-0.0224955
243	0xbe03b299	-0.12861098
244	0x3c9eb199	0.019371795
245	0xbd176b75	-0.036967713
246	0xbc3ea3a1	-0.011635692
247	0x3c556aa8	0.013025917
248	0xbcfcfb3f	-0.030881522
249	0x3cfde75a	0.030994106
250	0x3d2e6af7	0.04258248
251	0x3cc6c24b	0.024262568
252	0xbcbbad3c	-0.022909753
253	0xbd67112b	-0.056412857
254	0xbd181302	-0.037127502
255	0xbd98e52d	-0.07465587

model.0.bias f4 [32]
0	0x3954c69d	0.00020291885
1	0xb9c92842	-0.00038367702
2	0x39e6f6ad	0.00044052806
3	0x37a0cff2	1.9170318e-05
4	0x3aa4c105	0.0012569731
5	0xba0faaf0	-0.0005480489
6	0x3a865a42	0.0010250288
7	0xba2b6b97	-0.00065391645
8	0x3ac26841	0.0014832095
9	0x3a94b52a	0.0011345495
10	0xba3509a3	-0.0006906038
11	0x3a479792	0.00076138333
12	0x3a5addf9	0.00083491165
13	0x37a3601d	1.947587e-05
14	0x38aee62d	8.33984e-05
15	0x3a18b8f9	0.0005825903
16	0x3a3e4c26	0.0007259272
17	0x3acbfb06	0.0015562482
18	0xba0b2ecf	-0.0005309404
19	0xb8d70a92	-0.00010253968
20	0xb86591ac	-5.4733522e-05
21	0x39c4f424	0.00037565932
22	0xb940e084	-0.00018394185
23	0xb99c1592	-0.0002977071
24	0xb9f68009	-0.0004701617
25	0xb957d672	-0.00020583885
26	0xba04961b	-0.0005057768
27	0xbb9842c8	-0.004646633
28	0x3981f227	0.00024785215
29	0x3aa04ab6	0.0012229297
30	0x3a168674	0.0005742081
31	0xba5a5e8d	-0.0008330129

model.1.weight f4 [32]
0	0x3f7ee6e7	0.9957108
1	0x3f7a5883	0.9779131
2	0x3f79637a	0.97417414
3	0x3f794b23	0.97380275
4	0x3f8206a4	1.0158277
5	0x3f81e017	1.0146512
6	0x3f7dcb21	0.99138075
7	0x3f7f2e28	0.99679804
8	0x3f79e6c9	0.97617775
9	0x3f7edf1b	0.9955918
10	0x3f84d13f	1.0376357
11	0x3f75cb5c	0.96013427
12	0x3f7fdccb	0.9994628
13	0x3f80fd47	1.0077294
14	0x3f7c51ee	0.98562515
15	0x3f7cfcd6	0.988233
16	0x3f7da6d3	0.9908268
17	0x3f820390	1.0157337
18	0x3f81ac6a	1.0130742
19	0x3f79db4a	0.97600234
20	0x3f817876	1.0114887
21	0x3f7a80cd	0.97852784
22	0x3f7dc92c	0.9913509
23	0x3f883653	1.0641578
24	0x3f7ec0f5	0.9951318
25	0x3f777204	0.9665835
26	0x3f885b17	1.0652798
27	0x3f789deb	0.97115964
28	0x3f7da2eb	0.9907672
29	0x3f8099c3	1.0046924
30	0x3f7e0eff	0.9924163
31	0x3f7fc4a4	0.99909425

model.1.bias f4 [32]
0	0x3ca6f37f	0.02037978
1	0xba71db22	-0.0009226074
2	0xbd0580a1	-0.032593373
3	0xbc7e3239	-0.015514904
4	0x3c65a299	0.014015817
5	0x3ce8710b	0.028374216
6	0xbb85750d	-0.0040727914
7	0x3bea5ac1	0.007151932
8	0xbcab236d	-0.020890916
9	0xba51e0e1	-0.0008006227
10	0x3ce5d07a	0.028053511
11	0x3c9cf849	0.01916136
12	0x3ca13ad9	0.019681381
13	0x3c4dacef	0.012553438
14	0xbc7dca6d	-0.015490157
15	0xbbcd4437	-0.0062642354
16	0x3d10704a	0.035263337
17	0x3c98dbe7	0.018659545
18	0x3c24cb24	0.010058198
19	0x3c4b53b9	0.012410098
20	0x3c86bb5a	0.016446758
21	0x3cdf00c9	0.027222054
22	0x3d27f1c8	0.041002065
23	0x3cf46097	0.029831214
24	0x3d2bb7e3	0.041923415
25	0xbc7661f0	-0.015037999
26	0x3d55af8e	0.052169375
27	0x3d0ba625	0.034093995
28	0x3c65b185	0.014019375
29	0x3c3dff7e	0.011596559
30	0x3c3e5e80	0.01161921
31	0x3d203c58	0.03912005

model.1.gate f4 [32]
0	0x3f8cbd8b	1.0995344
1	0x3f7eff71	0.9960852
2	0x3f7d53f9	0.9895626
3	0x3f86db39	1.0535651
4	0x3f86b377	1.0523518
5	0x3f87198e	1.0554674
6	0x3f63c3b3	0.8897049
7	0x3f68cb42	0.90935147
8	0x3f65379b	0.8953797
9	0x3f97c2b0	1.1856289
10	0x3f9448fd	1.1584774
11	0x3f57bde4	0.84274125
12	0x3f7a8e5d	0.9787348
13	0x3f63ecc9	0.8903318
14	0x3f85e5ee	1.0460794
15	0x3f718dbd	0.943569
16	0x3f751175	0.9572976
17	0x3f8a9519	1.0826751
18	0x3f8096b6	1.0045993
19	0x3f64aefa	0.89329493
20	0x3f86144f	1.0474948
21	0x3f722848	0.94592714
22	0x3f8703ae	1.0547998
23	0x3f6ccf5a	0.92503893
24	0x3f6669ed	0.9000538
25	0x3f814430	1.0098934
26	0x3f7e7c66	0.99408567
27	0x3fa3f58f	1.2809314
28	0x3f75789c	0.9588716
29	0x3f7d5ace	0.9896668
30	0x3f7fe92b	0.9996516
31	0x3f4d9acc	0.80314326

model.1.running_mean f4 [32]
0	0x3f4d9b3d	0.80315
1	0xbe983224	-0.29725754
2	0xbe2eced6	-0.17071089
3	0x3ef366d9	0.47539404
4	0xbe3b2f5a	-0.18279782
5	0x3f38fe23	0.7226278
6	0xbe1ae51e	-0.15126464
7	0xbf337ff9	-0.70117146
8	0xbecedb60	-0.40401745
9	0xbdae7e54	-0.08520189
10	0x3f6b3da4	0.9189093
11	0xbec18bc8	-0.37801957
12	0xbe140ff6	-0.14459214
13	0x3f13c48e	0.57721794
14	0x3daee626	0.08539991
15	0x3f695fb3	0.9116165
16	0xbdfaeffa	-0.12252803
17	0x3fa3441e	1.2755163
18	0x3f457ede	0.7714671
19	0xbedd6ceb	-0.4324716
20	0x3f1ff8cf	0.62489027
21	0xbf7f1cff	-0.9965362
22	0x3f208e6d	0.62717324
23	0x3eed5b0b	0.46358523
24	0x3d5474b3	0.051869106
25	0xbe24b795	-0.16085656
26	0x3f745646	0.9544414
27	0x3f255d29	0.64595276
28	0xbf7473be	-0.9548911
29	0xbd1085ae	-0.035283737
30	0x3cc52440	0.024065137
31	0x3dc2c775	0.095107

model.1.running_var f4 [32]
0	0x3d859ec1	0.065244205
1	0x3d41a4b9	0.047276232
2	0x3c5bfa7e	0.013426421
3	0x3d16a525	0.036778588
4	0x3cab5ff8	0.020919785
5	0x3d0f339c	0.034961328
6	0x3d437ab1	0.04772443
7	0x3d29209c	0.041290864
8	0x3d33d2a8	0.04390207
9	0x3c69ceb2	0.014270471
10	0x3d3ca4b8	0.046055526
11	0x3c7324a8	0.0148402825
12	0x3cf24dc5	0.029578099
13	0x3d618169	0.055055056
14	0x3c9baf44	0.019004472
15	0x3d9844ef	0.07435023
16	0x3cdaf9b4	0.026730396
17	0x3da95f64	0.082701474
18	0x3d3a4ee5	0.045485396
19	0x3ca941d9	0.020661281
20	0x3cbb6e74	0.022879817
21	0x3d423d8c	0.047421977
22	0x3d53ee68	0.051741034
23	0x3cf6bd58	0.030119583
24	0x3db55f15	0.08856026
25	0x3d21fbaf	0.039546665
26	0x3d7ed1e1	0.062211875
27	0x3d685375	0.056720216
28	0x3d5d43fd	0.054019917
29	0x3c62077b	0.013795729
30	0x3ce9210e	0.028458145
31	0x3d8378f0	0.06419551

model.3.main.0.weight f4 [32, 32, 3, 3]
0	0xbd08b7a4	-0.03337826
1	0xbc39385c	-0.011304941
2	0x3d926e69	0.07149965
3	0xbdf287b8	-0.118422925
4	0x3d396c8a	0.045269527
5	0xbe238cee	-0.15971729
6	0xbe0cd7cd	-0.13754196
7	0xbcb39ab8	-0.021924362
8	0x3ccfedb5	0.025381902
9	0xbe2cbb44	-0.16868311
10	0xbdfdb92b	-0.123888336
11	0xbba6a7f2	-0.0050859386
12	0x3d05b1f2	0.032640405
13	0xbddc697d	-0.10762308
14	0x3e17d8ab	0.14828746
15	0xbe064e5d	-0.1311583
16	0xbe442d24	-0.19157845
17	0xbcd75c04	-0.026288994
18	0xbdada412	-0.084785596
19	0xbe02a759	-0.1275915
20	0xbd92eef5	-0.07174484
21	0xbc27a9c6	-0.010233348
22	0x3cd87a81	0.026425602
23	0xbb9a8e51	-0.0047166725
24	0xbd80c5ff	-0.06287765
25	0x3db0feab	0.08642324
26	0x3c80d9fe	0.015728947
27	0xbe0b4c0c	-0.13603228
28	0xbd726258	-0.05917582
29	0x3badf64f	0.0053089033
30	0xbdf63f1d	-0.12023757
31	0x3dcb9d6a	0.09942134
32	0xbdbe0b43	-0.09279492
33	0x3d828535	0.063730635
34	0x3c11f1f0	0.00890778
35	0x3cc81f3e	0.02442896
36	0xbe30af99	-0.17254485
37	0x3c58f9e0	0.013243169
38	0xbd8ef787	-0.06980806
39	0xbdd4491b	-0.10365506
40	0x3d145e9c	0.03622304
41	0x3b9d0a20	0.0047924668
42	0xbd6b8939	-0.057503913
43	0x3d1dfa42	0.038568743
44	0xbd5c1a33	-0.053735923
45	0xbdc29b47	-0.09502273
46	0xbd2d60c9	-0.04232863
47	0xbd88e156	-0.066836044
48	0x3dc4ac44	0.096031696
49	0xbdd94a33	-0.106098555
50	0xbcb9c7bc	-0.022678249
51	0xbd1125ca	-0.03543643
52	0x3c838136	0.016052824
53	0x3c908176	0.017639857
54	0x3c47d104	0.012195829
55	0xbdde0f57	-0.108427696
56	0x3c1656f6	0.009176007
57	0xbdc304c3	-0.095223926
58	0x3d6eec33	0.058330726
59	0xbd2adade	-0.041712634
60	0x3d015033	0.031570625
61	0x3cbca03b	0.023025623
62	0xbcd28477	-0.02569793
63	0x3da3067e	0.07960223
64	0x3db86c4a	0.090050295
65	0x3dbcf42d	0.0922626
66	0xbcba2a47	-0.022725238
67	0x3d86d9b0	0.06584489
68	0xbcd4ed1b	-0.025991967
69	0x3d8b95c8	0.06815678
70	0xbe0b3801	-0.13595583
71	0xbd806702	-0.06269647
72	0xbc68bfff	-0.014205932
73	0x3d8f0e29	0.06985123
74	0xbdde48f4	-0.108537585
75	0xbcd8f92b	-0.026486
76	0xbe349adb	-0.17637198
77	0xbe0afc19	-0.1357273
78	0xbd5e5cea	-0.05428783
79	0x3d679ec1	0.056547884
80	0x3da8ccac	0.08242163
81	0xbd1adf63	-0.037810694
82	0x3de0dfc8	0.10980183
83	0xbd01e40f	-0.031711634
84	0xbe381310	-0.17976022
85	0xbba44bd4	-0.005013922
86	0x3cca18b9	0.024669992
87	0xbd7446fb	-0.059638005
88	0x3c429125	0.011875425
89	0xbd123f62	-0.035704978
90	0xbe3cef29	-0.18450607
91	0xbd6056f5	-0.05477043
92	0xbccf563b	-0.025309673
93	0xbd1e8880	-0.038704395
94	0x3a665a1b	0.00087872305
95	0xbd9cdd7d	-0.07659433
96	0x3dad8a5e	0.08473657
97	0xbc3ec394	-0.011643309
98	0xbe0dc423	-0.13844351
99	0x3c1055fb	0.008809562
100	0x3d4a3b61	0.049373034
101	0x3cb1f79d	0.021724517
102	0x3d1e5af1	0.038660947
103	0xbe18131d	-0.14851041
104	0xbd699c4f	-0.057033833
105	0x3b9fc155	0.004875342
106	0xbdd8d168	-0.10586816
107	0x3dd998e6	0.10624866
108	0x3d047005	0.032333393
109	0xbe020812	-0.12698391
110	0xbd4a4273	-0.049379777
111	0xbdc96a21	-0.098346956
112	0x3ce6c005	0.028167734
113	0xbd03a132	-0.03213615
114	0xbce9d4ce	-0.028543856
115	0xbd13bbbc	-0.03606771
116	0xbe750de5	-0.23931082
117	0x3e0eb302	0.13935474
118	0xbcc546ad	-0.024081552
119	0xbe03702e	-0.12835762
120	0xbe0ac453	-0.13551454
121	0x3e0c9b03	0.13731007
122	0x3c3061cd	0.010765505
123	0xbe0e7071	-0.1391008
124	0x3d0049e0	0.031320453
125	0x3e415a0b	0.18882005
126	0xbd434b2d	-0.047679115
127	0x3d9b2666	0.07575683
128	0xbd3d3dc7	-0.046201494
129	0x3d6134d0	0.054982007
130	0xbdb36daf	-0.08761155
131	0x3e0ad886	0.1355916
132	0xbe14683d	-0.14492889
133	0xbd22c0e8	-0.03973475
134	0x3e4d42c1	0.20044996
135	0x3d0afe40	0.033933878
136	0xbda5d976	-0.08098118
137	0xbd177565	-0.03697719
138	0xbde6d5f7	-0.11271279
139	0xbe471d10	-0.1944468
140	0xbd440261	-0.04785383
141	0xbb686504	-0.00354606
142	0xbc93db0d	-0.018048787
143	0x3e36be94	0.17846137
144	0xbdd5d979	-0.1044187
145	0x3c97d729	0.018535214
146	0xbb857694	-0.0040729735
147	0xbdebdc85	-0.1151667
148	0x3d8b8922	0.068132654
149	0x3d89700c	0.06710824
150	0xbcb6b13e	-0.022301313
151	0xbd49c01f	-0.049255487
152	0xbcae2cc1	-0.021261575
153	0x3d870160	0.06592059
154	0xbddead60	-0.108729124
155	0x3d2825ec	0.04105179
156	0xbd71ea0a	-0.059061088
157	0xbcd3f6f8	-0.0258746
158	0xbe2aa42f	-0.16664194
159	0x3d706d0e	0.058697753
160	0xbd509fbe	-0.050933592
161	0xbe2147a2	-0.15749982
162	0x3bdfa733	0.0068253516
163	0x3d669d1b	0.05630217
164	0x3d3aad01	0.045575146
165	0xbb62e0fe	-0.003461897
166	0x3917760c	0.00014444458
167	0xbde3188f	-0.110886686
168	0xbd12c65d	-0.035833705
169	0xbe069e52	-0.13146332
170	0x3e66758a	0.22505775
171	0x3b425852	0.0029654694
172	0x3d3aef42	0.04563833
173	0x3df9aae4	0.12190798
174	0xbc0b4f7c	-0.008502837
175	0xbdda0f56	-0.10647456
176	0xbe7043a9	-0.2346331
177	0xbd3876f6	-0.045035325
178	0xbb110fad	-0.0022134588
179	0x3d2aa2fc	0.04165934
180	0xbd708a96	-0.058725916
181	0xbdc056e1	-0.09391571
182	0xbb846d3c	-0.004041342
183	0x3dbcffe8	0.09228498
184	0xbc435318	-0.011921667
185	0x3d8d01ce	0.0688511
186	0x3d87a7e4	0.066238195
187	0xbd2a0cfc	-0.04151629
188	0xbe1c5507	-0.1526681
189	0xbda2c9ef	-0.07948672
190	0x3d10c554	0.035344437
191	0xbd7e56ac	-0.062094375
192	0x3e2228e1	0.15835907
193	0xbd4516c0	-0.0481174
194	0x3d67d68b	0.05660109
195	0xbd1fd313	-0.039019655
196	0xbdbf7c3a	-0.09349866
197	0xbdacd563	-0.08439138
198	0xbcd333c0	-0.025781512
199	0xbdde0ae8	-0.10841924
200	0xbe01f49f	-0.12690972
201	0x3e284079	0.16430844
202	0x3d1fb136	0.03898736
203	0xba1f1956	-0.0006069144
204	0xbb143fd3	-0.002262105
205	0xbceba36c	-0.028764449
206	0xbca78f15	-0.020453969
207	0xbdd12c01	-0.10213471
208	0x3cf8749e	0.030329045
209	0xbda8ac8d	-0.082360364
210	0x3d6901d6	0.056886517
211	0xbe7db224	-0.24774987
212	0xbda631ad	-0.08114944
213	0xba66953a	-0.000879604
214	0xbd09b2b6	-0.033617698
215	0x3daabbc1	0.083365925
216	0x3be43c0e	0.006965167
217	0xbce09273	-0.027413582
218	0x3ce905ac	0.028445087
219	0x3e3ec484	0.18629652
220	0x3be8af01	0.00710094
221	0x3deb2348	0.11481339
222	0x3d8aedf5	0.06783668
223	0x3bd619a5	0.006533819
224	0xbe3565cd	-0.17714615
225	0xbc6b4d6c	-0.0143617205
226	0xbd2b12e5	-0.041766066
227	0x3e237b6f	0.15965055
228	0xb98fbdfe	-0.0002741664
229	0x3c9b570b	0.018962404
230	0xbdb23e70	-0.08703315
231	0xbcaf10e8	-0.021370366
232	0xbcaf7730	-0.021419138
233	0x3c8ca7de	0.017169889
234	0xbda9fa33	-0.08299675
235	0x3e32a47a	0.17445555
236	0xbd9501a8	-0.072757065
237	0xbd468440	-0.048465967
238	0x3c7eedeb	0.015559654
239	0xbe01ad13	-0.12663679
240	0x3dcd2cb3	0.10018291
241	0xbd062c26	-0.032756947
242	0x3da50f39	0.08059544
243	0x3ca4bbdd	0.020109111
244	0x3d78909d	0.06068479
245	0x3e0b18c5	0.13583668
246	0xbd113a51	-0.035456005
247	0xbd47047f	-0.048588272
248	0xbd4bf21b	-0.049791437
249	0x3c960ea6	0.018317532
250	0x3bec5d7b	0.007213292
251	0x3d9ba1a7	0.07599192
252	0xbce671f2	-0.028130505
253	0xbd873007	-0.06600957
254	0x3d9ea4ca	0.07746275
255	0xbca32047	-0.019912852

model.3.main.1.weight f4 [32]
0	0x3f7e066f	0.99228567
1	0x3f7fcc38	0.9992099
2	0x3f832558	1.0245771
3	0x3f827317	1.0191373
4	0x3f82b463	1.02113
5	0x3f80b742	1.0055926
6	0x3f7baee8	0.9831376
7	0x3f803545	1.0016257
8	0x3f806c66	1.003308
9	0x3f81c69a	1.0138733
10	0x3f804e30	1.0023861
11	0x3f7ff710	0.9998636
12	0x3f7c2ab0	0.98502636
13	0x3f7fb3d7	0.9988379
14	0x3f772f9f	0.9655704
15	0x3f7edd8f	0.9955682
16	0x3f818da7	1.0121354
17	0x3f8022bb	1.0010599
18	0x3f7fdcd9	0.9994636
19	0x3f7d3ea5	0.9892371
20	0x3f82c5ea	1.0216649
21	0x3f7df654	0.9920399
22	0x3f7cceb0	0.9875288
23	0x3f79a38b	0.9751517
24	0x3f7fcac5	0.99918777
25	0x3f7e8aac	0.99430346
26	0x3f7f6dfe	0.9977721
27	0x3f7cb9ee	0.98721206
28	0x3f7e29c2	0.9928247
29	0x3f80c116	1.0058925
30	0x3f8016e1	1.0006982
31	0x3f82a6ae	1.0207117

model.3.main.1.bias f4 [32]
0	0xba26892e	-0.0006352839
1	0x3c4a5c52	0.012351112
2	0xbbea278b	-0.007145827
3	0x3c7a76d1	0.015287117
4	0x3c8dd08c	0.017311357
5	0x3cb74814	0.022373237
6	0x3c7df218	0.015499614
7	0x3cca0c3d	0.024664039
8	0x3cff300c	0.03115084
9	0x3c5ea5e0	0.013589352
10	0x3d131e9c	0.035917863
11	0x3d13a762	0.0360483
12	0xbb23b755	-0.00249811
13	0x3d0a1ee6	0.033720873
14	0xbb744f36	-0.0037278659
15	0xbbc31ae0	-0.0059541315
16	0x3c970a58	0.01843755
17	0x3cfbb060	0.03072375
18	0x3bf6a44c	0.00752691
19	0xbad10ed4	-0.0015949854
20	0xbd2491b4	-0.040178016
21	0xbbfe6607	-0.0077636275
22	0xbbb49b07	-0.0055116448
23	0xbd0c6b9f	-0.034282323
24	0xbbbaa9c4	-0.005696507
25	0xb9adcd2e	-0.00033150002
26	0xbc8c4c01	-0.017126085
27	0xbca787e8	-0.020450547
28	0xbb9fd5f5	-0.0048778006
29	0x3d10998a	0.035302676
30	0xbb2ac57a	-0.0026057647
31	0x3dd0c3ed	0.1019362

model.3.main.1.gate f4 [32]
0	0x3f74bc0a	0.95599425
1	0x3f946cc7	1.1595696
2	0x3f8f76ff	1.120819
3	0x3f74264b	0.9537093
4	0x3f76d1de	0.9641398
5	0x3f3c526e	0.7356328
6	0x3f5dc971	0.866355
7	0x3f839f8b	1.0283064
8	0x3f875852	1.0573828
9	0x3f786dfc	0.9704282
10	0x3f5cc4d5	0.8623784
11	0x3f6f8f75	0.93578273
12	0x3f8026e9	1.0011874
13	0x3f9608f3	1.1721481
14	0x3f72ec43	0.94891757
15	0x3fae9543	1.3639301
16	0x3f7b745a	0.98224413
17	0x3f95d5f6	1.1705921
18	0x3f785489	0.9700399
19	0x3f898240	1.0742874
20	0x3f7df71e	0.99205196
21	0x3f7935bd	0.97347623
22	0x3f699e2b	0.9125697
23	0x3f93bfe0	1.1542931
24	0x3f7abd0a	0.979447
25	0x3f572fee	0.8405751
26	0x3f76b171	0.96364504
27	0x3f81be90	1.013628
28	0x3f87a2fa	1.0596611
29	0x3f2692a4	0.65067506
30	0x3f83ba51	1.0291234
31	0x3f4f91b6	0.8108171

model.3.main.1.running_mean f4 [32]
0	0xbfb5b195	-1.4194819
1	0x3f734c3c	0.950382
2	0x3eac9938	0.33710647
3	0xbe27e632	-0.16396406
4	0x3ea5a66e	0.32353538
5	0xbf3e15a1	-0.74251753
6	0xbf17db82	-0.5931932
7	0xbf211f53	-0.6293842
8	0x3ed4e13d	0.41578093
9	0x3e80b295	0.25136247
10	0xbf6367dc	-0.8883035
11	0xbdfa40b2	-0.12219371
12	0xbeef3901	-0.46723178
13	0xbe1febc6	-0.15617284
14	0xbe090a72	-0.13382891
15	0xbed3c128	-0.41358304
16	0xbf59dc67	-0.8510193
17	0xbedf7cdc	-0.43649948
18	0x3e8e8fb5	0.27844015
19	0x3e760cab	0.2402827
20	0xbe95f2ac	-0.29286706
21	0x3e616b2d	0.2201354
22	0x3f159c5b	0.58441705
23	0xbf27e613	-0.6558544
24	0x3f557d81	0.8339463
25	0x3f07ed56	0.5309652
26	0x3c115409	0.008870133
27	0x3dabbc06	0.08385472
28	0xbf9c51e8	-1.2212496
29	0x3e6b0d43	0.22954278
30	0x3dbc3bdb	0.09191104
31	0xbe36aa3d	-0.17838378

model.3.main.1.running_var f4 [32]
0	0x3f1f6935	0.6226991
1	0x3fac3981	1.3455049
2	0x3f52169d	0.82065755
3	0x3f95c8ba	1.1701882
4	0x3fca682e	1.5813043
5	0x403eaaa8	2.979166
6	0x3f4f3b0f	0.8094949
7	0x3f1c733e	0.61113346
8	0x3fe637a3	1.7985729
9	0x3f401c36	0.75043046
10	0x3f25e0df	0.6479625
11	0x3f30aa75	0.69010097
12	0x3f545929	0.8294855
13	0x3f130f7a	0.5744549
14	0x3fa5935b	1.2935594
15	0x3fbe40cf	1.4863528
16	0x3f35ec92	0.710641
17	0x3f777580	0.96663666
18	0x3ee79af7	0.45235416
19	0x3f8bd1b6	1.0923374
20	0x3f2b9f5a	0.67040026
21	0x3f8fe29d	1.1241032
22	0x3f5be8b1	0.85901934
23	0x3f90da82	1.1316683
24	0x3fa67f66	1.3007629
25	0x4027dda9	2.622904
26	0x3f8777ae	1.0583398
27	0x3ed60ed4	0.41808188
28	0x3f241586	0.6409534
29	0x3fa36d47	1.2767724
30	0x3f1e5d3a	0.61861
31	0x3f73cee6	0.95237577

model.3.main.3.weight f4 [32, 32, 3, 3]
0	0xbced951e	-0.029001769
1	0xba5aeb91	-0.0008351142
2	0xbd90dd7d	-0.070734955
3	0x3e1cb601	0.15303804
4	0xbdfeff4c	-0.12451038
5	0xbbeff9c2	-0.0073234746
6	0xbdfadb01	-0.12248803
7	0xbd04b4c0	-0.03239894
8	0xbdcff9f1	-0.101550944
9	0x3d18d20d	0.037309695
10	0x3cd5649d	0.026048953
11	0x3c554f10	0.013019338
12	0xbc940a49	-0.01807131
13	0xbd2d0b42	-0.042247064
14	0xbd5c49f7	-0.053781476
15	0xbddee3d0	-0.108832955
16	0xbc92d036	-0.017921548
17	0xbdc00989	-0.09376819
18	0xbd5d1739	-0.053977225
19	0x3d863fb5	0.0655512
20	0x3dba0d29	0.09084541
21	0xbdc8a204	-0.09796527
22	0x3db52d8c	0.08846578
23	0xbdd23420	-0.10263848
24	0x3d8eb476	0.06968014
25	0xbd193843	-0.03740717
26	0xbd4372af	-0.047716793
27	0xbda14cd0	-0.07875979
28	0xbe1312de	-0.14362666
29	0x3d864dee	0.06557833
30	0x3a8ec792	0.0010893217
31	0x3df3f015	0.119110264
32	0xbd920e4d	-0.07131634
33	0x3d241219	0.04005632
34	0xbd95b7bd	-0.07310436
35	0xbe1620d0	-0.14660954
36	0x3c699ec3	0.014259043
37	0x3e398eb6	0.18120846
38	0xbc5d0982	-0.013491036
39	0xbb2d9aff	-0.002649009
40	0xbdd8661f	-0.10566353
41	0x3b0df282	0.0021659438
42	0x3ce943de	0.028474744
43	0x3e3fa9aa	0.18717065
44	0xbc4d6d2f	-0.012538238
45	0x3e0f4959	0.13992824
46	0xbe1e0a4a	-0.15433612
47	0xbe1dc448	-0.15406907
48	0x3d836cac	0.06417212
49	0x3badcd59	0.0053040204
50	0x3e0e885e	0.13919207
51	0xbd83785a	-0.064194396
52	0x3ba3dcbb	0.0050006784
53	0x3bf83441	0.0075745885
54	0xbc5831cc	-0.013195466
55	0x3dfd366d	0.123638965
56	0x3baaa074	0.005207116
57	0xbc421245	-0.011845176
58	0xbdbdead4	-0.092733055
59	0x3d7dfb6e	0.06200736
60	0xbd3a913c	-0.045548663
61	0xbdd4c7f1	-0.10389698
62	0x3d36da22	0.04464162
63	0xbdbe6c27	-0.09297972
64	0x3cabe04b	0.020980975
65	0x3d5a8d73	0.053357553
66	0x3c2edf43	0.010673347
67	0x3d9833bb	0.07431742
68	0x3c830b47	0.015996588
69	0xbce3e470	-0.027818888
70	0x3ddb17f6	0.106979296
71	0x3cba9ddb	0.02278035
72	0x3e02a27d	0.12757297
73	0x3d3414eb	0.04396526
74	0xbd6c37d2	-0.057670422
75	0x3e2d0618	0.16896856
76	0xbd16e05a	-0.036835052
77	0xbc64ff2c	-0.013976853
78	0xbd56ba5d	-0.052423824
79	0x3dc27765	0.09495429
80	0xbe01b7f1	-0.12667824
81	0xbd0408f1	-0.03223509
82	0x3dafcde5	0.08584193
83	0x3d2413c2	0.040057905
84	0x3e22fe07	0.15917216
85	0xbd9fe4fe	-0.07807349
86	0xbcaa21fc	-0.020768158
87	0xbdb38b98	-0.0876686
88	0x3c77c3d7	0.015122375
89	0xbbeb8a6b	-0.0071881316
90	0x3d966200	0.07342911
91	0xbda6e2c9	-0.081487246
92	0x3da42ad6	0.08015983
93	0xbd3cad9f	-0.046064015
94	0xbdb2f2ad	-0.08737693
95	0x3dd80295	0.105473675
96	0xbd0e3fb3	-0.034728717
97	0xbd311f9f	-0.043243047
98	0x3bd220fe	0.0064126244
99	0x3dd275ba	0.10276361
100	0xbc62ab72	-0.013834821
101	0xbd4daacc	-0.050211713
102	0x3d6801f1	0.056642476
103	0x3ca9c34e	0.020723011
104	0x3dd1a127	0.102358155
105	0xbbf1019c	-0.007354928
106	0xbe119fff	-0.1422119
107	0x3d182918	0.037148565
108	0x3db5a210	0.088688016
109	0x3e153c20	0.14573717
110	0xbe18a069	-0.14904942
111	0xbd037718	-0.032096
112	0x3e14cb66	0.14530715
113	0xbc2afe8d	-0.010436666
114	0xbc71e7c5	-0.014764731
115	0x3c6277b9	0.013822489
116	0x3cf5d112	0.030006919
117	0xbb29f8d7	-0.0025935674
118	0x3dcf461d	0.10120795
119	0x3da2a111	0.07940877
120	0xbc32da77	-0.010916344
121	0x3d861086	0.0654612
122	0x3b7c8f4c	0.003853756
123	0x3e1cee64	0.15325314
124	0x3d68ec3c	0.056865916
125	0xbdb3c748	-0.08778244
126	0xbdb2ad8b	-0.08724507
127	0xbe2f0ad9	-0.17093982
128	0xbe100aeb	-0.14066665
129	0xbd22023a	-0.039552905
130	0x3c3a131a	0.011357093
131	0xbc0ffad6	-0.008787831
132	0xbd86f7b3	-0.065902136
133	0x3e0e8e74	0.13921529
134	0xbe01775e	-0.12643191
135	0xbe1990f0	-0.14996696
136	0x3ca7d2ba	0.020486224
137	0x3dd6060d	0.10450373
138	0xbc819eb4	-0.015822746
139	0x3deffe3b	0.117184125
140	0x3daff1eb	0.08591064
141	0x3c3411c3	0.010990563
142	0xbd2f3e59	-0.04278407
143	0x3d0b78cb	0.034050744
144	0xbd37701a	-0.044784643
145	0x3e1b63db	0.1517481
146	0x3d1d2d4b	0.038373273
147	0xbd4073d1	-0.04698545
148	0xbbd017e7	-0.0063505056
149	0x3e3c7145	0.18402584
150	0x3d7921a1	0.060823087
151	0x3d9ebc4c	0.077507585
152	0xbd23f46c	-0.04002802
153	0x3df506bd	0.11964176
154	0x3d5c63b3	0.053806018
155	0x3c937fc1	0.018005254
156	0xbd436af6	-0.047709428
157	0x3d84bb00	0.0648098
158	0xbe60fa90	-0.21970582
159	0x3d56644d	0.052341748
160	0x3d8bc584	0.068247825
161	0xbde57ad1	-0.11205066
162	0x3e10e7b0	0.14150882
163	0xbcd98949	-0.02655472
164	0x3c2dbf5e	0.0106047075
165	0x3d77c1a2	0.060487397
166	0x3d0b93f2	0.03407664
167	0x3cf217d2	0.029552374
168	0x3d785854	0.06063111
169	0xbd2dbb12	-0.042414732
170	0xbe3049a0	-0.17215586
171	0x3d9ecaf4	0.07753554
172	0xbd07af22	-0.033126004
173	0xbd1d90c1	-0.038468126
174	0xbdaea1eb	-0.08526977
175	0xbc7d1275	-0.015446295
176	0x3ad6b0e1	0.0016379618
177	0x3d9dc4fb	0.07703587
178	0xbd6fc6bb	-0.058539134
179	0xbdae42cd	-0.08508835
180	0x3dd57be3	0.1042402
181	0xbdba9fbf	-0.091125004
182	0x3dd858d4	0.105638176
183	0x3dd912de	0.10599302
184	0x3d5c83ac	0.05383651
185	0x3e2cf315	0.16889603
186	0x3cd31917	0.0257688
187	0xbd290ed0	-0.041273892
188	0xbe113733	-0.14181213
189	0x3be72037	0.007053401
190	0xbce48d4c	-0.027899407
191	0x3e1a448f	0.15065216
192	0x3a639779	0.0008681934
193	0xbd9f2538	-0.07770771
194	0xbc3ba50b	-0.0114529235
195	0xbe2f6a69	-0.17130436
196	0xbd995c2f	-0.07488286
197	0xbd3366f2	-0.04379935
198	0xbdbfd244	-0.09366277
199	0x3d0c1e8b	0.034208816
200	0xbd82fd52	-0.06395973
201	0xbe1379b2	-0.14401892
202	0x3dca9f18	0.09893626
203	0x3c8cf491	0.017206462
204	0xbd63defc	-0.055632576
205	0x3ddce972	0.10786714
206	0x3d004083	0.031311523
207	0x3cf0ad72	0.02937958
208	0x3e406c99	0.18791427
209	0xbdaf5b0d	-0.085622884
210	0x3da1c5d9	0.078990646
211	0xbc03d396	-0.0080460515
212	0xbd621f0f	-0.0552054
213	0xbd53b09b	-0.051682096
214	0xbd0cdc16	-0.034389578
215	0x3d6cbffe	0.057800286
216	0xbd211b67	-0.039332774
217	0x3de0ee2c	0.10982928
218	0x3d34a432	0.0441019
219	0xbd9a2d68	-0.07528192
220	0xbc635521	-0.013875277
221	0x3d4d3e4b	0.050108235
222	0x3ce3d3e3	0.027810996
223	0xbdc694fb	-0.096963845
224	0xbc87ebec	-0.016591989
225	0x3dddca25	0.10829572
226	0xbe19ad47	-0.15007506
227	0x3ccd4bd1	0.025060566
228	0x3e14682d	0.14492865
229	0xbdbf2449	-0.09333093
230	0x3d9ebb5d	0.077505805
231	0x38ea1dd5	0.00011163546
232	0x3d73c419	0.059513185
233	0xbe1696ca	-0.14705959
234	0x3cf97dc8	0.030455485
235	0x3d8cc7fd	0.06874082
236	0xbdd654b7	-0.10465377
237	0x3c05f619	0.00817635
238	0xbcd18d7a	-0.025580157
239	0xbdd78d86	-0.1052504
240	0x3c64121c	0.013920333
241	0xbb3c1d5f	-0.002870403
242	0xbe453c14	-0.19261199
243	0x3e15fa70	0.14646316
244	0x3e29d144	0.16583735
245	0xbccc185e	-0.024913963
246	0x3de56a3f	0.112019055
247	0x3e3e1ca0	0.18565607
248	0x3d5dc3fd	0.054141987
249	0xbd3443b5	-0.044009883
250	0x3ce1fd74	0.027586676
251	0xbd059f0b	-0.03262238
252	0x3dcf492a	0.10121377
253	0xbda82623	-0.08210399
254	0xbd8576c2	-0.06516792
255	0xbd8d6f66	-0.06906013

model.3.main.4.weight f4 [32]
0	0x3f7abdb9	0.97945744
1	0x3f79ae04	0.9753115
2	0x3f7c1ec5	0.9848445
3	0x3f70b28a	0.9402243
4	0x3f7b3cb5	0.98139507
5	0x3f7c9a84	0.9867327
6	0x3f7b1c32	0.980899
7	0x3f78fd92	0.9726192
8	0x3f77918c	0.9670646
9	0x3f7e0d98	0.9923949
10	0x3f7cffb5	0.9882768
11	0x3f775d03	0.966263
12	0x3f7833b5	0.969539
13	0x3f80d0b8	1.0063696
14	0x3f7ab441	0.97931296
15	0x3f795003	0.97387713
16	0x3f7f2b93	0.99675864
17	0x3f7307ea	0.9493395
18	0x3f6ed5b1	0.9329482
19	0x3f7cc6b8	0.9874072
20	0x3f7c48df	0.9854869
21	0x3f7019c3	0.9378931
22	0x3f7b62ec	0.9819782
23	0x3f7e434d	0.9932144
24	0x3f789585	0.9710315
25	0x3f727d6e	0.9472264
26	0x3f752cae	0.957713
27	0x3f7aa922	0.97914326
28	0x3f787877	0.97058815
29	0x3f784ddb	0.969938
30	0x3f7c469d	0.9854525
31	0x3f78449a	0.9697968

model.3.main.4.bias f4 [32]
0	0x3bf4629e	0.007458045
1	0x3c3f3149	0.011669465
2	0xbd0def31	-0.03465194
3	0x3c0f2d5a	0.00873884
4	0x3b8319b0	0.004000865
5	0x3d25e042	0.040497072
6	0xbb1114d2	-0.0022137654
7	0xbb6a6409	-0.0035765192
8	0x3ad3ec74	0.0016168491
9	0x3c83b638	0.0160781
10	0x3dbc3cb9	0.091912694
11	0x3d2987ce	0.04138928
12	0x3c74e33f	0.014946758
13	0x3c34a272	0.011025058
14	0xbcb80e47	-0.022467745
15	0x3a6288ec	0.0008641619
16	0x3cd97073	0.026542878
17	0x3cfc25cf	0.030779747
18	0x3c0a96b3	0.008458781
19	0xbc28551c	-0.010274198
20	0x3cb27941	0.021786334
21	0x3b8df4db	0.0043321676
22	0x3d010bc3	0.031505357
23	0x3d7de4a3	0.061985623
24	0x3baa308e	0.0051937765
25	0x3c3360a2	0.010948332
26	0x3d444f3a	0.04792712
27	0x3d553e92	0.052061625
28	0xbc08198b	-0.008306871
29	0x3d2e6813	0.04257972
30	0x3cb6f1f2	0.022332165
31	0xbd128dc0	-0.035779715

model.3.main.4.gate f4 [32]
0	0x3f5ed341	0.870411
1	0x3f87aaf4	1.0599046
2	0x3f6af6f8	0.91783094
3	0x3f90a7f6	1.1301258
4	0x3f6fc550	0.9366045
5	0x3f7b0bc7	0.98064846
6	0x3f902adb	1.1263078
7	0x3f89e1a5	1.0771986
8	0x3f871dfa	1.0556023
9	0x3f8de6ba	1.1086037
10	0x3f864545	1.0489889
11	0x3f66eb02	0.90202343
12	0x3f5b2c36	0.85614336
13	0x3f727819	0.94714504
14	0x3f841831	1.0319883
15	0x3f5fb9b0	0.8739271
16	0x3f6e4d35	0.9308656
17	0x3f8e785a	1.1130478
18	0x3f6e558e	0.93099296
19	0x3f6a5cce	0.9154786
20	0x3f788b2d	0.97087365
21	0x3f664f08	0.8996434
22	0x3f685afb	0.90763825
23	0x3f8ac722	1.084202
24	0x3f878701	1.0588075
25	0x3f73454a	0.950276
26	0x3f808447	1.0040368
27	0x3f90e5a1	1.1320077
28	0x3f8b1cf8	1.0868216
29	0x3f731362	0.9495145
30	0x3f7e6d92	0.9938594
31	0x3f8bb4ac	1.0914512

model.3.main.4.running_mean f4 [32]
0	0x3eabd17f	0.3355827
1	0xbf3c8266	-0.7363647
2	0x3f3ceacc	0.7379577
3	0xbf0090ee	-0.50221145
4	0xbf0098c5	-0.5023311
5	0xbf7d6617	-0.989839
6	0xbf28921a	-0.65847933
7	0xbf400db9	-0.7502094
8	0x3f0bdb3a	0.5463139
9	0xbfa5fd86	-1.2967994
10	0xbfdafbe4	-1.7108121
11	0x3e944d5f	0.2896528
12	0xbeaef3a5	-0.3417026
13	0x3eacfeae	0.33788055
14	0x3f9d3ac3	1.2283558
15	0xbea0021a	-0.31251603
16	0xbdbd08d0	-0.092301965
17	0xbf0e1d51	-0.55513483
18	0x3dc63447	0.0967794
19	0xbf3fde93	-0.74948996
20	0x3f799cb0	0.9750471
21	0x3f597600	0.8494568
22	0xbf403c6d	-0.750922
23	0x3ee27fda	0.44238168
24	0x3edf0fd4	0.43566763
25	0xbd2782a0	-0.040896058
26	0xbf7e9e48	-0.9946027
27	0xbf43d6c4	-0.7649958
28	0x3f93d82e	1.1550348
29	0x3ec1b74a	0.3783515
30	0xbe82283c	-0.2542132
31	0x3f5403fc	0.8281858

model.3.main.4.running_var f4 [32]
0	0x3fb57786	1.4177101
1	0x40015ab3	2.0211608
2	0x40873c34	4.226099
3	0x3f93581c	1.1511264
4	0x4038e9a0	2.8892593
5	0x3fc4c1fe	1.5371702
6	0x3f6ab5a2	0.916834
7	0x3fb7f268	1.4370852
8	0x3fc731c0	1.5562057
9	0x40123edc	2.2850866
10	0x409e0368	4.937916
11	0x40401f81	3.0019228
12	0x3f89731e	1.0738256
13	0x40147c52	2.320088
14	0x402e1876	2.720243
15	0x3ff697ce	1.9265077
16	0x3fc18541	1.5118791
17	0x3f92ab50	1.145853
18	0x3f47d55b	0.7805993
19	0x40234b6e	2.5514789
20	0x4019549f	2.3957899
21	0x3ff17ffd	1.8867184
22	0x401f9378	2.4933758
23	0x3ff6b6d0	1.927454
24	0x3fc81ff9	1.5634757
25	0x3fb8d494	1.4439874
26	0x401e4592	2.4729962
27	0x403339d4	2.8004045
28	0x3fe001a7	1.7500504
29	0x3fae71bc	1.3628459
30	0x3f829c93	1.0204033
31	0x3fd5e180	1.6709442

model.4.main.0.weight f4 [32, 32, 3, 3]
0	0xbdd89068	-0.10574418
1	0x3c5fa8a8	0.013651051
2	0xbe1886dd	-0.14895196
3	0xbdc24e82	-0.094876304
4	0x3cd62f27	0.02614553
5	0xbce9a553	-0.028521216
6	0xbcba4ab5	-0.022740701
7	0xbd286c17	-0.041118708
8	0xbde281c6	-0.110599086
9	0x3da18965	0.07887534
10	0x3c9e8471	0.019350262
11	0xbd4065ce	-0.04697209
12	0xbdac8c4a	-0.084251955
13	0x3d0ff10b	0.035141986
14	0xbe2aa313	-0.1666377
15	0xbdf7c2ae	-0.12097679
16	0xbdbf8254	-0.0935103
17	0x3da7784c	0.08177242
18	0x3c8fdcbf	0.017561315
19	0x3dbee21a	0.09320469
20	0xbde6a599	-0.11262054
21	0x3c17d22c	0.0092664175
22	0x3d1fcd7f	0.039014336
23	0xbc70d923	-0.014700207
24	0xbd758f53	-0.059951138
25	0x3d4e3071	0.050339166
26	0x3da6dcfb	0.081476174
27	0xbe063b0c	-0.13108462
28	0x3dfa595b	0.122240745
29	0x3dc2e3c9	0.09516103
30	0xbc95dff0	-0.018295258
31	0xbdd0ec16	-0.1020128
32	0xbdc1ce32	-0.09463157
33	0x3e0213d7	0.12702881
34	0x3de3422f	0.11096608
35	0x3cc378ae	0.023861255
36	0xbd422f9d	-0.04740869
37	0x3d821fe3	0.06353738
38	0x3b8ac673	0.004235083
39	0xbe59d817	-0.21273838
40	0xbdf6aaaf	-0.12044274
41	0x3d93c0ef	0.072145335
42	0xbcd7d088	-0.026344553
43	0x3c8ced0f	0.017202882
44	0x3df6dc47	0.12053733
45	0xbd5ab49e	-0.053394906
46	0xbdb69a63	-0.08916166
47	0x3c3967b7	0.011316231
48	0x3cee0628	0.02905567
49	0x3d1d3edb	0.03839002
50	0x3cd22b95	0.025655547
51	0x3ccb86c2	0.024844531
52	0xbe6dce77	-0.23223291
53	0x3e53566a	0.20638433
54	0x3d74c790	0.05976063
55	0xbc861338	-0.016366586
56	0x3e1ce101	0.15320207
57	0x3da8696d	0.08223233
58	0xbc340741	-0.010988058
59	0x3e40d4c4	0.18831164
60	0xbb1f6fe6	-0.0024328171
61	0x3dcd5237	0.10025447
62	0xbe4304a4	-0.19044739
63	0xbdab8acf	-0.08376085
64	0xbd1c2c9b	-0.038128477
65	0x3e1b9fb7	0.15197645
66	0xbdfcc019	-0.12341327
67	0xbc20d4e5	-0.009816383
68	0xbd265716	-0.040610395
69	0xba5ef8a8	-0.00085056806
70	0x3d03acaa	0.032147087
71	0x3d29aa2a	0.041422047
72	0x3e451eeb	0.19250076
73	0x3e322e86	0.1740056
74	0xbc90f8f0	-0.017696828
75	0x3d518a13	0.05115707
76	0xbd81d8f9	-0.063402124
77	0x3ceadc8c	0.028669618
78	0x3bd5d70c	0.0065258797
79	0xbd0c86ea	-0.03430835
80	0x3cc6fc8c	0.024290346
81	0xbe4027ee	-0.18765232
82	0x3db820eb	0.089906536
83	0xbd7f0d22	-0.062268384
84	0x3d36a53b	0.04459117
85	0x3d24d6dd	0.040243972
86	0x3de1fe8c	0.11034879
87	0xbd9dce74	-0.077053934
88	0xbd6062c1	-0.05478168
89	0x3d8f67f7	0.070022516
90	0xbd5938e8	-0.053032786
91	0xbd15d076	-0.036575757
92	0x3e322fea	0.1740109
93	0xbdbecc42	-0.09316303
94	0x3db2da7b	0.08733078
95	0xbd87f24e	-0.06638013
96	0xbda7f75b	-0.08201476
97	0xbd76eab3	-0.06028242
98	0x3c25c217	0.010117075
99	0x3d403858	0.046928734
100	0xbdf6baee	-0.12047373
101	0x3dc73b3b	0.09728094
102	0x3d8ca6c6	0.06867747
103	0x3ddd6adb	0.10811397
104	0x3db38f08	0.087675154
105	0x3dc5ac5c	0.096520156
106	0x3c87c20c	0.016572021
107	0xbde9fa4f	-0.11424696
108	0x3de0e379	0.10980887
109	0x3d06a1ae	0.032869034
110	0xbdcd832b	-0.10034784
111	0xbded8640	-0.11597872
112	0x3c39dc01	0.011343957
113	0xbda1e175	-0.07904331
114	0x3e6cdbe4	0.23130757
115	0x3e36c43f	0.178483
116	0xbd95f52a	-0.07322152
117	0xbe53b7a7	-0.20675527
118	0xbd37c0a0	-0.044861436
119	0x3d51fc65	0.051266093
120	0xbd2c86e6	-0.042120837
121	0x3cc4121c	0.023934416
122	0x3d908dd0	0.070582986
123	0x3d167f24	0.036742344
124	0xbd6d6dbc	-0.05796598
125	0xbd5844a6	-0.052799843
126	0x3d5b8687	0.053595092
127	0x3d12a231	0.03579921
128	0x3cf47dd7	0.029845161
129	0xbcc41ca5	-0.02393944
130	0xbd29847a	-0.041386105
131	0x3d14ec2b	0.03635804
132	0x3bdb2741	0.006688029
133	0x3d87502f	0.06607091
134	0x3d71e205	0.05905344
135	0x3d72fab5	0.059321124
136	0xbd99af54	-0.07504144
137	0xbd324ab2	-0.043528266
138	0xbd1ce9c1	-0.038308863
139	0x3e201271	0.15632035
140	0x3b277bd3	0.0025555983
141	0xbdb0117c	-0.08597085
142	0xbdb87835	-0.09007303
143	0xbc0fdee0	-0.008781165
144	0x3dce49d2	0.10072674
145	0xbdcdad2e	-0.10042797
146	0xbde18ebc	-0.110135525
147	0xbc1671ca	-0.009182403
148	0x3e018adc	0.12650627
149	0x3caeed19	0.021353291
150	0xbd595167	-0.053056147
151	0x3d3d8d1f	0.04627716
152	0xbdf5c149	-0.11999757
153	0x3c676cc9	0.0141250575
154	0x3d3135d3	0.04326422
155	0x3d7cbe7b	0.061705094
156	0xbe241791	-0.16024615
157	0x3cb1bdd4	0.021696962
158	0xbd3f19e8	-0.046655566
159	0xbd592f48	-0.053023607
160	0x3d7ca4f5	0.061680753
161	0x3dcf326b	0.10117038
162	0x3d249818	0.04018411
163	0xbcad6912	-0.021168265
164	0x3d3b43d3	0.04571898
165	0xbd41e3f8	-0.04733655
166	0x3d6b1420	0.05739224
167	0x3dc3bcd3	0.095575
168	0xbe798639	-0.24367608
169	0x3ca88751	0.020572336
170	0x3d94be83	0.072629
171	0xbdbceaa6	-0.09224443
172	0xbd21b23c	-0.03947662
173	0x3d0a7e4e	0.03381186
174	0xbd637996	-0.055535875
175	0xbce2e809	-0.027698534
176	0x3e0e49e3	0.13895373
177	0xbdfe6fe3	-0.124236844
178	0xbd9104c0	-0.07080984
179	0x3d886124	0.06659153
180	0xbb20c03f	-0.002452865
181	0x3d0532ca	0.03251914
182	0xbd2a09e3	-0.041513335
183	0xbde2e497	-0.11078756
184	0xbd9b4e73	-0.075833224
185	0x3cecc6c5	0.028903374
186	0xbd1668ca	-0.03672103
187	0x3d272bdc	0.040813312
188	0x3c6a165d	0.014287558
189	0xbe316b40	-0.17326069
190	0xbd605fbe	-0.054778807
191	0xbd884638	-0.06654018
192	0xbc98519a	-0.018593598
193	0x3d84953e	0.06473778
194	0x3c4ffcca	0.012694547
195	0x3da13db7	0.07873099
196	0x3d20e56d	0.039281297
197	0xbd9d868e	-0.0769168
198	0x3c4fcb93	0.012682813
199	0xbd8a677c	-0.06758019
200	0x3d6323a0	0.055453897
201	0xbd684e68	-0.0567154
202	0xbc391bdb	-0.011298145
203	0x3d978eb7	0.074002676
204	0xbc887e63	-0.016661828
205	0xbd915f96	-0.0709831
206	0xbcb3027b	-0.021851769
207	0xbcb976ee	-0.022639718
208	0xbd4501d0	-0.04809743
209	0x3d9c1a55	0.0762221
210	0x3cd9b941	0.026577594
211	0xbd6e0cdf	-0.058117744
212	0xbab794c9	-0.0014006133
213	0x3ca2f2b6	0.019891124
214	0xbd731acb	-0.059351724
215	0x3d40e75c	0.04709564
216	0x3d771670	0.060324132
217	0xbda9ff67	-0.08300667
218	0x3dd3166e	0.103070125
219	0x3d005029	0.031326447
220	0x3e0b7cb6	0.13621792
221	0xbe020093	-0.12695532
222	0xbd8c51d7	-0.06851547
223	0xbdabd396	-0.08389966
224	0x3e1c6b85	0.1527539
225	0xbe012959	-0.12613429
226	0x3d60b469	0.054859553
227	0xbdf44778	-0.11927694
228	0x3d348927	0.04407611
229	0x3dccad81	0.09994031
230	0xbc35671e	-0.011071948
231	0x3c3cd1bc	0.011524614
232	0xbd533161	-0.051560763
233	0xbdc9fc09	-0.09862525
234	0xbdad9085	-0.084748305
235	0x3da0c188	0.07849413
236	0xbc911116	-0.017708343
237	0x3d4f1ba5	0.050563473
238	0xbcfa85ed	-0.030581439
239	0x3e072952	0.13199356
240	0xbd0bcdd2	-0.034131832
241	0x3dc6fcf9	0.097162195
242	0xbd6a2772	-0.057166524
243	0x3d7613ec	0.060077593
244	0xbd214a97	-0.039377775
245	0xbc7ebabb	-0.01554745
246	0xbca0dcdc	-0.019636564
247	0xbe1b9879	-0.15194882
248	0xbbaae7d8	-0.005215626
249	0xbd78dc14	-0.060756758
250	0x3d1b022e	0.037843876
251	0x3d278fca	0.040908612
252	0x3e277b83	0.1635571
253	0x3a0206a5	0.00049600966
254	0x3cb6d7f9	0.02231978
255	0x3e3e1f64	0.18566662

model.4.main.1.weight f4 [32]
0	0x3f7d5c97	0.98969406
1	0x3f830225	1.023503
2	0x3f807f0a	1.0038769
3	0x3f717916	0.9432539
4	0x3f80b5cd	1.0055481
5	0x3f80839d	1.0040165
6	0x3f770b76	0.96501863
7	0x3f8232e2	1.0171778
8	0x3f7de98c	0.9918449
9	0x3f7c7e41	0.9863015
10	0x3f7f7f1c	0.9980333
11	0x3f829c87	1.0204018
12	0x3f7dcce6	0.99140775
13	0x3f7bf60e	0.98422325
14	0x3f7c755c	0.98616576
15	0x3f7e5002	0.9934083
16	0x3f81c844	1.0139241
17	0x3f7de93e	0.99184024
18	0x3f80b0d4	1.0053964
19	0x3f7fe7f6	0.9996332
20	0x3f830976	1.0237262
21	0x3f82e23f	1.0225295
22	0x3f8019c2	1.0007861
23	0x3f7b025d	0.9805048
24	0x3f7f1b15	0.996507
25	0x3f7fd7d7	0.9993872
26	0x3f7c0f7a	0.98461115
27	0x3f80b2f6	1.0054615
28	0x3f82a869	1.0207645
29	0x3f824bfe	1.0179441
30	0x3f813efc	1.0097346
31	0x3f7b9d1b	0.982866

model.4.main.1.bias f4 [32]
0	0xbb211a3a	-0.0024582283
1	0x3cf47213	0.029839551
2	0xbb72969d	-0.0037016042
3	0xbca9b652	-0.02071682
4	0x3cda6346	0.026658665
5	0x3d38d58f	0.04512554
6	0x3c0b7f92	0.008514302
7	0x3c678e61	0.014133067
8	0x3c376a39	0.011194759
9	0x3c8d994d	0.017285014
10	0xbb37c3c6	-0.0028040274
11	0x3d5f83b3	0.054568958
12	0xbb4e3438	-0.003146423
13	0xb96a8bb4	-0.00022368022
14	0xbc74b1f8	-0.014935009
15	0x39d67f9a	0.0004091233
16	0xba7af589	-0.0009573331
17	0x3cd174d4	0.025568403
18	0x3d3306be	0.0437076
19	0xbb232a84	-0.0024897167
20	0x3c34d7d0	0.011037782
21	0x3ba4170f	0.0050076316
22	0x3c578c7a	0.013156051
23	0xbcdb8bfe	-0.026800152
24	0x3c4e4b1c	0.01259115
25	0xbb7d9b10	-0.003869716
26	0xbb7192f1	-0.0036861266
27	0x3b57c05d	0.0032921054
28	0x3ae01a98	0.0017097769
29	0x3cf605be	0.030032035
30	0x39a0469c	0.00030570186
31	0xbc77e8c7	-0.015131182

model.4.main.1.gate f4 [32]
0	0x3f91b797	1.1384152
1	0x3fa51de0	1.2899742
2	0x3f8a7730	1.0817623
3	0x3f7601e3	0.9609663
4	0x3f8e0d5d	1.1097828
5	0x3fa5d435	1.2955385
6	0x3f865887	1.0495766
7	0x3f8635ea	1.0485203
8	0x3f8d116b	1.102094
9	0x3f887961	1.0662042
10	0x3f8f213a	1.1182015
11	0x3f670c80	0.9025345
12	0x3f753e2b	0.95797986
13	0x3f8dabd0	1.1068058
14	0x3f80e0a6	1.0068557
15	0x3f7d659c	0.9898317
16	0x3f6d22c1	0.92631155
17	0x3f631f70	0.88719845
18	0x3f67b288	0.9050679
19	0x3f9e3289	1.2359172
20	0x3f789288	0.9709859
21	0x3f389c12	0.72113144
22	0x3f8007ff	1.000244
23	0x3f494cf6	0.7863306
24	0x3f866325	1.0499007
25	0x3f8919cc	1.0710998
26	0x3f899973	1.0749954
27	0x3f8cda8e	1.1004198
28	0x3f8cc337	1.0997075
29	0x3f16b5db	0.5887124
30	0x3f73fcee	0.95307815
31	0x3f82eeff	1.0229186

model.4.main.1.running_mean f4 [32]
0	0xbe9d7f3f	-0.30761144
1	0xbf18c8ec	-0.5968158
2	0xbf01aca3	-0.5065405
3	0xbd1b9751	-0.037986103
4	0xbe656a6a	-0.22403875
5	0xbe64c475	-0.22340567
6	0x3f09bb3d	0.5380133
7	0xbec3e024	-0.38256943
8	0xbea25577	-0.3170583
9	0xbd950306	-0.07275967
10	0x3ebdc389	0.37063244
11	0x3e6f9577	0.2339686
12	0xbf3120c2	-0.6919061
13	0xbe950c0e	-0.2911076
14	0x3e2cbce6	0.16868934
15	0xbf2e7cfe	-0.6815947
16	0xbf7badaf	-0.98311895
17	0xbf23d295	-0.639932
18	0x3d454c35	0.04816838
19	0x3e0b5f37	0.1361054
20	0xbef429ed	-0.47688237
21	0x3e6f2dff	0.2335739
22	0x3e0a7803	0.13522343
23	0x3eb1ba3b	0.34712395
24	0x3dfe633d	0.12421272
25	0x3f082872	0.53186715
26	0x3dfd3226	0.12363081
27	0xbe803c44	-0.2504598
28	0xbe6f083c	-0.23342985
29	0x3ee8bae8	0.45455098
30	0xbec65a10	-0.38740587
31	0x3e803ca8	0.25046277

model.4.main.1.running_var f4 [32]
0	0x4080e5d8	4.028057
1	0x40b2758a	5.576848
2	0x40223faa	2.5351357
3	0x40936243	4.605745
4	0x410e7706	8.904058
5	0x40ad11aa	5.4084063
6	0x402d2c01	2.7058108
7	0x412cbc3a	10.795954
8	0x408200f4	4.0626163
9	0x4062b2f0	3.5421715
10	0x40ae78fb	5.452268
11	0x40736824	3.8032312
12	0x407b87a3	3.9301536
13	0x408fc39f	4.4926295
14	0x4063f5d5	3.5618794
15	0x40227db3	2.538922
16	0x4065d066	3.5908446
17	0x40881326	4.2523375
18	0x40f4ee3c	7.6540813
19	0x4093b9ad	4.6164155
20	0x40806eb3	4.013513
21	0x403d0348	2.9533253
22	0x40b26273	5.5745177
23	0x40db1225	6.845965
24	0x408f69bf	4.4816585
25	0x407a634f	3.9123113
26	0x40501763	3.2514274
27	0x409f568e	4.9793158
28	0x409c4e70	4.884575
29	0x408bb204	4.3654804
30	0x4014afd7	2.3232324
31	0x404624b6	3.0959907
