checkpoint/clf/experiment_name/800/netG.pth (torch, 244594 bytes, 32 tensors)

model.0.bias f4 [32]
-0.014381711 0.00012531907 0.021368219 0.08115992 -0.027370866 0.06416638 0.022696938 -0.0125973495
-0.058272187 0.05361723 0.005200504 -0.04126787 0.043952864 0.022386502 0.0056412118 0.010418096
-0.025623994 0.03612208 -0.0480857 -0.042695068 0.11796118 -0.021928446 0.03409373 -0.018411828
-0.005607119 -0.04658127 -0.064765684 -0.044871464 0.06782879 0.05392588 0.029124368 -0.013772115
00000000: 45a1 6bbc 1568 0339 670c af3c 2c37 a63d
00000010: de38 e0bc aa69 833d eeee b93c 1d65 4ebc
00000020: d1ae 6ebd be9d 5b3d fd68 aa3b 8008 29bd
00000030: eb07 343d e663 b73c ead9 b83b a9b0 2a3c
00000040: 69e9 d1bc bff4 133d 83f5 44bd 06e1 2ebd
00000050: a295 f13d 49a3 b3bc dea5 0b3d 67d4 96bc
00000060: ecbb b7bb 00cc 3ebd dfa3 84bd 24cb 37bd
00000070: d2e9 8a3d 62e1 5c3d 3a96 ee3c 70a4 61bc

model.0.weight_orig f4 [64, 32, 3, 3]
-0.006441567 -0.009845462 0.009082842 0.015225552 0.048238907 -0.026146201 0.006989508 0.044058513
0.022714453 0.030932536 0.064665 -0.028458836 0.018561132 0.043685112 -0.023814801 0.004629945
0.005442471 -0.040469218 0.059275504 -0.014723945 -0.00092565606 -0.03852368 -0.0024167746 -0.009839512
-0.027238868 -0.046725716 -0.02270226 -0.016840162 0.013350069 0.050307292 0.06214821 0.08918074
0.0054068565 0.053621586 -0.012998055 0.06678049 -0.02682637 -0.069297716 -0.059501275 -0.043456912
0.0019262182 0.019959256 -0.038549285 -0.05258103 -0.06299262 -0.0027785464 0.037627194 0.013177319
-0.016478097 -0.0063333143 -0.041097257 -0.0046092626 0.046917282 -0.05663792 -0.005143372 -0.03329115
-0.057626676 0.007696972 -0.025796954 0.051131714 0.033313338 -0.033471737 -0.014928583 0.042464133
-0.030977098 -0.0048427405 -0.0015304436 0.028306624 -0.048305325 -0.012953781 -0.039426677 -0.042611405
-0.046046197 0.03296337 0.037308287 -0.04669846 0.0044547194 -0.02833267 0.03904931 -0.039779365
0.051864035 -0.00015316896 0.06284911 -0.013982339 0.02580666 -0.011615299 0.01593098 0.0627145
0.00063650234 -0.045364916 0.0028747232 -0.054770462 0.034292594 -0.03488834 0.028883537 -0.00884883
-0.01474354 0.047119144 -0.046720415 -0.054353155 0.03404609 -0.009041614 -0.049394418 -0.013303746
0.01433155 0.019442294 -0.014593703 0.004714536 0.009310312 0.047174804 -0.010834844 0.060175024
0.09269851 -0.0128159635 -0.005715254 0.02190518 -0.01745877 -0.002955991 -0.030816225 -0.007037924
0.032117218 0.0039144796 -0.050034493 0.02549056 -0.05834524 -0.02923128 0.019410575 -8.536087e-05
0.03461851 -0.013896458 0.021635627 0.036581963 -0.034007777 0.06087355 -0.037115157 0.029523345
0.028414188 0.049740802 0.05160696 -0.046171397 0.020324927 -0.030265557 -0.04518107 -0.023622984
0.034914423 -0.05221195 -0.04066147 0.015609113 -0.054799773 0.036356352 0.045598205 -0.031462576
0.032824524 0.052566707 0.0035723674 0.03249303 0.047782023 0.0076495535 -0.010734714 0.051323675
0.059505414 -0.01802367 0.04956361 -0.045553233 0.018359628 0.0024376127 0.018516637 -0.05821831
0.033388704 0.04017478 0.024730032 0.02890743 -0.028305093 0.021965938 -0.017947141 0.0075788344
0.057870418 0.008750539 0.014775034 0.022439469 0.032960985 -0.016140958 -0.032161478 0.05149191
-0.012638453 0.055012286 0.04766283 -0.0036685162 0.031833313 -0.015942747 0.05642759 -0.03187118
-0.049382817 0.020179406 -0.010668302 0.05274805 0.005256809 -0.05366127 0.009845228 -0.057814717
0.0035405855 0.034171306 0.04389873 -0.031944964 -0.043831076 -0.046645824 -0.036641873 0.0012042589
0.01270896 -0.027097547 -0.049119752 0.0048355744 0.008755544 -0.008662482 -0.05805723 -0.049096346
-0.032866478 -0.010725744 0.014853685 -0.051313672 0.04329511 0.023148613 -0.02971532 -0.0009471256
0.061657973 -0.0002994236 0.018948855 -0.036775902 -0.04830904 0.009166841 0.042075478 0.050196957
0.06348392 0.036926802 0.03721684 -0.017089784 -0.01813044 0.041300256 -0.031040967 -0.03743311
0.027180046 -0.00016954218 0.022446025 -0.043106776 0.06084208 -0.024615943 0.008186641 -0.0047428603
-0.01242001 0.061755378 0.03749464 0.026332643 0.040454883 0.040617377 0.0018570521 -0.038847886
00000000: c813 d3bb dc4e 21bc 33d0 143c 9874 793c
00000010: 2996 453d 8f30 d6bc 3e08 e53b b376 343d
00000020: a913 ba3c 3b66 fd3c 156f 843d 8122 e9bc
00000030: 840d 983c 29ef 323d 4217 c3bc cbb6 973b
00000040: c156 b23b 0dc3 25bd dfca 723d b43c 71bc
00000050: baa7 72ba 02cb 1dbd c062 1ebb e835 21bc
00000060: 0c24 dfbc 7763 3fbd 17fa b9bc 61f4 89bc
00000070: 3fba 5a3c 050f 4e3d 1f8f 7e3d 64a4 b63d
00000080: 002c b13b 4fa2 5b3d cbf5 54bc 36c4 883d
00000090: fac2 dbbc f6eb 8dbd 9cb7 73bd e0ff 31bd
000000a0: 2879 fc3a 9881 a33c dbe5 1dbd 355f 57bd
000000b0: 4602 81bd 4618 36bb f91e 1a3d afe5 573c
000000c0: 13fd 86bc b187 cfbb 9955 28bd 4c09 97bb
000000d0: 562c 403d 2afd 67bd bb89 a8bb 4d5c 08bd
000000e0: f309 6cbd e236 fc3b 2254 d3bc 7d6f 513d
000000f0: 9173 083d a919 09bd 0497 74bc dfee 2d3d
00000100: afc3 fdbc daaf 9ebb 2a99 c8ba 4be3 e73c
00000110: cedb 45bd 183c 54bc de7d 21bd 4c89 2ebd
00000120: f09a 3cbd 9904 073d 93d0 183d e246 3fbd
00000130: e5f8 913b ea19 e8bc 2bf2 1f3d b0ef 22bd
00000140: 626f 543d fb9b 20b9 09b7 803d 2e16 65bc
00000150: 7d68 d33c 184e 3ebc b081 823c 7670 803d
00000160: f3da 263a 90d0 39bd da65 3c3b fe56 60bd
00000170: 6476 0c3d 13e7 0ebd 2b9d ec3c affa 10bc
00000180: e48e 71bc 0100 413d e85d 3fbd 6aa1 5ebd
00000190: ea73 0b3d 4723 14bc cd51 4abd f4f7 59bc
000001a0: e1ce 6a3c 7245 9f3c 6d1a 6fbc 657c 9a3b
000001b0: 478a 183c 5e3a 413d a184 31bc 167a 763d
000001c0: b7d8 bd3d 0cfa 51bc 0747 bbbb 7e72 b33c
000001d0: b205 8fbc 4db9 41bb 4f72 fcbc 639e e6bb
000001e0: 588d 033d 0945 803b f8f0 4cbd 94d1 d03c
000001f0: 6bfb 6ebd 7076 efbc ed02 9f3c c503 b3b8
00000200: 24cc 0d3d f8ad 63bc 333d b13c f8d6 153d
00000210: bd4b 0bbd 8b56 793d 1006 18bd f1da f13c
00000220: dfc4 e83c 03bd 4b3d d261 533d 381e 3dbd
00000230: 7680 a63c 79ef f7bc c90f 39bd fd84 c1bc
00000240: 6d02 0f3d 33dc 55bd a48c 26bd 5dbd 7f3c
00000250: ba75 60bd 66ea 143d 2fc5 3a3d e7de 00bd
00000260: 0273 063d 3050 573d 611e 6a3b 6917 053d
00000270: 15b7 433d 1ba9 fa3b a7e0 2fbc c638 523d
00000280: f3bb 733d 60a6 93bc 3603 4b3d 0796 3abd
00000290: ee66 963c 5bc0 1f3b 34b0 973c 5376 6ebd
000002a0: 98c2 083d 4f8e 243d a396 ca3c 46cf ec3c
000002b0: 15e0 e7bc e9f1 b33c e205 93bc df57 f83b
000002c0: 8809 6d3d 6c5e 0f3c fc12 723c fad2 b73c
000002d0: 1902 073d 0b3a 84bc c1bb 03bd 2ee9 523d
000002e0: 8411 4fbc 9054 613d 1a3a 433d 7d6b 70bb
000002f0: a663 023d 5d9a 82bc 9e20 673d 5b8b 02bd
00000300: a345 4abd 484f a53c 1aca 2ebc 570e 583d
00000310: 4f41 ac3b ebcb 5bbd e14d 213c 20cf 6cbd
00000320: 2b09 683b 36f7 0b3d 28cf 333d b9d8 02bd
00000330: 3788 33bd b10f 3fbd ca15 16bd 39d8 9d3a
00000340: 3e39 503c adfb ddbc cb31 49bd bd73 9e3b
00000350: 6a73 0f3c 15ed 0dbc 6bcd 6dbd 4019 49bd
00000360: 009f 06bd 08bb 2fbc df5c 733c 492e 52bd
00000370: 3756 313d 29a2 bd3c 8b6d f3bc 8648 78ba
00000380: 128d 7c3d f5fb 9cb9 a13a 9b3c 54a2 16bd
00000390: b3df 45bd 8530 163c 5657 2c3d 539b 4d3d
000003a0: dc03 823d 8f40 173d af70 183d e0ff 8bbc
000003b0: 4a86 94bc 752a 293d a049 febc 7653 19bd
000003c0: b0a8 de3c 22c7 31b9 bae0 b73c bb90 30bd
000003d0: 8b35 793d 60a7 c9bc 4321 063c ff69 9bbb
000003e0: 4c7d 4bbc 35f3 7c3d fb93 193d 8eb7 d73c
000003f0: 05b4 253d 685e 263d 5468 f33a f61e 1fbd

model.0.weight_u f4 [32]
0.09767756 0.30272722 0.0512475 0.3462825 -0.04885402 0.051550668 -0.017441427 -0.046751745
-0.04601524 0.20348056 -0.03332986 -0.057412934 0.17274809 -0.07688861 0.034359004 -0.06611263
-0.045694858 0.3362611 -0.037262306 -0.07056851 0.6882831 0.06524143 -0.03273623 -0.03876438
0.06472583 0.032467086 -0.043363128 0.06567565 -0.23721622 0.04621649 0.03706375 0.0787306
00000000: 2c0b c83d 10ff 9a3e e6e8 513d f14b b13e
00000010: 271b 48bd cb26 533d 53e1 8ebc c27e 3fbd
00000020: 7a7a 3cbd 355d 503e e484 08bd d329 6bbd
00000030: e0e4 303e c777 9dbd 07bc 0c3d 0f66 87bd
00000040: 882a 3bbd 6a2a ac3e 5ca0 18bd 3986 90bd
00000050: 5233 303f 4d9d 853d 6d16 06bd 66c7 1ebd
00000060: fa8e 843d 35fc 043d 899d 31bd f580 863d
00000070: cfe8 72be 814d 3d3d 29d0 173d 823d a13d

model.0.weight_v f4 [576]
0.024967417 0.044328585 -0.005272769 0.08447639 0.050483283 0.033266686 0.0819594 0.03755166
0.012234851 0.03610082 0.04303953 0.08981405 0.05780459 0.076515965 0.09988056 0.085250355
0.089108035 0.095927216 0.022853464 0.05627719 0.101015404 0.041200273 0.04137247 0.07668226
0.060953572 0.10290301 0.10649144 0.030969026 0.0012485267 0.010428899 0.04164713 0.022285378
-0.012573086 0.03118266 0.0652403 0.016382607 0.056942195 0.06211502 0.071652554 0.027987042
0.06261032 0.104313225 -0.04052316 0.058083653 0.051728204 0.020745406 0.04082007 0.011293549
0.025008004 0.06315001 0.0060542324 0.02700913 0.049988564 -0.012520534 0.037713382 0.044766854
0.06331372 0.063352555 0.045902092 0.04108634 0.08513489 0.057785414 0.062755115 0.0069714286
0.020881372 0.0012433912 0.027872251 0.022500303 -0.02061973 0.03622065 -0.011682835 0.010055607
0.033619743 0.07232182 0.11553527 0.10708109 0.099714495 0.10451443 0.060549833 0.054196987
0.044344828 0.024117446 0.06174585 0.031453915 0.042195488 0.07763658 0.0017766495 0.004226843
-0.004450272 0.009921376 -0.011333415 0.022185033 0.005414362 0.021582272 0.018208763 -0.0071465624
0.02410889 0.032605775 0.014560002 0.016311977 0.008683224 0.007194593 -0.0043746307 0.000850927
-0.00039676862 0.0052948007 -0.0002678976 0.0016896605 -0.021113018 0.003424276 0.03356956 -0.008031307
0.05780727 0.05573498 0.0012799662 0.015804656 0.06434896 0.032021556 -0.020375816 0.026299315
0.013878551 0.005429966 0.023486812 0.027709875 0.014471675 0.048721507 0.065845914 0.07790826
0.05807132 0.02838183 0.02310362 0.07198644 0.07396829 0.08390704 0.051236726 0.053452864
0.062411185 0.013307775 0.0740665 0.07984021 -0.006514212 0.08174693 0.068293005 -0.016623614
0.05601582 0.017838744 0.0765689 -0.011841951 0.038410768 0.06056407 0.035506 0.06793724
0.054957934 0.048032496 0.025593307 0.041556876 0.017201982 0.032927178 0.021779247 0.016043749
0.028049204 0.016430173 0.09332709 0.035529632 0.028454978 0.09674506 0.056546103 0.08422331
0.06265013 0.04245613 0.053027608 0.0319179 -0.00088963483 0.024558526 -0.0035084672 0.01344408
0.033023022 0.048037924 0.05586848 0.066677056 0.052442785 0.0662814 0.093673766 0.09429334
0.054098252 0.08447304 0.11699943 0.07127059 0.07071098 0.058374286 0.037249003 0.020375103
0.021320255 0.005937614 -0.0019697326 0.011702743 0.029165143 0.05286641 -0.0017209994 0.03210865
-0.010232446 0.0026088995 0.0045744777 -0.0052100634 0.014236085 0.039290834 -0.0009909532 -0.016800702
0.015247216 0.012742665 0.045571893 0.0126703065 -0.01091865 0.04304655 0.0078207785 0.0037204658
0.01736893 0.028041294 0.0061761523 -0.0034520042 -0.004509086 0.014077194 0.015461154 0.014975728
0.030815382 -0.010921196 -0.002848667 -0.010640467 0.008605065 0.031403948 0.02039208 0.0035064234
-0.0031686304 -0.0024214755 0.061827283 0.07994869 0.06655012 0.05907113 0.07234164 0.026816098
0.008519426 0.07379749 0.028043652 0.01480202 0.039765853 0.04074841 0.055135995 0.044456404
0.04703386 0.04931965 0.015714588 0.014750498 0.04246912 0.05380743 0.025192669 0.046830572
00000000: 7888 cc3c e491 353d 31c7 acbb f501 ad3d
00000010: 8fc7 4e3d a642 083d 54da a73d c5cf 193d
00000020: af74 483c 74de 133d 384a 303d 6ef0 b73d
00000030: 81c4 6c3d 67b4 9c3d 2e8e cc3d bd97 ae3d
00000040: 467e b63d 7d75 c43d 3037 bb3c e982 663d
00000050: 2ae1 ce3d 9ec1 283d 2e76 293d 970b 9d3d
00000060: 74aa 793d d0be d23d 2f18 da3d c1b2 fd3c
00000070: 9ba5 a33a f9dd 2a3c 2e96 2a3d d38f b63c
00000080: 58ff 4dbc c772 ff3c b59c 853d d134 863c
00000090: 383c 693d 526c 7e3d 93be 923d 1545 e53c
000000a0: d739 803d 2ca2 d53d 9dfb 25bd 20e9 6d3d
000000b0: f4e0 533d 45f2 a93c f232 273d 9408 393c
000000c0: 96dd cc3c cb54 813d 9562 c63b 4042 dd3c
000000d0: cfc0 4c3d ed22 4dbc 5979 1a3d 735d 373d
000000e0: a0aa 813d fcbe 813d d503 3c3d 264a 283d
000000f0: 345b ae3d 66b0 6c3d c185 803d 9570 e43b
00000100: 690f ab3c 49f9 a23a 5954 e43c 8e52 b83c
00000110: b5ea a8bc 1b5c 143d 5d69 3fbc 46c0 243c
00000120: dbb4 093d 761d 943d c19d ec3d 554d db3d
00000130: 1d37 cc3d a90b d63d 1a03 783d a9fd 5d3d
00000140: eca2 353d f391 c53c 37e9 7c3d d2d5 003d
00000150: 2dd5 2c3d edff 9e3d 77de e83a 5481 8a3b
00000160: 96d3 91bb 448d 223c caaf 39bc 63bd b53c
00000170: f66a b13b 4ecd b03c 8b2a 953c b62d eabb
00000180: 0280 c53c a28d 053d 138d 6e3c b2a0 853c
00000190: 1544 0e3c 9fc0 eb3b 1059 8fbb bf10 5f3a
000001a0: 6205 d0b9 0280 ad3b 9b74 8cb9 9977 dd3a
000001b0: 35f5 acbc d169 603b 3c80 093d be95 03bc
000001c0: 51c7 6c3d 5d4a 643d 8ac4 a73a c478 813c
000001d0: 63c9 833d 0929 033d 2feb a6bc a971 d73c
000001e0: dd62 633c dbed b13b 6a67 c03c d2ff e23c
000001f0: 9b1a 6d3c 3490 473d 39da 863d 5e8e 9f3d
00000200: 31dc 6d3d 0381 e83c ce43 bd3c a06d 933d
00000210: b07c 973d 74d7 ab3d 9add 513d 64f1 5a3d
00000220: dfa2 7f3d db08 5a3c 2db0 973d 4483 a33d
00000230: 2c75 d5bb ef6a a73d 34dd 8b3d 3f2e 88bc
00000240: d870 653d 8f22 923c 28d0 9c3d be04 42bc
00000250: 9c54 1d3d 0812 783d bd6e 113d ae22 8b3d
00000260: 921b 613d b9bd 443d 0ea9 d13c 8b37 2a3d
00000270: 2ceb 8c3c a6de 063d 646a b23c 2e6e 833c
00000280: 72c7 e53c 9298 863c 4622 bf3d 8587 113d
00000290: 6a1a e93c 4622 c63d e39c 673d 457d ac3d
000002a0: b64e 803d 7be6 2d3d 7a33 593d 58bc 023d
000002b0: 6236 69ba f62e c93c 50ee 65bb 8f44 5c3c
000002c0: 2643 073d 6ac3 443d 59d6 643d fb8d 883d
000002d0: 3fce 563d 8bbe 873d 08d8 bf3d de1c c13d
000002e0: 2196 5d3d 3400 ad3d 669d ef3d 51f6 913d
000002f0: ebd0 903d e019 6f3d 6992 183d b0e9 a63c
00000300: d1a7 ae3c 5190 c23b a116 01bb ddbc 3f3c
00000310: bdeb ee3c 738a 583d 2893 e1ba 5c84 033d
00000320: fda5 27bc 12fa 2a3b 80e5 953b 2eb9 aabb
00000330: 783e 693c 6def 203d dfe2 81ba a0a1 89bc
00000340: 76cf 793c 9cc6 503c 98a9 3a3d 1e97 4f3c
00000350: 23e4 32bc 9451 303d b922 003c 0fd3 733b
00000360: 4949 8e3c dbb6 e53c 5261 ca3b 053b 62bb
00000370: f4c0 93bb 08a4 663c c850 7d3c c15c 753c
00000380: 8a70 fc3c d1ee 32bc b4b0 3abb 5a55 2ebc
00000390: 42fc 0c3c 6da1 003d 4b0d a73c 06cc 653b
000003a0: cca8 4fbb 9eb1 1ebb 9b3e 7d3d 24bc a33d
000003b0: 6e4b 883d 92f4 713d db27 943d 6fad db3c
000003c0: 1095 0b3c 2323 973d cdbb e53c 2c84 723c
000003d0: 85e1 223d cee7 263d 48d6 613d eb17 363d
000003e0: 94a6 403d 6703 4a3d e1bb 803c 13ac 713c
000003f0: 1af4 2d3d 2e65 5c3d db60 ce3c 6ad1 3f3d

model.2.main.0.weight f4 [32, 32, 3, 3]
0.1649491 0.05587742 0.09216832 -0.053523038 -0.04199732 0.05841547 0.003922007 -0.10613137
0.10330771 0.008853901 0.08394356 0.101073265 0.06055479 0.14177082 -0.015344692 0.19949716
-0.021179521 0.033346877 0.18008572 0.025929816 -0.0062570544 -0.04353629 0.07950758 -0.0042501567
-0.101593874 -0.160738 0.05833064 -0.08158436 -0.20370913 -0.01823921 0.13314982 0.054603573
0.0036561508 0.085624345 -0.02310458 -0.1286322 -0.09935128 -0.018568166 0.11374561 -0.066422455
0.0012153434 0.0237857 -0.16688754 0.14846745 -0.02462158 0.051784992 -0.11056743 -0.028499683
0.034097485 -0.047520224 0.17292766 -0.19596317 0.015519468 -0.03932983 0.030363254 -0.12743776
-0.10150038 -0.02912065 -0.12595436 -0.11496103 -0.0069861454 -0.0025546965 0.005918346 0.028794061
-0.19047722 -0.042417828 0.05782412 -0.13742201 -0.0593316 -0.029332077 0.038581397 0.009284585
-0.01528906 0.038549613 0.11174738 0.042333897 0.10177086 -0.049417205 -0.020211292 -0.04333265
0.12898614 -0.10248025 -0.0063476344 -0.06303909 0.0014641192 -0.05508934 0.090640835 0.020181274
0.052287668 -0.0653856 0.024595821 0.0059665297 -0.09687638 -0.06839909 -0.11263311 0.16701952
0.02417071 -0.12724905 -0.08504617 -0.06011004 -0.07458789 0.053533297 -0.094103865 0.10161647
0.04068308 0.296275 0.043836795 0.102698065 -0.025687037 -0.004111032 -0.0192269 -0.066924326
0.02666715 -0.050234865 -0.19589682 0.076474085 -0.027843967 -0.022656381 0.046726488 -0.026205968
0.13496624 0.14567178 0.0023445354 0.17248686 -0.13152683 -0.03488735 0.009352454 -0.019830234
0.062843114 0.06878874 0.0664216 -0.008972321 0.018007746 0.05663066 0.072159 0.22678447
0.16350481 -0.06593078 -0.11842594 0.06485637 0.02660464 0.047530487 0.013189863 0.018688962
0.016948108 -0.065609716 -0.010311515 0.0023344029 -0.008724742 0.011848973 0.06531809 -0.17110068
0.036732156 0.06469501 -0.06695024 0.06868579 0.03359269 0.0004933762 0.017998923 -0.14357774
-0.09376325 -0.049714923 0.00054102787 -0.01849744 0.023235505 0.042060442 0.07934319 0.0071682446
-0.14900598 -0.04106861 0.010661268 -0.026402818 -0.020325903 -0.03343422 0.07732231 -0.08706148
-0.0021958104 0.035569806 0.1263829 0.07853125 0.14944793 -0.04767385 -0.0043145264 0.08869264
-0.019752046 -0.042085413 -0.03173016 0.09145095 0.11746723 -0.09487354 0.010364961 0.030591171
0.07257783 -0.03483987 -0.017756425 0.036846776 -0.06537596 0.13805987 0.10216108 -0.053574163
-0.050541263 -0.023158258 -0.033222377 -0.08318799 0.024490573 -0.09184872 -0.055221014 0.13574748
-0.011915018 -0.042374212 -0.020334886 -0.033708237 -0.04572853 -0.023322986 0.020379482 -0.060358986
-0.13480206 0.10759251 -0.15245625 -0.13331379 0.04235348 0.1744698 0.0041249427 -0.022336304
-0.008585128 -0.09174024 0.026045103 -0.04045887 -0.11796681 -0.038646303 0.032517042 0.08358943
-0.08814751 -0.00023982096 -0.16919246 0.05657922 -0.023907674 0.0029050433 0.063702285 0.022119926
-0.07005198 -0.020674169 -0.077135816 0.018611042 0.11996478 0.041728 -0.016240144 0.0043536304
0.0281964 0.015629811 -0.009732199 -0.012454894 0.047059793 0.01706192 -0.183206 -0.06394547
00000000: 6be8 283e b9df 643d bfc2 bc3d f93a 5bbd
00000010: 6205 2cbd 0f45 6f3d 2e84 803b 675b d9bd
00000020: fe92 d33d f40f 113c 9aea ab3d 80ff ce3d
00000030: 4d08 783d 5f2c 113e 4e68 7bbc fc48 4c3e
00000040: ad80 adbc bc96 083d 6468 383e c46a d43c
00000050: fa07 cdbb 1c53 32bd dfd4 a23d e644 8bbb
00000060: 7310 d0bd 8198 24be 1cec 6e3d b315 a7bd
00000070: 2099 50be 656a 95bc 6d58 083e ffa7 5f3d
00000080: 089c 6f3b d15b af3d d145 bdbc 29b8 03be
00000090: af78 cbbd 441c 98bc 75f3 e83d 7f08 88bd
000000a0: 284c 9f3a 3ada c23c 91e4 2abe da07 183e
000000b0: 32b3 c9bc 801c 543d 2d71 e2bd 2b78 e9bc
000000c0: cea9 0b3d 91a4 42bd f313 313e 92aa 48be
000000d0: 5e45 7e3c 5118 21bd 5cbc f83c 0b7f 02be
000000e0: 6edf cfbd 6e8e eebc 2efa 00be b070 ebbd
000000f0: 09ec e4bb b26c 27bb afee c13b 86e1 eb3c
00000100: 760c 43be 51be 2dbd fcd8 6c3d 5bb8 0cbe
00000110: b105 73bd d349 f0bc 8707 1e3d 5f1e 183c
00000120: f77e 7abc 33e6 1d3d cfdb e43d 4f66 2d3d
00000130: 3e6d d03d b269 4abd 2792 a5bc 947d 31bd
00000140: f114 043e 2ae1 d1bd d1ff cfbb a31a 81bd
00000150: b0e7 bf3a 5ca5 61bd e7a1 b93d 3353 a53c
00000160: 982b 563d e3e8 85bd 2d7d c93c e182 c33b
00000170: 2067 c6bd d214 8cbd 30ac e6bd 2a07 2b3e
00000180: a701 c63c 934d 02be b02c aebd f235 76bd
00000190: 89c1 98bd bb45 5b3d 87b9 c0bd 4c1c d03d
000001a0: 4da3 263d 5bb1 973e 368e 333d 5d53 d23d
000001b0: 9f6d d2bc d6b5 86bb bb81 9dbc 9f0f 89bd
000001c0: 1175 da3c 13c3 4dbd 2d99 48be 729e 9c3d
000001d0: 0819 e4bc e099 b9bc 4664 3f3d e6ad d6bc
000001e0: 9734 0a3e fc2a 153e c7a6 193b 65a0 303e
000001f0: f8ae 06be 0ae6 0ebd 093b 193c 0473 a2bc
00000200: e4b3 803d 1ce1 8c3d 0c08 883d a400 13bc
00000210: fb84 933c 8df5 673d 19c8 933d 303a 683e
00000220: ce6d 273e b706 87bd 4d89 f2bd 6bd3 843d
00000230: f9f1 d93c 54af 423d 4c1a 583c 9819 993c
00000240: c2d6 8a3c 635e 86bd a1f1 28bc c8fc 183b
00000250: 38f2 0ebc 3222 423c 7ec5 853d 0435 2fbe
00000260: 7574 163d d17e 843d 351d 89bd 23ab 8c3d
00000270: 7d98 093d eb55 013a 7a72 933c 0b06 13be
00000280: f206 c0bd e0a1 4bbd c4d3 0d3a f187 97bc
00000290: 6358 be3c 9247 2c3d af7e a23d 98e3 ea3b
000002a0: 0695 18be 8f37 28bd 99ac 2e3c b94a d8bc
000002b0: 8282 a6bc 52f2 08bd 295b 9e3d 4a4d b2bd
000002c0: 96e7 0fbb a5b1 113d 856a 013e fed4 a03d
000002d0: e108 193e a845 43bd df60 8dbb 7da4 b53d
000002e0: 0bcf a1bc c161 2cbd 7cf7 01bd a34a bb3d
000002f0: a992 f03d 0f4d c2bd ccd1 293c 569a fa3c
00000300: afa3 943d 40b4 0ebd ec75 91bc a5ec 163d
00000310: d5e3 85bd 915f 0d3e d439 d13d 9570 5bbd
00000320: 5b04 4fbd 63b6 bdbc 3014 08bd 775e aabd
00000330: 74a0 c83c 2f1b bcbd 6e2f 62bd 6301 0b3e
00000340: 3537 43bc 9590 2dbd 5995 a6bc a611 0abd
00000350: d74d 3bbd d90f bfbc dff2 a63c fc3a 77bd
00000360: 8d09 0abe 7659 dc3d 7e1d 1cbe 6983 08be
00000370: d87a 2d3d 36a8 323e 872a 873b a0fa b6bc
00000380: a3a8 0cbc 4fe2 bbbd 8a5c d53c 33b8 25bd
00000390: 9598 f1bd 964b 1ebd 9730 053d ef30 ab3d
000003a0: af86 b4bd 7378 7bb9 ca40 2dbe 9dbf 673d
000003b0: 07da c3bc 8a62 3e3b 5876 823d d934 b53c
000003c0: 6a77 8fbd e05c a9bc 62f9 9dbd 2f76 983c
000003d0: 18b0 f53d fbea 2a3d 0d0a 85bc e6a8 8e3b
000003e0: 23fc e63c 170a 803c cd73 1fbc 9d0f 4cbc
000003f0: c5c1 403d 71c5 8b3c 5b9a 3bbe d8f5 82bd

model.2.main.1.weight f4 [32]
0.9930528 1.0335511 1.0000625 0.9949654 0.9890738 0.99075705 1.0654755 1.0126693
1.044355 1.0040275 0.99659514 0.98410416 1.0120089 1.0225142 1.0376139 0.99664474
1.0278324 0.97794783 0.996577 0.99461764 1.0216299 0.98910284 1.0089971 0.98154384
0.9862608 0.9731461 0.99072057 1.0142337 0.99814016 0.9861874 0.9971558 0.9930253
00000000: b538 7e3f 674b 843f 0c02 803f 0db6 7e3f
00000010: f133 7d3f 41a2 7d3f 8061 883f 269f 813f
00000020: 6dad 853f f983 803f dc20 7f3f 40ee 7b3f
00000030: 8289 813f bfe1 823f 88d0 843f 1c24 7f3f
00000040: 0390 833f ca5a 7a3f ac1f 7f3f 439f 7e3f
00000050: c5c4 823f d835 7d3f d126 813f 7546 7b3f
00000060: 967b 7c3f 1a20 793f dd9f 7d3f 69d2 813f
00000070: 1d86 7f3f c776 7c3f 9a45 7f3f e836 7e3f

model.2.main.1.bias f4 [32]
-0.0002747239 -0.003202968 0.004337784 -0.0027331384 -0.001540176 -0.005723471 0.00395336 0.00043858454
0.003027303 -0.019771444 0.011076791 -0.016731383 -0.0053887754 -0.024072278 0.003582801 -0.010969216
0.00044608884 -0.006270785 -0.0056474092 -0.0033393032 -0.015515143 -0.0147815775 -0.00210792 -0.009850449
-0.01380797 -0.019965235 -0.029775904 -0.000501652 0.0030678047 -0.009853961 0.04028187 -0.0024192638
00000000: d108 90b9 e3e8 51bb f823 8e3b 741e 33bb
00000010: bbdf c9ba f48b bbbb 308b 813b d2f1 e539
00000020: b765 463b b9f7 a1bc 6e7b 353c 4110 89bc
00000030: 5394 b0bb 3a33 c5bc 6dcd 6a3b 3ab8 33bc
00000040: 08e1 e939 287b cdbb e70d b9bb 36d8 5abb
00000050: 3a33 7ebc 6e2e 72bc 0725 0abb c763 21bc
00000060: d33a 62bc 228e a3bc 99ec f3bc 4c81 03ba
00000070: 390d 493b 8272 21bc 9afe 243d 838c 1ebb

model.2.main.1.gate f4 [32]
1.0006549 1.0929213 1.0746303 1.0079261 0.9867677 0.9588648 0.97182655 0.9825593
1.0931486 1.03264 0.9766355 1.0112711 1.1282839 0.98345053 1.1533436 1.0284808
1.097744 0.9754575 1.0372398 1.0482175 1.0533184 1.0275846 1.015256 0.869362
0.8801516 1.0247915 1.0963619 1.0940303 1.0065385 0.9848211 1.0424712 1.0560408
00000000: 7615 803f d8e4 8b3f 7c8d 893f b903 813f
00000010: cf9c 7c3f 2a78 753f a0c9 783f 0289 7b3f
00000020: 4bec 8b3f 8c2d 843f c904 7a3f 5571 813f
00000030: 9b6b 903f 6ac3 7b3f c3a0 933f 42a5 833f
00000040: e082 8c3f 95b7 793f 46c4 843f fe2b 863f
00000050: 23d3 863f e487 833f e9f3 813f 828e 5e3f
00000060: 9e51 613f 5e2c 833f 9655 8c3f 2f09 8c3f
00000070: 41d6 803f 3c1d 7c3f b26f 853f 582c 873f

model.2.main.1.running_mean f4 [32]
3.396678 -2.300518 1.4671483 0.5698025 -1.9837205 -1.1186762 -1.1590381 -0.7369186
0.3876225 0.48928434 -0.92867726 5.6402307 -2.939864 0.103018455 2.4332442 -0.28013286
3.9622815 0.35240906 -0.93459 3.971084 1.8046052 -3.8429224 -0.035294008 -1.3446773
-1.0027969 1.1287702 -2.3666887 -4.122736 3.4554517 6.480943 1.7397798 2.3998945
00000000: 2c63 5940 b03b 13c0 84cb bb3f 94de 113f
00000010: 8eea fdbf c830 8fbf 5c5b 94bf b3a6 3cbf
00000020: 7576 c63e 7a83 fa3e cbbd 6dbf c57c b440
00000030: bb26 3cc0 57fb d23d 46ba 1b40 936d 8fbe
00000040: 0596 7d40 f66e b43e 4a41 6fbf 3e26 7e40
00000050: 4efd e63f 71f2 75c0 7390 10bd 631e acbf
00000060: a65b 80bf 8b7b 903f d477 17c0 74ed 83c0
00000070: 1f26 5d40 e363 cf40 1bb1 de3f df97 1940

model.2.main.1.running_var f4 [32]
2.4896843 2.0005102 1.8000503 2.0849557 2.623903 3.26374 0.91594297 0.7172215
2.1814027 2.3167098 1.6603632 3.507531 1.5745513 1.4081625 2.8279052 2.0597136
1.8553097 0.5518523 1.8430743 1.5478077 2.7183475 1.3311514 1.5796963 3.2956626
2.4205935 2.10508 2.2063503 1.9879299 1.99324 5.008676 1.9499404 4.221703
00000000: fd56 1f40 5c08 0040 0c68 e63f ea6f 0540
00000010: 07ee 2740 1ee1 5040 3d7b 6a3f d49b 373f
00000020: 1a9c 0b40 f944 1440 c886 d43f 637b 6040
00000030: e68a c93f ab3e b43f 66fc 3440 59d2 0340
00000040: ca7a ed3f 3146 0d3f dce9 eb3f 901e c63f
00000050: 68f9 2d40 2b63 aa3f 7d33 ca3f 23ec 5240
00000060: 01eb 1a40 a1b9 0640 d834 0d40 7d74 fe3f
00000070: 7d22 ff3f 1347 a040 a697 f93f 3118 8740

model.2.main.3.weight f4 [32, 32, 3, 3]
-0.038276784 -0.044714358 0.023783203 0.013316393 -0.080929205 -0.021939546 0.010001633 0.12160586
0.04296269 -0.033181887 -0.041744977 -0.019886458 0.039829228 0.06254798 -0.14462861 -0.04669106
0.035994418 -0.024692986 0.04773073 -0.055987764 -0.09132118 -0.15118423 0.11342978 -0.123142034
0.1291156 0.09013865 -0.11539889 0.20621555 0.04698277 -0.023825208 0.12841718 -0.09403135
-0.046430018 0.0151405325 -0.06704977 0.062435023 0.030244892 0.06307856 0.068206094 0.09620808
0.08457574 0.10431421 -0.118824586 0.029596733 0.015010841 -0.021991935 0.036864545 0.06606987
0.07612879 -0.08542691 -0.07203454 0.040029522 0.09584883 0.11661017 0.051615503 -0.011675207
0.08301798 0.08541781 0.05686655 -0.04941532 0.045726884 -0.06372506 -0.022717552 0.13107195
-0.015091137 0.024102641 -0.03022523 -0.12005088 0.045534775 -0.014898718 -0.036300708 0.032126926
-0.06262182 -0.0034277625 -0.02473577 0.05382821 -0.12465078 0.100762054 0.10209707 0.05276001
-0.05905858 0.08527222 0.07202112 0.17341366 0.06341872 -0.0034190495 -0.030712718 0.06559251
-0.01907126 -0.074257866 -0.012121562 0.013141101 -0.10130063 -0.12960504 -0.084719844 0.038476538
-0.066322155 -0.21355982 0.024915066 -0.10670975 0.11415092 -0.041291893 0.057935905 -0.07897947
0.14110546 0.11244682 0.001517249 0.046650693 0.05021781 0.0087918015 0.08845404 -0.03501061
0.13694723 0.1330589 -0.088641025 0.065180995 0.11396728 -0.082993336 -0.10393849 0.057534337
0.10866776 0.034495726 -0.008263507 0.021463042 -0.0069441693 0.009149682 0.008660145 -0.031357784
-0.045764938 -0.1109191 0.1043036 0.057675023 0.03431504 -0.12798269 0.023109816 0.13411982
-0.14556554 0.064162605 0.13062288 -0.02678367 -0.043017156 0.003325221 -0.05479768 0.0075448616
-0.06345404 -0.0035976046 0.10203235 -0.008289445 0.06287105 -0.13484734 -0.06588583 -0.18218964
-0.078691185 -0.060169976 -0.12685148 -0.01481221 -0.12583748 -0.012186044 -0.009586897 -0.047553264
0.06472341 0.07588954 -0.083453275 0.008430901 0.1530312 0.06041177 0.17080007 -0.079184435
-0.019574886 0.20134172 -0.016003827 0.03312859 -0.0668927 -0.09315124 -0.151615 0.15571687
-0.025799064 0.031013599 -0.17487091 0.076022156 0.039996907 0.17335974 0.093328334 0.052533034
-0.018974775 -0.0401437 -0.090992235 -0.03900246 0.16369385 0.020546233 -0.031874515 0.07623714
0.06320439 0.0027473427 -0.1700701 0.037124 0.0011912081 0.048298933 0.006668014 -0.11785119
-0.2164662 -0.026834602 0.04632814 -0.010325008 0.018945236 0.06923831 0.06247034 -0.008594737
-0.009141706 -0.14149152 0.005701629 0.058056884 -0.05045077 -0.18522938 0.008855294 0.00949214
-0.2231817 -0.15503198 -0.012413341 0.010114014 -0.04080135 0.056646522 -0.03386748 0.027783806
-0.06910849 0.054466672 -0.08210538 -0.008140654 0.029563628 -0.15585859 0.09680577 0.083003186
-0.17022318 -0.054057464 -0.07428713 0.032541428 0.006891773 -0.019989707 0.085416466 0.12066717
0.05330536 -0.108028665 0.002484047 -0.10307581 0.20377843 0.058649886 0.072294265 0.0675648
0.15282758 -0.071805656 -0.07927686 0.09835744 0.03959723 0.054567475 0.01848608 0.1291187
00000000: 1ec8 1cbd 6726 37bd fed4 c23c 002d 5a3c
00000010: 36be a5bd 90ba b3bc e4dd 233c 7e0c f93d
00000020: a5f9 2f3d bbe9 07bd c8fc 2abd ede8 a2bc
00000030: f923 233d 2819 803d 8619 14be 203f 3fbd
00000040: e26e 133d f248 cabc 4c81 433d 6d53 65bd
00000050: 9906 bbbd 0ad0 1abe df4d e83d e431 fcbd
00000060: e136 043e 9d9a b83d 4156 ecbd 2b2a 533e
00000070: 0171 403d 152d c3bc cb7f 033e 8293 c0bd
00000080: 672d 3ebd ff0f 783c 6451 89bd debb 7f3d
00000090: 23c4 f73c 552f 813d a3af 8b3d be08 c53d
000000a0: 0c36 ad3d b0a2 d53d 4e5a f3bd d974 f23c
000000b0: 08f0 753c 6e28 b4bc 47ff 163d a44f 873d
000000c0: 69e9 9b3d 4ef4 aebd d886 93bd fff5 233d
000000d0: 644c c43d 50d1 ee3d c76a 533d 5e49 3fbc
000000e0: 5505 aa3d 88ef ae3d e6ec 683d b867 4abd
000000f0: 1d4c 3b3d 4982 82bd 291a babc ba37 063e
00000100: d140 77bc e772 c53c e79a f7bc 3cdd f5bd
00000110: ac82 3a3d c119 74bc 0db0 14bd 8697 033d
00000120: de3f 80bd 50a4 60bb aba2 cabc f87a 5c3d
00000130: e848 ffbd 565c ce3d 4518 d13d e11a 583d
00000140: 69e7 71bd 34a3 ae3d cf7f 933d 5a93 313e
00000150: ade1 813d 2212 60bb 3d99 fbbc 5e55 863d
00000160: 553b 9cbc 8214 98bd 8499 46bc c64d 573c
00000170: b476 cfbd 2fb7 04be 9981 adbd 9399 1d3d
00000180: e9d3 87bd 6daf 5abe ae1a cc3c a48a dabd
00000190: f5c7 e93d b021 29bd 334e 6d3d fdbf a1bd
000001a0: f37d 103e 854a e63d 6ede c63a cc14 3f3d
000001b0: 31b1 4d3d 7d0b 103c 6427 b53d 4967 0fbd
000001c0: e53b 0c3e 9840 083e 6d89 b5bd 9d7d 853d
000001d0: ad67 e93d 69f8 a9bd b4dd d4bd 20a9 6b3d
000001e0: 348d de3d 644b 0d3d a963 07bc 43d3 af3c
000001f0: ea8b e3bb 8ce8 153c 48e3 0d3c 0571 00bd
00000200: 0474 3bbd 8e29 e3bd 209d d53d a53c 6c3d
00000210: ed8d 0c3d e50d 03be cc50 bd3c b556 093e
00000220: 220f 15be af67 833d 01c2 053e 6d69 dbbc
00000230: c232 30bd f3eb 593b 8873 60bd e33a f73b
00000240: 31f4 81bd cac5 6bbb 56f6 d03d 74d0 07bc
00000250: 89c2 803d 6c15 0abe 26ef 86bd ec8f 3abe
00000260: d828 a1bd cb74 76bd 5be5 01be e9ae 72bc
00000270: 8adb 00be f9a7 47bc 5c12 1dbc 36c7 42bd
00000280: b58d 843d fa6b 9b3d 8de9 aabd c321 0a3c
00000290: 36b4 1c3e 5572 773d 37e6 2e3e 732b a2bd
000002a0: 835b a0bc 862c 4e3e 751a 83bc d8b1 073d
000002b0: 0aff 88bd 14c6 bebd f640 1bbe 3e74 1f3e
000002c0: 8f58 d3bc 3b10 fe3c 5c11 33be 81b1 9b3d
000002d0: ccd3 233d 3785 313e ed22 bf3d e12c 573d
000002e0: fd70 9bbc b86d 24bd 235a babd 0bc1 1fbd
000002f0: 5c9f 273e 9350 a83c da8e 02bd 3822 9c3d
00000300: 4e71 813d c30c 343b db26 2ebe 560f 183d
00000310: 5022 9c3a 1ad5 453d 5b7f da3b f75b f1bd
00000320: 51a9 5dbe 3dd4 dbbc 93c2 3d3d 392a 29bc
00000330: 0a33 9b3c d1cc 8d3d e6e0 7f3d f1d0 0cbc
00000340: 18c7 15bc 27e3 10be bbd4 ba3b 0ecd 6d3d
00000350: 77a5 4ebd c5ac 3dbe cc15 113c ec84 1b3c
00000360: be89 64be b4c0 1ebe 5361 4bbc 40b5 253c
00000370: 511f 27bd 2f06 683d a0b8 0abd dd9a e33c
00000380: c188 8dbd 7218 5f3d de26 a8bd 6160 05bc
00000390: 6c2f f23c 6599 1fbe 1b42 c63d 93fd a93d
000003a0: fc4e 2ebe 5c6b 5dbd da23 98bd 294a 053d
000003b0: 62d4 e13b 74c1 a3bc d4ee ae3d 5920 f73d
000003c0: b956 5a3d 223e ddbd 65cb 223b 6919 d3bd
000003d0: 4bab 503e dd3a 703d 040f 943d 6a5f 8a3d
000003e0: d57e 1c3e d80e 93bd e85b a2bd a06f c93d
000003f0: b430 223d 2582 5f3d 1f70 973c b137 043e

model.2.main.4.weight f4 [32]
1.0148561 0.98786175 1.0031629 1.008442 0.96740234 0.9941707 0.99878937 0.99023014
0.92883974 0.98936653 0.9629491 0.97948325 1.0011623 0.96718603 0.9582855 0.99363273
0.94556314 1.0227085 0.9935058 0.9481724 1.0078303 0.9827553 0.9862032 0.9831262
0.9890512 0.9912322 1.0065928 0.97232187 0.98503435 0.9786185 0.94954914 0.9745713
00000000: cee6 813f 82e4 7c3f a467 803f a114 813f
00000010: aea7 773f f981 7e3f a9b0 7f3f b97f 7d3f
00000020: 71c8 6d3f 2047 7d3f d583 763f 6abf 7a3f
00000030: 1626 803f 8199 773f 3352 753f b75e 7e3f
00000040: 6d10 723f 1de8 823f 6556 7e3f 6dbb 723f
00000050: 9500 813f da95 7b3f d077 7c3f 29ae 7b3f
00000060: 7632 7d3f 65c1 7d3f 08d8 803f 16ea 783f
00000070: 362b 7c3f be86 7a3f a715 733f 817d 793f

model.2.main.4.bias f4 [32]
0.051595487 0.028030783 0.012875341 0.04852758 -0.0012331984 0.009917247 -0.013516432 -0.016873673
-0.0111258915 0.018081963 -0.011977235 -0.0143964235 0.019747814 -0.028543947 -0.0046905275 -0.01733549
0.0030524754 0.045582578 -0.006555002 -0.0042275954 0.09670999 0.0064085554 -0.0022666221 -0.020313516
0.007841523 0.018604452 -0.028080579 0.013628502 0.009933089 0.0005075778 0.038384613 0.02390638
00000000: ca55 533d d0a0 e53c 18f3 523c dbc4 463d
00000010: 46a3 a1ba f37b 223c 0674 5dbc a83a 8abc
00000020: 5f49 36bc a020 943c 2a3c 44bc fade 6bbc
00000030: 2bc6 a13c ffd4 e9bc ffb2 99bb 2803 8ebc
00000040: 0a0c 483b ccb4 3a3d 58cb d6bb a487 8abb
00000050: e30f c63d dcfe d13b 9c8b 14bb 8868 a6bc
00000060: bb79 003c 5d68 983c 3e09 e6bc 154a 5f3c
00000070: 65be 223c f80e 053a 2f39 1d3d 50d7 c33c

model.2.main.4.gate f4 [32]
0.8634174 0.9677313 1.0011039 1.0817707 1.0181231 0.9700896 0.9992564 0.92746866
1.0439746 0.972215 1.0225172 1.0079471 1.0675099 1.0902721 1.0675298 1.0010599
0.98906153 0.93928117 1.0305406 1.006602 1.0497134 0.9908229 1.0099654 1.0530564
0.9456319 0.9981816 0.9783248 1.0041437 1.0904009 0.9617174 1.0393213 1.0687562
00000000: ec08 5d3f 3dbd 773f 2c24 803f 7677 8a3f
00000010: dc51 823f cb57 783f 44cf 7f3f 966e 6d3f
00000020: f6a0 853f 15e3 783f d8e1 823f 6904 813f
00000030: 2aa4 883f 098e 8b3f d1a4 883f bb22 803f
00000040: 2333 7d3f bb74 703f c1e8 833f 56d8 803f
00000050: 025d 863f 92a6 7d3f 8c46 813f 8dca 863f
00000060: ef14 723f d488 7f3f 7e73 7a3f c887 803f
00000070: 4292 8b3f 1d33 763f 7b08 853f 01cd 883f

model.2.main.4.running_mean f4 [32]
-0.080729954 0.29250228 0.19291632 0.97006696 0.1698342 -0.9063642 0.92424953 0.61644816
-0.4142319 -1.0039744 -0.6602847 -0.109694354 0.74809927 0.099629186 0.65505433 0.5333461
-0.31538373 -0.83769375 -0.50056875 0.4796862 -0.0005426682 -0.4362229 0.008973564 -0.03809839
-0.28030354 0.029382396 0.5622528 0.37260225 -0.6078211 -0.77579755 -1.417982 -0.17932355
00000000: bf55 a5bd dcc2 953e db8b 453e 4f56 783f
00000010: 04e9 2d3e 7c07 68bf 9e9b 6c3f 8ccf 1d3f
00000020: 3416 d4be 3c82 80bf 6b08 29bf 6fa7 e0bd
00000030: 6f83 3f3f 630a cc3d a4b1 273f 5f89 083f
00000040: fa79 a1be 1973 56bf 4625 00bf 6e99 f53e
00000050: d941 0eba 9c58 dfbe db05 133c 0f0d 1cbd
00000060: f283 8fbe 5ab3 f03c cdef 0f3f b9c5 be3e
00000070: 2a9a 1bbf ab9a 46bf 6f80 b5bf 98a0 37be

model.2.main.4.running_var f4 [32]
0.9639111 0.85406816 0.8346621 2.5883727 1.6585498 1.0766104 0.43740532 1.2969675
0.7068447 0.89036095 1.8951569 2.2828374 1.2060554 0.4852754 1.1738126 0.96287143
1.123125 0.6476821 2.293735 1.5428461 1.403868 1.5908576 1.2282637 0.7638865
1.2525985 1.2626137 2.0983915 0.9896116 3.2204888 0.8017366 2.7114668 0.6439396
00000000: e1c2 763f 36a4 5a3f 6aac 553f e6a7 2540
00000010: 5c4b d43f 5fce 893f 97f3 df3e 0803 a63f
00000020: c6f3 343f b2ee 633f 8094 f23f 021a 1240
00000030: 0660 9a3f 0476 f83e 7e3f 963f be7e 763f
00000040: 8fc2 8f3f 7ece 253f 8ecc 1240 fb7b c53f
00000050: f2b1 b33f 39a1 cb3f bf37 9d3f 118e 433f
00000060: 2655 a03f 539d a13f 0c4c 0640 3057 7d3f
00000070: 7d1c 4e40 9c3e 4d3f ac88 2d40 3ad9 243f

model.3.main.0.weight f4 [32, 32, 3, 3]
-0.049317125 -0.07074729 0.15562262 0.09568235 0.06551733 0.028537046 0.06988381 -0.06667691
0.031630214 0.015679982 0.035152406 -0.07999829 -0.08981121 0.06941591 0.027935611 -0.20480102
0.06268085 -0.054606527 0.104450926 -0.02721257 -0.021631332 0.15345556 -0.006890414 0.03818783
-0.09734847 0.06567557 0.117594086 0.15273891 -0.10747019 -0.006392913 0.009276245 0.09517823
-0.04672587 -0.05611401 0.07933785 0.14159791 -0.069029845 0.13521393 0.07101766 -0.043136403
0.02217346 -0.089106835 -0.05238911 0.008465538 -0.008173485 -0.008371071 0.06778534 0.01117166
0.115771174 -0.00044642866 0.059294965 -0.010449417 -0.013012753 -0.025774855 0.041117556 0.0822524
-0.04407522 0.10663512 0.082511604 0.0040938873 -0.08062563 -0.019166987 0.12526278 0.20462082
-0.025050057 0.04136613 0.0735464 0.06994274 -0.11277746 -0.11057465 0.06996015 -0.1469125
0.23242195 0.032811616 -0.07071066 -0.13428642 -0.062025033 -0.10879153 -0.025133926 0.002977976
0.13330962 0.017321067 -0.031079113 -0.008513561 0.092595585 0.13466053 -0.031023158 -0.06129267
0.089692295 0.03462944 -0.008597534 0.22811931 -0.0068201097 0.08426353 -0.04085066 -0.03715047
-0.08499523 0.0376776 -0.00030014824 -0.033933558 -0.041827213 -0.055949327 -0.057888765 0.025389183
0.031022517 -0.26994428 0.006107986 0.0490608 0.018983701 0.03564228 -0.034957223 -0.07411336
0.12001779 -0.028481375 -0.019307636 -0.12147486 0.058469 -0.07930844 -0.012429032 -0.12626684
0.11940736 0.013222961 -0.11960084 0.15345329 -0.17410286 -0.10652784 -0.06686608 0.20729339
0.053099602 0.051342197 -0.07079381 0.013985717 0.15028673 0.008533568 -0.056882754 -0.06103837
0.108719006 0.04793472 0.036647394 0.015408869 -0.17712729 0.06423238 -0.05344416 -0.13076255
-0.058552682 0.11577008 0.15882353 -0.017314939 -0.06887023 0.011439301 -0.004419513 -0.052421942
-0.1348037 0.022815594 0.014640345 -0.025566347 0.00767202 0.08519184 0.14853926 0.23332796
0.032216873 0.05816097 0.0066146385 -0.08484408 0.014592399 0.039345115 -0.29006493 -0.12622072
0.09349116 0.03630765 -0.13508268 0.056024972 0.06861861 0.020483 0.0031128284 0.08317498
0.10176446 0.08314398 0.126289 0.065343775 -0.1273486 -0.035522707 -0.097287856 -0.07490033
0.05890199 -0.09091908 -0.03539888 0.001587066 0.10966848 0.13606185 0.06519936 -0.049322546
-0.028052554 0.1781037 0.026626393 -0.04567898 0.1249082 0.069007844 0.052189145 0.028643074
-0.046866577 -0.081866056 0.1914423 -0.10258424 -0.08186456 -0.06419835 -0.08800101 -0.009355939
-0.09300759 -0.022895424 -0.0835964 0.27085605 -0.046723176 -0.077191226 -0.027684288 -0.18003112
-0.14282872 0.06587754 -0.031243643 0.014558758 -0.061724626 -0.07211689 0.11183306 -0.11344866
-0.0037031758 0.06901749 -0.070507124 0.09704941 -0.16113119 -0.054233767 -0.034549225 -0.058892295
-0.007534656 -0.010836786 0.08612848 -0.04412924 -0.051499534 0.023043487 -0.026718149 -0.04513521
-0.004930154 0.08737985 -0.0010179336 -0.025474511 -0.055889532 -0.02732866 0.07763302 0.013939514
-0.10040034 -0.02507665 0.04567592 -0.011198779 0.0438899 0.058240235 -0.015467327 0.031171676
00000000: c100 4abd f5e3 90bd 895b 1f3e 1cf5 c33d
00000010: f32d 863d 86c6 e93c 3e1f 8f3d e78d 88bd
00000020: af8e 013d 4e73 803c f8fb 0f3d 25d6 a3bd
00000030: f1ee b7bd ee29 8e3d 39d9 e43c 5cb7 51be
00000040: d15e 803d 18ab 5fbd 5eea d53d e5ec debc
00000050: 3134 b1bc 7423 1d3e fbc8 e1bb d86a 1c3d
00000060: a25e c7bd ea80 863d 2bd5 f03d 9767 1c3e
00000070: 5519 dcbd a47b d1bb 64fb 173c ceec c23d
00000080: a063 3fbd ced7 65bd e27b a23d 0bff 103e
00000090: 855f 8dbd 8575 0a3e b571 913d ccaf 30bd
000000a0: 1ea5 b53c a57d b6bd f795 56bd 0ab3 0a3c
000000b0: 15ea 05bc d126 09bc 0ad3 8a3d 5709 373c
000000c0: 7019 ed3d a40e eab9 47df 723d 0834 2bbc
000000d0: 7133 55bc ca25 d3bc e26a 283d f273 a83d
000000e0: 3888 34bd 8463 da3d d8fb a83d 0426 863b
000000f0: 0d1f a5bd 1604 9dbc e344 003e 1f88 513e
00000100: c735 cdbc 886f 293d 7f9f 963d 243e 8f3d
00000110: def7 e6bd f674 e2bd 4447 8f3d 3b70 16be
00000120: 0500 6e3e 7965 063d c0d0 90bd 6182 09be
00000130: f60d 7ebd 18ce debd aae5 cdbc 262a 433b
00000140: 5182 083e e9e4 8d3c a099 febc 777c 0bbc
00000150: c1a2 bd3d 73e4 093e 4724 febc 060e 7bbd
00000160: 98b0 b73d 9ad7 0d3d acdc 0cbc 1c98 693e
00000170: 3a7b dfbb 5c92 ac3d 0653 27bd 172b 18bd
00000180: fb11 aebd d453 1a3d 375d 9db9 eafd 0abd
00000190: 0353 2bbd 1f2b 65bd c51c 6dbd fafc cf3c
000001a0: ef22 fe3c 2336 8abe 8025 c83b faf3 483d
000001b0: b583 9b3c a4fd 113d 4e2f 0fbd bfc8 97bd
000001c0: e3cb f53d c651 e9bc 0c2b 9ebc d0c7 f8bd
000001d0: 317d 6f3d 776c a2bd 23a3 4bbc 184c 01be
000001e0: d98b f43d 1ea5 583c 49f1 f4bd dc22 1d3e
000001f0: 0548 32be 452b dabd 15f1 88bd b844 543e
00000200: f87e 593d 324c 523d 58fc 90bd 5924 653c
00000210: c4e4 193e 61d0 0b3c e4fd 68bd 5f03 7abd
00000220: 12a8 de3d 3257 443d 941b 163d 7b75 7c3c
00000230: db60 35be 448c 833d 43e8 5abd 9ee6 05be
00000240: f0d4 6fbd dd18 ed3d a3a2 223e 0fd8 8dbc
00000250: d60b 8dbd e86b 3b3c 90d1 90bb 64b8 56bd
00000260: fb09 0abe c5e7 ba3c 0fde 6f3c 8470 d1bc
00000270: 9165 fb3b 0f79 ae3d ad1a 183e 86ed 6e3e
00000280: d7f5 033d 333a 6e3d 9cbf d83b bcc2 adbd
00000290: f514 6f3c 5828 213d 6483 94be 0140 01be
000002a0: 4b78 bf3d 55b7 143d 1d53 0abe 717a 653d
000002b0: ea87 8c3d f7cb a73c 9800 4c3b a557 aa3d
000002c0: e369 d03d 6447 aa3d e751 013e f5d2 853d
000002d0: ac67 02be 4280 11bd db3e c7bd 5865 99bd
000002e0: 3743 713d c833 babd 6afe 10bd 1905 d03a
000002f0: de99 e03d cc53 0b3e 3e87 853d 7006 4abd
00000300: 78ce e5bc d160 363e 981f da3c e219 3bbd
00000310: dfcf ff3d fc53 8d3d 49c4 553d e1a4 ea3c
00000320: 2bf7 3fbd 64a9 a7bd 7309 443e b017 d2bd
00000330: 9ba8 a7bd 6d7a 83bd e039 b4bd a749 19bc
00000340: c37a bebd 2f8f bbbc 9734 abbd a5ad 8a3e
00000350: cd60 3fbd 6f16 9ebd 29ca e2bc 145a 38be
00000360: b141 12be ceea 863d abf2 ffbc db87 6e3c
00000370: f6d2 7cbd 05b2 93bd bb08 e53d c557 e8bd
00000380: fbb0 72bb 0b59 8d3d 0a66 90bd d7c1 c63d
00000390: 93ff 24be 3a24 5ebd 7d83 0dbd 0c39 71bd
000003a0: 47e5 f6bb c68c 31bc 2164 b03d ddc0 34bd
000003b0: 2df1 52bd b2c5 bc3c 05e0 dabc b3df 38bd
000003c0: 218d a1bb 35f4 b23d 2f6c 85ba ecaf d0bc
000003d0: 6cec 64bd 5be0 dfbc 10fe 9e3d 8f62 643c
000003e0: b29e cdbd 8c6d cdbc ac16 3b3d 157b 37bc
000003f0: e5c5 333d 508d 6e3d ac6a 7dbc be5b ff3c

model.3.main.1.weight f4 [32]
0.99668735 0.9982068 1.0244936 0.9996827 0.9453723 1.000256 0.9638869 1.0010434
0.98875844 1.010062 0.9888111 0.9990237 0.9918818 0.99195033 0.9945214 1.0042399
1.0000836 1.012439 1.0262264 1.002354 0.9966995 0.9975659 1.0028176 0.9920236
1.0307232 1.0075146 0.9946847 1.0081768 0.9887474 1.0596951 0.9989039 1.0222473
00000000: e726 7f3f 7b8a 7f3f 9b22 833f 35eb 7f3f
00000010: eb03 723f 6308 803f 4bc1 763f 3122 803f
00000020: 461f 7d3f b649 813f b922 7d3f 04c0 7f3f
00000030: f7eb 7d3f 75f0 7d3f f498 7e3f ef8a 803f
00000040: bd02 803f 9a97 813f 635b 833f 234d 803f
00000050: b327 7f3f 7b60 7f3f 545c 803f 42f5 7d3f
00000060: bdee 833f 3df6 803f a8a3 7e3f f00b 813f
00000070: 8d1e 7d3f 17a4 873f 2ab8 7f3f 00d9 823f

model.3.main.1.bias f4 [32]
-0.00092269195 -0.0030537897 0.024429932 0.0039449944 0.021901693 0.018710077 -0.018550001 0.012057718
-0.044222824 0.00781374 0.04595244 -0.0009381711 -0.003809959 0.031388666 -0.0084864 0.012430596
0.0066826874 -0.003543577 0.049417816 0.008876937 0.014174027 -0.0031390344 0.005954592 -0.0007965453
-0.0021956891 -0.003433695 -0.0040799985 0.0363134 0.02348662 0.07712169 0.036264606 -0.0034313246
00000000: cfe0 71ba 1722 48bb 4821 c83c 0345 813b
00000010: 2e6b b33c e045 993c 2cf6 97bc bc8d 453c
00000020: fe22 35bd 3305 003c a038 3c3d 99ef 75ba
00000030: 81b0 79bb 6791 003d 8b0a 0bbc b3a9 4b3c
00000040: 72fa da3b 5b3b 68bb 566a 4a3d 9370 113c
00000050: 2e3a 683c 42b8 4dbb bd1e c33b 40cf 50ba
00000060: 8de5 0fbb d807 61bb 82b1 85bb 5cbd 143d
00000070: 0367 c03c faf1 9d3d 328a 143d 13e0 60bb

model.3.main.1.gate f4 [32]
0.9887872 1.0840524 1.0462222 1.035821 0.9376927 0.971672 1.0316129 1.0362822
0.98920345 0.9870382 0.83093363 0.9858635 1.0052776 0.99967974 1.0519173 0.98777217
1.1111994 1.092864 1.0955971 0.9792168 0.9715411 1.0271487 0.979027 0.993224
1.0623877 1.0580711 1.0256243 0.9687077 0.90701795 1.0458912 0.999015 0.96390057
00000000: 2821 7d3f 3bc2 8a3f 9cea 853f c895 843f
00000010: a10c 703f 7fbf 783f e40b 843f e5a4 843f
00000020: 703c 7d3f 89ae 7c3f 11b8 543f 8d61 7c3f
00000030: f0ac 803f 03eb 7f3f 3aa5 863f a3de 7c3f
00000040: c83b 8e3f f8e2 8b3f 873c 8c3f f4ad 7a3f
00000050: ebb6 783f 9c79 833f 83a1 7a3f ee43 7e3f
00000060: 52fc 873f e06e 873f a847 833f 3afd 773f
00000070: 5432 683f c3df 853f 72bf 7f3f 30c2 763f

model.3.main.1.running_mean f4 [32]
0.66125613 -0.42436638 -0.055568088 2.127085 -2.529891 0.5469258 1.8382514 3.1563323
1.434445 0.99093974 -2.3737113 5.7769036 3.5210514 -3.3609698 1.402796 -1.4757048
1.7500072 -3.2372026 -1.3403355 -1.3592788 4.0297794 4.253384 -2.001044 3.1578345
-0.97982585 0.41943708 2.2035792 -2.1950254 -2.6186464 0.6025449 3.3489928 0.25032112
00000000: 1548 293f 8d46 d9be 5d9b 63bd 2922 0840
00000010: bce9 21c0 5403 0c3f d24b eb3f 5901 4a40
00000020: e59b b73f 3aae 7d3f e3ea 17c0 65dc b840
00000030: e858 6140 211a 57c0 d28e b33f e5e3 bcbf
00000040: 3c00 e03f 542e 4fc0 1d90 abbf d9fc adbf
00000050: f4f3 8040 b91b 8840 1b11 00c0 f619 4a40
00000060: ded5 7abf 75c0 d63e 7107 0d40 4c7b 0cc0
00000070: e797 27c0 6240 1a3f e655 5640 172a 803e

model.3.main.1.running_var f4 [32]
5.716427 3.4410849 6.6256237 5.4834394 5.2023854 2.3429277 6.6723037 2.7990143
3.7373672 2.5820367 5.881731 10.60761 5.9805193 4.6337657 6.3625703 6.6636176
4.414434 8.38974 10.106662 4.0513124 7.8813133 8.045681 3.5021684 4.9337606
8.033168 2.9452124 3.6508822 2.7631707 2.7073698 10.146183 2.880704 3.9486523
00000000: f8ec b640 bc3a 5c40 1c05 d440 5678 af40
00000010: f179 a640 87f2 1540 8383 d540 0d23 3340
00000020: 0631 6f40 1740 2540 2437 bc40 c5b8 2941
00000030: 6a60 bf40 cf47 9440 2d9a cb40 5b3c d540
00000040: 0b43 8d40 603c 0641 e3b4 2141 5aa4 8140
00000050: b833 fc40 1cbb 0041 8723 6040 5ee1 9d40
00000060: db87 0041 5c7e 3c40 0ea8 6940 cad7 3040
00000070: 8c45 2d40 c456 2241 745d 3840 b8b6 7c40
