checkpoint/clf/experiment_name/800/netS.pth (torch, 828110 bytes, 10 tensors)

conv.0.bias f4 [64]
000000 11 c6 b8 bb 9c d9 15 3c 5f e7 26 bb ef 15 63 3d
       -0.0056388457 0.00914612 -0.0025467498 0.05544084
000010 ff f0 c0 3c 69 50 c1 bc 4c 28 7d bc bd 3b 05 ba
       0.023552416 -0.023597913 -0.015451502 -0.0005082449
000020 56 19 3c bb 9e 39 32 3c ae 2b 47 3b fb fb 76 bc
       -0.0028701625 0.010877995 0.0030391025 -0.015074725
000030 7e e5 db 3a ea f8 81 bb 93 55 b1 bb dc be b5 39
       0.0016776768 -0.0039664404 -0.0054118126 0.00034665212
000040 15 db 27 bc 1d 49 e4 3b 6d 7c 4b bb 0c 17 92 3b
       -0.010245104 0.0069667236 -0.0031049505 0.004458314
000050 58 e4 03 3c 50 65 2e bd 5e c6 c9 bc 82 f8 dc bc
       0.008050047 -0.042577088 -0.024630722 -0.026973967
000060 25 f2 c9 bb 1a 6e 35 bb b3 f1 d4 bb 13 84 1e bc
       -0.006162899 -0.0027684034 -0.0064985394 -0.009675044
000070 04 de 6d 3c 3a 73 8e bb b7 bf 30 3c 3e 06 e3 bb
       0.014518265 -0.004347232 0.010787896 -0.0069282344
000080 0b 93 ce 3b 45 89 6b bc a1 ba ae 3b 54 34 0d bc
       0.00630415 -0.014375989 0.0053323065 -0.008618433
000090 87 d2 33 bc c8 27 1e bc 77 4e b1 bb 72 60 10 bc
       -0.010975487 -0.009653039 -0.005410965 -0.008812057
0000a0 1f 47 71 bc bf 52 70 39 ba d5 7d 3d ba db 86 bc
       -0.014726429 0.00022919009 0.061971404 -0.016462196
0000b0 24 24 57 bc 87 bd 45 3a 18 ab b2 bb 70 e9 85 bc
       -0.013131175 0.00075431954 -0.005452525 -0.016346663
0000c0 c4 35 1f 3c 42 42 29 3b b0 1b eb bb bf 86 8a bb
       0.009717409 0.0025826846 -0.0071749315 -0.004227489
0000d0 f5 3e 8b 3b 3a 79 91 bc e4 8c 3a bc d6 68 1f 3c
       0.0042494484 -0.017758 -0.01138613 0.009729585
0000e0 54 f7 a9 3b f8 cb 25 bc a2 aa 0a bc d7 e5 44 bc
       0.0051869545 -0.010119431 -0.008463534 -0.012017689
0000f0 c3 1d e9 3c 28 63 b6 bb a2 3d 09 3c 73 ad c7 3c
       0.028456574 -0.0055660196 0.008376511 0.0243747

conv.0.weight_orig f4 [64, 64, 3, 3]
000000 17 6e 18 3d 74 54 a5 bc 47 03 c4 bc 7e b6 c9 bd
       0.037214365 -0.020181872 -0.023927344 -0.09849261
000010 62 4b c5 bd e6 81 b4 bc e7 db 2e bd af 5f 28 3d
       -0.09633519 -0.022034597 -0.042690184 0.041106876
000020 03 61 0c bd 11 17 9d 3c 88 1a 9a 3d 8a a3 49 bc
       -0.034272205 0.019176038 0.07524592 -0.012307057
000030 43 46 e5 3d 2a 71 1b bd d4 25 93 bd f3 f9 05 bd
       0.11195042 -0.03794972 -0.071849495 -0.032709073
000040 2b 73 b5 bc a3 52 bd 3b 51 5a 93 3d b7 aa 59 3e
       -0.022149643 0.0057776733 0.07194961 0.21256529
000050 3a bb a7 3d 93 76 18 3e 66 ff b9 3c 99 5f 0e 3e
       0.081900075 0.14888982 0.022704791 0.13903655
000060 a5 e8 b5 3b 67 3a f6 3d 8d 5e 0d bd e4 9a a1 bd
       0.005551415 0.12022858 -0.034514 -0.07890871
000070 30 f1 5c bd f5 d3 bd bb 11 4d 8a 3d a1 e2 ad bd
       -0.05394095 -0.0057930895 0.067529805 -0.08490492
000080 f5 57 c5 bc 35 96 d0 3c db 12 83 3c 77 b3 f5 bc
       -0.024089793 0.02546225 0.016000202 -0.029992802
000090 c2 f0 e2 bc 7a be 50 bd 11 0b ee 3c 1d 35 8d bd
       -0.027702693 -0.050962903 0.029058011 -0.06894896
0000a0 74 ef 0c 3d 38 3c 93 3d 4f 0e e5 3b 15 57 8c 3d
       0.034408048 0.0718922 0.006990231 0.06852547
0000b0 aa 86 45 3d 25 ee 3e 3d 44 5d b0 3d a2 9a 06 bd
       0.04822413 0.04661383 0.08611539 -0.032862313
0000c0 a9 c1 ea 3c 55 12 8b 3d c1 c1 1e 3d 46 f5 4e 3c
       0.028656797 0.06790606 0.038758997 0.01263172
0000d0 6e d2 67 3d c9 c6 0a 3e 81 e8 8e bc d5 aa 9b 3c
       0.056597166 0.13552393 -0.01744485 0.019002357
0000e0 a1 5f 41 3d f7 01 f2 3c 4b 4a 06 3e 56 87 6d bd
       0.04721034 0.029541953 0.13114278 -0.057990395
0000f0 73 2c 5b 3c ea b1 21 bc 6b 41 19 3e ae 31 06 3e
       0.013377297 -0.009869078 0.14966361 0.13104889
000100 7e 2c 75 3d 8d 7a 02 3e ee 19 52 bd f8 3f f2 3d
       0.059856884 0.12742062 -0.05129426 0.11828607
000110 99 6d 8e bc af 47 ff 3b 55 14 2f 3c 5b 5a 5a 3d
       -0.017386245 0.007790528 0.010686 0.053308826
000120 80 f5 c3 3d d7 12 99 3d b8 d7 65 3b 99 5d 17 3e
       0.0956831 0.074742965 0.0035071205 0.14781798
000130 bd 9c aa 3d 76 d4 b5 3d a7 b6 81 bb 30 31 b4 3d
       0.08330677 0.08878414 -0.0039585414 0.08798444
000140 7b 9c f6 3c cf 2a 21 3d 04 50 b5 bd e4 9f d7 3c
       0.030103913 0.039347466 -0.088531524 0.026321359
000150 50 bd d2 bd 1e 09 8c 3d 07 5f 3c 3b cf 01 0a bd
       -0.10290015 0.068376765 0.0028743164 -0.03369313
000160 c4 a0 1d bc 14 63 66 3d a1 d2 61 bb fb f7 64 3d
       -0.009620849 0.056246832 -0.003445782 0.055900555
000170 39 e1 ca bd 31 11 72 3d f4 a5 de 3b f3 d1 05 ba
       -0.09906239 0.059098426 0.0067946855 -0.0005104832
000180 b0 82 d3 bc 82 15 1c bd 26 bd 27 3d b6 3c fe 3d
       -0.025819153 -0.03810645 0.04095187 0.124139234
000190 28 33 86 bc 7e 73 aa bc bd bd a5 3c fd 36 bd bd
       -0.016381815 -0.020807024 0.020232076 -0.09239004
0001a0 f6 4f a8 3d 92 c1 a6 bc 76 7f 0a 3b 9f b8 07 bd
       0.08218376 -0.020355973 0.0021133102 -0.033135053
0001b0 cc 12 3a bd 14 67 e5 bc 00 13 1a 3c 75 4d 2d 3d
       -0.045428082 -0.028003253 0.009403944 0.042310197
0001c0 a0 8b f2 3c c4 8d 3a bd 37 39 93 3d 0f 6a 9a 3c
       0.029607594 -0.045545354 0.07188647 0.0188494
0001d0 60 34 f8 3c 2c 2b 85 bd c1 0e c3 3b b1 f8 f8 bd
       0.030298412 -0.06502375 0.0059526865 -0.12156809
0001e0 67 39 f2 bc 0d e7 50 3d 08 e7 34 3b 07 2d ee ba
       -0.029568387 0.051001597 0.0027603526 -0.0018171378
0001f0 c9 5a 87 bd 90 f8 5e 3d 49 88 de 3d 70 3d ca 3c
       -0.06609113 0.054436266 0.10865838 0.024687499
000200 85 07 2c bd e3 cc ce bc d7 87 db bd dd 2d ad bd
       -0.04199936 -0.025244182 -0.10719269 -0.08456013
000210 c0 da 8d bc 8d a9 05 bd f0 23 c5 3c ce 74 6b 3c
       -0.017316222 -0.0326324 0.024064988 0.01437111
000220 e2 be 9e 3d 96 a0 03 3e 21 e9 cb 3c f9 fa ad 3d
       0.07751252 0.12854227 0.024891438 0.08495135
000230 7a a8 8c bd 59 ea 62 3d 2b 1f 3e 3d 13 c0 cf 3c
       -0.06868072 0.055399273 0.046416443 0.025360143
000240 15 0c 2b 3d 51 df 0d bd 11 17 9f 3d 42 18 7e bc
       0.04175957 -0.0346368 0.077680714 -0.015508713
000250 d6 29 86 3c 94 3c 1e bd 60 42 e4 3b cc 8b 46 bc
       0.01637737 -0.03863199 0.0069659203 -0.012118291
000260 ee 3e 49 3d 2f c4 cb 3c e4 fd 1d 3c a2 f1 4a bc
       0.04913228 0.024873821 0.009643052 -0.012386711
000270 bc 09 ad 3d 77 ea e7 bd eb 10 3e bd 98 11 80 3d
       0.08449122 -0.113240175 -0.046402853 0.06253356
000280 86 a4 c9 3c e7 4e df bd 43 45 ed 3a 88 ca 84 3d
       0.024614584 -0.10903721 0.0018102307 0.06483942
000290 2f 01 81 3c 3d 61 02 3e 46 10 c1 3b 35 4b be bd
       0.015747635 0.12732406 0.0058918325 -0.09291688
0002a0 45 a3 0a be 6e ed 23 3d 61 f6 f2 bc f5 94 1f be
       -0.13538845 0.040021352 -0.029658498 -0.15584166
0002b0 ae af 6b bc d2 3c 48 3d 0e c6 0a bd ab 9c 5a be
       -0.014385147 0.048886128 -0.033880286 -0.21348827
0002c0 56 d3 1c bd 87 05 94 3d 3c f8 8b bc 61 44 99 3b
       -0.038287483 0.07227617 -0.01708614 0.004677341
0002d0 96 c9 bf bc 35 13 93 bb cf 0a 7b 3d 1f ba d9 3c
       -0.023411553 -0.0044883736 0.061289605 0.026578007
0002e0 85 28 9f bd 3a 10 c5 bd 62 9c f2 bd 7f 55 0e 3c
       -0.077714 -0.096222356 -0.11846234 0.008687376
0002f0 d6 c7 1a 3d a2 ef d0 bd 97 b4 94 bc 8b f3 14 3c
       0.037788235 -0.10201956 -0.018152518 0.009091268
000300 4e 02 16 3b 9f 05 1b bd f9 b7 6e 3b 19 97 a5 bb
       0.0022889557 -0.037847158 0.0036425574 -0.0050534126
000310 68 86 46 bc 8b 08 9a bd dd a3 37 bd a1 e0 9b 3d
       -0.012117006 -0.07521161 -0.044834007 0.07611204
000320 05 22 11 3d 44 e4 81 3d 58 13 e3 3c d4 5a f5 3c
       0.035432834 0.06342366 0.027719185 0.029950537
000330 7e c4 25 3d 49 b8 7a bc 6f dd 5b 3d 1f c4 5d bd
       0.040470593 -0.015302726 0.053677972 -0.054142114
000340 3b 98 b8 3c e9 41 18 be 0c 26 8d 3d e8 54 9e 3d
       0.022533527 -0.14868893 0.068920225 0.07731038
000350 a6 db 72 bc ad ce 07 be a3 15 2a bd 3c 2f c2 3b
       -0.014822876 -0.13262434 -0.04152454 0.005926041
000360 65 a8 b8 bd 27 70 44 3c 39 fb f1 3c c8 3c 27 3d
       -0.09016494 0.01198963 0.029538738 0.04082945
000370 b4 b0 0c bd c8 2e 19 3d c3 c3 1f 3d 9f 8d 3d 3d
       -0.034348205 0.03739813 0.039005052 0.04627764
000380 3c a4 5d bc 89 8d b0 bd d1 9b be 3b c5 b7 d2 3c
       -0.013527926 -0.08620746 0.0058169146 0.025722394
000390 27 eb 02 bc c7 58 b2 bd 14 49 46 bd 20 26 64 bd
       -0.007990635 -0.08708339 -0.048409536 -0.05570042
0003a0 42 4c 94 3d f0 0d 62 bc 83 3b 65 3d 42 6b bd bc
       0.072411075 -0.013797268 0.055964958 -0.023122434
0003b0 13 0d e5 3c c8 ad ee 3c be 3a 86 bc 25 8a 00 bd
       0.027960336 0.0291356 -0.016385432 -0.031381745
0003c0 77 fb 79 bd db a4 22 3e 26 35 cb bd 22 c1 01 be
       -0.06103083 0.158832 -0.09922247 -0.1267133
0003d0 33 d6 33 bd 40 d1 ea bc 25 a2 67 bc e6 9f 8a 3b
       -0.04390545 -0.028664231 -0.014137779 0.004230487
0003e0 73 21 0d 3c 16 62 85 bd 4f 51 12 be 07 45 e8 bc
       0.008613932 -0.06512849 -0.1428883 -0.028353227
0003f0 6c bb d1 bb 21 c0 eb 3c cd fe d4 bc 2d fc 12 3d
       -0.0064005163 0.028778138 -0.026000405 0.035885025

conv.0.weight_u f4 [64]
000000 4d 24 83 3e cd 98 78 3e c4 55 c1 3d ba d6 d4 3e
       0.25613633 0.24277039 0.094401866 0.41570073
000010 a0 00 6c bc 36 82 9d bd 71 35 01 bd 14 e3 5b 3b
       -0.014404446 -0.076908514 -0.031545106 0.0033552097
000020 6b 6f 7e 3d 19 97 1b 3e 4f b9 80 ba 2b f8 00 3d
       0.062117975 0.15194358 -0.0009820851 0.03148667
000030 f2 d7 06 be 49 89 04 3e 9a 04 50 bd 03 4e 50 bd
       -0.13168314 0.12942995 -0.05078564 -0.050855648
000040 0e 84 0c 3c b2 31 e6 bc d5 ef 39 3d 14 29 6e bd
       0.008576406 -0.028099868 0.045394737 -0.058144644
000050 75 ad 16 be 21 f0 b8 3c 32 40 84 3e 4b 88 b3 bc
       -0.14714606 0.02257544 0.25830227 -0.021915575
000060 df 08 32 bd 13 48 57 bc 77 71 55 bd d4 49 6c bd
       -0.04346549 -0.013139742 -0.05211016 -0.057687595
000070 f3 fc b6 3d 73 e2 15 3e 78 ad c3 bc 0c 28 41 bd
       0.08934965 0.14637165 -0.023886427 -0.047157332
000080 35 cd b0 bd f9 69 d6 3c c4 87 fd 3b 32 01 c7 bc
       -0.0863289 0.026173579 0.007737132 -0.024292562
000090 29 80 c5 3d de 22 19 3e 8b 7a 9b 3d 0f 43 70 3d
       0.09643585 0.14954707 0.075917326 0.058657702
0000a0 1f 47 38 3e ac d4 95 3b 49 5b b3 bd 2e 4f a0 3d
       0.1799588 0.0045724716 -0.08757646 0.07827602
0000b0 87 03 98 bd 1b 87 a2 3d 1d 04 16 bc b9 00 1e 3d
       -0.07422548 0.079359256 -0.009156254 0.038574908
0000c0 9c 3d b7 bd 4f d9 05 3b bc 75 26 be 4f 80 db bd
       -0.08947298 0.0020423715 -0.1625585 -0.10717832
0000d0 a7 ba cc 3b 69 23 af bd 91 71 33 bc 18 72 a3 3b
       0.0062478366 -0.08551676 -0.010952369 0.0049879663
0000e0 0f 91 5c be 80 b0 e9 bd 9b 15 14 be b5 4a 7d be
       -0.2153971 -0.11410618 -0.14461367 -0.2473553
0000f0 d8 79 87 be 3f b4 80 3d 03 d1 10 3e 1a 8a 95 3e
       -0.26460147 0.06284379 0.14142232 0.29206926

conv.0.weight_v f4 [576]
000000 df 17 25 bd 0c 7d 1f bc bb 7a 61 3c 79 4c ce 3b
       -0.04030597 -0.009734403 0.013762171 0.0062957373
000010 cc 78 af 3c 1c 8b e5 bc 7c 99 37 3d 18 ca f5 3c
       0.021419905 -0.028020434 0.04482411 0.030003592
000020 c6 d1 85 bd 00 ed ef 3b 53 44 5b bd 39 b6 8d 3c
       -0.06534152 0.007321954 -0.053531956 0.017298805
000030 8d c2 6e 3c 7e f1 9f bc 3b ab a1 bc c6 f8 c8 bc
       0.014572752 -0.019524332 -0.01973497 -0.024532687
000040 25 15 d2 bc ff 6b 29 bc 8c 9a 10 3e 68 1d ed 3d
       -0.025644848 -0.01034069 0.14121455 0.115778744
000050 57 28 e3 3d ac 70 e8 3d 72 b6 12 3e 21 9c 9c 3d
       0.110916786 0.113496155 0.1432741 0.07646967
000060 ff 78 bb 3d 29 23 02 3e ca 4e 9d 3d 53 a1 33 3c
       0.091539375 0.12708725 0.076810434 0.010963756
000070 6a 12 19 3d 66 23 62 3d 35 c4 32 3d b4 68 e2 3c
       0.037371077 0.05520954 0.04364415 0.027637817
000080 1e 34 c4 bc a2 5f 06 3d 38 15 87 3c 62 d1 38 bd
       -0.023950633 0.032806046 0.01648961 -0.045121558
000090 12 41 03 bd bc de 7c bd e2 a7 76 bb 13 fb cd bc
       -0.032044478 -0.061735854 -0.0037636687 -0.025144136
0000a0 09 23 94 bc b3 66 5e bc 35 d8 78 bd 19 33 ce bb
       -0.018083112 -0.01357429 -0.060753066 -0.0062927124
0000b0 e3 dc 2f 3c ac 75 bf bb e6 a3 b8 3c 2b 56 0f 3d
       0.010733816 -0.005842885 0.02253909 0.034994286
0000c0 46 22 3b 3d 6a 7a f8 3c f9 77 3f 3d be 8a ca 3c
       0.045686983 0.03033181 0.046745274 0.02472436
0000d0 57 f5 60 3d db 25 2f 3c 0e 7a c5 3d c5 ac 9e 3d
       0.054921474 0.010690178 0.09642421 0.07747797
0000e0 b5 42 7b 3d 5d ac 06 3d e2 56 ba 3d 9e 34 59 3d
       0.061342914 0.032879222 0.09098603 0.053028695
0000f0 b9 23 c7 3a 3e 28 36 3d 3a 1f 9a 3d 6e 21 84 3d
       0.0015193141 0.04447197 0.07525487 0.06451689
000100 dc 82 38 3d 76 3e 73 3c ef c8 58 3d 14 03 b0 3d
       0.045046672 0.014846435 0.052926 0.08594337
000110 38 18 d7 3c 4f ee 62 3c d1 6b 1f bb 39 d5 61 3d
       0.026256666 0.0138507625 -0.0024325738 0.055134986
000120 69 b2 e4 3d b6 80 81 3d 4a 7f c2 3d e5 9d cf 3d
       0.111668415 0.06323378 0.09496935 0.10137538
000130 58 40 a2 3d 2b c3 f0 3d 96 20 c5 3d aa 3e b4 3d
       0.07922429 0.11755975 0.09625356 0.08801015
000140 a3 31 39 3d ee c6 7f 3d a4 a3 78 ba ff c7 97 3c
       0.045213353 0.062445574 -0.00094848336 0.018527983
000150 b9 86 4e 3c 75 fe 38 3d 70 2e 47 3d e4 23 28 3d
       0.012605363 0.045164544 0.04862827 0.041049853
000160 2a e8 3f bc bd d7 eb bc d6 0e 80 bc cc 7c 49 bd
       -0.011713067 -0.028789395 -0.015632074 -0.04919128
000170 b2 79 05 bd cf 0e 3d bc 3c 9c ba 3b 2c d8 87 3b
       -0.03258676 -0.011539175 0.005694894 0.0041456427
000180 8d 75 00 bd a4 23 8b ba 0b 95 19 bd 45 98 5e 3c
       -0.031362105 -0.001061548 -0.037495654 0.013586109
000190 e7 7d 44 bd 4c db 42 3b 54 4a 69 bd 61 5e e4 bc
       -0.047971632 0.0029732762 -0.05695565 -0.027877035
0001a0 51 31 07 bd aa 1a 0d bd 22 6d 68 bd cc 9e 10 bc
       -0.033006016 -0.034449257 -0.056744702 -0.008826923
0001b0 ab e0 86 3d 51 37 c9 3c 81 c2 24 3d 5c 56 9d 3d
       0.06585821 0.02456251 0.040224556 0.07682487
0001c0 5b fa 87 3d e5 df 9d 3c 5e 70 22 3d a1 bb 1a 3d
       0.066395484 0.0192718 0.039657943 0.037776593
0001d0 e1 fe 3b 3d 28 74 1b bd 80 a1 0e bd 75 37 e1 3c
       0.04589737 -0.037952572 -0.034821987 0.027492264
0001e0 e1 d4 35 bd e5 a3 73 bc 3e a9 8d 3c 52 28 3c bd
       -0.04439247 -0.0148706185 0.017292615 -0.04593689
0001f0 aa 18 26 bc 93 1a 0b 3d 91 39 cf bb f6 05 fc 3c
       -0.010137716 0.03396089 -0.006324001 0.030764561
000200 03 93 74 bc 44 76 f6 bc 39 61 67 3b 7c fd b3 3c
       -0.014927628 -0.03008569 0.0035305752 0.021971457
000210 97 86 78 3d a3 f2 01 3d bd 31 29 3d f6 3c af bb
       0.06067523 0.031725537 0.0413072 -0.0053478433
000220 35 6e b8 3c 2e d4 06 3d 89 d7 82 3b e2 00 e4 3c
       0.022513488 0.032917194 0.003992979 0.027832452
000230 dc ea 5c bc 5f 0b b8 3c 9e 24 4f 3c b4 9e b5 bc
       -0.013483729 0.02246636 0.012643008 -0.022170402
000240 d0 cb a9 3c 51 99 3c bc 5e d2 89 3c 2b fb c1 bc
       0.020727068 -0.011511163 0.016823944 -0.023679337
000250 d6 8a 17 3c 87 5c 74 bd fe 25 f4 3c fa a8 be 3d
       0.00924941 -0.059658553 0.029803272 0.093095735
000260 83 00 ce 3c 50 7b 8c bc b4 f7 fb 39 d3 d3 33 3d
       0.025146728 -0.017148644 0.00048059004 0.043903183
000270 05 a6 e8 3a ce 4e 97 bc 07 e4 27 3c 44 53 6b 3c
       0.0017749673 -0.018470194 0.010247237 0.014363114
000280 07 00 31 bd 77 79 62 bd 3e 12 3f 3d b2 4b b9 3c
       -0.043212917 -0.05529162 0.046648256 0.022619102
000290 81 7e da 3b 1d 3e 95 3d 16 91 82 3d 1a 7d 36 3d
       0.0066679125 0.07287238 0.06375329 0.0445529
0002a0 d4 0a a0 bc bb 3d 41 bb 5d 78 16 3c 3b 2a 45 bd
       -0.019536413 -0.0029486257 0.00918397 -0.048135977
0002b0 6f 1f ac 3c 47 df 85 bb 73 52 1f ba a6 b6 34 3d
       0.021011082 -0.0040854546 -0.00060776545 0.0441195
0002c0 89 58 6e 3c d5 58 af 3b a1 11 23 bc 81 d0 87 3d
       0.014547476 0.005351166 -0.0099529335 0.06631566
0002d0 db 05 be 3c 61 dd 85 3b 2f 1b e2 bc 43 98 af bc
       0.023196151 0.0040852283 -0.027600853 -0.021434909
0002e0 46 5c da bc c5 2e 78 bd 30 84 a0 bc 45 e1 af 3c
       -0.026655328 -0.060591478 -0.019594282 0.021469722
0002f0 3b 72 65 bc 67 4f 72 bd 07 7c 5c bd f1 f0 69 bd
       -0.014004285 -0.059157755 -0.05382922 -0.057114545
000300 63 e5 9f bd f6 4c 4e bd 0f e4 4d bd e7 14 f8 bc
       -0.07807424 -0.050366364 -0.05026632 -0.030283405
000310 52 5b b6 bd f0 d0 be bd 8f de 9b bc 1a 51 86 bb
       -0.08904137 -0.093171954 -0.019027023 -0.0040990235
000320 ef d0 29 bd e5 ed b9 3b 4c d4 32 3b 00 46 eb bc
       -0.04145902 0.005674111 0.0027287183 -0.028719902
000330 7e c1 fc bc fb 23 27 3c 49 02 75 3d b5 0c ee bc
       -0.030853983 0.0102014495 0.059816632 -0.029058794
000340 49 77 d4 bc df 82 81 bd 17 e9 82 3d 82 67 ac bc
       -0.025935786 -0.0632379 0.063921146 -0.02104545
000350 0e b3 27 bd 10 05 8d bc 5b e8 03 3d 11 42 78 3c
       -0.040942244 -0.017214328 0.032204013 0.01515247
000360 31 81 90 bc 42 3a 0a bd 16 15 4e 3d 2c 84 81 3c
       -0.017639728 -0.033746965 0.050313078 0.015810095
000370 f3 53 1a 3b 6c 81 d0 3c 40 33 78 bc 1d 6e c1 3c
       0.0023548573 0.025452338 -0.015148938 0.023612076
000380 49 26 ce bb d3 ea 7d bc c6 1b dd 3b 91 ba 7e 3c
       -0.006291185 -0.015497881 0.0067476956 0.015547411
000390 bb d2 c9 3b 49 aa 36 bd 26 0f e0 3b 6a 2b 8d bd
       0.006159154 -0.04459599 0.0068377433 -0.06893046
0003a0 64 4a e1 bc fb 68 e0 3b 1f 76 d3 bc c5 08 58 bd
       -0.027501293 0.006848452 -0.02581316 -0.05274274
0003b0 b0 51 78 3c 10 c3 a9 bc 1e 03 43 bd 85 43 e3 b9
       0.015156195 -0.020722896 -0.047610395 -0.0004334712
0003c0 b2 b0 53 3b 7d 7c 1e bc 43 5c 56 bd ad cf ba bd
       0.0032301364 -0.009673235 -0.05233408 -0.09121642
0003d0 80 17 a5 bd b6 94 83 bd 6b f6 30 bd 79 37 1d bd
       -0.08061123 -0.06424849 -0.043203752 -0.03838298
0003e0 ea c8 27 bd 0b ce 1a bd 3d b9 b9 bc a0 71 87 bd
       -0.04096309 -0.037794154 -0.022671336 -0.06613469
0003f0 45 ef 39 3c 86 aa 36 3c d8 57 81 bd 03 a7 b6 3b
       0.01134855 0.011149054 -0.06315583 0.0055741086

conv.2.bias f4 [64]
000000 0a 95 0e bc 05 b6 aa bc d3 73 07 3e 13 d5 84 bb
       -0.008702526 -0.020838747 0.13227777 -0.0040537207
000010 2d 88 e1 bb 3d 92 c8 bb 64 f5 78 bb 14 8e 01 bc
       -0.0068826885 -0.0061209486 -0.003798806 -0.007907409
000020 1c cc 12 bd 8f c7 8e b9 9a 6a 70 3b d8 dd 6e bc
       -0.035839185 -0.00027233033 0.0036684633 -0.014579259
000030 58 14 ff bb 8a ae d0 bb ba 59 8e bc dd ee be bc
       -0.0077844076 -0.006368463 -0.01737677 -0.023307258
000040 08 e9 28 bc 24 45 8d bc ab e4 08 bc 13 74 de bb
       -0.010309465 -0.017244883 -0.0083553 -0.0067887395
000050 0e d7 9c bc 85 35 34 bc 96 b5 ef bb f8 8f e0 bb
       -0.019145515 -0.010999088 -0.007315348 -0.0068531
000060 6a d9 17 bd 1e ae 09 bc 16 e2 8b bc 8d 98 eb bb
       -0.037072577 -0.008403329 -0.01707558 -0.0071898163
000070 fe 54 1d bc cd 08 40 bb dc 81 1c bd b1 18 9c bb
       -0.009602783 -0.002930212 -0.03820978 -0.0047636856
000080 ce e5 5f bc a8 3c 07 bd 18 b1 1e bc ed 7b 6d bd
       -0.01366563 -0.03301683 -0.009685777 -0.057979513
000090 ac 50 d4 bb e1 7b 4c bc 44 df 26 bc db 3d a3 bc
       -0.0064793434 -0.012480707 -0.010185067 -0.019926956
0000a0 5e f2 16 bc 99 26 c2 bb 66 4f 98 bc d6 6f 8a bb
       -0.009213058 -0.0059250114 -0.018592548 -0.0042247577
0000b0 b8 4c 87 bc e2 4e 01 bc e6 27 2e bc a6 aa b1 bb
       -0.016516075 -0.007892342 -0.01062963 -0.005421954
0000c0 ea c2 23 bc 9e 16 22 bc 00 64 b4 bc be 1c 98 bc
       -0.009995202 -0.009893088 -0.02202034 -0.018568393
0000d0 98 ea 9e bb 59 0f bc bb 54 a1 e9 bb 91 05 17 bc
       -0.004849743 -0.0057391343 -0.0071298275 -0.009217636
0000e0 b3 30 92 bb 6d 5f 62 bc ee 0a 4a bc 72 84 cf bb
       -0.004461372 -0.013816697 -0.012331707 -0.0063329274
0000f0 2d a3 f5 bc 91 6b 4b bc fa 23 4d bc 7d 8e 7c bc
       -0.029985035 -0.012415783 -0.0125207845 -0.015414831

conv.2.weight_orig f4 [64, 64, 3, 3]
000000 35 56 10 bc 69 2b 2e 3d 59 2a 61 bd 26 84 dc bd
       -0.008809616 0.042521868 -0.054972026 -0.10767393
000010 01 90 28 be 51 5c 7b b9 6d 51 fd 3b 5f 59 a8 bd
       -0.16461183 -0.00023971616 0.007730654 -0.08220171
000020 5e 8e 93 39 e4 48 10 bd 6d 73 b4 bc 06 3c 2c bc
       0.00028144097 -0.035225764 -0.022027696 -0.010512358
000030 55 c0 25 3d b6 84 95 3c ce 3c fc bc b5 81 14 bc
       0.040466625 0.018251758 -0.030790713 -0.009064128
000040 48 18 fe bc ea 11 c7 bd 12 80 0b bd f8 37 bb 3c
       -0.031017438 -0.09720214 -0.034057684 0.022853836
000050 be 59 6d bd 6d 14 ba bc 5a d9 f4 bc 59 d7 38 3d
       -0.057946913 -0.022714818 -0.029888798 0.045127247
000060 74 68 e3 bd e9 65 16 bd ed 6d 89 3c a8 95 1b bd
       -0.11103907 -0.036718283 0.01677605 -0.03798452
000070 f7 b7 a0 bb 75 73 23 3c 4b 9f 06 3b 74 69 cb bd
       -0.004904743 0.009976258 0.0020541723 -0.09932223
000080 18 1c 82 3c 26 84 16 3c 6b 2f 33 3d 34 0c 9b 3d
       0.015882537 0.00918678 0.043746393 0.07570687
000090 e5 48 4a 3d c6 40 37 3d bc f8 ba 3c 8c 6e c8 3d
       0.049385924 0.044739507 0.022823684 0.0978671
0000a0 7f 8f 45 bc c9 3d 9e bd 7e 7c bc 3c 8e 58 a3 bc
       -0.012058138 -0.07726628 0.023008581 -0.019939687
0000b0 3e a6 04 3c e9 33 1c bd b2 26 8b bd 49 47 98 bd
       0.008096276 -0.038135443 -0.0679449 -0.074354716
0000c0 85 3c 57 3c a6 a8 90 3b d2 98 05 bd b9 8e d1 ba
       0.013136988 0.0044146357 -0.032616444 -0.0015987969
0000d0 6b 96 31 bd f7 fe 32 bd ab bc 8a 3b be 3f 7a bd
       -0.04335634 -0.043700185 0.0042339168 -0.061095946
0000e0 ca 4f 8c 3b 72 64 ab bd 4b b2 81 bc 5c 06 fa bc
       0.0042819725 -0.08368768 -0.015832087 -0.03052061
0000f0 e2 97 97 3b d2 32 43 bd 53 83 3a 3d 46 ad a6 bd
       0.00462626 -0.047655888 0.045535397 -0.08138518
000100 ea 4a 52 bc cd 2b df bc 70 eb 37 bc ea f8 df 3d
       -0.012835244 -0.027242566 -0.011225566 0.109361485
000110 3a 2c 45 bd d5 d2 8e bd 64 26 1c bd 2f e7 ac 3d
       -0.04813788 -0.06973807 -0.03812255 0.08442532
000120 49 2d a2 3c a1 6c cf bc f3 61 38 bd c5 fd e5 bc
       0.019796984 -0.025320353 -0.045015287 -0.028075108
000130 66 3e 8a 3b 3e 72 33 3c 3f cf 98 bd 3e 3a 85 bc
       0.0042188643 0.01095253 -0.07461404 -0.016263124
000140 21 9e 2f bd 62 1a ec bc 6c 8c b8 bc c5 77 a1 3c
       -0.042875413 -0.028821174 -0.022527896 0.01971043
000150 b5 8c 22 3d 68 cf 30 bd 2d 6d fe bc 53 5e 6f bc
       0.03968497 -0.043166548 -0.031057918 -0.014609891
000160 3f f2 e3 bd 5d f7 31 bd 7d b3 2a bd 7b 7f 34 bd
       -0.11130189 -0.043448795 -0.04167508 -0.044066887
000170 87 fa 28 bd d8 46 d7 bd 83 aa 05 3e e2 98 d2 3d
       -0.041254546 -0.10511559 0.13053326 0.10283066
000180 d9 d5 0b bd 9c 26 dc bc 09 e8 1e 3d 96 9b c2 3a
       -0.034139488 -0.02687388 0.038795505 0.0014847394
000190 cc ea aa 3d d4 67 d0 bb 92 48 47 3d 5d 2d b2 3b
       0.08345565 -0.0063600335 0.048653193 0.0054375366
0001a0 d4 62 72 bc 0c 1f 6d 3d a3 2b 6d 3d e4 3a 5d bc
       -0.01479407 0.057890937 0.057902943 -0.01350281
0001b0 ee 40 c5 3d 74 5a ab 3d 81 38 12 bd dc f8 ff bc
       0.09631525 0.08366862 -0.035698418 -0.031246595
0001c0 0a c6 1b bb b0 c4 a6 bd 0b 2d d2 bd 5c 3c 43 bc
       -0.0023769164 -0.08142984 -0.102624975 -0.011916246
0001d0 b2 b7 a9 3b 9b ab 82 bd 7d 3e bc 3c 1a 5e 4c 3d
       0.005179369 -0.063803874 0.022979015 0.04989443
0001e0 90 32 c3 3c 79 31 0a bc e4 70 50 bd a5 13 4b bc
       0.023827821 -0.008434647 -0.05088891 -0.01239482
0001f0 e7 98 7e bd 0b 4e 24 bd a7 8f 05 bd 8f b1 0c bd
       -0.062157538 -0.04011349 -0.0326077 -0.03434902
000200 f3 94 79 3c 3a 02 ba 3d 68 57 fb 3c ed 3e 6b 3d
       0.015233266 0.09082456 0.030681327 0.057433058
000210 b2 f2 ab 3c 66 55 92 3d 1e 03 6e 3c 80 6a e9 bb
       0.02098975 0.07145195 0.01452711 -0.0071232915
000220 80 c3 3e be 7c 47 27 bc c4 79 b5 3d 02 e7 12 bd
       -0.18629265 -0.010209914 0.088611156 -0.035864837
000230 d9 d4 1a 3d 4d bd a2 bd ee 64 0f bc dd db 87 bc
       0.037800644 -0.079462625 -0.008752091 -0.016584331
000240 9f b3 89 bd 7d d9 b2 bc 78 b0 28 3d 99 0b 1b 3b
       -0.06723713 -0.021832222 0.04118392 0.0023658036
000250 07 0c 9c 3b 8d 0d 49 3d 9f e3 44 bd 55 38 bc 3d
       0.004762176 0.04908519 -0.04806864 0.09190432
000260 6d 0c 0c bd 29 4e 0f 3d 39 b1 6a 3d 24 ed b9 bd
       -0.034191538 0.03498665 0.05729792 -0.09078434
000270 8a 49 a9 bc 9d 75 d8 3c 71 f7 00 bd 15 f2 b6 3d
       -0.020664949 0.02642327 -0.03148598 0.08932892
000280 1d 65 df bc 87 00 be bc cd c0 67 bc 20 cb 52 3d
       -0.027269894 -0.02319361 -0.014145088 0.051463246
000290 cc 2f 89 bc e0 5d 8d 3d 7b 72 6d bd 40 70 2c bd
       -0.016746424 0.06902671 -0.057970505 -0.042099237
0002a0 23 2e b2 3c 85 f3 29 3d df a4 cc bb 57 14 fd 3d
       0.021750515 0.041492004 -0.00624524 0.12357395
0002b0 07 40 5a 3d 41 37 81 bc e7 98 58 bd ae b8 00 bd
       0.053283717 -0.015773417 -0.052880194 -0.031426124
0002c0 97 f2 fa 3b 92 ff 6f bb cf cf d6 3d 26 81 28 3d
       0.0076583135 -0.0036620838 0.10488855 0.04113879
0002d0 e6 e6 ce 3c f9 25 d6 3c f8 e6 a5 3d 6c ac c0 bd
       0.025256585 0.026141154 0.081006944 -0.09407887
0002e0 e1 2b 06 bd a9 0b 9a bb b5 34 8f bd bb 92 98 bd
       -0.03275669 -0.004701097 -0.06992475 -0.074498616
0002f0 07 4f da bd 58 d6 cf 3c ae 59 b2 3c 40 e0 29 bd
       -0.106596045 0.025370762 0.021771278 -0.041473627
000300 73 92 1c be e3 0e de bc e8 fc a4 3d bc 86 e7 3c
       -0.15290241 -0.027106708 0.080560505 0.028262489
000310 a2 01 92 3d d0 f8 40 bd 0b 6a 3b bc e6 76 05 be
       0.07129218 -0.047112286 -0.011438857 -0.13033637
000320 a1 d6 a0 bc 26 d0 71 bd 29 87 30 bd 17 4f 4c 3c
       -0.019633593 -0.059036396 -0.04309765 0.012470028
000330 62 3c 48 bd a0 24 b2 3d 6d 7d 41 3c 48 a6 20 bd
       -0.04888571 0.08698392 0.011809689 -0.03922108
000340 31 96 ae bc 7f 41 e1 bc 02 64 c2 3d 6f ac 1e bb
       -0.021311851 -0.027497051 0.09491731 -0.0024211665
000350 84 ed db 3b ba 67 a6 bd 31 aa 8c bc fd 9d 3e 3d
       0.0067116637 -0.08125253 -0.017170997 0.046537388
000360 eb 7e 8f 3d e0 a2 37 3c 27 8c 9c 3c 3b b9 47 bd
       0.070066296 0.011208266 0.019109799 -0.048760634
000370 48 85 bf 3d dc cd 86 bc 88 28 ce bc ee 63 51 3d
       0.09351593 -0.016455583 -0.025165811 0.05112069
000380 01 e8 31 bc d6 e1 94 3c be ef a6 bb f0 1d 88 bd
       -0.010858537 0.018174093 -0.0050944975 -0.06646335
000390 ca 98 df bb 03 ec e6 bb d6 1c 34 3d de f7 11 bd
       -0.006823634 -0.0070471778 0.043972813 -0.035636775
0003a0 ca d3 09 bd 14 dd af bd 43 4d 98 bb c4 41 08 bd
       -0.033649243 -0.08587089 -0.004647882 -0.033265844
0003b0 a8 88 74 3d c4 bb ae bc 29 08 0b 3e 0f 67 91 bc
       0.059700638 -0.021329768 0.13577332 -0.017749337
0003c0 0c 29 49 3c 35 f5 75 bc 5c ed 50 bd 0b 7c 81 3d
       0.012277853 -0.015012075 -0.051007614 0.063224874
0003d0 58 98 cc bc eb ce 57 bd 66 92 c8 bc 1c 49 12 3d
       -0.024974987 -0.052687567 -0.02448387 0.035714254
0003e0 0e 47 16 3e 53 18 6f 3d 11 17 77 3d 52 38 16 be
       0.14675543 0.058372807 0.060324732 -0.14669922
0003f0 4a 17 bd 3c e0 4d d8 3c 71 fc 97 3d 18 31 df bc
       0.023082394 0.026404321 0.07421196 -0.02724509

conv.2.weight_u f4 [64]
000000 73 ce 63 3d db f6 ae 3c 2f 4d 25 3c 59 ff 10 3c
       0.055616807 0.021357944 0.010089203 0.008849942
000010 64 73 92 3d fc 1a 4f bd 67 fe 5f 3c f0 8d 23 3c
       0.07150915 -0.050562844 0.013671494 0.009982571
000020 ac fa 6c 3e ef 77 df bc d6 d9 25 3d 59 b5 39 bd
       0.23142499 -0.027278868 0.040490948 -0.045338962
000030 17 68 4c bd cf e3 73 bd 5a 16 64 be 4c 91 46 3e
       -0.049903955 -0.059543427 -0.22274151 0.19391364
000040 13 f6 f4 3c 94 84 13 3b d8 ea 88 bc d5 b7 8f bc
       0.029902494 0.0022509443 -0.016713545 -0.017543713
000050 6d ff cf bc 4e c7 82 bd 61 72 82 bd 82 73 8a bd
       -0.025390351 -0.063856706 -0.06369472 -0.067603126
000060 1d 62 bc 3d c4 b7 c9 bb f3 d5 04 be e5 0b 45 3b
       0.09198401 -0.00615594 -0.1297224 0.0030066904
000070 3b c5 6c 3c b4 fe 50 3d 5d a3 1c be 57 c5 c2 bd
       0.01445132 0.051024154 -0.15296693 -0.09510296
000080 a8 41 e1 b9 7b b5 bc bd 87 1a 65 be 57 3e 3b bd
       -0.00042964262 -0.09214302 -0.223734 -0.04571375
000090 d4 c6 e4 bd 04 72 de bd 91 03 8e 3e de 8c c4 bd
       -0.11170736 -0.108615905 0.27737096 -0.09597181
0000a0 43 30 b2 3d 71 13 b1 bd f2 46 7f bd 0f 39 13 bd
       0.087006114 -0.08646286 -0.062323518 -0.035943087
0000b0 3c 67 48 3e 9f 4b 80 bb 22 0e eb 3d bd da 7c bd
       0.19570631 -0.0039152647 0.11477305 -0.061732043
0000c0 38 f6 4f be b8 22 ae 3b db dd e7 bd 18 8e f8 be
       -0.20308769 0.0053141974 -0.113216124 -0.4854591
0000d0 3b 25 0a be 06 c6 6e 3d d0 c0 3e bd 6f 52 42 be
       -0.13490765 0.05829432 -0.0465706 -0.18976758
0000e0 54 83 d6 bd 7b a1 05 3e 7c d7 35 3e ad 2b 41 be
       -0.104742676 0.13049881 0.17757982 -0.18864317
0000f0 94 af ab 3d 4f b5 5d 3e c6 3f fa 3d f4 bb 21 bd
       0.08383098 0.21651195 0.12219195 -0.039485887

conv.2.weight_v f4 [576]
000000 3e 93 c9 b9 d9 08 26 bd 4d e1 a7 bc b4 43 41 3d
       -0.00038447411 -0.04053578 -0.020493174 0.047183707
000010 89 68 f5 3c bc 08 ce 3c 38 d9 29 3d cd 9d 6b bd
       0.029957073 0.02515065 0.04146692 -0.057523537
000020 cd 7a 8d 3d 8d 0d a5 3b 67 79 ab 3b 30 3a e0 3c
       0.06908188 0.005037016 0.005232978 0.027371496
000030 65 77 a4 3d d8 af 5c 3c 08 47 48 bc 11 5a 59 3b
       0.08030585 0.013469659 -0.012223966 0.0033165256
000040 09 9c 0b 3d ca 6a e2 3b 2b 50 6e 3c b5 0b bf bc
       0.034084354 0.006909703 0.014545481 -0.023321012
000050 00 37 35 bd f8 64 14 bd 1d ce 2d bd 66 58 44 3d
       -0.044241905 -0.036229104 -0.042432893 0.047935866
000060 75 99 f0 bc eb be 9d bc 03 35 a7 3d c3 5a 82 3d
       -0.029370049 -0.019256076 0.08164408 0.06364968
000070 f8 95 b1 bc 9d 63 84 3c 66 92 d6 3d 45 b5 8b bd
       -0.021677956 0.01616078 0.10477142 -0.06821684
000080 40 15 1c 3d 4b c8 f0 3c 55 30 25 3c 61 94 1d 3c
       0.038106203 0.029392382 0.010082324 0.009617896
000090 e5 c3 1d 3c 5c ed c7 bb 52 7e e7 3c e9 5e 3a 3d
       0.009629224 -0.0061012935 0.028258476 0.04550067
0000a0 e8 26 2a bc aa 33 a6 bc c4 3c 8e bd 2e 5c 2e bd
       -0.010385253 -0.020288307 -0.06945184 -0.04256838
0000b0 c6 8c 1c bd 99 43 ad ba 77 d8 0b 3d 5a 70 e7 bb
       -0.03822019 -0.0013218998 0.034141984 -0.007062954
0000c0 63 83 81 3d 2e 45 30 3d 1a 02 65 3d 8e ea 23 3d
       0.06323888 0.043034725 0.055910207 0.04001861
0000d0 c4 df 8d bd 2a f5 94 3d e3 19 38 bb eb 44 69 3c
       -0.069274455 0.07273324 -0.0028091602 0.014237623
0000e0 06 04 5e bd 2a 6d b7 3a 8b ce 97 bd dc f4 16 3d
       -0.054203056 0.0013994325 -0.07412442 0.03685461
0000f0 d8 53 98 3c cf fa eb bc 52 1d 76 bc 42 5f 05 bc
       0.018594667 -0.028806118 -0.015021639 -0.008140387
000100 22 f0 29 3d 83 44 cd bc 34 a3 da bc cd 2a 1d 3d
       0.041488774 -0.025057083 -0.02668915 0.038370896
000110 94 03 99 bc d4 56 fd bc 6a 7c 97 bc 51 60 aa bc
       -0.018678464 -0.030925192 -0.018491942 -0.02079788
000120 a2 ff 4a 3d 18 c1 2e 3d b9 d7 1c 3d 30 99 83 3c
       0.049560197 0.042664617 0.038291667 0.016064256
000130 22 c0 6e 3d 38 b1 11 3d c9 df 28 3c ca 6f 31 bd
       0.0582887 0.0355694 0.010307261 -0.0433195
000140 90 3d b3 3c 16 92 0d 3d 3a cd 45 bd 4c 51 ea 3c
       0.021879941 0.034563147 -0.048291422 0.028603218
000150 aa ee 66 3d 75 04 e6 3b d5 eb 67 bc 73 ca 06 bd
       0.05637995 0.0070195743 -0.014155348 -0.032907914
000160 dd d3 b4 bc 1c 39 76 3d 7b 48 36 3d ad b8 12 bd
       -0.02207368 0.060113057 0.044502717 -0.03582065
000170 28 10 90 3d a7 10 f4 bc 97 f1 64 3d 3a 25 4a bd
       0.070343316 -0.029793097 0.05589446 -0.04935191
000180 b6 93 ac bd 83 d3 27 bd b1 e7 9f 3c 61 2b 4f bd
       -0.08426611 -0.040973198 0.019519659 -0.05057848
000190 8d 84 e9 3c da 65 4e bb ac 30 10 3c a6 4c 52 bd
       0.028505588 -0.0031493814 0.008800667 -0.05134263
0001a0 c7 bc b1 3c 79 2f 3e 3d be 9e 9e bc 6d 51 51 3c
       0.021696461 0.046431992 -0.019362804 0.012775761
0001b0 da ad 3e 3d 61 b5 b4 3c 49 ba 89 3b e7 f4 d9 bc
       0.046552517 0.022059144 0.004203115 -0.026606036
0001c0 6e 11 da bc d8 0a 4a bd 4f f9 37 bd 9c 21 55 bb
       -0.02661964 -0.049326748 -0.044915494 -0.0032521253
0001d0 c0 25 35 3d 2c b7 7e bd b7 4c da bc 81 30 af 3d
       0.044225454 -0.062186405 -0.026647909 0.08554173
0001e0 78 60 5c 3d df 0d a8 3d b5 9b 8f bc 8f a6 e6 3a
       0.053802937 0.08205771 -0.017530302 0.0017597246
0001f0 8b 70 00 3c 56 fd 1f 3d e0 bd a8 ba 37 bf 43 3d
       0.007839332 0.03905996 -0.001287397 0.04778978
000200 2c 29 f2 bc 30 2b 82 bc 04 92 8a 3d ef 5d 56 bc
       -0.029560648 -0.015889734 0.067661315 -0.013083919
000210 de d8 29 3d 64 a4 a1 bc 46 5b 9b bc 13 20 9f 3c
       0.041466586 -0.019731708 -0.018964421 0.019424474
000220 3a b9 e0 3c bc c9 08 bd b1 e6 7b 3d 07 37 16 bd
       0.027432073 -0.033395514 0.0614993 -0.036673572
000230 c4 7e 92 bd 42 fb 41 bd 75 cc 04 3d 4a 24 8f 3c
       -0.07153085 -0.04735876 0.032421548 0.017473359
000240 f0 37 59 3d f0 71 8d 3d 13 64 45 b9 30 32 4a 3d
       0.05303186 0.069064975 -0.00018824665 0.04936427
000250 b3 70 f8 bc 97 3f 3f 3d 7b 21 01 3c 49 c7 9d 3d
       -0.030327177 0.046691503 0.0078815175 0.07704026
000260 4b af 95 3a 2c 3c 57 3d 54 03 13 3d ca 9d 1f bd
       0.0011420039 0.05254762 0.035891846 -0.03896884
000270 ae f0 bf 3d cc 8e b4 bb 4b 55 80 3d d0 32 c3 bb
       0.09372078 -0.005510187 0.06266268 -0.005956985
000280 7a ad bf bd 1b e4 fc 3c 71 e0 df 3c 40 70 2b bd
       -0.0935926 0.030870488 0.027328702 -0.041855097
000290 1e 05 29 bd 71 a5 ad 3b 74 e9 08 bd 06 ba eb 3c
       -0.041264646 0.005299263 -0.033425763 0.028775226
0002a0 8d 4b f1 3b cf 96 4b bc a4 5d 39 bd 61 4d 3c 3d
       0.0073637427 -0.012426092 -0.04525532 0.04597223
0002b0 dc ab 9a bd 39 fa 89 3c 69 a3 5c bd 90 1d 3a 3d
       -0.07552311 0.016842948 -0.053866778 0.04543835
0002c0 d4 49 0b 3b 66 55 28 bd 99 84 39 3d d3 9c 62 3d
       0.0021253722 -0.041097067 0.04529247 0.05532534
0002d0 43 ab ac bd da e9 26 bd ec ff ad bc 7a ea 94 3b
       -0.08431103 -0.040750362 -0.021240197 0.0045445533
0002e0 17 d9 a4 bc e8 ee 02 3c f9 ad 1c 3c 17 5d ee bd
       -0.020123048 0.00799153 0.009562963 -0.11638849
0002f0 0a 12 65 bd 16 1e f4 3c f8 56 f5 3c 63 79 85 3d
       -0.055925407 0.029799502 0.029948696 0.06517293
000300 b3 a2 94 3c 2d 1d 6f 3c f5 70 e6 3b b1 0e 41 3d
       0.018143987 0.014594358 0.0070325085 0.04713315
000310 0e ef 95 3d e3 37 2b 3c 5c c2 98 3d 45 6a 56 bd
       0.07320987 0.010450336 0.07458946 -0.05234744
000320 3d 0f 13 3d cd d3 c3 3d ed ab 92 3d 8e f6 6f 3c
       0.035903204 0.09561882 0.071616985 0.014646186
000330 5b 42 00 3d 2e 37 2b 3c 54 7b 21 bb 37 97 ba ba
       0.03131328 0.010450168 -0.002464016 -0.0014235739
000340 46 cb f6 3c 69 e9 2e 3c 51 d8 e4 bc ad e8 81 bb
       0.030126225 0.0106757665 -0.027935179 -0.0039645047
000350 39 71 78 3d be 55 04 3d 42 ef 46 bc f7 a5 76 3c
       0.060654853 0.032308333 -0.012142004 0.015054218
000360 9f c5 11 bd 20 08 00 3b 4c d8 8f 3d ae fb 53 3d
       -0.035588857 0.0019536093 0.07023677 0.051753692
000370 30 53 97 3d 98 18 c1 bc 72 d2 24 bd 8d dd 06 3d
       0.07388914 -0.023571298 -0.04023976 0.03292613
000380 75 77 97 3c 7a f9 9f 3c 2e 1c c1 bc 77 12 8d 3c
       0.018489579 0.01952814 -0.023573007 0.017220719
000390 91 ae b6 bd 82 6a 31 3c 06 2b b9 3b 04 41 47 bc
       -0.08920015 0.010828616 0.0056508807 -0.012161497
0003a0 d9 74 8a 3d 23 ff 43 bd 36 c4 c2 3c 4a 7e a0 3d
       0.06760568 -0.04785074 0.023775201 0.07836588
0003b0 15 b2 22 3d b9 c2 66 bc 91 ec 3b 3d ea 15 dd 3c
       0.039720614 -0.014084511 0.045879904 0.026987989
0003c0 df 18 33 3d 6b 27 ed bb 62 54 ef bc 89 be e1 bc
       0.04372489 -0.007237365 -0.029215042 -0.027556675
0003d0 54 58 c7 3d 76 8c 73 bc c3 f7 2e bd c1 71 16 bd
       0.09733644 -0.0148650315 -0.042716753 -0.036729578
0003e0 c6 1f de bc 61 2f 7e 3c 89 73 e5 3c 42 91 69 bc
       -0.02711476 0.015514226 0.028009193 -0.014255824
0003f0 b5 a1 ec ba 1a 2b b1 3c 00 c9 6d bc f5 75 eb bc
       -0.0018053564 0.021626998 -0.014513254 -0.02874277

w.M2MM f4 [1, 64, 32, 32]
000000 01 cc 85 3f 28 b8 83 3f a7 79 7f 3f cd 7b 7b 3f
       1.0452882 1.0290575 0.99795 0.9823578
000010 69 6c 69 3f 57 63 59 3f 8c 60 80 3f 21 36 7f 3f
       0.91181046 0.84917206 1.0029464 0.9969197
000020 a5 a1 81 3f 3e d7 82 3f 4d 88 7c 3f f9 84 7c 3f
       1.0127455 1.0221937 0.9864548 0.986404
000030 72 7b 82 3f 5d e3 78 3f 13 f8 6c 3f 7d be 6c 3f
       1.0193923 0.9722193 0.9256603 0.9247816
000040 13 65 6e 3f 5c 68 5e 3f 00 ab 62 3f a5 3f 5f 3f
       0.93122977 0.8687799 0.88542175 0.8720649
000050 89 f5 66 3f 64 57 72 3f 75 60 78 3f 82 06 7c 3f
       0.90218407 0.946646 0.9702218 0.9844743
000060 32 08 78 3f 54 05 79 3f 17 f1 82 3f 05 35 87 3f
       0.96887505 0.97273755 1.0229825 1.0563055
000070 34 de 7a 3f 3a 55 7f 3f 33 38 79 3f 1b d5 85 3f
       0.97995305 0.9973942 0.9735138 1.045566
000080 ae 46 84 3f d5 43 80 3f 78 c8 7b 3f 58 f5 80 3f
       1.033407 1.0020701 0.98352766 1.0074873
000090 72 10 80 3f 63 63 7f 3f ec 9e 82 3f 2b b1 81 3f
       1.0005019 0.9976103 1.0204749 1.0132192
0000a0 31 9b 81 3f c0 bf 7f 3f 54 e1 81 3f a4 12 80 3f
       1.0125486 0.9990196 1.014689 1.0005689
0000b0 f0 8e 80 3f af 1d 7f 3f 2f 65 80 3f 20 3a 7e 3f
       1.0043621 0.9965467 1.0030879 0.9930744
0000c0 9c f7 7a 3f 87 2f 78 3f 62 2b 7b 3f c5 d2 7c 3f
       0.9803407 0.9694752 0.9811307 0.9875911
0000d0 a8 c8 7c 3f 6c 9a 7d 3f 56 57 80 3f 3f 02 81 3f
       0.9874368 0.99063754 1.0026653 1.007881
0000e0 52 f7 80 3f b1 a3 7e 3f 49 77 7f 3f 0a 28 81 3f
       1.0075476 0.99468523 0.9979139 1.0090344
0000f0 3e 30 7e 3f e8 f6 79 3f f4 68 77 3f 24 e1 82 3f
       0.9929236 0.97642374 0.9664452 1.0224957
000100 23 c4 81 3f c3 b8 80 3f ec 93 7a 3f e8 e2 75 3f
       1.0137981 1.0056385 0.9788196 0.96049356
000110 81 05 79 3f 18 bb 79 3f ee 7e 7d 3f 74 17 80 3f
       0.97274023 0.9755111 0.99021804 1.0007157
000120 1c 60 78 3f c0 b6 6a 3f 92 b2 76 3f 42 b9 70 3f
       0.9702165 0.91685104 0.96366227 0.9403268
000130 99 1d 7d 3f 6b 6c 73 3f 5a 75 7b 3f 78 a2 79 3f
       0.9887329 0.9508731 0.9822594 0.9751353
000140 93 f6 7d 3f 4d 0f 7a 3f 69 4c 7d 3f 66 9d 7b 3f
       0.9920437 0.976796 0.9894472 0.98287046
000150 2d 0f 7c 3f 99 66 7b 3f b2 ff 78 3f ae c1 76 3f
       0.98460656 0.98203427 0.9726516 0.9638928
000160 46 96 7a 3f 32 5d 72 3f ec f7 7b 3f 6d 5a 7f 3f
       0.9788555 0.94673455 0.98425174 0.99747354
000170 8a 0b 77 3f a5 d0 79 3f a6 9f 6e 3f ee dc 80 3f
       0.9650198 0.9758399 0.93212354 1.0067422
000180 d1 30 82 3f a1 1f 80 3f c9 24 7d 3f b7 ff 76 3f
       1.0171148 1.0009652 0.98884255 0.9648394
000190 07 0f 77 3f df 0c 7b 3f b3 c1 77 3f 2d e3 6e 3f
       0.96507305 0.98066515 0.96779937 0.9331539
0001a0 1e 8f 6f 3f 60 96 74 3f 0f 74 6a 3f d9 3c 6d 3f
       0.93577754 0.95541954 0.9158334 0.9267097
0001b0 78 c0 6d 3f 6f 62 70 3f a3 b6 76 3f ca 73 78 3f
       0.9287181 0.939002 0.9637243 0.9705168
0001c0 dd 54 81 3f 2c 54 7f 3f fd 67 83 3f 45 cd 7d 3f
       1.0104023 0.9973781 1.026611 0.9914134
0001d0 96 32 7d 3f dd 71 76 3f fd 6f 76 3f d1 33 73 3f
       0.98905313 0.9626749 0.9626463 0.9500094
0001e0 d1 d9 6a 3f 21 70 5e 3f d8 bb 64 3f 47 95 74 3f
       0.9173861 0.86889845 0.89349127 0.9554028
0001f0 75 31 79 3f 43 09 82 3f 8b 0b 6a 3f 22 ca 7c 3f
       0.9734109 1.0159076 0.91423863 0.9874593
000200 6c 9f 81 3f 28 f4 80 3f 43 c1 6a 3f 47 4b 81 3f
       1.0126777 1.007451 0.91701144 1.0101098
000210 84 48 80 3f e9 bd 7f 3f 8d 5a 7e 3f 8b e7 7e 3f
       1.002213 0.99899155 0.9935692 0.99572057
000220 df 16 80 3f bd d5 7c 3f 8f 0f 7c 3f 01 bf 73 3f
       1.000698 0.9876364 0.9846124 0.95213324
000230 6f 4c 7e 3f 8f 71 7b 3f 2c 16 78 3f f4 00 79 3f
       0.9933538 0.9822015 0.9690883 0.9726708
000240 99 35 7e 3f a8 ee 7a 3f 79 b8 7c 3f c4 2e 75 3f
       0.99300534 0.9802041 0.9871898 0.95774484
000250 00 a3 6d 3f 85 89 74 3f 08 8e 6f 3f ec 32 66 3f
       0.92826843 0.9552234 0.935761 0.8992145
000260 d6 a9 6b 3f cb 0f 6b 3f cd 3a 76 3f af 3d 7f 3f
       0.92056024 0.91820973 0.9618347 0.99703497
000270 4a 5e 7e 3f 2b 15 82 3f 0c cb 71 3f c6 57 7a 3f
       0.99362624 1.016271 0.9445045 0.9779018
000280 03 b7 82 3f e5 91 81 3f 7f 73 70 3f 7f 30 80 3f
       1.0212101 1.0122648 0.93926233 1.00148
000290 e9 16 80 3f 37 6e 7f 3f b1 25 7d 3f 95 dd 7c 3f
       1.0006992 0.9977755 0.9888564 0.9877561
0002a0 82 75 79 3f 8a 21 7b 3f 56 5d 71 3f 2e d1 75 3f
       0.9744493 0.9809805 0.94283044 0.9602231
0002b0 c7 cc 68 3f 52 2f 6d 3f 85 a4 72 3f 2e 23 79 3f
       0.90937465 0.9265033 0.94782287 0.97319305
0002c0 fd d1 7a 3f 8d 63 7e 3f 70 01 74 3f a6 f6 71 3f
       0.97976667 0.9937065 0.95314693 0.9451698
0002d0 03 91 77 3f 87 7a 70 3f f6 ca 72 3f b4 75 6d 3f
       0.96705645 0.9393696 0.94840944 0.92757726
0002e0 00 5d 74 3f 00 03 77 3f 58 ed 70 3f 3a bc 7d 3f
       0.95454407 0.9648895 0.9411216 0.99115336
0002f0 eb f0 7c 3f 6c 38 80 3f 44 7b 71 3f a3 f1 79 3f
       0.9880511 1.0017219 0.94328713 0.97634333
000300 fe 06 82 3f ad 87 81 3f 5f a3 66 3f d7 19 81 3f
       1.0158384 1.011953 0.90093035 1.0086011
000310 6e 79 7f 3f ec 41 80 3f 8b 8f 80 3f 66 b4 7c 3f
       0.9979466 1.0020118 1.0043806 0.98712766
000320 95 a4 7b 3f 4f e8 78 3f 75 7e 69 3f fa 3c 77 3f
       0.9829801 0.97229475 0.91208583 0.9657742
000330 83 32 76 3f 21 bf 77 3f 3b d2 77 3f a7 91 69 3f
       0.96170825 0.96776015 0.9680516 0.9123787
000340 17 cc 72 3f 04 6e 7a 3f f1 34 71 3f c2 71 7a 3f
       0.94842666 0.9782412 0.9422141 0.9782983
000350 57 92 78 3f e6 b2 70 3f 34 5b 79 3f f6 82 74 3f
       0.97098297 0.9402298 0.9740479 0.9551233
000360 82 2a 6c 3f eb a1 73 3f 79 da 71 3f 8a 9e 7d 3f
       0.9225236 0.9516894 0.9447399 0.99070036
000370 58 c9 79 3f af 90 7d 3f 27 7b 5f 3f cd 43 7c 3f
       0.9757285 0.99048895 0.8729729 0.98540956
000380 0a 5f 82 3f 8b 60 81 3f 31 77 51 3f 02 8a 7e 3f
       1.0185254 1.0107588 0.81822497 0.99429333
000390 6a 05 80 3f cf 1c 80 3f 00 74 7f 3f 81 0a 7f 3f
       1.0001652 1.0008792 0.99786377 0.996254
0003a0 a8 96 78 3f d4 27 7b 3f 92 96 7a 3f 9e b6 7a 3f
       0.97104883 0.9810765 0.97886 0.979349
0003b0 2c da 72 3f 19 a2 77 3f a7 ee 71 3f 24 f1 71 3f
       0.94864154 0.96731716 0.9450478 0.94508576
0003c0 40 0c 77 3f 26 58 78 3f aa c2 7c 3f bb be 7c 3f
       0.96503067 0.97009504 0.98734534 0.9872853
0003d0 b9 b9 79 3f 9c 21 79 3f 1c 7c 6c 3f 9d 84 78 3f
       0.97549015 0.9731691 0.92376876 0.9707735
0003e0 21 8d 73 3f 32 0a 6e 3f b2 00 55 3f 48 89 7c 3f
       0.9513722 0.92984307 0.83204186 0.98646975
0003f0 00 89 7c 3f e5 c3 7d 3f 86 0d 51 3f b1 45 7a 3f
       0.98646545 0.99127036 0.8166126 0.9776259

w.MM2M f4 [1, 64, 32, 32]
000000 7c d0 6a 3f bf 3d 7a 3f c4 ff 71 3f 2c d6 5a 3f
       0.9172437 0.9775047 0.9453089 0.8548305
000010 0d 86 52 3f ad 4c 5c 3f 94 c9 63 3f 84 26 63 3f
       0.82235795 0.860545 0.8897946 0.88730645
000020 0b be 60 3f fb f4 62 3f e8 36 62 3f 98 45 63 3f
       0.8778998 0.8865506 0.8836503 0.88778067
000030 e1 d6 5f 3f c3 89 5d 3f c9 ea 5c 3f b7 5f 64 3f
       0.87437254 0.8653833 0.86295754 0.8920855
000040 26 c2 68 3f 02 57 63 3f e4 1a 5e 3f a1 73 60 3f
       0.90921247 0.8880464 0.8675978 0.87676436
000050 e5 23 5f 3f e3 45 63 3f 47 1f 6c 3f 61 2a 6d 3f
       0.87164146 0.88778514 0.92235225 0.9264279
000060 38 b0 6d 3f 0f 1e 69 3f 43 96 6a 3f b9 d8 65 3f
       0.92847013 0.9106149 0.9163553 0.8978382
000070 9d c6 65 3f 59 48 75 3f 6f 37 4a 3f 17 ab 78 3f
       0.89756185 0.9581352 0.78990835 0.9713606
000080 63 ae 64 3f ea 8b 7c 3f 52 1d 6e 3f 52 6e 6d 3f
       0.89328593 0.9865099 0.9301349 0.9274646
000090 ed 21 72 3f 2a 71 74 3f bf 10 76 3f 68 06 75 3f
       0.94583017 0.95485175 0.961193 0.957129
0000a0 3d ff 6e 3f d0 f2 6f 3f 12 e8 6d 3f e6 52 6b 3f
       0.9335821 0.9372988 0.92932236 0.9192337
0000b0 6f c2 6e 3f 52 7b 6b 3f c7 14 6d 3f 8a c2 6f 3f
       0.9326543 0.91985047 0.9260983 0.9365622
0000c0 3c 4c 71 3f c2 4a 78 3f 10 e8 77 3f 2b 8b 7b 3f
       0.9425695 0.9698907 0.96838474 0.9825923
0000d0 1d ff 75 3f bf d7 76 3f da 98 7a 3f a7 02 7d 3f
       0.96092397 0.9642295 0.9788948 0.9883217
0000e0 ef 11 78 3f 77 7c 71 3f d9 48 71 3f 8e a4 6f 3f
       0.96902364 0.94330543 0.9425178 0.93610466
0000f0 44 c5 6a 3f dd 4a 79 3f 11 5d 68 3f bd 77 7d 3f
       0.91707253 0.9737986 0.9076701 0.9901083
000100 72 fa 79 3f d3 37 7d 3f 5e 9a 73 3f cd 2e 6b 3f
       0.97647774 0.98913306 0.9515742 0.9186829
000110 f1 2a 74 3f 4a b5 78 3f 5e 84 73 3f e1 40 6d 3f
       0.95378023 0.97151625 0.9512385 0.9267712
000120 41 11 64 3f de 5f 61 3f bb 4b 64 3f 0a c3 69 3f
       0.8908883 0.88036907 0.89178056 0.9131323
000130 d4 d2 6d 3f 1d e4 69 3f 9e 2a 69 3f ac af 71 3f
       0.92899823 0.913637 0.91080654 0.9440868
000140 77 2b 6a 3f cf cb 70 3f f9 7a 6e 3f 3a 6e 74 3f
       0.9147257 0.9406099 0.9315639 0.9548069
000150 fe 3a 70 3f 79 95 71 3f 95 00 6f 3f a4 15 70 3f
       0.93840015 0.943687 0.93360263 0.9378302
000160 80 20 74 3f 17 13 66 3f 18 78 71 3f c3 e2 76 3f
       0.9536209 0.8987288 0.94323874 0.9643976
000170 32 12 75 3f a7 d2 71 3f a4 93 59 3f fb 75 7d 3f
       0.9573089 0.94462055 0.84990907 0.9900815
000180 7f b4 78 3f c5 fa 7d 3f 64 06 78 3f 73 df 62 3f
       0.97150415 0.9921077 0.9688475 0.88622206
000190 72 5e 46 3f 58 31 52 3f 24 20 58 3f 90 c6 37 3f
       0.7748786 0.8210654 0.8442404 0.7178736
0001a0 67 26 3e 3f 9d eb 4c 3f e2 3f 4a 3f 69 29 54 3f
       0.7427735 0.8004702 0.7900373 0.82875687
0001b0 17 81 5c 3f 89 c7 66 3f ab bf 62 3f 3c 52 72 3f
       0.86134475 0.90148216 0.8857371 0.9465673
0001c0 55 c4 6b 3f 7e 9c 6c 3f a4 ed 74 3f ac 76 80 3f
       0.92096454 0.9242629 0.9567511 1.0036216
0001d0 ae fa 7f 3f 10 f5 72 3f 57 57 74 3f ff 63 74 3f
       0.9999188 0.94905186 0.9544577 0.9546508
0001e0 89 85 6b 3f c2 ae 53 3f 4e d5 50 3f b1 db 59 3f
       0.92000633 0.82688534 0.8157548 0.8510085
0001f0 15 c7 69 3f 8e 5e 6f 3f d0 0f 56 3f f7 91 73 3f
       0.913194 0.93503654 0.8361788 0.951446
000200 8b b2 78 3f e9 72 7e 3f d2 10 3f 3f 2e 27 71 3f
       0.97147435 0.9939409 0.7463504 0.9420041
000210 0f 82 78 3f 86 0e 72 3f 4e 05 69 3f 15 93 6b 3f
       0.97073454 0.9455341 0.9102372 0.92021304
000220 b4 43 6e 3f 51 93 64 3f 4f e6 64 3f fd 2c 67 3f
       0.93072057 0.89287287 0.89413923 0.9030302
000230 3d 6e 6c 3f 1d 95 6f 3f b6 b9 6f 3f 49 15 76 3f
       0.9235571 0.93586904 0.9364275 0.9612623
000240 cf e6 6f 3f ec 71 72 3f 13 af 6e 3f 91 18 78 3f
       0.9371156 0.9470508 0.9323589 0.96912485
000250 38 07 80 3f c3 b1 77 3f 5f cf 76 3f 94 9f 71 3f
       1.0002203 0.9675562 0.96410173 0.9438412
000260 f0 af 75 3f 1b c2 64 3f 3a 0e 69 3f 1b 94 66 3f
       0.95971584 0.8935868 0.91037333 0.9006974
000270 09 31 75 3f b8 b7 7c 3f 59 2b 5e 3f b2 90 79 3f
       0.95777947 0.9871783 0.86784893 0.9748641
000280 05 e5 77 3f 42 54 7e 3f de 65 50 3f b0 fe 62 3f
       0.9683383 0.9934732 0.81405437 0.8866987
000290 c9 d4 71 3f 71 92 6a 3f d9 92 68 3f 6f ce 56 3f
       0.9446531 0.916297 0.9084907 0.8390874
0002a0 bf 25 62 3f 71 d7 65 3f 52 41 61 3f 6b 78 63 3f
       0.88338846 0.8978186 0.87990296 0.8885562
0002b0 eb 81 6c 3f 00 29 76 3f 16 07 78 3f ff f5 81 3f
       0.9238574 0.9615631 0.9688581 1.0153197
0002c0 f9 30 83 3f 5a f4 86 3f 78 4c 84 3f d3 22 83 3f
       1.024932 1.054332 1.0335836 1.0245003
0002d0 93 89 81 3f 0b d3 7c 3f 14 1e 7d 3f 45 93 77 3f
       1.0120109 0.98759526 0.9887402 0.9670909
0002e0 6e d1 73 3f 12 2d 68 3f 83 3e 69 3f b8 51 69 3f
       0.9524144 0.9069377 0.9111101 0.9114032
0002f0 60 6b 70 3f 91 da 72 3f 99 5a 38 3f 1e d9 79 3f
       0.9391384 0.94864756 0.7201324 0.9759692
000300 15 54 78 3f d5 e0 7d 3f 9f 4f 34 3f b1 d4 62 3f
       0.970033 0.9917119 0.7043399 0.8860579
000310 e0 8c 6e 3f 44 a3 73 3f 9f 58 61 3f 84 53 53 3f
       0.9318371 0.95171 0.8802585 0.8254931
000320 e6 57 5f 3f f1 2e 64 3f e4 87 6b 3f d3 86 6a 3f
       0.872435 0.89134127 0.9200423 0.91611975
000330 2b 61 77 3f 6f c9 79 3f 55 16 80 3f db 03 81 3f
       0.9663264 0.9757299 1.0006815 1.0079302
000340 78 c9 7e 3f 48 26 82 3f 4c 8f 82 3f 07 64 80 3f
       0.99526167 1.0167933 1.0199981 1.0030526
000350 1e fc 7e 3f f5 66 79 3f a8 d8 7a 3f 4a 01 7b 3f
       0.9960345 0.97422725 0.9798684 0.9804884
000360 33 44 6f 3f 5d 38 6b 3f 31 bc 63 3f e7 71 6a 3f
       0.9346344 0.9188288 0.8895903 0.9158005
000370 11 47 69 3f c3 7b 69 3f e0 49 20 3f 18 82 7b 3f
       0.91124064 0.9120447 0.62612724 0.9824538
000380 74 d8 78 3f ad 51 7e 3f e4 35 2c 3f 6b 59 5f 3f
       0.9720528 0.9934338 0.6726973 0.87245816
000390 8c 67 6f 3f 25 b4 70 3f 8b 5d 5f 3f c6 7e 5a 3f
       0.93517375 0.9402488 0.8725211 0.8534969
0003a0 37 20 5f 3f 19 4b 6b 3f 40 bf 76 3f 34 c6 76 3f
       0.8715853 0.91911465 0.96385574 0.96396184
0003b0 80 c8 80 3f fe 9d 81 3f 11 8a 81 3f 43 6f 81 3f
       1.0061188 1.012634 1.012026 1.0112079
0003c0 47 b2 77 3f dd 77 7e 3f 21 51 7e 3f 5b 3c 82 3f
       0.96756405 0.99401647 0.9934254 1.0174669
0003d0 f7 d0 7c 3f c0 12 7d 3f 40 23 79 3f a2 33 75 3f
       0.98756355 0.98856735 0.9731941 0.9578191
0003e0 82 6c 76 3f 9b 55 6f 3f ab 46 60 3f c5 02 62 3f
       0.9625932 0.9349 0.8760783 0.88285476
0003f0 c8 ff 63 3f 5c 5e 66 3f 4b ed 61 3f 29 0a 76 3f
       0.89062166 0.8998773 0.88252705 0.96109253
