checkpoint/clf/experint_name/1000/netG.pth (torch, 244594 bytes, 32 tensors)

model.0.bias f4 [32]
-0.021681406 -0.02876788 0.008590583 -0.001562193 -0.027102765 0.054029655 0.02496155 0.0008627735
-0.050854612 0.0440727 0.00792193 -0.031013113 0.04012798 0.040730584 0.006267447 0.016498756
-0.021300878 0.009624165 -0.04531218 -0.035807837 0.05000451 -0.019256987 0.03964149 -0.01313971
-0.0076671727 -0.04326255 -0.052393943 -0.05334817 0.05215617 0.05163167 0.021044891 -0.017568864
00000000: 349d b1bc 9eaa ebbc 84bf 0c3c 80c2 ccba
00000010: 9e06 debc 334e 5d3d 2a7c cc3c c02b 623a
00000020: ed4c 50bd 9385 343d fcca 013c 360f febc
00000030: 3d5d 243d 1dd5 263d 285f cd3b 6628 873c
00000040: 2e7f aebc acae 1d3c 4499 39bd 3dab 12bd
00000050: 87d1 4c3d d4c0 9dbc 1d5f 223d f047 57bc
00000060: e83c fbbb 1234 31bd 089b 56bd 9c83 5abd
00000070: b5a1 553d bb7b 533d 5666 ac3c 94ec 8fbc

model.0.weight_orig f4 [64, 32, 3, 3]
-0.005322106 -0.012059782 0.004408788 0.0029423647 0.026197474 -0.05286548 0.0012187622 0.028255623
-0.004825484 0.015642148 0.055354048 -0.041599475 -0.003196951 0.020330783 -0.040957373 -0.007400293
-0.008134417 -0.050860647 0.05309206 -0.016761772 -0.0039241463 -0.03698535 0.000938721 -0.008180317
-0.033777937 -0.050645873 -0.034513094 -0.039289266 -0.010142289 0.036577266 0.043751527 0.049119096
-0.009101704 0.030907381 -0.043255292 0.057266515 -0.030207714 -0.05421361 -0.052582204 -0.050040215
0.0204111 0.031705644 -0.029590888 -0.033532552 -0.052531764 -0.032366306 0.0122588165 -0.0063448064
-0.021172792 -0.01131428 -0.04731562 -0.018820457 0.044044208 -0.05204855 -0.0045023784 -0.02943156
-0.055820424 0.011303309 -0.019974563 0.056824114 0.039327387 -0.029175784 -0.010561291 0.040943388
-0.02541263 0.007862907 -0.009425376 0.032531317 -0.045472212 -0.027997555 -0.033941615 -0.036225997
-0.041437376 0.035791542 0.041415963 -0.04171719 0.010163169 -0.024780907 0.03986085 -0.035563104
0.055771377 -0.006413661 0.045922372 -0.022201676 0.024931084 -0.025793977 0.012422737 0.05655891
-0.036127515 -0.05518811 0.004422944 -0.053181723 0.03995781 -0.03323149 0.0291305 -0.0023566484
-0.014475081 0.047937255 -0.036771365 -0.051326536 0.03816204 0.004273761 -0.047292277 -0.004964534
0.051384185 0.021860104 -0.008799799 0.017997798 0.005570207 0.03814013 -0.018357616 0.045498397
0.050406497 -0.04117207 -0.016368657 -0.01305576 -0.043030478 0.0017070808 -0.02896337 0.003425505
0.04117276 0.016453724 -0.041967873 0.035136964 -0.05075683 -0.021845661 0.02077001 -0.0006069504
0.034996767 -0.0140799135 0.020031635 0.039710853 -0.03788662 0.05479722 -0.03644739 0.03374583
0.032459836 0.057351273 0.052833278 -0.042888634 0.02279402 -0.029642567 -0.04331547 -0.023091633
0.037300963 -0.05214645 -0.037096217 0.011873852 -0.05448366 0.040799115 0.042178843 -0.031224092
0.03488384 0.045723323 0.00027579442 0.01375917 0.04545449 -0.0012362003 -0.021749087 0.047416862
0.046494674 -0.021646068 0.05021889 -0.04433219 0.019838568 0.0030552447 0.020170111 -0.05702623
0.034117337 0.04198802 0.026146855 0.029834013 -0.022563953 0.023849074 -0.016870998 0.012436446
0.058338057 0.003981974 0.01659907 0.020017881 0.024687547 -0.023967158 -0.051794887 0.038569164
-0.055571843 0.029403072 0.04684199 -0.04537661 -0.0013846979 -0.016902622 0.055545334 -0.03349562
-0.0474787 0.02063251 -0.009306852 0.05054083 0.0023739487 -0.053287525 0.0023488514 -0.051582083
0.008905303 0.028845865 0.050890822 -0.029281698 -0.048602756 -0.04236016 -0.03462296 0.0051726364
0.02192789 -0.01669773 -0.0475619 0.012591857 0.019571114 -0.0070492364 -0.05059158 -0.04200631
-0.026820295 -0.0063266903 0.017446537 -0.05362271 0.040274505 0.020153027 -0.04363273 -0.007557079
0.051116172 -0.0035991035 0.016439077 -0.035788707 -0.0510721 0.0038213693 0.042577688 0.048100125
0.057536293 0.03640337 0.038258765 -0.013216484 -0.012571212 0.046023604 -0.026687019 -0.03701471
0.04049622 0.008059289 0.023696426 -0.045995362 0.057560433 -0.031249922 0.003038831 -0.017309908
-0.04907502 0.055844408 0.026592035 0.014828559 0.027560879 0.012866225 -0.022883907 -0.050712675
00000000: 1065 aebb 6496 45bc 9877 903b b0d4 403b
00000010: 169c d63c 7989 58bd e0be 9f3a 5678 e73c
00000020: 181f 9ebb f623 803c edba 623d 3664 2abd
00000030: f083 51bb be8c a63c ebc2 27bd 287e f2bb
00000040: 3846 05bc 4153 50bd 0f77 593d fc4f 89bc
00000050: 2096 80bb f37d 17bd 8014 763a bc06 06bc
00000060: bc5a 0abd 0c72 4fbd 9a5d 0dbd c8ed 20bd
00000070: d82b 26bc 0bd2 153d cd34 333d 1b31 493d
00000080: 501f 15bc 7a31 fd3c 762c 31bd 4b90 6a3d
00000090: 2b76 f7bc 170f 5ebd 7060 57bd f8f6 4cbd
000000a0: 2e35 a73c c7dd 013d 9768 f2bc 6e59 09bd
000000b0: 8c2b 57bd 8892 04bd 34d9 483c 18e8 cfbb
000000c0: 9072 adbc 885f 39bc 06ce 41bd 5c2d 9abc
000000d0: b367 343d dc30 55bd b088 93bb 741a f1bc
000000e0: f5a3 64bd 8431 393c b2a1 a3bc 67c0 683d
000000f0: c115 213d 0e02 efbc 4409 2dbc 41b4 273d
00000100: 262e d0bc 6cd3 003c e46c 1abc 8f3f 053d
00000110: 1241 3abd 215b e5bc 5d06 0bbd b661 14bd
00000120: 3dba 29bd 279a 123d c9a3 293d a5df 2abd
00000130: 6c83 263c 5401 cbbc 2145 233d 9eaa 11bd
00000140: 8770 643d b029 d2bb 1919 3c3d 4ae0 b5bc
00000150: 463c cc3c e44d d3bc bc88 4b3c 51aa 673d
00000160: 72fa 13bd ed0c 62bd 58ee 903b 14d5 59bd
00000170: cdaa 233d be1d 08bd 16a3 ee3c 0072 1abb
00000180: e428 6dbc db59 443d 929d 16bd c63b 52bd
00000190: cd4f 1c3d e80a 8c3b 8cb5 41bd 88ad a2bb
000001a0: 3978 523d f613 b33c 082d 10bc 1e70 933c
000001b0: 4886 b63b d338 1c3d b662 96bc 875c 3a3d
000001c0: 0b77 4e3d 0ba4 28bd 9017 86bc d4e7 55bc
000001d0: ba40 30bd 20c0 df3a 9744 edbc 707e 603b
000001e0: c5a4 283d f6c9 863c 81e6 2bbd c7eb 0f3d
000001f0: 65e6 4fbd acf5 b2bc de25 aa3c c01b 1fba
00000200: c558 0f3d 70af 66bc 6219 a43c d9a7 223d
00000210: 002f 1bbd 0d73 603d dc49 15bd 1139 0a3d
00000220: 9bf4 043d 2be9 6a3d b567 583d feab 2fbd
00000230: 86ba ba3c f8d4 f2bc 906b 31bd aa2a bdbc
00000240: e5c8 183d 8497 55bd 34f2 17bd 8c8a 423c
00000250: 422a 5fbd f91c 273d b9c3 2c3d abc9 ffbc
00000260: 5be2 0e3d 6148 3b3d 8098 9039 246e 613c
00000270: 7d2e 3a3d 0008 a2ba 242b b2bc 2f38 423d
00000280: 3371 3e3d 1853 b1bc 53b2 4d3d ac95 35bd
00000290: 7e84 a23c 803a 483b ca3b a53c 5694 69bd
000002a0: 9fbe 0b3d a1fb 2b3d ee31 d63c 7666 f43c
000002b0: 0ad8 b8bc 225f c33c 0c35 8abc 3cc2 4b3c
000002c0: e3f3 6e3d 387b 823b c6fa 873c 8afc a33c
000002d0: 8a3d ca3c c656 c4bc e026 54bd b3fa 1d3d
000002e0: 4d9f 63bd b6de f03c 63dd 3f3d d3dc 39bd
000002f0: c07e b5ba 5e77 8abc 8183 633d b432 09bd
00000300: 0679 42bd 8205 a93c c47b 18bc e703 4f3d
00000310: 4094 1b3b 0544 5abd 30ef 193b bc47 53bd
00000320: 8ce7 113c 2a4e ec3c e572 503d 2ce0 efbc
00000330: af13 47bd d981 2dbd ced0 0dbd 387f a93b
00000340: 1ea2 b33c aec9 88bc 44d0 42bd 144e 4e3c
00000350: 9a53 a03c 48fd e6bb 1e39 4fbd cf0e 2cbd
00000360: 3cb6 dbbc 2050 cfbb 0aec 8e3c 7da3 5bbd
00000370: e1f6 243d f617 a53c 3cb8 32bd 60a1 f7bb
00000380: 315f 513d f0de 6bbb 3eab 863c 2e97 12bd
00000390: fa30 51bd f06f 7a3b f165 2e3d a304 453d
000003a0: 2dab 6b3d b31b 153d 39b5 1c3d f489 58bc
000003b0: 7cf7 4dbc 3f83 3c3d bc9e dabc bd9c 17bd
000003c0: 5ddf 253d 1c0b 043c 021f c23c a265 3cbd
000003d0: 7dc4 6b3d d6ff ffbc 2027 473b 82cd 8dbc
000003e0: e302 49bd 1bbd 643d 8ad7 d93c 7cf3 723c
000003f0: 5ac7 e13c dccc 523c 0877 bbbc 18b8 4fbd

model.0.weight_u f4 [32]
-0.02460519 0.034596942 -0.14638734 -0.27721724 0.110550664 -0.34564963 -0.37109464 -0.33409452
0.14402251 0.00081509457 0.14875157 0.004894858 -0.15512808 -0.35790405 -0.0638553 -0.028624574
-0.08810469 0.1281596 -0.03517835 0.036467083 0.11204177 -0.04634486 -0.12462656 -0.23233266
0.32642344 0.07498914 -0.117189735 -0.123092145 -0.05486088 -0.10608541 -0.22046386 0.06361964
00000000: d390 c9bc 86b5 0d3d 90e6 15be 6bef 8dbe
00000010: 6368 e23d fdf8 b0be 1e00 bebe 700e abbe
00000020: a37a 133e 12ac 553a 5552 183e 0c65 a03b
00000030: e5d9 1ebe 333f b7be 91c6 82bd 157e eabc
00000040: 3b70 b4bd 453c 033e 2c17 10bd 825e 153d
00000050: 2876 e53d 1cd4 3dbd 363c ffbd 9de8 6dbe
00000060: f920 a73e e893 993d 2c01 f0bd bc17 fcbd
00000070: cdb5 60bd 4f43 d9bd 47c1 61be 044b 823d

model.0.weight_v f4 [576]
-0.028862016 0.06716478 -0.0055596167 -0.02235078 0.025626067 0.031997107 -0.009135686 -0.102534786
-0.06770729 -0.0024075662 0.03071069 0.015651902 -0.024774818 -0.010317283 -0.010656656 -0.02321264
-0.10791666 -0.05733283 0.015288024 -0.006508345 0.047678884 0.0061119967 0.06141021 -0.012014677
-0.017182814 -0.0812223 -5.6610934e-05 0.020481218 -0.017128916 0.0051705614 0.007957155 -0.010686219
0.057635296 -0.017170202 -0.026824215 0.019827064 -0.001898053 0.008532159 0.07279238 -0.0685031
0.0825295 0.022739 -0.019569576 0.003669749 -0.026511302 -0.016039273 -0.04025762 0.02017908
0.030481456 -0.05370106 -0.06328371 0.04006223 0.006581889 0.016405307 0.036738142 0.044093426
-0.0036618004 0.078595184 0.008973541 0.01661758 -0.0069563487 -0.018030997 0.029961608 0.05268224
0.0069786077 -0.025847046 -0.07442768 0.06259368 -0.03537877 -0.042157196 -0.006825033 -0.08603409
-0.034315806 -0.0054204944 0.08130434 0.077090874 0.029409148 -0.046118714 -0.05025631 0.01640971
0.045616485 -0.01702148 -0.008605061 -0.021434644 -0.027702367 -0.025695905 0.012355591 0.014941744
-0.002919274 -0.015357961 0.0022291734 -0.008890199 -0.0018191639 0.021569476 0.05333092 0.019436788
-0.031352516 0.004831966 -0.024836957 0.024644822 0.00024125539 0.009951733 -0.04424538 0.07988385
-0.011760544 0.0021472762 -0.031962436 -0.045787476 0.045181036 -0.02784801 -0.02670707 0.022391502
-0.039213117 -0.09456379 -0.015072011 0.015270216 -0.08421093 -0.048649155 0.015580071 -0.024373518
0.040251713 -0.011482708 -0.006196537 0.021097163 0.042960364 -0.046096604 -0.052127607 -0.038314078
0.032999072 -0.004417332 0.042756844 0.042659618 0.040641207 0.06289011 0.050492145 -0.065414935
0.027380748 0.0070053823 0.00041019495 -0.026012614 0.029301414 0.013352923 0.010594195 0.010073287
0.03148364 0.045956474 -0.061334167 -0.050215453 -0.03485771 -0.009943153 -0.03725004 -0.034282234
0.025876952 -0.05111349 0.034330223 0.04216414 -0.04111706 -0.079436384 0.02266279 -0.05223771
0.01018634 -0.0008626621 0.055214226 -0.04801908 -0.027772784 0.029361727 0.08207535 0.009924196
0.03151243 0.03265394 -0.0245039 -0.004207024 0.009322613 0.06495391 -0.066136084 -0.07585617
0.026990987 0.03681671 -0.0477718 0.021992432 0.017899975 0.010012139 -0.034662127 0.08797167
-0.036449738 0.057318054 -0.03696035 -0.093397565 -0.033962745 -0.041039735 -0.03716923 -0.051719446
0.02797047 0.05046251 0.0092152385 -0.020187305 0.032576118 -0.062483776 -0.007999021 -0.030685194
0.061828163 0.013212343 0.00720766 -0.1240671 0.029697526 0.02614848 -0.011600604 -0.008717985
-0.005654223 0.042187493 -0.034293637 0.045186874 -0.044281367 -0.022530941 -0.043541204 -0.030509856
-0.07188226 -0.079367116 -0.020461049 0.035301205 -0.018825658 -0.025692912 0.0021245698 -0.032637533
0.067293994 -0.048913267 -0.08953313 0.0052938284 0.0014238207 0.10676673 0.021343285 0.044607867
0.061518963 0.02419156 0.07379388 -0.011092239 -0.0192554 0.03680589 0.028769664 0.006606111
0.024101462 0.025914883 -0.01638952 0.065997474 -0.016388392 -0.037647855 -0.026865026 -0.0070559555
-0.0030933153 0.023331376 0.023906412 0.046865426 -0.007136348 0.012679821 0.046525795 0.07063779
00000000: 0970 ecbc b08d 893d 722d b6bb fc18 b7bc
00000010: c2ed d13c 660f 033d d8ad 15bc c2fd d1bd
00000020: 1faa 8abd 42c8 1dbb fc94 fb3c 6b38 803c
00000030: 8ff4 cabc d209 29bc 4199 2ebc 6f28 bebc
00000040: 6903 ddbd d4d5 6abd 9f7a 7a3c f443 d5bb
00000050: ef4a 433d 2547 c83b 4689 7b3d 35d9 44bc
00000060: f9c2 8cbc e157 a6bd 8771 6db8 3ac8 a73c
00000070: f151 8cbc d06d a93b ba5e 023c 4015 2fbc
00000080: fd12 6c3d 86a8 8cbc 75be dbbc 5e6c a23c
00000090: 17c8 f8ba 78ca 0b3c 2c14 953d 5a4b 8cbd
000000a0: 3a05 a93d 2447 ba3c 6050 a0bc 2c80 703b
000000b0: 3b2e d9bc cb64 83bc 2de5 24bd 994e a53c
000000c0: 3fb4 f93c a5f5 5bbd e49a 81bd 4b18 243d
000000d0: e3ac d73b 6c64 863c bc7a 163d 4f9b 343d
000000e0: d1fa 6fbb 83f6 a03d c205 133c 9721 883c
000000f0: 15f2 e3bb beb5 93bc 0c72 f53c 55c9 573d
00000100: ceac e43b 2fbd d3bc 8a6d 98bd 1e31 803d
00000110: 54e9 10bd 06ad 2cbd 87a4 dfbb a432 b0bd
00000120: bb8e 0cbd 679e b1bb e482 a63d d2e1 9d3d
00000130: 74eb f03c fae6 3cbd 8fd9 4dbd a86d 863c
00000140: 5ad8 3a3d a170 8bbc 3efc 0cbc b597 afbc
00000150: 13f0 e2bc 3880 d2bc 1b6f 4a3c 37ce 743c
00000160: 4a51 3fbb f59f 7bbc 5317 123b 32a8 11bc
00000170: 0371 eeba 78b2 b03c 8671 5a3d e639 9f3c
00000180: 7f6b 00bd 7855 9e3b e076 cbbc f0e3 c93c
00000190: 80f9 7c39 980c 233c a53a 35bd 259a a33d
000001a0: 4caf 40bc 51b9 0c3b 0beb 02bd a68b 3bbd
000001b0: c00f 393d 8321 e4bc c9c8 dabc 626e b73c
000001c0: ef9d 20bd a9aa c1bd 99f0 76bc ee2f 7a3c
000001d0: c876 acbd 5644 47bd 8e43 7f3c f9aa c7bc
000001e0: fbde 243d f821 3cbc 520c cbbb f5d3 ac3c
000001f0: 35f7 2f3d cbcf 3cbd c283 55bd 39ef 1cbd
00000200: 092a 073d 44bf 90bb cd21 2f3d dabb 2e3d
00000210: 6577 263d 88cc 803d dad0 4e3d 44f8 85bd
00000220: 974d e03c 688d e53b 6f0f d739 6818 d5bc
00000230: 8509 f03c 38c6 5a3c 4693 2d3c 6e0a 253c
00000240: fdf4 003d db3c 3c3d 8939 7bbd b8ae 4dbd
00000250: f5c6 0ebd 9be8 22bc 7f93 18bd 876b 0cbd
00000260: e7fb d33c 615c 51bd d99d 0c3d 4eb4 2c3d
00000270: 5d6a 28bd 8baf a2bd 51a7 b93c 36f7 55bd
00000280: 9be4 263c 4624 62ba 5028 623d a8af 44bd
00000290: c083 e3bc 0188 f03c 1f17 a83d 1899 223c
000002a0: 2e13 013d 23c0 053d 67bc c8bc 13db 89bb
000002b0: dfbd 183c 8e06 853d 5b72 87bd 7b5a 9bbd
000002c0: 341c dd3c 1ecd 163d 5dac 43bd 7929 b43c
000002d0: f8a2 923c f409 243c e0f9 0dbd 7e2a b43d
000002e0: 524c 15bd 56c6 6a3d bc63 17bd 3947 bfbd
000002f0: 851c 0bbd 4819 28bd c33e 18bd c5d7 53bd
00000300: 5422 e53c c7b1 4e3d 83fb 163c d95f a5bc
00000310: 896e 053d fdee 7fbd 530e 03bc 845f fbbc
00000320: 873f 7d3d 9578 583c 3c2e ec3b e416 febd
00000330: 3a48 f33c 5635 d63c 7610 3ebc e1d5 0ebc
00000340: 0f47 b9bb cbcc 2c3d 7c77 0cbd df15 393d
00000350: 6160 35bd cf92 b8bc 4358 32bd ceef f9bc
00000360: 0237 93bd 3a8b a2bd ee9d a7bc ff97 103d
00000370: 4438 9abc f179 d2bc 5e3c 0b3b efae 05bd
00000380: 6fd1 893d 4759 48bd 255d b7bd da77 ad3b
00000390: 7f9f ba3a 84a8 da3d 1dd8 ae3c bdb6 363d
000003a0: 4ffb 7b3d 612d c63c 3f21 973d 39bc 35bc
000003b0: 80bd 9dbc c6c1 163d 5cae eb3c 1378 d83b
000003c0: 6e70 c53c 734b d43c 5143 86bc af29 873d
000003d0: f340 86bc a334 1abd 0b14 dcbc a535 e7bb
000003e0: 38b9 4abb 7121 bf3c 61d7 c33c f6f5 3f3d
000003f0: 07d8 e9bb 06bf 4f3c d591 3e3d 8caa 903d

model.2.main.0.weight f4 [32, 32, 3, 3]
0.16439542 0.05193734 0.092144564 -0.050837897 -0.040671214 0.06298746 0.005173212 -0.10606584
0.108970396 -0.013197897 0.06153374 0.09556413 0.049186688 0.13584432 -0.015592585 0.19485603
-0.011578323 0.04172073 0.18172663 0.025681935 -0.0044756574 -0.042668663 0.080862835 -0.002961095
-0.10294618 -0.16126944 0.061561212 -0.04927507 -0.16825816 -0.005590584 0.14706106 0.05885222
0.0068089953 0.057578072 -0.063588135 -0.15518554 -0.08116721 -0.0067279935 0.119140536 -0.055651262
0.0021594847 0.014785728 -0.17915893 0.13000657 -0.049770486 0.055287965 -0.11135294 -0.02696152
0.029058442 -0.054965876 0.16868934 -0.21194336 -0.0031832592 -0.0556565 0.03626153 -0.12586854
-0.099594556 -0.027579382 -0.12633736 -0.11589946 -0.009076675 -0.0049016904 0.0030111582 0.02828721
-0.19024812 -0.041323375 0.056175455 -0.13755177 -0.05650514 -0.025830686 0.04365717 0.0141931875
-0.018151827 0.037340805 0.10999343 0.03953314 0.099692926 -0.05226826 -0.023166213 -0.046093892
0.12572885 -0.09893341 0.006184229 -0.05271783 -0.0023287106 -0.045945376 0.10779022 0.015355593
0.0664312 -0.039826512 0.026717303 0.014113219 -0.089698635 -0.068033166 -0.10993302 0.16784
0.024053384 -0.12924312 -0.085881285 -0.06827202 -0.08881172 0.046056103 -0.14029792 0.06523682
0.019683545 0.24632162 0.009624077 0.082668215 -0.02518598 0.0052037723 -0.0149984425 -0.062602326
0.040827464 -0.045077156 -0.17715198 0.09886335 -0.019134087 -0.037322596 0.037521336 -0.038147822
0.10491063 0.12670398 -0.019851197 0.1434395 -0.14782062 -0.053739753 0.021966016 -0.0126317125
0.06805542 0.08042486 0.070239246 -0.007938861 0.021928122 0.048754454 0.06581558 0.22918682
0.1653045 -0.06442548 -0.11721521 0.06558699 0.026999842 0.047687158 0.013158835 0.017769933
0.014567608 -0.06570958 -0.010780033 -7.028738e-05 -0.008797257 0.011437487 0.06283494 -0.17111912
0.03647 0.081257895 -0.049079206 0.08708733 0.056524307 0.017844263 0.029823972 -0.12596822
-0.08578223 -0.04937908 0.005699224 -0.010665356 0.033363774 0.04834958 0.08527648 0.0153209185
-0.14141276 -0.037576843 0.016679406 -0.030511696 -0.022416888 -0.03130884 0.07093217 -0.09107869
0.002192051 0.040451236 0.1374077 0.103730194 0.15815583 -0.03345282 0.0034601137 0.092709005
-0.01649126 -0.03279551 -0.03608285 0.089267105 0.12908897 -0.09482494 0.0077534374 0.02523601
0.068459794 -0.040678125 -0.02266623 0.025910517 -0.077523485 0.1309622 0.09746202 -0.05839103
-0.052268054 -0.028101217 -0.041742533 -0.08874559 0.021335004 -0.10052772 -0.062848285 0.13693932
-0.012501861 -0.044021647 -0.021056373 -0.03622661 -0.04801933 -0.02696584 0.016120471 -0.06312326
-0.13011329 0.107080266 -0.17347631 -0.12880097 0.042704634 0.16449064 0.014896064 -0.021662578
-0.0128611885 -0.09895776 0.016844004 -0.04733668 -0.1297066 -0.050081573 0.022875525 0.07505569
-0.09808165 -0.004554097 -0.170477 0.057861805 -0.023963673 0.0010986269 0.064745635 0.023218488
-0.07182693 -0.022286337 -0.07725192 0.046056658 0.13334288 0.08502495 0.0072383676 0.01689457
0.053771406 0.022635669 -0.00093065435 0.0017208767 0.039149 0.03328943 -0.15606695 -0.07318458
00000000: 4657 283e 40bc 543d 4ab6 bc3d 663b 50bd
00000010: dc96 26bd 92ff 803d 0c84 a93b 0c39 d9bd
00000020: df2b df3d fe3b 58bc ce0a 7c3d 20b7 c33d
00000030: fb77 493d c61a 0b3e 0b78 7fbc 5788 473e
00000040: 02b3 3dbc 5be3 2a3d 8c16 3a3e ec62 d23c
00000050: 89a8 92bb 56c5 2ebd 6a9b a53d ee0e 42bb
00000060: 72d5 d2bd d123 25be 9c27 7c3d a8d4 49bd
00000070: de4b 2cbe 3831 b7bb 2d97 163e 070f 713d
00000080: fe1d df3b fcd6 6b3d 7f3a 82bd f5e8 1ebe
00000090: ff3a a6bd 8076 dcbb f4ff f33d 94f2 63bd
000000a0: 2486 0d3b d73f 723c 7075 37be 7120 053e
000000b0: 23dc 4bbd a275 623d 030d e4bd 68de dcbc
000000c0: f80b ee3c e623 61bd e6bc 2c3e ae07 59be
000000d0: 3a9e 50bb 12f8 63bd f886 143d afe3 00be
000000e0: 3bf8 cbbd 28ee e1bc 955e 01be b25c edbd
000000f0: 56b6 14bc 5c9e a0bb da56 453b 94ba e73c
00000100: 67d0 42be b342 29bd 3c18 663d 5fda 0cbe
00000110: ef71 67bd e09a d3bc dcd1 323d 8b8a 683c
00000120: 24b3 94bc acf2 183d 3c44 e13d 80ed 213d
00000130: ce2b cc3d 3e17 56bd 12c7 bdbc f3cc 3cbd
00000140: 10bf 003e 9a9d cabd 13a5 ca3b a7ee 57bd
00000150: 489d 18bb 3831 3cbd 1ec1 dc3d 0696 7b3c
00000160: 150d 883d 2021 23bd 3fde da3c 223b 673c
00000170: ebb3 b7bd f954 8bbd 9024 e1bd 40de 2b3e
00000180: 9a0b c53c 4f58 04be 87e2 afbd 33d2 8bbd
00000190: ebe2 b5bd 53a5 3c3d 42aa 0fbe e29a 853d
000001a0: 633f a13c bc3b 7c3e 4eae 1d3c f44d a93d
000001b0: d452 cebc 6884 aa3b 07bc 75bc a635 80bd
000001c0: b33a 273d d3a2 38bd 5467 35be de78 ca3d
000001d0: 17bf 9cbc 94df 18bd f9af 193d e440 1cbd
000001e0: 62db d63d b0be 013e fa9e a2bc cee1 123e
000001f0: 4a5e 17be 371e 5cbd 13f2 b33c 3ef5 4ebc
00000200: a460 8b3d cab5 a43d 98d9 8f3d ff11 02bc
00000210: 9ba2 b33c c0b2 473d 52ca 863d f3af 6a3e
00000220: 9545 293e 82f1 83bd 870e f0bd 7952 863d
00000230: c62e dd3c 9c53 433d 2798 573c 4092 913c
00000240: faac 6e3c bf92 86bd bc9e 30bc 4067 93b8
00000250: 5f22 10bc 4c64 3b3c 9baf 803d da39 2fbe
00000260: 9161 153d 8a6a a63d 4707 49bd d85a b23d
00000270: 0886 673d 222e 923c 6751 f43c d0fd 00be
00000280: 98ae afbd b841 4abd 8ec0 ba3b bfbd 2ebc
00000290: 74a8 083d 360a 463d 6fa5 ae3d 9704 7b3c
000002a0: 82ce 10be 2dea 19bd 40a3 883c aaf3 f9bc
000002b0: 9fa3 b7bc b33d 00bd e344 913d 7787 babd
000002c0: 83a8 0f3b 32b0 253d 9bb4 0c3e 7f70 d43d
000002d0: 9af3 213e d305 09bd 13c3 623b 38de bd3d
000002e0: ae18 87bc 9654 06bd 9ccb 13bd acd1 b63d
000002f0: e62f 043e 9433 c2bd 8c10 fe3b c0bb ce3c
00000300: a634 8c3d 1b9e 26bd 88ae b9bc 4b42 d43c
00000310: a2c4 9ebd f41a 063e 2b9a c73d 6f2b 6fbd
00000320: 0717 56bd 8634 e6bc 38fa 2abd 3fc0 b5bd
00000330: bfc6 ae3c 7ae1 cdbd 9ab6 80bd d239 0c3e
00000340: 9bd4 4cbc 0b50 34bd 6a7e acbc 5b62 14bd
00000350: ebaf 44bd 77e7 dcbc 140f 843c c546 81bd
00000360: 6b3c 05be e64c db3d c6a3 31be 67e4 03be
00000370: 0eeb 2e3d 3c70 283e 9f0e 743c b875 b1bc
00000380: bcb7 52bc 5eaa cabd 70fc 893c 1be4 41bd
00000390: cfd1 04be 5622 4dbd 7465 bb3c ccb6 993d
000003a0: 08df c8bd 893a 95bb 8691 2ebe 8000 6d3d
000003b0: 774f c4bc cdff 8f3a 5c99 843d b334 be3c
000003c0: ff19 93bd d691 b6bc 4136 9ebd e8a5 3c3d
000003d0: 098b 083e 9021 ae3d d42f ed3b 7b66 8a3c
000003e0: 683f 5c3d 706e b93c 28f7 73ba 0a8f e13a
000003f0: b45a 203d 7f5a 083d 04d0 1fbe cce1 95bd

model.2.main.1.weight f4 [32]
1.0 1.0 1.0 1.0 1.0 1.0 1.0 1.0
1.0 1.0 1.0 1.0 1.0 1.0 1.0 1.0
1.0 1.0 1.0 1.0 1.0 1.0 1.0 1.0
1.0 1.0 1.0 1.0 1.0 1.0 1.0 1.0
00000000: 0000 803f 0000 803f 0000 803f 0000 803f
00000010: 0000 803f 0000 803f 0000 803f 0000 803f
00000020: 0000 803f 0000 803f 0000 803f 0000 803f
00000030: 0000 803f 0000 803f 0000 803f 0000 803f
00000040: 0000 803f 0000 803f 0000 803f 0000 803f
00000050: 0000 803f 0000 803f 0000 803f 0000 803f
00000060: 0000 803f 0000 803f 0000 803f 0000 803f
00000070: 0000 803f 0000 803f 0000 803f 0000 803f

model.2.main.1.bias f4 [32]
0.0 0.0 0.0 0.0 0.0 0.0 0.0 0.0
0.0 0.0 0.0 0.0 0.0 0.0 0.0 0.0
0.0 0.0 0.0 0.0 0.0 0.0 0.0 0.0
0.0 0.0 0.0 0.0 0.0 0.0 0.0 0.0
00000000: 0000 0000 0000 0000 0000 0000 0000 0000
00000010: 0000 0000 0000 0000 0000 0000 0000 0000
00000020: 0000 0000 0000 0000 0000 0000 0000 0000
00000030: 0000 0000 0000 0000 0000 0000 0000 0000
00000040: 0000 0000 0000 0000 0000 0000 0000 0000
00000050: 0000 0000 0000 0000 0000 0000 0000 0000
00000060: 0000 0000 0000 0000 0000 0000 0000 0000
00000070: 0000 0000 0000 0000 0000 0000 0000 0000

model.2.main.1.gate f4 [32]
1.0 1.0 1.0 1.0 1.0 1.0 1.0 1.0
1.0 1.0 1.0 1.0 1.0 1.0 1.0 1.0
1.0 1.0 1.0 1.0 1.0 1.0 1.0 1.0
1.0 1.0 1.0 1.0 1.0 1.0 1.0 1.0
00000000: 0000 803f 0000 803f 0000 803f 0000 803f
00000010: 0000 803f 0000 803f 0000 803f 0000 803f
00000020: 0000 803f 0000 803f 0000 803f 0000 803f
00000030: 0000 803f 0000 803f 0000 803f 0000 803f
00000040: 0000 803f 0000 803f 0000 803f 0000 803f
00000050: 0000 803f 0000 803f 0000 803f 0000 803f
00000060: 0000 803f 0000 803f 0000 803f 0000 803f
00000070: 0000 803f 0000 803f 0000 803f 0000 803f

model.2.main.1.running_mean f4 [32]
0.0 0.0 0.0 0.0 0.0 0.0 0.0 0.0
0.0 0.0 0.0 0.0 0.0 0.0 0.0 0.0
0.0 0.0 0.0 0.0 0.0 0.0 0.0 0.0
0.0 0.0 0.0 0.0 0.0 0.0 0.0 0.0
00000000: 0000 0000 0000 0000 0000 0000 0000 0000
00000010: 0000 0000 0000 0000 0000 0000 0000 0000
00000020: 0000 0000 0000 0000 0000 0000 0000 0000
00000030: 0000 0000 0000 0000 0000 0000 0000 0000
00000040: 0000 0000 0000 0000 0000 0000 0000 0000
00000050: 0000 0000 0000 0000 0000 0000 0000 0000
00000060: 0000 0000 0000 0000 0000 0000 0000 0000
00000070: 0000 0000 0000 0000 0000 0000 0000 0000

model.2.main.1.running_var f4 [32]
1.0 1.0 1.0 1.0 1.0 1.0 1.0 1.0
1.0 1.0 1.0 1.0 1.0 1.0 1.0 1.0
1.0 1.0 1.0 1.0 1.0 1.0 1.0 1.0
1.0 1.0 1.0 1.0 1.0 1.0 1.0 1.0
00000000: 0000 803f 0000 803f 0000 803f 0000 803f
00000010: 0000 803f 0000 803f 0000 803f 0000 803f
00000020: 0000 803f 0000 803f 0000 803f 0000 803f
00000030: 0000 803f 0000 803f 0000 803f 0000 803f
00000040: 0000 803f 0000 803f 0000 803f 0000 803f
00000050: 0000 803f 0000 803f 0000 803f 0000 803f
00000060: 0000 803f 0000 803f 0000 803f 0000 803f
00000070: 0000 803f 0000 803f 0000 803f 0000 803f

model.2.main.3.weight f4 [32, 32, 3, 3]
-0.038738295 -0.035436463 0.06280615 0.014459552 -0.075719535 0.0011362084 -0.0011646503 0.11545839
0.032791175 -0.06848328 -0.11432886 -0.09872517 -0.014387696 -0.024807386 -0.21299642 -0.1072685
-0.054947205 -0.080485485 0.049256705 -0.012481703 -0.031504616 -0.14951672 0.15079986 -0.06390367
0.16737032 0.12969203 -0.091266885 0.21454668 0.054302476 -0.0194484 0.12829891 -0.09475755
-0.045706347 0.0139786815 -0.084162086 0.0612993 0.06314859 0.070165604 0.06138216 0.10426524
0.06030464 0.08270126 -0.12681764 0.017473066 0.026140045 -0.019030418 0.03883959 0.03644952
0.07235236 -0.09713652 -0.12634505 0.026844969 0.08193989 0.07829357 0.026774531 -0.022208061
0.053244703 0.04129904 0.031118445 -0.07741132 0.04550415 -0.063837275 -0.03172367 0.13670045
0.0045324136 0.049318373 -0.027609063 -0.099559754 0.081263766 -0.006022051 -0.017244775 0.045067128
-0.09753476 -0.022975136 -0.08649227 0.055460002 -0.13865855 0.07810706 0.097216055 0.03032784
-0.082888186 0.07742933 0.05896625 0.17903231 0.06794009 0.012258595 -0.0070718876 0.0640873
-0.006164179 -0.064608686 -0.004081473 0.016470522 -0.091381125 -0.13477293 -0.06451377 0.06466347
-0.058681857 -0.20146212 0.020800564 -0.058725365 0.13747418 -0.039075274 0.08123412 -0.06593548
0.13770685 0.11118337 -0.011886027 0.029064877 -0.0024461397 -0.031509236 -0.03848997 -0.090820365
0.08916291 0.04081954 -0.12415998 0.042596474 0.07582711 -0.015030073 -0.048384964 0.09595972
0.108162805 0.035348393 0.0029014288 0.022943996 0.008623877 0.05301188 0.032552414 0.0048039043
-0.03124091 -0.10843247 0.1065112 0.05425812 0.03605859 -0.11771573 0.026212348 0.1178996
-0.19354343 0.040749997 0.11402799 -0.054192763 -0.05334436 -0.007760957 -0.080098465 -0.011014331
-0.028761458 0.01326435 0.10842743 0.04739968 0.12737983 -0.102935515 0.0027380798 -0.113681
-0.05841343 -0.029224863 -0.09635645 0.01580248 -0.08300832 0.057087272 0.031461813 -0.045352094
0.08896306 0.0806423 -0.13780954 -0.019135078 0.09654981 0.0054138056 0.15814881 -0.09417542
-0.067055106 0.21257894 0.0078083607 0.027635653 -0.074398234 -0.10137816 -0.14759119 0.15836501
-0.030298803 0.03349945 -0.16975304 0.07652572 0.025566485 0.15035775 0.06616174 0.037741654
-0.039317187 -0.07222843 -0.09783833 -0.052272644 0.13579911 0.01666923 -0.03523966 0.068187565
0.04207374 -0.017305009 -0.18668205 0.01624649 -0.0075017707 0.042321853 0.02164207 -0.060531013
-0.13066714 -0.017464269 0.06786851 0.06339028 0.018836765 0.06034477 0.09545951 -0.006515939
-0.011768714 -0.14055195 0.007989875 0.061383765 -0.05192111 -0.18665004 0.0013005878 -0.0076800208
-0.21614236 -0.09085472 -0.0027853693 0.03520766 0.012254457 0.07199958 -0.037107185 0.049109276
-0.049953394 0.07905643 -0.07973641 7.021325e-05 0.025073178 -0.16531333 0.096300915 0.07379429
-0.18145196 -0.042403102 -0.07525049 0.01830713 -0.03419902 -0.027230425 0.078588895 0.09843024
0.0480192 -0.11881163 -0.0087658055 -0.12066023 0.15534751 -0.04964512 0.058678098 0.02006823
0.0966829 -0.084945194 -0.12239821 0.066697985 0.022014476 0.045437943 0.0061338525 0.13049254
00000000: 0cac 1ebd d325 11bd 83a0 803d c2e7 6c3c
00000010: d812 9bbd d4ec 943a 2ea7 98ba 7375 ec3d
00000020: 0a50 063d f640 8cbd 4025 eabd 6c30 cabd
00000030: 5fba 6bbc dc38 cbbc bc1b 5abe 96af dbbd
00000040: 5210 61bd 93d5 a4bd 66c1 493d 0f80 4cbc
00000050: fc0a 01bd e91a 19be 476b 1a3e eddf 82bd
00000060: 2063 2b3e fdcd 043e 22ea babd 20b2 5b3e
00000070: 466c 5e3d 4052 9fbc ca60 033e 3f10 c2bd
00000080: 9436 3bbd d706 653c 2c5d acbd fa14 7b3d
00000090: 0c54 813d fcb2 8f3d dc6b 7b3d 0489 d53d
000000a0: 0002 773d 475f a93d 7cdc 01be ad23 8f3c
000000b0: a623 d63c aee5 9bbc 4316 1f3d 184c 153d
000000c0: 792d 943d 83ef c6bd 9960 01be fbe9 db3c
000000d0: 1ad0 a73d 6158 a03d 4356 db3c aeed b5bc
000000e0: 1e17 5a3d 2f29 293d 1cec fe3c d389 9ebd
000000f0: 8f62 3a3d 1ebd 82bd aef0 01bd 34fb 0b3e
00000100: a484 943b 1002 4a3d 672c e2bc fce5 cbbd
00000110: 9e6d a63d a054 c5bb ea44 8dbc 4f98 383d
00000120: 4ec0 c7bd 5a36 bcbc dc22 b1bd 072a 633d
00000130: 82fc 0dbe 98f6 9f3d 3619 c73d 1772 f83c
00000140: 48c1 a9bd 4593 9e3d 9886 713d 3f54 373e
00000150: 2d24 8b3d 46d8 483c 4bbb e7bb 3440 833d
00000160: e2fc c9bb 8f51 84bd e1bd 85bb 30ed 863c
00000170: 0726 bbbd ea01 0abe cc1f 84bd 486e 843d
00000180: 635c 70bd 164c 4ebe f265 aa3c 028a 70bd
00000190: 08c6 0c3e 650d 20bd 135e a63d 2e09 87bd
000001a0: 0603 0d3e 1bb4 e33d 9cbd 42bc 7719 ee3c
000001b0: 6a4f 20bb d40f 01bd a9a7 1dbd 0700 babd
000001c0: 0b9b b63d 6432 273d 9647 febd a479 2e3d
000001d0: 3e4b 9b3d b240 76bc 502f 46bd 8886 c43d
000001e0: 7684 dd3d 7ac9 103d e625 3e3b 0cf5 bb3c
000001f0: 294b 0d3c fc22 593d ae55 053d 126a 9d3b
00000200: f0ec ffbc d811 debd 8b22 da3d c33d 5e3d
00000210: 2cb2 133d f214 f1bd 47bb d63c 5875 f13d
00000220: 4030 46be 78e9 263d 8287 e93d 3bf9 5dbd
00000230: 9e7f 5abd a04f febb aa0a a4bd 7475 34bc
00000240: 269d ebbc b752 593c 330f de3d 2b26 423d
00000250: dc6f 023e dbcf d2bd 5b71 333b 96d1 e8bd
00000260: ec42 6fbd fb68 efbc 8856 c5bd 3474 813c
00000270: 4400 aabd 58d4 693d 1ade 003d 1ec3 39bd
00000280: 4432 b63d ca27 a53d f21d 0dbe 2bc1 9cbc
00000290: e8bb c53d 4b66 b13b c3f1 213e 0bdf c0bd
000002a0: 3054 89bd 4bae 593e 47dd ff3b 2a64 e23c
000002b0: 1a5e 98bd 5a9f cfbd 2522 17be 702a 223e
000002c0: 3235 f8bc b836 093d bed3 2dbe 84b9 9c3d
000002d0: ce70 d13c 62f7 193e ce7f 873d fe96 1a3d
000002e0: 0f0b 21bd 80ec 93bd 765f c8bd d71b 56bd
000002f0: ec0e 0b3e e98d 883c 7657 10bd eca5 8b3d
00000300: 8455 2c3d 3cc3 8dbc 9429 3fbe 5c17 853c
00000310: 6ad1 f5bb ae59 2d3d b64a b13c 5eef 77bd
00000320: 9bcd 05be 3a11 8fbc a5fe 8a3d c3d2 813d
00000330: 8f4f 9a3c 142c 773d 4780 c33d a883 d5bb
00000340: 90d1 40bc daec 0fbe f7e7 023c 8b6d 7b3d
00000350: 3bab 54bd 3021 3fbe 7c78 aa3a afa8 fbbb
00000360: 6c54 5dbe 0a12 babd be8a 36bb e835 103d
00000370: ebc6 483c 8474 933d b4fd 17bd cf26 493d
00000380: ee9b 4cbd 56e8 a13d d84c a3bd 743f 9338
00000390: 4466 cd3c e647 29be 6a39 c53d 7621 973d
000003a0: 8bce 39be e0ae 2dbd ee1c 9abd d6f8 953c
000003b0: 4614 0cbd 5712 dfbc 37f3 a03d cb95 c93d
000003c0: c8af 443d 8353 f3bd 749e 0fbc b61c f7bd
000003d0: 6b13 1f3e ae58 4bbd 7258 703d 2166 a43c
000003e0: af01 c63d bff7 adbd eaab fabd f498 883d
000003f0: b457 b43c 231d 3a3d 7cfe c83b d69f 053e

model.2.main.4.weight f4 [32]
1.0 1.0 1.0 1.0 1.0 1.0 1.0 1.0
1.0 1.0 1.0 1.0 1.0 1.0 1.0 1.0
1.0 1.0 1.0 1.0 1.0 1.0 1.0 1.0
1.0 1.0 1.0 1.0 1.0 1.0 1.0 1.0
00000000: 0000 803f 0000 803f 0000 803f 0000 803f
00000010: 0000 803f 0000 803f 0000 803f 0000 803f
00000020: 0000 803f 0000 803f 0000 803f 0000 803f
00000030: 0000 803f 0000 803f 0000 803f 0000 803f
00000040: 0000 803f 0000 803f 0000 803f 0000 803f
00000050: 0000 803f 0000 803f 0000 803f 0000 803f
00000060: 0000 803f 0000 803f 0000 803f 0000 803f
00000070: 0000 803f 0000 803f 0000 803f 0000 803f

model.2.main.4.bias f4 [32]
0.0 0.0 0.0 0.0 0.0 0.0 0.0 0.0
0.0 0.0 0.0 0.0 0.0 0.0 0.0 0.0
0.0 0.0 0.0 0.0 0.0 0.0 0.0 0.0
0.0 0.0 0.0 0.0 0.0 0.0 0.0 0.0
00000000: 0000 0000 0000 0000 0000 0000 0000 0000
00000010: 0000 0000 0000 0000 0000 0000 0000 0000
00000020: 0000 0000 0000 0000 0000 0000 0000 0000
00000030: 0000 0000 0000 0000 0000 0000 0000 0000
00000040: 0000 0000 0000 0000 0000 0000 0000 0000
00000050: 0000 0000 0000 0000 0000 0000 0000 0000
00000060: 0000 0000 0000 0000 0000 0000 0000 0000
00000070: 0000 0000 0000 0000 0000 0000 0000 0000

model.2.main.4.gate f4 [32]
1.0 1.0 1.0 1.0 1.0 1.0 1.0 1.0
1.0 1.0 1.0 1.0 1.0 1.0 1.0 1.0
1.0 1.0 1.0 1.0 1.0 1.0 1.0 1.0
1.0 1.0 1.0 1.0 1.0 1.0 1.0 1.0
00000000: 0000 803f 0000 803f 0000 803f 0000 803f
00000010: 0000 803f 0000 803f 0000 803f 0000 803f
00000020: 0000 803f 0000 803f 0000 803f 0000 803f
00000030: 0000 803f 0000 803f 0000 803f 0000 803f
00000040: 0000 803f 0000 803f 0000 803f 0000 803f
00000050: 0000 803f 0000 803f 0000 803f 0000 803f
00000060: 0000 803f 0000 803f 0000 803f 0000 803f
00000070: 0000 803f 0000 803f 0000 803f 0000 803f

model.2.main.4.running_mean f4 [32]
0.0 0.0 0.0 0.0 0.0 0.0 0.0 0.0
0.0 0.0 0.0 0.0 0.0 0.0 0.0 0.0
0.0 0.0 0.0 0.0 0.0 0.0 0.0 0.0
0.0 0.0 0.0 0.0 0.0 0.0 0.0 0.0
00000000: 0000 0000 0000 0000 0000 0000 0000 0000
00000010: 0000 0000 0000 0000 0000 0000 0000 0000
00000020: 0000 0000 0000 0000 0000 0000 0000 0000
00000030: 0000 0000 0000 0000 0000 0000 0000 0000
00000040: 0000 0000 0000 0000 0000 0000 0000 0000
00000050: 0000 0000 0000 0000 0000 0000 0000 0000
00000060: 0000 0000 0000 0000 0000 0000 0000 0000
00000070: 0000 0000 0000 0000 0000 0000 0000 0000

model.2.main.4.running_var f4 [32]
1.0 1.0 1.0 1.0 1.0 1.0 1.0 1.0
1.0 1.0 1.0 1.0 1.0 1.0 1.0 1.0
1.0 1.0 1.0 1.0 1.0 1.0 1.0 1.0
1.0 1.0 1.0 1.0 1.0 1.0 1.0 1.0
00000000: 0000 803f 0000 803f 0000 803f 0000 803f
00000010: 0000 803f 0000 803f 0000 803f 0000 803f
00000020: 0000 803f 0000 803f 0000 803f 0000 803f
00000030: 0000 803f 0000 803f 0000 803f 0000 803f
00000040: 0000 803f 0000 803f 0000 803f 0000 803f
00000050: 0000 803f 0000 803f 0000 803f 0000 803f
00000060: 0000 803f 0000 803f 0000 803f 0000 803f
00000070: 0000 803f 0000 803f 0000 803f 0000 803f

model.3.main.0.weight f4 [32, 32, 3, 3]
-0.045485243 -0.056877848 0.17285708 0.09865516 0.0633025 0.039704844 0.07371047 -0.07159123
0.04011571 0.037305176 0.06621491 -0.042747535 -0.069248565 0.10027115 0.07060192 -0.19214678
0.074234754 -0.031124149 0.10880683 -0.032978438 -0.028062418 0.17020279 -0.010097781 0.014060255
-0.09004453 0.05623518 0.08665997 0.16582748 -0.10591392 -0.008575823 0.0227351 0.09301674
-0.0462089 -0.057874538 0.079030514 0.15103988 -0.07404503 0.10927296 0.05691859 -0.05893467
-0.010097885 -0.11025175 -0.05397321 0.009188212 -0.033129722 -0.002018357 0.08089823 0.030588
0.1301023 0.0263767 0.08550613 0.00024264687 0.0057898303 -0.005469335 0.017468344 0.08007955
-0.046158627 0.079433516 0.09503493 0.0076037897 -0.09224071 -0.0013077967 0.13369012 0.22330496
-0.008004536 0.050464448 0.08680922 0.09181207 -0.10327676 -0.09826887 0.08970432 -0.14131376
0.25299707 0.031027608 -0.060232915 -0.12802657 -0.058947228 -0.10225271 -0.018493015 0.031458486
0.14566556 0.011025931 -0.03853345 0.0007100572 0.09550682 0.11906853 -0.050822042 -0.05895426
0.057556868 0.017195974 -0.0071135713 0.23184095 0.005964104 0.0923537 -0.036406055 -0.029794145
-0.06815157 0.047665276 0.013724933 -0.010432328 -0.034877673 -0.05031041 -0.020201817 0.046103887
0.021991035 -0.24613395 0.019678442 0.028286427 0.025492668 0.053235993 -0.02713718 -0.06872761
0.12871715 -0.02286315 -0.013427528 -0.118833475 0.059612207 -0.09138687 -0.03011552 -0.15201648
0.1253359 0.027005073 -0.14041877 0.1459937 -0.15240355 -0.094356254 -0.058570504 0.19859706
0.033110052 0.050436478 -0.07329796 0.0043709693 0.1507518 0.017110622 -0.064393476 -0.044846654
0.107060656 0.041666187 0.03845912 0.01373241 -0.1837961 0.06218339 -0.057599984 -0.14266956
-0.071823895 0.09802458 0.14870033 -0.030633328 -0.0814828 0.0020408824 -0.014478516 -0.056535736
-0.13821784 0.018522844 0.012230279 -0.035383128 -0.003910438 0.061186627 0.12446019 0.2132778
-0.0025896528 0.03974089 0.015496458 -0.07418115 0.022855906 0.052964486 -0.2693922 -0.11089622
0.11448907 0.06380374 -0.11415589 0.06273571 0.04622051 -0.010005677 -0.000782902 0.06487259
0.07368093 0.063500285 0.1123723 0.040061846 -0.13960478 -0.032098815 -0.09524386 -0.10412111
0.039731253 -0.09212767 -0.05937588 -0.026518522 0.10350507 0.13790792 0.059276856 -0.061466973
-0.02428392 0.16699123 0.010185105 -0.033530354 0.117553644 0.044030532 0.06100765 0.030734979
-0.042523604 -0.069649756 0.19291455 -0.104405105 -0.076782554 -0.05961076 -0.09640248 -0.013801437
-0.09246735 -0.019322682 -0.08539845 0.26841867 -0.044106066 -0.07048212 -0.025653917 -0.1769022
-0.13774534 0.06688053 -0.04053318 0.007859556 -0.07541829 -0.08610317 0.10231602 -0.13382758
-0.007631028 0.07846754 -0.06879945 0.101854585 -0.16250215 -0.05683021 -0.026128683 -0.06464404
-0.012603728 0.0030835397 0.09649559 -0.043983664 -0.04649792 0.04059992 -0.014568235 -0.037065614
0.009088151 0.10677459 0.002702954 -0.025202747 -0.03070963 0.008020809 0.07172167 0.02768608
-0.081835665 -0.027480615 0.054537304 0.010702882 0.04477678 0.06130324 -0.020733712 0.03602331
00000000: bc4e 3abd bff8 68bd 7201 313e b70b ca3d
00000010: bea4 813d 8ca1 223d 84f5 963d 6c9e 92bd
00000020: 5f50 243d 50cd 183d af9b 873d 0a18 2fbd
00000030: 31d2 8dbd f65a cd3d bd97 903d 20c2 44be
00000040: 6408 983d 12f8 febc 1ed6 de3d 6614 07bd
00000050: 28e3 e5bc a449 2e3e 2a71 25bc fc5c 663c
00000060: 4469 b8bd dc56 663d c87a b13d aece 293e
00000070: 66e9 d8bd 9c81 0cbc f63e ba3c 907f be3d
00000080: 8b45 3dbd da0d 6dbd c0da a13d 33aa 1a3e
00000090: eca4 97bd 80ca df3d 7823 693d 7b65 71bd
000000a0: 9971 25bc abcb e1bd 0313 5dbd 288a 163c
000000b0: 08b3 07bd 6946 04bb f9ad a53d af93 fa3c
000000c0: 8a39 053e f313 d83c d61d af3d 066f 7e39
000000d0: 9eb8 bd3b 1b38 b3bb c619 8f3c bf00 a43d
000000e0: d410 3dbd 0aae a23d aca1 c23d 3629 f93b
000000f0: b3e8 bcbd 606a abba 10e6 083e 0eaa 643e
00000100: 7525 03bc cfb3 4e3d 08c9 b13d f707 bc3d
00000110: c482 d3bd 3041 c9bd e6b6 b73d 8eb4 10be
00000120: d588 813e 9c2d fe3c cab6 76bd 6619 03be
00000130: a672 71bd de69 d1bd aa7e 97bc 9dda 003d
00000140: 5a29 153e 1ba6 343c 40d5 1dbd 2223 3a3a
00000150: 1499 c33d 34da f33d c62a 50bd 067a 71bd
00000160: c0c0 6b3d 92de 8c3c f618 e9bb b767 6d3e
00000170: 886e c33b f023 bd3d 841e 15bd da12 f4bc
00000180: 0d93 8bbd aa3c 433d 8bde 603c 5bec 2abc
00000190: e4db 0ebd 4a12 4ebd 487e a5bc 6ed7 3c3d
000001a0: 8b26 b43c 8a0a 7cbe af34 a13c f0b8 e73c
000001b0: 00d6 d03c fc0d 5a3d cb4e debc 10c1 8cbd
000001c0: 6ece 033e 804b bbbc 22ff 5bbc f75e f3bd
000001d0: ee2b 743d 0a29 bbbd d3b4 f6bc 35aa 1bbe
000001e0: 0e58 003e be39 dd3c f0c9 0fbe 5f7f 153e
000001f0: ad0f 1cbe da3d c1bd a0e7 6fbd 075d 4b3e
00000200: 689e 073d 7b96 4e3d 3e1d 96bd 593a 8f3b
00000210: ae5e 1a3e 932b 8c3c bae0 83bd 20b1 37bd
00000220: 9e42 db3d 2aaa 2a3d 4f87 1d3d e7fd 603c
00000230: 0b35 3cbe 03b4 7e3d f6ed 6bbd f817 12be
00000240: 6818 93bd 1cc1 c83d e644 183e bff2 fabc
00000250: 74e0 a6bd 53c0 053b 4c37 6dbc 0492 67bd
00000260: fa88 0dbe 38bd 973c 8261 483c e6ed 10bd
00000270: 2223 80bb d49e 7a3d fce4 fe3d 7f65 5a3e
00000280: 2ab7 29bb 58c7 223d dbe4 7d3c 49ec 97bd
00000290: 4f3c bb3c 4af1 583d c6ed 89be 8f1d e3bd
000002a0: 3f79 ea3d 89ab 823d 90ca e9bd 947b 803d
000002b0: b851 3d3d daee 23bc aa3b 4dba ecdb 843d
000002c0: 07e6 963d 700c 823d 7323 e63d e417 243d
000002d0: 8ef4 0ebe 0c7a 03bd 360f c3bd 733d d5bd
000002e0: 3dbd 223d 6fad bcbd 1f34 73bd 5f3d d9bc
000002f0: 77fa d33d bc37 0d3e 4acc 723d cbc4 7bbd
00000300: 12ef c6bc c0ff 2a3e 6ddf 263c 2057 09bd
00000310: f7bf f03d 5c59 343d 28e3 793d ecc7 fb3c
00000320: 3b2d 2ebd 88a4 8ebd 648b 453e 58d2 d5bd
00000330: 2c40 9dbd 6a2a 74bd aa6e c5bd 6c1f 62bc
00000340: 865f bdbd 9a4a 9ebc 62e5 aebd 2c6e 893e
00000350: 90a8 34bd ee58 90bd 2a28 d2bc da25 35be
00000360: 1d0d 0dbe a9f8 883d 1f06 26bd 5ec5 003c
00000370: e874 9abd dc56 b0bd 108b d13d 190a 09be
00000380: b40d fabb 97b3 a03d bae6 8cbd 2399 d03d
00000390: f766 26be cbc6 68bd d20b d6bc 1864 84bd
000003a0: de7f 4ebc 3615 4a3b 7b9f c53d 3728 34bd
000003b0: 9a74 3ebd 1a4c 263d 9baf 6ebc 1dd2 17bd
000003c0: 78e6 143c a3ac da3d 0b24 313b fe75 cebc
000003d0: c392 fbbc b669 033c d0e2 923d ebcd e23c
000003e0: 7599 a7bd 071f e1bc 8262 5f3d 245b 2f3c
000003f0: db67 373d 1b19 7b3d bfd9 a9bc 2e8d 133d

model.3.main.1.weight f4 [32]
1.0 1.0 1.0 1.0 1.0 1.0 1.0 1.0
1.0 1.0 1.0 1.0 1.0 1.0 1.0 1.0
1.0 1.0 1.0 1.0 1.0 1.0 1.0 1.0
1.0 1.0 1.0 1.0 1.0 1.0 1.0 1.0
00000000: 0000 803f 0000 803f 0000 803f 0000 803f
00000010: 0000 803f 0000 803f 0000 803f 0000 803f
00000020: 0000 803f 0000 803f 0000 803f 0000 803f
00000030: 0000 803f 0000 803f 0000 803f 0000 803f
00000040: 0000 803f 0000 803f 0000 803f 0000 803f
00000050: 0000 803f 0000 803f 0000 803f 0000 803f
00000060: 0000 803f 0000 803f 0000 803f 0000 803f
00000070: 0000 803f 0000 803f 0000 803f 0000 803f

model.3.main.1.bias f4 [32]
0.0 0.0 0.0 0.0 0.0 0.0 0.0 0.0
0.0 0.0 0.0 0.0 0.0 0.0 0.0 0.0
0.0 0.0 0.0 0.0 0.0 0.0 0.0 0.0
0.0 0.0 0.0 0.0 0.0 0.0 0.0 0.0
00000000: 0000 0000 0000 0000 0000 0000 0000 0000
00000010: 0000 0000 0000 0000 0000 0000 0000 0000
00000020: 0000 0000 0000 0000 0000 0000 0000 0000
00000030: 0000 0000 0000 0000 0000 0000 0000 0000
00000040: 0000 0000 0000 0000 0000 0000 0000 0000
00000050: 0000 0000 0000 0000 0000 0000 0000 0000
00000060: 0000 0000 0000 0000 0000 0000 0000 0000
00000070: 0000 0000 0000 0000 0000 0000 0000 0000

model.3.main.1.gate f4 [32]
1.0 1.0 1.0 1.0 1.0 1.0 1.0 1.0
1.0 1.0 1.0 1.0 1.0 1.0 1.0 1.0
1.0 1.0 1.0 1.0 1.0 1.0 1.0 1.0
1.0 1.0 1.0 1.0 1.0 1.0 1.0 1.0
00000000: 0000 803f 0000 803f 0000 803f 0000 803f
00000010: 0000 803f 0000 803f 0000 803f 0000 803f
00000020: 0000 803f 0000 803f 0000 803f 0000 803f
00000030: 0000 803f 0000 803f 0000 803f 0000 803f
00000040: 0000 803f 0000 803f 0000 803f 0000 803f
00000050: 0000 803f 0000 803f 0000 803f 0000 803f
00000060: 0000 803f 0000 803f 0000 803f 0000 803f
00000070: 0000 803f 0000 803f 0000 803f 0000 803f

model.3.main.1.running_mean f4 [32]
0.0 0.0 0.0 0.0 0.0 0.0 0.0 0.0
0.0 0.0 0.0 0.0 0.0 0.0 0.0 0.0
0.0 0.0 0.0 0.0 0.0 0.0 0.0 0.0
0.0 0.0 0.0 0.0 0.0 0.0 0.0 0.0
00000000: 0000 0000 0000 0000 0000 0000 0000 0000
00000010: 0000 0000 0000 0000 0000 0000 0000 0000
00000020: 0000 0000 0000 0000 0000 0000 0000 0000
00000030: 0000 0000 0000 0000 0000 0000 0000 0000
00000040: 0000 0000 0000 0000 0000 0000 0000 0000
00000050: 0000 0000 0000 0000 0000 0000 0000 0000
00000060: 0000 0000 0000 0000 0000 0000 0000 0000
00000070: 0000 0000 0000 0000 0000 0000 0000 0000

model.3.main.1.running_var f4 [32]
1.0 1.0 1.0 1.0 1.0 1.0 1.0 1.0
1.0 1.0 1.0 1.0 1.0 1.0 1.0 1.0
1.0 1.0 1.0 1.0 1.0 1.0 1.0 1.0
1.0 1.0 1.0 1.0 1.0 1.0 1.0 1.0
00000000: 0000 803f 0000 803f 0000 803f 0000 803f
00000010: 0000 803f 0000 803f 0000 803f 0000 803f
00000020: 0000 803f 0000 803f 0000 803f 0000 803f
00000030: 0000 803f 0000 803f 0000 803f 0000 803f
00000040: 0000 803f 0000 803f 0000 803f 0000 803f
00000050: 0000 803f 0000 803f 0000 803f 0000 803f
00000060: 0000 803f 0000 803f 0000 803f 0000 803f
00000070: 0000 803f 0000 803f 0000 803f 0000 803f

model.3.main.3.weight f4 [32, 32, 3, 3]
0.07537402 0.036631398 -0.0545323 0.09211466 -0.0049951933 -0.06619988 0.110758856 -0.00026541177
-0.10756733 -0.19578737 0.006132647 0.10652336 0.006350399 0.0247574 0.0031343165 0.099999696
-0.08728631 -0.09473996 -0.03385744 0.06557968 -0.0076078526 -0.0040392755 -0.021250524 0.06350622
0.13625938 -0.016126962 0.14338478 -0.034453742 0.10344066 -0.08026397 -0.04299108 -0.13933392
0.028611854 0.03921166 -0.025724968 0.18369876 0.022356352 -0.05949743 0.011579463 -0.024247786
-0.0022940703 0.07326434 0.0553946 0.04516345 -0.07193322 0.11036122 0.10562144 -0.09592389
0.067742735 -0.055163246 0.03705785 0.11811961 -0.15380484 -0.07076429 0.110443436 -0.098511666
0.039882272 0.110507265 0.0141889155 0.090143085 -0.18379158 -0.016673034 0.008177822 -0.026594166
0.0771951 -0.0017727518 -0.13984247 0.02247636 -0.032185026 -0.17128521 0.066537686 0.026969567
-0.0007561513 0.10099132 -0.21607125 -0.026944682 0.11583173 0.052089453 -0.06305066 0.12106556
0.07190258 -0.1592493 0.006386777 0.06407717 -0.041017897 -0.027310554 0.24758312 0.13920045
0.059419528 -0.07130456 -0.028116358 0.084224954 -0.032361463 -0.056839548 -0.014550058 -0.016641844
0.0010233704 0.03347023 0.07863421 0.10784729 0.037238106 0.17770138 -0.008698297 -0.016609345
0.08733815 0.067292355 -0.07850617 0.113772616 -0.050608974 -0.013217869 0.04565244 -0.040286463
-0.18941502 -0.048431437 0.06972082 0.044754967 -0.117413044 0.075795025 -0.09548977 -0.15446708
-0.062311217 0.04543341 -0.099121235 0.020623066 0.15790315 0.0007767186 -0.019708268 0.063206896
0.029371314 -0.14885578 -0.18542936 0.05840812 0.07996536 0.024034668 0.15065113 0.18331228
-0.034652553 -0.10115483 0.07813379 -0.015194055 -0.01493635 0.016358053 -0.1309545 -0.05578327
0.030001428 0.026350316 -0.04100966 -0.029788438 -0.09087457 -0.18910399 0.04499855 -0.06624742
-0.02532285 0.03402489 0.06057776 0.030804833 0.05449383 0.035547547 -0.0061233463 0.06292215
0.018737806 0.02330835 0.04318617 -0.08954697 0.024661943 -0.019950066 0.06298742 0.06795585
-0.05934806 -0.056717288 -0.107967764 -0.087164156 0.103065744 0.034258246 -0.101870775 0.039745834
0.1528331 -0.016469348 0.051536255 0.020327792 -0.026792899 -0.010733395 0.11946747 -0.031372614
-0.09609048 -0.105764136 -0.025931789 0.060438063 -0.046951905 0.028810885 0.027491342 -0.040994547
-0.0052378783 -0.10872111 0.09468971 0.11713958 -0.023035746 0.09492372 0.042485997 -0.08344337
0.048135873 -0.07088567 -0.08293603 -0.07625744 0.10425207 -0.14490995 -0.10339354 0.08463972
0.15091322 -0.076949045 0.032157086 0.11794736 0.10442178 -0.09225553 0.024540503 -0.12145054
0.030849822 -0.054856073 0.09575361 0.099805385 0.038845114 -0.10510813 -0.14628911 0.07594463
-0.018145882 -0.047913723 -0.059687264 -0.013539325 0.05855018 -0.013766407 0.19631766 0.039326124
-0.059499465 -0.05831456 0.04732583 -0.022562906 -0.005181606 -0.027765227 0.029328018 0.05140273
0.10940667 -0.07893461 0.019719325 -0.032618582 0.030664107 -0.08487369 0.020183664 0.19439593
0.068150796 -0.0844332 0.053386025 -0.049534887 0.017774126 0.07937693 -0.13625929 0.21273503
00000000: b25d 9a3d ce0a 163d 435d 5fbd 9ca6 bc3d
00000010: b8ae a3bb cd93 87bd 8ad5 e23d f726 8bb9
00000020: 434c dcbd 7c7c 48be 5ff4 c83b eb28 da3d
00000030: 0217 d03b 08d0 ca3c 1b69 4d3b a4cc cc3d
00000040: 2ac3 b2bd 0607 c2bd 19ae 0abd a44e 863d
00000050: 4b4b f9bb e65b 84bb 9415 aebc 8d0f 823d
00000060: 9487 0b3e b11c 84bc 76d3 123e 5e1f 0dbd
00000070: b2d8 d33d 7061 a4bd 6a17 30bd 8dad 0ebe
00000080: 6863 ea3c 689c 203d 2bbd d2bc 871b 3c3e
00000090: ab24 b73c 94b3 73bd cab7 3d3c 4ba3 c6bc
000000a0: 1d58 16bb 9d0b 963d 73e5 623d 4ffd 383d
000000b0: b951 93bd 1005 e23d 0e50 d83d bf73 c4bd
000000c0: b4bc 8a3d dbf2 61bd f9c9 173d b2e8 f13d
000000d0: 047f 1dbe deec 90bd 2b30 e23d 7cc0 c9bd
000000e0: 985b 233d a251 e23d a078 683c f09c b83d
000000f0: dc33 3cbe e395 88bc 46fc 053c 02dc d9bc
00000100: 7718 9e3d ae5b e8ba dd32 0fbe 5820 b83c
00000110: 72d4 03bd 6465 2fbe e944 883d 48ef dc3c
00000120: 7438 46ba 8ad4 ce3d c841 5dbe 18bb dcbc
00000130: 3039 ed3d c05b 553d b420 81bd 38f1 f73d
00000140: a941 933d 4012 23be 2b48 d13b e43a 833d
00000150: 6202 28bd 62ba dfbc 6e86 7d3e 908a 0e3e
00000160: e461 733d 2008 92bd 4754 e6bc 227e ac3d
00000170: 748d 04bd 96d0 68bd 5e63 6ebc 7a54 88bc
00000180: 9d22 863a 1418 093d f90a a13d 0adf dc3d
00000190: fc86 183d 5af7 353e 4d83 0ebc 5210 88bc
000001a0: 58de b23d 93d0 893d d8c7 a0bd 9e01 e93d
000001b0: 5b4b 4fbd c38f 58bc 0efe 3a3d 6b03 25bd
000001c0: 03f6 41be 0b60 46bd cac9 8e3d fc50 373d
000001d0: 4076 f0bd 6c3a 9b3d 2490 c3bd 9e2c 1ebe
000001e0: 0c3a 7fbd 6218 3a3d 1300 cbbd b4f1 a83c
000001f0: 5db1 213e b49c 4b3a 3c73 a1bc 9e72 813d
00000200: 1c9c f03c a66d 18be 32e1 3dbe 5a3d 6f3d
00000210: e1c4 a33d 5ae4 c43c 4a44 1a3e 37b6 3b3e
00000220: d6ef 0dbd 432a cfbd 9c04 a03d 7cf0 78bc
00000230: 98b7 74bc 5301 863c f018 06be 007d 64bd
00000240: 8ec5 f53c 9edc d73c bff9 27bd e206 f4bc
00000250: 721c babd 7aa4 41be 6650 383d baac 87bd
00000260: de71 cfbc af5d 0b3d 6320 783d 6b5a fc3c
00000270: ec34 5f3d 4e9a 113d 5aa6 c8bb 54dd 803d
00000280: 0780 993c 27f1 be3c fbe3 303d 6764 b7bd
00000290: d807 ca3c 526e a3bc 8cff 803d 702c 8b3d
000002a0: f416 73bd 6350 68bd 341e ddbd 1f83 b2bd
000002b0: 2214 d33d 6052 0c3d a0a1 d0bd 87cc 223d
000002c0: 4880 1c3e baea 86bc ae17 533d 7886 a63c
000002d0: c87c dbbc 1fdb 2fbc 5cab f43d 9280 00bd
000002e0: 16cb c4bd de9a d8bd e76e d4bc e78d 773d
000002f0: a450 40bd ce04 ec3c 8635 e13c e6e9 27bd
00000300: 82a2 abbb 2ca9 debd aeec c13d e0e6 ef3d
00000310: 76b5 bcbc 5e67 c23d cc05 2e3d 5ce4 aabd
00000320: 1f2a 453d 822c 91bd 5eda a9bd dc2c 9cbd
00000330: 1c82 d53d 4663 14be febf d3bd 9757 ad3d
00000340: ff88 1a3e 7697 9dbd 26b7 033d 638e f13d
00000350: 16db d53d 78f0 bcbd 2a09 c93c 10bb f8bd
00000360: c4b8 fc3c c3b0 60bd 781a c43d c466 cc3d
00000370: 0e1c 1f3d ee42 d7bd d0cc 15be dc88 9b3d
00000380: aca6 94bc 2e41 44bd a27a 74bd 0cd4 5dbc
00000390: 50d2 6f3d 7f8c 61bc 7f07 493e 6e14 213d
000003a0: b6b5 73bd 40db 6ebd bbd8 413d d8d5 b8bc
000003b0: 76ca a9bb e773 e3bc 5041 f03c ab8b 523d
000003c0: 9b10 e03d 78a8 a1bd 6c8a a13c 109b 05bd
000003d0: 4b33 fb3c 42d2 adbd 3658 a53c ba0f 473e
000003e0: a592 8b3d 50eb acbd 4eab 5a3d 18e5 4abd
000003f0: 0b9b 913c 5f90 a23d 8e87 0bbe 36d7 593e

model.3.main.4.weight f4 [32]
1.0 1.0 1.0 1.0 1.0 1.0 1.0 1.0
1.0 1.0 1.0 1.0 1.0 1.0 1.0 1.0
1.0 1.0 1.0 1.0 1.0 1.0 1.0 1.0
1.0 1.0 1.0 1.0 1.0 1.0 1.0 1.0
00000000: 0000 803f 0000 803f 0000 803f 0000 803f
00000010: 0000 803f 0000 803f 0000 803f 0000 803f
00000020: 0000 803f 0000 803f 0000 803f 0000 803f
00000030: 0000 803f 0000 803f 0000 803f 0000 803f
00000040: 0000 803f 0000 803f 0000 803f 0000 803f
00000050: 0000 803f 0000 803f 0000 803f 0000 803f
00000060: 0000 803f 0000 803f 0000 803f 0000 803f
00000070: 0000 803f 0000 803f 0000 803f 0000 803f

model.3.main.4.bias f4 [32]
0.0 0.0 0.0 0.0 0.0 0.0 0.0 0.0
0.0 0.0 0.0 0.0 0.0 0.0 0.0 0.0
0.0 0.0 0.0 0.0 0.0 0.0 0.0 0.0
0.0 0.0 0.0 0.0 0.0 0.0 0.0 0.0
00000000: 0000 0000 0000 0000 0000 0000 0000 0000
00000010: 0000 0000 0000 0000 0000 0000 0000 0000
00000020: 0000 0000 0000 0000 0000 0000 0000 0000
00000030: 0000 0000 0000 0000 0000 0000 0000 0000
00000040: 0000 0000 0000 0000 0000 0000 0000 0000
00000050: 0000 0000 0000 0000 0000 0000 0000 0000
00000060: 0000 0000 0000 0000 0000 0000 0000 0000
00000070: 0000 0000 0000 0000 0000 0000 0000 0000

model.3.main.4.gate f4 [32]
1.0 1.0 1.0 1.0 1.0 1.0 1.0 1.0
1.0 1.0 1.0 1.0 1.0 1.0 1.0 1.0
1.0 1.0 1.0 1.0 1.0 1.0 1.0 1.0
1.0 1.0 1.0 1.0 1.0 1.0 1.0 1.0
00000000: 0000 803f 0000 803f 0000 803f 0000 803f
00000010: 0000 803f 0000 803f 0000 803f 0000 803f
00000020: 0000 803f 0000 803f 0000 803f 0000 803f
00000030: 0000 803f 0000 803f 0000 803f 0000 803f
00000040: 0000 803f 0000 803f 0000 803f 0000 803f
00000050: 0000 803f 0000 803f 0000 803f 0000 803f
00000060: 0000 803f 0000 803f 0000 803f 0000 803f
00000070: 0000 803f 0000 803f 0000 803f 0000 803f

model.3.main.4.running_mean f4 [32]
0.0 0.0 0.0 0.0 0.0 0.0 0.0 0.0
0.0 0.0 0.0 0.0 0.0 0.0 0.0 0.0
0.0 0.0 0.0 0.0 0.0 0.0 0.0 0.0
0.0 0.0 0.0 0.0 0.0 0.0 0.0 0.0
00000000: 0000 0000 0000 0000 0000 0000 0000 0000
00000010: 0000 0000 0000 0000 0000 0000 0000 0000
00000020: 0000 0000 0000 0000 0000 0000 0000 0000
00000030: 0000 0000 0000 0000 0000 0000 0000 0000
00000040: 0000 0000 0000 0000 0000 0000 0000 0000
00000050: 0000 0000 0000 0000 0000 0000 0000 0000
00000060: 0000 0000 0000 0000 0000 0000 0000 0000
00000070: 0000 0000 0000 0000 0000 0000 0000 0000

model.3.main.4.running_var f4 [32]
1.0 1.0 1.0 1.0 1.0 1.0 1.0 1.0
1.0 1.0 1.0 1.0 1.0 1.0 1.0 1.0
1.0 1.0 1.0 1.0 1.0 1.0 1.0 1.0
1.0 1.0 1.0 1.0 1.0 1.0 1.0 1.0
00000000: 0000 803f 0000 803f 0000 803f 0000 803f
00000010: 0000 803f 0000 803f 0000 803f 0000 803f
00000020: 0000 803f 0000 803f 0000 803f 0000 803f
00000030: 0000 803f 0000 803f 0000 803f 0000 803f
00000040: 0000 803f 0000 803f 0000 803f 0000 803f
00000050: 0000 803f 0000 803f 0000 803f 0000 803f
00000060: 0000 803f 0000 803f 0000 803f 0000 803f
00000070: 0000 803f 0000 803f 0000 803f 0000 803f

model.4.bias f4 [3]
-0.14282517 -0.086784616 0.07251483
00000000: c340 12be 22bc b1bd a882 943d
