checkpoint/clf/experiment_name/200/netE.pth (torch, 241318 bytes, 33 tensors)

model.0.weight f4 [32, 3, 4, 4]
0	0xbe1688d8	-0.14700639
1	0x3d7f0381	0.0622592
2	0xbd248b3a	-0.04017184
3	0x3ca0cb8f	0.019628314
4	0xbdc04bde	-0.093894705
5	0x3d1d5567	0.038411524
6	0xbca33a5d	-0.01992529
7	0x3b7b421d	0.0038338967
8	0x3ce5b1de	0.028038915
9	0x3cbbcfae	0.022926178
10	0x3da79346	0.08182387
11	0xbd2b5491	-0.041828696
12	0xbd49a6b0	-0.04923123
13	0xbd1ffd52	-0.039059944
14	0xbccf45c0	-0.025301814
15	0x3cd8f26b	0.026482781
16	0x3d4da28d	0.05020385
17	0xbd9ef9e5	-0.07762507
18	0x3df8483f	0.12123155
19	0x3d3e0bbd	0.046397913
20	0xbd5c780a	-0.053825416
21	0xbd348ef2	-0.044081636
22	0xbe2a4897	-0.16629253
23	0xbd9ac5d7	-0.07557266
24	0xbc217111	-0.009853617
25	0x3d5d86d8	0.054083675
26	0x3d917ec6	0.07104258
27	0x3e00ce61	0.12578727
28	0xbc73ecee	-0.014888031
29	0x3d381d99	0.0449501
30	0xbcff3371	-0.031152459
31	0xbc8c30e7	-0.017113162
32	0xbdc5d399	-0.096595
33	0xbdcd7d2d	-0.10033641
34	0xbcb8b274	-0.02254603
35	0x3b0cbf65	0.0021476385
36	0xbe2a78e7	-0.16647683
37	0xbcadb2fd	-0.021203512
38	0x3d3066d6	0.043066822
39	0xbcb84817	-0.022495313
40	0xbd4d081e	-0.05005657
41	0x3d234acb	0.03986625
42	0x3c5bef14	0.0134237
43	0xbd34b158	-0.04411444
44	0xbd4bdcde	-0.049771182
45	0xbd811e65	-0.063046254
46	0xbd6646ab	-0.056219738
47	0xbd88ebbd	-0.066855885
48	0xbd12d3f3	-0.03584666
49	0x3d83cb8c	0.06435308
50	0x3d9dd3c6	0.07706408
51	0xbda26833	-0.07930031
52	0x3e06bd3c	0.13158125
53	0x3cea9194	0.02863387
54	0x3ca74b0a	0.020421524
55	0x3d12914a	0.03578309
56	0x3d9a4e47	0.075344615
57	0xbc86af85	-0.016441116
58	0xbd65a6fb	-0.056067448
59	0x3d12d5b0	0.03584832
60	0xbb31d2a2	-0.0027133604
61	0x3d5274e7	0.051381018
62	0x3d9a5b9b	0.075370036
63	0x3c00c2f8	0.007858984
64	0xbdb02501	-0.08600808
65	0x3c91c83a	0.01779567
66	0xbd81c9c0	-0.06337309
67	0x3d01aeb5	0.031660754
68	0xbd62a593	-0.055333685
69	0x3ba162be	0.004925101
70	0x3cb42c20	0.021993697
71	0xbd75fd6b	-0.06005613
72	0x3d99eb2d	0.07515559
73	0x3ca585e6	0.02020545
74	0xbc38e2e4	-0.011284564
75	0x3d0386b1	0.032110874
76	0xbd4dee00	-0.050275803
77	0xbd94ef50	-0.07272208
78	0xbd472f97	-0.04862937
79	0x3c762093	0.015022415
80	0xbdd940ec	-0.10608086
81	0xbd8145e3	-0.06312158
82	0xbdb86c3b	-0.09005018
83	0x3caec0ed	0.021332229
84	0x3d8a0cee	0.067407474
85	0xbd8cbd7d	-0.068720795
86	0x3e20efbe	0.15716454
87	0x3d869bb5	0.065726675
88	0x3cd5fe5b	0.026122263
89	0xbd891e5a	-0.06695242
90	0xbd04ffe3	-0.032470595
91	0x3d05fd2c	0.032712147
92	0x3df07b4d	0.11742268
93	0x3d7ce18c	0.061738536
94	0x3d8af697	0.067853145
95	0xbc09f07d	-0.008419153
96	0xbd9c16ba	-0.07621522
97	0x3d1cf972	0.038323827
98	0x3db3617b	0.08758827
99	0xbdf0a51d	-0.11750243
100	0xbc864732	-0.01639137
101	0x3d142bc6	0.036174558
102	0xbc8a1538	-0.016855821
103	0x3da7c49b	0.081917964
104	0xbd8644e4	-0.065561086
105	0xbc9a86ae	-0.018863048
106	0xbd52487b	-0.051338654
107	0xbe1e566f	-0.1546266
108	0x3d82fd78	0.063960016
109	0xbdbc955f	-0.09208178
110	0x3d6ea876	0.058266126
111	0x3c31e130	0.010856912
112	0xbdc2d25f	-0.09512781
113	0x3b9bf9e6	0.004760015
114	0x3db35125	0.087557115
115	0x3da9efbe	0.0829768
116	0x3cb5cc93	0.022192275
117	0x3dc2f00f	0.09518444
118	0x3ab29379	0.0013624273
119	0x3d0d1ddd	0.034452308
120	0xbc54453e	-0.012955962
121	0x3d3f41bc	0.04669355
122	0xbd6eb9a6	-0.058282517
123	0x3d2c7530	0.042103946
124	0xbd99265e	-0.07478021
125	0xbbbd4275	-0.0057757446
126	0x3c5b1d49	0.013373681
127	0x3c6ef0a1	0.014583738
128	0x3d8f8063	0.0700691
129	0xbd1b7b4f	-0.037959393
130	0x3c0ac67f	0.008470177
131	0xba7858d3	-0.0009473685
132	0xbcc7cdee	-0.024390187
133	0x3d814aa1	0.063130625
134	0xbdbaeb94	-0.09126964
135	0x3d95c06a	0.07312091
136	0x3c980bb8	0.018560275
137	0xbd3a26e1	-0.045447234
138	0x3be26b64	0.0069097746
139	0x3de37a53	0.11107316
140	0x3bd26ee0	0.0064219087
141	0xbd21fc61	-0.039547328
142	0xbd7d2247	-0.061800268
143	0x3d4b5bbe	0.04964804
144	0x3d88518b	0.06656178
145	0x3c8c638f	0.017137317
146	0xbd9cd44f	-0.07657682
147	0xbc8f5922	-0.017498557
148	0xbe075290	-0.13215089
149	0xbd979e38	-0.07403225
150	0xbd2d02f5	-0.04223915
151	0xb9cd7352	-0.00039186567
152	0xbd09e01e	-0.033661
153	0x3d94ffa7	0.07275324
154	0xbd660327	-0.05615535
155	0x3d29bd9e	0.0414406
156	0xbd7725c4	-0.06033875
157	0xbc8bc198	-0.017060086
158	0xbc878153	-0.016541159
159	0x3c5e4a14	0.013567466
160	0x3bcfa8b9	0.006337252
161	0xbd8dd962	-0.06926228
162	0xbc356b97	-0.011073015
163	0xbae065bb	-0.0017120162
164	0xbbc8f180	-0.0061323047
165	0xbc3449f5	-0.011003961
166	0x3cea6be2	0.028615896
167	0xbd05da4d	-0.03267889
168	0xba266153	-0.00063469
169	0xbd8af00f	-0.06784069
170	0x3d9e1084	0.07717994
171	0x3db38987	0.08766466
172	0xbe140009	-0.14453138
173	0xbd00ef86	-0.031478427
174	0x3dd54b50	0.10414755
175	0xbd60d5e4	-0.054891482
176	0xbdd278ba	-0.10276933
177	0xbdc0cfcf	-0.09414636
178	0xbc98a2b7	-0.018632276
179	0x3d8d2fef	0.06893908
180	0xbd3096ab	-0.04311244
181	0x3dd97723	0.10618427
182	0xbd41a701	-0.047278408
183	0x3d9c74cf	0.07639467
184	0x3d91ba37	0.07115596
185	0x3cb842dc	0.022492819
186	0xbd0affa3	-0.0339352
187	0xbc83ff48	-0.016112939
188	0x3d2c4b12	0.04206378
189	0xbb7e5aae	-0.0038811374
190	0x3d96a656	0.07355945
191	0xbc930c84	-0.017950304
192	0x3d3a7a4d	0.04552679
193	0xbd52d8da	-0.051476337
194	0xbce82813	-0.028339421
195	0x3c6f941f	0.014622717
196	0x3d06d0b0	0.032913864
197	0xbcc8981f	-0.0244866
198	0xbd8ec866	-0.06971817
199	0x3c8ab666	0.016932677
200	0x3da18f36	0.078886434
201	0xbc52fc63	-0.0128775565
202	0x3d65face	0.05614739
203	0x3c51a842	0.012796463
204	0x3cf03781	0.029323341
205	0x3cf9f268	0.030511096
206	0xbc5132fa	-0.012768501
207	0xbcd052c9	-0.0254301
208	0x3d9eda58	0.077564895
209	0xbd5e0ae0	-0.05420959
210	0xbd4223fa	-0.04739759
211	0x3e01833e	0.12647721
212	0x3d6cc1bf	0.05780196
213	0xbd97c0ae	-0.074097976
214	0xbdfc5571	-0.12320984
215	0xbd11df3e	-0.03561329
216	0x3db8ff70	0.09033096
217	0x3dce17a9	0.100631066
218	0x3b3afbfc	0.0028531542
219	0x3c944d33	0.018103218
220	0xbbfb3126	-0.007665771
221	0xbdc7905a	-0.0974433
222	0xbddc851b	-0.10767575
223	0x3d65b6d9	0.05608258
224	0x3d90b8c5	0.07066492
225	0xba16125a	-0.00057247805
226	0x3c160ac2	0.009157838
227	0xbca1b977	-0.019741757
228	0x3d7ddeb4	0.061979964
229	0xbc56c8c1	-0.013109387
230	0x3d7da64f	0.061926182
231	0x3d2d2a4f	0.042276677
232	0x3d11ade2	0.03556622
233	0x3d05db59	0.03267989
234	0xbd01e45a	-0.031711914
235	0xbe13b896	-0.14425883
236	0x3d16a405	0.036777515
237	0x3c40bc41	0.011763633
238	0x3cf50930	0.029911608
239	0xbda84b30	-0.08217466
240	0x3d7f247b	0.06229065
241	0xbd03dd44	-0.032193437
242	0xbceeb18c	-0.029137395
243	0xbe0c994d	-0.13730355
244	0x3c03db71	0.008047924
245	0xbcd3b612	-0.025843654
246	0xbc8b4d3f	-0.017004607
247	0x3ac0f749	0.0014722134
248	0xbd2b3ad2	-0.041804142
249	0x3d0d6bf0	0.034526765
250	0x3d1f025c	0.03882061
251	0xbc35cdeb	-0.011096458
252	0xbd0bafeb	-0.034103315
253	0xbd400246	-0.046877168
254	0xbd3199a8	-0.04335943
255	0xbdbf5b61	-0.09343601

model.0.bias f4 [32]
0	0xb9666328	-0.00021971448
1	0x3a5ee453	0.0008502651
2	0xba53fbad	-0.0008086514
3	0xb9e9f53e	-0.00044623943
4	0x3a4c1850	0.0007785605
5	0xb9e84154	-0.00044299162
6	0x39b127c6	0.00033789704
7	0x3a6d398f	0.00090494094
8	0xba782b46	-0.00094668975
9	0xba1c15a2	-0.0005954151
10	0x38901b15	6.8714995e-05
11	0x3b21ea8f	0.0024706458
12	0xb8c20334	-9.2512375e-05
13	0x39f65843	0.00046986536
14	0x3a2d15c6	0.0006602671
15	0xb9672213	-0.0002204257
16	0xba289d0b	-0.00064320926
17	0x39f77c65	0.00047204192
18	0xb9b80623	-0.00035099787
19	0xbad25281	-0.0016046317
20	0x3a83f923	0.0010068755
21	0x39b37f21	0.0003423626
22	0x399e929f	0.0003024535
23	0x39ae2e01	0.00033222142
24	0x391d6f22	0.00015014087
25	0x39bc5da3	0.0003592792
26	0x390b4e3d	0.00013285219
27	0x3a0953a6	0.00052386
28	0x3a013ea0	0.00049302913
29	0xb90848eb	-0.00012997135
30	0xb98490ea	-0.0002528497
31	0x398bac20	0.0002664039

model.1.weight f4 [32]
0	0x3f821504	1.0162663
1	0x3f7d9786	0.9905933
2	0x3f7dae03	0.99093646
3	0x3f7c3c19	0.985292
4	0x3f81b5fd	1.0133663
5	0x3f81695a	1.0110276
6	0x3f7ddefe	0.99168384
7	0x3f80011d	1.000034
8	0x3f7f1a28	0.99649286
9	0x3f81df38	1.0146246
10	0x3f82cb48	1.0218287
11	0x3f7f00c5	0.9961055
12	0x3f80ad31	1.0052854
13	0x3f80b0a2	1.0053904
14	0x3f7f38ec	0.9969623
15	0x3f7cefc2	0.9880334
16	0x3f827cfa	1.019439
17	0x3f811785	1.0085303
18	0x3f823dd9	1.0175124
19	0x3f7ebd34	0.9950745
20	0x3f802682	1.0011752
21	0x3f7d5e72	0.9897224
22	0x3f816a56	1.0110576
23	0x3f84552f	1.0338496
24	0x3f7e7c19	0.9940811
25	0x3f7e601a	0.9936539
26	0x3f840f51	1.0317174
27	0x3f7a52b7	0.9778246
28	0x3f801ce0	1.0008812
29	0x3f80dcbb	1.0067362
30	0x3f7e3c07	0.99310344
31	0x3f7e86d0	0.9942446

model.1.bias f4 [32]
0	0x3ccf924b	0.025338313
1	0x3b6b6329	0.0035917258
2	0xbc8a743e	-0.016901132
3	0xbbc4d719	-0.006007087
4	0x3c2c2b66	0.010508394
5	0x3c7929ca	0.015207717
6	0xba931569	-0.0011221591
7	0x3bb5fc14	0.0055537317
8	0x3a8715bf	0.0010306163
9	0x3c3091cc	0.010776948
10	0x3cb52ac1	0.022115113
11	0x3c61caa8	0.013781227
12	0x3ca56322	0.020188872
13	0x3bfecf06	0.007776144
14	0xbbb3671d	-0.0054749385
15	0xbc1e5c39	-0.009665542
16	0x3ca2f945	0.019894252
17	0x3c4d948e	0.012547625
18	0x3ca8bc10	0.020597488
19	0xbba27b35	-0.004958535
20	0x3b93c011	0.00450898
21	0x3c821b90	0.015882283
22	0x3d07963c	0.03310226
23	0x3c694ef8	0.014240019
24	0x3bd66ff4	0.0065441076
25	0xbc564464	-0.013077829
26	0x3d13eed5	0.03611644
27	0x3c0b2dac	0.008494776
28	0x3c0b5c27	0.008505858
29	0x3ca491d9	0.020089077
30	0x3b51ba4a	0.0032001906
31	0x3aba1904	0.0014198129

model.1.gate f4 [32]
0	0x3f85dd15	1.0458094
1	0x3f8072a0	1.0034981
2	0x3f7db37f	0.99102014
3	0x3f7fb89c	0.99891067
4	0x3f7588c3	0.95911807
5	0x3f7da402	0.9907838
6	0x3f7586a9	0.959086
7	0x3f731146	0.9494823
8	0x3f76d09f	0.9641208
9	0x3f8cc9de	1.0999105
10	0x3f7e3566	0.9930023
11	0x3f70e2c2	0.94096005
12	0x3f812c70	1.0091686
13	0x3f8091de	1.0044515
14	0x3f7fb15f	0.9988002
15	0x3f7dbbc1	0.99114615
16	0x3f7a09dd	0.976713
17	0x3f7b50d9	0.9817024
18	0x3f805cb9	1.0028297
19	0x3f78f922	0.97255147
20	0x3f83183b	1.024177
21	0x3f78af7c	0.9714277
22	0x3f83b54d	1.0289704
23	0x3f785242	0.97000515
24	0x3f79e83d	0.9761999
25	0x3f81dd09	1.014558
26	0x3f7f1793	0.99645346
27	0x3f8f3d81	1.1190645
28	0x3f768316	0.9629377
29	0x3f7af232	0.9802581
30	0x3f7a9423	0.9788229
31	0x3f71f383	0.94512194

model.1.running_mean f4 [32]
0	0x3f2d4221	0.6767903
1	0xbea5e58f	-0.32401702
2	0xbd66cb0d	-0.056345988
3	0x3ea53df0	0.32273817
4	0xbe0dd23a	-0.13849726
5	0x3f33d27f	0.70243067
6	0xbea76537	-0.32694408
7	0xbee776fd	-0.45207968
8	0xbe9c22e4	-0.3049537
9	0x3cc9043a	0.024538148
10	0x3f5d95b3	0.8655655
11	0xbe925719	-0.28582075
12	0xbe003acd	-0.1252243
13	0x3f273777	0.6531901
14	0x3c010955	0.00787576
15	0x3f1a9700	0.6038666
16	0xbeb1b52c	-0.34708536
17	0x3f89f853	1.0778908
18	0x3f304a3c	0.6886327
19	0xbe8aa4a6	-0.27078742
20	0x3ee058e8	0.4381783
21	0xbf5f1333	-0.8713867
22	0x3eeead65	0.46616665
23	0x3ebdf357	0.37099716
24	0xbe355db5	-0.17711528
25	0xbea6866b	-0.32524428
26	0x3f5dcef9	0.8664394
27	0x3ebf1c35	0.37326208
28	0xbf54a0f9	-0.83058125
29	0xbdb5b36f	-0.08872115
30	0xbdfa98af	-0.12236153
31	0xbdd070f2	-0.101777926

model.1.running_var f4 [32]
0	0x3da0f735	0.07859651
1	0x3d047fc9	0.032348428
2	0x3c5d7c06	0.013518339
3	0x3c984f5b	0.018592527
4	0x3c929cdf	0.017897068
5	0x3cf411e4	0.029793687
6	0x3d612405	0.05496599
7	0x3cb2865a	0.02179258
8	0x3cde5c29	0.027143555
9	0x3c373eda	0.011184419
10	0x3d3476b5	0.04405852
11	0x3c085fe4	0.008323643
12	0x3c7ed9f1	0.015554891
13	0x3d2bf2fd	0.04197978
14	0x3c9743ae	0.01846489
15	0x3d825343	0.06363537
16	0x3cbc1f12	0.022964034
17	0x3d8126eb	0.06306251
18	0x3d0ac363	0.03387774
19	0x3c8d23b0	0.017228931
20	0x3c8a0d28	0.016851977
21	0x3d11bb46	0.03557899
22	0x3d29b360	0.04143083
23	0x3cad3f42	0.021148328
24	0x3da4958b	0.080363356
25	0x3d6b1d2f	0.05740088
26	0x3d19421d	0.037416566
27	0x3d0b3ed9	0.033995483
28	0x3d156981	0.03647757
29	0x3be7d88e	0.007075376
30	0x3c9df066	0.01927967
31	0x3d033f3a	0.03204272

model.3.main.0.weight f4 [32, 32, 3, 3]
0	0xbd028c7f	-0.03187227
1	0x3be73a49	0.0070565087
2	0x3dc09929	0.09404213
3	0xbdf7ec84	-0.12105659
4	0x3d6f45cf	0.058416184
5	0xbe162b13	-0.14664869
6	0xbe135138	-0.14386451
7	0xbcd1a534	-0.02559147
8	0x3c96938d	0.018380905
9	0xbe276a07	-0.1634904
10	0xbdfb22ef	-0.122625224
11	0x3bb60905	0.0055552744
12	0x3d1fdafe	0.039027207
13	0xbddc0ab8	-0.10744232
14	0x3e1e7f65	0.15478285
15	0xbdf1c4ef	-0.1180514
16	0xbe3f55f3	-0.18685131
17	0xbcad560a	-0.02115919
18	0xbd69e65c	-0.057104453
19	0xbde99ec5	-0.11407236
20	0xbd81554d	-0.06315098
21	0xbc205bcb	-0.00978751
22	0x3d242534	0.040074542
23	0x3cee6819	0.029102372
24	0xbd993858	-0.0748145
25	0x3dc9f9ae	0.09862076
26	0x3d79c42a	0.060978092
27	0xbe0e5bc1	-0.13902189
28	0xbd86b39e	-0.06577228
29	0xbc87a435	-0.016557792
30	0xbdeff6ce	-0.11716996
31	0x3dcc76ab	0.099835716
32	0xbdd2a772	-0.10285844
33	0x3d7801a8	0.060548455
34	0x3ba46b20	0.005017653
35	0x3c4c1d21	0.012458117
36	0xbe2bdcb6	-0.16783413
37	0x3c0cbc04	0.008589748
38	0xbdabea08	-0.08394247
39	0xbdcad966	-0.09904747
40	0x3d060ed3	0.03272898
41	0xbb4dbbef	-0.0031392535
42	0xbd30db44	-0.043177858
43	0x3d204eb6	0.039137565
44	0xbd851365	-0.0649784
45	0xbda61605	-0.08109669
46	0xbd0ddbaa	-0.034633316
47	0xbd7b7a33	-0.061395835
48	0x3dbfd55c	0.09366867
49	0xbdd9e815	-0.10639969
50	0xbc9ce6d4	-0.019153036
51	0xbd34714a	-0.044053353
52	0x3c00bac4	0.007857028
53	0x3c38abcf	0.011271431
54	0x3cf823c7	0.030290497
55	0xbdc3f7fc	-0.09568784
56	0x3c57a8b1	0.013162778
57	0xbdaa4261	-0.08313442
58	0x3d85ea81	0.06538869
59	0xbd2704e1	-0.040776137
60	0x3d2fd786	0.04293015
61	0x3cf8eb86	0.030385744
62	0xbcd46bb6	-0.025930267
63	0x3da1b02b	0.078949295
64	0x3db8ed59	0.090296455
65	0x3dcf7d75	0.10131351
66	0xbcd51846	-0.026012551
67	0x3d825f1d	0.06365798
68	0xbccdeeda	-0.025138307
69	0x3d862f3e	0.065519795
70	0xbe15dd67	-0.1463524
71	0xbd8ff81f	-0.07029747
72	0xbc5dba4f	-0.013533189
73	0x3d920853	0.07130494
74	0xbdca43c1	-0.09876204
75	0xbcf13c73	-0.02944777
76	0xbe39c77a	-0.181425
77	0xbe04c586	-0.12965974
78	0xbd6d42e4	-0.05792512
79	0x3d570765	0.052497286
80	0x3da57382	0.08078672
81	0xbdc31819	-0.09526081
82	0x3d9db950	0.07701361
83	0xbbe20d5d	-0.0068985657
84	0xbe5aff8e	-0.21386549
85	0xbd1efbf0	-0.038814485
86	0xbcb8527d	-0.022500271
87	0xbdba2cb2	-0.09090556
88	0xbcff92f9	-0.031198012
89	0xbe0951ff	-0.13410185
90	0xbe38da62	-0.18052056
91	0xbd551ad3	-0.052027535
92	0xbcfd5016	-0.030921977
93	0xbce9d86f	-0.028545586
94	0x3c4d58a0	0.012533337
95	0xbd8ede55	-0.06976
96	0x3da4c0dd	0.08044598
97	0xbc5c8429	-0.013459244
98	0xbe163d71	-0.14671876
99	0x3b55950f	0.0032590067
100	0x3d617925	0.055047173
101	0x3d0aa9d9	0.033853386
102	0x3d028a77	0.03187033
103	0xbe195652	-0.14974335
104	0xbd51f7c7	-0.05126169
105	0x3bffae99	0.007802796
106	0xbdd547bb	-0.10414072
107	0x3de80dfc	0.11330792
108	0x3d352628	0.04422584
109	0xbdf447cc	-0.11927757
110	0xbd328c5b	-0.043590885
111	0xbdcbb123	-0.099458955
112	0x3cf15355	0.029458681
113	0xbcd56bad	-0.02605232
114	0xbd0b87f8	-0.034065217
115	0xbd0fd463	-0.035114657
116	0xbe62f8ae	-0.22165176
117	0x3e160357	0.14649712
118	0xbc906185	-0.017624626
119	0xbe08269a	-0.13295975
120	0xbdfb4d8f	-0.122706525
121	0x3e18c25c	0.14917892
122	0x3c48fe27	0.012267626
123	0xbdfb7cc9	-0.1227966
124	0x3d1c2c66	0.03812828
125	0x3e3d50de	0.1848788
126	0xbcd1c7d7	-0.025607986
127	0x3db4dedc	0.088315696
128	0xbd36e55a	-0.04465232
129	0x3d6c17ce	0.05763989
130	0xbda9cb4a	-0.082907274
131	0x3e0f3652	0.13985565
132	0xbe0319d8	-0.12802827
133	0xbc897acd	-0.016782189
134	0x3e6abfe8	0.22924769
135	0x3d81eb22	0.06343676
136	0xbd360e55	-0.04444726
137	0x3c599376	0.013279786
138	0xbdf1a10a	-0.11798294
139	0xbe396f64	-0.18108898
140	0xbc53de72	-0.012931453
141	0xbca83321	-0.020532193
142	0xbcd2a611	-0.025713952
143	0x3e36ee32	0.17864302
144	0xbdbee9b9	-0.09321923
145	0x3d01e47c	0.03171204
146	0x3a5d2e65	0.0008437394
147	0xbde57c52	-0.11205353
148	0x3d8f3228	0.069919884
149	0x3d91d1dd	0.07120106
150	0xbc2e6645	-0.0106445
151	0xbd22f980	-0.039788723
152	0xbc3460e2	-0.011009427
153	0x3d89bd64	0.067255765
154	0xbdd1241a	-0.10211964
155	0x3d2c4161	0.042054538
156	0xbd56a207	-0.052400615
157	0xbc809f01	-0.015700819
158	0xbe277a30	-0.16355205
159	0x3d550e05	0.052015323
160	0xbd735bab	-0.059413593
161	0xbe26caf4	-0.16288358
162	0x3caa12e2	0.020760957
163	0x3d8f97b3	0.07011356
164	0x3d3d8b1f	0.046275254
165	0x3c297960	0.010343879
166	0x3c3967cf	0.011316254
167	0xbdf014b5	-0.117226996
168	0xbd1f02ca	-0.03882102
169	0xbe186719	-0.14883079
170	0x3e48c710	0.19607186
171	0x38bbdd91	8.958125e-05
172	0x3d297b9f	0.04137766
173	0x3e021cfa	0.12706366
174	0xbc343108	-0.010998018
175	0xbde36925	-0.11104039
176	0xbe72517f	-0.23663901
177	0xbd103dc0	-0.03521514
178	0x3b8073df	0.003920063
179	0x3d258630	0.040411174
180	0xbd6d74ee	-0.05797284
181	0xbdaea05e	-0.08526681
182	0x3b6bf028	0.0036001299
183	0x3dcab3ef	0.09897601
184	0xbbb705ae	-0.005585394
185	0x3d968872	0.07350244
186	0x3d3efba7	0.046626713
187	0xbd58dd06	-0.05294516
188	0xbe25a4cc	-0.16176146
189	0xbd8701ce	-0.06592141
190	0x3d4ae70d	0.049536753
191	0xbd482ac9	-0.048868928
192	0x3e2a6916	0.1664165
193	0xbd2e76bc	-0.042593703
194	0x3d906bd1	0.07051814
195	0xbd212050	-0.039337456
196	0xbdc6e18a	-0.09710987
197	0xbda3c32f	-0.07996213
198	0xbcc7ab37	-0.024373634
199	0xbddaa365	-0.10675696
200	0xbe053bda	-0.13011113
201	0x3e29555b	0.16536467
202	0x3d20bbed	0.03924172
203	0xbc582909	-0.013193377
204	0xbc0d32f8	-0.008618109
205	0xbd17c08c	-0.03704886
206	0xbd1ac6bb	-0.03778718
207	0xbddb640a	-0.1071244
208	0x3d23963a	0.03993819
209	0xbd917f6e	-0.071043834
210	0x3d4b78fc	0.049675927
211	0xbe7e2e4e	-0.24822351
212	0xbd8e1702	-0.06937982
213	0xbc68db1d	-0.014212397
214	0xbd461aa0	-0.048365235
215	0x3db77238	0.089573324
216	0x3b820e75	0.0039690086
217	0xbcf18050	-0.02948013
218	0x3cf1b1b6	0.029503684
219	0x3e38d5ef	0.18050359
220	0x3a4e9e05	0.0007881823
221	0x3de4f54b	0.111795984
222	0x3d780337	0.06054994
223	0xbb502112	-0.0031757993
224	0xbe3df473	-0.18550281
225	0xba24008b	-0.00062561844
226	0xbd16acff	-0.036786076
227	0x3e200a38	0.15628898
228	0x3b44c30f	0.003002349
229	0x3c9d52fa	0.019204605
230	0xbdb88928	-0.090105355
231	0xbca663b8	-0.020311221
232	0xbcb90cad	-0.022589052
233	0x3c834b7b	0.016027203
234	0xbd973f52	-0.07385124
235	0x3e3c2f5a	0.18377438
236	0xbd995069	-0.0748604
237	0xbd37dbb2	-0.044887252
238	0x3c977319	0.0184875
239	0xbdffe733	-0.124952696
240	0x3db22cff	0.086999886
241	0xbd2741ab	-0.04083411
242	0x3d9a0a4c	0.07521495
243	0x3cc00de2	0.02344412
244	0x3d870aca	0.06593855
245	0x3e17202d	0.14758368
246	0xbd0b15aa	-0.033956207
247	0xbd3a2bba	-0.045451857
248	0xbd368d81	-0.044568542
249	0x3c936366	0.017991733
250	0x3bedb19b	0.0072538382
251	0x3d9ad362	0.07559849
252	0xbc85a03e	-0.016311761
253	0xbd6224ca	-0.055210866
254	0x3db4fefe	0.088376984
255	0xbc852573	-0.016253209

model.3.main.1.weight f4 [32]
0	0x3f82313b	1.0171274
1	0x3f803699	1.0016662
2	0x3f8147b0	1.0100002
3	0x3f816b00	1.0110779
4	0x3f80cda9	1.0062762
5	0x3f80c306	1.0059516
6	0x3f7e79aa	0.99404395
7	0x3f80045c	1.000133
8	0x3f801a95	1.0008112
9	0x3f815f9b	1.0107301
10	0x3f7fca24	0.9991782
11	0x3f7f4d64	0.99727464
12	0x3f801aa3	1.0008129
13	0x3f7dab72	0.9908973
14	0x3f7abf34	0.97948
15	0x3f7d242d	0.98883325
16	0x3f815cf1	1.0106488
17	0x3f7f8965	0.9981902
18	0x3f8048a3	1.0022167
19	0x3f7e1e31	0.9926482
20	0x3f819bda	1.0125687
21	0x3f7e38cd	0.9930542
22	0x3f821d6c	1.0165229
23	0x3f7e12d8	0.99247503
24	0x3f8009ea	1.0003026
25	0x3f7f2829	0.99670655
26	0x3f8108d8	1.0080824
27	0x3f7efa53	0.99600714
28	0x3f7eafab	0.994868
29	0x3f7f940c	0.99835277
30	0x3f7b58c0	0.98182297
31	0x3f8155dc	1.0104327

model.3.main.1.bias f4 [32]
0	0x3b633546	0.0034669205
1	0x3c8cc239	0.017182456
2	0x3afff36c	0.0019527501
3	0x3ca12e90	0.019675523
4	0x3bd3a8ac	0.0064593162
5	0x3c657c71	0.01400672
6	0x3b04e176	0.0020275987
7	0x3c325375	0.0108841555
8	0x3c87fb0b	0.016599199
9	0x3c4c97fc	0.012487408
10	0x3c832b43	0.01601184
11	0xbaee7e9a	-0.0018195689
12	0x3beec4ee	0.0072866594
13	0xbb1328c3	-0.0022454716
14	0x3a818210	0.0009880681
15	0xbb90eeb9	-0.004422989
16	0x3b9db671	0.0048130085
17	0x3c279ef4	0.0102307685
18	0x3c1fdb73	0.009756911
19	0xbb92d719	-0.004481208
20	0x3bc23030	0.0059261546
21	0xba0f111d	-0.0005457567
22	0x3bbe1a68	0.0058014877
23	0xbc8420c0	-0.016128898
24	0xbbb9b724	-0.005667584
25	0xbb09f18b	-0.0021048512
26	0xbb2e826a	-0.0026628026
27	0xb9e07955	-0.0004281501
28	0xbc2dfb86	-0.01061905
29	0x3cfc96f1	0.030833693
30	0xbb46bbfe	-0.0030324454
31	0x3d2c241c	0.042026624

model.3.main.1.gate f4 [32]
0	0x3f83cfe9	1.0297824
1	0x3f85a3b4	1.0440583
2	0x3f81412d	1.0098015
3	0x3f809b66	1.0047424
4	0x3f7dade9	0.9909349
5	0x3f67f44b	0.90607136
6	0x3f7bf972	0.984275
7	0x3f7e4cec	0.99336123
8	0x3f810f90	1.0082874
9	0x3f7e7554	0.9939778
10	0x3f6f4d6c	0.9347751
11	0x3f7e32fb	0.9929654
12	0x3f7f2c77	0.9967722
13	0x3f8130ce	1.0093019
14	0x3f7f5179	0.9973369
15	0x3f81bcbf	1.0135726
16	0x3f7dfed4	0.9921696
17	0x3f87242f	1.0557917
18	0x3f7dbc8c	0.99115825
19	0x3f81cdf8	1.0140982
20	0x3f7f5547	0.997395
21	0x3f833449	1.0250331
22	0x3f794a91	0.97379404
23	0x3f830357	1.0235394
24	0x3f82a77e	1.0207365
25	0x3f76c46f	0.96393484
26	0x3f7f6292	0.9975978
27	0x3f805eff	1.002899
28	0x3f7fe199	0.9995361
29	0x3f692cc4	0.9108393
30	0x3f8222b6	1.0166843
31	0x3f7547e8	0.95812845

model.3.main.1.running_mean f4 [32]
0	0xbfaa2827	-1.3293504
1	0x3f9dd9f0	1.2332134
2	0x3ebb0818	0.36529613
3	0xbf106b82	-0.56414044
4	0x3f336ba6	0.70086133
5	0xbf034f06	-0.51292455
6	0xbe622325	-0.22083719
7	0xbe84bc05	-0.25924698
8	0x3f14b41c	0.58087325
9	0x3eb10f81	0.3458214
10	0xbecd9892	-0.40155464
11	0x3dc56a97	0.09639471
12	0xbe71857e	-0.2358608
13	0x3c99eac7	0.018788708
14	0xbe2a5359	-0.16633357
15	0xbf0de383	-0.5542528
16	0xbf719ffe	-0.94384754
17	0xbe6eea6f	-0.23331617
18	0x3c895629	0.016764717
19	0x3eda12c5	0.42592445
20	0xbd91eb44	-0.071249515
21	0x3dc11baf	0.09429108
22	0x3f25262c	0.6451137
23	0xbea596a5	-0.32341495
24	0x3f6a41b9	0.91506535
25	0x3f1b2fe4	0.6061995
26	0x3e8dd43d	0.27700987
27	0x3e283077	0.16424738
28	0xbf8141ad	-1.0098168
29	0x3de28f1d	0.11062453
30	0x3d7e9307	0.062151935
31	0x3e1434ba	0.14473239

model.3.main.1.running_var f4 [32]
0	0x3f0c150d	0.5471962
1	0x3fb37e8f	1.4022998
2	0x3f4a2821	0.7896748
3	0x3fbe9baa	1.4891255
4	0x3fbfe996	1.499316
5	0x3fdedf74	1.7411942
6	0x3f305eb3	0.688945
7	0x3ee434cf	0.4457154
8	0x3fa2a4ce	1.2706544
9	0x3f5d42a9	0.8642984
10	0x3f178b1d	0.59196645
11	0x3ed47bda	0.4150074
12	0x3f2e5125	0.68092567
13	0x3ef1b036	0.4720475
14	0x3f9c14a6	1.2193801
15	0x3f4843ed	0.78228647
16	0x3f0edf56	0.55809534
17	0x3f56c2b1	0.83890826
18	0x3f016abf	0.50553507
19	0x3f6af0f5	0.9177392
20	0x3f0c50a2	0.54810536
21	0x3f82b213	1.0210594
22	0x3f11a376	0.56890047
23	0x3f873de1	1.0565759
24	0x3fb2fc1b	1.3983186
25	0x40013f57	2.019491
26	0x3fb7faea	1.4373448
27	0x3f2cee5c	0.6755121
28	0x3f1a9dc9	0.6039701
29	0x3f8de5dd	1.1085774
30	0x3efa047b	0.48831543
31	0x3f610527	0.87898487

model.3.main.3.weight f4 [32, 32, 3, 3]
0	0xbca7556e	-0.020426478
1	0x3b5086c8	0.0031818617
2	0xbd9db439	-0.0770039
3	0x3e354cbd	0.17705055
4	0xbdf362f4	-0.11884108
5	0xbca9ea64	-0.020741649
6	0xbdf4e370	-0.11957443
7	0xbcca8f9c	-0.024726681
8	0xbde513a3	-0.11185386
9	0x3d1133c4	0.03544976
10	0x3ce57874	0.028011538
11	0x3c2f3f84	0.010696296
12	0xbcb4bc4b	-0.022062441
13	0xbd27f7e4	-0.04100789
14	0xbd5323da	-0.051547863
15	0xbde16f63	-0.110075735
16	0xbc9ac287	-0.018891586
17	0xbdc56099	-0.09637565
18	0xbd4b23d9	-0.049594734
19	0x3d7d2862	0.06180609
20	0x3db77a09	0.08958823
21	0xbdc513a8	-0.0962289
22	0x3db4dfc4	0.088317424
23	0xbdd0bc77	-0.10192197
24	0x3d96a0d0	0.07354891
25	0xbd24cbce	-0.040233426
26	0xbd591864	-0.053001776
27	0xbd9c1d3b	-0.07622763
28	0xbe136e8d	-0.1439764
29	0x3d7f5534	0.062337115
30	0x3adccb3a	0.0016845234
31	0x3de3a759	0.111159034
32	0xbdadc20b	-0.084842764
33	0x3d34b82a	0.044120945
34	0xbd9d20ea	-0.076722935
35	0xbe211c32	-0.15733412
36	0x3b8eeb90	0.0043615773
37	0x3e2ffaa6	0.17185459
38	0xbc9aba24	-0.018887587
39	0xbc4e7f74	-0.012603629
40	0xbde8944d	-0.11356411
41	0xba46ad90	-0.00075789634
42	0x3cc8564e	0.024455216
43	0x3e3c2ca4	0.18376404
44	0xbc424b7d	-0.011858818
45	0x3e019284	0.12653548
46	0xbe2740f6	-0.16333374
47	0xbe211f8e	-0.15734693
48	0x3d6acf8f	0.05732685
49	0x3b88d7f1	0.004176133
50	0x3e111a62	0.1417022
51	0xbd76d2eb	-0.06025974
52	0x3c23b647	0.009992189
53	0x3c31b919	0.010847353
54	0xbccfb769	-0.025356011
55	0x3e0019c7	0.12509833
56	0x3c9002d6	0.017579477
57	0xbc996ab0	-0.01872763
58	0xbdba3a17	-0.09093111
59	0x3d966363	0.07343175
60	0xbd407c76	-0.046993695
61	0xbdcda672	-0.100415125
62	0x3d4f30c8	0.05058363
63	0xbdcb2a20	-0.09920144
64	0x3c78be7d	0.015182135
65	0x3d4d0f32	0.05006332
66	0x3bb66701	0.0055664782
67	0x3d96eb43	0.07369091
68	0x3cac840e	0.021059062
69	0xbd0785ef	-0.033086713
70	0x3de55ccd	0.11199341
71	0x3d0df537	0.034657683
72	0x3df76b72	0.120810404
73	0x3d2e6d00	0.04258442
74	0xbd5909d0	-0.052987874
75	0x3e239d45	0.15977962
76	0xbd2a837b	-0.041629296
77	0xbc715c8b	-0.014731537
78	0xbd8214f1	-0.063516505
79	0x3dba9687	0.09110742
80	0xbe02fc1a	-0.12791482
81	0xbd113a44	-0.035455957
82	0x3da6e50e	0.081491575
83	0x3d20de7d	0.03927468
84	0x3e187e81	0.14892007
85	0xbdb6b9fd	-0.08922193
86	0xbccc96bb	-0.024974218
87	0xbdc33f6f	-0.095335834
88	0x3c5586ee	0.013032658
89	0xbc0539fd	-0.008131501
90	0x3d637702	0.055533417
91	0xbdb51e76	-0.088437006
92	0x3da5c0c8	0.08093411
93	0xbd898bf3	-0.06716146
94	0xbdad9a19	-0.084766574
95	0x3dee572d	0.11637721
96	0xbd344a55	-0.0440162
97	0xbd1a2128	-0.037629277
98	0x3c945fdc	0.018112116
99	0x3dd2e794	0.10298076
100	0xbc577cdb	-0.013152326
101	0xbd4f2383	-0.050570976
102	0x3d582906	0.052773498
103	0x3c80963b	0.015696635
104	0x3dc4564e	0.09586774
105	0xbc83c5bc	-0.016085498
106	0xbe18e67c	-0.14931673
107	0x3d00487c	0.031319126
108	0x3d96f239	0.07370419
109	0x3e0b1279	0.13581266
110	0xbe1d06ba	-0.15334597
111	0xbd696b13	-0.05698688
112	0x3e0cc3e8	0.13746607
113	0xbc2b6fe2	-0.010463687
114	0xbd460cf5	-0.0483522
115	0x3b67128a	0.0035258853
116	0x3ce43d3d	0.027861232
117	0xbc879aea	-0.016553361
118	0x3da95b15	0.08269326
119	0x3d7ff4fa	0.062489487
120	0xbcaf8055	-0.021423498
121	0x3d60440e	0.054752402
122	0x3b6fab19	0.0036570488
123	0x3e045229	0.12921967
124	0x3cbeef65	0.023307512
125	0xbdc9471b	-0.098280154
126	0xbdb293b5	-0.08719579
127	0xbe1d7ad8	-0.15378892
128	0xbe0c6aab	-0.13712566
129	0xbd286e88	-0.041121036
130	0x3c424839	0.01185804
131	0xbc3de130	-0.011589333
132	0xbd8b6e90	-0.068081975
133	0x3e0bf68d	0.1366827
134	0xbe0737b8	-0.13204849
135	0xbe1a4a35	-0.1506737
136	0x3c3efd50	0.011657074
137	0x3dbe234d	0.09284077
138	0xbc4bad37	-0.012431434
139	0x3ddf9fce	0.10919152
140	0x3d884b06	0.066549346
141	0x3c82a7f1	0.015949221
142	0xbd31d603	-0.043416988
143	0x3ccac613	0.024752652
144	0xbd3b2d21	-0.045697335
145	0x3e034275	0.1281832
146	0x3ce08361	0.027406396
147	0xbd3fd6fa	-0.046835877
148	0xbc403cc3	-0.011733237
149	0x3e2f63dc	0.17127937
150	0x3d6d918a	0.058000125
151	0x3d835324	0.06412342
152	0xbd5b0118	-0.05346784
153	0x3df436a1	0.11924482
154	0x3d5c7fd1	0.053832833
155	0x3ca30276	0.019898634
156	0xbd7068f7	-0.058693852
157	0x3d7bb915	0.061455805
158	0xbe59d458	-0.21272409
159	0x3d187212	0.03721816
160	0x3d7ed8ba	0.062218405
161	0xbdcf6ad9	-0.101278014
162	0x3e16cf0c	0.1472742
163	0xbd1a3e82	-0.03765727
164	0xbbd09c5f	-0.006366297
165	0x3d989547	0.074503474
166	0x3d08fef6	0.033446275
167	0x3d04e2f2	0.032442994
168	0x3d9605d7	0.073253326
169	0xbd1beede	-0.0380696
170	0xbe2843fe	-0.16432187
171	0x3d894917	0.06703394
172	0xbd096e8b	-0.033552688
173	0xbd0ad4b0	-0.03389424
174	0xbdd23644	-0.102642566
175	0xbc9a7915	-0.018856565
176	0xbb20b81b	-0.0024523798
177	0x3d9db069	0.07699663
178	0xbd75e992	-0.060037203
179	0xbdb69f70	-0.08917129
180	0x3dde1d88	0.108454764
181	0xbdd026e4	-0.10163668
182	0x3dc36347	0.0954042
183	0x3de4f49e	0.111794695
184	0x3d2108ad	0.039314914
185	0x3e1ff30f	0.15620063
186	0x3cd8c0a4	0.026459046
187	0xbd431e73	-0.04763646
188	0xbe14fcb0	-0.14549518
189	0x3bae9e7c	0.0053289514
190	0xbcb6290f	-0.022236375
191	0x3e1d9b0d	0.15391178
192	0x3b723dd8	0.0036963131
193	0xbd4ec1be	-0.050477736
194	0xbb9a8367	-0.0047153714
195	0xbe283ea7	-0.1643015
196	0xbd6f1679	-0.05837104
197	0xbd2058ec	-0.039147303
198	0xbdc4affa	-0.09603877
199	0x3cfb6d68	0.030691817
200	0xbd85bc1e	-0.06530021
201	0xbe1563fc	-0.14588922
202	0x3dd491fd	0.103794076
203	0x3cb7b787	0.02242638
204	0xbd777d92	-0.060422488
205	0x3ddeeb02	0.10884668
206	0x3cf05d08	0.029341236
207	0x3d0614ec	0.032734796
208	0x3e419ad9	0.18906726
209	0xbdad2b65	-0.084555425
210	0x3d92657e	0.07148264
211	0xbc107b65	-0.008818482
212	0xbd690847	-0.05689266
213	0xbd8cf4fe	-0.06882666
214	0xbd1ceb55	-0.038310368
215	0x3d4f8a66	0.050669096
216	0xbd43e83f	-0.04782891
217	0x3ddc6f4a	0.10763414
218	0x3d358184	0.04431297
219	0xbda7cb44	-0.08193067
220	0xbca531e2	-0.020165388
221	0x3d38ae9d	0.0450884
222	0x3cdd0a39	0.026982414
223	0xbdc5161c	-0.09623358
224	0xbc9175d8	-0.017756388
225	0x3dbdc8ac	0.09266791
226	0xbe29edb8	-0.16594589
227	0x3cb0eee4	0.021598287
228	0x3e059537	0.13045202
229	0xbdd93020	-0.10604882
230	0x3d9417d4	0.07231107
231	0xbaff6170	-0.0019483995
232	0x3d67e392	0.056613512
233	0xbe1a6104	-0.15076071
234	0x3caeb29f	0.021325408
235	0x3d81b189	0.0633269
236	0xbdda6107	-0.10663038
237	0x3a836b81	0.0010026545
238	0xbcf30eee	-0.029670205
239	0xbddbc9bb	-0.107318364
240	0x3c34c896	0.011034152
241	0xbb95cce1	-0.0045715426
242	0xbe46a122	-0.19397405
243	0x3e1c268f	0.15249084
244	0x3e293909	0.16525663
245	0xbc610492	-0.013734
246	0x3dc3fa13	0.09569182
247	0x3e39ced1	0.181453
248	0x3d64f63d	0.055898894
249	0xbd6cac2c	-0.057781383
250	0x3cbe7e34	0.023253538
251	0xbd1ea6b4	-0.0387332
252	0x3dcde793	0.10053935
253	0xbda65c02	-0.08123018
254	0xbd8adc2b	-0.06780275
255	0xbd895c32	-0.06707038

model.3.main.4.weight f4 [32]
0	0x3f7b869e	0.98252285
1	0x3f7df971	0.9920874
2	0x3f7ddc22	0.9916402
3	0x3f7e369e	0.9930209
4	0x3f7f592d	0.99745446
5	0x3f816a99	1.0110656
6	0x3f7dbedd	0.9911936
7	0x3f7ad8de	0.97987163
8	0x3f7c81b7	0.9863543
9	0x3f807cfd	1.0038143
10	0x3f7fc1ee	0.9990529
11	0x3f802a43	1.0012897
12	0x3f7d82d8	0.99027777
13	0x3f80b654	1.0055642
14	0x3f7e2391	0.9927302
15	0x3f800034	1.0000062
16	0x3f800dda	1.0004227
17	0x3f7f947f	0.9983596
18	0x3f79fc50	0.97650623
19	0x3f7eb216	0.9949049
20	0x3f806f19	1.0033904
21	0x3f75fe92	0.9609157
22	0x3f80c4ec	1.0060096
23	0x3f7fc5dd	0.9991129
24	0x3f7d659d	0.98983175
25	0x3f7c23a6	0.98491895
26	0x3f7cb786	0.98717535
27	0x3f7c0d90	0.98458195
28	0x3f7f6ab4	0.9977219
29	0x3f7e781a	0.9940201
30	0x3f7e2d65	0.99288017
31	0x3f80417a	1.0019982

model.3.main.4.bias f4 [32]
0	0x3c82cf43	0.01596797
1	0xbb03f0ee	-0.002013262
2	0xbcc15808	-0.023601547
3	0x3c7f43b3	0.015580106
4	0x3bdb01ac	0.006683549
5	0x3cc6669e	0.024218854
6	0xbb8fe6fa	-0.004391548
7	0x3b0273b8	0.00199054
8	0x3b2d3e00	0.002643466
9	0x3cd2d4a5	0.025736162
10	0x3daac574	0.083384424
11	0x3c8d309b	0.017235091
12	0x3c113e80	0.008864999
13	0x3c031122	0.00799969
14	0xbca0f34b	-0.019647261
15	0xbc355b9c	-0.011069205
16	0x3c8dc000	0.017303467
17	0x3cb17406	0.02166177
18	0x3c0f145f	0.008732884
19	0xbbd4121b	-0.006471885
20	0xbae00331	-0.0017090795
21	0x3b368254	0.0027848678
22	0x3cbe2950	0.023213059
23	0x3cf81528	0.030283526
24	0x3ba72eb2	0.005102002
25	0x3bfdb201	0.007742167
26	0x3c9828f0	0.018574208
27	0x3d127d09	0.035763774
28	0xbc9e3a88	-0.01931502
29	0x3cd730e6	0.026268434
30	0x3bf3806b	0.00743108
31	0xbce19532	-0.027536962

model.3.main.4.gate f4 [32]
0	0x3f803622	1.001652
1	0x3f7c75ec	0.98617435
2	0x3f7478ad	0.95496637
3	0x3f85544c	1.041635
4	0x3f786f1b	0.97044533
5	0x3f7b76a5	0.9822791
6	0x3f8452ac	1.033773
7	0x3f8222de	1.0166891
8	0x3f7a6238	0.9780612
9	0x3f8477c7	1.0349053
10	0x3f806729	1.0031482
11	0x3f7756c0	0.96616745
12	0x3f7a5c15	0.97796756
13	0x3f7cfbdd	0.9882181
14	0x3f7a75cd	0.97836
15	0x3f76665b	0.9624993
16	0x3f79a247	0.9751324
17	0x3f81c467	1.0138062
18	0x3f735860	0.95056725
19	0x3f718702	0.9434663
20	0x3f788d8c	0.97090983
21	0x3f77a6d9	0.96738964
22	0x3f78c241	0.9717141
23	0x3f86123c	1.0474315
24	0x3f830d8d	1.023851
25	0x3f7d5edf	0.98972887
26	0x3f867187	1.0503396
27	0x3f8193c6	1.0123222
28	0x3f83495e	1.0256765
29	0x3f7615e3	0.96127146
30	0x3f7ba22a	0.9829432
31	0x3f845491	1.0338308

model.3.main.4.running_mean f4 [32]
0	0x3c6ad52b	0.01433305
1	0xbf1d33e9	-0.61407334
2	0x3f36545d	0.7122248
3	0xbe373846	-0.1789256
4	0xbeb28a20	-0.34871006
5	0xbf5cac3d	-0.86200315
6	0xbeeebf7b	-0.46630463
7	0xbf139e5c	-0.5766351
8	0x3ecf52f0	0.40492964
9	0xbf841343	-1.0318378
10	0xbfa5d614	-1.2955956
11	0x3e533215	0.20624574
12	0xbe83636c	-0.2566179
13	0xbb02fc0c	-0.0019986657
14	0x3fa471d9	1.2847244
15	0xbe9d56d8	-0.3073032
16	0x3df8c176	0.12146275
17	0xbf4b6286	-0.7944721
18	0xbe812df5	-0.25230375
19	0xbf1c2733	-0.60997313
20	0x3f4f7e87	0.8105244
21	0x3f07684d	0.52893525
22	0xbf31f5aa	-0.6951548
23	0x3ece7e1f	0.40330598
24	0x3ea1a1e8	0.31568837
25	0xbea470b8	-0.32117248
26	0xbf31ef32	-0.6950561
27	0xbeeb91b8	-0.46009612
28	0x3f8699c2	1.0515673
29	0x3f012ffd	0.5046385
30	0xbde30ec9	-0.110868044
31	0x3f6eb08d	0.93238145

model.3.main.4.running_var f4 [32]
0	0x3f85ecef	1.0462931
1	0x3f90ca2c	1.1311698
2	0x40826517	4.07484
3	0x3f3bbb37	0.7333254
4	0x3ff0a785	1.8801123
5	0x3f7866d4	0.97031903
6	0x3f2f07e9	0.68371445
7	0x3f7f2dc6	0.9967922
8	0x3f914e15	1.1351954
9	0x3ff69bb3	1.9266266
10	0x400ca1e1	2.1973803
11	0x3ff15d35	1.885657
12	0x3f37990d	0.7171791
13	0x3fc7a8b7	1.5598363
14	0x40267791	2.6010478
15	0x3faa989a	1.332782
16	0x3fe2466c	1.7677741
17	0x3fbeba72	1.4900649
18	0x3f102162	0.5630094
19	0x3fd73c9e	1.6815374
20	0x3fc09f60	1.5048637
21	0x3f947aa2	1.1599925
22	0x3ffbcf57	1.967265
23	0x3fae362a	1.361028
24	0x3fbe9348	1.4888697
25	0x3f6f9c4c	0.93597865
26	0x400bcdf0	2.1844444
27	0x3fc95a79	1.5730735
28	0x3fe173e4	1.7613492
29	0x3f6c2b76	0.92253816
30	0x3f563e73	0.8368904
31	0x3f58155f	0.8440761

model.4.main.0.weight f4 [32, 32, 3, 3]
0	0xbdcc8aef	-0.09987437
1	0x3ca16d7b	0.019705525
2	0xbe17fd2e	-0.14842674
3	0xbda19788	-0.078902304
4	0x3d383516	0.0449725
5	0xbcc3807d	-0.023864979
6	0xbc2fad0d	-0.010722411
7	0xbcf1d11f	-0.029518662
8	0xbdde503b	-0.108551465
9	0x3db1e8d1	0.08686984
10	0x3cc62188	0.02418591
11	0xbd468f88	-0.048476726
12	0xbd877a92	-0.06615175
13	0x3d1eb351	0.03874523
14	0xbe3129a6	-0.17301044
15	0xbdde22ad	-0.10846458
16	0xbdbdfd8e	-0.09276877
17	0x3d9ae0ba	0.075623944
18	0x3d2c152f	0.04201239
19	0x3dfb5993	0.12272944
20	0xbdbc8f2a	-0.09206994
21	0x3b85ee52	0.004087248
22	0x3d464cd5	0.048413116
23	0xbabc26d7	-0.0014354837
24	0xbd921e6c	-0.07134709
25	0x3d4035bd	0.04692625
26	0x3daae6ec	0.08344826
27	0xbe04f96f	-0.12985776
28	0x3dfb55d7	0.12272232
29	0x3dbd2643	0.092358135
30	0xbcaa0e74	-0.020758845
31	0xbdce397a	-0.100695565
32	0xbdbd1849	-0.09233148
33	0x3dfea032	0.124328986
34	0x3de98f31	0.11404265
35	0x3cf25510	0.029581577
36	0xbd2fe541	-0.042943243
37	0x3d87ff4d	0.06640492
38	0xbb4c6f47	-0.0031194256
39	0xbe4cd883	-0.20004468
40	0xbde46f41	-0.111540325
41	0x3d8bbcdd	0.06823132
42	0xbc80e4de	-0.015734132
43	0x3cbfc92b	0.023411354
44	0x3ddfd9b7	0.10930198
45	0xbd517cf8	-0.05114457
46	0xbdb03923	-0.08604648
47	0x3c4ea14d	0.012611699
48	0x3cefffae	0.029296722
49	0x3d25231b	0.040316682
50	0x3cefdac7	0.029279126
51	0x3c8bf7d1	0.017085942
52	0xbe6aa5f9	-0.22914876
53	0x3e614186	0.21997651
54	0x3d51fb83	0.05126525
55	0xbce62d85	-0.028097877
56	0x3e17bf4c	0.14819068
57	0x3da6827f	0.08130359
58	0xbc67ffa1	-0.014160068
59	0x3e401a2d	0.18759985
60	0x3a19f144	0.0005872438
61	0x3dcc782f	0.09983861
62	0xbe48ee1b	-0.1962208
63	0xbdb1a3d1	-0.086738236
64	0xbd199aa1	-0.03750098
65	0x3e14f256	0.14545569
66	0xbdfd04aa	-0.12354405
67	0xbc1986d0	-0.009370521
68	0xbd409bb1	-0.04702348
69	0x3b88d6a9	0.00417598
70	0x3d2dc76d	0.042426515
71	0x3d1d6822	0.038429387
72	0x3e4553bd	0.19270225
73	0x3e26b43a	0.16279688
74	0xbcc2c178	-0.023773894
75	0x3d4941de	0.04913508
76	0xbd90282a	-0.07038911
77	0x3cacfcc6	0.021116626
78	0x3bdfa64e	0.006825245
79	0xbd1bd821	-0.038047913
80	0x3c9bc896	0.019016545
81	0xbe49cae9	-0.1970631
82	0x3db29be1	0.08721138
83	0xbd86dc5e	-0.065850005
84	0x3d58c79f	0.05292475
85	0x3d496ce1	0.0491761
86	0x3ddab550	0.10679114
87	0xbd825c64	-0.06365278
88	0xbd483399	-0.048877332
89	0x3d8aa55a	0.067698196
90	0xbd77cf87	-0.060500648
91	0xbd294e8f	-0.041334685
92	0x3e2cd557	0.16878258
93	0xbdbe2f1f	-0.092863314
94	0x3dbaf845	0.09129385
95	0xbd856c4a	-0.06514795
96	0xbda4c141	-0.08044673
97	0xbd5c1af0	-0.053736627
98	0x3c73bf0c	0.014877092
99	0x3d40c640	0.047064066
100	0xbdfeec41	-0.124474056
101	0x3dc16961	0.094439276
102	0x3d85bb97	0.065299205
103	0x3dc748df	0.09730696
104	0x3d9fda39	0.078052945
105	0x3dc7a7f3	0.09748831
106	0x3b050c96	0.0020301691
107	0xbe099c22	-0.13438466
108	0x3dc1e505	0.0946751
109	0x3cc3ed08	0.023916736
110	0xbde61399	-0.11234207
111	0xbe087b1d	-0.13328214
112	0x3b8158eb	0.0039473674
113	0xbda832c9	-0.082128115
114	0x3e5475db	0.20748083
115	0x3e30b9fe	0.1725845
116	0xbd8e2463	-0.06940534
117	0xbe4b6b0a	-0.19865051
118	0xbd18833c	-0.03723453
119	0x3d4e9e71	0.05044407
120	0xbd055eb8	-0.032561034
121	0x3cec4000	0.028839111
122	0x3d919f67	0.07110482
123	0x3d604083	0.054749023
124	0xbd4afb8d	-0.049556304
125	0xbd4fd828	-0.050743252
126	0x3d803888	0.062607825
127	0x3d53f04d	0.05174284
128	0x3d3f9f8b	0.04678301
129	0xbcdce8c1	-0.026966454
130	0xbd32c27d	-0.04364251
131	0x3d1a4b89	0.037669692
132	0xbb904a15	-0.0044033625
133	0x3d6e642b	0.058200996
134	0x3d5e0413	0.054203104
135	0x3d78f739	0.060782645
136	0xbd87ccaf	-0.06630837
137	0xbd0852a2	-0.03328193
138	0xbd35a422	-0.044345982
139	0x3e1de74a	0.15420261
140	0x3bef4f49	0.0073031527
141	0xbdc8ce81	-0.098050125
142	0xbdcacb28	-0.0990203
143	0xbc2866aa	-0.010278383
144	0x3dd5afd8	0.1043393
145	0xbdc75ed4	-0.09734884
146	0xbdd9db2d	-0.106375076
147	0xbc959e40	-0.018263936
148	0x3deb1ee5	0.11480502
149	0x3c4a03a0	0.012329966
150	0xbd8568d3	-0.06514134
151	0x3d072c6d	0.033001352
152	0xbe0561c7	-0.1302558
153	0x3c23af92	0.00999059
154	0x3d01e65b	0.031713825
155	0x3d670632	0.056402393
156	0xbe31511e	-0.173161
157	0x3c6319ca	0.013861129
158	0xbd194efa	-0.037428834
159	0xbd8dae36	-0.06917994
160	0x3d6ced67	0.057843592
161	0x3debb4ef	0.1150912
162	0x3d6516d6	0.05592998
163	0xbcb02543	-0.021502143
164	0x3cf8b331	0.030358883
165	0xbd221ae6	-0.039576434
166	0x3d81c5cb	0.06336554
167	0x3d9e9659	0.0774352
168	0xbe798d79	-0.24370374
169	0x3cc36a94	0.023854531
170	0x3d865546	0.06559233
171	0xbdc5cad4	-0.09657827
172	0xbd636587	-0.055516746
173	0x3c5427e3	0.012948963
174	0xbd5ed234	-0.054399684
175	0xbd0cdb1e	-0.034388654
176	0x3df54afb	0.11977192
177	0xbde996b3	-0.11405697
178	0xbd7e796a	-0.06212751
179	0x3d7ccf7b	0.061721306
180	0x3b2ef2e8	0.0026695076
181	0x3d22cf47	0.039748456
182	0xbd0d0579	-0.034429047
183	0xbdd6bf8b	-0.10485753
184	0xbd95ca95	-0.0731403
185	0x3ce78936	0.02826367
186	0xbd0c9d59	-0.034329746
187	0x3d3947f3	0.04523463
188	0x3c81f5bd	0.015864247
189	0xbe28042a	-0.16407838
190	0xbd4e0a52	-0.05030281
191	0xbd678f77	-0.056533303
192	0xbca3ebd7	-0.020009918
193	0x3d810985	0.06300644
194	0x3c7a05d7	0.015260181
195	0x3d9d0d56	0.07668559
196	0x3cccf5f7	0.025019629
197	0xbdc17781	-0.09446622
198	0xbc1bde05	-0.009513383
199	0xbdb21ca9	-0.08696873
200	0x3d334991	0.04377133
201	0xbd733528	-0.059376866
202	0xbc80126f	-0.01563379
203	0x3d865eac	0.06561026
204	0xbc8a859a	-0.01690941
205	0xbd8f0b15	-0.069845356
206	0xbcc909c1	-0.024540784
207	0xbc58b457	-0.01322659
208	0xbd3794ab	-0.044819515
209	0x3da15bd3	0.07878842
210	0x3cc9b9a5	0.024624655
211	0xbd7860e9	-0.060639296
212	0xbbabba78	-0.0052407347
213	0x3c77716e	0.015102727
214	0xbd7f46b3	-0.062323283
215	0x3d311ab0	0.04323834
216	0x3d3f02a2	0.04663337
217	0xbdc19cea	-0.09453757
218	0x3dc8d40f	0.09806072
219	0xbb6e3702	-0.0036348705
220	0x3e001d32	0.12511137
221	0xbe026aed	-0.12736101
222	0xbd9cbcb1	-0.076531775
223	0xbdafe3f8	-0.085884035
224	0x3e1dbff8	0.15405262
225	0xbe01fb80	-0.12693596
226	0x3d3a979f	0.045554753
227	0xbdfe722d	-0.12424121
228	0x3d4d4fbf	0.05012488
229	0x3dc9ce0b	0.09853753
230	0xbbfe1c0d	-0.0077548088
231	0x3c44f204	0.012020592
232	0xbd504569	-0.050847445
233	0xbdbbd9b1	-0.09172381
234	0xbdc7589a	-0.09733696
235	0x3d8e3eab	0.06945547
236	0xbcdef2ae	-0.027215328
237	0x3cbdd76f	0.023174016
238	0xbd1e657c	-0.038671
239	0x3e05b485	0.13057144
240	0xbd20155b	-0.039082866
241	0x3de5b97a	0.112170175
242	0xbd3f2a77	-0.046671357
243	0x3d15a846	0.03653743
244	0xbd854526	-0.0650733
245	0xbd206941	-0.039162878
246	0xbccde339	-0.025132762
247	0xbe24c43a	-0.1609048
248	0xbc78421c	-0.01515248
249	0xbd84eb0c	-0.06490144
250	0x3d0b9417	0.034076776
251	0x3d06fa4f	0.032953557
252	0x3e4bf9b2	0.1991947
253	0x3c8f9a41	0.017529609
254	0x3d08a1e9	0.033357535
255	0x3e44ad3d	0.1920671

model.4.main.1.weight f4 [32]
0	0x3f7ae01c	0.97998214
1	0x3f82159f	1.0162848
2	0x3f8025f9	1.0011588
3	0x3f7c5b1b	0.98576516
4	0x3f805d3a	1.002845
5	0x3f7e0857	0.99231476
6	0x3f7ad9f1	0.979888
7	0x3f81e2a5	1.0147291
8	0x3f8264db	1.0187029
9	0x3f7ef12e	0.9958676
10	0x3f808785	1.0041357
11	0x3f8290ad	1.0200402
12	0x3f7f3fc5	0.9970668
13	0x3f7e0252	0.9922229
14	0x3f7f09a8	0.9962411
15	0x3f7f548b	0.9973838
16	0x3f7ecf3c	0.99534965
17	0x3f8071d9	1.0034744
18	0x3f803b6a	1.0018132
19	0x3f80213e	1.0010145
20	0x3f812964	1.0090756
21	0x3f7ff156	0.99977624
22	0x3f802708	1.0011911
23	0x3f7cfa73	0.98819655
24	0x3f7f969a	0.99839175
25	0x3f7f093a	0.99623454
26	0x3f80358c	1.0016341
27	0x3f802eb5	1.0014254
28	0x3f8215c8	1.0162897
29	0x3f80571e	1.0026586
30	0x3f8095dd	1.0045735
31	0x3f7ef25b	0.99588555

model.4.main.1.bias f4 [32]
0	0xbc930bc9	-0.017949956
1	0x3c71f6f8	0.014768355
2	0x3c27354c	0.010205578
3	0xbcadf7c6	-0.021236312
4	0x3c86cd6d	0.016455377
5	0x3bbec984	0.0058223624
6	0xbbb16bd5	-0.005414466
7	0x3c18f786	0.009336358
8	0x3c2a8e34	0.01040988
9	0x3b7dfde9	0.0038756079
10	0xbb0fecac	-0.0021961136
11	0x3cff24b9	0.03114544
12	0x3bb49c61	0.005511806
13	0x3b8578c6	0.004073235
14	0xbc915b73	-0.017743802
15	0xbbf77483	-0.007551731
16	0xbbbeca63	-0.005822466
17	0x3c88ebb9	0.016713964
18	0x3cd36adf	0.025807796
19	0x3a9077eb	0.0011022066
20	0x3bb65cc9	0.00556526
21	0x3ad99ebe	0.0016603095
22	0x3c2f0495	0.010682245
23	0xbc041f70	-0.008064136
24	0x3c0d7e6b	0.008636097
25	0xbb37e22f	-0.00280584
26	0xbca1afb8	-0.01973711
27	0x3ad14a3d	0.0015967559
28	0xbaa6f137	-0.0012736683
29	0x3ca09ecb	0.019606968
30	0x3b5aa567	0.0033362748
31	0xba80601e	-0.000979427

model.4.main.1.gate f4 [32]
0	0x3f835730	1.0260983
1	0x3f8702d7	1.0547742
2	0x3f840d82	1.0316622
3	0x3f816786	1.0109718
4	0x3f7f93d7	0.9983496
5	0x3f8b8adc	1.0901752
6	0x3f792ba5	0.9733222
7	0x3f7f8a8f	0.998208
8	0x3f816586	1.0109107
9	0x3f84246b	1.0323614
10	0x3f845ce8	1.0340853
11	0x3f80816d	1.0039498
12	0x3f79d2db	0.97587365
13	0x3f8890ea	1.0669224
14	0x3f84f5c6	1.0387504
15	0x3f7b821b	0.982454
16	0x3f7482fe	0.9551238
17	0x3f73d6ba	0.9524952
18	0x3f782c9f	0.96943086
19	0x3f880d3b	1.0629038
20	0x3f7f5f6f	0.99754995
21	0x3f7e336e	0.99297225
22	0x3f7f67e1	0.9976788
23	0x3f6ab69e	0.916849
24	0x3f82ee02	1.0228884
25	0x3f80b4a4	1.0055127
26	0x3f84c8f6	1.0373828
27	0x3f80d93e	1.0066297
28	0x3f7b96fe	0.9827727
29	0x3f60d466	0.87824094
30	0x3f731989	0.9496084
31	0x3f80b6dc	1.0055804

model.4.main.1.running_mean f4 [32]
0	0xbeb2a8b7	-0.34894344
1	0xbedaaed8	-0.4271152
2	0xbf11f081	-0.57007605
3	0xbc0f1ae4	-0.008734439
4	0xbe810030	-0.25195456
5	0xbe0f8526	-0.14015636
6	0x3f1957a1	0.59899336
7	0xbeece5f2	-0.46269184
8	0xbe38722d	-0.18012305
9	0xbdd84561	-0.10560108
10	0x3f1bb62c	0.6082485
11	0x3d6cc673	0.057806443
12	0xbf1d13ff	-0.61358637
13	0xbea9fb8f	-0.33199736
14	0x3e8fae86	0.28062838
15	0xbf4277b8	-0.75963926
16	0xbf54ea9b	-0.8317048
17	0xbf0abf55	-0.541982
18	0xbd280e81	-0.041029457
19	0x3d9d3519	0.07676143
20	0xbe933610	-0.28752184
21	0x3d284c63	0.041088473
22	0x3df21090	0.11819565
23	0x3de35273	0.1109971
24	0x3e1dec83	0.15422253
25	0x3efa8c4c	0.48935163
26	0x3eef00d0	0.46680307
27	0xbe87818e	-0.2646603
28	0xbd365bbb	-0.044521075
29	0x3f1e720e	0.61892784
30	0xbe864749	-0.2622626
31	0x3eee8f5f	0.46593758

model.4.main.1.running_var f4 [32]
0	0x40934e8a	4.6033373
1	0x406e4c10	3.7233925
2	0x40907e56	4.515422
3	0x40595638	3.3958874
4	0x40e88477	7.26617
5	0x4098119e	4.7521505
6	0x400398cd	2.0562012
7	0x4110029b	9.000636
8	0x40526538	3.287428
9	0x404cdd4c	3.201007
10	0x40c3b468	6.1157722
11	0x404278f7	3.038633
12	0x4024b7ef	2.5737264
13	0x407f4801	3.9887698
14	0x4031bfd4	2.7773333
15	0x3fdd74db	1.7301286
16	0x4078e8e4	3.8892145
17	0x405e14f5	3.470029
18	0x40a78a31	5.235619
19	0x405b3711	3.425236
20	0x41078caa	8.471842
21	0x4024ee08	2.5770283
22	0x406a7a8a	3.6637292
23	0x40668010	3.6015663
24	0x406c9208	3.696413
25	0x40850718	4.157116
26	0x40605cd0	3.5056648
27	0x40d7746e	6.7329626
28	0x40a8c73d	5.274321
29	0x40bc1ca4	5.878496
30	0x4010ce6e	2.2625995
31	0x407ae747	3.920366
