checkpoint/clf/experiment_name/200/netS.pth (torch, 828110 bytes, 10 tensors)

conv.0.bias f4 [64]
-0.0016936191 0.0036132012 -0.0034017414 0.017950812 0.0011390782 0.00093443616 -0.012052368 -0.0076430393
0.0010698652 0.0066314037 -0.003165057 -0.00955817 0.0050685806 -0.001830675 -0.0055123684 -0.002496958
0.00095561694 -0.005253107 -0.004841607 -0.01125276 0.011279745 -0.0074283774 -0.0072774803 -0.0102035375
-0.003678264 -0.0020007298 -0.0060731196 0.0008386575 -0.0035694405 0.0046700328 0.0049242084 -0.006165108
-0.002718446 0.0030589113 -0.0041242247 -0.0011526204 -0.0027090262 0.011662075 0.005144032 -0.006283884
-0.0044736485 -0.0029409868 0.015101486 -0.00072653085 -0.009336138 -0.003779932 -0.009279009 0.004060203
0.0055283336 -0.0015720447 0.0067267064 0.007120269 0.0020463422 -0.013645297 -0.002970565 0.0035953491
0.0021274756 -0.0052246675 0.0053315135 0.006975092 0.019906258 -0.005230379 0.022191955 0.008419958
00000000: 6dfc ddba 75cb 6c3b c0ef 5ebb 950d 933c
00000010: 1f4d 953a f3f4 743a 4c77 45bc 7672 fabb
00000020: b83a 8c3a 3f4c d93b d86c 4fbb df99 1cbc
00000030: 5616 a63b 43f3 efba 19a1 b4bb 01a4 23bb
00000040: 5e82 7a3a 4122 acbb 58a6 9ebb 7f5d 38bc
00000050: aece 383c bf69 f3bb ee77 eebb bd2c 27bc
00000060: 080f 71bb ad1e 03bb 0501 c7bb 5ad9 5b3a
00000070: 46ed 69bb 1307 993b 415b a13b ad04 cabb
00000080: f527 32bb 0478 483b 8124 87bb 8613 97ba
00000090: eb89 31bb 4a12 3f3c 458f a83b 0ae9 cdbb
000000a0: af97 92bb 92bd 40bb 396c 773c a974 3eba
000000b0: 9af6 18bc bcb8 77bb fc06 18bc 740b 853b
000000c0: 0627 b53b 110d ceba b46b dc3b 2551 e93b
000000d0: ed1b 063b 8690 5fbc d0ad 42bb f39f 6b3b
000000e0: 1e6d 0b3b b033 abbb fab3 ae3b 508f e43b
000000f0: 7312 a33c 9963 abbb e7cb b53c ddf3 093c

conv.0.weight_orig f4 [64, 64, 3, 3]
0.03947521 -0.021991419 -0.024320215 -0.09696474 -0.09309029 -0.011529143 -0.059216462 0.03265443
-0.031595875 0.025020659 0.07961727 -0.011589349 0.11472801 -0.03545888 -0.07147422 -0.035113093
-0.023733055 0.0038426358 0.039433658 0.18209173 0.051034406 0.11977274 -0.0058688237 0.11090703
-0.0149130365 0.10119522 -0.053057693 -0.09533064 -0.059611212 -0.00093958847 0.06554218 -0.078332886
-0.0024544394 0.037732437 0.034077037 0.005421048 0.008469356 -0.029212797 0.030126637 -0.030696012
0.051645152 0.077253595 0.026905144 0.085129954 0.05714414 0.0469858 0.09358311 -0.015802218
0.021740437 0.07032353 0.058684453 0.003887059 0.061399754 0.15511483 -0.023232516 0.0154753085
0.03965379 0.033488315 0.13163272 -0.062261663 0.015809033 -0.007514196 0.14581439 0.11868066
0.049859025 0.12108097 -0.06210939 0.105544865 -0.026533473 0.0018774347 0.0033042189 0.045334037
0.07522301 0.058504872 -0.010980803 0.12325046 0.06259631 0.06833782 -0.025377095 0.07229143
0.014581299 0.043590132 -0.08307004 0.027286433 -0.09865405 0.072279304 0.0010354527 -0.040075053
-0.009247564 0.0535928 -0.0015513069 0.058746923 -0.09378557 0.059559032 0.010000727 0.0070963646
-0.020990873 -0.031460058 0.05424396 0.12620483 -0.012204363 -0.019105094 0.02270668 -0.09219641
0.08553541 -0.017804174 0.006661094 -0.030787097 -0.04942967 -0.030214714 0.0054827007 0.0410226
0.029480655 -0.045136645 0.07420997 0.02162857 0.033342153 -0.05794498 0.011894966 -0.11918193
-0.014190509 0.06456071 0.012110246 0.014360939 -0.051627476 0.0626988 0.1293139 0.04322994
-0.034247976 -0.021676708 -0.10210168 -0.086234234 -0.033344153 -0.04130367 0.018701635 -0.005155514
0.06675345 0.12626877 0.004289401 0.07151509 -0.071172476 0.03670318 0.030693712 0.018821634
0.05215612 -0.02398715 0.088451885 -0.00652144 0.025663164 -0.028173577 0.008050476 -0.010694861
0.052829545 0.040547226 0.023248177 -0.0053756502 0.09269426 -0.103027135 -0.03560273 0.05870535
0.030074315 -0.09877503 0.0014853477 0.066103816 0.015806885 0.13398342 0.012397262 -0.09054437
-0.12721202 0.04921801 -0.023174467 -0.14079475 0.0053270394 0.06097277 -0.023549367 -0.19722214
-0.02532563 0.071316436 -0.0055808416 0.01901962 -0.027456531 -0.0099393735 0.05970572 0.030287268
-0.077087745 -0.09702963 -0.11762346 0.0056808526 0.031176496 -0.087404475 -0.0058819503 0.027822247
0.009942355 -0.037665766 0.0039032393 -0.0025520078 -0.008189174 -0.07391778 -0.037234496 0.08157352
0.041381378 0.06865577 0.033102944 0.035583135 0.044518333 -0.011829433 0.057318922 -0.051601194
0.02659834 -0.13153185 0.0657538 0.08043126 -0.0013527566 -0.13606691 -0.047774583 0.0061919675
-0.088115655 0.012289619 0.023041748 0.044287395 -0.03295527 0.034670264 0.042146184 0.047022108
-0.012024861 -0.08117858 0.011011876 0.030801995 -0.006783653 -0.07347821 -0.03626358 -0.05801614
0.06580969 -0.013886521 0.06598789 -0.01738778 0.033681363 0.038347073 -0.008528841 -0.022697214
-0.05826644 0.16192903 -0.09398768 -0.1171063 -0.02928107 -0.01623009 -0.008096887 0.019958904
0.02843068 -0.05301933 -0.1236711 -0.0004190217 -0.018572332 0.020689009 -0.024776759 0.028566362
00000000: c2b0 213d 5927 b4bc 303b c7bc 7395 c6bd
00000010: 1fa6 bebd bbe4 3cbc f68c 72bd a7c0 053d
00000020: ad6a 01bd 20f8 cc3c 610e a33d 41e1 3dbc
00000030: 85f6 ea3d 553d 11bd 1361 92bd bfd2 0fbd
00000040: d36b c2bc bbd4 7b3b 3085 213d 4176 3a3e
00000050: 7409 513d 694b f53d 434f c0bb 3a23 e33d
00000060: cf55 74bc 713f cf3d 0653 59bd b63c c3bd
00000070: e32a 74bd b74e 76ba fa3a 863d fe6c a0bd
00000080: a9da 20bb 548d 1a3d 5d94 0b3d 0ca3 b13b
00000090: 0ec3 0a3c ad4f efbc 23cc f63c 3476 fbbc
000000a0: de89 533d 2237 9e3d 2d68 dc3c 9d58 ae3d
000000b0: f90f 6a3d 2f74 403d 80a8 bf3d a773 81bc
000000c0: 0019 b23c c805 903d 1c5f 703d 07be 7e3b
000000d0: 4f7e 7b3d 6cd6 1e3e 1e52 bebc 268c 7d3c
000000e0: 036c 223d 0b2b 093d baca 063e 1606 7fbd
000000f0: f281 813c a539 f6bb 5e50 153e d90e f33d
00000100: fa38 4c3d 4df9 f73d 6a66 7ebd e827 d83d
00000110: ba5c d9bc 4114 f63a 988b 583b 2fb0 393d
00000120: 850e 9a3d cea2 6f3d d3e8 33bc bd6a fc3d
00000130: 7f32 803d b3f4 8b3d a0e3 cfbc 870d 943d
00000140: 67e6 6e3c 918b 323d a020 aabd cc87 df3c
00000150: 220b cabd 2c07 943d 07b8 873a bd25 24bd
00000160: 1883 17bc 2084 5b3d 3955 cbba 9da0 703d
00000170: a612 c0bd 2cf4 733d 17da 233c 9f88 e83b
00000180: 0df5 abbc 43dc 00bd ea2e 5e3d d73b 013e
00000190: cff4 47bc 4982 9cbc 5c03 ba3c 79d1 bcbd
000001a0: 302d af3d 0fda 91bc 4e45 da3b 3935 fcbc
000001b0: c476 4abd d984 f7bc 3aa8 b33b 5007 283d
000001c0: 6a81 f13c 34e1 38bd 66fb 973d 662e b13c
000001d0: c891 083d b757 6dbd 1ae3 423c a815 f4bd
000001e0: 4f7f 68bc 6838 843d 0e6a 463c 254a 6b3c
000001f0: 5577 53bd 3a68 803d dd6a 043e e111 313d
00000200: 9b47 0cbd 5a93 b1bc b01a d1bd 939b b0bd
00000210: e193 08bd 092e 29bd 2c34 993c 96ef a8bb
00000220: 08b6 883d 9a4c 013e 1b8e 8c3b 8176 923d
00000230: e0c2 91bd 1356 163d 6171 fb3c d42f 9a3c
00000240: a8a1 553d b380 c4bc 4326 b53d ceb1 d5bb
00000250: 8e3b d23c 46cc e6bc 25e6 033c 8039 2fbc
00000260: cb63 583d d914 263d f672 be3c 3926 b0bb
00000270: 7dd6 bd3d e4ff d2bd 2bd4 11bd 0575 703d
00000280: 695e f63c 904a cabd 00b0 c23a 7061 873d
00000290: 717d 813c f332 093e e31d 4b3c 546f b9bd
000002a0: de43 02be d398 493d 61d8 bdbc 802c 10be
000002b0: 728e ae3b 95be 793d 9aea c0bc 9af4 49be
000002c0: b277 cfbc 5a0e 923d 7edf b6bb 09cf 9b3c
000002d0: 85ec e0bc c1d8 22bc fc8d 743d 011d f83c
000002e0: 2ee0 9dbd 78b7 c6bd 92e4 f0bd 7226 ba3b
000002f0: da65 ff3c 1e01 b3bd 60bd c0bb 7beb e33c
00000300: 42e5 223c 6b47 1abd 7dcd 7f3b 963f 27bb
00000310: e32b 06bc 3462 97bd 3383 18bd 0510 a73d
00000320: 857f 293d 659b 8c3d f496 073d 9fbf 113d
00000330: db58 363d 3dd0 41bc 3fc7 6a3d c65b 53bd
00000340: c3e4 d93c 49b0 06be eea9 863d 25b9 a43d
00000350: fb4e b1ba 2055 0bbe 48af 43bd fde5 ca3b
00000360: fb75 b4bd 665a 493c 0cc2 bc3c b366 353d
00000370: 1bfc 06bd 6802 0e3d 7aa1 2c3d 419a 403d
00000380: ec03 45bc f540 a6bd 286b 343c 7754 fc3c
00000390: 6849 debb be7b 96bd 1f89 14bd 55a2 6dbd
000003a0: 3bc7 863d 4a84 63bc a924 873d d170 8ebc
000003b0: 78f5 093d d211 1d3d 8dbc 0bbc 82ef b9bc
000003c0: caa8 6ebd b9d0 253e 9d7c c0bd 6ed5 efbd
000003d0: dbde efbc f7f4 84bc cea8 04bc db80 a33c
000003e0: 75e7 e83c cc2a 59bd 4647 fdbd 24b0 dbb9
000003f0: 0125 98bc ff7b a93c a1f8 cabc 0104 ea3c

conv.0.weight_u f4 [64]
0.1194598 0.27453405 0.046000216 0.20225668 -0.073920295 0.011952064 -0.06793599 -0.2708109
0.10591595 -0.050758287 -0.09313626 -0.057902925 -0.012574352 0.1766771 -0.12713309 -0.13406722
0.031746738 -0.19608209 -0.027332129 0.13818787 -0.037996735 -0.0019051181 0.04149575 0.16054966
-0.026280906 -0.13744 -0.048511583 -0.2549718 0.065686084 0.082320616 -0.40993908 -0.023143208
-0.16768944 0.109746836 0.041692793 0.083307244 -0.1290123 0.24258843 -0.023320785 0.06356616
-0.008435761 0.26329693 -0.05176098 -0.010148049 -0.10506032 0.17400366 -0.10334063 0.030629976
0.05807234 -0.011492042 0.007575159 -0.07969424 -0.09910411 -0.105005555 0.012646091 -0.0631278
0.038032554 -0.13490388 -0.022269424 0.0395444 0.096993506 0.10049096 -0.068703815 0.052051928
00000000: 57a7 f43d ba8f 8c3e b96a 3c3d 601c 4f3e
00000010: 8663 97bd 97d2 433c 0622 8bbd baa7 8abe
00000020: 76ea d83d ece7 4fbd 39be bebd 9e2b 6dbd
00000030: a804 4ebc d7ea 343e 2d2f 02be eb48 09be
00000040: de08 023d bec9 48be a1e7 dfbc 1f81 0d3e
00000050: 77a2 1bbd 28b5 f9ba 73f7 293d 2167 243e
00000060: 0e4b d7bc 12bd 0cbe 15b4 46bd aa8b 82be
00000070: 6d86 863d b697 a83d 89e3 d1be d396 bdbc
00000080: c8b6 2bbe f3c2 e03d 10c6 2a3d fd9c aa3d
00000090: cd1b 04be 1a69 783e 3b0b bfbc fa2e 823d
000000a0: 2536 0abc dbce 863e 5203 54bd 0144 26bc
000000b0: dd29 d7bd 042e 323e 41a4 d3bd b7eb fa3c
000000c0: 43dd 6d3d 1e49 3cbc 0a39 f83b bc36 a3bd
000000d0: 18f7 cabd 270d d7bd 8d31 4f3c 2649 81bd
000000e0: 06c8 1b3d 3e24 0abe 5e6e b6bc 4ff9 213d
000000f0: 88a4 c63d 34ce cd3d 96b4 8cbd 6734 553d

conv.0.weight_v f4 [576]
-0.04011585 -0.04137825 0.05104993 0.09157838 0.033836488 -0.02985467 0.0069283755 0.026274836
-0.07320774 0.030651081 -0.1473023 0.053835075 0.15797424 0.013148115 -0.052103437 0.009319068
-0.05180707 -0.038203955 0.040962953 0.04963402 0.00814288 -0.014737201 -0.01607099 0.030590238
0.04437991 0.044526365 0.06878618 -0.030238124 -0.010865874 0.007525221 -0.008726676 -0.008059296
0.0034234773 0.052358143 -0.034845747 0.020250173 -0.013334202 -0.0539844 0.024672648 -0.033875376
0.04818405 -0.027057726 -0.012577576 0.013544555 0.02159552 -0.039194264 0.023411077 0.010454274
-0.0555802 -0.026686685 0.011451703 0.0023082148 0.088295445 -0.03168543 0.091889136 0.075767875
-0.039879777 0.009256575 0.04561038 -0.020237826 -0.06613734 -0.026177494 0.058343958 0.04550577
0.032302003 0.04590596 0.081254415 0.05032184 0.053725865 0.05807102 -0.023707993 -0.005843302
-0.0022598826 -0.0609926 -0.00051350985 -0.00066066947 0.054014776 0.029036373 0.007092486 -0.016627379
0.021982282 0.020303888 -0.035222556 0.029095482 -0.01076459 0.04483878 0.04699535 0.05408011
-0.010455663 -0.04103348 -0.06382583 0.026734509 0.05807969 0.023200117 0.06627438 0.03923023
-0.015980408 -0.0069700615 -0.08313739 0.009805594 -0.043099023 -0.022098975 -0.044678617 0.016446574
0.042733077 -0.017565262 0.008448081 -0.060808603 0.004403469 -0.0137805855 0.023429824 0.026348192
0.051859546 -0.026397955 0.0107203005 0.0074698585 0.007988525 -0.050992593 -0.0654766 0.031013105
-0.02358901 0.0044995304 -0.0066186087 0.018268807 -0.07820984 -0.021011868 -0.011800378 0.03750261
-0.049636237 -0.0076360265 -0.0065370374 -0.008821561 -0.017370315 0.010628722 -0.020461854 -0.069490485
-0.008019083 0.007218397 -0.06593217 0.005691566 -0.03466243 -0.031905606 0.035894874 -0.033841155
0.058030356 -0.0011398712 0.0490127 0.018634021 0.0070849736 -0.044632178 0.012898484 0.08409129
0.07536986 0.032608364 0.047452386 0.008763198 0.013362337 0.046289105 0.027712675 -0.03364543
-0.025352426 0.028350096 -0.0037537927 0.08371118 -0.07885596 0.052940343 0.083904244 -0.084470585
0.019880714 -0.018935274 0.019903528 0.005944545 0.091260016 -0.072942786 -0.015751736 0.0018829973
-0.007840695 0.07323292 -0.010408534 0.09512545 0.019528287 -0.043686252 -0.01056036 0.055242673
0.017904352 -0.03289997 0.0398053 0.024433305 -0.0078214435 -0.009884371 -0.073950544 0.020860717
0.027134502 -0.032011047 -0.007921446 -0.01898776 0.030925484 -0.07131887 -0.047349047 -0.027223703
-0.0140749775 -0.0077785775 0.033470478 0.0011516304 -0.07117236 0.05203767 0.0055952664 -0.022585846
-0.060238887 -0.0047174143 0.06807177 -0.00044734438 -0.06929187 0.002763878 0.012427047 -0.007860612
-0.07632836 -0.021422844 0.08074272 0.01871981 0.035202265 -0.017592788 -0.018383546 -0.020230008
-0.015404552 -0.034193363 0.028693195 -0.051783018 -0.16600013 0.012088417 0.064871974 0.038614627
0.047587667 0.05084129 0.030440781 0.0137356 0.07338882 0.051225413 -0.0082684625 -0.02620107
0.043005485 0.09239034 -0.053858325 -0.072843134 0.018770609 0.059380047 0.023596242 0.023192525
-0.022028279 0.044344094 0.09786816 -0.019797215 0.024053339 0.033795137 0.0053451615 -0.009546253
00000000: 8450 24bd 3d7c 29bd bb19 513d 728d bb3d
00000010: 2198 0a3d c891 f4bc 6d07 e33b 533e d73c
00000020: f1ed 95bd fa17 fb3c 6ad6 16be 2b82 5c3d
00000030: 00c4 213e 316b 573c 6a6a 55bd 01af 183c
00000040: a633 54bd c07b 1cbd c5c8 273d 0b4d 4b3d
00000050: b769 053c 4d74 71bc 4fa7 83bc 6198 fa3c
00000060: b5c7 353d 4761 363d c5df 8c3d f1b5 f7bc
00000070: c706 32bc 2196 f63b 55fa 0ebc 230b 04bc
00000080: 6b5c 603b 7e75 563d 6aba 0ebd b1e3 a53c
00000090: b277 5abc bf1e 5dbd 4b1e ca3c e8c0 0abd
000000a0: a35c 453d 2aa8 ddbc 2d12 4ebc fbe9 5d3c
000000b0: 17e9 b03c 2a8a 20bd 96c8 bf3c 6748 2b3c
000000c0: 10a8 63bd 099e dabc ec9f 3b3c 6b45 173b
000000d0: 3ed4 b43d 95c8 01bd 5f30 bc3d 302c 9b3d
000000e0: fa58 23bd e4a8 173c f3d1 3a3d ccc9 a5bc
000000f0: 0473 87bd 2f72 d6bc 13fa 6e3d 4264 3a3d
00000100: 1b4f 043d e307 3c3d b768 a63d 461e 4e3d
00000110: a70f 5c3d e1db 6d3d 4437 c2bc 2b79 bfbb
00000120: 8a1a 14bb 60d3 79bd 109d 06ba c730 2dba
00000130: 993e 5d3d b0dd ed3c 1668 e83b 2436 88bc
00000140: 3014 b43c 5754 a63c 8745 10bd a659 ee3c
00000150: f75d 30bc dea8 373d 327e 403d 1b83 5d3d
00000160: 3b4e 2bbc b912 28bd 1eb7 82bd 5402 db3c
00000170: f8e4 6d3d 2c0e be3c ddba 873d e1af 203d
00000180: 58e9 82bc 1d65 e4bb f043 aabd a4a7 203c
00000190: 9a88 30bd e908 b5bc ed00 37bd f7ba 863c
000001a0: e108 2f3d 06e5 8fbc d269 0a3c 7112 79bd
000001b0: fa4a 903b f7c7 61bc e7ef bf3c 2ad8 d73c
000001c0: ad6a 543d 8640 d8bc 33a4 2f3c b7c5 f43b
000001d0: 4de2 023c 9cdd 50bd 9818 86bd 320f fe3c
000001e0: bd3d c1bc cc70 933b eae0 d8bb 77a8 953c
000001f0: 7b2c a0bd 1521 acbc 5f56 41bc 569c 193d
00000200: 5e4f 4bbd a237 fabb a534 d6bb 4f88 10bc
00000210: 314c 8ebc 1724 2e3c 9e9f a7bc 0751 8ebd
00000220: 7962 03bc 4e88 ec3b 7207 87bd 5180 ba3b
00000230: 31fa 0dbd 74af 02bd 8106 133d 069d 0abd
00000240: 3db1 6d3d bb67 95ba 8ac1 483d 60a6 983c
00000250: 1129 e83b 3bd0 36bd 2a54 533c 0e38 ac3d
00000260: 835b 9a3d 5990 053d 6f5d 423d 8493 0f3c
00000270: b4ed 5a3c a599 3d3d b105 e33c cacf 09bd
00000280: e4af cfbc 763e e83c 3102 76bb c470 ab3d
00000290: 3c7f a1bd f9d7 583d fdd5 ab3d eafe acbd
000002a0: e1dc a23c 261e 9bbc b90c a33c 75ca c23b
000002b0: 88e6 ba3d 0763 95bd c909 81bc e8ce f63a
000002c0: 4276 00bc 24fb 953d 8e88 2abc 22d1 c23d
000002d0: c9f9 9f3c 5bf0 32bd 5c05 2dbc 2446 623d
000002e0: 26ac 923c 1ec2 06bd e20a 233d 5b28 c83c
000002f0: 8325 00bc 0ff2 21bc 6273 97bd 18e4 aa3c
00000300: 2d49 de3c 041e 03bd f4c8 01bc 388c 9bbc
00000310: 7157 fd3c a10f 92bd 13f1 41bd 3e04 dfbc
00000320: bc9a 66bc 70e3 febb 5718 093d 4ef2 963a
00000330: d0c2 91bd 7425 553d 7f58 b73b f405 b9bc
00000340: 0dbd 76bd 8a94 9abb 3669 8b3d 8c89 eab9
00000350: e5e8 8dbd 2e22 353b d09a 4b3c ccc9 00bc
00000360: 0b52 9cbd f67e afbc 705c a53d 495a 993c
00000370: 4030 103d c01e 90bc 1799 96bc 67b9 a5bc
00000380: 6063 7cbc 570e 0cbd fe0d eb3c 6e1a 54bd
00000390: f0fb 29be 7f0e 463c 99db 843d 5f2a 1e3d
000003a0: 49eb 423d f53e 503d f25e f93c 480b 613c
000003b0: e14c 963d bdd1 513d 7278 07bc a0a3 d6bc
000003c0: 8526 303d 2637 bd3d 8c9a 5cbd c82e 95bd
000003d0: d2c4 993c 7e38 733d e84c c13c 40fe bd3c
000003e0: a674 b4bc 27a2 353d 1a6f c83d c52d a2bc
000003f0: 820b c53c c56c 0a3d 7726 af3b e367 1cbc

conv.2.bias f4 [64]
-0.008854996 -0.020350289 -0.004138164 -0.004166949 -0.0036561505 -0.005706788 -0.0014502594 -0.0074749365
-0.0005688903 -0.00024121127 0.0047999052 -0.013765645 -0.007781752 -0.0063722567 -0.016872823 -0.011417446
-0.00988261 -0.016099071 -0.007417416 -0.0052711465 -0.01598872 -0.010480431 -0.0048145894 -0.006077625
-0.036716904 -0.0066448385 -0.017897537 -0.007277367 -0.00928624 -0.002669047 -0.038400188 -0.003821317
-0.011637526 -0.028462509 -0.00726069 -0.052232902 -0.0064838454 -0.012178743 -0.006490611 -0.019195959
-0.008157854 -0.005954484 -0.012336009 -0.004270832 -0.020161098 -0.007363044 -0.00035630545 -0.0051297196
-0.0026064855 -0.009501575 -0.020328145 -0.0066861366 -0.004323342 -0.0070787948 -0.0071040327 -0.0073408093
-0.003674314 -0.010419799 -0.009063256 -0.005291948 -0.033571705 -0.006191695 -0.0098189395 -0.014568186
00000000: 8c14 11bc a6b5 a6bc 7099 87bb e78a 88bb
00000010: 079c 6fbb 0200 bbbb a116 beba 50f0 f4bb
00000020: 9521 15ba a8ed 7cb9 8648 9d3b 4d89 61bc
00000030: 11fe febb 5dce d0bb e038 8abc 3d10 3bbc
00000040: acea 21bc 33e2 83bc cc0d f3bb 95b9 acbb
00000050: c7fa 82bc 1db6 2bbc b4c3 9dbb d026 c7bb
00000060: 7764 16bd f2bc d9bb db9d 92bc fb76 eebb
00000070: 5025 18bc 2eeb 2ebb 8449 1dbd 106f 7abb
00000080: 52ab 3ebc 352a e9bc 15eb edbb 2bf2 55bd
00000090: 7076 d4bb 5a89 47bc 31af d4bb d840 9dbc
000000a0: 85a8 05bc d51d c3bb f91c 4abc 56f2 8bbb
000000b0: e328 a5bc b145 f1bb 82ce bab9 3517 a8bb
000000c0: 92d1 2abb 7eac 1bbc 3687 a6bc 6117 dbbb
000000d0: d2aa 8dbb 3cf5 e7bb f2c8 e8bb 2c8b f0bb
000000e0: c2cc 70bb ceb7 2abc 0d7e 14bc 1468 adbb
000000f0: 7c82 09bd b4e3 cabb 9edf 20bc 67af 6ebc

conv.2.weight_orig f4 [64, 64, 3, 3]
-0.0077837775 0.04485833 -0.051476184 -0.10787482 -0.16287407 0.00442003 0.0069286874 -0.081400245
-0.0019459123 -0.03245393 -0.02070861 -0.010243659 0.039946727 0.019164957 -0.029645361 -0.008241531
-0.03061752 -0.09486279 -0.034529705 0.022722695 -0.05828427 -0.022772651 -0.029526006 0.04524249
-0.11096779 -0.036489066 0.01623313 -0.040175747 -0.0019501343 0.01291662 0.0056681246 -0.09224813
0.012771106 0.016355434 0.04571338 0.0725445 0.051817685 0.04607209 0.025039947 0.098585576
-0.010483638 -0.07416104 0.02600791 -0.018068094 0.010583912 -0.035547715 -0.06695668 -0.07173871
0.016860832 0.0050385343 -0.031761702 0.001532979 -0.038279466 -0.04304974 0.004203422 -0.061089363
0.0047952076 -0.08370178 -0.015374486 -0.030667365 0.0045971177 -0.047583405 0.045642424 -0.08227325
-0.013950751 -0.028757595 -0.013263519 0.10405402 -0.052062955 -0.0720074 -0.042682935 0.08090531
0.020749757 -0.024271192 -0.043922722 -0.026893705 0.004744316 0.011564375 -0.074262775 -0.01563194
-0.042598877 -0.02963454 -0.022511812 0.019443784 0.040066615 -0.043091398 -0.030626133 -0.012371722
-0.11057245 -0.043642204 -0.04237934 -0.04377719 -0.04391798 -0.1040385 0.13057032 0.10424826
-0.03161455 -0.025613911 0.03856272 0.0021010465 0.08063592 -0.009979516 0.046550374 0.0031207053
-0.017450778 0.055284016 0.055694953 -0.014733765 0.097374804 0.085159406 -0.0337734 -0.030811533
-0.0016713955 -0.080578946 -0.102736354 -0.012017113 0.0047584972 -0.06540024 0.018695222 0.048659537
0.02164709 -0.010947719 -0.050373763 -0.0101883905 -0.060337894 -0.04061329 -0.0324181 -0.03491166
0.016610084 0.0910896 0.030119987 0.057676908 0.020724222 0.071790926 0.015055361 -0.0023284438
-0.1852803 -0.009427831 0.089599855 -0.034679662 0.042451255 -0.07922739 -0.00850656 -0.014982602
-0.06824366 -0.023139564 0.041408982 0.001847538 0.004951657 0.04887924 -0.048101675 0.09069165
-0.03445174 0.035017543 0.054128498 -0.094984286 -0.023311932 0.023469703 -0.031980082 0.09319477
-0.02489806 -0.025378348 -0.014509955 0.051630992 -0.016465692 0.06901675 -0.057892025 -0.04252828
0.021774193 0.041536108 -0.00540758 0.122743644 0.053640984 -0.015699508 -0.052732695 -0.03202542
0.0070923497 -0.0033656622 0.10428176 0.039407328 0.0279182 0.02656956 0.07577257 -0.097551055
-0.033757936 -0.008447601 -0.07637637 -0.07462569 -0.109225236 0.02504627 0.021441475 -0.04352031
-0.1529673 -0.027275195 0.07948071 0.027394025 0.06984801 -0.04877695 -0.015388511 -0.13022512
-0.022740465 -0.061874487 -0.04498905 0.011882868 -0.04980452 0.08657231 0.011887849 -0.041486286
-0.022432772 -0.027781582 0.095378816 -0.0021692473 0.0060963645 -0.081170075 -0.016776431 0.046701577
0.070483066 0.0104448525 0.018340396 -0.04911511 0.09222434 -0.01687233 -0.025407989 0.050334178
-0.010906408 0.01805234 -0.004994606 -0.066792466 -0.0056151208 -0.0069735064 0.04415764 -0.03573561
-0.034459483 -0.08540732 -0.0047845435 -0.03382519 0.059406742 -0.02168943 0.13490899 -0.018670471
0.011587831 -0.015520004 -0.051639307 0.06421837 -0.026498914 -0.05263064 -0.023219652 0.036065053
0.1461596 0.05857479 0.059874285 -0.14789206 0.023160243 0.026531864 0.07478196 -0.027052173
00000000: 0f0f ffbb 5ebd 373d b1d8 52bd 79ed dcbd
00000010: 76c8 26be e6d5 903b 0b0a e33b 2cb5 a6bd
00000020: fb0d ffba 69ee 04bd 1aa5 a9bc 05d5 27bc
00000030: 2e9f 233d d4ff 9c3c d4da f2bc 7d07 07bc
00000040: 98d1 fabc 6c47 c2bd 056f 0dbd f224 ba3c
00000050: 7dbb 6ebd b68d babc 86e0 f1bc 3050 393d
00000060: 1543 e3bd 8f75 15bd 57fb 843c 538f 24bd
00000070: a69b ffba 3ba0 533c adbb b93b 96ec bcbd
00000080: e73d 513c d5fb 853c f43d 3b3d 3692 943d
00000090: c83e 543d 16b6 3c3d 9320 cd3c 3ce7 c93d
000000a0: 91c3 2bbc bee1 97bd 8a0e d53c 8a03 94bc
000000b0: 2568 2d3c 7b9a 11bd 9520 89bd bfeb 92bd
000000c0: ba1f 8a3c 4a1a a53b 8f18 02bd 3dee c83a
000000d0: eeca 1cbd ed54 30bd dcbc 893b d738 7abd
000000e0: 1e21 9d3b d76b abbd 45e5 7bbc 203a fbbc
000000f0: 6ba3 963b d1e6 42bd 8df3 3a3d e17e a8bd
00000100: b191 64bc 0c95 ebbc 3b4f 59bc 461a d53d
00000110: f73f 55bd 9e78 93bd 4dd4 2ebd afb1 a53d
00000120: 65fb a93c 61d4 c6bc 50e8 33bd 3050 dcbc
00000130: 3576 9b3b 8178 3d3c 1517 98bd 8e0e 80bc
00000140: 297c 2ebd 23c4 f2bc b16a b8bc 9248 9f3c
00000150: e41c 243d 9b80 30bd a8e3 fabc c3b2 4abc
00000160: cf73 e2bd 2bc2 32bd f595 2dbd b64f 33bd
00000170: 57e3 33bd 2312 d5bd 3ab4 053e 1d80 d53d
00000180: 427e 01bd 44d4 d1bc f1f3 1d3d b6b1 093b
00000190: 7224 a53d 2081 23bc 9bab 3e3d bf84 4c3b
000001a0: eff4 8ebc 7e71 623d 6420 643d e465 71bc
000001b0: 716c c73d 0e68 ae3d fa55 0abd 7868 fcbc
000001c0: ba12 dbba 9306 a5bd 7067 d2bd 6de3 44bc
000001d0: 2bed 9b3b 90f0 85bd b926 993c 394f 473d
000001e0: 3d55 b13c 105e 33bc b854 4ebd 35ed 26bc
000001f0: de24 77bd 1f5a 26bd d7c8 04bd 87ff 0ebd
00000200: df11 883c 2f8d ba3d 31be f63c 9f3e 6c3d
00000210: d8c5 a93c 1f07 933d c3aa 763c ce98 18bb
00000220: 1eba 3dbe 3077 1abc 2180 b73d 430c 0ebd
00000230: 5ee1 2d3d f841 a2bd 195f 0bbc 9679 75bc
00000240: 55c3 8bbd 2f8f bdbc 779c 293d 1729 f23a
00000250: 8241 a23b 9935 483d 4306 45bd 8bbc b93d
00000260: 451d 0dbd 8e6e 0f3d d8b5 5d3d 1f87 c2bd
00000270: aaf8 bebc 8943 c03c 8cfd 02bd e6dc be3d
00000280: 04f7 cbbc 41e6 cfbc 2abb 6dbc 057b 533d
00000290: 0fe3 86bc a758 8d3d 3020 6dbd 2232 2ebd
000002a0: cb5f b23c c421 2a3d 1232 b1bb 0561 fb3d
000002b0: a6b6 5b3d 419c 80bc 3dfe 57bd 162d 03bd
000002c0: f166 e83b 7192 5cbb ad91 d53d 9469 213d
000002d0: b5b4 e43c 68a8 d93c a62e 9b3d d9c8 c7bd
000002e0: c345 0abd cf67 0abc 376b 9cbd 5bd5 98bd
000002f0: 7bb1 dfbd d62d cd3c 08a6 af3c 5a42 32bd
00000300: 76a3 1cbe 3b70 dfbc c8c6 a23d 6f69 e03c
00000310: 790c 8f3d 57ca 47bd 1820 7cbc bc59 05be
00000320: 364a babc 1a70 7dbd 7046 38bd 5cb0 423c
00000330: d3ff 4bbd d34c b13d 41c5 423c 86ed 29bd
00000340: efc4 b7bc 3396 e3bc f855 c33d ee29 0ebb
00000350: 03c4 c73b 7f3c a6bd ba6e 89bc 274a 3f3d
00000360: 6d59 903d e320 2b3c 993e 963c ed2c 49bd
00000370: 1de0 bc3d d737 8abc 6a24 d0bc 362b 4e3d
00000380: cab0 32bc 80e2 933c cba9 a3bb 7dca 88bd
00000390: 0cff b7bb 0382 e4bb a4de 343d 815f 12bd
000003a0: 6325 0dbd 08ea aebd a9c7 9cbb 488c 0abd
000003b0: 7c54 733d 08ae b1bc 9525 0a3e d1f2 98bc
000003c0: e3da 3d3c 9d47 7ebc bd83 53bd ec84 833d
000003d0: 4014 d9bc 3a93 57bd 2437 bebc f3b8 133d
000003e0: ddaa 153e 1eec 6f3d bd3e 753d 0471 17be
000003f0: 8dba bd3c 5a59 d93c 4927 993d 859c ddbc

conv.2.weight_u f4 [64]
0.06865609 0.022451213 0.0010401828 0.045302913 0.09850465 -0.036299128 0.095649816 0.051731054
0.2010741 -0.022613829 0.06122302 -0.058150046 -0.042714626 -0.06392219 -0.20011845 0.18480015
0.0352938 0.030559866 -0.030133627 -0.009896418 -0.023703214 -0.059283376 -0.059450302 -0.04947371
0.11111243 0.06500863 -0.12996747 -0.0088686645 0.027787512 0.06128421 -0.15151915 -0.098118596
0.010508769 -0.086720906 -0.193498 -0.040281437 -0.10888491 -0.09656227 0.31961358 -0.059515033
0.1270574 -0.09612263 -0.048561122 -0.033725105 0.17810714 0.00680787 0.16488875 -0.06615498
-0.15603386 0.03141366 -0.09649036 -0.46442196 -0.11431913 0.10727727 -0.06467099 -0.17614001
-0.13529074 0.17301896 0.20305423 -0.18869847 0.09241579 0.14403147 0.16304429 -0.030948311
00000000: 909b 8c3d 9beb b73c be56 883a 8c8f 393d
00000010: cebc c93d 65ae 14bd 0de4 c33d f1e3 533d
00000020: 5ee6 4d3e a340 b9bc fdc4 7a3d be2e 6ebd
00000030: 88f5 2ebd a3e9 82bd daeb 4cbe 403c 3d3e
00000040: 3b90 103d af58 fa3c ccda f6bc 9624 22bc
00000050: 3e2d c2bc 20d3 72bd 2982 73bd f2a4 4abd
00000060: ea8e e33d 3f23 853d 3116 05be e04d 11bc
00000070: a3a2 e33c 2705 7b3d d627 1bbe 67f2 c8bd
00000080: f92c 2c3c bb9a b1bd 5724 46be 26fe 24bd
00000090: 0dff debd 70c2 c5bd 64a4 a33e 09c6 73bd
000000a0: 561b 023e f1db c4bd 07e8 46bd 5623 0abd
000000b0: b861 363e 8e14 df3b 99d8 283e 437c 87bd
000000c0: 57c7 1fbe 9cab 003d bd9c c5bd b7c8 edbe
000000d0: 2620 eabd 2fb4 db3d 3972 84bd 0c5e 34be
000000e0: a889 0abe e22b 313e 73ed 4f3e 2c3a 41be
000000f0: 7d44 bd3d fc7c 133e 15f5 263e 5087 fdbc

conv.2.weight_v f4 [576]
-0.014724624 -0.038025893 -0.02118103 0.040367533 0.02875246 0.021110946 0.03750663 -0.060853135
0.0683576 -0.0069553847 -0.009142645 -0.00056883 0.08032548 0.011476086 -0.017951729 -0.010219748
0.031751174 -0.010419297 0.010941833 -0.040872622 -0.05449397 -0.018152794 -0.05019428 0.049248938
-0.054028343 -0.022577409 0.087203205 0.077259764 -0.011206824 0.013374697 0.10972271 -0.07025907
0.04617966 0.048160423 0.008680769 0.019444818 0.01842265 -0.0029570316 0.029837161 0.045700762
0.00057060353 -0.019344231 -0.07982675 -0.044997208 -0.050986234 -0.026722547 0.033646837 -0.01172512
0.04997514 0.037465096 0.051396627 0.021524766 -0.06998492 0.060812537 0.00069848815 0.015613299
-0.04831018 -0.006110827 -0.076477095 0.045685545 0.0063645598 -0.02254304 -0.029031018 -0.014563603
0.04588279 -0.025682334 -0.024571907 0.034501135 -0.009089165 -0.025467636 -0.012181398 -0.009859263
0.031242564 0.034909055 0.036563896 0.010815178 0.050376136 0.037003584 0.0052644927 -0.059797827
0.02306441 0.028641777 -0.059439007 0.022506176 0.056658767 -0.0032852236 -0.011395871 -0.033661272
-0.026162222 0.054525312 0.04620476 -0.035623044 0.06779191 -0.028011719 0.054995317 -0.05686505
-0.078966774 -0.051313844 0.031135263 -0.05833872 0.027130796 -0.016659303 0.015141263 -0.0544143
0.02414854 0.048900474 -0.01096007 0.024354173 0.039786432 0.00881429 -0.01938441 -0.026505554
-0.03409658 -0.058546603 -0.05452252 -0.0007072903 0.045919444 -0.044300538 -0.027796747 0.07813005
0.05053768 0.06749911 -0.019761184 0.0048195194 0.01628064 0.04209144 0.0044478 0.052871242
-0.015058993 -0.012519205 0.07580667 -0.02074773 0.048376232 -0.0283657 -0.019330481 0.00668051
0.02758322 -0.0426277 0.061058726 -0.034870896 -0.061743204 -0.049614795 0.03734824 0.012915939
0.050966404 0.055853464 0.00184302 0.049744483 -0.02772915 0.047157593 0.015966056 0.05778706
-0.018263772 0.06395708 0.05171611 -0.05454218 0.10622645 -0.011350934 0.07477348 0.012107173
-0.08050045 0.029577194 0.020388285 -0.04050431 -0.043170664 0.012304677 -0.036673196 0.024969162
0.012271417 -0.007853153 -0.035395347 0.05433675 -0.07270731 -0.011681178 -0.06282545 0.04256619
-0.006175836 -0.04871428 0.031174535 0.048454065 -0.089459024 -0.045990333 -0.031963162 -0.0023994963
-0.03017546 0.0149614345 -0.013993486 -0.1263833 -0.056384984 0.009781948 0.012229334 0.05098889
0.0071205995 0.0026180458 0.016228305 0.043020815 0.07073355 0.012529044 0.063925475 -0.06599761
0.04214968 0.09286674 0.066935085 0.014957299 0.035397194 -0.007071807 -0.013908003 -0.023119386
0.03680399 0.000434755 -0.021217627 -0.0033623176 0.058558065 0.029963436 -0.02513105 0.0127775
-0.03838004 0.0028555614 0.068833336 0.055643853 0.074017435 -0.025319904 -0.02488341 0.029063577
0.027083443 0.007419605 -0.018285755 -0.007993355 -0.087308876 0.018682696 0.0029537056 -0.016263722
0.0716767 -0.04238758 0.03166643 0.06938202 0.040940635 -0.009722769 0.039420746 0.022427216
0.04104902 -0.018526217 -0.03305944 -0.032479946 0.09061592 0.004290845 -0.051907342 -0.037528872
-0.030792585 0.016217584 0.025596833 -0.022658292 -0.010924236 0.022514436 -0.012142626 -0.028891446
00000000: 8d3f 71bc 0ac1 1bbd d783 adbc 6d58 253d
00000010: 478a eb3c ddf0 ac3c 8da0 193d 2341 79bd
00000020: 12ff 8b3d ffe9 e3bb 08cb 15bc 891d 15ba
00000030: af81 a43d 3206 3c3c 810f 93bc bb70 27bc
00000040: 850d 023d b3b5 2abc 6045 333c 0d6a 27bd
00000050: 1235 5fbd 2bb5 94bc 8498 4dbd 41b9 493d
00000060: d34c 5dbd 42f4 b8bc 9897 b23d 5e3a 9e3d
00000070: d49c 37bc 8c21 5b3c 4db6 e03d fde3 8fbd
00000080: e226 3d3d dd43 453d c939 0e3c bd4a 9f3c
00000090: 19eb 963c c2ca 41bb 106d f43c b930 3b3d
000000a0: 8e94 153a cb77 9ebc 357c a3bd fe4e 38bd
000000b0: f1d6 50bd 3ee9 dabc 44d1 093d b81a 40bc
000000c0: bbb2 4c3d 0075 193d 4585 523d b554 b03c
000000d0: 4154 8fbd 9116 793d bf1a 373a ecce 7f3c
000000e0: e5e0 45bd 553d c8bb 06a0 9cbd c420 3b3d
000000f0: cc8d d03b 2eac b8bc 75d2 edbc 2e9c 6ebc
00000100: 98ef 3b3d c263 d2bc 064b c9bc 1051 0d3d
00000110: b9ea 14bc 81a1 d0bc 7d94 47bc bf88 21bc
00000120: 68f0 ff3c ccfc 0e3d 06c4 153d 2532 313c
00000130: 3557 4e3d 1291 173d c481 ac3b 91ee 74bd
00000140: 93f1 bc3c 29a2 ea3c 5176 73bd df5e b83c
00000150: 0613 683d e84c 57bb bfb5 3abc 67e0 09bd
00000160: 2852 d6bc ef55 5f3d 3441 3d3d 78e9 11bd
00000170: 7cd6 8a3d d578 e5bc c542 613d 54eb 68bd
00000180: 55b9 a1bd 772e 52bd 610f ff3c 95f4 6ebd
00000190: 6741 de3c 1779 88bc 0f13 783c 87e1 5ebd
000001a0: 29d3 c53c dd4b 483d de91 33bc 6782 c73c
000001b0: 19f7 223d d069 103c 0ecc 9ebc 2d22 d9bc
000001c0: dba8 0bbd 90ce 6fbd 0253 5fbd 7369 39ba
000001d0: 0716 3c3d 7b74 35bd 01b6 e3bc a602 a03d
000001e0: 9900 4f3d f93c 8a3d 35e2 a1bc 0fed 9d3b
000001f0: fa5e 853c 1368 2c3d dabe 913b 848f 583d
00000200: ffb9 76bc 5a1d 4dbc 8740 9b3d 25f7 a9bc
00000210: 2826 463d 2f5f e8bc f55a 9ebc 2ee8 da3b
00000220: 34f6 e13c 629a 2ebd b718 7a3d c9d4 0ebd
00000230: 71e6 7cbd e238 4bbd 78fa 183d 609d 533c
00000240: 26c2 503d 9ac6 643d 7d91 f13a dfc0 4b3d
00000250: 3e28 e3bc 5228 413d 3fcb 823c 20b2 6c3d
00000260: e89d 95bc eefb 823d 46d4 533d 9f67 5fbd
00000270: 418d d93d 45f9 39bc d722 993d 2a5d 463c
00000280: 6cdd a4bd df4b f23c 5505 a73c d9e7 25bd
00000290: b9d3 30bd 8e99 493c a236 16bd 218c cc3c
000002a0: 0e0e 493c 83aa 00bc b6fa 10bd 3690 5e3d
000002b0: 92e7 94bd 6962 3fbc a1aa 80bd e359 2e3d
000002c0: ab5e cabb a088 47bd bd61 ff3c c577 463d
000002d0: 4b36 b7bd 5c60 3cbd ceeb 02bd de40 1dbb
000002e0: 8732 f7bc ce20 753c ef44 65bc a06a 01be
000002f0: f1f3 66bd 7744 203c 8b5d 483c bad9 503d
00000300: eb53 e93b 8593 2b3b 39f1 843c 9836 303d
00000310: c0dc 903d 9f46 4d3c 5ceb 823d c129 87bd
00000320: 25a5 2c3d eb30 be3d 4315 893d 760f 753c
00000330: a6fc 103d 9eba e7bb 65de 63bc de64 bdbc
00000340: c8bf 163d d4ef e339 97d0 adbc 545a 5cbb
00000350: 95da 6f3d e175 f53c a2df cdbc b858 513c
00000360: 6434 1dbd 5f24 3b3b 7ef8 8c3d cfea 633d
00000370: 7496 973d b06b cfbc 4bd8 cbbc bd16 ee3c
00000380: 19de dd3c 2820 f33b 02cc 95bc 90f6 02bc
00000390: ffce b2bd 740c 993c f592 413b 7f3b 85bc
000003a0: 3ccb 923d 999e 2dbd a9b4 013d 2918 8e3d
000003b0: 5eb1 273d 404c 1fbc a677 213d 48b9 b73c
000003c0: 0423 283d 4bc4 97bc 5669 07bd b109 05bd
000003d0: d794 b93d 379a 8c3b cb9c 54bd e0b7 19bd
000003e0: bb40 fcbc bdda 843c 73b0 d13c e29d b9bc
000003f0: 91fb 32bc 3270 b83c ddf1 46bc c1ad ecbc

w.M2MM f4 [1, 64, 32, 32]
1.028136 1.0351448 1.0123382 1.0132362 0.9829853 0.98329705 1.0399219 1.0572758
1.1274014 1.1066533 1.0399696 1.0116096 1.0416561 1.0299708 0.9794975 0.9554057
0.97050035 0.97126985 0.93545586 0.93559545 0.96208227 0.9805987 0.9488006 0.9851921
0.9580346 0.9858722 1.075963 1.0639794 0.9630882 1.0078857 1.0016651 1.0799332
1.0317969 1.0061464 1.0086887 1.0058564 0.9997947 0.99521077 1.0047551 1.0056804
0.99369395 0.9915602 0.9983559 0.98831993 0.99191624 0.9882297 0.9877568 0.98591274
0.97696346 0.98026395 0.9866015 0.9899303 0.9891748 0.98920244 0.9984252 1.0006183
0.9957516 0.98773575 0.9927578 1.0031658 0.97981507 0.9624355 0.9881281 1.0351529
0.9974203 0.97719747 0.9941406 0.9862116 0.9862041 0.99241364 0.9932299 1.0147796
1.0214767 1.0007219 0.9907772 0.9771176 0.9900295 0.98279595 0.9912624 0.9922647
0.9997981 0.98598874 0.9916678 0.98655516 1.0005242 0.987322 1.0038335 1.0053976
1.0092984 0.9897599 0.99484086 1.0174898 0.9742758 0.99902064 0.9916491 0.98068887
0.9925592 0.97585917 1.0009531 0.99627423 0.9964753 0.9907876 0.98528534 0.9645169
0.96652246 0.99158686 0.98279715 0.9789461 1.0018921 0.99253917 0.9896285 0.99838823
1.0154722 1.0005616 1.0303944 1.0040027 1.0067568 1.0049906 1.0066876 1.0004851
1.0108948 0.9702818 0.9696791 0.96633106 0.97368866 1.0079483 0.9928066 0.9348836
0.9989657 1.0015563 0.9855426 1.0096956 1.0007635 0.99558985 0.9906952 0.9986668
0.99795717 0.9885766 0.99669695 0.9984449 1.0052121 1.0069776 0.99656576 0.9939697
0.9903135 0.9908729 0.994705 0.9986961 0.99136263 0.9904994 0.9967327 0.9994302
1.0014303 0.95759505 0.98916566 0.9987954 0.9864813 1.009102 0.9869241 0.9779523
0.9935342 1.0059301 0.9915631 0.9827428 0.9973554 0.99443984 0.98480684 0.9963899
0.977737 0.96991146 0.98330325 0.99667287 0.9751993 0.9855897 0.98811066 0.9939429
0.98583394 0.9942541 0.9759589 0.9863722 0.99343073 0.9766827 0.98331434 0.98865265
0.9939797 0.98674977 0.95091134 0.99560267 0.9910532 0.99663097 0.9950259 0.9745914
1.0004128 1.0099247 0.97280675 1.0033163 0.98967636 0.99901134 0.99242 0.9834622
0.98864794 0.9906205 0.97641414 0.99071854 0.9931202 0.9924033 0.9896589 0.97649413
0.98419076 0.98978025 0.97933465 0.99269575 0.9846836 0.972385 0.9881057 0.9782522
0.9866133 0.9822148 0.9529908 0.9956103 0.98505086 0.99432224 0.9818189 0.98863983
1.0020303 1.0032 0.9596337 0.9883178 0.99873674 0.9985364 0.99088955 0.99509734
0.98909724 0.99302214 1.0011266 0.99498814 0.9903721 0.9901426 0.9671303 0.98063904
0.993463 0.9909214 0.9871461 0.99094653 0.98724437 0.98877287 0.96487296 0.99079794
0.98167694 0.98613274 0.97103935 0.9988791 1.0001849 0.9945822 0.98087585 0.94032717
00000000: f699 833f a07f 843f 4c94 813f b9b1 813f
00000010: eda4 7b3f 5bb9 7b3f 291c 853f d054 873f
00000020: b04e 903f d1a6 8d3f b91d 853f 6c7c 813f
00000030: fd54 853f 15d6 833f 59c0 7a3f 7895 743f
00000040: b672 783f 24a5 783f 097a 6f3f 2f83 6f3f
00000050: 064b 763f 8408 7b3f 99e4 723f 8d35 7c3f
00000060: c141 753f 1f62 7c3f 28b9 893f 7a30 883f
00000070: f38c 763f 6602 813f 9036 803f 403b 8a3f
00000080: ec11 843f 68c9 803f b61c 813f e7bf 803f
00000090: 8cf2 7f3f 22c6 7e3f d19b 803f 23ba 803f
000000a0: ba62 7e3f e4d6 7d3f 4194 7f3f 8902 7d3f
000000b0: 39ee 7d3f 9ffc 7c3f a1dd 7c3f c764 7c3f
000000c0: 471a 7a3f 94f2 7a3f ea91 7c3f 126c 7d3f
000000d0: 8f3a 7d3f 5f3c 7d3f cb98 7f3f 4314 803f
000000e0: 94e9 7e3f 40dc 7c3f 6025 7e3f bd67 803f
000000f0: 29d5 7a3f 2c62 763f f7f5 7c3f e47f 843f
00000100: f056 7f3f 9d29 7a3f 0080 7e3f 5d78 7c3f
00000110: df77 7c3f d20e 7e3f 5144 7e3f 4ce4 813f
00000120: c0bf 823f a817 803f 93a3 7d3f 6124 7a3f
00000130: 9372 7d3f 8498 7b3f 5fc3 7d3f 0f05 7e3f
00000140: c5f2 7f3f c269 7c3f f1dd 7d3f e18e 7c3f
00000150: 2d11 803f 22c1 7c3f 9e7d 803f deb0 803f
00000160: b130 813f e860 7d3f e4ad 7e3f 1b3d 823f
00000170: 246a 793f d1bf 7f3f b7dc 7d3f 6d0e 7b3f
00000180: 5c18 7e3f e8d1 793f 3b1f 803f d40b 7f3f
00000190: 0119 7f3f 42a4 7d3f a93b 7c3f 94ea 763f
000001a0: 046e 773f a3d8 7d3f 9898 7b3f 369c 7a3f
000001b0: 003e 803f 0c17 7e3f 4b58 7d3f 5f96 7f3f
000001c0: fefa 813f 6712 803f f7e3 833f 2983 803f
000001d0: 68dd 803f 88a3 803f 24db 803f e50f 803f
000001e0: 0065 813f 6364 783f e43c 783f 7961 773f
000001f0: a943 793f 7304 813f 9328 7e3f 8854 6f3f
00000200: 37bc 7f3f ff32 803f 854c 7c3f b53d 813f
00000210: 0519 803f fade 7e3f 339e 7d3f a1a8 7f3f
00000220: 1f7a 7f3f 5b13 7d3f 8827 7f3f 169a 7f3f
00000230: caaa 803f a4e4 803f ef1e 7f3f cc74 7e3f
00000240: 2f85 7d3f d9a9 7d3f fda4 7e3f 8caa 7f3f
00000250: f1c9 7d3f 5e91 7d3f e029 7f3f a8da 7f3f
00000260: de2e 803f f324 753f f639 7d3f 0eb1 7f3f
00000270: 0a8a 7c3f 412a 813f 0fa7 7c3f 155b 7a3f
00000280: 4258 7e3f 51c2 803f 14d7 7d3f 0895 7b3f
00000290: af52 7f3f 9c93 7e3f 4d1c 7c3f 6913 7f3f
000002a0: f94c 7a3f 1e4c 783f c3b9 7b3f f425 7f3f
000002b0: a9a6 793f 9b4f 7c3f d2f4 7c3f 0b73 7e3f
000002c0: 9d5f 7c3f 7087 7e3f 71d8 793f e382 7c3f
000002d0: 7a51 7e3f e107 7a3f 7dba 7b3f 5718 7d3f
000002e0: 7475 7e3f a29b 7c3f ed6e 733f d1df 7e3f
000002f0: aab5 7d3f 3523 7f3f 04ba 7e3f d27e 793f
00000300: 870d 803f 3645 813f dd09 793f ab6c 803f
00000310: 6e5b 7d3f 35bf 7f3f 3d0f 7e3f 2ec4 7b3f
00000320: 0818 7d3f 4e99 7d3f 47f6 793f bb9f 7d3f
00000330: 203d 7e3f 250e 7e3f 495a 7d3f 85fb 793f
00000340: edf3 7b3f 3d62 7d3f adb5 7a3f 4f21 7e3f
00000350: 3914 7c3f 39ee 783f 7ff4 7c3f bc6e 7a3f
00000360: b092 7c3f 6e72 7b3f 34f7 733f 51e0 7e3f
00000370: 4b2c 7c3f e78b 7e3f 7c58 7b3f 8017 7d3f
00000380: 8742 803f dc68 803f 8eaa 753f 6502 7d3f
00000390: 36ad 7f3f 15a0 7f3f f0aa 7d3f b3be 7e3f
000003a0: 7a35 7d3f b336 7e3f eb24 803f 8bb7 7e3f
000003b0: 0789 7d3f fc79 7d3f da95 773f 290b 7b3f
000003c0: 9753 7e3f 06ad 7d3f 9bb5 7c3f acae 7d3f
000003d0: 0cbc 7c3f 3820 7d3f ea01 773f efa4 7d3f
000003e0: 2e4f 7b3f 3273 7c3f 0996 783f 8ab6 7f3f
000003f0: 0f06 803f f09c 7e3f ae1a 7b3f 48b9 703f

w.MM2M f4 [1, 64, 32, 32]
0.99668866 1.0592871 1.0591027 1.0279323 0.99444544 0.988964 1.0352108 1.0028105
1.0561306 1.0931405 1.0096788 1.0017481 1.0365163 1.0276359 0.9912391 0.9863235
0.97195286 0.9826213 0.956122 0.90637267 0.9114337 0.94132924 0.93775254 0.9619183
0.9089371 0.92688483 1.0139275 1.0942186 0.9584759 1.0266927 0.99376374 1.2146076
1.0400681 0.9981315 1.0189523 0.97818464 1.0093161 1.0104998 1.0244135 1.0386293
0.9864084 0.9870297 1.0119582 0.97391206 0.9680366 0.98805666 0.9855913 0.9452241
0.9566538 0.9594982 0.9645391 0.9481355 0.9674313 0.9734405 0.9762027 0.9936487
1.006797 0.9690411 0.9751431 1.0115045 0.9034612 0.9837547 0.97966033 1.0947685
0.9961121 0.97866833 1.0138139 0.9888164 0.9984998 1.011834 0.9945582 1.0303025
1.0366173 1.005596 0.9844669 0.99104196 1.0064268 0.9866862 0.9828895 0.9675429
0.9791119 0.99653536 0.9901658 0.986017 1.0104966 0.9916843 0.9941524 0.9951251
1.0430175 0.9929972 1.000545 1.0297742 0.9931777 0.993452 0.9796378 0.983268
0.9786936 0.97364444 1.0001003 0.9937957 0.97918683 0.9394788 0.9782378 0.9586289
0.9519849 0.9538948 0.9446044 0.97245085 0.9812224 0.97801447 1.0054332 0.99407196
1.0027646 0.9880699 0.99558586 0.99003756 1.0030336 0.97165346 0.97755665 0.9949413
0.98542947 0.9535553 0.9481671 0.96068907 0.96610385 1.0601393 0.98354584 0.8809644
1.0001823 0.9959618 0.9471531 1.0040814 0.995783 0.9855603 0.98272735 1.0169773
0.9931673 0.9720371 0.9822807 0.9856497 0.9913001 0.9928334 1.0096713 0.9850808
0.98274684 0.98104376 0.9880477 0.95687 0.99319994 0.97827905 0.9798281 0.9745888
0.975007 0.94104725 0.9563346 0.97455823 0.96889067 1.0165498 0.9892738 0.94084215
0.9773005 1.015952 0.9832289 0.9933651 0.98276085 0.9633084 0.98760045 0.99701196
0.98794794 0.9846062 0.9755844 0.9811539 0.99200726 0.99879456 0.99747413 1.0075215
1.0024037 1.0173631 1.0086555 0.99652547 0.9969111 0.9954277 0.98415095 0.9999989
0.9957344 0.9640726 0.9593943 0.9978545 0.9929392 0.9927195 0.9689584 0.9712331
0.99630845 1.0268126 0.9609233 1.0115547 0.976432 0.9944827 0.97572285 0.9702914
0.9730704 0.98639584 0.9896838 0.9859385 1.0014946 1.0186465 1.0257703 0.99845034
0.9913779 0.9950642 1.005037 1.0012841 0.9976542 0.9886177 1.0008794 0.99794
0.99362844 0.9904773 0.9521772 0.9934236 0.98322445 0.9903638 0.95786357 0.9571145
0.98988795 1.0090938 0.9235403 0.9788696 0.9841293 0.9830038 0.9715499 0.98692465
0.99180615 0.98082155 0.99855727 0.99445426 1.0300105 1.0139711 0.99801886 1.0130633
0.99081194 1.0074902 0.99959123 1.0061382 1.007228 0.99236506 0.9959766 0.99341476
0.98964953 0.981013 0.9688216 0.9943465 0.96734875 0.9892078 0.9915582 0.9531473
00000000: fd26 7f3f b896 873f ad90 873f 4993 833f
00000010: fa93 7e3f bf2c 7d3f ca81 843f 185c 803f
00000020: 4a2f 873f 07ec 8b3f 283d 813f 4839 803f
00000030: 91ac 843f 9389 833f d8c1 7d3f b27f 7c3f
00000040: e7d1 783f 128d 7b3f 69c4 743f 0a08 683f
00000050: b853 693f f4fa 703f 8d10 703f 4740 763f
00000060: 1ab0 683f 5348 6d3f 60c8 813f 5b0f 8c3f
00000070: ad5e 753f ab6a 833f 4d67 7e3f 4378 9b3f
00000080: f420 853f 8c85 7f3f 076d 823f 4f6a 7a3f
00000090: 4531 813f 0f58 813f fb1f 833f cef1 843f
000000a0: 4385 7c3f faad 7c3f d987 813f 4d52 793f
000000b0: 3fd1 773f 48f1 7c3f b64f 7c3f 35fa 713f
000000c0: 43e7 743f ada1 753f 09ec 763f 02b9 723f
000000d0: 94a9 773f 6633 793f 6ce8 793f c35f 7e3f
000000e0: b9de 803f 1413 783f faa2 793f fb78 813f
000000f0: 3c49 673f 59d7 7b3f 05cb 7a3f 6021 8c3f
00000100: 3401 7f3f 028a 7a3f a7c4 813f 1223 7d3f
00000110: af9d 7f3f c783 813f 5e9b 7e3f f4e0 833f
00000120: e0af 843f 5fb7 803f 0606 7c3f edb4 7d3f
00000130: 98d2 803f 7897 7c3f a59e 7b3f e4b0 773f
00000140: 14a7 7a3f f11c 7f3f 827b 7d3f 9c6b 7c3f
00000150: f457 813f 06df 7d3f c680 7e3f 85c0 7e3f
00000160: 9981 853f 1135 7e3f dc11 803f a4cf 833f
00000170: e540 7e3f df52 7e3f 8bc9 7a3f 74b7 7b3f
00000180: aa8b 7a3f c340 793f 4903 803f 6569 7e3f
00000190: fdab 7a3f af81 703f cb6d 7a3f b468 753f
000001a0: 48b5 733f 7332 743f 98d1 713f 8af2 783f
000001b0: 6431 7b3f 285f 7a3f 09b2 803f 807b 7e3f
000001c0: 975a 803f 26f2 7c3f b7de 7e3f 1a73 7d3f
000001d0: 6863 803f 48be 783f 2741 7a3f 79b4 7e3f
000001e0: 1b45 7c3f 331c 743f 14bb 723f b8ef 753f
000001f0: 9552 773f a5b2 873f a9c9 7b3f e286 613f
00000200: f905 803f 5af7 7e3f a078 723f bd85 803f
00000210: a2eb 7e3f ae4d 7c3f 0594 7b3f 502c 823f
00000220: 3640 7e3f 6cd7 783f bf76 7b3f 8a53 7c3f
00000230: d8c5 7d3f 542a 7e3f e93c 813f 412e 7c3f
00000240: 4c95 7b3f af25 7b3f b2f0 7c3f 6ff5 743f
00000250: 5a42 7e3f 7f70 7a3f 04d6 7a3f a77e 793f
00000260: 0f9a 793f 79e8 703f 58d2 743f a67c 793f
00000270: 3809 783f 4e1e 823f 0c41 7d3f 08db 703f
00000280: 5e30 7a3f b70a 823f e4b4 7b3f 2d4d 7e3f
00000290: 3796 7b3f 619b 763f 62d3 7c3f 2d3c 7f3f
000002a0: 28ea 7c3f 270f 7c3f e6bf 793f e72c 7b3f
000002b0: 30f4 7d3f 00b1 7f3f 775a 7f3f 77f6 803f
000002c0: c44e 803f f438 823f a01b 813f 4b1c 7f3f
000002d0: 9135 7f3f 5ad4 7e3f 51f1 7b3f eeff 7f3f
000002e0: 73e8 7e3f 76cd 763f dd9a 753f 6473 7f3f
000002f0: 4331 7e3f dd22 7e3f a80d 783f bca2 783f
00000300: 120e 7f3f 986e 833f 12ff 753f a07a 813f
00000310: 73f7 793f 6b96 7e3f f9c8 793f 0465 783f
00000320: 241b 793f 7084 7c3f eb5b 7d3f 7766 7c3f
00000330: fa30 803f 0263 823f 714c 833f 719a 7f3f
00000340: f1ca 7d3f 87bc 7e3f 0da5 803f 142a 803f
00000350: 4466 7f3f 0d16 7d3f d11c 803f ff78 7f3f
00000360: 6f5e 7e3f ec8f 7d3f e3c1 733f 0251 7e3f
00000370: 99b4 7b3f 7b88 7d3f 8c36 753f 7505 753f
00000380: 4c69 7d3f fc29 813f 236d 6c3f 3397 7a3f
00000390: e6ef 7b3f 23a6 7b3f 7fb7 783f 18a7 7c3f
000003a0: 02e7 7d3f 1f17 7b3f 73a1 7f3f 8e94 7e3f
000003b0: 62d7 833f cec9 813f 2a7e 7f3f 0fac 813f
000003c0: daa5 7d3f 70f5 803f 36e5 7f3f 23c9 803f
000003d0: d9ec 803f a30b 7e3f 53f8 7e3f 6e50 7e3f
000003e0: ac59 7d3f ab23 7b3f b104 783f 7e8d 7e3f
000003f0: 2ba4 773f b93c 7d3f c2d6 7d3f 7601 743f
