checkpoint/clf/experiment_name/700/netE.pth (torch, 241318 bytes, 33 tensors)

model.0.weight f4 [32, 3, 4, 4]
0	0xbe0fa83c	-0.1402902
1	0x3d7d7442	0.06187845
2	0xbd3b38ee	-0.04570859
3	0x3c91dace	0.01780453
4	0xbdc2f212	-0.095188275
5	0x3d06bce9	0.032895003
6	0xbcda6cd3	-0.02666322
7	0x3a91fa53	0.0011137225
8	0x3cfd68bd	0.030933732
9	0x3ccc9a2e	0.024975862
10	0x3da5457d	0.080698945
11	0xbd3001e5	-0.042970557
12	0xbd1234a2	-0.035694726
13	0xbcd1722c	-0.025567137
14	0xbc79e43b	-0.015252168
15	0x3ce80372	0.028321955
16	0x3d089e2d	0.033353973
17	0xbdb9c0e4	-0.09069994
18	0x3de591d5	0.11209456
19	0x3d2186bf	0.039435145
20	0xbd864e83	-0.06557944
21	0xbd570cfa	-0.05250261
22	0xbe2f80e0	-0.17139006
23	0xbda1a092	-0.078919545
24	0xbc7eeaec	-0.015558939
25	0x3d5234d8	0.051319927
26	0x3d901a9b	0.070363246
27	0x3e009b9a	0.12559357
28	0xbc7e697f	-0.015528082
29	0x3d3e0698	0.046393007
30	0xbcecbfd6	-0.028900068
31	0xbc73db38	-0.014883809
32	0xbdd91e3c	-0.1060147
33	0xbde30411	-0.1108476
34	0xbce7c70f	-0.02829316
35	0x3aa5c585	0.0012647366
36	0xbe2ba66b	-0.16762702
37	0xbcc13700	-0.023585796
38	0x3d3138e9	0.043267164
39	0xbcbd69fd	-0.023121828
40	0xbd58907b	-0.052872162
41	0x3d166605	0.036718387
42	0x3c5ae014	0.013359088
43	0xbd38a8bf	-0.045082804
44	0xbd4779f7	-0.0487003
45	0xbd6c1bdb	-0.057643753
46	0xbd4478e2	-0.047966845
47	0xbd8586dc	-0.06519863
48	0xbd044daa	-0.03230063
49	0x3d84dcfa	0.064874604
50	0x3da43f6e	0.08019911
51	0xbd93838b	-0.07202824
52	0x3e03310c	0.12811679
53	0x3cca3e6d	0.02468797
54	0x3cab61d0	0.020920664
55	0x3d2edaff	0.04268932
56	0x3d8c4f7e	0.068510994
57	0xbcb8e871	-0.022571774
58	0xbd636e36	-0.055525027
59	0x3d3929ca	0.04520587
60	0xbc071705	-0.008245234
61	0x3d3e87c8	0.04651621
62	0x3d9b14f6	0.07572357
63	0x3c995cd6	0.018721025
64	0xbdc0c0a4	-0.09411743
65	0x3baeec73	0.0053382455
66	0xbd994a30	-0.07484853
67	0x3cdc8954	0.026920952
68	0xbd767378	-0.060168713
69	0xbb91e2fa	-0.0044521065
70	0x3c5da48e	0.013528002
71	0xbd7e913c	-0.062150225
72	0x3d912fea	0.07089217
73	0x3c3c3931	0.011488245
74	0xbc9b038d	-0.018922592
75	0x3cf670aa	0.03008302
76	0xbd46e211	-0.048555437
77	0xbd94f956	-0.072741196
78	0xbd460bb8	-0.04835102
79	0x3c8468db	0.01616328
80	0xbdd5bb00	-0.10436058
81	0xbd7c8c9b	-0.06165753
82	0xbdb7deb0	-0.08978021
83	0x3caf3e02	0.021391872
84	0x3d8fedc0	0.07027769
85	0xbd875dd2	-0.06609692
86	0x3e225c55	0.15855534
87	0x3d88a0c3	0.06671288
88	0x3ce4bde4	0.027922578
89	0xbd856232	-0.0651287
90	0xbd012243	-0.031526815
91	0x3d08bbee	0.03338235
92	0x3dfd5b23	0.123708986
93	0x3d890b92	0.0669166
94	0x3d9403c6	0.07227282
95	0xbbbb988f	-0.0057249735
96	0xbd8f8b52	-0.07008995
97	0x3d4fff2b	0.050780457
98	0x3dcec617	0.100963764
99	0xbde4d39c	-0.11173174
100	0xbc3d4054	-0.011550982
101	0x3d3d62a0	0.046236634
102	0xbbdae373	-0.006679946
103	0x3db3347c	0.08750245
104	0xbd7de783	-0.061988365
105	0xbc36d8d2	-0.011160092
106	0xbd30a19b	-0.04312287
107	0xbe1970c9	-0.1498443
108	0x3d8add6d	0.06780515
109	0xbdafc9fb	-0.085834466
110	0x3d81eef1	0.063444026
111	0x3c75b731	0.0149972895
112	0xbdd016e1	-0.10160614
113	0x3bc9b73f	0.006155878
114	0x3db93e25	0.09045056
115	0x3db90186	0.09033494
116	0x3c976bae	0.018483963
117	0x3dd0ae51	0.10189498
118	0x3c2ba540	0.01047641
119	0x3d3105ca	0.04321841
120	0xbcb955d7	-0.02262394
121	0x3d563944	0.052300707
122	0xbd51aab2	-0.05118818
123	0x3d38c13a	0.04510615
124	0xbdbf6474	-0.09345332
125	0xbc462c67	-0.012095547
126	0x3c0fc531	0.008775041
127	0x3b714933	0.0036817312
128	0x3d866353	0.06561913
129	0xbd1991ce	-0.037492566
130	0x3c54a1c4	0.012978021
131	0x3b367002	0.0027837758
132	0xbced0fbf	-0.028938172
133	0x3d7f69cd	0.06235676
134	0xbdb1c9db	-0.08681079
135	0x3d998d77	0.074976854
136	0x3c4e59db	0.012594665
137	0xbd4217f9	-0.047386143
138	0x3c036235	0.00801902
139	0x3de2e6f4	0.11079207
140	0xba140fe4	-0.000564812
141	0xbd361d04	-0.044461265
142	0xbd81cb99	-0.06337661
143	0x3d4ac671	0.049505655
144	0x3d694a1f	0.056955453
145	0x3c07c778	0.008287303
146	0xbdad853d	-0.08472679
147	0xbc6c64f0	-0.014428362
148	0xbe0fd111	-0.14044596
149	0xbdafe32b	-0.08588251
150	0xbd53edb1	-0.051740352
151	0x3af7941f	0.0018888748
152	0xbd2de843	-0.04245783
153	0x3d7a1ed9	0.061064575
154	0xbd8c84d4	-0.068612725
155	0x3d30512f	0.043046173
156	0xbd87c1c1	-0.066287525
157	0xbce42c23	-0.027853077
158	0xbce7dea3	-0.028304404
159	0x3c551f6d	0.013007981
160	0x3a57983a	0.00082242826
161	0xbd97884c	-0.073990434
162	0xbc6a0871	-0.014284239
163	0x3b32e8d6	0.0027299426
164	0xbc4d7839	-0.01254087
165	0xbc87fad1	-0.01659909
166	0x3cc63a78	0.024197802
167	0xbce9efe3	-0.02855677
168	0xbbdfdcd8	-0.0068317465
169	0xbd97a778	-0.07404989
170	0x3d8f2142	0.06988765
171	0x3db59864	0.08866957
172	0xbe1928e2	-0.14957002
173	0xbd15d67d	-0.036581505
174	0x3dc4e8b7	0.09614699
175	0xbd69207b	-0.05691574
176	0xbdc4db93	-0.09612193
177	0xbdb3de56	-0.087826416
178	0xbc4238bb	-0.011854346
179	0x3da6cf67	0.081450276
180	0xbd35bb7d	-0.044368256
181	0x3dd7f809	0.10545356
182	0xbd4364b7	-0.04770347
183	0x3daf8391	0.08570016
184	0x3d838af3	0.06422987
185	0x3c8c6f4b	0.017142912
186	0xbd150ee9	-0.036391173
187	0xbbed895c	-0.0072490405
188	0x3ce4b98c	0.027920507
189	0xbc8154d3	-0.015787518
190	0x3d86428a	0.0655566
191	0xbc7223f9	-0.014779084
192	0x3d7691f9	0.060197804
193	0xbd49ff9c	-0.049316034
194	0xbcde77f1	-0.027156802
195	0x3c702111	0.014656321
196	0x3d4a09b5	0.049325664
197	0xbcc7a6e5	-0.024371574
198	0xbd8e3df8	-0.06945413
199	0x3c07a119	0.008278155
200	0x3db82b28	0.089926064
201	0xbc90f6b1	-0.017695757
202	0x3d50da84	0.050989643
203	0x39c0ed24	0.00036797777
204	0x3d04d0d3	0.032425713
205	0x3cb10978	0.02161096
206	0xbc7ea807	-0.0155429905
207	0xbd059ee7	-0.032622244
208	0x3da76d61	0.08175159
209	0xbd6194d8	-0.05507359
210	0xbd41df89	-0.04733232
211	0x3e03ecf1	0.12883355
212	0x3d8ec74d	0.06971607
213	0xbda5cc74	-0.08095637
214	0xbe02b8da	-0.12765828
215	0xbcf811ad	-0.030281866
216	0x3dd7bea2	0.10534407
217	0x3dbfe601	0.09370042
218	0x3b017559	0.0019753783
219	0x3cca624a	0.024705071
220	0x3b4e7c2c	0.0031507118
221	0xbdcb0718	-0.099134624
222	0xbddcb17a	-0.107760385
223	0x3d788b34	0.06067963
224	0x3d93ccec	0.0721682
225	0xbc054452	-0.008133965
226	0x3a122d97	0.00055762514
227	0xbcd850d8	-0.026405737
228	0x3d87d34c	0.066320986
229	0xbccdfc9c	-0.025144868
230	0x3d54cd04	0.05195333
231	0x3d1c7a97	0.03820285
232	0x3d2238d8	0.03960499
233	0x3cf9bd09	0.030485647
234	0xbcc3deee	-0.023910012
235	0xbe05df2f	-0.13073419
236	0x3d10202d	0.035186935
237	0x3c1f36cf	0.009717657
238	0x3d34c3df	0.04413211
239	0xbd82524e	-0.063633546
240	0x3db45f0a	0.0880719
241	0xbce3c69e	-0.027804669
242	0xbcbc5c49	-0.022993224
243	0xbe0727dc	-0.13198799
244	0x3ca5b367	0.020227147
245	0xbd041b2a	-0.03225247
246	0xbc1292e6	-0.008946156
247	0x3c14129d	0.009037641
248	0xbcf68dc6	-0.0300969
249	0x3d0d6f97	0.03453025
250	0x3d3b9ace	0.04580193
251	0x3ca4e3e9	0.020128207
252	0xbcb6fd2a	-0.022337515
253	0xbd59ebf7	-0.05320355
254	0xbcf89f8e	-0.03034952
255	0xbd8fb61d	-0.07017157

model.0.bias f4 [32]
0	0xba4a382d	-0.00077140593
1	0x3a2c88fd	0.0006581692
2	0xba0d0829	-0.0005379939
3	0xbaef591e	-0.0018260812
4	0xba1dbc43	-0.0006017128
5	0x3a8e88fc	0.0010874565
6	0xb982488a	-0.00024849578
7	0x3a38dde8	0.00070521096
8	0xb9a3f760	-0.0003127409
9	0xb8d9e781	-0.00010390487
10	0xba601198	-0.00085475435
11	0x39cd7768	0.00039189612
12	0xbab898a8	-0.0014083581
13	0x39b20a27	0.0003395837
14	0x39b6624d	0.00034786985
15	0xb8d79b34	-0.00010280908
16	0xba85e3d6	-0.0010214995
17	0x3931afbd	0.00016945503
18	0xba93a810	-0.0011265296
19	0x39a5bb3c	0.00031610753
20	0xb9799c35	-0.00023804682
21	0xb88b37da	-6.63844e-05
22	0x39196e1e	0.00014632239
23	0x393f18bf	0.00018224398
24	0xba4b75eb	-0.00077614066
25	0x38ddb267	0.00010571331
26	0xba4167b2	-0.00073778175
27	0xba8708ee	-0.0010302344
28	0x39cd7d0d	0.00039193817
29	0xb793e385	-1.7629713e-05
30	0xb9f72280	-0.00047137216
31	0xb907d539	-0.00012954035

model.1.weight f4 [32]
0	0x3f808c94	1.0042901
1	0x3f7b67b3	0.9820511
2	0x3f7a5936	0.97792375
3	0x3f79cf4c	0.97581935
4	0x3f82021d	1.0156895
5	0x3f821265	1.0161864
6	0x3f7ddb01	0.991623
7	0x3f7f9a30	0.99844646
8	0x3f7b26f4	0.9810631
9	0x3f7eba8c	0.995034
10	0x3f84ed32	1.0384886
11	0x3f77fb2d	0.9686764
12	0x3f8002bf	1.0000838
13	0x3f80ee2d	1.0072685
14	0x3f7d5a5d	0.9896601
15	0x3f7d0606	0.98837316
16	0x3f7f309c	0.9968355
17	0x3f8218cc	1.0163817
18	0x3f81f9ad	1.015432
19	0x3f7b1e8a	0.98093474
20	0x3f81495c	1.0100513
21	0x3f7b71f2	0.9822074
22	0x3f7f27ec	0.9967029
23	0x3f87b74d	1.0602814
24	0x3f7e1947	0.9925732
25	0x3f794bd0	0.97381306
26	0x3f88092b	1.0627798
27	0x3f78fee7	0.9726395
28	0x3f7ea52e	0.99470794
29	0x3f80d96d	1.0066353
30	0x3f7e4569	0.9932466
31	0x3f7e0eb5	0.9924119

model.1.bias f4 [32]
0	0x3cd21520	0.025644839
1	0x3b07428f	0.0020639037
2	0xbcf99967	-0.030468656
3	0xbc51eaca	-0.012812326
4	0x3bedf487	0.007261816
5	0x3ce91449	0.028452056
6	0x3ad35252	0.0016122556
7	0x3c045a28	0.008078136
8	0xbc3be381	-0.011467815
9	0x392f7821	0.00016734052
10	0x3cfabf58	0.030608818
11	0x3cb1eda8	0.021719769
12	0x3c94cea1	0.018164935
13	0x3c48c5d9	0.012254202
14	0xbc4ec9c6	-0.012621349
15	0xbbcf41ef	-0.0063249986
16	0x3d0cfc25	0.03442015
17	0x3c99eb1b	0.018788865
18	0x3c6497b6	0.013952186
19	0x3c689bab	0.01419727
20	0x3c77eeca	0.015132615
21	0x3cf85e55	0.030318419
22	0x3d32e3f3	0.04367442
23	0x3cf32eb8	0.029685363
24	0x3d00bd72	0.03143067
25	0xbc2a3291	-0.0103880325
26	0x3d59951f	0.05312073
27	0x3d0972a3	0.03355659
28	0x3c6bb227	0.014385737
29	0x3c86b333	0.01644287
30	0x3c608414	0.013703365
31	0x3cf89224	0.030343123

model.1.gate f4 [32]
0	0x3f8ccad9	1.0999404
1	0x3f7f761b	0.9978959
2	0x3f7d93c0	0.99053574
3	0x3f860f52	1.0473425
4	0x3f83fea2	1.0312083
5	0x3f8554e0	1.0416527
6	0x3f686474	0.9077828
7	0x3f68de6e	0.909644
8	0x3f69d2a8	0.9133706
9	0x3f9687f3	1.1760238
10	0x3f8fccff	1.1234435
11	0x3f5c3908	0.8602452
12	0x3f7fab45	0.9987071
13	0x3f695169	0.9113985
14	0x3f847869	1.0349246
15	0x3f758640	0.95907974
16	0x3f766c36	0.96258867
17	0x3f872420	1.05579
18	0x3f8277e6	1.019284
19	0x3f671943	0.9027292
20	0x3f84cbeb	1.0374731
21	0x3f733676	0.95004976
22	0x3f88a92c	1.0676627
23	0x3f7067d3	0.93908423
24	0x3f6a7b50	0.9159441
25	0x3f809bca	1.0047543
26	0x3f812d10	1.0091877
27	0x3fa22a03	1.2669071
28	0x3f76ac0e	0.96356285
29	0x3f7cb195	0.9870847
30	0x3f7d4f73	0.98949355
31	0x3f51d649	0.819676

model.1.running_mean f4 [32]
0	0x3f44798f	0.76747984
1	0xbe94aa79	-0.2903631
2	0xbe1c91c7	-0.15289985
3	0x3ee6d2f1	0.4508281
4	0xbe392337	-0.1807984
5	0x3f307bb6	0.6893877
6	0xbe2a4393	-0.1662734
7	0xbf3169c4	-0.6930201
8	0xbea4ce26	-0.3218853
9	0xbd915d6c	-0.07097897
10	0x3f6bb54b	0.92073506
11	0xbec955bf	-0.39323232
12	0xbe3f17b5	-0.18661387
13	0x3f1a49ca	0.60268843
14	0x3d51e5e0	0.051244617
15	0x3f53ab95	0.8268369
16	0xbddf2381	-0.10895444
17	0x3f9c447e	1.2208402
18	0x3f41c485	0.7569049
19	0xbeede42d	-0.46463147
20	0x3f12a2c7	0.5727963
21	0xbf728051	-0.94727045
22	0x3f1ef42b	0.6209132
23	0x3eece803	0.4627076
24	0x3c6fa8e0	0.014627665
25	0xbe6b724b	-0.22992818
26	0x3f6cf33f	0.92558664
27	0x3f160b76	0.5861124
28	0xbf6d5172	-0.927024
29	0xbd61f9bf	-0.055169817
30	0xbbb68049	-0.005569492
31	0x3d912977	0.07087987

model.1.running_var f4 [32]
0	0x3d812835	0.06306497
1	0x3d40b0aa	0.04704348
2	0x3c5caa33	0.013468313
3	0x3d16d97c	0.036828503
4	0x3ca369e7	0.01994796
5	0x3d06d567	0.03291836
6	0x3d411a9a	0.04714451
7	0x3d20e8b4	0.039284423
8	0x3d22b6ff	0.0397253
9	0x3c6b6c25	0.014369045
10	0x3d44c52a	0.048039593
11	0x3c724acc	0.014788341
12	0x3ce91ed2	0.02845708
13	0x3d65a036	0.056060992
14	0x3c911aca	0.01771297
15	0x3d8b6d72	0.068079844
16	0x3cd9f4cf	0.026605992
17	0x3d984451	0.07434905
18	0x3d442535	0.047887046
19	0x3cb37558	0.02190654
20	0x3cae0d6d	0.021246636
21	0x3d3aa76e	0.04556983
22	0x3d55355e	0.052052848
23	0x3ce36a8a	0.027760763
24	0x3da75b32	0.08171691
25	0x3d260f16	0.04054173
26	0x3d708c38	0.058727473
27	0x3d51e298	0.051241487
28	0x3d6c9f62	0.057769187
29	0x3c52b9ca	0.012861678
30	0x3ce07923	0.027401512
31	0x3d6ba834	0.057533458

model.3.main.0.weight f4 [32, 32, 3, 3]
0	0xbd0b2c37	-0.033977713
1	0xbc0e7f83	-0.008697393
2	0x3d98ea79	0.07466597
3	0xbdefe234	-0.11713067
4	0x3d4caffc	0.04997252
5	0xbe1f96f8	-0.15584934
6	0xbe0e5bcd	-0.13902207
7	0xbcb381fc	-0.021912567
8	0x3cd32a85	0.02577711
9	0xbe2e4c1d	-0.17021222
10	0xbe037b82	-0.12840083
11	0xbb98d58b	-0.004664128
12	0x3d094100	0.033509254
13	0xbde064b1	-0.10956705
14	0x3e193229	0.14960541
15	0xbe00f3cb	-0.12593
16	0xbe4294d4	-0.19002086
17	0xbcd76f31	-0.026298137
18	0xbda4050b	-0.08008774
19	0xbe04564c	-0.12923545
20	0xbd82afcd	-0.063811876
21	0xbc449405	-0.011998181
22	0x3cbeaf7b	0.023277035
23	0x3b88b73a	0.004172233
24	0xbd8a23e3	-0.06745126
25	0x3daf4799	0.08558578
26	0x3cf167ab	0.029468378
27	0xbe0b458b	-0.13600747
28	0xbd773f48	-0.060363084
29	0x3ba27c42	0.0049586603
30	0xbdf34ee4	-0.118802816
31	0x3dcbb557	0.09946697
32	0xbdb92d73	-0.09041872
33	0x3d8264fa	0.06366916
34	0x3bfaef10	0.007657893
35	0x3cd02ef3	0.025413012
36	0xbe3186c1	-0.17336561
37	0x3c3c6319	0.011498236
38	0xbd8a98fc	-0.06767461
39	0xbdd2cd0b	-0.10293015
40	0x3d0e25b7	0.034703936
41	0x3b91ba99	0.004447293
42	0xbd5d2dbe	-0.0539987
43	0x3d19cfc4	0.037551656
44	0xbd640836	-0.055671893
45	0xbdbe44fe	-0.09290503
46	0xbd2ba850	-0.041908562
47	0xbd8f1d1d	-0.06987975
48	0x3dc16c5e	0.094444975
49	0xbddab36a	-0.10678752
50	0xbccf8f91	-0.025337012
51	0xbd1f046f	-0.038822588
52	0x3c5c304e	0.013439251
53	0x3c49b808	0.012311943
54	0x3c715d62	0.014731737
55	0xbdd8cf8f	-0.10586464
56	0x3c39a07c	0.011329766
57	0xbdbbd8c4	-0.09172204
58	0x3d7307e7	0.059333708
59	0xbd2a0e30	-0.041517437
60	0x3d19e466	0.037571333
61	0x3cd43a12	0.025906596
62	0xbcc7f8a5	-0.024410555
63	0x3da30cbb	0.079614125
64	0x3db2f375	0.08737842
65	0x3dbb8421	0.09156061
66	0xbcbee692	-0.023303304
67	0x3d84a7e8	0.06477338
68	0xbcd52d3c	-0.026022546
69	0x3d8d4fbd	0.068999745
70	0xbe0c699f	-0.13712166
71	0xbd848da3	-0.064723276
72	0xbc6155ff	-0.013753413
73	0x3d8f8960	0.07008624
74	0xbdda477e	-0.10658167
75	0xbcd7bbaf	-0.026334612
76	0xbe35c10f	-0.17749427
77	0xbe0a67ab	-0.13516109
78	0xbd597e38	-0.053098887
79	0x3d682e9f	0.056685086
80	0x3da722f0	0.08160961
81	0xbd47a880	-0.04874468
82	0x3dbf6642	0.09345676
83	0xbce0e0dc	-0.027450971
84	0xbe36511a	-0.17804375
85	0xbc2dad6c	-0.010600429
86	0x3c8ec836	0.017429452
87	0xbd72e5c2	-0.059301145
88	0x3bda86b3	0.0066688894
89	0xbd59a2f0	-0.053133905
90	0xbe3c072f	-0.18362115
91	0xbd5ce3fb	-0.053928357
92	0xbcdcd75e	-0.026958164
93	0xbd13dd68	-0.03609982
94	0x3b824a54	0.0039761458
95	0xbd9bb4f4	-0.076028734
96	0x3dac6e52	0.084194794
97	0xbc2c2e84	-0.010509137
98	0xbe11d742	-0.1424227
99	0x3ba07004	0.004896166
100	0x3d48d22a	0.049028553
101	0x3ccc4cb6	0.024938922
102	0x3d140766	0.03613987
103	0xbe18ea9b	-0.14933245
104	0xbd6375ea	-0.055532373
105	0x3b98e1b0	0.004665576
106	0xbddc0105	-0.10742382
107	0x3ddc6638	0.10761684
108	0x3d14969d	0.03627645
109	0xbe015749	-0.12630953
110	0xbd3b5f67	-0.04574528
111	0xbdc93812	-0.09825148
112	0x3ce35963	0.027752584
113	0xbcfa1c1f	-0.030530987
114	0xbcee15bc	-0.029063098
115	0xbd17076e	-0.03687232
116	0xbe7071ba	-0.23480883
117	0x3e0f1067	0.13971101
118	0xbcbd93c2	-0.023141745
119	0xbe04e4b7	-0.12977873
120	0xbe06d05e	-0.13165423
121	0x3e10a0f7	0.14123903
122	0x3c34d44d	0.011036945
123	0xbe0a4b18	-0.13505208
124	0x3d08b8d0	0.033379376
125	0x3e3d3b8c	0.18479747
126	0xbd3db1c6	-0.046312116
127	0x3da230a3	0.07919433
128	0xbd2ef55f	-0.042714473
129	0x3d5e4e31	0.054273788
130	0xbdb21b53	-0.08696618
131	0x3e0be644	0.13662058
132	0xbe158dde	-0.146049
133	0xbd1813c4	-0.037128225
134	0x3e556888	0.20840657
135	0x3d1587a0	0.036506295
136	0xbd982a9e	-0.074300036
137	0xbcedee7f	-0.029044388
138	0xbdef117f	-0.11673259
139	0xbe46a47a	-0.1939868
140	0xbd273096	-0.04081782
141	0xbc4b5bb2	-0.012411999
142	0xbcb96e4d	-0.022635603
143	0x3e36c507	0.17848597
144	0xbdd5b309	-0.10434539
145	0x3c9d94dc	0.01923602
146	0xbb7af736	-0.0038294322
147	0xbdeb973c	-0.11503455
148	0x3d8c50d4	0.06851354
149	0x3d89f72b	0.06736597
150	0xbca20850	-0.019779354
151	0xbd4500ad	-0.048096348
152	0xbca4568d	-0.020060802
153	0x3d878dd3	0.06618848
154	0xbddd1921	-0.107958086
155	0x3d218288	0.039431125
156	0xbd67b5b2	-0.056569763
157	0xbcb9501a	-0.022621203
158	0xbe2a3508	-0.16621792
159	0x3d6af492	0.057362147
160	0xbd551dde	-0.052030437
161	0xbe2395d9	-0.15975131
162	0x3c118e75	0.008884062
163	0x3d79aecc	0.060957715
164	0x3d3554ca	0.044270314
165	0x3a897ebd	0.0010490041
166	0x3baa09a2	0.0051891366
167	0xbde6743b	-0.11252638
168	0xbd162c58	-0.036663383
169	0xbe08c033	-0.13354568
170	0x3e5cc5d4	0.2155984
171	0x3a366c7b	0.0006958914
172	0x3d2d99ce	0.042383008
173	0x3df7bac4	0.120961696
174	0xbc2461b7	-0.010033063
175	0xbdded4b8	-0.10880417
176	0xbe711d6d	-0.23546381
177	0xbd2839c3	-0.04107071
178	0x3a4ce886	0.0007816631
179	0x3d2a52ba	0.0415828
180	0xbd7714c6	-0.060322545
181	0xbdbfe7b3	-0.09370365
182	0xbbc1cc45	-0.0059142434
183	0x3dbf2026	0.09332304
184	0xbc2f2cc0	-0.010691822
185	0x3d8c9870	0.06865013
186	0x3d79ac9f	0.06095564
187	0xbd2e48f7	-0.042550053
188	0xbe20a628	-0.15688384
189	0xbda1f7f4	-0.079086214
190	0x3d12a3dc	0.0358008
191	0xbd7c4e8e	-0.061598353
192	0x3e236484	0.15956312
193	0xbd45a6f5	-0.048254926
194	0x3d69ff5a	0.057128288
195	0xbd150332	-0.03638
196	0xbdc034cb	-0.093850695
197	0xbdaf916f	-0.08572661
198	0xbcd1ba1b	-0.025601437
199	0xbdde196c	-0.108446926
200	0xbe04d131	-0.12970425
201	0x3e2a0de4	0.16606861
202	0x3d25fc5c	0.04052387
203	0xbb4b667e	-0.0031036432
204	0xbb2b9c22	-0.0026185592
205	0xbcea4a46	-0.02859987
206	0xbcc24911	-0.023716481
207	0xbdd0db32	-0.10198058
208	0x3d07ccd7	0.033154335
209	0xbd9b0df7	-0.07571023
210	0x3d602895	0.054726202
211	0xbe7f536c	-0.24934167
212	0xbd992317	-0.07477396
213	0xbbdac7c7	-0.0066766473
214	0xbd2c3591	-0.042043272
215	0x3dbbd6b6	0.09171812
216	0x3be4e841	0.0069856946
217	0xbce011cf	-0.027352242
218	0x3cec9846	0.028881203
219	0x3e3d7e4f	0.18505214
220	0x3bb7ab79	0.005605158
221	0x3de93fa3	0.11389091
222	0x3d88cf61	0.066801794
223	0x3b959a6a	0.0045655267
224	0xbe38044a	-0.17970386
225	0xbc47a1a5	-0.012184535
226	0xbd2afc55	-0.04174455
227	0x3e225d82	0.15855983
228	0x3a8fd533	0.0010973572
229	0x3c9f0d2b	0.019415459
230	0xbdb29c25	-0.087211885
231	0xbc9bad8b	-0.01900365
232	0xbca52736	-0.020160299
233	0x3c91a765	0.017780015
234	0xbda6a086	-0.08136086
235	0x3e33a5dc	0.17543739
236	0xbd99d4ac	-0.07511267
237	0xbd452750	-0.048133194
238	0x3c848041	0.016174437
239	0xbe02e1b4	-0.12781411
240	0x3dc42085	0.09576515
241	0xbd0fc7e0	-0.035102725
242	0x3d9cef8c	0.076628774
243	0x3cb1d872	0.021709654
244	0x3d808743	0.06275799
245	0x3e0d306c	0.13788003
246	0xbd089143	-0.033341657
247	0xbd3b2631	-0.04569072
248	0xbd41462c	-0.04718606
249	0x3caa3aa4	0.020779915
250	0x3c252546	0.010079687
251	0x3d9eadd7	0.07748001
252	0xbcf4b5a9	-0.029871779
253	0xbd8a691f	-0.067583315
254	0x3d9fd4d7	0.07804268
255	0xbca30bba	-0.019903053

model.3.main.1.weight f4 [32]
0	0x3f7e5467	0.9934754
1	0x3f80359a	1.0016358
2	0x3f8292da	1.0201066
3	0x3f826505	1.0187079
4	0x3f8272e9	1.0191318
5	0x3f80b5fd	1.0055538
6	0x3f7c528f	0.98563474
7	0x3f803631	1.0016538
8	0x3f805b70	1.0027905
9	0x3f81a33b	1.0127939
10	0x3f8050bf	1.0024642
11	0x3f7f4228	0.9971032
12	0x3f7c9364	0.986624
13	0x3f7f5090	0.99732304
14	0x3f78ad25	0.971392
15	0x3f7e1acc	0.9925964
16	0x3f818af1	1.0120527
17	0x3f800e10	1.0004292
18	0x3f800faf	1.0004786
19	0x3f7db091	0.99097544
20	0x3f82b909	1.0212718
21	0x3f7d0de3	0.98849314
22	0x3f7cf7df	0.9881572
23	0x3f7a69d2	0.9781772
24	0x3f7ff216	0.9997877
25	0x3f7eb1c7	0.99490017
26	0x3f802862	1.0012324
27	0x3f7d133d	0.9885748
28	0x3f7dfea4	0.99216676
29	0x3f8095d4	1.0045724
30	0x3f7f58ea	0.9974505
31	0x3f826f7a	1.019027

model.3.main.1.bias f4 [32]
0	0x39783f68	0.00023674744
1	0x3c142822	0.0090427715
2	0xbbc8d379	-0.006128725
3	0x3c8fafbf	0.017539857
4	0x3c4e77fd	0.01260185
5	0x3ca90b4d	0.020635271
6	0x3c57b389	0.013165363
7	0x3cb507e7	0.022098495
8	0x3d016332	0.03158874
9	0x3c555657	0.013021073
10	0x3d0bec2b	0.034160774
11	0x3cce5d36	0.02519093
12	0xba961993	-0.0011451714
13	0x3cb34549	0.021883624
14	0xba7c6fd1	-0.0009629699
15	0xbb975901	-0.0046187644
16	0x3c80bb97	0.01571445
17	0x3cdbbf7c	0.026824705
18	0x3c13427b	0.008988018
19	0xbaf1c0d5	-0.0018444309
20	0xbd143cf9	-0.03619096
21	0xbc05a6d0	-0.008157447
22	0xbc22a33c	-0.009926613
23	0xbce80710	-0.02832368
24	0xbbc65e00	-0.006053686
25	0xba1c6d65	-0.0005967229
26	0xbc3cdfc6	-0.011527961
27	0xbc6ab8c5	-0.014326279
28	0xbc538090	-0.01290907
29	0x3d1b00de	0.037842624
30	0xbb72fc43	-0.003707663
31	0x3dd44636	0.10364954

model.3.main.1.gate f4 [32]
0	0x3f78afff	0.9714355
1	0x3f9243d9	1.1426955
2	0x3f8c94a7	1.0982865
3	0x3f73106b	0.94946927
4	0x3f79d0ca	0.9758421
5	0x3f44af3e	0.768299
6	0x3f62eddc	0.88644195
7	0x3f82a445	1.0206381
8	0x3f85e60c	1.046083
9	0x3f7b41cc	0.98147273
10	0x3f619d9c	0.8813112
11	0x3f72983e	0.94763553
12	0x3f80a96a	1.0051701
13	0x3f94cd01	1.1625062
14	0x3f71b6af	0.9441938
15	0x3fa78f2d	1.3090569
16	0x3f7df659	0.9920402
17	0x3f94a1c3	1.1611866
18	0x3f78ab97	0.97136825
19	0x3f88b253	1.067942
20	0x3f7c236a	0.9849154
21	0x3f7b8fde	0.982664
22	0x3f6c0f4c	0.9221084
23	0x3f903c74	1.1268449
24	0x3f807978	1.0037069
25	0x3f5d2b1e	0.86393917
26	0x3f795edd	0.97410375
27	0x3f8284d9	1.0196792
28	0x3f86a66a	1.0519536
29	0x3f3479e6	0.704985
30	0x3f848fb5	1.0356356
31	0x3f550158	0.83205175

model.3.main.1.running_mean f4 [32]
0	0xbfb977c2	-1.4489672
1	0x3f847fc7	1.0351495
2	0x3eae9af5	0.34102598
3	0xbe62fc32	-0.22166517
4	0x3ee9c50c	0.45658147
5	0xbf46b410	-0.77618504
6	0xbf0f3d94	-0.55953336
7	0xbf0291bc	-0.51003623
8	0x3f00855b	0.50203484
9	0x3e9185b4	0.2842232
10	0xbf563a7b	-0.83682984
11	0xbdb67fa7	-0.089110665
12	0xbecc6a71	-0.39924958
13	0xbe1d5635	-0.15364917
14	0xbe0b3d9e	-0.13597724
15	0xbeeec61c	-0.4663552
16	0xbf4a8538	-0.79109526
17	0xbebb5537	-0.3658845
18	0x3e8eb826	0.2787487
19	0x3e9308a4	0.2871753
20	0xbe6c584c	-0.23080558
21	0x3e2eff0f	0.17089485
22	0x3f166b55	0.58757526
23	0xbf1ca1c9	-0.61184365
24	0x3f56170a	0.83628905
25	0x3f0f4a66	0.559729
26	0x3d1ae960	0.03782022
27	0x3db2ba16	0.08726899
28	0xbf9dfb15	-1.2342249
29	0x3e6bbaea	0.23020521
30	0x3def9e62	0.11700131
31	0xbe247bc6	-0.16062841

model.3.main.1.running_var f4 [32]
0	0x3f1fbd2e	0.6239804
1	0x3faae671	1.3351575
2	0x3f4dbc8f	0.8036584
3	0x3f9933b3	1.1968902
4	0x3fcbf144	1.5933003
5	0x40336719	2.8031676
6	0x3f55f5e1	0.83578306
7	0x3f0c32bd	0.5476492
8	0x3fe0ef42	1.7573016
9	0x3f407c63	0.751898
10	0x3f19a7d2	0.600217
11	0x3f0d6379	0.5522991
12	0x3f516a0c	0.8180244
13	0x3f0b7890	0.5448084
14	0x3f971acf	1.1805056
15	0x3fb22183	1.3916477
16	0x3f33d84d	0.70251924
17	0x3f6730cd	0.9030884
18	0x3eda0900	0.4258499
19	0x3f89f4cb	1.077783
20	0x3f150cf4	0.5822289
21	0x3f97cc15	1.1859156
22	0x3f4ac244	0.79202676
23	0x3f887a0e	1.0662248
24	0x3fa442cd	1.2832886
25	0x40269cfd	2.6033318
26	0x3f8d0aea	1.1018956
27	0x3ee7afc2	0.4525128
28	0x3f1373ba	0.5759846
29	0x3faa1dc7	1.3290337
30	0x3f0f1b16	0.55900705
31	0x3f843416	1.0328395

model.3.main.3.weight f4 [32, 32, 3, 3]
0	0xbce74e70	-0.028235644
1	0x39eb63af	0.00044896963
2	0xbd90d256	-0.070713684
3	0x3e1eb640	0.1549921
4	0xbdfde999	-0.12398071
5	0xbc33d5bf	-0.010976254
6	0xbdf6eec5	-0.120572604
7	0xbcf46baf	-0.029836504
8	0xbdd534f3	-0.1041049
9	0x3d1670f3	0.03672881
10	0x3cc6482b	0.024204334
11	0x3c280ef4	0.010257471
12	0xbc9b23cd	-0.01893797
13	0xbd2f762f	-0.042837318
14	0xbd5bf170	-0.05369705
15	0xbddeea7f	-0.1088457
16	0xbc8fdd4e	-0.017561581
17	0xbdbf13dc	-0.0932996
18	0xbd4fd1e7	-0.050737288
19	0x3d83e967	0.06441002
20	0x3db73aae	0.08946739
21	0xbdc6dd45	-0.097101726
22	0x3db4ab10	0.0882169
23	0xbdd384ce	-0.10328065
24	0x3d91313a	0.07089467
25	0xbd1906df	-0.03736007
26	0xbd460f87	-0.04835465
27	0xbda13ff5	-0.07873527
28	0xbe13b3af	-0.14424013
29	0x3d822419	0.06354541
30	0x3b51f64b	0.0032037671
31	0x3df3782a	0.11888154
32	0xbd974e59	-0.073879905
33	0x3d2fce17	0.042921152
34	0xbd96eb56	-0.073691055
35	0xbe19cd40	-0.15019703
36	0x3c500646	0.012696808
37	0x3e37cded	0.17949648
38	0xbc6ef777	-0.014585367
39	0xbbabdbca	-0.0052447068
40	0xbdde67c8	-0.108596385
41	0x38aa6057	8.1241764e-05
42	0x3cdec6dd	0.027194435
43	0x3e3e6b03	0.18595509
44	0xbc60c8d9	-0.013719761
45	0x3e0c5af5	0.13706572
46	0xbe211f53	-0.15734605
47	0xbe1f4bb7	-0.15556227
48	0x3d7f692f	0.06235617
49	0x3b703b58	0.0036656465
50	0x3e0dc2da	0.13843861
51	0xbd8237ab	-0.06358274
52	0x3badbe79	0.005302247
53	0x3c0390e7	0.008030153
54	0xbc6a3ea3	-0.01429716
55	0x3dfe28d7	0.12410133
56	0x3c024573	0.007951128
57	0xbc2cbfc4	-0.010543767
58	0xbdbc1779	-0.091841646
59	0x3d841c67	0.0645073
60	0xbd34a8db	-0.044106346
61	0xbdd3828e	-0.10327636
62	0x3d4007b4	0.046882346
63	0xbdbef5b8	-0.09324211
64	0x3ca90866	0.020633887
65	0x3d57abe4	0.052654162
66	0x3c0ae257	0.008476815
67	0x3d96d4dd	0.07364819
68	0x3c809ff2	0.015701268
69	0xbcf54689	-0.02994086
70	0x3ddb44fb	0.10706516
71	0x3ccdfe17	0.025145574
72	0x3e00a0dc	0.12561363
73	0x3d32cfab	0.04365508
74	0xbd679b34	-0.056544498
75	0x3e2bf6e5	0.16793402
76	0xbd17c860	-0.037056327
77	0xbc5ab251	-0.013348178
78	0xbd61badc	-0.055109844
79	0x3dc0309f	0.09384274
80	0xbe0259e3	-0.12729602
81	0xbd0a7593	-0.033803534
82	0x3daa21de	0.08307241
83	0x3d20cd49	0.039258275
84	0x3e1e753a	0.15474406
85	0xbdac2558	-0.0840556
86	0xbcbfcbb7	-0.023412568
87	0xbdbeb9be	-0.09312771
88	0x3c2156db	0.009847368
89	0xbc1c0972	-0.009523736
90	0x3d924c1d	0.07143424
91	0xbda9539e	-0.08267902
92	0x3da3d150	0.079989076
93	0xbd4e7a98	-0.050409883
94	0xbdb40cec	-0.08791527
95	0x3ddae6bc	0.1068854
96	0xbd19457f	-0.037419792
97	0xbd2e48fe	-0.04255008
98	0x3c12569d	0.008931783
99	0x3dd1dec5	0.10247568
100	0xbc6b889d	-0.014375833
101	0xbd547e82	-0.05187846
102	0x3d654423	0.055973183
103	0x3ca23c67	0.019804193
104	0x3dcdbad4	0.100454
105	0xbc0934fd	-0.00837445
106	0xbe12daf7	-0.14341341
107	0x3d0d7380	0.034533978
108	0x3daca86d	0.08430562
109	0x3e113bf8	0.14183033
110	0xbe1a7770	-0.15084624
111	0xbd2221fd	-0.039583195
112	0x3e117f37	0.14208685
113	0xbc3be634	-0.011468459
114	0xbcaa62f9	-0.020799147
115	0x3c3b112b	0.011417667
116	0x3cdc1d09	0.026869314
117	0xbbafe402	-0.005367757
118	0x3dc64e2e	0.0968288
119	0x3d95e58d	0.07319174
120	0xbc4c8ea8	-0.012485184
121	0x3d81923c	0.0632672
122	0x3b0d3cfe	0.0021551247
123	0x3e18aa73	0.14908771
124	0x3d457cf1	0.048214857
125	0xbdbeaa99	-0.09309883
126	0xbdb710de	-0.08938764
127	0xbe3184e6	-0.17335853
128	0xbe11f803	-0.14254765
129	0xbd1ef662	-0.038809188
130	0x3c398f3f	0.011325656
131	0xbc27967a	-0.0102287475
132	0xbd86a204	-0.06573871
133	0x3e0e4728	0.13894331
134	0xbe02f982	-0.12790492
135	0xbe198bb2	-0.14994696
136	0x3c976d91	0.018484863
137	0x3dd163e5	0.102241315
138	0xbc7b681b	-0.015344645
139	0x3ded46eb	0.11585792
140	0x3da94a12	0.08266081
141	0x3c338ba3	0.010958585
142	0xbd3366e0	-0.04379928
143	0x3d024d7b	0.031812172
144	0xbd34655c	-0.044041976
145	0x3e19cf58	0.15020502
146	0x3d15ae90	0.03654343
147	0xbd46233c	-0.048373446
148	0xbc076209	-0.0082631195
149	0x3e38b2de	0.18036982
150	0x3d759174	0.059953168
151	0x3d99cb4b	0.07509478
152	0xbd2ad353	-0.04170544
153	0x3df529b5	0.119708456
154	0x3d598b56	0.053111397
155	0x3c9be04f	0.019027857
156	0xbd4948a7	-0.049141552
157	0x3d85c774	0.06532183
158	0xbe5dfe93	-0.21679144
159	0x3d441fff	0.047882076
160	0x3d8920cc	0.06695709
161	0xbde330fb	-0.11093327
162	0x3e141e84	0.14464766
163	0xbcde5acd	-0.027142907
164	0x3bf92340	0.007603079
165	0x3d822282	0.06354238
166	0x3d12d738	0.03584978
167	0x3ce36005	0.027755747
168	0x3d835096	0.06411855
169	0xbd1bb4d4	-0.038014248
170	0xbe2ddd62	-0.16978982
171	0x3d99ac1d	0.07503531
172	0xbd06b420	-0.032886624
173	0xbd161e6b	-0.036650103
174	0xbdb9f572	-0.09080018
175	0xbc892c41	-0.016744735
176	0x39cbc8bd	0.0003886874
177	0x3d9ad9c5	0.075610675
178	0xbd732fb9	-0.059371684
179	0xbdb14bd1	-0.08657039
180	0x3dd7e853	0.10542359
181	0xbdba783d	-0.09104965
182	0x3ddadacf	0.10686266
183	0x3ddcbc64	0.1077812
184	0x3d5ce321	0.053927545
185	0x3e2c4106	0.1682168
186	0x3cd55e33	0.026045894
187	0xbd26e59e	-0.040746324
188	0xbe110fcb	-0.14166181
189	0x3bdd3150	0.0067502633
190	0xbcdd6aa8	-0.027028397
191	0x3e1909f6	0.14945206
192	0x3b02de56	0.0019968948
193	0xbd87c077	-0.06628507
194	0xbc02bfd0	-0.007980302
195	0xbe2c4660	-0.16823721
196	0xbd89fae8	-0.0673731
197	0xbd2a4bdb	-0.041576248
198	0xbdbfaf4b	-0.09359606
199	0x3d09e17d	0.033662308
200	0xbd846c00	-0.06465912
201	0xbe14566a	-0.1448609
202	0x3dcb3383	0.099219345
203	0x3c8f1264	0.017464824
204	0xbd6cd67f	-0.057821747
205	0x3dd9fb86	0.106436774
206	0x3cf0a60f	0.029376058
207	0x3cf7cec7	0.030249966
208	0x3e40e859	0.18838634
209	0xbdae0088	-0.08496195
210	0x3d9ef062	0.07760693
211	0xbbff6837	-0.007794406
212	0xbd60a5ec	-0.054845735
213	0xbd6aeb59	-0.05735335
214	0xbd13053a	-0.035893656
215	0x3d62101a	0.055191137
216	0xbd2c875b	-0.042121273
217	0x3ddf0466	0.10889511
218	0x3d31cbd4	0.043407276
219	0xbd9e0f3d	-0.0771775
220	0xbc82ebfb	-0.015981665
221	0x3d480a78	0.04883811
222	0x3cdd9ed7	0.02705328
223	0xbdc8dd55	-0.09807841
224	0xbc8beaef	-0.017079799
225	0x3dd6e232	0.10492362
226	0xbe1c92cd	-0.15290375
227	0x3cc54587	0.024081005
228	0x3e121ed6	0.14269575
229	0xbdc401f9	-0.09570689
230	0x3d9b5266	0.07584076
231	0xba2b4bee	-0.0006534447
232	0x3d6e8933	0.058236312
233	0xbe17b808	-0.14816296
234	0x3ce0d8aa	0.027447063
235	0x3d89a28c	0.067204565
236	0xbdd7b3bd	-0.10532329
237	0x3bb014e0	0.0053735822
238	0xbcdd167e	-0.026988264
239	0xbdd9bc14	-0.10631576
240	0x3c5624b5	0.013070275
241	0xbb536308	-0.0032255072
242	0xbe45efb0	-0.19329715
243	0x3e18c53a	0.14918986
244	0x3e29bc89	0.16575827
245	0xbcc0ce2b	-0.023535809
246	0x3de3b67a	0.11118789
247	0x3e3da1b9	0.18518724
248	0x3d60193b	0.05471156
249	0xbd3898cf	-0.045067605
250	0x3cdf3817	0.027248425
251	0xbd075485	-0.03303959
252	0x3dccbc21	0.0999682
253	0xbda880f7	-0.08227723
254	0xbd8557d2	-0.06510891
255	0xbd8f2f27	-0.069914155

model.3.main.4.weight f4 [32]
0	0x3f7a4967	0.97768253
1	0x3f79d10e	0.9758462
2	0x3f7c3594	0.98519254
3	0x3f73d6c1	0.95249563
4	0x3f7bcbc4	0.98357797
5	0x3f7d8f57	0.99046844
6	0x3f7b4f1d	0.9816759
7	0x3f78aad2	0.9713565
8	0x3f787e54	0.9706776
9	0x3f7ea35b	0.9946801
10	0x3f7d704d	0.9899948
11	0x3f78ae67	0.97141117
12	0x3f795e46	0.97409475
13	0x3f80bbe0	1.0057335
14	0x3f7b5f78	0.9819255
15	0x3f7ad472	0.97980416
16	0x3f7fb9a3	0.99892634
17	0x3f76b19c	0.9636476
18	0x3f70b7a6	0.94030225
19	0x3f7c61e3	0.98586863
20	0x3f7d513e	0.9895209
21	0x3f71b5f6	0.94418275
22	0x3f7cfb6a	0.9882113
23	0x3f7ea736	0.99473894
24	0x3f793184	0.9734118
25	0x3f7428c4	0.95374703
26	0x3f776869	0.9664369
27	0x3f7b13f0	0.980773
28	0x3f7a87ff	0.97863764
29	0x3f795793	0.9739925
30	0x3f7d3680	0.98911285
31	0x3f78ba64	0.9715941

model.3.main.4.bias f4 [32]
0	0x3c1f0e96	0.009708067
1	0x3c1a6f21	0.009425909
2	0xbcfc72b9	-0.030816423
3	0x3c25873d	0.010103044
4	0x3b96e9d2	0.0046055103
5	0x3d25cde1	0.040479545
6	0xbb6e1e87	-0.0036334114
7	0xbb41d2c3	-0.0029575087
8	0x3ae86806	0.0017731197
9	0x3c9ceed0	0.019156843
10	0x3dc3ad22	0.09554507
11	0x3d27199f	0.04079592
12	0x3c731242	0.014835896
13	0x3c35a617	0.011086962
14	0xbca9dae3	-0.020734256
15	0x39fa3024	0.00047719583
16	0x3cd7fc82	0.026365522
17	0x3d038785	0.032111663
18	0x3c190830	0.009340331
19	0xbc1921e4	-0.009346459
20	0x3ca2af0c	0.01985886
21	0x3bb6d038	0.005579021
22	0x3cfd8d2c	0.030951105
23	0x3d76502f	0.060135063
24	0x3b9e9f6f	0.0048407833
25	0x3c31a4b6	0.010842493
26	0x3d44d27a	0.04805229
27	0x3d5cbd01	0.053891186
28	0xbc323270	-0.010876283
29	0x3d39959d	0.045308698
30	0x3caaa86c	0.020832263
31	0xbd1901f6	-0.037355386

model.3.main.4.gate f4 [32]
0	0x3f6620f3	0.89894027
1	0x3f85507c	1.0415187
2	0x3f6cf53b	0.9256169
3	0x3f90535b	1.1275438
4	0x3f705610	0.9388132
5	0x3f7aa974	0.97914815
6	0x3f8e3d80	1.1112518
7	0x3f88df64	1.0693173
8	0x3f8415c9	1.0319148
9	0x3f8dff65	1.1093565
10	0x3f85c0a3	1.0449413
11	0x3f6a0638	0.9141574
12	0x3f608d2d	0.8771542
13	0x3f74a5fd	0.9556578
14	0x3f820acf	1.0159549
15	0x3f66df5f	0.9018459
16	0x3f70b848	0.9403119
17	0x3f8e0cbf	1.109764
18	0x3f6b9b96	0.9203428
19	0x3f6ba223	0.92044276
20	0x3f79ffbc	0.97655845
21	0x3f6a0e10	0.9142771
22	0x3f6bf84f	0.92175764
23	0x3f8a531b	1.0806612
24	0x3f87adb8	1.059989
25	0x3f76d31d	0.96415883
26	0x3f821141	1.0161515
27	0x3f8ebe3a	1.1151803
28	0x3f8a031b	1.0782198
29	0x3f7126bc	0.9419973
30	0x3f7dd853	0.9915821
31	0x3f8a5594	1.0807366

model.3.main.4.running_mean f4 [32]
0	0x3e6e017b	0.23242752
1	0xbf359bd0	-0.70940876
2	0x3f3c84ca	0.7364012
3	0xbf1a9462	-0.60382664
4	0xbef42d52	-0.47690827
5	0xbf6e2486	-0.9302448
6	0xbf24aa3f	-0.64322275
7	0xbf362126	-0.7114433
8	0x3f095896	0.53650796
9	0xbfa4d377	-1.2877034
10	0xbfdb13c5	-1.7115408
11	0x3e9c3dfb	0.30516037
12	0xbec466e6	-0.38359755
13	0x3e838ff5	0.25695768
14	0x3fa1ab2b	1.2630361
15	0xbeb7689c	-0.35821998
16	0xbd506ede	-0.05088698
17	0xbf098034	-0.5371125
18	0x3cf36bd5	0.029714504
19	0xbf3ad314	-0.7297833
20	0x3f769483	0.9632036
21	0x3f4e27a0	0.8052921
22	0xbf405088	-0.7512288
23	0x3eead679	0.45866755
24	0x3ecacf32	0.39611202
25	0xbd5f71bf	-0.054551836
26	0xbf56fd9a	-0.83980715
27	0xbf392a75	-0.7233041
28	0x3f96ede9	1.1791354
29	0x3ed1c6bb	0.40971932
30	0xbe263e2b	-0.16234653
31	0x3f427a70	0.75968075

model.3.main.4.running_var f4 [32]
0	0x3fa5dfe0	1.2958946
1	0x3feb87cc	1.8400817
2	0x408a5df9	4.3239713
3	0x3fa9a619	1.3253814
4	0x4025ae22	2.5887532
5	0x3fb08f14	1.3793664
6	0x3f5d4332	0.86430657
7	0x3fbaffc6	1.4609306
8	0x3fc81eb9	1.5634376
9	0x40187b19	2.3825133
10	0x409a8efd	4.8299546
11	0x403a6772	2.9125638
12	0x3f6ed5c2	0.9329492
13	0x401cb76c	2.4486952
14	0x403fb1b8	2.995222
15	0x3fdc2ead	1.7201744
16	0x3fcfa70d	1.6222855
17	0x3f836c33	1.0267395
18	0x3f2f4550	0.6846514
19	0x401afa76	2.421537
20	0x4012ef38	2.2958508
21	0x3fee3e56	1.8612773
22	0x401d5ac5	2.4586651
23	0x3ff0510b	1.8774732
24	0x3fb68cf1	1.4261762
25	0x3fae689d	1.3625675
26	0x400a8fa7	2.1650178
27	0x40303e2c	2.7537947
28	0x40009b10	2.0094643
29	0x3fb88697	1.4416074
30	0x3f8190cc	1.0122313
31	0x3fc7baee	1.5603921

model.4.main.0.weight f4 [32, 32, 3, 3]
0	0xbddbd914	-0.10734764
1	0x3c68ecb5	0.014216592
2	0xbe167304	-0.14692312
3	0xbdc56969	-0.09639246
4	0x3cdfaffc	0.027305596
5	0xbce5e39b	-0.028062632
6	0xbcc8238d	-0.024431014
7	0xbd2c861a	-0.042120077
8	0xbde8ff1b	-0.113767825
9	0x3d9fd935	0.07805101
10	0x3c935c1d	0.017988259
11	0xbd4386cb	-0.04773597
12	0xbda78823	-0.08180263
13	0x3d15a259	0.03653178
14	0xbe269181	-0.16266443
15	0xbdf54b23	-0.11977222
16	0xbdbdf08a	-0.09274395
17	0x3dacc664	0.084362775
18	0x3cba13a7	0.02271445
19	0x3dd0720b	0.10178002
20	0xbdda4af7	-0.1065883
21	0x3c23964a	0.009984562
22	0x3d2ef3ef	0.042713102
23	0xbc347248	-0.011013575
24	0xbd797692	-0.060904093
25	0x3d4d1de2	0.050077327
26	0x3da72705	0.08161739
27	0xbe0055e9	-0.12532772
28	0x3dfe9241	0.124302395
29	0x3dc4be33	0.0960659
30	0xbc80dbd1	-0.015729817
31	0xbdccfec4	-0.1000953
32	0xbdbf2014	-0.0933229
33	0x3e0310ba	0.1279935
34	0x3de6a307	0.11261564
35	0x3cd560d1	0.026047142
36	0xbd4d14ea	-0.050068773
37	0x3d7d2320	0.061801076
38	0x3a8c2f9e	0.0010695343
39	0xbe5a00ca	-0.21289364
40	0xbdf68147	-0.120363764
41	0x3d90fb66	0.070792004
42	0xbcdb0e22	-0.026740137
43	0x3c8e9355	0.017404238
44	0x3df2820c	0.11841211
45	0xbd59b800	-0.05315399
46	0xbdb7d12b	-0.089754425
47	0x3c300ef7	0.010745755
48	0x3cecf489	0.028925197
49	0x3d1b52d1	0.037920777
50	0x3cd71a46	0.026257645
51	0x3ca8ef01	0.020621778
52	0xbe6fbf84	-0.23412901
53	0x3e55622d	0.20838232
54	0x3d6a60c4	0.05722119
55	0xbc9dd0ac	-0.019264542
56	0x3e193bff	0.14964293
57	0x3da4a9ef	0.08040225
58	0xbc512591	-0.012765304
59	0x3e40305f	0.18768452
60	0xbb66142c	-0.0035107238
61	0x3dcdbfc5	0.10046343
62	0xbe42abc0	-0.1901083
63	0xbdab43b8	-0.08362526
64	0xbd21529c	-0.039385423
65	0x3e179628	0.14803374
66	0xbdfc539e	-0.12320636
67	0xbc2b9511	-0.010472552
68	0xbd303c2f	-0.043026146
69	0x3aa52e58	0.0012602312
70	0x3d0ac15a	0.0338758
71	0x3d234b27	0.039866593
72	0x3e4420d1	0.19153143
73	0x3e325425	0.17414911
74	0xbc8ea3a2	-0.01741201
75	0x3d4f177a	0.0505595
76	0xbd84d771	-0.06486405
77	0x3cdcbe37	0.02694617
78	0x3be878fc	0.0070945006
79	0xbd126de1	-0.03574932
80	0x3caffb75	0.021482209
81	0xbe420e92	-0.1895087
82	0x3dae198b	0.08500966
83	0xbd8e4f08	-0.06948668
84	0x3d3fe38e	0.046847872
85	0x3d1b0583	0.037847053
86	0x3ddabe80	0.10680866
87	0xbd9931b4	-0.07480183
88	0xbd64aa71	-0.055826608
89	0x3d89b783	0.06724455
90	0xbd6614a4	-0.05617203
91	0xbd21da59	-0.039514873
92	0x3e2f9f92	0.17150715
93	0xbdbe4d0a	-0.09292038
94	0x3db3c300	0.08777428
95	0xbd887283	-0.066624664
96	0xbda7c341	-0.081915386
97	0xbd73dfa8	-0.059539467
98	0x3c291d5e	0.010321943
99	0x3d429d4e	0.0475133
100	0xbdf3b4ca	-0.11899717
101	0x3dcbdab4	0.09953824
102	0x3d8afabf	0.06786107
103	0x3dda7038	0.10665935
104	0x3db1abb1	0.08675326
105	0x3dc6d209	0.0970803
106	0x3c77eae5	0.015131687
107	0xbdeefa7d	-0.116688706
108	0x3de82794	0.11335674
109	0x3d13ddc4	0.036100164
110	0xbdced224	-0.10098675
111	0xbdf256bb	-0.11832949
112	0x3c2893c6	0.010289138
113	0xbda42a40	-0.08015871
114	0x3e673ffa	0.22582999
115	0x3e3435a7	0.17598592
116	0xbd99b59d	-0.07505343
117	0xbe552368	-0.20814288
118	0xbd36e541	-0.044652227
119	0x3d4d3482	0.050098903
120	0xbd290e94	-0.04127367
121	0x3cc778c6	0.024349581
122	0x3d90c6cd	0.07069168
123	0x3d1d1f5d	0.03835999
124	0xbd6e9f77	-0.058257546
125	0xbd5c0af4	-0.053721383
126	0x3d643d4b	0.055722516
127	0x3d2f7955	0.04284032
128	0x3d161d7e	0.03664922
129	0xbcc48b5b	-0.023992231
130	0xbd22a605	-0.03970911
131	0x3d1d3720	0.03838265
132	0x3b643cb8	0.003482623
133	0x3d860003	0.06542971
134	0x3d7451bd	0.059648264
135	0x3d7f7a01	0.06237221
136	0xbd8e4407	-0.06946569
137	0xbd1f1043	-0.038833868
138	0xbd1d1eee	-0.038359575
139	0x3e20a86f	0.15689252
140	0x3b4c0537	0.0031131038
141	0xbdb4acf5	-0.088220514
142	0xbdbddd3c	-0.09270713
143	0xbc46990a	-0.012121448
144	0x3dcc180a	0.099655226
145	0xbdcc8fb9	-0.099883504
146	0xbddc5827	-0.10759001
147	0xbc52bb7e	-0.012862084
148	0x3e002e77	0.12517725
149	0x3cad21d6	0.021134298
150	0xbd696d60	-0.056989074
151	0x3d3435d4	0.043996647
152	0xbdf7fc83	-0.1210871
153	0x3c556eb5	0.013026883
154	0x3d24287e	0.04007768
155	0x3d77bf4d	0.060485173
156	0xbe2889b0	-0.16458774
157	0x3ca6c64f	0.020358233
158	0xbd23c1a4	-0.039979592
159	0xbd7fc786	-0.06244614
160	0x3d716880	0.05893755
161	0x3ddb7820	0.107162714
162	0x3d2b448c	0.04181342
163	0xbca6ecfc	-0.020376675
164	0x3d3a8a50	0.04554206
165	0xbd3b23f2	-0.045688577
166	0x3d71b37d	0.059009064
167	0x3dc50205	0.09619526
168	0xbe7c2754	-0.24624377
169	0x3ca60632	0.020266626
170	0x3d947753	0.07249322
171	0xbdbd9007	-0.09255987
172	0xbd3193cd	-0.043353844
173	0x3cd1cb4f	0.02560964
174	0xbd550a8e	-0.05201202
175	0xbcd4c8b9	-0.025974618
176	0x3e0a2631	0.13491131
177	0xbdf4fd83	-0.11962416
178	0xbd85b503	-0.06528666
179	0x3d8a029b	0.06738778
180	0xbaa418d2	-0.0012519604
181	0x3d0eb2b8	0.03483841
182	0xbd1db8c6	-0.03850629
183	0xbde1843d	-0.110115506
184	0xbd9a8d4b	-0.07546481
185	0x3cf0058a	0.029299516
186	0xbd0dc30b	-0.034609836
187	0x3d3203d8	0.043460697
188	0x3c81a2e1	0.015824737
189	0xbe2a7f23	-0.16650061
190	0xbd4b9ae0	-0.049708247
191	0xbd78bac5	-0.060724992
192	0xbc8696b2	-0.016429279
193	0x3d86f0dd	0.0658891
194	0x3c75ddb2	0.01500647
195	0x3da11ab2	0.0786642
196	0x3d1245ae	0.035710983
197	0xbda338bc	-0.079698056
198	0x3c092142	0.008369746
199	0xbd96bf83	-0.07360747
200	0x3d48e3c7	0.04904535
201	0xbd689698	-0.056784242
202	0xbc49a457	-0.012307248
203	0x3d93429d	0.0719044
204	0xbc8ab988	-0.016934171
205	0xbd8fd7be	-0.070235714
206	0xbcaf0abf	-0.021367429
207	0xbca6e863	-0.020374482
208	0xbd3db088	-0.04631093
209	0x3d9ef553	0.07761636
210	0x3cda03c5	0.026613126
211	0xbd6c4d35	-0.057690818
212	0xbb146d92	-0.0022648317
213	0x3c9d05b9	0.019167768
214	0xbd710a49	-0.0588477
215	0x3d3c7bf0	0.046016634
216	0x3d6ac9b1	0.057321254
217	0xbdaee69d	-0.0854008
218	0x3dce8f5e	0.10085939
219	0x3cd6adb6	0.026205879
220	0x3e0938ba	0.13400546
221	0xbe033c69	-0.12816013
222	0xbd8f5b51	-0.06999839
223	0xbdad8a00	-0.08473587
224	0x3e1c861a	0.1528553
225	0xbe00dd9f	-0.12584542
226	0x3d63b08b	0.055588286
227	0xbdedba38	-0.11607784
228	0x3d3df011	0.046371523
229	0x3dd6aae0	0.104818106
230	0xbb97ac7b	-0.0046287156
231	0x3c31c31a	0.0108497385
232	0xbd46fc27	-0.048580315
233	0xbdc20360	-0.094733
234	0xbdae57b9	-0.085128255
235	0x3d9cc79a	0.076552585
236	0xbcaba979	-0.020954834
237	0x3d4dde42	0.05026079
238	0xbd066718	-0.03281316
239	0x3e06627a	0.13123503
240	0xbcfa1886	-0.030529272
241	0x3dcb2a61	0.099201925
242	0xbd62467b	-0.055242997
243	0x3d66df1f	0.05636513
244	0xbd33214d	-0.04373293
245	0xbcad0adf	-0.021123348
246	0xbca417e5	-0.020030925
247	0xbe1c13e7	-0.15241967
248	0xbbece70b	-0.007229691
249	0xbd790155	-0.060792286
250	0x3d1d8ec4	0.03846623
251	0x3d233a13	0.039850306
252	0x3e327c97	0.1743034
253	0x3c1ade2d	0.009452385
254	0x3cf1589b	0.029461196
255	0x3e3fab87	0.18717776

model.4.main.1.weight f4 [32]
0	0x3f7cf396	0.9880918
1	0x3f82c178	1.0215292
2	0x3f805779	1.0026695
3	0x3f728e51	0.9474841
4	0x3f80b403	1.0054935
5	0x3f805633	1.0026306
6	0x3f76e285	0.9643939
7	0x3f829714	1.0202355
8	0x3f804135	1.00199
9	0x3f7c544c	0.98566127
10	0x3f7f969d	0.9983919
11	0x3f82de5f	1.0224112
12	0x3f7cac6e	0.98700607
13	0x3f7bf209	0.9841619
14	0x3f7d411d	0.9892748
15	0x3f7eed18	0.99580526
16	0x3f81fc79	1.0155174
17	0x3f7dfdb2	0.99215233
18	0x3f80a851	1.0051366
19	0x3f7fdb92	0.9994441
20	0x3f831234	1.023993
21	0x3f82c340	1.0215836
22	0x3f802a6f	1.001295
23	0x3f7b49b4	0.9815934
24	0x3f7edc44	0.9955485
25	0x3f7fb489	0.9988485
26	0x3f7c990a	0.9867102
27	0x3f80ab09	1.0052196
28	0x3f8244be	1.0177228
29	0x3f820d4d	1.0160309
30	0x3f812c10	1.0091572
31	0x3f7c2852	0.98499024

model.4.main.1.bias f4 [32]
0	0xbbf0e296	-0.00735123
1	0x3ce01b19	0.027356671
2	0xb8fa77d9	-0.00011943252
3	0xbcc1c7a4	-0.023654766
4	0x3cdeaed8	0.027182981
5	0x3d1fd0eb	0.0390176
6	0x3bdcac0d	0.0067343772
7	0x3c6daf31	0.014507101
8	0x3c1d9f8b	0.009620558
9	0x3c7304c7	0.014832682
10	0xbaf03ca4	-0.0018328619
11	0x3d5dce01	0.05415154
12	0xbae2b886	-0.0017297424
13	0x3b05a2b6	0.0020391173
14	0xbc8595e7	-0.01630683
15	0x39be5c72	0.000363085
16	0x3b5451f3	0.0032397478
17	0x3cd90834	0.02649317
18	0x3d266394	0.04062231
19	0xba79686c	-0.0009514156
20	0x3c4e0f8e	0.012576951
21	0x3be1b00f	0.006887443
22	0x3c483c68	0.012221433
23	0xbcb4af80	-0.022056341
24	0x3c3b8157	0.011444411
25	0xbb88b11a	-0.004171503
26	0xbaa6feab	-0.0012740692
27	0x3b2fbdb5	0.0026815955
28	0xb905b694	-0.00012751884
29	0x3d050a0e	0.032480292
30	0x3ae27d40	0.0017279759
31	0xbc6e0468	-0.014527418

model.4.main.1.gate f4 [32]
0	0x3f8f4af6	1.1194751
1	0x3f9eb902	1.240021
2	0x3f8860d5	1.0654551
3	0x3f78c35f	0.9717311
4	0x3f8a7076	1.081557
5	0x3fa09024	1.2543988
6	0x3f86c0a9	1.0527545
7	0x3f8519f6	1.0398548
8	0x3f8d595f	1.1042899
9	0x3f886062	1.0654414
10	0x3f8cba03	1.0994266
11	0x3f6d3101	0.926529
12	0x3f750028	0.95703363
13	0x3f8c7f25	1.0976301
14	0x3f81fa18	1.0154448
15	0x3f7cadc2	0.98702633
16	0x3f7235b5	0.946132
17	0x3f673b85	0.90325195
18	0x3f6b60e4	0.9194472
19	0x3f9a0ec0	1.2035751
20	0x3f797d64	0.97456956
21	0x3f4a2919	0.7896896
22	0x3f81a623	1.0128826
23	0x3f4dc2e2	0.8037549
24	0x3f85b09a	1.044452
25	0x3f8756ff	1.0573424
26	0x3f87c31b	1.0606416
27	0x3f8c40e7	1.0957307
28	0x3f8a1708	1.0788279
29	0x3f279d0a	0.65474
30	0x3f744d9a	0.9543091
31	0x3f831564	1.0240903

model.4.main.1.running_mean f4 [32]
0	0xbe920075	-0.28515974
1	0xbf0f3974	-0.5594704
2	0xbf02a74a	-0.5103651
3	0xbd6cd48d	-0.05781989
4	0xbe6d6cb9	-0.23186006
5	0xbe35cb5c	-0.17753357
6	0x3f10af2d	0.565173
7	0xbece582c	-0.40301645
8	0xbe8c10d1	-0.2735658
9	0xbdc5f901	-0.09666634
10	0x3ece542c	0.40298593
11	0x3e30a998	0.17252195
12	0xbf34dbd0	-0.7064791
13	0xbe8b2994	-0.2718016
14	0x3e429b7d	0.19004627
15	0xbf33406b	-0.7002017
16	0xbf74694a	-0.9547316
17	0xbf203752	-0.6258441
18	0xbc09933e	-0.008396922
19	0x3e166829	0.14688171
20	0xbef95e88	-0.48704934
21	0x3e5fc4b6	0.21852383
22	0x3e1883f0	0.1489408
23	0x3ea101b1	0.31446603
24	0x3e1440bc	0.14477819
25	0x3f0e49bd	0.55581266
26	0x3e141420	0.14460802
27	0xbe8729eb	-0.26399168
28	0xbe44f07f	-0.19232367
29	0x3eee95b3	0.46598586
30	0xbebf1c00	-0.3732605
31	0x3e993d40	0.29929543

model.4.main.1.running_var f4 [32]
0	0x40963b3d	4.694731
1	0x4096d2fe	4.713256
2	0x401f3118	2.4873714
3	0x4094cbdc	4.649885
4	0x410832ad	8.512372
5	0x4096ca05	4.7121606
6	0x403ff1ae	2.999126
7	0x4130260b	11.009288
8	0x4073aa1d	3.807258
9	0x4073a128	3.8067112
10	0x40a74f1a	5.228406
11	0x407ff074	3.999051
12	0x4086a27d	4.207335
13	0x4083b019	4.1152463
14	0x4061af49	3.5263236
15	0x40206799	2.506323
16	0x4048b45f	3.136009
17	0x409abd9e	4.8356466
18	0x40d82114	6.754038
19	0x408535f3	4.1628356
20	0x40714f24	3.7704554
21	0x403b99e0	2.9312668
22	0x4093dea9	4.62093
23	0x40d42c89	6.6304364
24	0x409980f8	4.7969933
25	0x408116bb	4.0340247
26	0x40475aab	3.114909
27	0x40b6c365	5.711352
28	0x409f6d5f	4.982101
29	0x4095f21e	4.6858053
30	0x401782eb	2.3673656
31	0x4062d834	3.544446
