checkpoint/clf/experiment_name/700/netG.pth (torch, 244594 bytes, 32 tensors)

model.0.bias f4 [32]
00000000: 3728 6abc 6863 02bb fdff a53c d4d7 9d3d
00000010: 0abb d4bc 06c1 7b3d d790 b43c c327 f0bb
00000020: 4ba8 6cbd f294 593d 0ab1 ae3b 2114 22bd
00000030: 930b 383d fc41 d33c 9f6b c83b f4a8 293c
00000040: f0dd c1bc 3b33 073d 02c8 44bd 8415 2bbd
00000050: d875 e93d 085b b7bc 0f57 0c3d 4c39 8ebc
00000060: 782e bbbb e8b3 3cbd 5acd 7fbd a172 40bd
00000070: 2a7c 823d 1a9a 5c3d b37d ef3c 04d3 5cbc
-0.0142918145 -0.0019895677 0.020263666 0.077071816 -0.025968093 0.06146338 0.022041721 -0.0073289587
-0.057777684 0.05312056 0.0053311633 -0.039569978 0.044932913 0.0257883 0.006116345 0.010355223
-0.023665398 0.03300784 -0.048042305 -0.041768566 0.1139943 -0.022382274 0.034262713 -0.017361306
-0.0057123266 -0.04607001 -0.062451698 -0.04698432 0.06371339 0.0538579 0.029234743 -0.013478044

model.0.weight_orig f4 [64, 32, 3, 3]
00000000: 9a44 d1bb 245b 14bc a158 073c 4be1 683c
00000010: ef34 423d 2302 ecbc 1d9a cb3b 9587 373d
00000020: 5f90 ab3c 5664 013d 1e13 853d 5c9d edbc
00000030: 03d6 9a3c 4334 333d 27bb cabc 9cfb 9a3b
00000040: b4f2 9c3b f018 2abd fc1f 6d3d dd99 76bc
00000050: 7512 323a 2493 1fbd dcd8 37bb 9a75 14bc
00000060: 536f e9bc bb68 43bd 6973 bbbc eafa 8cbc
00000070: 5965 3d3c 446a 473d 9782 6b3d 3ab6 ae3d
00000080: 3125 9a3b f76f 4e3d ff86 85bc 7d62 893d
00000090: c16b c9bc 262f 8bbd a4e2 6ebd 42d9 2abd
000000a0: 84db 433b 4a73 a73c 279d 21bd c027 59bd
000000b0: 2fe1 80bd 68c4 02bc fc71 ff3c 2962 303c
000000c0: 916d 92bc e966 13bc 7709 2dbd c021 09bc
000000d0: e50d 2f3d 42d7 6ebd 7197 bfbb 5810 09bd
000000e0: 6566 6dbd e6db c83b 3274 d7bc 3e33 4e3d
000000f0: cdcc 033d ee95 0cbd 58d6 81bc 0313 2a3d
00000100: 0143 ffbc 9768 94bb 6bda 27bb 60bb e63c
00000110: 9229 47bd fc0f 72bc 3135 20bd be61 2bbd
00000120: 6832 3cbd 3b2f 073d eb8e 193d 6e79 3fbd
00000130: c568 933b 3f0b e8bc 1ad7 1f3d e99e 22bd
00000140: 430e 553d 32b3 efba 88e8 763d 239f 79bc
00000150: f8ed cf3c cb19 5fbc 51a3 7c3c 9ee1 7e3d
00000160: 17e2 25bb 196c 3dbd b6ea 4a3b 5a19 60bd
00000170: 5a04 103d 2e9a 0ebd 2ffc eb3c 7688 fdbb
00000180: d150 72bc 7ebd 3f3d 7aa0 3bbd 2231 5dbd
00000190: 1d14 0f3d 67d9 d9bb b1d3 4abd af02 53bc
000001a0: 114e 8a3c 054f 9f3c 5b43 6abc 6d00 c73b
000001b0: 91b7 283c dcd9 403d d128 37bc ed76 773d
000001c0: a907 b63d 4cd3 89bc 7e35 aebb 71ee 9f3c
000001d0: 2260 adbc af37 f3ba c375 f1bc 1096 80bb
000001e0: e867 043d 170f a93b 5aea 47bd 1db8 df3c
000001f0: ba48 67bd 3213 e1bc 2dc1 943c a76a 08bb
00000200: c91a 0c3d 8260 6cbc 120d a53c 4ad4 153d
00000210: 1317 0ebd 7de7 723d 99b3 18bd f899 f03c
00000220: ee83 e63c 8f4a 4b3d 8c3d 503d a413 3fbd
00000230: d048 a23c 3bee f9bc cdcb 39bd 619a c2bc
00000240: 2d19 0f3d cb1b 54bd b20a 23bd 877c 653c
00000250: 6704 64bd 5d24 193d da82 343d a4e7 02bd
00000260: a2e5 093d 3a4f 573d 85e6 853b 0c1d 013d
00000270: 7ff4 453d 0b24 ec3b aeb5 31bc 48fa 4f3d
00000280: 2cd8 713d 7a12 9abc 66ef 4a3d 3cab 3abd
00000290: 7d9f 963c bedb 1a3b d771 973c 1b86 6ebd
000002a0: 7c83 083d dd7d 243d bc87 ca3c 857a f03c
000002b0: da1e e5bc e0cb b63c c791 97bc f2f5 ef3b
000002c0: 3a29 6d3d 7d5e fc3b 6a80 6d3c d49d ba3c
000002d0: 9c5c 063d ed55 7ebc 3598 05bd d54b 543d
000002e0: 4126 65bc 532c 603d 10d8 463d a00e 9dbb
000002f0: d586 f63c 7553 87bc 85b8 653d 6a60 01bd
00000300: 1885 4bbd d229 a23c 4e8a 24bc 13a7 543d
00000310: 3b20 8e3b f8f5 5bbd 8d0b fa3b 429f 6dbd
00000320: 1822 a43b c982 083d 2165 353d 9b28 fabc
00000330: a7bb 34bd c3eb 3dbd a5fa 10bd bee1 f53a
00000340: 5d01 663c e744 d3bc 3ebf 44bd 6b55 ce3b
00000350: b208 2b3c dd20 0abc 48ca 69bd 80a9 43bd
00000360: 1e2f 02bd 75e4 2bbc 2d44 773c 40d0 50bd
00000370: 96d1 2e3d cce7 b93c 2ba3 01bd 2dae 16bb
00000380: 8688 763d dd0b 50ba 7e7d 943c 2856 1bbd
00000390: 7b2d 46bd 9f49 0c3c 2549 253d 4128 4c3d
000003a0: e9d9 803d b40a 153d c181 183d 2831 8bbc
000003b0: e065 8fbc 651b 283d 1422 01bd 6b43 1abd
000003c0: 02ca de3c 4020 f9b9 85ce b83c c23e 2fbd
000003d0: 217f 7c3d 0937 d9bc 22e4 f03b 6525 d5bb
000003e0: 8f83 b0bc 9144 773d 1f9c 113d 79e0 bc3c
000003f0: 3195 173d 4233 0b3d 962c e7bb c8ad 3cbd
-0.006386352 -0.009054933 0.008260877 0.01421387 0.047413763 -0.028809613 0.00621344 0.044807035
0.020942865 0.03158983 0.06497787 -0.029005699 0.018900877 0.043751013 -0.024747444 0.004729701
0.0047896747 -0.04152769 0.05789183 -0.015051332 0.00067929114 -0.038958684 -0.0028052842 -0.0090612415
-0.028495466 -0.0477073 -0.02288218 -0.017209489 0.011559808 0.048685327 0.057497587 0.08530851
0.0047041406 0.050399747 -0.016299723 0.06708238 -0.024587514 -0.06796102 -0.05832161 -0.0417111
0.002988548 0.020440716 -0.039456513 -0.053016424 -0.0629295 -0.007981397 0.031182282 0.010765591
-0.017874511 -0.008996704 -0.042245355 -0.008369863 0.04273786 -0.058310755 -0.0058469106 -0.033462852
-0.05795898 0.0061297296 -0.026300523 0.050341837 0.032177735 -0.03432267 -0.015849277 0.041522037
-0.03115988 -0.0045290696 -0.0025612365 0.02816552 -0.04862363 -0.014774319 -0.039113227 -0.04184126
-0.04594651 0.033004027 0.037489813 -0.046746664 0.0044985735 -0.028325675 0.039023496 -0.03970233
0.052015554 -0.0018287657 0.060280353 -0.015235695 0.025382027 -0.013616989 0.015419797 0.062226884
-0.0025311762 -0.046245668 0.0030962653 -0.054711677 0.0351604 -0.034815006 0.028806774 -0.0077372147
-0.014789776 0.046811573 -0.04580734 -0.054001935 0.03493129 -0.006648231 -0.04951829 -0.012879058
0.016882928 0.01944686 -0.014298285 0.006073049 0.010297672 0.047082767 -0.011179165 0.06041615
0.0888818 -0.016824387 -0.0053164354 0.019522877 -0.021164004 -0.0018556024 -0.029475098 -0.003924139
0.032325655 0.0051592696 -0.04880748 0.027309472 -0.05646584 -0.027474973 0.01815852 -0.0020815523
0.03420523 -0.014427306 0.020147834 0.036579408 -0.034689974 0.059302796 -0.037280653 0.029370293
0.02813908 0.04963165 0.050839946 -0.04664959 0.01981011 -0.030509105 -0.045360375 -0.023755254
0.03493612 -0.051784318 -0.03980512 0.01400674 -0.05566826 0.037388194 0.044070102 -0.03195919
0.03366626 0.05256579 0.004086318 0.031521842 0.048328873 0.007206445 -0.0108465385 0.050775796
0.05904405 -0.018807638 0.049544714 -0.045573458 0.018386597 0.0023629512 0.0184869 -0.05823336
0.03332852 0.040159095 0.024722926 0.029355297 -0.027968813 0.022314012 -0.01850213 0.00732302
0.057900645 0.0077016936 0.014495948 0.022780336 0.032803163 -0.015523416 -0.03261586 0.05183013
-0.013986171 0.05472977 0.048545897 -0.004793003 0.03009359 -0.016519288 0.056084175 -0.03158609
-0.049687475 0.019795332 -0.01004274 0.051917147 0.0043373383 -0.05370137 0.0076307715 -0.05801321
0.005008947 0.03332785 0.044285897 -0.03053694 -0.04412427 -0.046367418 -0.035395283 0.0018759293
0.014038411 -0.025789691 -0.048033945 0.0062968037 0.010439085 -0.008430687 -0.057077676 -0.04776907
-0.031783216 -0.01049148 0.015091938 -0.050979853 0.042680345 0.022693537 -0.03164975 -0.0022992
0.060188793 -0.0007936338 0.018126246 -0.037923962 -0.048383217 0.0085624745 0.04035296 0.049843077
0.06291563 0.03638716 0.037233118 -0.016991213 -0.017504632 0.04104175 -0.03152664 -0.03766195
0.027195934 -0.0004751701 0.022559414 -0.04278446 0.061644677 -0.0265155 0.0073514143 -0.006504702
-0.021547107 0.060368124 0.03554928 0.023056256 0.037007514 0.03398443 -0.0070548756 -0.04606417

model.0.weight_u f4 [32]
00000000: 1963 653d 502a 9b3e 903b 9a3d 2c36 ad3e
00000010: 382b 83bc 0a9e 283d 9f0d 98bc ea3d 2cbd
00000020: 8a7b 38bd f13b 513e f867 d4bc 5ce8 3cbd
00000030: 4a2e 233e c25a 40bd 77eb c53c fac6 9cbd
00000040: 4eae a0bc a948 b03e acfe 52bd 3eef 94bd
00000050: f703 373f fa08 4a3d 154a 21bd b6b2 94bc
00000060: 606d 2a3d a07b 1b3d 8437 a4bc 5177 123d
00000070: bbbc 5abe a026 833d 08bc 8d3c 6879 623d
0.05600271 0.3030572 0.07530892 0.33830392 -0.01601182 0.041166343 -0.018561183 -0.042051233
-0.04503969 0.20433022 -0.025928482 -0.046120033 0.15935627 -0.046961553 0.02416013 -0.07655139
-0.019614365 0.34430435 -0.051512405 -0.07272194 0.71490425 0.049324967 -0.03937729 -0.018151622
0.041608214 0.037959695 -0.020046003 0.03575832 -0.21361057 0.064038515 0.017301574 0.055291563

model.0.weight_v f4 [576]
00000000: be59 023d 4b40 1c3d 295a 4bbc 1fa4 ad3d
00000010: 01f5 2d3d e1d0 0a3d 25cc a33d b93a c73c
00000020: f1c1 cd3b 6c0c 0e3d 62a1 433d 7125 b53d
00000030: 2c3a 683d 091b a43d 16b7 bd3d 28cd a73d
00000040: 22c2 a93d fa72 b83d dcc9 653c 86ef 6e3d
00000050: b778 c53d 805d 233d 9e2e 343d fdb0 8f3d
00000060: b5a8 6e3d 866f cc3d 3e01 c93d f1cf e83c
00000070: 0212 a73b 3f90 273c 67e5 263d 20ee e33c
00000080: a5e9 78bb b0a7 0a3d 3f70 873d cbb2 7a3c
00000090: 1ac8 5b3d 1e58 863d 0d71 9f3d f644 bd3c
000000a0: 6ca7 543d 3338 cd3d 4819 15bd db30 5d3d
000000b0: bef5 573d f335 dc3c d1ba 203d ab58 553c
000000c0: 44d9 ca3c bf8c 6a3d f17f 763c 4a24 b93c
000000d0: fe58 2c3d 7ddf 53bb 97b1 033d ea56 393d
000000e0: d0ec 803d 4d0a 793d ede2 303d 68bf 173d
000000f0: 6042 b03d 8a83 503d 786c 503d 16a9 3e3c
00000100: 09bf bb3c b05a b93b debd df3c e923 e13c
00000110: 5545 a5bc 88ab 393d bda4 3fbc 23c0 e03b
00000120: 2f8f 173d b889 a53d b8c0 f73d e622 e43d
00000130: 36ec d13d 8c08 e13d 9548 753d b75e 6d3d
00000140: fb18 233d 9b29 c23c 131c 733d 5880 1f3d
00000150: 4940 283d 59ff a53d e336 c33b 5458 523c
00000160: 51d4 8ebb a665 4b3c 9d30 c5bb e03a c93c
00000170: 7e99 4c3a 2d45 b83c 7f46 b03c ad7a e6bb
00000180: 01bf ed3c d704 233d 507c 593c 7cf3 713c
00000190: 342b 2c3c d412 113c c836 1dbc ab36 a439
000001a0: 30cd 98b7 0884 d53b bcf2 623a f208 b639
000001b0: dcf2 b4bc 11bf 943b 4deb 203d fa5f 2ebb
000001c0: 627b 7c3d a1ad 8b3d 8f9b 593b b975 9a3c
000001d0: 2d57 a03d daa7 053d 58d8 a0bc e6b9 0b3d
000001e0: 563e 713c e53b 85bb 6e71 a43c 8379 b03c
000001f0: 5270 1e3c 0e6a 453d 2572 843d 9374 a83d
00000200: f396 7f3d 3501 b33c 90ec d63c 736b a43d
00000210: 4a90 8f3d 9bd9 943d 4e69 4a3d 9579 3e3d
00000220: 70c4 7b3d 115d 903c b483 883d 9dc4 9f3d
00000230: df82 6abb dba0 9d3d a5ab 8f3d 247c 8bbc
00000240: 26fb 5d3d 1461 a83c 7905 a13d 1405 b6bc
00000250: 70a3 fa3c 1466 693d 44d3 a83c 895a 6f3d
00000260: e3b9 673d b73d 4a3d f911 8a3c f482 1b3d
00000270: 0052 703c cea6 033d 763c aa3c 6c1a 793c
00000280: e103 f13c 704a 5f3c 4c13 ae3d 3168 173d
00000290: b7b0 f53c d780 ba3d 1250 413d 27e1 983d
000002a0: f71c 5d3d 560d 0e3d 698d 3b3d 2fdb 0d3d
000002b0: c8c2 8339 60e5 cc3c f21d 8bba c94e ac3c
000002c0: b85d e43c 340e 5f3d 7f4f 773d ecf7 763d
000002d0: 920a 4f3d 4f75 773d 2adb cb3d c8d8 be3d
000002e0: acf7 423d 73a0 a33d b112 e73d c364 8a3d
000002f0: fa77 893d 059b 7a3d 1fcf 2a3d 3431 ab3c
00000300: 80dd 8b3c a58a 643c 0245 7dbb ad52 523c
00000310: 36f7 003d 776d 553d cb90 a9b9 c10f 173d
00000320: e11f 1ebc 729e c7ba b1fc bb3b d5a2 acbb
00000330: 832a 9c3c 645a 2c3d b526 1bba fd5e 8abc
00000340: e5ac 7c3c 6efd 833c a5ab 5b3d e7bb af3c
00000350: 8d88 d1bb 842f 473d df99 9b3c 3f69 803c
00000360: 8d4a d73c 979b 1f3d f330 203c 8991 1a3a
00000370: 0bfa e4bb c738 8f3c 7ad3 783c 9a49 283c
00000380: b33a e53c 9a1f c0bb faa0 2fbc 6317 94bc
00000390: fe36 2f3c fd7e 023d 2bad 953c 3ecd d43b
000003a0: e266 293b 2899 dcb8 5fcf 743d 340e ab3d
000003b0: 4c85 983d 4ed2 7f3d 5f2d 8a3d af1d b13c
000003c0: 9e3f 0b3c 6c2c a13d 9937 953c 0036 8d3c
000003d0: e329 3b3d 169a 313d 04de 6b3d c455 4c3d
000003e0: d88b 5b3d e25d 5e3d cea9 a73c 8023 9b3c
000003f0: c432 233d f5d1 4e3d 1424 f93c 92a3 4f3d
0.031823866 0.038147252 -0.012411633 0.08478569 0.042469982 0.03389061 0.07997922 0.024319993
0.006279223 0.034679815 0.04776133 0.08845032 0.056696102 0.08012969 0.092634365 0.08193427
0.08288981 0.09006305 0.014025178 0.058333896 0.09642165 0.03988409 0.04398977 0.0701618
0.05826636 0.09982209 0.0981469 0.028419467 0.0050985822 0.010227262 0.04074612 0.027823508
-0.003798106 0.033851326 0.06613206 0.015301417 0.05365763 0.06559776 0.077852346 0.023104172
0.05191748 0.10020485 -0.036401063 0.05400167 0.052724592 0.026881194 0.039240662 0.013021628
0.024761803 0.057263132 0.015045152 0.022600312 0.042077057 -0.0032329254 0.032151785 0.045248903
0.062951684 0.06080084 0.043185163 0.037047774 0.0860641 0.050906695 0.050884694 0.011636993
0.022918241 0.0056565627 0.027312215 0.027482944 -0.020174662 0.0453296 -0.0116969915 0.006858842
0.037001785 0.080829084 0.12097305 0.11139469 0.10250132 0.10987958 0.059883673 0.057951655
0.039818745 0.02370148 0.059352946 0.038940758 0.041076932 0.08105344 0.0059574707 0.012838442
-0.004358806 0.012414372 -0.006017758 0.024564207 0.00078048545 0.022493923 0.02151799 -0.007033667
0.029021742 0.039799538 0.013274267 0.014767524 0.010508347 0.008854587 -0.00959558 0.00031321248
-1.821536e-05 0.0065159835 0.0008657386 0.0003472041 -0.02208846 0.0045393785 0.0392869 -0.00266075
0.061641105 0.068202265 0.0033204292 0.018854963 0.078291275 0.03263078 -0.01963441 0.034112833
0.014724335 -0.004065978 0.020073619 0.021542316 0.009670334 0.048196845 0.06467084 0.0822536
0.062399816 0.021851161 0.026235849 0.08028307 0.07009943 0.072680674 0.049416833 0.04650267
0.061466634 0.017622503 0.066657454 0.07801173 -0.0035783572 0.07696696 0.070151605 -0.017026968
0.054194592 0.020554103 0.07862372 -0.022219218 0.030595511 0.056982115 0.020608552 0.05843595
0.05657376 0.049375262 0.016854273 0.037966684 0.014667988 0.0321415 0.020780783 0.015204053
0.029420795 0.013628587 0.08499774 0.0369646 0.02999149 0.091066055 0.0471955 0.074648194
0.0539827 0.034680687 0.045789156 0.034632858 0.0002513139 0.025011718 -0.0010613783 0.021033661
0.02787672 0.054456905 0.060378548 0.06029503 0.05054719 0.06041461 0.099539116 0.093186915
0.04759948 0.07989588 0.11282862 0.067575 0.06712337 0.061182994 0.041701432 0.020897485
0.017073393 0.013949071 -0.0038645868 0.012837094 0.03148576 0.052106347 -0.0003234207 0.03688026
-0.009651155 -0.0015229716 0.0057369103 -0.0052684345 0.01906324 0.04207839 -0.00059185486 -0.016890997
0.015422081 0.016112056 0.05363049 0.021451904 -0.006394452 0.0486293 0.01899427 0.015675185
0.026280666 0.03896674 0.009777295 0.000589632 -0.0069878153 0.017483128 0.015187139 0.010271454
0.027982092 -0.005863142 -0.010719532 -0.018077558 0.0106942635 0.031859387 0.01827105 0.0064941933
0.0025848676 -0.00010518945 0.059768077 0.083523184 0.07447299 0.06245642 0.06746935 0.0216206
0.008499054 0.07869801 0.018214988 0.017237663 0.045694243 0.04335984 0.057584777 0.04988648
0.053600162 0.054288752 0.020466711 0.018937826 0.039843336 0.0504932 0.030412711 0.050693102

model.2.main.0.weight f4 [32, 32, 3, 3]
00000000: 366f 293e cf3b 643d d2a9 bc3d bd69 55bd
00000010: abec 28bd cc4d 6d3d 3924 963b 0b86 d9bd
00000020: 9f3e d03d b922 2c3c a316 ae3d abf4 ce3d
00000030: 5b01 7d3d 391c 123e 21c6 77bc 52a3 4c3e
00000040: 4326 abbc d13d 0b3d f103 393e c0e0 d33c
00000050: 9473 cdbb 5293 2fbd 527c a43d 4217 7bbb
00000060: 8348 cebd 58df 22be d713 743d 5d67 a4bd
00000070: b7d1 50be e3f4 80bc 70df 053e 6ea1 4c3d
00000080: 98bb ad3a 911c a93d 53c9 fbbc 566a 08be
00000090: 4d94 cbbd 16df 95bc fa0c ea3d 008b 88bd
000000a0: f20f 8d3a 9a49 c03c 14cb 2bbe 74a3 173e
000000b0: 0c9d cbbc 659b 543d 1dc8 e1bd 75ed dfbc
000000c0: 1726 0c3d 946b 41bd 9b3b 323e 9ddd 48be
000000d0: 70c7 7f3c ea36 1ebd 964f fc3c b957 02be
000000e0: 951c cfbd c968 eebc 13ff 00be 4211 ebbd
000000f0: 262c e2bb 81f3 25bb b2ef c73b a906 eb3c
00000100: 0828 43be 3b2d 2bbd 04f4 683d eee2 0cbe
00000110: 48ce 70bd 19d0 f7bc 2cc5 1d3d 82c5 1a3c
00000120: 7d6d 7abc 60ff 1d3d 37dd e43d a86c 2d3d
00000130: f279 d03d 5b71 4abd f798 a5bc 456b 31bd
00000140: 4114 043e 5ee6 d2bd e0a4 d5bb 0d9c 82bd
00000150: 6568 4eb9 1ac1 65bd 5ca7 b83d 3666 9d3c
00000160: bcda 593d a116 83bd 450c cc3c 3450 ef3b
00000170: 380a c5bd 9263 8cbd b2e6 e6bd a99f 2a3e
00000180: fdcb c33c e19e 02be 5d5b afbd d350 75bd
00000190: 7e3e 99bd b79b 5a3d 37fa c3bd 4151 cc3d
000001a0: b7a4 203d 6b0d 963e 105c 303d 0520 d13d
000001b0: 0968 b2bc 5ff7 ad39 9ebf 87bc 60c6 81bd
000001c0: 7dad 003d 3bb0 42bd dcdb 45be 4586 a23d
000001d0: 4351 d3bc 24da c4bc 88d2 393d 2aa1 e3bc
000001e0: 4d6e 083e 928c 133e bded f339 1fc0 2d3e
000001f0: 5d90 08be 04e2 17bd 703f 1a3c 0ba1 9fbc
00000200: 5e24 803d cd2a 8d3d 27b1 873d e20b 1fbc
00000210: d55b 933c 524a 663d 145c 933d ee3a 683e
00000220: e774 273e a8ff 86bd 9391 f2bd bed0 843d
00000230: bbea d93c 08a3 423d 4a01 583c 601d 993c
00000240: 912a 8f3c 4650 86bd ce2f 2abc ef41 1b3b
00000250: a461 11bc b665 423c db6a 853d 2e4f 2fbe
00000260: fe1b 163d 6ca5 853d 498a 88bd aaaa 8e3d
00000270: c1d7 0b3d f3d1 3239 3ca9 903c dbf9 11be
00000280: 9055 c1bd 18b1 4dbd 6607 223a a9a5 98bc
00000290: ee49 be3c 7bb1 2c3d e969 a23d 797f e53b
000002a0: 7b7b 18be 08d2 27bd ab5a 2f3c ccee e3bc
000002b0: 0cc8 abbc 2b8f 06bd 6703 9b3d e1d4 b3bd
000002c0: 78f4 06bb 4cc6 0b3d c609 013e 5f82 a03d
000002d0: f409 1c3e d15b 39bd ec4c 02bb 2941 b93d
000002e0: 7090 95bc e293 24bd b607 f7bc 3568 bd3d
000002f0: 1dd4 f43d 5818 c2bd 112d 2c3c 2f78 fa3c
00000300: be9e 943d 5fb3 0dbd de59 90bc 5079 153d
00000310: 0d54 86bd 4824 0d3e 3683 d13d 1eb1 5bbd
00000320: 58c4 4fbd 462f bbbc ccb7 07bd 66ea aabd
00000330: b6cf cb3c 7dba bbbd 7fa7 63bd 042b 0b3e
00000340: d50c 3ebc ec19 2bbd 1106 a6bc bd20 0bbd
00000350: a0a8 3bbd 6a6a c2bc b3e3 a23c 1d2e 78bd
00000360: 7052 0abe d106 d93d a857 20be 8662 08be
00000370: 4ca5 2e3d ceed 323e 8107 9d3b 1fe1 b1bc
00000380: 1d35 e7bb 7db2 bfbd 70d1 c63c 689c 2fbd
00000390: 68a4 f6bd 18f4 24bd fe22 053d 9420 aa3d
000003a0: 653d b6bd 7d0e e0b9 cc1f 2dbe a379 683d
000003b0: d94b c3bc 9943 2d3b b5d2 813d 2ba0 b83c
000003c0: 2b09 8fbd 99fc 9bbc 350c 9dbd 7dec e13c
000003d0: 5bb3 fe3d fad4 323d e93f 1dbc 240c f83b
000003e0: 99c6 053d 5324 973c 9401 b2bb 926e 00bc
000003f0: 4531 3b3d 0d27 9e3c 837f 37be a39a 86bd
0.1654633 0.0557211 0.09212078 -0.052102793 -0.04124133 0.05793552 0.004581955 -0.1062127
0.10168194 0.010506325 0.08500411 0.101052605 0.06176887 0.14268579 -0.015122921 0.19984177
-0.020892268 0.0339945 0.1806791 0.025864005 -0.0062698815 -0.042865105 0.08031525 -0.0038313423
-0.10072424 -0.15905511 0.059589233 -0.080275275 -0.203925 -0.015741771 0.13073516 0.04995864
0.001325476 0.08257402 -0.030735647 -0.13321814 -0.099403955 -0.018294852 0.11428256 -0.06667137
0.0010762198 0.023472596 -0.16776687 0.14808446 -0.02485516 0.05190601 -0.11024497 -0.027334908
0.034216013 -0.047221735 0.1740555 -0.19615789 0.015611514 -0.03862659 0.030799668 -0.12728776
-0.101128735 -0.0291027 -0.12597303 -0.11477901 -0.0069022356 -0.0025322142 0.006101572 0.0286897
-0.1905824 -0.041791182 0.056873336 -0.13758442 -0.058790475 -0.030250596 0.038518116 0.009446504
-0.015284893 0.038573623 0.11175006 0.04233995 0.10179509 -0.04942451 -0.02021454 -0.04331519
0.12898351 -0.10297845 -0.006519899 -0.063774206 -0.00019684581 -0.05609236 0.09016296 0.019213777
0.053187117 -0.064008005 0.024908194 0.007303262 -0.0962109 -0.06854929 -0.112744704 0.16662468
0.02390098 -0.1275592 -0.08562348 -0.059891533 -0.074826226 0.053371157 -0.09569209 0.099764355
0.039219584 0.29307112 0.043056548 0.10211185 -0.021778123 0.00033181437 -0.016570862 -0.06336665
0.03141545 -0.047531348 -0.19322151 0.07935766 -0.025795585 -0.024029799 0.045366794 -0.02778681
0.13323326 0.14409092 0.000465257 0.1696782 -0.1333632 -0.03708078 0.009414539 -0.019485971
0.062569365 0.06892929 0.06625586 -0.009707423 0.017988125 0.05622322 0.07195297 0.2267873
0.16353188 -0.06591731 -0.11844172 0.06485127 0.026601186 0.04751876 0.013183901 0.018690765
0.017476352 -0.0655828 -0.010387374 0.0023690423 -0.008873377 0.01186507 0.06514522 -0.17120048
0.03664779 0.06525692 -0.06667001 0.06966145 0.034141306 0.00017053615 0.017658822 -0.14255469
-0.09440148 -0.050217718 0.0006180912 -0.01863368 0.023228612 0.042161446 0.07930357 0.0070037213
-0.14890854 -0.040971786 0.010702769 -0.027823828 -0.020969413 -0.03285138 0.07569008 -0.08780838
-0.0020592492 0.034124658 0.12601385 0.07837366 0.15238172 -0.04525358 -0.0019882275 0.090456314
-0.01825735 -0.040180095 -0.030155044 0.092483915 0.1195452 -0.094772995 0.010508792 0.030574886
0.0725684 -0.03459489 -0.017620977 0.036492646 -0.06559 0.13783371 0.102301046 -0.05363571
-0.050724357 -0.02284969 -0.033134267 -0.08345489 0.024879318 -0.09166429 -0.05557966 0.13590628
-0.011599739 -0.041772768 -0.020266565 -0.03396677 -0.04581511 -0.023732383 0.019883966 -0.060590852
-0.1350801 0.10597003 -0.15658438 -0.13318834 0.042638108 0.17473528 0.0047921543 -0.021713791
-0.007055892 -0.09360216 0.02426979 -0.04287377 -0.12043077 -0.04027185 0.032504074 0.08306995
-0.08898429 -0.00042735404 -0.16906661 0.056756627 -0.023839878 0.0026437996 0.06339017 0.022537312
-0.069841705 -0.019041346 -0.07668344 0.027578587 0.12436553 0.04366014 -0.009597757 0.0075698067
0.0326601 0.018449938 -0.005432317 -0.007838862 0.045701284 0.01930573 -0.17919736 -0.06572463

model.2.main.1.weight f4 [32]
00000000: cc2a 7e3f 362d 843f ec61 7f3f ef44 7e3f
00000010: 4725 7d3f 87b1 7d3f ad13 883f 54bb 813f
00000020: 9d68 853f 9c98 803f 81db 7e3f 4bf3 7b3f
00000030: 23e3 813f dd25 833f 9d8d 843f 0831 7f3f
00000040: cb23 833f a293 793f a7b7 7e3f 5388 7e3f
00000050: 56cf 823f 1583 7d3f 1006 813f 137b 7c3f
00000060: a819 7d3f 1c60 7a3f 46b8 7d3f 4e68 813f
00000070: f258 7f3f 689d 7c3f 505b 7f3f fd3e 7f3f
0.9928405 1.0326297 0.9975879 0.99323934 0.98885006 0.9909901 1.0631005 1.0135293
1.042255 1.0046573 0.99553686 0.9841811 1.0147442 1.024593 1.0355717 0.9968419
1.0245298 0.97490895 0.9949898 0.99426764 1.0219524 0.9902814 1.0079975 0.98625296
0.98867273 0.978029 0.99109304 1.0109956 0.99745095 0.9867768 0.99748707 0.9970549

model.2.main.1.bias f4 [32]
00000000: 8bb0 7939 f456 10bb c26f 8a3b c0c3 afbb
00000010: d91b 883b a5d4 c5bb 81a9 2538 13b3 f33b
00000020: 6733 a03b 3a6c bcbc 2d55 303c 6cd9 82bc
00000030: 20b2 76ba 9a20 96bc ff66 103c 1773 53bc
00000040: 1fbd cf3b ce35 04bc 073f 57bb 7319 b0ba
00000050: 8f46 6dbc 99ae 36bc 7f51 84ba 7184 07bc
00000060: da71 38bc 5e9c 84bc c3e0 e7bc 6a57 45bb
00000070: 2266 ba3a e32d 01bc 343c 273d 7439 b23b
0.00023812258 -0.0022024484 0.0042247484 -0.0053639114 0.0041537103 -0.006037312 3.949693e-05 0.007437119
0.00488894 -0.023000825 0.010762495 -0.015972815 -0.0009410698 -0.018326093 0.008813619 -0.0129058575
0.0063396837 -0.008069469 -0.0032843964 -0.0013435319 -0.0144821545 -0.011150026 -0.0010095089 -0.008271323
-0.011257613 -0.016187843 -0.028305417 -0.0030111917 0.0014221112 -0.007884475 0.0408289 0.005438978

model.2.main.1.gate f4 [32]
00000000: c98e 7f3f 17cf 8b3f 7ba1 893f 3291 803f
00000010: 7c4a 803f a6e3 763f 682c 7f3f 954a 7d3f
00000020: 12f6 8a3f 3bb3 843f 690e 7b3f 6801 823f
00000030: 338a 923f 48ab 7b3f 6ec7 903f eeba 833f
00000040: c274 8c3f ac2d 7d3f bd4f 853f 54df 843f
00000050: 1dc2 863f f666 853f 5e39 823f 3239 5f3f
00000060: 3d9e 643f c4a0 833f 5147 8c3f d55b 8f3f
00000070: 01ce 803f 5a24 7c3f 53a0 843f 8457 853f
0.9982725 1.0922574 1.0752405 1.004431 1.0022731 0.96441114 0.99677134 0.9894193
1.0856345 1.0367197 0.98068863 1.0156679 1.1448425 0.9830823 1.1310861 1.0291421
1.0973132 0.98897815 1.0414959 1.0380654 1.0527989 1.0422046 1.0173757 0.8719665
0.8930395 1.0283437 1.0959264 1.11999 1.0062867 0.9849297 1.0361427 1.0417333

model.2.main.1.running_mean f4 [32]
00000000: 5eac 7440 7278 2ec0 666b 8a3f ef97 0a3f
00000010: de6e 03c0 c2e3 b8bf a306 90bf d349 84bf
00000020: 7bc5 b83d b70e 133f f7ad 88bf 52f2 c840
00000030: 5023 6bc0 318f 823e 3953 1740 6545 24bf
00000040: c89c 5d40 7f7f be3e 8b17 d0bf c8bd 8340
00000050: 2d76 ac3f 8bd8 73c0 4162 7d3e 34f1 a6bf
00000060: cb60 08bf 5de7 9a3f 49b3 27c0 613c 85c0
00000070: e87b 3f40 1691 e040 9375 0640 e316 f53f
3.8230205 -2.7261014 1.0814025 0.5413808 -2.0536418 -1.4444506 -1.1252025 -1.0335029
0.090220414 0.5744433 -1.067809 6.27958 -3.6740303 0.2549987 2.3644545 -0.6416839
3.4626942 0.37206647 -1.6257185 4.1169167 1.3473564 -3.8100917 0.24744512 -1.3042359
-0.53272694 1.2101856 -2.6203177 -4.1636205 2.9919376 7.0177107 2.1009262 1.914761

model.2.main.1.running_var f4 [32]
00000000: f42e 3740 5df7 0d40 1215 f13f 04a3 fa3f
00000010: 7596 3540 8a31 6840 ba06 7a3f 4616 383f
00000020: c74d 2940 2677 1940 cc4f d43f c3f6 8140
00000030: af03 de3f d8ae cc3f cca6 3140 3748 0d40
00000040: 93bf d23f d9b5 2b3f ba14 ff3f 5b9f cc3f
00000050: f35e 4540 e2ac b93f 0df0 ed3f 72c1 5840
00000060: 921e 1840 03e1 0e40 66fa 0a40 4818 0c40
00000070: c411 d53f d275 b340 58c0 0940 5fb3 8b40
2.8622408 2.2182229 1.8834555 1.9580998 2.8373082 3.6280236 0.97666514 0.71908987
2.6453722 2.3978972 1.6586852 4.0613723 1.7344874 1.5990858 2.7758055 2.2075326
1.6464714 0.6707435 1.99282 1.5986131 3.0839202 1.4505885 1.8588883 3.386807
2.3768659 2.2324836 2.171533 2.188982 1.6646047 5.6081324 2.1523647 4.365646

model.2.main.3.weight f4 [32, 32, 3, 3]
00000000: 9973 1bbd 2d2e 36bd ed4d de3c 81c2 803c
00000010: 81f4 a3bd 5d83 9dbc 3297 313c dd23 f83d
00000020: 9b62 2b3d 2e6a 08bd 9711 42bd a437 d7bc
00000030: 56f9 163d cfea 663d 8dbd 19be 746d 4abd
00000040: f400 033d 9593 e3bc 5e4e 453d 6d13 5abd
00000050: 34fa b4bd bf8d 18be e193 f23d 2131 f4bd
00000060: cdf6 073e ddc9 c33d 8538 e8bd 3040 533e
00000070: f920 393d 608b dfbc 7520 033e 7b06 c1bd
00000080: d7cc 43bd e8a0 6b3c 901d 90bd 50bf 723d
00000090: 4410 223d 25a0 8c3d 09af 903d 3739 d03d
000000a0: 96fe ac3d 7904 d53d 08f3 efbd 67da fa3c
000000b0: b547 a83c ed5e c8bc c732 093d 19ee 743d
000000c0: 8585 983d 648e b3bd 9653 9cbd 86df 1b3d
000000d0: bcba bc3d c1c6 e33d b3d5 953d b728 95bb
000000e0: 0f33 c23d 8c1e b13d b3cd 663d f873 22bd
000000f0: 3c98 2a3d 4993 7fbd 4658 8fbc fc54 013e
00000100: 7289 89bc 5cd7 ac3c d31d 0bbd 2961 f8bd
00000110: 1f91 373d bb3a 86bc 6df0 14bd 9469 fa3c
00000120: 9bbf 76bd 69a1 d3ba 980a d6bc 057e 6c3d
00000130: 197d f9bd 28a8 ce3d 4243 ce3d 54bc 4e3d
00000140: f11a 7abd 07b2 b43d 496b 933d feec 313e
00000150: 551e 863d 5485 2bba d4dc d4bc a4c0 853d
00000160: 4036 85bc 3474 92bd a071 bfbb f624 823c
00000170: 4cbb cabd d503 02be 5bfc a2bd 118b 333d
00000180: 38e2 7bbd 4cee 55be 9b60 ce3c 5613 d7bd
00000190: 3127 e93d 549b 2bbd 814a 6f3d 2781 a6bd
000001a0: 804f 0e3e d921 df3d 753f abbb e340 2f3d
000001b0: c11b 763d 4955 6c3c 94bb b53d 9f46 f3bc
000001c0: 182f 0e3e 8d07 0a3e 7d4b acbd ab6e 8a3d
000001d0: b8e3 f03d b719 9dbd 0d20 d0bd 9b01 653d
000001e0: 9805 e13d affe 133d 818b e8bb ae96 c13c
000001f0: 32b9 d7ba e154 563c b16b 143c 65a0 f4bc
00000200: c152 3dbd 73f7 e2bd 3059 d13d 8e29 613d
00000210: 4c10 0d3d 725f 03be 3e6b b33c 9616 0d3e
00000220: ec10 13be a2e3 873d 9dc2 043e a7f8 eebc
00000230: 76c1 31bd e215 8e3a 484c 6cbd 8e2b d83b
00000240: c918 80bd 7b32 83bb 5417 d13d 43c1 06bb
00000250: 5418 8e3d a102 06be 1e04 63bd c21e 33be
00000260: 5809 99bd 2332 72bd efaa f8bd bcf4 14bc
00000270: 8dff 00be e875 04bc c980 9cbb 01e3 38bd
00000280: 3a13 803d 14ab 9b3d c885 b6bd 0b51 a23b
00000290: c359 153e 159d 673d ada1 2c3e 2772 a9bd
000002a0: 2b12 a8bc cda8 4e3e 21fd 8bbc 75e6 0f3d
000002b0: ed7c 88bd 3377 c0bd ce97 17be 38c7 203e
000002c0: 9eda c9bc b82c 0f3d e71c 31be 8964 a13d
000002d0: 1337 2a3d 21fc 2f3e d469 bb3d dda0 4c3d
000002e0: e7c4 babc 4c56 2ebd 1eda bebd 1d77 2bbd
000002f0: ae6d 233e 9aeb d03c 4753 e6bc a393 a43d
00000300: f5c1 863d b097 9b3b 2f44 2dbe 1c68 183d
00000310: b3c7 2e3b bf89 423d e0d1 193c 1367 e4bd
00000320: 65a1 5abe 6b7e c6bc 635e 473d 96ea 37bc
00000330: e928 9c3c 7df3 863d ffd8 6a3d a022 dcba
00000340: a0fb d5bb a3d1 10be b072 d13b 9d68 6b3d
00000350: a7a7 59bd dfc5 3fbe a804 d73b f6b2 9a3b
00000360: b445 69be 26ee 21be 846f 27bc d60b 483c
00000370: 757c 1cbd cd5f 6c3d 1b0e f3bc d864 0b3d
00000380: a1b5 87bd b1f1 5d3d 9fb8 aabd 8755 1abc
00000390: c390 df3c 0069 21be addf c33d f3f6 a03d
000003a0: 2bfb 31be 9dd6 69bd c2ff 94bd 8a2e e23c
000003b0: 0132 f43a 4e46 9fbc 7fa2 a43d 5623 f03d
000003c0: 8378 633d 5280 e4bd fc40 c8ba 6f16 d8bd
000003d0: 75ef 493e fdba 403d 60bd 923d 3e10 803d
000003e0: 0035 143e d85a 8ebd cc31 a2bd 7e2d c23d
000003f0: 645d 073d a51a 533d 0e36 823c a11c 023e
-0.03795204 -0.04447763 0.027136767 0.015717747 -0.0800562 -0.019227678 0.01083927 0.121162154
0.041842084 -0.033304386 -0.047380056 -0.026271649 0.03685888 0.056376275 -0.15013714 -0.04942079
0.03198333 -0.027780334 0.04817044 -0.053241182 -0.08836785 -0.14897822 0.11844612 -0.11923433
0.13277741 0.09559987 -0.11338905 0.20629954 0.04519746 -0.027288139 0.1280535 -0.09425064
-0.047802772 0.014381625 -0.070368886 0.05926448 0.039566293 0.06866483 0.07064635 0.10167163
0.08446996 0.10401244 -0.117162764 0.03062172 0.020542005 -0.024459327 0.03349569 0.05979738
0.07447342 -0.08767393 -0.0763313 0.038054965 0.09215304 0.11121894 0.073161505 -0.0045519727
0.09482395 0.086484045 0.056348514 -0.039661378 0.04164909 -0.06239632 -0.017498147 0.12630075
-0.016789172 0.021098785 -0.03396399 -0.12127907 0.044816133 -0.016385427 -0.0363621 0.030567922
-0.060241323 -0.0016146126 -0.026128098 0.05773737 -0.121820636 0.10090667 0.10071422 0.050472572
-0.06106085 0.088230185 0.071981974 0.17375562 0.06548754 -0.0006543 -0.025984205 0.06530884
-0.01626122 -0.0715107 -0.0058424026 0.015886765 -0.09899005 -0.12696774 -0.07958289 0.043833796
-0.061495036 -0.20891684 0.02519255 -0.10501735 0.11384428 -0.04189618 0.05842066 -0.081301026
0.13897514 0.10895128 -0.0052260705 0.04278649 0.060085062 0.01442463 0.08873668 -0.02969676
0.13885152 0.13479443 -0.08412836 0.067593895 0.11762184 -0.0767092 -0.10162363 0.055909734
0.10987395 0.036131557 -0.0070967083 0.02363142 -0.0016458391 0.01308176 0.009058879 -0.029861638
-0.0462215 -0.110823534 0.10222089 0.05497127 0.03443937 -0.12829378 0.021901723 0.13778147
-0.14361924 0.066352144 0.12964864 -0.029171301 -0.04339739 0.0010840262 -0.057689935 0.006596989
-0.062547274 -0.0040038205 0.102095276 -0.002056197 0.06938234 -0.1308694 -0.05542385 -0.17492202
-0.07472485 -0.059129845 -0.12141978 -0.009091552 -0.12597485 -0.008084752 -0.0047760946 -0.045138363
0.06253667 0.0760099 -0.089122355 0.0049535087 0.14585023 0.05654629 0.1685855 -0.08273726
-0.020516476 0.2018158 -0.017088475 0.03513189 -0.06664453 -0.093977354 -0.14804003 0.15700996
-0.024640378 0.034954756 -0.17296182 0.07880504 0.04155643 0.17186023 0.091510445 0.0499581
-0.022798968 -0.042562768 -0.09318946 -0.041861642 0.15959808 0.025502969 -0.028115882 0.08035972
0.06579963 0.004748307 -0.16920541 0.03720866 0.0026669323 0.047494646 0.009388417 -0.11152472
-0.2135063 -0.024230203 0.048674 -0.011225363 0.019062476 0.065894105 0.05733585 -0.0016794987
-0.00653024 -0.1414247 0.0063918456 0.057472814 -0.0531384 -0.18727826 0.0065618344 0.004721041
-0.22780496 -0.15813503 -0.0102194585 0.012209853 -0.03820463 0.05770855 -0.029669812 0.03403172
-0.0662644 0.054185573 -0.08335995 -0.009419805 0.027290707 -0.1576271 0.09564147 0.07859602
-0.17380969 -0.057089437 -0.072753444 0.027610082 0.0018630625 -0.019442704 0.08038806 0.1172549
0.05553485 -0.11157288 -0.0015278156 -0.10551154 0.19720252 0.047053326 0.07165027 0.06253098
0.14473343 -0.06950921 -0.07919654 0.09481333 0.03304805 0.051539082 0.015894916 0.12706234

model.2.main.4.weight f4 [32]
00000000: f630 823f c453 7d3f 7385 803f de4a 813f
00000010: a4a7 783f fc47 7f3f 4e59 7f3f 7f40 7e3f
00000020: 5e2d 6f3f ffd1 7d3f e48b 773f d748 7b3f
00000030: 077d 7f3f 09ec 783f 177a 753f 7600 7e3f
00000040: 36e8 733f 00c3 823f 247b 7e3f b70a 743f
00000050: 84f7 803f 7157 7c3f bdeb 7c3f 0bb5 7b3f
00000060: 30f4 7d3f e074 7e3f 4b14 813f ec11 7a3f
00000070: 1bc4 7c3f 1ab9 7a3f 9aa4 743f c34a 7a3f
1.0171192 0.9895594 1.0040725 1.0100973 0.971308 0.99719214 0.99745643 0.99317163
0.934286 0.99148554 0.9669783 0.9815802 0.9980015 0.9723516 0.9588942 0.99219453
0.952762 1.0215759 0.9940665 0.9532885 1.0075536 0.98570925 0.9879721 0.98323125
0.99200726 0.9939709 1.0084318 0.97683597 0.98736733 0.9793869 0.9556366 0.9777033

model.2.main.4.bias f4 [32]
00000000: 6f8f 4a3d 4377 d73c 6ddd 3e3c 9d66 3f3d
00000010: 71e5 c3ba 2a91 1b3c 7079 5dbc 4593 85bc
00000020: be9f 38bc 2dab 903c 9b26 4ebc 21cb 64bc
00000030: 513e 9c3c 3010 ddbc 91ff 8dbb cbdd 87bc
00000040: cffc 7f3b 0d43 2f3d dd73 d6bb 9cd8 91bb
00000050: b1d2 bc3d bf4a d53b f74b 0cbb ae37 a3bc
00000060: 22e6 e53b 7b13 943c a3a9 ddbc c67e 453c
00000070: 45cf 283c 822f 373a 8267 163d 5035 bd3c
0.049453195 0.026301986 0.011649472 0.04672872 -0.0014945698 0.009495059 -0.0135177225 -0.016305575
-0.011268554 0.017659748 -0.012582446 -0.013964445 0.019072684 -0.026985258 -0.0043334444 -0.016585251
0.0039060598 0.042788554 -0.0065445737 -0.0044508707 0.09219874 0.0065091546 -0.0021407583 -0.019924011
0.0070159594 0.018075695 -0.027058428 0.012054151 0.010303323 0.0006987975 0.036719806 0.02309671

model.2.main.4.gate f4 [32]
00000000: fb28 613f 4a92 793f 4d44 813f 81a2 8a3f
00000010: 5b4b 833f c1e6 793f 7284 813f 2502 6f3f
00000020: 43a5 863f 23c5 7a3f 6102 833f 0149 813f
00000030: b10c 883f e21f 8b3f ee15 883f 0b4e 803f
00000040: 064f 7e3f 2889 773f 7933 833f 84f8 803f
00000050: d487 873f 8909 7f3f 53cb 813f 226b 863f
00000060: c7d8 723f 6644 803f 9606 7b3f 3a7e 813f
00000070: ad60 8c3f a65a 783f d84a 853f 193a 893f
0.87953156 0.97488844 1.0098969 1.0830842 1.0257372 0.9761773 1.0118544 0.9336265
1.0519184 0.97957057 1.0235101 1.0100404 1.0628873 1.0869105 1.0631692 1.0023817
0.9933933 0.9669366 1.0250083 1.0075841 1.0588326 0.99623924 1.0140175 1.0501444
0.94862026 1.0020874 0.98056924 1.0116646 1.0967003 0.9701332 1.0413465 1.0720855

model.2.main.4.running_mean f4 [32]
00000000: 5f90 44bd dd37 3c3e 96e2 6b3e d134 823f
00000010: 2543 633e 9826 5cbf 03bb 503f cdca 133f
00000020: fdfb b0be ac80 6bbf 0d9d 23bf a266 a0bc
00000030: c430 373f 65f6 b5bc 8a96 2c3f c423 0b3f
00000040: 83a5 64be 75da 51bf 7c80 e6be c888 de3e
00000050: e04e a9bd f3d9 a3be bd09 473c 08e8 30bc
00000060: b331 8abe 0902 bdbd 24bf 013f 5a20 ac3e
00000070: 239e 22bf 9829 4cbf 93bc acbf 6641 fbbd
-0.047989246 0.18380685 0.23035654 1.0172368 0.22193582 -0.8599639 0.8153536 0.57731324
-0.34567252 -0.9199321 -0.63911515 -0.01958019 0.71558785 -0.022212217 0.67417204 0.5435145
-0.22328763 -0.81973964 -0.450199 0.4346373 -0.08266997 -0.3200222 0.012148318 -0.010797508
-0.26991042 -0.09228904 0.5068228 0.33618432 -0.6352255 -0.7975097 -1.3495048 -0.12268333

model.2.main.4.running_var f4 [32]
00000000: ea0d 6f3f 411d 333f 8d9d 5e3f 4283 1e40
00000010: 0132 cb3f 7814 7d3f 8b25 c73e 9071 9d3f
00000020: c595 3a3f 02e2 583f 50bd dd3f 58d9 0d40
00000030: 7e6f b63f e768 dc3e 51f7 8a3f 55ed 5d3f
00000040: d38a 8f3f ad61 333f 4fe2 1440 bdd8 c73f
00000050: 2e30 a43f bd21 c93f 8cb6 893f de82 373f
00000060: e6a3 833f add2 833f 2731 e73f 1dfb 7d3f
00000070: bbda 4240 1236 693f fe8b 1840 a4ff 263f
0.93380606 0.6996651 0.86959153 2.4767613 1.5874635 0.9885936 0.3889583 1.2300282
0.7288478 0.8471986 1.7323399 2.2163906 1.4252775 0.43048784 1.0856725 0.86690265
1.1214241 0.70070916 2.3263128 1.5613018 1.2827203 1.5713421 1.0758834 0.7168406
1.0284393 1.0298668 1.8061875 0.99211293 3.0446002 0.9109813 2.3835444 0.65233827

model.3.main.0.weight f4 [32, 32, 3, 3]
00000000: f6fe 46bd c6bc 8fbd 083f 1f3e c8bc c63d
00000010: 0e07 853d ab1c eb3c 2748 8e3d b983 8fbd
00000020: 3ca9 ff3c c495 803c a71b 103d b73d a5bd
00000030: 8e96 b7bd a9d4 8e3d 9fc6 e63c aef2 51be
00000040: d98f 753d 859b 64bd 8b4e d43d 9b35 e9bc
00000050: 3304 b6bc 3ad6 1f3e 9591 c4bb c6d7 0c3d
00000060: 20cd bdbd 908a 8b3d 6630 e63d bdbd 1d3e
00000070: b244 debd 17a5 e7bb 691d 563c b52f c13d
00000080: 2f3e 3dbd 524e 62bd 2f92 9f3d 7f6e 133e
00000090: e8d6 8cbd 1f95 0a3e d72d 933d 56f6 34bd
000000a0: b5fb ae3c 80d2 b4bd 863e 52bd e27e 1a3c
000000b0: 491f 0dbc 0a0d 0bbc 90eb 8d3d ad7e 783c
000000c0: b37b e83d be3a 2b3b 332a 823d 98e0 3fbc
000000d0: 236c 3dbc 610f b6bc 871d 223d 246d ab3d
000000e0: 725b 2bbd 7f6a d93d b1d9 b33d 4689 f33b
000000f0: de7c a0bd 51c1 46bc b745 043e f18b 4f3e
00000100: 7589 d7bc d43f 2c3d 46ba 943d 37df 913d
00000110: 3a16 e5bd 515b e0bd 5cec 953d d768 15be
00000120: 25bf 6d3e 5192 f83c 2a22 94bd 160f 0abe
00000130: 53a9 7bbd 9306 e0bd ec2c d1bc 48e0 c03b
00000140: b5f3 083e 9e57 803c 6a7b 04bd 47b6 18bc
00000150: 11ce bb3d 6f6c 083e e3cb 06bd df63 7bbd
00000160: e706 b23d 90e7 0a3d 2e86 ffbb 7831 6a3e
00000170: 29a3 c0bb 9238 af3d 0826 29bd 8c29 1abd
00000180: 4114 abbd 57a3 173d 1f72 a1ba 6ec6 0abd
00000190: bf6a 2dbd d6be 65bd 0d28 69bd 08c7 de3c
000001a0: a0da fa3c 60c0 89be 111f df3b 1a1f 433d
000001b0: 4e9b a33c 4348 233d cd4b 08bd 4d1a 96bd
000001c0: 58d5 f93d 08bd d3bc 1859 93bc 0e25 f7bd
000001d0: caec 753d a16e a0bd 2f70 50bc f289 01be
000001e0: 0153 fc3d c6a5 843c 6239 fbbd 31f8 1c3e
000001f0: 5013 31be 2028 dcbd eb22 80bd 9c0a 563e
00000200: 6c29 5b3d 3111 593d 9ef6 86bd da37 9a3c
00000210: 1ca9 1b3e cf95 663c e363 59bd cae2 69bd
00000220: 7ab6 df3d 3fd5 453d 2fdb 1f3d 3a77 8d3c
00000230: 92eb 33be 134a 863d 6cc8 50bd 140b 05be
00000240: 2d0e 75bd 7f24 e93d c812 233e 04ee 9cbc
00000250: 1816 8cbd cc15 523c f469 b9bb d9e1 50bd
00000260: fb53 09be d552 973c 4ed1 553c aebe f1bc
00000270: 2bc7 c33b ddd5 a53d 0342 133e ae0e 6d3e
00000280: 12a8 d03c 8923 643d 832b e53b 4361 adbd
00000290: 29de 743c 7f2a 203d 6791 94be 774f 01be
000002a0: 8713 c13d ad77 1a3d 30cc 09be 0d2d 663d
000002b0: 3da8 843d e17f 973c b7c9 823b 6218 a73d
000002c0: c8a0 ce3d 2ba8 a93d 2ca4 013e d9c0 863d
000002d0: 7461 04be ae7c 16bd 85d2 cabd 826c 9bbd
000002e0: 9d83 693d 3ddf b9bd 8a5e 16bd 9111 54bb
000002f0: 3cba e03d b84b 0c3e cc66 883d 6ac8 4abd
00000300: 2ed9 d2bc c469 363e ccc5 ce3c a487 2ebd
00000310: 37a5 fe3d 8014 863d 2b14 5e3d 4f23 f33c
00000320: ef20 3bbd 253c 9ebd cbb0 493e 00c1 d0bd
00000330: 3163 9dbd 5551 71bd 6f5a b2bd 981d 20bc
00000340: 3f7c bbbd 7a34 afbc fd06 abbd 8e97 8a3e
00000350: 76d0 3dbd f9b2 9dbd b787 e3bc 9d90 38be
00000360: 7088 12be de90 863d 3cc4 03bd a900 6a3c
00000370: 283e 82bd 380a 95bd 269a e43d 4f1c f0bd
00000380: 42b3 2bbb 7bd2 903d 0142 91bd 830e c53d
00000390: ba40 24be 4892 62bd f60b 0dbd cd5e 76bd
000003a0: b042 0bbc 22f7 f8bb 2dc7 b13d 4542 34bd
000003b0: b467 4ebd efbf cb3c bd53 cfbc c436 36bd
000003c0: 9ff1 2abb f6c7 b93d cb92 82ba 819f c6bc
000003d0: 4df0 58bd 12ef c8bc b4ec a03d 28f5 653c
000003e0: b201 c9bd ef92 c8bc 740d 3d3d 11c0 03bc
000003f0: 3ac2 2c3d e97b 6f3d 56c3 80bc 2d3b f53c
-0.048582993 -0.070184276 0.15551388 0.09703976 0.06495486 0.028700193 0.06947356 -0.07007546
0.031208627 0.015696414 0.03518262 -0.08068412 -0.08964263 0.069741555 0.028170882 -0.20502731
0.059951637 -0.055812377 0.103665434 -0.028467944 -0.0222188 0.15609065 -0.0059988 0.034385465
-0.0926764 0.06813538 0.112397 0.1540441 -0.10852946 -0.007069241 0.013068535 0.094329275
-0.04620188 -0.055250473 0.07791554 0.1439762 -0.068769276 0.13533448 0.07186478 -0.044180237
0.021360258 -0.08829212 -0.05132916 0.009429665 -0.008613416 -0.0084869955 0.069296956 0.015166921
0.11351719 0.0026127542 0.06355705 -0.011711262 -0.011561426 -0.02222413 0.03957894 0.08370426
-0.041835256 0.10616016 0.08781756 0.0074321358 -0.078363165 -0.012131051 0.12917219 0.20268227
-0.026310662 0.04205306 0.07262091 0.07122653 -0.1118588 -0.10954917 0.073204726 -0.14590774
0.23217447 0.030343207 -0.07233079 -0.13482317 -0.061440777 -0.10938754 -0.025534116 0.0058861114
0.13374217 0.01566678 -0.03234426 -0.009320802 0.091701634 0.13322614 -0.032909285 -0.06137454
0.08692723 0.03391224 -0.007797978 0.22870433 -0.005878825 0.08555712 -0.041296035 -0.03763728
-0.083534725 0.037021007 -0.0012317336 -0.033880644 -0.04233813 -0.0560902 -0.05692296 0.027194515
0.030621827 -0.26904583 0.0068091233 0.047637083 0.019971516 0.039863836 -0.033275414 -0.07329235
0.12198895 -0.025846973 -0.01798682 -0.120676145 0.060040273 -0.07833601 -0.012722059 -0.12650278
0.12320519 0.016192328 -0.12266804 0.15329053 -0.17292523 -0.10749841 -0.0625666 0.20902485
0.0535063 0.05299491 -0.06590007 0.01882546 0.15201229 0.014073803 -0.053073775 -0.05710105
0.109234765 0.04829907 0.03902739 0.017268766 -0.17570332 0.06557097 -0.050972387 -0.12992507
-0.059827972 0.11383914 0.15925133 -0.019156463 -0.068401515 0.01282258 -0.0056583825 -0.050996635
-0.13410942 0.018472115 0.01305039 -0.029509868 0.0059746704 0.08097432 0.1438065 0.23150131
0.025470767 0.05569795 0.0069937124 -0.08465817 0.014945545 0.039103027 -0.29017183 -0.1262797
0.09427553 0.037711788 -0.13456798 0.056195308 0.064774014 0.018493595 0.0039913314 0.081589475
0.1008926 0.082840286 0.12660283 0.065797515 -0.129278 -0.036739998 -0.09903435 -0.075890556
0.05701028 -0.090757824 -0.036711253 -0.0032359103 0.109730214 0.1370076 0.06660232 -0.049507536
-0.025738325 0.17813784 0.025240801 -0.042609826 0.12433856 0.06546879 0.054218452 0.029679922
-0.045685705 -0.077263154 0.19696347 -0.10193062 -0.07684935 -0.058915455 -0.08708655 -0.009772681
-0.091545574 -0.021387327 -0.08350942 0.27068752 -0.046341382 -0.07700152 -0.027774675 -0.18023916
-0.1430986 0.065706 -0.032169566 0.014282384 -0.063595116 -0.0727734 0.11162214 -0.117241494
-0.0026199375 0.07071396 -0.07092667 0.096219085 -0.16040316 -0.055315286 -0.034435235 -0.060149003
-0.008499786 -0.00759782 0.08680568 -0.044008512 -0.050391868 0.024871795 -0.025308484 -0.044485822
-0.0026083959 0.09071343 -0.0009961961 -0.02424598 -0.052963544 -0.02452806 0.078576475 0.014035501
-0.098147765 -0.024484126 0.046155408 -0.008041398 0.042177416 0.05846778 -0.015718143 0.029935444

model.3.main.1.weight f4 [32]
00000000: 44f8 7e3f cc0d 7f3f 8029 823f 1c18 803f
00000010: 6d08 733f 23dd 7f3f daf1 763f 022b 803f
00000020: d624 7d3f 4cb1 813f a2ec 7d3f 9bad 7f3f
00000030: 4c4e 7e3f 50ee 7e3f 03ec 7e3f 9e31 803f
00000040: 8678 803f 4781 813f 8c00 833f e615 803f
00000050: 1a88 7f3f 1261 7f3f 4e94 803f 677c 7d3f
00000060: 4f3b 843f 23bf 803f 84bb 7e3f 26ea 813f
00000070: 8753 7d3f ecd7 873f 9f8f 7f3f 5e00 823f
0.99597573 0.9963043 1.0168915 1.0007358 0.9493473 0.999468 0.96462786 1.0013125
0.9888433 1.0132232 0.991892 0.99874276 0.9933822 0.99582386 0.99578875 1.0015142
1.0036781 1.0117577 1.0234542 1.0006683 0.9981705 0.9975749 1.0045259 0.9901795
1.03306 1.005833 0.99504876 1.0149581 0.9895558 1.0612769 0.99828523 1.0156362

model.3.main.1.bias f4 [32]
00000000: 0822 aeba b965 b9b8 337c f33c ff0c 753b
00000010: 880c 9a3c 86fc 8c3c 8c26 93bc 16ff 6c3c
00000020: 8b0d 10bd 6816 f03b 3e73 483d 35c1 3dba
00000030: ec04 ecba 9cac e73c fac0 02bc c1e0 483c
00000040: 2b23 683c 6ee6 0abb 9730 3e3d 6581 e83b
00000050: 7a65 673c e61f 9ebb 38b4 063c 3bf0 33ba
00000060: a499 2e3a 6a98 f4ba 6024 a1bb 555b 053d
00000070: 88f4 b53c 5c73 a43d 085c 1e3d fb9f b2b8
-0.0013285289 -8.840435e-05 0.029722309 0.003739178 0.018804803 0.017210256 -0.017962717 0.014465114
-0.035169166 0.00732689 0.04893803 -0.0007238568 -0.0018006838 0.028280549 -0.0079805795 0.012260617
0.014168541 -0.0021194476 0.046433058 0.007095503 0.014123315 -0.00482558 0.008221678 -0.0006864105
0.00066604675 -0.0018661146 -0.0049176663 0.032557804 0.022211328 0.080298156 0.038661987 -8.5175e-05

model.3.main.1.gate f4 [32]
00000000: 32ff 7d3f 9202 893f c0a1 843f d3bf 823f
00000010: 8eec 723f 4731 793f 9944 843f e6df 843f
00000020: dda3 7d3f 8eef 803f 9c89 5a3f d24d 7d3f
00000030: bf3a 813f e9ca 803f 9366 863f 5b76 803f
00000040: 0fc8 8a3f 1844 8c3f 9671 8c3f 4c5c 7a3f
00000050: 5633 7b3f 29ee 823f fe76 7c3f a81f 7d3f
00000060: 60a5 8a3f 45e2 863f 6369 833f ccdd 7e3f
00000070: 8d30 6a3f 1a5c 843f a72b 7f3f 865a 773f
0.9921752 1.0703909 1.0361862 1.021479 0.94892204 0.97340816 1.0333434 1.0380828
0.9907816 1.0073106 0.85366225 0.9894687 1.0096053 1.0061923 1.0500053 1.0036119
1.0842303 1.095828 1.0972164 0.97797084 0.9812521 1.0228931 0.9861907 0.9887643
1.0831718 1.0537802 1.0266536 0.99557185 0.9148033 1.0340607 0.99675983 0.966225

model.3.main.1.running_mean f4 [32]
00000000: 444e c53e e59e 30be 81ac cf3d 212b 1b40
00000010: b5d2 3ec0 1f10 453f e68e 0440 62c2 6a40
00000020: 1c05 463e c8c4 533f aec6 12c0 2f73 c940
00000030: f651 6940 ca61 6fc0 bcf4 933f b343 debf
00000040: fea5 ec3f ecd4 43c0 0173 8ebf beb3 cabf
00000050: f452 9440 5e93 9140 7d0e 17c0 3009 4640
00000060: 7fb6 adbf 1a8e 043f d048 0a40 4d5d cabf
00000070: 2413 3cc0 69de 6c3d d2ef 5540 a074 103e
0.38536274 -0.17248113 0.101403244 2.4245074 -2.9816105 0.76977724 2.0712218 3.6681142
0.19337887 0.8272214 -2.2933764 6.2953105 3.6456275 -3.7403436 1.1559062 -1.736441
1.8488157 -3.0598707 -1.1128846 -1.5836103 4.635126 4.549239 -2.3602593 3.0943108
-1.3571318 0.5177933 2.1606941 -1.5809723 -2.9386683 0.057829294 3.3427625 0.14106989

model.3.main.1.running_var f4 [32]
00000000: a9a8 b840 6a81 8040 1e82 f440 b116 b340
00000010: 77ab 9b40 ee7c 2a40 e834 f740 df98 5d40
00000020: e39e 6140 b220 2d40 87e3 be40 941c 3241
00000030: 2804 dc40 7931 9f40 eba0 d640 b396 c240
00000040: 38e0 8e40 282e 0741 6907 1c41 5202 8e40
00000050: 02c8 0c41 3b2b 0941 ffa8 6140 fd17 9940
00000060: ed5b 0341 2040 5140 868d 8340 a3cb 3d40
00000070: e837 4b40 336f 2541 097c 4a40 f066 8d40
5.7705884 4.0157976 7.6408834 5.59652 4.864681 2.663875 7.7252083 3.4624555
3.5253227 2.7051206 5.9652743 11.131977 6.8755074 4.974789 6.7071433 6.080896
4.4648705 8.448769 9.751809 4.4377832 8.79883 8.573054 3.5259397 4.7841783
8.209943 3.2695389 4.111026 2.965554 3.1752872 10.339648 3.1638205 4.4188156
