checkpoint/clf/experiment_name/700/netS.pth (torch, 828110 bytes, 10 tensors)

conv.0.bias f4 [64]
000000 02 99 29 bc 5d f5 04 3b 19 97 84 bb 92 e3 42 3d
       -0.010351421 0.002028785 -0.0040463326 0.04758031
000010 81 f4 9e 3c 9c 7a a7 bc 53 97 68 bc 3f 78 ab bb
       0.019403698 -0.020444207 -0.014196235 -0.0052328403
000020 cb 5f 54 bb 7d 79 42 3b 16 bc a0 b9 ac e6 48 bc
       -0.003240573 0.0029674463 -0.00030657713 -0.012262028
000030 be 77 50 3b 3a 18 d7 bb 3c 40 a0 bb f1 29 fe b9
       0.0031809653 -0.0065641673 -0.00489047 -0.00048477904
000040 74 72 10 bc 90 cd 85 bb 1a 48 6a bb 39 b8 6d 3a
       -0.00881635 -0.004083343 -0.0035748542 0.0009068284
000050 cd 1a 1a 3c 67 b1 14 bd fd c9 c3 bc 51 6d bd bc
       0.009405804 -0.036301997 -0.023900026 -0.023123415
000060 3b 49 aa bb 2f dd 06 bb 6b b7 05 bc 86 7e c9 bb
       -0.005196718 -0.0020578613 -0.008161406 -0.006149116
000070 72 97 23 3c 8a a8 eb bb a3 29 01 3c 2a 07 48 bc
       0.009984838 -0.0071917223 0.007883462 -0.012208739
000080 20 1a 10 3c a4 0b 2b bc 36 0f 7d 3b de 1f bd bb
       0.008795291 -0.010439787 0.0038613803 -0.005771621
000090 d2 92 21 bc f4 6f d8 bb 49 78 5c bb b7 11 0d bc
       -0.009861665 -0.0066051427 -0.0033641031 -0.008610181
0000a0 39 18 8e bc b5 ac a6 3a 39 6b 78 3d a9 5b 96 bc
       -0.017345535 0.0012716266 0.06064913 -0.018354254
0000b0 a0 9b 61 bc f9 fe 0f bb cc 10 e4 bb 29 44 22 bc
       -0.013770014 -0.0021972044 -0.00696001 -0.009903946
0000c0 47 4d 19 3c 71 c9 cf 39 e6 5b e3 bb 45 a3 ab 3a
       0.009356803 0.00039632202 -0.0069384454 0.0013094923
0000d0 73 f0 48 39 59 63 8a bc 27 86 33 bc 87 dc 18 3c
       0.0001916306 -0.016893076 -0.010957277 0.009329922
0000e0 2e 73 24 3c 6c d1 29 bc 3b 00 0f bb 97 5b 04 bc
       0.010037227 -0.0103648715 -0.0021820206 -0.008078477
0000f0 4e 51 f0 3c 27 7b 8d bb 19 df 04 3b d8 5e a9 3c
       0.029335644 -0.0043176594 0.0020274578 0.020675108

conv.0.weight_orig f4 [64, 64, 3, 3]
000000 5b 60 12 3d b9 72 ba bc 31 36 e7 bc 13 f8 cb bd
       0.035736423 -0.022759782 -0.028224083 -0.09959426
000010 c2 27 c8 bd 8c d9 be bc a0 86 3f bd f7 b9 19 3d
       -0.09773208 -0.023297094 -0.046759248 0.037530866
000020 78 0a 18 bd 63 28 b2 3c b1 b5 9b 3d c7 08 6d bc
       -0.03711936 0.021747774 0.07603014 -0.014467425
000030 ed 7d e7 3d 32 97 1b bd 96 17 98 bd 6a 0b 0a bd
       0.11303315 -0.037985988 -0.07426374 -0.03370229
000040 49 f0 c4 bc fb 6a 19 3b 27 54 86 3d 9a 38 54 3e
       -0.024040358 0.0023409713 0.065590195 0.20724717
000050 d4 23 9d 3d 5f a7 12 3e 50 be 91 3c 18 03 0a 3e
       0.07672849 0.1432166 0.017790943 0.13477743
000060 b6 24 f4 3a c2 05 f1 3d 2f 73 15 bd d7 cc a0 bd
       0.0018626663 0.11768676 -0.0364868 -0.0785157
000070 e7 59 56 bd 63 c5 8a bb b0 16 93 3d 77 a5 a6 bd
       -0.05233183 -0.004234956 0.07182062 -0.08137029
000080 8b fa 9c bc 1e d8 00 3d 60 f4 a9 3c 22 7b b0 bc
       -0.019162437 0.031456105 0.02074641 -0.02154309
000090 21 fb c6 bc d6 63 43 bd f5 46 e6 3c 85 fa 89 bd
       -0.02428967 -0.047702633 0.028110007 -0.06737236
0000a0 0b 7d 12 3d dd 6e 93 3d 5f d5 a2 3b 38 32 8a 3d
       0.03576378 0.0719888 0.0049692835 0.0674786
0000b0 46 8c 42 3d 48 cf 46 3d 29 2c b6 3d 04 f5 e4 bc
       0.047497056 0.048537523 0.08895142 -0.027948864
0000c0 03 f4 d6 3c 18 ba 8c 3d 46 eb 35 3d c4 ba bf 3b
       0.0262394 0.06871432 0.044413827 0.0058511216
0000d0 65 76 5c 3d 32 f1 0d 3e e5 53 a7 bc 92 0f 95 3c
       0.053823847 0.1386154 -0.020425746 0.018195901
0000e0 e8 21 3c 3d 68 68 f0 3c d2 2f 07 3e 1f 94 6a bd
       0.045930773 0.02934666 0.13201836 -0.057270166
0000f0 22 da 5e 3c 7d 65 f9 bb 63 0b 1a 3e 6f 58 05 3e
       0.013601812 -0.0076109753 0.15043406 0.13022016
000100 83 4c 71 3d 88 bc 02 3e 45 f5 57 bd 92 4c ef 3d
       0.058910858 0.12767231 -0.05272414 0.116845265
000110 cc a7 8d bc e6 64 c7 3b 8c 12 24 3c e7 88 5c 3d
       -0.017291926 0.006085026 0.010014188 0.053841498
000120 0a 99 bf 3d ae fc 95 3d 83 82 2b 3a f9 86 13 3e
       0.09355362 0.073235855 0.000654258 0.14406957
000130 fc de a3 3d 12 fd ab 3d 23 50 01 bc cc 5d ad 3d
       0.08001515 0.08397879 -0.007892641 0.08465156
000140 16 1a d4 3c c6 52 19 3d 17 4d b8 bd 2a 0f c3 3c
       0.025891345 0.037432455 -0.08999079 0.023810942
000150 94 29 d5 bd 93 74 87 3d 40 d1 76 b9 3d ef 1b bd
       -0.10408321 0.06614032 -0.0002353834 -0.038069952
000160 b6 4e 64 bc 2c 37 54 3d 17 24 82 bb 37 25 66 3d
       -0.013934782 0.05181043 -0.0039715874 0.056187835
000170 ab ee c7 bd 8c e4 70 3d 9d 71 05 3c 84 54 2a 3b
       -0.09762319 0.05881171 0.008144763 0.0025990317
000180 1a fc b3 bc 30 61 0c bd bb bc 3e 3d d7 82 fd 3d
       -0.021970797 -0.034272373 0.046566706 0.12378471
000190 fa ee 7b bc 54 4a ac bc 8d 08 a5 3c ec 48 bc bd
       -0.015376801 -0.021031536 0.020145679 -0.09193596
0001a0 b6 07 a9 3d 96 ac aa bc 18 28 7d 3b ee a2 08 bd
       0.08253424 -0.020834249 0.0038628634 -0.033358507
0001b0 29 c7 40 bd 14 b2 e6 bc 2a 12 1d 3c 43 0c 27 3d
       -0.047064934 -0.028161086 0.00958685 0.040783178
0001c0 bb 1d f0 3c f2 81 35 bd 75 4f 92 3d 5b 63 9b 3c
       0.029311052 -0.04431338 0.071440615 0.018968275
0001d0 83 df 00 3d b4 aa 85 bd f9 06 c4 3b 6e 6e fd bd
       0.031463157 -0.065267 0.0059822765 -0.123745784
0001e0 f2 2a e7 bc 48 37 56 3d fb b3 02 3b 4e 5b 90 ba
       -0.02821872 0.052298814 0.0019943703 -0.0011013539
0001f0 be 5c 86 bd b4 cd 56 3d a7 16 e5 3d 94 fd ef 3c
       -0.06560658 0.052442268 0.11185961 0.02929572
000200 00 cf 1d bd 03 52 d7 bc 07 b8 d7 bd 38 99 a9 bd
       -0.03852749 -0.026284223 -0.10533147 -0.08281177
000210 81 3f c0 bc 6a 89 0b bd 8e df c6 3c d5 48 14 3c
       -0.023467781 -0.034066595 0.024276521 0.009050568
000220 b8 4c 98 3d 3a a0 02 3e ed 63 ae 3c dc 90 a7 3d
       0.07436508 0.12756434 0.021287883 0.081819266
000230 33 a4 8e bd 31 6b 57 3d 62 ec 32 3d bf dc cb 3c
       -0.06964912 0.05259246 0.043682463 0.024885533
000240 58 84 31 3d 53 93 09 bd 9a 3a 9f 3d e3 22 6c bc
       0.043339103 -0.033587765 0.07774849 -0.0144126145
000250 75 13 88 3c 8b 8d 1d bd c2 52 b3 3b 27 d9 64 bc
       0.01661084 -0.038465064 0.005472512 -0.013967789
000260 fe 96 43 3d be ae 00 3d 58 84 66 3c 8c ad 42 bc
       0.04775142 0.031416647 0.014069639 -0.011882197
000270 ac b8 b5 3d 6b 54 e0 bd e7 5f 38 bd 0d 4a 80 3d
       0.08873114 -0.109536014 -0.045013335 0.06264124
000280 81 f9 d6 3c 66 ae dd bd f4 04 6a ba 4a a6 81 3d
       0.02624202 -0.108242795 -0.00089271297 0.06330545
000290 85 bc 6f 3c 05 7a 00 3e 81 b2 ab 3b a1 b6 bf bd
       0.014632349 0.12546547 0.005239785 -0.093610056
0002a0 79 37 0b be 96 ce 27 3d 3c d8 ef bc 07 bc 1f be
       -0.1359538 0.0409685 -0.029277913 -0.1559907
0002b0 d4 d2 6f bc f7 a5 49 3d ff 7a 0c bd 96 09 59 be
       -0.014637668 0.049230542 -0.034296986 -0.21195063
0002c0 c1 63 13 bd f6 2f 91 3d 13 60 68 bc 63 d2 14 3c
       -0.035983805 0.07089226 -0.014183062 0.009083363
0002d0 0c 14 f2 bc 92 a5 32 bc 85 bb 66 3d c4 72 cb 3c
       -0.029550575 -0.010903733 0.056331176 0.024834998
0002e0 99 f0 a3 bd c2 3c c8 bd 84 fd f4 bd 18 39 e2 3b
       -0.08004875 -0.09777214 -0.11962417 0.0069037788
0002f0 80 d1 14 3d ad 5a d9 bd 09 76 9b bc ed c4 c3 3b
       0.036332607 -0.10612998 -0.018977182 0.005974403
000300 9e eb dc b9 14 dd 25 bd 19 43 27 bb e2 d5 0a bc
       -0.00042137218 -0.04049404 -0.002552217 -0.008473845
000310 f8 9d 52 bc 31 a1 a0 bd 4a 38 36 bd 00 72 9b 3d
       -0.0128550455 -0.07843245 -0.044487275 0.07590103
000320 ad 8d 14 3d dd 97 81 3d 9f bb e2 3c a6 7a f9 3c
       0.036267925 0.06327794 0.027677355 0.030453991
000330 06 17 28 3d 60 f2 7f bc 19 09 59 3d a7 f1 60 bd
       0.04103758 -0.015621752 0.05298719 -0.054917958
000340 99 d8 ae 3c bf 8d 17 be 56 6d 88 3d 7b 4b 99 3d
       0.021343516 -0.14800166 0.06661479 0.074851
000350 a1 48 93 bc f0 ff 08 be 66 ee 3b bd 69 3c 8f ba
       -0.017978968 -0.13378882 -0.04588165 -0.0010928038
000360 bc 75 bb bd a8 32 27 3c e9 ab da 3c 54 55 22 3d
       -0.091533154 0.0102049485 0.026693301 0.039632156
000370 01 e0 13 bd 80 a8 0e 3d 7b 35 20 3d 0f 27 39 3d
       -0.0361023 0.034828663 0.039113503 0.045203265
000380 75 4a 6f bc 56 7e b2 bd 95 43 92 3b 10 05 d7 3c
       -0.014605154 -0.08715503 0.004463623 0.026247531
000390 3f 1d 14 bc 45 b5 af bd 78 55 3e bd b9 3c 66 bd
       -0.009040176 -0.08579496 -0.046468228 -0.056210253
0003a0 c5 f0 8e 3d aa 0d 63 bc be 0a 62 3d 03 40 c9 bc
       0.06979517 -0.013858238 0.055186026 -0.024566656
0003b0 cc 49 da 3c 08 86 e8 3c 69 ad 91 bc c0 c4 06 bd
       0.026646517 0.028384224 -0.017782884 -0.03290248
0003c0 ef 2e 7f bd c6 59 20 3e 27 07 cf bd ae 75 00 be
       -0.06230062 0.15659246 -0.10108786 -0.12544891
0003d0 42 6e 2e bd 30 41 e5 bc e7 8d 6c bc 43 8e 82 3b
       -0.04258562 -0.027985185 -0.014438129 0.003984244
0003e0 db ed 0a 3c 26 ed 85 bd 76 fb 12 be 0e 32 df bc
       0.008479561 -0.06539373 -0.14353737 -0.027245548
0003f0 67 c0 20 bc 50 7f dd 3c b8 97 ca bc 84 d4 0d 3d
       -0.009811497 0.027038246 -0.024730548 0.0346265

conv.0.weight_u f4 [64]
000000 64 71 83 3e 71 e5 77 3e 51 25 cb 3d 40 5b d7 3e
       0.25672448 0.24208619 0.09919227 0.42061806
000010 85 a4 9d bc 1b de a0 bd 4f 99 f9 bc 0d 93 13 bd
       -0.019243488 -0.07854863 -0.030468611 -0.03602891
000020 cb 16 66 3d 11 c0 07 3e b5 0f 99 bb 21 38 0d 3d
       0.05617408 0.13256861 -0.004671062 0.034477357
000030 a6 f2 01 be 1d f6 08 3e c6 65 05 bd bf 0b 85 bd
       -0.1269022 0.13375135 -0.03256776 -0.06496381
000040 d4 9e e7 3c 94 7b 2b bd 6e a9 47 3d d9 2d 47 bd
       0.028273977 -0.0418659 0.048745565 -0.048627708
000050 b0 8b 12 be 94 6a 4d 3c 34 ac 88 3e 48 33 f2 bc
       -0.14311099 0.012537617 0.2669388 -0.029565468
000060 12 71 27 bd 3b 90 83 bc d2 f0 45 bd 1c 17 6a bd
       -0.040879317 -0.016059985 -0.048325367 -0.057150945
000070 60 f7 a4 3d 0d ab 18 3e bc 55 2d bd 67 1b 37 bd
       0.080549955 0.14909 -0.04231809 -0.044703867
000080 98 e9 c0 bd 7f 7a dc 3c dc 1d c3 3c 43 53 c8 bc
       -0.094195545 0.02691388 0.023817949 -0.024453765
000090 14 7c c2 3d 89 ba 24 3e 31 e9 95 3d a2 5b a6 3d
       0.09496322 0.16086783 0.07319868 0.08122946
0000a0 0b 4e 31 3e 4b 20 b1 3c ba f5 a2 bd 40 e4 b7 3d
       0.17314927 0.021621844 -0.07957025 0.08979082
0000b0 2a 5a ab bd a7 8c b6 3d 08 62 8b bc 0c 78 65 3d
       -0.08366807 0.08913546 -0.017014518 0.05602269
0000c0 52 38 ba bd 13 4d b6 3b e4 d5 38 be a7 0f d7 bd
       -0.090927735 0.005563387 -0.18050343 -0.10501032
0000d0 d0 b7 58 bc 6f 25 b3 bd 95 5c 6d bc 37 be 1f 3c
       -0.013227418 -0.08747374 -0.014487405 0.009749941
0000e0 d0 c1 44 be 26 bd 00 be e0 54 13 be 71 f7 85 be
       -0.19214559 -0.12572154 -0.14387846 -0.26165345
0000f0 ae ac 7c be 5f ba 73 3d 42 b6 ef 3d a9 c6 8e 3e
       -0.24675247 0.05950391 0.11704685 0.2788594

conv.0.weight_v f4 [576]
000000 40 99 42 bd 01 be 93 bc 39 06 b2 3b c5 67 1f 3c
       -0.04750943 -0.018034937 0.0054328707 0.00972933
000010 47 cb 8f 3c 54 d1 04 bd ea bd 1c 3d 30 5a 9e 3c
       0.017552985 -0.032426193 0.038267054 0.019330114
000020 06 56 97 bd f3 5e 00 3c e1 c0 85 bd ec ca 55 3c
       -0.073894545 0.007835138 -0.06530929 0.013048869
000030 41 11 90 3c da f6 a5 bc 81 e3 e3 bc 19 7e ef bc
       0.017586352 -0.02025931 -0.027818443 -0.029234933
000040 b3 3a 06 bd ea 22 93 bc 08 6e 0b 3e c3 12 ec 3d
       -0.032770824 -0.017960984 0.13616192 0.11527016
000050 6e a6 db 3d 35 1a d3 3d cf d9 0d 3e db a8 94 3d
       0.10725103 0.10307733 0.13852619 0.07258769
000060 7f 12 bb 3d 7f cc 01 3e 61 f4 a1 3d 7d 24 f3 3b
       0.09134387 0.12675665 0.0790794 0.007420121
000070 10 fe 19 3d e4 e3 50 3d 55 e9 3e 3d 69 2e 01 3d
       0.03759581 0.050998583 0.04660924 0.0315384
000080 df ff b6 bc 62 ba 44 3d fd 63 c2 3c af 26 0f bd
       -0.022338806 0.04802931 0.023729319 -0.034949
000090 cf e2 01 bd 8c d3 83 bd 64 40 2c bc e8 13 c2 bc
       -0.031710442 -0.06436834 -0.010513399 -0.023691133
0000a0 00 66 46 bc 55 89 97 bc ec 32 62 bd d8 08 b5 ba
       -0.01210928 -0.018498102 -0.055224344 -0.001381184
0000b0 26 b4 6b 3c 25 af d0 b9 73 66 c5 3c 7a 4d 14 3d
       0.014386212 -0.00039803344 0.024096703 0.0362067
0000c0 aa d3 37 3d 77 fe b6 3c 60 db 45 3d 9d a8 99 3c
       0.044879593 0.022338135 0.048304915 0.018757159
0000d0 1a 52 73 3d 49 e9 79 3c 6f 72 c4 3d 29 48 a5 3d
       0.05940447 0.015253373 0.09592139 0.08070404
0000e0 ed f5 6a 3d 91 dd 0c 3d c3 ac c3 3d d7 5c 51 3d
       0.05736344 0.03439099 0.09554436 0.05111393
0000f0 19 15 4b ba 9a 76 49 3d 01 ca 9d 3d 32 6b 8b 3d
       -0.0007746979 0.049185373 0.07704545 0.06807555
000100 c7 b8 43 3d b3 6a a4 3c cc ff 67 3d b0 28 ba 3d
       0.04778364 0.02007041 0.05664043 0.09089792
000110 56 3a ee 3c 02 5f 7e 3c e3 4b 17 bc 98 c4 5e 3d
       0.029080551 0.015525581 -0.009234401 0.054386705
000120 84 b9 e1 3d 6f cf 76 3d 0e 40 c0 3d 1f 49 ca 3d
       0.110217124 0.060256418 0.093872175 0.09877228
000130 de c1 a2 3d ae d2 ec 3d 25 4a b6 3d 8c 0c a7 3d
       0.079471335 0.115636215 0.08900861 0.0815669
000140 96 65 28 3d 54 ac 77 3d ee 54 8a bb 8e 8b 65 3c
       0.041112505 0.06046708 -0.00422155 0.014010323
000150 11 fb 10 3c ce a8 41 3d c9 4b 42 3d b0 98 27 3d
       0.008848921 0.047280125 0.047435556 0.0409171
000160 1e ab 93 bc 04 6e 05 bd 17 6b 8f bc e5 05 41 bd
       -0.018025931 -0.032575622 -0.01750712 -0.047124762
000170 63 e3 02 bd 70 a6 04 bc ce 81 4d 3c 74 2b 1e 3c
       -0.031955134 -0.008096322 0.012543155 0.009653915
000180 44 c5 e5 bc c4 d6 a5 39 39 05 2d bd 09 b1 91 3c
       -0.028048165 0.00031631265 -0.04224131 0.017784612
000190 a7 52 3d bd 54 87 92 3a c6 f0 6a bd 2b 83 d8 bc
       -0.0462214 0.0011179247 -0.057358526 -0.026429733
0001a0 d3 a6 ed bc 6b 97 0d bd 21 49 67 bd f1 ab 24 bc
       -0.029010212 -0.03456823 -0.056466226 -0.01005076
0001b0 24 79 84 3d cd 0e cf 3c 6e c7 39 3d c3 bd 9a 3d
       0.06468418 0.025275612 0.045356207 0.075557254
0001c0 47 0a 91 3d 73 ae b3 3c 60 13 1b 3d be 09 15 3d
       0.070820384 0.02193377 0.037860274 0.036386244
0001d0 82 07 51 3d 3b b8 46 bd 82 5a 2a bd 73 39 a7 3c
       0.05103255 -0.04851554 -0.04159022 0.020413136
0001e0 6c 6a 4e bd c6 5b 9c bc 74 be 0c 3c 76 85 48 bd
       -0.05039446 -0.01908673 0.008590329 -0.048955403
0001f0 67 bd 83 bc a5 f2 ed 3c 47 68 69 bb be 48 fe 3c
       -0.016081525 0.029046366 -0.0035615133 0.031040546
000200 31 8d 90 bc 8a 44 05 bd c9 cd 48 3b ab ef ae 3c
       -0.01764545 -0.032536067 0.0030640236 0.021354517
000210 4a 1e 59 3d b3 40 ec 3c ef 79 21 3d 72 13 9e bc
       0.0530074 0.028839445 0.039422926 -0.019296382
000220 33 bc 93 3c 51 06 e7 3c fa 45 b5 bb ba 91 ac 3c
       0.018034076 0.028201254 -0.0055320235 0.021065582
000230 94 88 77 bc d9 03 84 3c 8c b9 91 3b 5a d3 cb bc
       -0.015108246 0.016115116 0.0044471677 -0.024881054
000240 a9 73 c9 3c f7 8f 45 bc e3 ba 87 3c 6d f2 d5 bc
       0.024591284 -0.01205825 0.016568607 -0.026116574
000250 90 29 3d 3c d3 0a 82 bd 4b 33 c7 3c a4 3e c3 3d
       0.011545554 -0.06349721 0.02431645 0.09533432
000260 c3 44 c0 3c 0a ba 45 bc 46 87 d3 b9 27 95 17 3d
       0.023470288 -0.012068281 -0.00040345843 0.037007477
000270 48 c3 0f 3c b3 a3 86 bc 96 17 e3 3b 96 db 30 3c
       0.008774586 -0.01643548 0.006930302 0.010794541
000280 8d 4d 2c bd a6 1a 6f bd 25 20 38 3d 08 25 d8 3c
       -0.042066146 -0.058375023 0.04495253 0.026384845
000290 73 f1 ea 3a 7e 1f 90 3d da 3c 94 3d ee 21 1f 3d
       0.0017924741 0.07037257 0.07238169 0.038850717
0002a0 69 3f 9e bc 1d c5 19 bb f1 78 e8 3b 11 e1 3e bd
       -0.019317346 -0.0023463436 0.0070944955 -0.04660136
0002b0 9d 2b c5 3c b6 ae 12 bc 6c 63 42 3a 0c eb 3f 3d
       0.024068648 -0.008952787 0.0007415328 0.046855018
0002c0 41 c5 83 3c 8c fc ad 3b 77 f1 65 bc aa 36 9c 3d
       0.016085269 0.005309647 -0.0140346205 0.07627614
0002d0 57 c5 80 3c 29 69 f6 bb b7 ee 1a bd 72 69 b0 bc
       0.015719099 -0.0075198603 -0.037825312 -0.021534655
0002e0 20 aa f9 bc fd 0b 81 bd 2d d1 b1 bc 06 6c a7 3c
       -0.03047663 -0.06301115 -0.021706188 0.020437252
0002f0 c2 53 76 bc ad f3 83 bd 08 73 6c bd 6c d0 79 bd
       -0.015034618 -0.06442962 -0.05772689 -0.060989782
000300 43 52 9d bd bb 5e 60 bd 2d c0 5a bd 9f 95 10 bd
       -0.07681706 -0.054777842 -0.05340593 -0.03529894
000310 3e f1 b9 bd 34 b7 cf bd f6 0e 8d bc 75 e8 2c bb
       -0.090792164 -0.10142365 -0.017219048 -0.0026383672
000320 b5 9b 28 bd 53 0e b9 3b af c8 74 3b eb 39 f1 bc
       -0.04116412 0.0056474595 0.0037351062 -0.029446563
000330 d4 a4 06 bd 2f f2 1c 3c a3 97 7f 3d 3d c1 f6 bc
       -0.032872036 0.009579225 0.06240047 -0.03012144
000340 06 a8 f8 bc 3f 4b 81 bd 12 0e 7f 3d cc b9 d1 bc
       -0.030353557 -0.0631318 0.062269278 -0.02560129
000350 1e d0 47 bd 5d bf 9f bc 31 c5 f6 3c d3 dc 06 3c
       -0.04878246 -0.019500429 0.030123325 0.0082313595
000360 da 5a c1 bc 6c 26 19 bd fa 8a 50 3d e9 b1 95 3c
       -0.023602892 -0.037390158 0.05091379 0.01827331
000370 32 0c f5 3a 1a b1 8d 3c 75 05 9e bc 13 de a6 3c
       0.0018695651 0.017296363 -0.019289711 0.020369565
000380 14 07 47 bc 21 6d 55 bc 3f b4 2d 3c ce ed a2 3c
       -0.012147684 -0.013026507 0.010602056 0.019888785
000390 b4 78 9e ba de 54 2f bd c1 b4 73 3c 48 13 83 bd
       -0.0012090416 -0.042805545 0.014874638 -0.06400162
0003a0 bd d6 e6 bc 84 0e 7b 3c d9 22 e9 bc 75 59 69 bd
       -0.028178567 0.015323285 -0.028459 -0.05697008
0003b0 35 44 39 3c 5f 03 bc bc 89 87 50 bd 84 a6 10 bc
       0.011307766 -0.022950826 -0.050910506 -0.008828763
0003c0 72 90 76 3b d8 cd 08 bc c4 0b 7c bd 30 fe c6 bd
       0.0037622717 -0.008349858 -0.061534658 -0.09716451
0003d0 fa f3 a1 bd 6b 19 82 bd 1e 8d 24 bd 09 6d 24 bd
       -0.07907863 -0.06352504 -0.040173642 -0.040143047
0003e0 aa 13 36 bd 69 c5 1c bd e4 98 b6 bc a7 04 89 bd
       -0.044452347 -0.038274202 -0.0222897 -0.066903405
0003f0 22 32 21 3c 46 02 29 3c 18 15 81 bd 4c a8 0b 3c
       0.009838613 0.010315483 -0.063028514 0.008524012

conv.2.bias f4 [64]
000000 6e 06 09 bc f4 91 a8 bc 1a af 9f 3d 17 8c 85 bb
       -0.008363349 -0.020577408 0.0779707 -0.004075538
000010 41 aa de bb 18 88 ca bb 9b 9d 73 bb ea dc 01 bc
       -0.006795198 -0.0061807744 -0.0037172798 -0.007926205
000020 cb 85 14 bd a0 8e 8b b9 da f8 7d 3b e4 65 67 bc
       -0.036260407 -0.0002661841 0.0038753063 -0.014123414
000030 17 6b fe bb 03 b6 d0 bb 3b 2a 8e bc 3e 7d c2 bc
       -0.007764231 -0.0063693537 -0.017354121 -0.02374136
000040 2a d9 28 bc 24 25 8b bc a6 d2 08 bc ad a4 d4 bb
       -0.010305682 -0.016985483 -0.008351004 -0.0064893574
000050 7f 8b 9c bc 7f 3d 33 bc 2c cb e4 bb 8c 67 d6 bb
       -0.019109486 -0.010939955 -0.006982228 -0.0065431055
000060 22 4e 16 bd 1c 30 09 bc ad 35 8a bc 12 ab eb bb
       -0.036695607 -0.008373287 -0.016871298 -0.007192024
000070 28 0c 1d bc 17 4e 3d bb c7 8c 1c bd 60 b8 9d bb
       -0.009585418 -0.0028885657 -0.038220193 -0.004813239
000080 3d f7 5f bc 85 c1 05 bd 33 db 1c bc 0b 89 6d bd
       -0.013669786 -0.032655258 -0.009573746 -0.057992022
000090 5c 55 d4 bb 2d b0 47 bc 44 bf 16 bc 95 40 9f bc
       -0.006479902 -0.012188 -0.009200875 -0.019439975
0000a0 05 50 11 bc c7 29 c2 bb 52 f2 8b bc 47 94 8b bb
       -0.008869176 -0.0059253904 -0.01708332 -0.0042596194
0000b0 0a 6e bc bc 33 4d f6 bb 20 b5 2a bc b5 ad b1 bb
       -0.02300169 -0.007516527 -0.01041916 -0.005422319
0000c0 fc a9 0b bc 32 a9 21 bc 41 48 b3 bc ff 9d f5 bb
       -0.008524414 -0.009866999 -0.02188504 -0.0074956412
0000d0 b0 bc 9e bb 46 d7 ea bb 28 7a e8 bb f3 ab 16 bc
       -0.0048442706 -0.007166776 -0.0070946403 -0.009196269
0000e0 17 35 92 bb 30 f2 5b bc d0 a2 45 bc 90 45 c8 bb
       -0.004461895 -0.013424441 -0.012062743 -0.006111808
0000f0 da 0d 0a bd f8 ad 52 bc 1d d9 3e bc e9 98 7e bc
       -0.033704616 -0.01285886 -0.0116484435 -0.015539386

conv.2.weight_orig f4 [64, 64, 3, 3]
000000 86 d2 0a bc 2e d4 2f 3d bd 68 5e bd e0 3a dc bd
       -0.008473044 0.04292696 -0.054299105 -0.10753417
000010 e3 0c 28 be 6f 3e a0 3a d1 03 02 3c 4b e9 a6 bd
       -0.16411166 0.0012225638 0.00793548 -0.08149966
000020 20 a2 bf 39 e6 86 0f bd 07 13 b5 bc a0 fb 25 bc
       0.0003655115 -0.03504076 -0.0221038 -0.010130793
000030 ff b8 24 3d ee 51 96 3c 6b 37 f8 bc be 44 0b bc
       0.04021549 0.018349614 -0.030299863 -0.008500276
000040 76 ca fa bc bd d4 c5 bd 0a 0d 0b bd 79 41 bb 3c
       -0.030614119 -0.09659717 -0.033947982 0.022858368
000050 da 7a 6d bd 98 bc b9 bc 86 fb f4 bc cd 6e 38 3d
       -0.05797849 -0.022672936 -0.029905092 0.045027543
000060 d9 76 e3 bd 7f 0f 16 bd f6 21 89 3c 03 aa 11 bd
       -0.11106653 -0.036635872 0.016739827 -0.035562526
000070 46 79 1d bb d1 a0 60 3c 5e 2e 4f 3b d6 80 c4 bd
       -0.0024028583 0.013710217 0.003161333 -0.09594886
000080 06 81 99 3c 53 2c 46 3c b1 0a 40 3d 98 d9 a3 3d
       0.018738281 0.012095529 0.046885196 0.08000487
000090 15 a9 4d 3d 7f ed 39 3d 45 26 cd 3c 9b 49 c9 3d
       0.050210077 0.04539251 0.025042662 0.09828492
0000a0 fb 5b 3b bc 33 44 9b bd 63 5d c8 3c f3 ab 9c bc
       -0.011435504 -0.07581367 0.024458593 -0.01912496
0000b0 06 a2 18 3c 15 ac 19 bd c4 a9 8a bd af cc 95 bd
       0.009315973 -0.037517626 -0.067706615 -0.07314431
0000c0 ff 30 51 3c b8 70 8a 3b 3b d1 03 bd 55 24 31 bb
       0.012768029 0.004224863 -0.03218196 -0.0027029712
0000d0 ec 3c 30 bd e7 67 34 bd af 1c 8b 3b 52 0d 7a bd
       -0.04302685 -0.0440444 0.0042453627 -0.06104786
0000e0 d2 bb 92 3b 12 69 ab bd 3f 99 80 bc 6f f3 f9 bc
       0.0044779563 -0.0836965 -0.015698073 -0.030511586
0000f0 0d 0b 97 3b bf 1e 43 bd 92 85 3a 3d 88 dc a6 bd
       0.0046094717 -0.047636744 0.04553754 -0.08147532
000100 51 a6 56 bc fc f8 e6 bc b9 1d 36 bc a9 75 dd 3d
       -0.013101176 -0.028194897 -0.011115485 0.108134575
000110 6f 9a 4b bd 3f 55 8f bd d7 f8 22 bd 8f 18 ab 3d
       -0.049707826 -0.06998681 -0.039788093 0.083542936
000120 c8 62 a6 3c e8 e4 ce bc af 33 38 bd d9 9b e4 bc
       0.020310774 -0.025255635 -0.044971164 -0.027906345
000130 b6 96 86 3b 43 ee 32 3c a0 c3 98 bd 07 47 84 bc
       0.0041073216 0.010921064 -0.074591875 -0.01614715
000140 2b e5 2f bd e7 dd ed bc c8 d1 b6 bc b2 18 a5 3c
       -0.04294316 -0.029036475 -0.022316828 0.020153377
000150 b0 02 23 3d 89 57 2f bd 8b 38 fa bc 65 5b 68 bc
       0.039797485 -0.04280809 -0.03054454 -0.014181946
000160 33 9e e3 bd 61 60 31 bd ad 8b 28 bd d4 fb 32 bd
       -0.111141585 -0.043304805 -0.04114883 -0.043697193
000170 00 6c 30 bd 0b eb d5 bd fb b2 05 3e 65 80 d3 3d
       -0.043071747 -0.104452215 0.13056557 0.10327224
000180 08 20 07 bd 09 70 cb bc e1 04 20 3d 16 99 01 3b
       -0.03298953 -0.024833696 0.039067153 0.0019775084
000190 c6 e1 aa 3d 2c 40 df bb fb bc 47 3d 46 3d bc 3b
       0.08343844 -0.00681307 0.04876421 0.005744609
0001a0 20 95 76 bc 39 cc 6b 3d f9 f9 6d 3d 20 05 56 bc
       -0.015050203 0.05756781 0.05809972 -0.013062745
0001b0 6b 42 c5 3d 22 4f ab 3d 85 d3 11 bd 29 f4 ff bc
       0.09631809 0.08364703 -0.03560211 -0.031244354
0001c0 5f 90 1c bb 70 e7 a6 bd 5b 27 d2 bd 8f 13 44 bc
       -0.0023889763 -0.08149612 -0.10261413 -0.011967554
0001d0 94 de a1 3b 61 c7 82 bd d7 7e be 3c cc b0 4b 3d
       0.0049398635 -0.06385685 0.023253841 0.049729154
0001e0 6c cb c3 3c 9b ad 0e bc 40 20 50 bd 3b fd 37 bc
       0.02390071 -0.008708383 -0.050812006 -0.011229808
0001f0 53 2e 7c bd e6 c2 24 bd 48 83 05 bd 3d c3 0d bd
       -0.061567616 -0.040224932 -0.032595903 -0.03461002
000200 d6 f9 7e 3c 2d 1a ba 3d bb 75 f9 3c 68 93 6b 3d
       0.015562495 0.09087024 0.030451646 0.057513624
000210 2a a8 aa 3c ed 6d 92 3d cb 69 71 3c cc 6f d6 bb
       0.02083214 0.07149873 0.014734696 -0.006544089
000220 2a db 3e be 54 7e 22 bc 78 e5 b4 3d 69 75 12 bd
       -0.18638292 -0.009917814 0.0883283 -0.035756502
000230 d5 0a 20 3d f7 84 a2 bd 99 98 12 bc be c5 87 bc
       0.03907283 -0.07935517 -0.008947515 -0.016573783
000240 4b 3c 8a bd 7a 42 b6 bc 8a 6c 28 3d 8b bf 12 3b
       -0.06749781 -0.022248495 0.041119136 0.0022392
000250 29 13 9e 3b a0 85 48 3d ea b9 44 bd 21 5d bb 3d
       0.0048240614 0.04895556 -0.048028864 0.09148622
000260 41 35 0c bd fe 62 17 3d f0 c5 6c 3d 81 07 bc bd
       -0.034230474 0.03695964 0.057805955 -0.09181119
000270 50 f7 a2 bc d6 a4 dc 3c 8f 4b fe bc d9 1f c0 3d
       -0.019893318 0.026934069 -0.031041889 0.093810745
000280 5b 36 ce bc e6 1d b7 bc c8 3f 69 bc da 11 53 3d
       -0.025172403 -0.022353124 -0.014236398 0.051530696
000290 b7 76 88 bc f6 6a 8d 3d 26 5a 6d bd f1 e8 2c bd
       -0.01665817 0.06905167 -0.0579473 -0.042214338
0002a0 12 43 b2 3c 7c 12 2a 3d 4d 14 c1 bb c8 b9 fc 3d
       0.021760497 0.041521534 -0.0058923126 0.123401225
0002b0 81 0f 5b 3d 25 22 7c bc 53 97 57 bd 41 28 00 bd
       0.053481583 -0.015389 -0.05263455 -0.03128839
0002c0 32 5a 07 3c 35 30 51 bb ae 90 d7 3d e5 ee 29 3d
       0.00826125 -0.0031919603 0.10525642 0.041487593
0002d0 2d 96 e2 3c 65 49 d9 3c 4c e2 a3 3d 2a b0 c0 bd
       0.0276595 0.026524255 0.08002147 -0.09408601
0002e0 ea f1 06 bd 0e 60 b7 bb 5f 49 90 bd 48 fe 97 bd
       -0.03294555 -0.0055961674 -0.070452444 -0.07421547
0002f0 7b 41 db bd 90 fd ce 3c 63 80 b1 3c 18 ce 2c bd
       -0.10705849 0.025267392 0.021667665 -0.042188734
000300 fe 8a 1c be 78 f0 dd bc 89 56 a4 3d 40 73 e6 3c
       -0.15287396 -0.027092203 0.08024318 0.028131127
000310 55 20 91 3d 6c f8 41 bd 08 53 4f bc 40 4f 05 be
       0.07086245 -0.047356054 -0.012654074 -0.13018513
000320 2c 7c ad bc bc 61 75 bd 9b 7e 33 bd b8 4f 46 3c
       -0.021177374 -0.05990766 -0.043821912 0.012103967
000330 70 19 4a bd 47 71 b1 3d dd c1 47 3c dd 97 20 bd
       -0.049340665 0.08664184 0.012192217 -0.039207328
000340 97 e0 af bc f0 8c e1 bc 83 f7 c2 3d c5 05 1b bb
       -0.021469397 -0.027533025 0.09519865 -0.0023654562
000350 44 8c d9 3b b4 6b a6 bd 85 2c 8b bc 2d 39 3f 3d
       0.0066390354 -0.081260115 -0.016989002 0.046685386
000360 78 d8 8f 3d 5f f2 30 3c 78 2e 9a 3c 7a d3 47 bd
       0.0702371 0.010799973 0.018820986 -0.048785664
000370 e8 b8 be 3d 35 3a 87 bc df 53 ce bc f9 c2 50 3d
       0.09312612 -0.016507247 -0.025186477 0.05096719
000380 dd 24 2d bc 2f cb 94 3c 31 a2 a5 bb 47 3f 88 bd
       -0.010567871 0.018163292 -0.005054735 -0.06652694
000390 be 8e d2 bb 72 9b e5 bb 6e 6d 34 3d a9 fa 11 bd
       -0.0064257076 -0.007007056 0.044049673 -0.03563944
0003a0 fa ac 0a bd b0 95 af bd f7 2e 93 bb 83 1a 08 bd
       -0.03385637 -0.085734725 -0.0044916826 -0.03322841
0003b0 55 4f 75 3d f4 a2 aa bc b8 14 0b 3e 68 cd 90 bc
       0.05989011 -0.020829655 0.13582122 -0.01767607
0003c0 9a 37 4b 3c 88 19 75 bc e4 93 4f bd 25 3d 82 3d
       0.012403393 -0.0149597 -0.05067815 0.06359319
0003d0 b8 67 cc bc f5 b6 56 bd 7d 03 c5 bc 14 65 13 3d
       -0.0249518 -0.052420575 -0.024049515 0.035985067
0003e0 b3 5a 16 3e 77 30 70 3d a9 c1 76 3d 0d 5a 16 be
       0.14683037 0.05863997 0.060243282 -0.14682789
0003f0 bd d9 bd 3c 33 a3 d8 3c f8 68 98 3d e2 69 de bc
       0.023175115 0.026445007 0.07441896 -0.027150098

conv.2.weight_u f4 [64]
000000 ad a4 6a 3d 46 80 b1 3c 7e 8c 6a 3c 5f b4 4a 3c
       0.057285953 0.02166761 0.0143157225 0.012372105
000010 34 fe 9c 3d a3 6a 4a bd d2 d0 9d 3c c8 b8 83 3c
       0.07665673 -0.049418103 0.019264612 0.016079322
000020 bd 71 65 3e 69 51 f2 bc 5b f8 31 3d d5 67 42 bd
       0.22406669 -0.029579835 0.04344974 -0.047462303
000030 f9 87 4a bd ec 6b 80 bd d5 cb 62 be 5e 8e 46 3e
       -0.04944608 -0.062705845 -0.22148068 0.19390246
000040 dd 6f fc 3c 8e e2 cf 3b df dc a3 bc 89 82 81 bc
       0.03081506 0.006344146 -0.02000278 -0.015809314
000050 39 b2 e6 bc f5 d4 7b bd fc 3c 83 bd 3e e9 87 bd
       -0.028161155 -0.06148239 -0.06408116 -0.06636284
000060 c9 54 c4 3d 30 de 65 bb 7f 10 05 be 08 dc 5a 3b
       0.09586484 -0.003507506 -0.12994574 0.003339531
000070 11 6e 76 3c 90 b2 53 3d eb 06 1c be e5 6c c7 bd
       0.01504089 0.051683962 -0.15237014 -0.09737567
000080 aa b8 6b 3a e0 4c bc bd 23 27 63 be 8a 69 41 bd
       0.00089920557 -0.0919435 -0.22182898 -0.04721979
000090 7b 42 e6 bd bf fb d9 bd f1 aa 8f 3e 04 46 b9 bd
       -0.11243149 -0.1064372 0.28060105 -0.090465575
0000a0 dd e9 bf 3d 25 db b7 bd df cd 75 bd db d7 1a bd
       0.09370778 -0.089773454 -0.060010787 -0.037803512
0000b0 cd 57 46 3e f2 1a b5 bb 02 5d f9 3d 4a 7f 7d bd
       0.19369431 -0.005526894 0.12175943 -0.06188897
0000c0 47 94 48 be 99 37 12 3c 33 3b e6 bd 76 e7 f6 be
       -0.19587813 0.008924388 -0.1124176 -0.48223466
0000d0 24 86 08 be d8 bd 88 3d f0 bf 4d bd 36 73 41 be
       -0.1333242 0.06676835 -0.050231874 -0.18891606
0000e0 a9 62 e0 bd 99 dd 0d 3e 3b 42 39 3e 9d b2 42 be
       -0.10956318 0.13854064 0.18091671 -0.19013448
0000f0 10 d1 b1 3d 2c 6d 56 3e 05 0d 03 3e 1c 0e 1e bd
       0.08682454 0.20940083 0.12797935 -0.038587674

conv.2.weight_v f4 [576]
000000 6b 13 b6 ba 94 12 1f bd a1 dc a0 bc 0b 34 42 3d
       -0.0013891285 -0.038836077 -0.019636454 0.047412913
000010 a0 57 fc 3c 2f ab c5 3c f3 9b 28 3d 4d db 6c bd
       0.030803502 0.024129478 0.04116435 -0.05782633
000020 6d af 8d 3d 32 b8 56 3b 85 39 86 3b 89 da bb 3c
       0.069182254 0.0032763598 0.0040962123 0.022931354
000030 39 3e a4 3d 49 73 4c 3c df b9 50 bc 48 68 8e b9
       0.080196805 0.012478658 -0.012739628 -0.00027162046
000040 d6 95 09 3d f0 2b 6e 3b a7 f9 4e 3c c6 48 e0 bc
       0.03359016 0.0036342107 0.012632764 -0.027378451
000050 70 39 3b bd ef 63 0c bd 2c 70 32 bd 61 43 44 3d
       -0.045709074 -0.03427499 -0.043564007 0.04791582
000060 fb 00 08 bd 5a ef 9e bc 57 34 aa 3d d5 18 82 3d
       -0.03320406 -0.019401241 0.08310764 0.063523926
000070 b1 b1 ad bc e8 5c 5c 3c 7e 21 d5 3d 6d 0f 92 bd
       -0.021202894 0.013449885 0.10406779 -0.071318485
000080 f5 98 17 3d 00 f0 f4 3c 9f af d3 3b 13 5f 09 3c
       0.037011106 0.029899597 0.0064601447 0.008384484
000090 5b f3 14 3c 70 a0 0f bc 71 db e1 3c bf f9 36 3d
       0.009091224 -0.008766279 0.027570458 0.04467177
0000a0 98 2b 36 bc 51 65 b7 bc 21 53 94 bd 52 72 33 bd
       -0.011118792 -0.022387179 -0.07242418 -0.043810196
0000b0 39 0e 29 bd 96 f1 8f bb bc 74 11 3d 73 61 e3 bb
       -0.04127333 -0.004392813 0.035511717 -0.006939107
0000c0 45 24 7d 3d 1d 35 2e 3d bb 0d 63 3d 67 1a 15 3d
       0.061802167 0.04253112 0.055433016 0.036402132
0000d0 14 c9 8e bd 3c 19 94 3d f4 f9 73 bb ed 58 65 3c
       -0.06971946 0.072313756 -0.003722784 0.013998252
0000e0 43 c5 5f bd 64 40 b4 39 4c 3a 9b bd 5a 0b 1c 3d
       -0.054631483 0.0003438025 -0.075794786 0.038096763
0000f0 1b 5d 8e 3c 55 83 e0 bc bd 32 85 bc d1 22 e6 bb
       0.01737838 -0.027406374 -0.016259545 -0.0070231934
000100 7f 74 31 3d 97 f2 c7 bc 40 eb c8 bc 7e 37 1d 3d
       0.04332399 -0.024407668 -0.024526238 0.038383
000110 e7 23 89 bc 7c c8 eb bc 32 80 92 bc 3b ec a8 bc
       -0.016740752 -0.028782122 -0.017883394 -0.020620456
000120 45 7d 46 3d d8 39 2d 3d 7c aa 19 3d c8 11 70 3c
       0.04845931 0.042291492 0.037516102 0.014652677
000130 e6 e3 6d 3d e1 c3 10 3d 22 e3 13 3c 96 76 38 bd
       0.05807867 0.035343055 0.009026321 -0.045034967
000140 78 7e b2 3c aa 15 06 3d 88 5f 51 bd 2d 9b d3 3c
       0.02178882 0.032735504 -0.051116496 0.02583083
000150 f1 9f 67 3d 5e 32 74 3b e5 d9 7c bc 08 c3 07 bd
       0.056549016 0.0037261466 -0.0154328095 -0.03314498
000160 24 97 b2 bc e3 a2 72 3d 1e 84 3b 3d e2 6d 0e bd
       -0.021800585 0.059237372 0.045780294 -0.03477276
000170 54 a2 8f 3d 97 18 eb bc fc d5 65 3d e3 17 4f bd
       0.070133835 -0.028698249 0.056112275 -0.05055989
000180 df f2 ab bd 15 f4 2a bd ae 26 af 3c a4 05 58 bd
       -0.08395933 -0.04173668 0.021380749 -0.052739754
000190 a3 a7 e1 3c 5c 2a a6 bb 77 fa f8 3b 1c a5 53 bd
       0.027545756 -0.0050709676 0.007598217 -0.051671132
0001a0 54 78 ad 3c 69 e1 37 3d 84 a3 a1 bc 5f 90 4e 3c
       0.021175541 0.044892702 -0.01973129 0.012607663
0001b0 3d 3c 3c 3d 09 1a a8 3c cf 1a 8d 3a f5 7c d6 bc
       0.045955885 0.020520227 0.0010765436 -0.026182631
0001c0 ed 38 da bc c5 3d 50 bd cf 42 3c bd 1c 6c 06 bb
       -0.026638472 -0.050840158 -0.04596215 -0.0020511216
0001d0 e6 8f 38 3d 79 35 74 bd 17 aa d5 bc a5 68 af 3d
       0.045059107 -0.059621308 -0.026082082 0.08564881
0001e0 89 a9 5b 3d 9d a5 a7 3d ed 41 8d bc e1 99 fa 3a
       0.05362848 0.08185885 -0.01724335 0.0019119346
0001f0 7f 08 27 3c eb 3b 29 3d 46 73 92 ba 80 ee 49 3d
       0.010194897 0.041316908 -0.001117327 0.049299717
000200 e4 09 dd bc 02 8c 72 bc eb 8d 8d 3d b4 92 65 bc
       -0.026982255 -0.014803888 0.06911834 -0.0140120275
000210 b9 b4 2e 3d 51 c2 a6 bc 52 9c 95 bc 8f 0d 6f 3c
       0.04265282 -0.02035633 -0.018263016 0.014590635
000220 f2 50 ce 3c 63 e8 19 bd 3d 2a 75 3d 7d 9c 1a bd
       0.025185082 -0.037575137 0.059854735 -0.037746895
000230 04 c8 93 bd c1 00 46 bd c9 a1 02 3d 96 9e 75 3c
       -0.07215884 -0.048340563 0.03189257 0.014991423
000240 6c 86 59 3d 3d 86 87 3d c0 e8 76 ba 59 bb 4d 3d
       0.05310671 0.06617401 -0.0009418838 0.050227497
000250 60 63 f7 bc 05 ab 39 3d 18 5f 1d 3c 40 0f 99 3d
       -0.030198753 0.045329113 0.009605192 0.07473612
000260 c0 b2 e8 ba 99 42 62 3d e1 f0 26 3d 51 fe 1d bd
       -0.0017753467 0.055239294 0.040757064 -0.038572613
000270 a3 c4 c5 3d 9a 38 4e bb 35 b6 88 3d 08 95 83 bb
       0.09656646 -0.0031466843 0.06675378 -0.0040155686
000280 a7 28 b9 bd 34 14 10 3d 41 cb d6 3c 77 50 2b bd
       -0.09040957 0.035175517 0.026219966 -0.041824784
000290 4b b9 29 bd 71 ff e9 3b 1b cc 0a bd eb 2d e3 3c
       -0.041436475 0.0071410467 -0.033886056 0.027731856
0002a0 fa c5 02 3c 35 05 3b bc 5a 58 31 bd 30 31 3e 3d
       0.007981772 -0.011414816 -0.04329715 0.046433628
0002b0 74 ab 9b bd af b5 4e 3c 57 d3 63 bd 62 13 37 3d
       -0.076010615 0.012616559 -0.05562147 0.04469622
0002c0 d8 05 1e 37 60 2e 2c bd 0c 2c 33 3d cd 4a 5d 3d
       9.4188945e-06 -0.042036414 0.04374318 0.054026414
0002d0 7f e6 a9 bd fc 2c 21 bd ec 43 b3 bc 71 88 80 3b
       -0.08295917 -0.03934954 -0.021882974 0.003922515
0002e0 70 a5 a8 bc be 9a 38 3c 27 ae b6 3b 5a 93 f2 bd
       -0.0205867 0.011267362 0.00557496 -0.11844511
0002f0 3e 66 5e bd 59 67 e8 3c 02 7c e9 3c 35 46 84 3d
       -0.054296724 0.028369593 0.028501514 0.064587034
000300 a2 1b 87 3c 44 18 51 3c 54 c3 04 3c 60 e2 38 3d
       0.016492669 0.012762133 0.0081032105 0.045137763
000310 07 01 95 3d f7 79 1d 3c 64 6e 98 3d 4c 70 5b bd
       0.072755866 0.009611598 0.0744293 -0.05357389
000320 49 37 19 3d 0f 0c c3 3d 4e 12 92 3d a4 06 78 3c
       0.03740624 0.09523784 0.071323976 0.015138302
000330 37 9d ff 3c fb 29 e6 3b d4 d0 75 bb 67 be 98 bb
       0.031202896 0.0070240474 -0.0037508504 -0.0046613696
000340 67 c4 00 3d 5e 85 12 3c 3e ec da bc 55 29 84 bb
       0.031437304 0.00894293 -0.026723977 -0.0040332475
000350 d7 d0 76 3d ed 6e 07 3d 72 e5 6a bc a0 e1 7c 3c
       0.06025776 0.03306477 -0.014336931 0.015434653
000360 81 e6 16 bd da a0 96 ba 21 b1 8c 3d db e4 51 3d
       -0.03684092 -0.0011492029 0.06869722 0.051243644
000370 37 bf 94 3d d9 cb c6 bc 48 f4 19 bd 72 dc 06 3d
       0.07263034 -0.024267124 -0.03758648 0.032925077
000380 17 8e ab 3c c6 d7 97 3c ec 64 b3 bc 04 d4 68 3c
       0.020941777 0.018535506 -0.02189871 0.014210705
000390 08 f4 b4 bd 98 19 43 3c aa 67 c6 3b 9b 4a 66 bc
       -0.08835608 0.0119079575 0.006054838 -0.014055873
0003a0 b4 a0 8a 3d 82 26 43 bd 75 42 d0 3c 6d ab 9f 3d
       0.06768933 -0.047644146 0.025422314 0.07796369
0003b0 d6 c5 2a 3d d4 64 64 bc 9f 53 3a 3d 19 b0 d5 3c
       0.041692577 -0.013940055 0.045489904 0.026084946
0003c0 a3 81 2a 3d cc 62 3b bc b9 a8 f8 bc 16 67 e2 bc
       0.041627537 -0.011437129 -0.03035389 -0.027637046
0003d0 6a 5b c7 3d 5a ac 3a bc 07 ca 32 bd 35 10 16 bd
       0.09734233 -0.011393631 -0.0436497 -0.03663655
0003e0 7e d9 e1 bc c7 b4 7c 3c 32 79 e1 3c da 2b 7b bc
       -0.027569529 0.01542396 0.02752361 -0.015330279
0003f0 bb 14 27 bb db d5 b8 3c 81 16 4f bc f7 a1 ea bc
       -0.0025494534 0.022562912 -0.012639643 -0.028641684

w.M2MM f4 [1, 64, 32, 32]
000000 f7 bf 85 3f 67 b8 83 3f 8f c0 80 3f 1f 63 80 3f
       1.0449208 1.029065 1.0058764 1.0030249
000010 82 59 70 3f ae 59 64 3f d9 39 83 3f e8 2f 84 3f
       0.9388658 0.8919934 1.0252029 1.032712
000020 8e 92 84 3f 45 e0 85 3f d2 d1 81 3f 06 f5 80 3f
       1.0357225 1.0459067 1.0142157 1.0074775
000030 93 d2 84 3f 48 d0 7d 3f 34 02 73 3f 94 ed 70 3f
       1.0376762 0.99145937 0.94925237 0.94112515
000040 ea 2d 72 3f 6e 8b 69 3f 1b 79 6a 3f a1 7c 66 3f
       0.9460131 0.9122838 0.9159104 0.9003392
000050 70 78 6b 3f b3 37 77 3f 9e 6e 7b 3f 41 3e 80 3f
       0.9198065 0.96569365 0.98215663 1.0018998
000060 c3 8e 7d 3f e7 dd 7f 3f 0f ea 83 3f 6a 84 88 3f
       0.9904596 0.9994797 1.0305804 1.066541
000070 29 b9 7c 3f b4 a8 80 3f 9c 03 7b 3f 09 ee 86 3f
       0.9872003 1.0051484 0.9805238 1.0541393
000080 15 b7 83 3f c0 14 80 3f e0 c4 7d 3f 4e bf 81 3f
       1.0290247 1.0006332 0.9912853 1.0136507
000090 4c 3b 80 3f 8e 61 7f 3f 48 51 82 3f cc 87 81 3f
       1.0018096 0.9975823 1.0181055 1.0119567
0000a0 2c 70 81 3f 46 f6 7f 3f 56 98 82 3f dd 4c 80 3f
       1.0112357 0.9998516 1.0202739 1.0023457
0000b0 04 85 80 3f ca 86 7f 3f 3a 10 81 3f ac f9 7d 3f
       1.0040593 0.99815047 1.0083077 0.99209094
0000c0 6a 9c 7a 3f 13 49 79 3f 72 c4 7b 3f 50 df 7d 3f
       0.9789492 0.9737713 0.98346627 0.9916887
0000d0 4d 8a 7d 3f ec 7e 7e 3f 8a a4 80 3f 5b cd 80 3f
       0.99039155 0.9941242 1.0050213 1.006267
0000e0 09 ae 80 3f a4 98 7e 3f 8a 36 7f 3f 89 08 81 3f
       1.0053111 0.9945166 0.99692595 1.008073
0000f0 eb b6 7d 3f 8d 78 79 3f 6a c6 78 3f 76 20 83 3f
       0.99107236 0.9744957 0.97177756 1.0244281
000100 bc 50 81 3f 22 e0 7f 3f b7 28 7b 3f 97 26 77 3f
       1.0102763 0.99951375 0.98109 0.9654326
000110 f5 3d 7a 3f 0f 1c 7b 3f cc ab 7d 3f 4e ec 7f 3f
       0.9775079 0.9808969 0.99090266 0.9996995
000120 fd 2a 7b 3f 69 81 6f 3f bd c4 77 3f 17 0f 71 3f
       0.9811247 0.9355684 0.96784574 0.9416365
000130 8c 2f 7d 3f b9 0e 73 3f 38 be 7a 3f d2 30 7b 3f
       0.98900676 0.9494434 0.979465 0.9812137
000140 20 72 7f 3f cd 70 7c 3f da 7c 7d 3f 92 83 7b 3f
       0.99783516 0.9860962 0.99018633 0.98247635
000150 a4 59 7e 3f ae a5 7c 3f 97 e6 7c 3f b0 e4 7a 3f
       0.9935553 0.9869031 0.9878935 0.980052
000160 c5 0b 7e 3f 49 57 75 3f e5 80 7c 3f 36 78 7f 3f
       0.9923671 0.9583631 0.9863418 0.997928
000170 58 9c 77 3f 66 fe 7a 3f ec 1e 72 3f 3e 64 80 3f
       0.96722937 0.9804443 0.94578433 1.0030591
000180 3a 57 81 3f ec a0 7d 3f b1 d0 7d 3f 44 f6 79 3f
       1.0104744 0.9907367 0.9914656 0.97641397
000190 ad 6b 7a 3f 83 c2 7b 3f 1d d5 78 3f f7 41 70 3f
       0.9782055 0.98343676 0.97200185 0.93850654
0001a0 eb ff 6d 3f 0b 04 76 3f f1 33 72 3f dd 7b 6f 3f
       0.92968625 0.9609992 0.94610506 0.93548375
0001b0 15 8b 71 3f 83 45 73 3f 0a 9a 78 3f d5 43 7a 3f
       0.9435285 0.9502794 0.97110045 0.97759753
0001c0 52 1d 82 3f aa a5 7f 3f 1e 6f 84 3f 3b 6a 7f 3f
       1.0165198 0.9986216 1.034641 0.9977147
0001d0 57 dd 7f 3f 56 b9 7a 3f 61 be 75 3f 85 97 75 3f
       0.9994711 0.9793905 0.9599362 0.95934325
0001e0 aa e0 74 3f 4a a0 65 3f a3 be 68 3f 98 b8 73 3f
       0.9565531 0.89697707 0.9091589 0.9520354
0001f0 af 72 79 3f 71 0e 82 3f a0 9e 6e 3f 43 10 79 3f
       0.9744062 1.0160657 0.9321079 0.9729044
000200 a8 10 81 3f 53 9c 80 3f 95 d9 6e 3f 4a 17 83 3f
       1.0083208 1.0047706 0.93300754 1.0241482
000210 13 4a 80 3f 60 b9 7f 3f 2d 99 7e 3f 71 ce 7f 3f
       1.0022606 0.99892235 0.9945248 0.9992438
000220 12 39 80 3f 24 96 7c 3f 7c a0 7d 3f d5 b4 78 3f
       1.0017416 0.98666596 0.99073005 0.9715093
000230 85 43 80 3f 17 6e 7d 3f 9c 8f 79 3f f5 6e 7a 3f
       1.0020605 0.9899611 0.97484756 0.97825557
000240 e6 8b 7c 3f bb b0 7a 3f 11 c9 7b 3f 8c 88 75 3f
       0.9865097 0.9792592 0.9835368 0.9591148
000250 23 cc 72 3f fa 62 78 3f d7 c5 73 3f 7d eb 68 3f
       0.9484274 0.97026026 0.95223755 0.90984327
000260 c9 8c 6f 3f be 0f 6a 3f b7 32 78 3f 15 69 7f 3f
       0.93574196 0.9143027 0.96952385 0.9976972
000270 59 d2 7e 3f e5 dc 81 3f a5 50 74 3f 28 61 78 3f
       0.99539715 1.0145537 0.95435554 0.9702325
000280 36 cb 81 3f 97 14 81 3f 4e c6 73 3f 06 0f 81 3f
       1.014014 1.0084409 0.95224464 1.008271
000290 0a 1f 80 3f 72 3b 7f 3f be 02 7d 3f 96 eb 7d 3f
       1.0009472 0.9970008 0.9883231 0.991876
0002a0 33 7f 79 3f 4f 1d 79 3f f6 a3 73 3f 4c 00 77 3f
       0.97459716 0.97310346 0.9517206 0.9648483
0002b0 85 45 6e 3f 69 91 73 3f 5d 1b 78 3f 26 fb 7d 3f
       0.9307483 0.95143753 0.96916753 0.9921135
0002c0 9f fc 7b 3f d8 a2 7d 3f 8b 2f 75 3f 26 86 73 3f
       0.98432344 0.99076605 0.9577567 0.9512657
0002d0 eb 9a 78 3f 90 0a 72 3f ba 87 72 3f 4f 04 71 3f
       0.97111386 0.9454737 0.9473835 0.941472
0002e0 72 25 76 3f 58 f3 78 3f 10 60 6f 3f 45 0b 7e 3f
       0.96150887 0.97246313 0.93505955 0.99235946
0002f0 c6 b0 7d 3f 4c 1a 80 3f b2 84 74 3f 04 26 78 3f
       0.9909786 1.0008025 0.95514977 0.9693301
000300 cb 76 81 3f 13 3c 81 3f 69 0b 6b 3f 46 9d 81 3f
       1.0114378 1.0096458 0.91814286 1.0126121
000310 c3 51 7f 3f ed 30 80 3f ca 76 80 3f 11 0f 7c 3f
       0.99734133 1.0014931 1.0036252 0.9846049
000320 12 15 7b 3f 48 a5 7a 3f 87 2f 6d 3f 9e f2 78 3f
       0.98079026 0.9790845 0.92650646 0.97245204
000330 ec 78 77 3f 66 17 77 3f 5d 7d 78 3f 3e 32 6c 3f
       0.9666889 0.9652008 0.9706629 0.92264163
000340 05 1c 75 3f 58 51 7a 3f 80 4e 71 3f 26 2f 78 3f
       0.9574588 0.9778037 0.94260406 0.9694694
000350 46 46 77 3f 0c fd 70 3f 63 28 79 3f 0c 0b 73 3f
       0.96591604 0.9413612 0.9732725 0.9493873
000360 95 72 6e 3f b5 b9 73 3f 0d f1 71 3f f0 bf 7d 3f
       0.9314359 0.9520524 0.9450844 0.99121
000370 1e ff 7a 3f c5 d6 7e 3f db be 65 3f 5c 3c 7a 3f
       0.9804553 0.9954646 0.8974435 0.9774835
000380 3c aa 81 3f d5 df 80 3f 07 14 5a 3f 8c 00 81 3f
       1.0130076 1.0068308 0.8518681 1.0078292
000390 38 0c 80 3f bd 27 80 3f 38 82 7e 3f 02 29 80 3f
       1.0003729 1.0012127 0.9941745 1.0012515
0003a0 fa 55 7a 3f 84 e5 7a 3f 13 66 7c 3f c4 f4 7b 3f
       0.9778744 0.98006463 0.9859325 0.9842036
0003b0 01 aa 73 3f 1b 76 75 3f 73 37 6e 3f 7d 2d 73 3f
       0.9518128 0.9588334 0.9305336 0.94991285
0003c0 78 d9 78 3f 47 f3 79 3f e4 51 7a 3f a4 da 7b 3f
       0.9720683 0.97636837 0.97781205 0.98380494
0003d0 6e 6e 78 3f aa 26 79 3f 0a bf 6e 3f ee 61 79 3f
       0.970435 0.9732462 0.9326025 0.97415054
0003e0 56 65 74 3f 18 16 71 3f 4a 43 5b 3f b0 d7 7c 3f
       0.95467126 0.9417434 0.8564955 0.98766613
0003f0 15 35 7d 3f c3 16 7e 3f 79 27 5a 3f 2f c3 76 3f
       0.9890912 0.9925348 0.8521648 0.96391577

w.MM2M f4 [1, 64, 32, 32]
000000 6d cc 6c 3f 49 16 7b 3f 3b 45 7b 3f a9 71 62 3f
       0.9249943 0.9808088 0.9815251 0.8845468
000010 41 45 58 3f 41 36 62 3f 4f 54 68 3f 7e 1d 69 3f
       0.84480673 0.88364035 0.90753645 0.91060627
000020 57 1b 64 3f db a9 62 3f 8e a6 64 3f e3 1b 66 3f
       0.8910422 0.8854043 0.8931664 0.898863
000030 86 75 64 3f 71 ab 65 3f 23 bf 67 3f 40 b4 68 3f
       0.89241827 0.89714724 0.90526026 0.9090004
000040 2d 78 6d 3f 14 b1 66 3f 8a 4f 61 3f bf bd 64 3f
       0.927615 0.9011395 0.8801199 0.8935203
000050 6b ed 61 3f 36 57 63 3f 9f 76 68 3f 08 96 6b 3f
       0.88252896 0.8880495 0.90806 0.92025805
000060 61 99 6d 3f af a3 67 3f e6 97 68 3f 47 8c 65 3f
       0.9281216 0.90484136 0.9085678 0.8966717
000070 81 f9 66 3f ce 40 75 3f d1 a6 56 3f b0 37 7c 3f
       0.9022446 0.9580201 0.8384829 0.9852247
000080 4a 2b 67 3f 7c e0 7c 3f 31 fb 71 3f df fc 6f 3f
       0.9030043 0.98780036 0.9452391 0.93745226
000090 3c bd 74 3f 28 01 77 3f 28 2a 78 3f 14 43 77 3f
       0.9560125 0.9648614 0.96939325 0.9658673
0000a0 c9 ac 70 3f 58 a8 71 3f b6 1f 71 3f e4 83 70 3f
       0.9401365 0.943975 0.9418901 0.9395125
0000b0 82 1b 73 3f c2 4e 73 3f d0 05 78 3f 9b 17 7a 3f
       0.9496385 0.9504205 0.9688387 0.9769227
0000c0 ea d3 79 3f 50 cd 7c 3f d8 27 76 3f d2 2d 77 3f
       0.9758898 0.9875078 0.96154547 0.9655429
0000d0 cd ba 74 3f 5c 1c 77 3f ea 8d 78 3f 4b 4d 79 3f
       0.95597535 0.9652765 0.97091544 0.97383565
0000e0 8d e7 77 3f 07 b3 72 3f c0 8a 71 3f b2 bf 71 3f
       0.96837693 0.94804424 0.9435234 0.9443313
0000f0 e9 42 69 3f 74 c8 79 3f 9b a4 6d 3f 60 f9 80 3f
       0.9111772 0.9757149 0.92829293 1.0076103
000100 f4 b4 7a 3f 53 4a 7d 3f 7e 5d 76 3f 20 d6 6e 3f
       0.9793236 0.98941535 0.9623641 0.9329548
000110 b4 3b 76 3f 95 76 7b 3f 6e 96 75 3f 6c 22 71 3f
       0.9618485 0.98227817 0.9593266 0.9419315
000120 41 4b 69 3f b4 c0 68 3f a8 b2 69 3f ac 8d 6e 3f
       0.91130453 0.9091904 0.9128823 0.93184924
000130 44 93 72 3f aa 3b 6c 3f 1f 2d 6c 3f c2 e9 75 3f
       0.9475596 0.9227854 0.9225635 0.9605981
000140 07 55 73 3f 1e 52 77 3f 44 0b 72 3f 19 eb 75 3f
       0.95051616 0.96609676 0.9454844 0.96061856
000150 d6 f5 75 3f 34 dd 73 3f bd 3c 74 3f ae 3f 74 3f
       0.9607824 0.95259404 0.9540518 0.9540967
000160 c2 a1 78 3f 8e 26 6a 3f 94 73 73 3f 87 92 78 3f
       0.9712182 0.9146508 0.95098233 0.97098583
000170 28 a6 76 3f 57 18 76 3f 77 ef 60 3f c1 e1 7e 3f
       0.96347284 0.9613089 0.87865394 0.99563223
000180 92 87 77 3f 31 d0 7b 3f db ce 79 3f 5d 88 67 3f
       0.9669124 0.9836455 0.9758126 0.9044245
000190 cc 38 46 3f b1 f6 53 3f 78 77 58 3f 26 20 41 3f
       0.77430415 0.82798296 0.84557295 0.7543968
0001a0 17 22 48 3f 4d c8 53 3f 35 31 56 3f 8a fe 5a 3f
       0.78177017 0.8272751 0.83668834 0.85544646
0001b0 b2 32 61 3f 9f 8c 6b 3f cd 7f 6a 3f 64 a7 72 3f
       0.8796798 0.92011446 0.9160126 0.9478667
0001c0 a1 fd 70 3f 3f aa 72 3f 00 ad 76 3f 52 49 7d 3f
       0.94137007 0.94791025 0.9635773 0.9894
0001d0 a2 19 80 3f 69 d8 70 3f 16 56 6d 3f 8f 8b 6f 3f
       1.0007823 0.94080216 0.9270948 0.93572325
0001e0 f1 b9 6a 3f d7 bd 5a 3f c1 94 56 3f 34 de 5b 3f
       0.91689974 0.8544592 0.8382073 0.8588593
0001f0 e8 bb 68 3f db 59 73 3f e4 59 5e 3f 3d a4 6f 3f
       0.9091172 0.95058984 0.8685591 0.9360998
000200 fb d3 78 3f c5 b4 7c 3f 1c b1 49 3f c5 d7 72 3f
       0.97198457 0.9871333 0.7878587 0.9486049
000210 4f 7f 79 3f dd 16 74 3f b1 6a 6c 3f f2 00 71 3f
       0.9745988 0.95347387 0.923503 0.9414207
000220 fa b2 70 3f 0d b5 67 3f 3d c5 6b 3f 20 cc 6b 3f
       0.94023097 0.90510637 0.92097837 0.92108345
000230 e2 40 6e 3f a9 12 71 3f 1e a2 75 3f 08 db 77 3f
       0.93067753 0.941691 0.95950496 0.9681859
000240 b7 f5 72 3f e0 1c 76 3f d9 67 74 3f 5d 51 76 3f
       0.9490618 0.9613781 0.9547096 0.962179
000250 7d d0 7f 3f 0b 95 77 3f dc e3 79 3f e0 87 73 3f
       0.999275 0.96711797 0.9761331 0.95129204
000260 3e e7 75 3f 95 f9 68 3f 39 ea 6d 3f ab f2 68 3f
       0.9605597 0.9100583 0.9293552 0.9099528
000270 2f 8e 75 3f 5e 23 7f 3f 65 16 65 3f ec de 79 3f
       0.9592008 0.9966334 0.89487296 0.97605777
000280 eb ea 77 3f 2b 45 7d 3f 08 81 58 3f 12 99 60 3f
       0.9684283 0.98933667 0.84571886 0.87733567
000290 24 01 73 3f c4 56 6e 3f a5 d9 6d 3f d7 2a 61 3f
       0.94923615 0.93101144 0.92910224 0.87955993
0002a0 61 e5 68 3f 45 1f 69 3f 30 b9 68 3f 36 20 69 3f
       0.90975004 0.9106334 0.90907574 0.91064775
0002b0 0f 4a 6f 3f 9f f5 75 3f 60 22 7a 3f 6a da 81 3f
       0.9347238 0.96077913 0.977087 1.014478
0002c0 81 ca 82 3f d3 4e 86 3f 5c 18 83 3f ce cd 82 3f
       1.0218049 1.0492805 1.0241809 1.0219057
0002d0 53 d5 80 3f bb 04 7f 3f 0c e3 80 3f 7b bd 7c 3f
       1.0065101 0.99616593 1.0069289 0.98726624
0002e0 ad 4c 79 3f 7a 9d 6d 3f 61 fc 6e 3f 48 7b 6c 3f
       0.9738262 0.92818415 0.9335385 0.9237561
0002f0 36 6d 72 3f 5f 31 76 3f 36 6b 45 3f 15 1a 79 3f
       0.9469789 0.96169084 0.77116716 0.97305423
000300 dc 71 78 3f e4 f6 7c 3f 93 42 40 3f a1 dc 65 3f
       0.97048736 0.98814225 0.75101584 0.8978978
000310 46 39 71 3f d3 7a 76 3f 2f e4 65 3f e5 f8 5b 3f
       0.9422802 0.96281165 0.89801306 0.8592666
000320 57 e5 62 3f f6 bf 67 3f 13 8f 6f 3f 24 09 6e 3f
       0.88631195 0.90527284 0.9357769 0.929827
000330 a3 02 79 3f 63 bd 79 3f bb 02 80 3f 2a 3c 80 3f
       0.9726965 0.97554606 1.0000833 1.0018361
000340 5d 91 80 3f bf 31 83 3f 4a 89 83 3f ee 8b 81 3f
       1.0044361 1.0249556 1.0276272 1.0120828
000350 c2 9b 7f 3f 73 75 79 3f d2 b1 7a 3f 42 30 7c 3f
       0.9984704 0.9744484 0.9792758 0.98511136
000360 ad 3e 75 3f 2f 68 71 3f d1 0b 6a 3f a1 74 6f 3f
       0.9579876 0.94299597 0.9142428 0.93537337
000370 1f 31 6d 3f 6b 97 6c 3f 2a b0 30 3f 0d cf 7d 3f
       0.9265308 0.92418545 0.69018805 0.9914406
000380 05 0b 79 3f 2f a3 7c 3f 1b 8a 38 3f 04 33 63 3f
       0.9728244 0.986865 0.7208573 0.8874972
000390 dc 30 73 3f dd 56 73 3f a4 76 66 3f be 50 62 3f
       0.9499643 0.9505442 0.9002478 0.8840445
0003a0 6b 94 63 3f c2 0a 6e 3f e9 44 78 3f b3 24 78 3f
       0.8889834 0.92985165 0.9698015 0.96931
0003b0 d9 c7 80 3f 35 29 81 3f c1 49 80 3f 42 5a 81 3f
       1.0060989 1.00907 1.0022508 1.010567
0003c0 fb dd 7a 3f 2f 40 80 3f 18 6c 80 3f 8f a1 82 3f
       0.97994965 1.0019587 1.0032988 1.0205554
0003d0 c6 5e 7e 3f 5b 0b 7e 3f ce c5 7b 3f 10 88 77 3f
       0.9936336 0.9923608 0.983487 0.9669199
0003e0 a6 0b 79 3f 54 c7 71 3f fb 64 64 3f e7 78 67 3f
       0.972834 0.94444776 0.89216584 0.9041886
0003f0 cc e7 68 3f 97 b8 6a 3f 87 30 68 3f 14 bb 77 3f
       0.90978694 0.9168791 0.90699047 0.96769834
