checkpoint/clf/experiment_name/100/netE.pth (torch, 241318 bytes, 33 tensors)

model.0.weight f4 [32, 3, 4, 4]
000000 c7 83 0d be 29 de 92 3d 46 5f 05 bd f1 95 bc 3c
       -0.138198 0.0717128 -0.032561563 0.023020716
000010 1c 23 ad bd d5 f4 43 3d bf 40 3e bc 6f 8a ef 3b
       -0.08453962 0.047840912 -0.011612116 0.0073102037
000020 59 7c 18 3d a5 66 03 3d bf fa b7 3d ae 37 1b bd
       0.037227962 0.03208031 0.08983373 -0.037894897
000030 86 a5 28 bd b5 d9 02 bd 03 f3 97 bc 8c 7f f0 3c
       -0.04117348 -0.031945903 -0.018548494 0.029357694
000040 16 16 62 3d e0 fc 97 bd 53 3a fe 3d 51 17 44 3d
       0.055196844 -0.07421279 0.12413468 0.0478738
000050 ac dc 4e bd 5c 94 2a bd f8 33 28 be 8f 32 98 bd
       -0.050503418 -0.041645393 -0.16426075 -0.07431518
000060 a1 79 f2 bb 2a 9c 66 3d b8 ef 95 3d b9 3a 02 3e
       -0.007399753 0.056301273 0.07321113 0.12717713
000070 46 83 51 bc 31 7c 41 3d 82 0e eb bc 7b 2e 76 bc
       -0.012787646 0.04723758 -0.028693441 -0.01502573
000080 f2 9d c3 bd e8 2b cc bd 6d 0b c6 bc 63 7e 60 3b
       -0.0955161 -0.09969312 -0.02417537 0.003425502
000090 9a 4e 2c be 59 d4 c4 bc 29 f5 12 3d d8 37 b5 bc
       -0.16826859 -0.024027037 0.035878334 -0.022121355
0000a0 33 fc 53 bd 5f 43 18 3d 60 91 00 3c 8c 80 33 bd
       -0.051754188 0.037173625 0.00784716 -0.043823764
0000b0 ae f0 52 bd 83 67 85 bd 57 19 80 bd 6b 97 88 bd
       -0.05149906 -0.06513884 -0.06254833 -0.06669506
0000c0 f4 5f cc bc 9b 2b 91 3d ad 15 a4 3d 15 4d 8d bd
       -0.024948098 0.07088395 0.08011947 -0.06899468
0000d0 a5 a7 10 3e 1a 44 02 3d 02 aa ae 3c 55 3f 24 3d
       0.14126451 0.031803228 0.0213213 0.04009946
0000e0 d4 78 a8 3d dd 01 6d bc 88 9e 67 bd 84 68 21 3d
       0.08226171 -0.014465776 -0.05654767 0.039406314
0000f0 df a6 a2 3a 63 ac 53 3d fb 41 99 3d 8a 4f 27 3c
       0.0012409351 0.051678073 0.07483288 0.010211835
000100 ff 1d 9d bd fe e7 92 3c 91 61 76 bd cb 44 0f 3d
       -0.07671737 0.017932888 -0.06015164 0.034977715
000110 94 41 4a bd 7c e1 a2 3b 5a 40 99 3c a7 27 69 bd
       -0.049378946 0.0049707275 0.018707443 -0.05692258
000120 03 20 a5 3d ef 1a 69 3c d7 f9 66 bc 71 a4 07 3d
       0.080627464 0.014227613 -0.014097652 0.033115808
000130 16 8f 3c bd de 5c 95 bd 17 a8 4e bd 30 06 99 3c
       -0.046034895 -0.07293104 -0.05045327 0.018679708
000140 e7 63 d7 bd ca 0f 84 bd 2c 00 bf bd cf 00 b9 3c
       -0.10517102 -0.06448324 -0.09326205 0.022583393
000150 16 94 86 3d 2b c5 95 bd 6e e0 1b 3e 83 09 85 3d
       0.06571214 -0.073129974 0.15222332 0.06495955
000160 fa 82 c4 3c 1a 11 91 bd 6d 5b 1f bd 97 54 03 3d
       0.023988236 -0.0708334 -0.03890555 0.032063093
000170 c9 b8 e5 3d 0f 45 5d 3d 55 17 6f 3d 85 a4 2f bc
       0.112168856 0.054020938 0.05837186 -0.010720377
000180 b0 9f a5 bd 9a 05 fa 3c df ed a5 3d ff 6c f5 bd
       -0.080870986 0.03052025 0.08102011 -0.1198368
000190 cd e5 9b bc 0c 39 02 3d 0a 78 ab bc ff e4 a3 3d
       -0.019030476 0.031792685 -0.020931263 0.08002662
0001a0 3b 31 8c bd 03 14 bd bc 09 8d 62 bd 69 3c 20 be
       -0.068453275 -0.023080831 -0.055310283 -0.15648045
0001b0 c6 4c 79 3d 23 1d c6 bd 96 99 5e 3d 18 b7 16 3c
       0.060864232 -0.09673526 0.05434569 0.009198926
0001c0 bc 68 d1 bd c3 e9 9a b9 f1 57 a8 3d eb d7 99 3d
       -0.102250546 -0.00029547335 0.082198985 0.07511886
0001d0 88 37 9e 3c 1d 48 bf 3d 9c 8f 2f ba da cb ee 3c
       0.019313589 0.093399264 -0.00066971197 0.029149938
0001e0 0a 72 3f bc 4b 09 44 3d ca ff 6f bd 43 ce 1d 3d
       -0.011684904 0.047860425 -0.05859355 0.038526785
0001f0 58 dc 8f bd 3a b2 1a bb cd 76 74 3c f3 61 4d 3c
       -0.07024449 -0.0023604766 0.014920902 0.01253556
000200 9f 6a 8d 3d 71 49 21 bd 2b 0c 11 3c 2c 85 b2 3a
       0.06905102 -0.03937668 0.008852999 0.001362001
000210 2b 41 ce bc f8 52 7d 3d 5a b0 be bd 4b 29 96 3d
       -0.025177559 0.061846703 -0.0931098 0.07332095
000220 41 0d a8 3c de 87 36 bd 13 4c e1 3b fb 33 e4 3d
       0.020514132 -0.044563167 0.006875524 0.11142727
000230 3f a0 21 3c 7f 7b 15 bd 6a 70 78 bd 8f e7 4f 3d
       0.009864866 -0.03649473 -0.06065408 0.05075794
000240 72 e2 96 3d e6 00 c6 3c 23 fb 8a bd 62 b5 9d bc
       0.0736741 0.02417035 -0.06786182 -0.01925153
000250 8b 5e fb bd 3d 35 7b bd 10 c1 02 bd 75 72 95 ba
       -0.12273892 -0.06133007 -0.0319224 -0.0011401909
000260 ae e1 bc bc 89 df a7 3d 51 14 39 bd 7a 50 22 3d
       -0.023056831 0.08196933 -0.04518539 0.03962753
000270 b2 d2 4f bd e7 d9 a7 bb 73 8f cb bb ef d3 69 3c
       -0.050738044 -0.0051224115 -0.006212169 0.01427172
000280 b6 df 60 3c 3c d1 80 bd 11 23 e8 bb 74 fa 5c bb
       0.013725212 -0.06289908 -0.0070842584 -0.0033718618
000290 39 0c c9 3a 01 de f4 bb ae a5 06 3d c1 a8 0f bd
       0.0015338726 -0.007472754 0.03287285 -0.035073046
0002a0 db e7 d1 3b 5d 16 76 bd 55 45 a9 3d cc a5 b4 3d
       0.006405813 -0.06007992 0.08265177 0.08820686
0002b0 36 b9 0d be 88 c2 df bc 54 9b e0 3d a6 f0 5e bd
       -0.13840184 -0.02731444 0.109671265 -0.05442872
0002c0 46 4a c6 bd 56 11 b5 bd 41 ea 38 bc 16 2c 93 3d
       -0.09682135 -0.08841197 -0.011286319 0.07186143
0002d0 ab 23 0c bd 4e 50 e8 3d b9 4f 1d bd 67 12 a5 3d
       -0.034213703 0.11343442 -0.038406108 0.080601506
0002e0 df 11 a8 3d e5 c3 fd 3c 22 f4 cc bc 67 0f 22 bc
       0.08206534 0.030977199 -0.025018755 -0.0098913675
0002f0 53 f3 5b 3d 49 49 b6 3b 6d c6 aa 3d fb be 2d bc
       0.05369885 0.0055629355 0.08338628 -0.010604615
000300 b2 7a 10 3d 9f a8 5e bd 5f 7c fd bc 8c 75 49 3c
       0.03527326 -0.05436003 -0.030943094 0.012296092
000310 45 ba d6 3c 10 72 b2 bc a8 69 8a bd 19 90 a2 3c
       0.026211867 -0.021782905 -0.067584336 0.019844102
000320 25 e8 98 3d c9 3e e0 bb 46 3b 75 3d 8b a8 81 3c
       0.07466153 -0.006843422 0.05987098 0.015827438
000330 66 43 db 3c 04 a5 12 3d 49 d5 3f bc 98 a0 dd bc
       0.026765537 0.035801902 -0.011708566 -0.027054116
000340 fc 96 96 3d dd 82 5f bd 44 e7 49 bd 44 81 fc 3d
       0.07353017 -0.05456816 -0.049292818 0.12329343
000350 87 7a 5c 3d 01 be 86 bd 3a 90 f6 bd e6 e0 1a bd
       0.05382779 -0.06579209 -0.12039228 -0.037812136
000360 ff 84 ac 3d 63 98 e0 3d 8a ab 05 3b b5 bd 7f 3c
       0.084238045 0.109665655 0.0020396435 0.0156091945
000370 4f ef 74 bc d2 2b ce bd 9a 4e e5 bd a8 d8 52 3d
       -0.014949634 -0.10066952 -0.11196633 0.05147615
000380 b5 06 89 3d cd 90 65 ba 1c 0d 09 3c e8 72 c4 bc
       0.066907324 -0.0008757234 0.008364942 -0.023980573
000390 52 38 6f 3d f5 7c 22 bc b4 e7 77 3d e3 84 19 3d
       0.05840332 -0.009917487 0.060523704 0.037480246
0003a0 7c a1 f9 3c 9b f7 f0 3c eb 53 1c bd 00 6f 1f be
       0.03047251 0.029414942 -0.038165968 -0.15569687
0003b0 83 23 fe 3c de 9a 09 3c 4e 3f af 3c f0 95 bb bd
       0.031022793 0.00839874 0.02139249 -0.09159458
0003c0 02 1e 0a 3d ce be 20 bd 7d 3e 01 bd e7 27 0d be
       0.033720024 -0.039244466 -0.031553734 -0.13784753
0003d0 36 33 04 bc 10 40 3e bd eb b3 01 bd 47 8f 92 bc
       -0.00806885 -0.046447814 -0.031665724 -0.017890586
0003e0 fa fe 62 bd a5 36 96 3c e0 c0 d6 3c a8 09 12 bd
       -0.055418946 0.018336603 0.026215017 -0.03565374
0003f0 e2 55 3b bd ac 19 62 bd 67 91 5c bd 36 d0 c6 bd
       -0.0457362 -0.055200264 -0.053849604 -0.09707682

model.0.bias f4 [32]
000000 2e 93 e7 b8 7e 9f cc b8 b6 41 56 b9 04 eb 0d 39
       -0.00011042353 -9.757186e-05 -0.0002043311 0.00013534358
000010 4f 05 73 b9 8c 64 a3 b9 be 75 30 3b 88 fc 72 3a
       -0.00023176263 -0.00031164696 0.0026925649 0.00092691975
000020 30 a8 6e 3a dc 0b 76 3a 58 d1 86 b9 1c 2f 37 bb
       0.00091040414 0.00093859225 -0.00025714445 -0.0027951663
000030 70 ee 9e 38 25 fc 83 39 89 d1 9d 3a af f5 91 b9
       7.5784395e-05 0.0002517413 0.0012040596 -0.00027839604
000040 d7 2c 50 38 df a3 a0 ba 18 29 c7 b8 fd cc 5e b9
       4.9632825e-05 -0.0012255869 -9.496714e-05 -0.00021247934
000050 e4 f2 fa ba 03 bf 93 3a f8 b7 48 b9 86 2a 0e b9
       -0.0019145873 0.0011272136 -0.0001914202 -0.00013558017
000060 4d fe a1 3a 7c 42 0a 3a 7d 1a c1 ba 26 fa a2 ba
       0.0012359113 0.0005274189 -0.0014732626 -0.0012434169
000070 1f bf 9a 39 56 0e 5a 3a 82 a2 ac ba 69 57 b4 b9
       0.00029515565 0.0008318176 -0.001317099 -0.000343974

model.1.weight f4 [32]
000000 4a 66 81 3f 9c 6a 7d 3f 98 c1 7e 3f 89 a8 7e 3f
       1.0109341 0.989908 0.9951415 0.99475914
000010 62 41 81 3f 64 1b 81 3f 3e f7 7d 3f 3f 10 80 3f
       1.0098078 1.0086484 0.99205387 1.0004958
000020 1e 5a 7f 3f 53 5b 81 3f db 84 81 3f 29 69 7f 3f
       0.9974688 1.0105995 1.0118669 0.99769837
000030 c2 3e 80 3f 06 9c 80 3f 8e 86 80 3f 3e 65 7d 3f
       1.0019152 1.0047615 1.0041063 0.9898261
000040 aa 0c 81 3f a4 b8 80 3f 92 d6 81 3f ce 4c 80 3f
       1.008199 1.0056348 1.0143607 1.0023439
000050 e3 af 7f 3f 33 41 7e 3f 3a 61 80 3f 8e e8 82 3f
       0.99877757 0.99318236 1.0029671 1.022722
000060 a9 ea 7e 3f 9f 93 81 3f e7 ba 83 3f 8e 46 7b 3f
       0.99576813 1.0123175 1.0291413 0.9815453
000070 4c 9a 80 3f 5b 7f 80 3f fa ce 7f 3f 3b 04 7f 3f
       1.0047088 1.0038866 0.99925196 0.9961583

model.1.bias f4 [32]
000000 00 ca 96 3c 92 50 b8 bb ba 01 32 bc f6 7b 87 bb
       0.018406868 -0.005624839 -0.010864669 -0.0041346503
000010 07 e0 54 3c 10 38 45 3c de fb d0 bb aa 29 94 3b
       0.012992865 0.012037292 -0.006377681 0.0045215683
000020 3d d8 1c ba 92 79 ed 3b b7 c4 6f 3c cc fe 9b 3b
       -0.000598315 0.0072471583 0.014634303 0.0047605988
000030 3a 4c b0 3b be de b8 3b 89 41 98 bb 3b 17 31 bc
       0.0053801807 0.0056417873 -0.0046464843 -0.010808761
000040 a6 20 af 3b 53 f2 16 3c e0 b4 87 3c 95 e9 d1 bb
       0.005344468 0.009213048 0.01656574 -0.006406019
000050 50 ab d6 3a f7 7b 91 3a 13 ae b8 3c 58 de 14 3c
       0.0016377959 0.0011099566 0.022543943 0.009086214
000060 37 1c c3 3b fc 6d 1f bc a6 ec f0 3c 49 a2 f9 3b
       0.005954291 -0.009730812 0.029409718 0.007618223
000070 6c d0 2e 3b eb 16 0c 3c 2f ed 8f 3b b5 e2 41 bb
       0.0026674522 0.008550386 0.004392288 -0.002958459

model.1.gate f4 [32]
000000 a5 03 81 3f 93 81 80 3f 75 02 7f 3f 1e 41 7f 3f
       1.0079237 1.0039543 0.99613124 0.99708736
000010 01 03 74 3f 07 35 7f 3f 77 28 7c 3f 53 26 74 3f
       0.95317084 0.9969029 0.98499244 0.9537098
000020 65 6d 79 3f 29 57 80 3f f9 dd 7e 3f 0e 7d 72 3f
       0.9743255 1.0026599 0.99557453 0.9472207
000030 dd 00 80 3f 9c 7f 82 3f c6 d5 80 3f 18 e1 7c 3f
       1.0000263 1.0195193 1.0065238 0.98780966
000040 2f a7 79 3f c9 75 80 3f 45 47 80 3f 9d 02 80 3f
       0.97520727 1.0035945 1.002175 1.0000798
000050 47 5e 82 3f c0 c1 7b 3f bc bd 80 3f 8b e0 7d 3f
       1.0185021 0.98342514 1.0057902 0.9917075
000060 f8 5a 7b 3f 06 be 83 3f 7b 5b 7d 3f 2d 96 83 3f
       0.9818568 1.0292366 0.98967713 1.0280205
000070 75 1c 7c 3f 08 52 7c 3f 75 64 81 3f b1 12 7a 3f
       0.9848092 0.9856267 1.0108782 0.9768477

model.1.running_mean f4 [32]
000000 63 de 16 3f d0 b2 bd be 6f 69 14 3c 4a 7e 38 3d
       0.58933085 -0.37050486 0.00905834 0.045042314
000010 92 30 89 bd 50 f3 43 3f 4f e8 e7 be 07 44 e1 be
       -0.06698717 0.7654314 -0.45294425 -0.43997213
000020 24 40 8e be 20 b4 24 3d 25 2f 4c 3f d5 e5 05 be
       -0.2778331 0.040210843 0.79759437 -0.13075955
000030 09 26 a7 bd e2 a0 11 3f c3 f6 05 be a3 b0 0a 3f
       -0.081615515 0.5688611 -0.13082413 0.54175776
000040 fe 9e a7 be de 91 8d 3f ba 07 1e 3f 74 1c a9 be
       -0.3273849 1.106014 0.6173054 -0.3302952
000050 0b 11 02 3f 2f a9 54 bf a9 d9 f6 3e 14 ca 86 3e
       0.50807256 -0.83070654 0.48212937 0.26326048
000060 81 09 72 bd 92 cb d8 be d7 7b 13 3f 09 df a6 3e
       -0.059091095 -0.42342812 0.5761084 0.32592037
000070 59 d7 4f bf ea 33 86 bd f3 27 f0 bd 13 b7 0c be
       -0.8118797 -0.065528706 -0.1172637 -0.13741712

model.1.running_var f4 [32]
000000 c0 c0 6b 3d 5f 7b 13 3d 88 bb 88 3c a6 71 8a 3c
       0.057556868 0.036006328 0.016690984 0.016899895
000010 f1 fe 90 3c f0 17 48 3d 31 c8 1c 3d ce df ba 3c
       0.01769969 0.048850954 0.038276855 0.022811797
000020 50 89 e2 3c de b2 23 3c e5 7d 26 3d bb 18 0d 3c
       0.027653366 0.009991376 0.040647406 0.008611853
000030 e3 1f 5e 3c bd 37 25 3d 16 91 82 3c 70 ad 72 3d
       0.013557407 0.04033636 0.015938323 0.059247434
000040 12 3d a2 3c ad 44 8f 3d 20 1b c9 3c 40 20 90 3c
       0.019804511 0.06995521 0.024549067 0.017593503
000050 c7 9f 8c 3c fe 5e 06 3d 1a 08 0b 3d 39 6d a0 3c
       0.017166032 0.032805435 0.033943273 0.019583331
000060 10 b5 83 3d 5b f1 2b 3d 85 35 d0 3c b5 85 a2 3c
       0.06431019 0.04197822 0.025416145 0.019839147
000070 88 c4 17 3d 49 4a 0a 3c a6 3e 92 3c a3 74 dc 3c
       0.03705266 0.0084405625 0.017852139 0.026911085

model.3.main.0.weight f4 [32, 32, 3, 3]
000000 f0 d5 d4 bc f9 4c 2d 3c a7 1e c7 3d 5b 4a e1 bd
       -0.02598092 0.010577434 0.09722643 -0.1100051
000010 b0 17 7a 3d 93 21 13 be 0e e2 0f be e4 62 d4 bc
       0.061057746 -0.14368276 -0.14051077 -0.025926061
000020 94 88 94 3c 51 f9 27 be 21 a9 fb bd 85 21 90 3b
       0.018131532 -0.164037 -0.12288118 0.004398527
000030 61 67 1a 3d 59 48 dd bd b3 0b 1c 3e 97 15 f2 bd
       0.037696246 -0.10804815 0.15238838 -0.11820524
000040 d3 d8 3a be d4 12 a6 bc ad b8 74 bd 5a 0d eb bd
       -0.18246774 -0.02027265 -0.059746433 -0.11477156
000050 94 df 8c bd 86 2f 42 bc 9f 05 23 3d 5d 68 ab 3c
       -0.06878582 -0.011852151 0.039800283 0.020923788
000060 78 3b 93 bd 83 86 ca 3d b2 f9 43 3d 83 d3 0f be
       -0.07189077 0.09888937 0.04784555 -0.14045529
000070 7f fc 8b bd d6 56 a2 bc 3b a0 ed bd 8e 19 cc 3d
       -0.06835269 -0.019816797 -0.11602827 0.09965812
000080 62 9f d8 bd 6b 9c 76 3d 97 9e cd 3b a9 4d 2b 3c
       -0.10577275 0.060207766 0.006275009 0.010455527
000090 03 5b 2f be c0 14 f0 3b d5 cd b3 bd e5 9e ce bd
       -0.17124562 0.0073266923 -0.08779494 -0.100889005
0000a0 26 46 03 3d 03 f2 6d bb 62 89 35 bd b4 10 2a 3d
       0.03204932 -0.003630758 -0.04432047 0.041519836
0000b0 36 84 68 bd c5 9f 9d bd e6 8b 04 bd e4 93 73 bd
       -0.05676671 -0.07696489 -0.03235998 -0.05946721
0000c0 01 b5 c1 3d a6 ec da bd 57 87 8e bc 6f ab 58 bd
       0.09458352 -0.10689668 -0.01739852 -0.052897867
0000d0 23 5e fd 3a 38 1e 16 3c 8e cb ea 3c 0d 61 c9 bd
       0.0019330423 0.009162478 0.028661516 -0.09832964
0000e0 4d 14 fd 3b 67 06 b1 bd fe 72 81 3d 8a f4 39 bd
       0.0077233673 -0.08643799 0.06320761 -0.045399226
0000f0 26 65 26 3d d4 d0 f3 3c 86 29 f4 bc 97 b7 a5 3d
       0.040623806 0.029762663 -0.029804956 0.080916576
000100 95 84 c5 3d 8e df d6 3d 2a e0 cc bc f1 c9 84 3d
       0.09644429 0.104918584 -0.025009234 0.0648383
000110 18 9d d4 bc cf 7e 89 3d c1 bb 13 be 5a f8 8b bd
       -0.025953814 0.0671364 -0.14427091 -0.06834479
000120 5c e6 7c bc b3 ad 8f 3d 61 5f cf bd 80 65 f3 bc
       -0.015435781 0.07015552 -0.10125614 -0.029711485
000130 be b4 39 be 72 8c 06 be 2e 7a 64 bd cb 19 61 3d
       -0.18135354 -0.13139513 -0.055780582 0.05495624
000140 16 ba a7 3d 94 f1 ce bd 87 e6 77 3d 34 40 09 bd
       0.0818979 -0.10104671 0.060522582 -0.033508494
000150 9c 8d 50 be ec 0f 0c bd df 78 fb bc 7e a0 a8 bd
       -0.2036652 -0.03419487 -0.030697284 -0.082337365
000160 22 cd 51 bc 74 3d f7 bd c4 56 36 be d6 e0 50 bd
       -0.012805255 -0.12072268 -0.17806536 -0.05099567
000170 81 5d f8 bc 62 2d d0 bc 1a 78 7d 3c 4d 68 87 bd
       -0.030318024 -0.025412265 0.015470529 -0.06611691
000180 cc 4b a7 3d 6e 49 4b bc f6 e6 13 be 5f 7a 0a 3c
       0.08168754 -0.012407644 -0.14443573 0.008452027
000190 5c 06 70 3d 92 b0 06 3d f6 81 01 3d c4 1f 1a be
       0.058599815 0.032883234 0.03161808 -0.1505118
0001a0 e4 da 5b bd 6a 14 07 3c 12 a1 d5 bd f2 51 e5 3d
       -0.053675547 0.008244613 -0.10431112 0.111972705
0001b0 b6 73 2d 3d c8 6a f2 bd f7 94 2c bd 5c 1c ce bd
       0.04234668 -0.11836773 -0.04213425 -0.10064003
0001c0 01 8f ec 3c 7f b2 e1 bc b2 79 06 bd 5a 1b 0e bd
       0.028876783 -0.027550934 -0.0328309 -0.034694053
0001d0 22 45 66 be 4a 94 1a 3e ee c6 7a bc e0 9e 09 be
       -0.2248731 0.1509563 -0.015306218 -0.13439512
0001e0 14 c2 f2 bd 4f d0 1c 3e 6d 49 77 3c 02 2b ed bd
       -0.11853424 0.15313838 0.01509319 -0.11580469
0001f0 34 ee 30 3d 15 ff 43 3e 81 9f d5 bc 67 c0 b2 3d
       0.04319592 0.19140275 -0.026077034 0.08728104
000200 38 eb 42 bd 77 ea 64 3d b2 e8 ad bd f6 4e 0d 3e
       -0.047587603 0.055887666 -0.08491649 0.13799652
000210 30 95 08 be 9c f0 c8 bc 8f 89 65 3e 2e 1d 8f 3d
       -0.1333816 -0.024528794 0.22415756 0.069879875
000220 14 e5 38 bd 43 97 da 3b a0 e9 ee bd ff 88 3e be
       -0.04514034 0.006670864 -0.11665654 -0.18606947
000230 74 13 cf bc 1b 65 8e bc 23 0e db bc 68 57 2e 3e
       -0.02527783 -0.017382195 -0.02674014 0.1702553
000240 c9 9d be bd e9 39 00 3d b4 b4 bd ba 33 06 e9 bd
       -0.09307439 0.031305227 -0.0014473409 -0.113781355
000250 9b b2 8a 3d 57 4f 8e 3d 5d 5f 27 bc fa 4d 1f bd
       0.067723475 0.069487266 -0.0102156075 -0.038892724
000260 c1 50 39 bc fb cf 8f 3d f5 63 ca bd c5 fd 32 3d
       -0.011310757 0.07022091 -0.098823465 0.043699045
000270 a8 6c 48 bd 94 d9 43 bc a8 28 24 be f4 10 5c 3d
       -0.048931748 -0.01195373 -0.16031134 0.053727105
000280 6d ea 70 bd ab 6d 23 be 26 fe b1 3c be 56 92 3d
       -0.058817316 -0.15959804 0.021727633 0.07145451
000290 e6 85 4b 3d 35 62 1b 3c 65 6b 70 3c 58 4e ea bd
       0.049688242 0.009483864 0.014674042 -0.11440724
0002a0 f3 e0 1e bd 89 75 16 be 6a c1 4b 3e 04 3b 52 b8
       -0.038788747 -0.14693274 0.19898 -5.0122864e-05
0002b0 2d a1 21 3d b8 d5 fe 3d 16 82 35 bc de 87 e5 bd
       0.03946035 0.12443107 -0.011078378 -0.11207555
0002c0 bb 19 74 be ac 6f 0c bd 45 17 88 3b c3 57 24 3d
       -0.2383794 -0.034286186 0.0041531646 0.04012276
0002d0 36 ce 5c bd 81 29 ae bd 55 2e 78 3b 44 d1 d6 3d
       -0.053907596 -0.0850401 0.0037869413 0.10489133
0002e0 a6 70 80 bb 8f d9 9a 3d 24 57 63 3d 27 f8 5a bd
       -0.0039196787 0.07561027 0.055503026 -0.053459313
0002f0 e1 67 26 be 86 83 8c bd 33 d4 46 3d 36 f4 53 bd
       -0.16250564 -0.068610236 0.048542213 -0.05174657
000300 84 a0 29 3e 7c e1 2e bd 66 3c 8c 3d b5 ca 1c bd
       0.16565138 -0.042695507 0.068474576 -0.038279254
000310 33 69 c2 bd e4 ab a4 bd 7d 4d d2 bc dc e1 da bd
       -0.094927214 -0.08040598 -0.025671715 -0.106876105
000320 63 11 06 be 3a 7a 2a 3e 21 1d 2a 3d a7 79 37 bc
       -0.1309257 0.16648188 0.041531686 -0.011198438
000330 95 8a c6 bb 96 d3 0b bd 43 7a 09 bd 04 b7 d9 bd
       -0.0060590007 -0.03413733 -0.033563863 -0.106306106
000340 9a 3c 33 3d 83 0c 90 bd bb 08 4e 3d 7c 8e 7d be
       0.043758966 -0.070336364 0.050301295 -0.24761385
000350 ea 42 92 bd 90 fc 5c bc b5 ef 4f bd f0 a9 a8 3d
       -0.07141669 -0.01348795 -0.05076571 0.08235538
000360 54 56 24 3b 08 7c f2 bc df 6c ec 3c 9b 3c 38 3e
       0.002507587 -0.029600158 0.028860508 0.17991869
000370 c5 5c f7 b8 30 4c e1 3d 9e f6 7b 3d 3d b9 49 bb
       -0.000117951575 0.1100086 0.06151449 -0.0030780577
000380 36 8c 3f be 63 ce 51 bb 54 d2 24 bd 11 c7 19 3e
       -0.1870583 -0.0032013885 -0.040239647 0.15017344
000390 18 44 20 39 20 5f 86 3c de 2b c3 bd 5f f2 b4 bc
       0.00015284156 0.016402781 -0.095298514 -0.022088228
0003a0 08 93 ce bc 8e d2 0a 3c a2 cf 90 bd d4 15 3e 3e
       -0.025216594 0.008473052 -0.07070853 0.18563014
0003b0 b0 87 9a bd 94 d8 2e bd e8 97 9e 3c 8d 75 ff bd
       -0.075454116 -0.042687014 0.019359544 -0.12473593
0003c0 cc 63 ab 3d 29 7f 37 bd 61 e7 91 3d cc 8e b7 3c
       0.08368644 -0.044799004 0.0712421 0.022406958
0003d0 e3 3b 85 3d bf ac 16 3e 21 9f 05 bd 33 97 31 bd
       0.06505563 0.14714335 -0.03262246 -0.043357085
0003e0 d7 72 31 bd 9a d1 a7 3c 57 c0 20 3c 69 07 a2 3d
       -0.04332241 0.020485688 0.009811482 0.079115696
0003f0 f5 42 6b bc 85 75 57 bd 75 69 b3 3d 7a 3e 86 bc
       -0.0143592255 -0.05260231 0.08760349 -0.016387213

model.3.main.1.weight f4 [32]
000000 9b 9d 80 3f 00 14 80 3f a1 d1 81 3f f0 f0 80 3f
       1.0048097 1.0006104 1.0142099 1.0073528
000010 13 aa 80 3f a0 56 80 3f fc f6 7e 3f ef 63 7f 3f
       1.0051903 1.0026436 0.9959562 0.9976186
000020 2f e9 7f 3f d8 04 82 3f 6a 38 7f 3f 2f e3 7f 3f
       0.99965185 1.0157728 0.99695456 0.9995603
000030 e0 48 80 3f 1d 14 7f 3f 67 4e 7d 3f db a8 7d 3f
       1.002224 0.99640065 0.9894776 0.9908578
000040 45 db 80 3f d3 98 7f 3f 20 93 7f 3f 04 44 7e 3f
       1.0066916 0.99842566 0.9983387 0.99322534
000050 a4 79 80 3f 5e c2 7d 3f ab 1f 82 3f 85 21 7f 3f
       1.0037122 0.99124706 1.0165914 0.9966052
000060 f3 26 80 3f ac fd 7e 3f 63 c6 81 3f 04 5d 7f 3f
       1.0011886 0.9960582 1.0138668 0.99751306
000070 3d 41 80 3f f1 99 7f 3f 5d 00 7b 3f 0f 72 81 3f
       1.0019909 0.9984427 0.9804743 1.0112933

model.3.main.1.bias f4 [32]
000000 b8 2f 07 3b 32 7f 49 3c a4 e7 1c 3b 01 90 6a 3c
       0.0020627808 0.012298392 0.002394178 0.01431656
000010 8f d1 b7 bb e7 7f c5 3b 58 89 86 3a 13 9d 93 3b
       -0.005609698 0.00602721 0.001026432 0.0045048087
000020 83 dd 06 3c de 84 28 3c f2 8c b9 3b 44 73 46 bb
       0.008231523 0.010285584 0.005662554 -0.0030281106
000030 56 5b a8 3b 1e 94 21 bb 65 9e 10 3b 13 e3 80 bb
       0.005137841 -0.0024654935 0.0022067067 -0.0039333194
000040 e2 bb 5a 3b 0f ab aa 3b fa b9 d3 3b 9f c8 b0 bb
       0.0033376147 0.00520838 0.006461379 -0.0053950096
000050 97 8c 2e bb c3 ac 2f bb ea 03 20 3b 63 b9 9f bc
       -0.002663409 -0.0026805855 0.0024416395 -0.019497579
000060 62 d1 1e bc 57 ee 72 bb ca 1d 6b bb 0b c9 65 bb
       -0.009693475 -0.003706833 -0.003587591 -0.0035062458
000070 ea a1 ea ba d4 fa 73 3c de 7c 61 bb 81 27 dc 3b
       -0.0017901037 0.014891345 -0.0034406702 0.0067185764

model.3.main.1.gate f4 [32]
000000 50 5a 82 3f b8 cd 80 3f 56 5a 80 3f 28 09 81 3f
       1.0183811 1.006278 1.0027568 1.0080919
000010 62 41 80 3f c5 e3 72 3f ef 8f 7d 3f d3 eb 7d 3f
       1.0019953 0.948788 0.9904775 0.99187964
000020 f0 57 80 3f 46 8e 7f 3f 9f ba 74 3f 63 24 80 3f
       1.0026836 0.9982647 0.9559726 1.0011104
000030 94 29 7f 3f 87 6e 80 3f c8 ef 7d 3f 11 4d 81 3f
       0.9967282 1.003373 0.99194 1.0101644
000040 f6 0b 80 3f a9 75 81 3f 44 02 80 3f 5c c2 7e 3f
       1.000365 1.0114032 1.0000691 0.9951532
000050 dd 0e 7f 3f 1a 75 82 3f 3c 59 7c 3f fa fa 82 3f
       0.99632055 1.0191987 0.9857366 1.0232842
000060 1d 00 86 3f 4d 38 7b 3f 19 46 81 3f 55 0d 80 3f
       1.0468785 0.98132783 1.0099517 1.0004069
000070 5a c7 7d 3f 92 b0 72 3f 0d ac 7d 3f 14 86 7f 3f
       0.9913231 0.94800675 0.99090654 0.9981396

model.3.main.1.running_mean f4 [32]
000000 95 53 9b bf a1 3a 8f 3f ab f8 d2 3e 34 1e d7 be
       -1.2134882 1.1189767 0.41205344 -0.4201523
000010 99 a5 63 3f 08 fa 29 be 27 18 bd bc 4c 9f 62 be
       0.88924557 -0.16599286 -0.023082806 -0.2213108
000020 ab 1f 23 3f db 6a c2 3e c8 54 8e bd d1 68 97 3d
       0.63720196 0.3797215 -0.069497645 0.07393039
000030 9d 25 3a be 64 07 91 3d 2f d9 df ba c3 d9 f4 be
       -0.18178411 0.07081488 -0.0017078276 -0.4782239
000040 17 8a 61 bf 7f 4a cf bd fd 99 ba bd 38 6f f9 3e
       -0.88101333 -0.10121631 -0.09111402 0.48717666
000050 ee 1a e0 bd e2 67 00 3e fd 69 3e 3f 62 9d 87 be
       -0.109426364 0.12539628 0.74380475 -0.2648726
000060 c9 56 73 3f 8f 68 1c 3f f8 e8 bf 3e 62 0a 66 3e
       0.950543 0.61097044 0.3748243 0.22464898
000070 27 8e 59 bf 12 b2 d5 3e 67 33 4f 3e f1 fb a4 3e
       -0.8498253 0.4173742 0.20234452 0.32223466

model.3.main.1.running_var f4 [32]
000000 3a 28 10 3f 13 54 ab 3f f5 ec 56 3f 23 07 8b 3f
       0.5631138 1.3385032 0.8395532 1.0861553
000010 5f da db 3f 6d 81 d8 3f 83 a3 22 3f 21 09 d6 3e
       1.7176017 1.6914498 0.6353075 0.4180384
000020 c4 8e b1 3f fa 3d 2d 3f 75 ba 84 3f bd f6 0f 3f
       1.3871694 0.67672694 1.0369402 0.5623587
000030 c2 63 3c 3f 85 5f cb 3e c9 01 76 3f e5 30 39 3f
       0.7358972 0.39721313 0.96096474 0.7234023
000040 0e 8c 19 3f b1 a9 37 3f fd e3 7a 3f aa 4a 58 3f
       0.5997933 0.71743304 0.9800413 0.8448893
000050 66 ac 41 3f b0 7d 72 3f 46 22 0a 3f a2 68 6a 3f
       0.75653684 0.94723034 0.5395855 0.91565907
000060 c0 bd cc 3f d9 ad fa 3f 50 86 b8 3f 97 f8 1f 3f
       1.5995407 1.9584304 1.4415989 0.62488693
000070 e1 37 1b 3f 07 f6 9f 3f 50 78 dc 3e de 13 78 3f
       0.6063214 1.2496957 0.4306054 0.96905315

model.3.main.3.weight f4 [32, 32, 3, 3]
000000 00 31 a0 bc 86 33 95 3b 93 a1 9d bd 46 8a 38 3e
       -0.019554615 0.004553261 -0.076968335 0.18021497
000010 80 b9 f3 bd 0b ee bd bc c9 68 ee bd 45 90 ab bc
       -0.11900616 -0.023184797 -0.1164108 -0.020942817
000020 51 49 dc bd 3b 21 1c 3d 19 ca 01 3d af f7 66 3c
       -0.107561715 0.03811763 0.031686876 0.014097138
000030 10 bc a2 bc d6 32 1c bd 45 9b 4a bd e8 2d e0 bd
       -0.019865066 -0.03813442 -0.049464483 -0.10946256
000040 19 19 95 bc 67 a9 c1 bd 6c e3 31 bd 46 cd 85 3d
       -0.018200444 -0.09456139 -0.043429777 0.065332934
000050 15 92 c1 3d 35 79 c6 bd dd 04 b5 3d ac f9 cf bd
       0.09451691 -0.09691087 0.08838818 -0.10155043
000060 7e 87 92 3d f6 e3 2e bd 90 7a 5f bd 00 af 97 bd
       0.07154749 -0.04269787 -0.054560244 -0.074064255
000070 9b 87 13 be a1 6f 79 3d e4 95 46 3b de 6f e1 3d
       -0.14407198 0.060897473 0.0030301744 0.11007665
000080 0b 32 b7 bd c9 6c 40 3d 0e 79 9c bd b5 2f 24 be
       -0.08945092 0.046978746 -0.07640277 -0.16033824
000090 57 47 1f 3b 9d 6e 2e 3e 86 41 9e bc bd 8c 7d bc
       0.0024303996 0.17034383 -0.019318353 -0.015475449
0000a0 fc a1 eb bd 86 02 69 b9 b5 a2 bd 3c 47 ac 3c 3e
       -0.115055054 -0.00022221552 0.023148874 0.18425094
0000b0 9b 73 1c bc 51 b6 ff 3d 2f dc 27 be df b2 20 be
       -0.009549047 0.12485946 -0.16392587 -0.15693234
0000c0 91 df 6f 3d c6 1e ca 3b b2 b0 12 3e a2 52 6c bd
       0.05856282 0.0061682193 0.14325216 -0.057695992
0000d0 2c 66 60 3c 2b 15 55 3c 86 09 df bc 23 c4 ff 3d
       0.013696235 0.013005535 -0.02722622 0.12488582
0000e0 78 c8 90 3c d1 8d 9b bc d8 81 b9 bd 9b 12 97 3d
       0.017673716 -0.018988522 -0.09057969 0.073765956
0000f0 26 b4 32 bd 95 ec cb bd d1 ec 49 3d 16 ff ce bd
       -0.043628834 -0.09957234 0.04929811 -0.101072475
000100 3b 12 67 3c 7c c0 57 3d a5 94 db 3b b2 68 99 3d
       0.014103468 0.0526738 0.0067010694 0.07490672
000110 fa 4e cf 3c ac e8 07 bd a5 7a e4 3d 6e 5b 11 3d
       0.025306214 -0.033180878 0.11156205 0.035487585
000120 c2 1a f0 3d a4 08 29 3d ba 72 5b bd 8d e4 1d 3e
       0.11723854 0.041268006 -0.05357621 0.15419216
000130 62 c8 34 bd f5 0d 83 bc 85 8d 88 bd a5 26 b9 3d
       -0.044136412 -0.015997866 -0.06667618 0.09040574
000140 cc be 03 be 1d d2 0d bd 24 e2 a3 3d 9b 89 21 3d
       -0.12865752 -0.034624208 0.08002117 0.03943787
000150 04 07 16 3e 23 cc bd bd 63 7e d1 bc ef 7d c3 bd
       0.14651114 -0.092674516 -0.025572961 -0.09545504
000160 35 84 5e 3c 28 f7 d6 bb 02 7e 58 3d a4 1b b5 bd
       0.013581325 -0.006560225 0.052854545 -0.08843163
000170 65 5d a9 3d 71 88 8b bd 5a 44 a8 bd 83 95 f5 3d
       0.08269767 -0.068131335 -0.08216162 0.11991408
000180 77 82 32 bd d0 a1 10 bd 49 08 a8 3c 13 54 d1 3d
       -0.043581452 -0.035310566 0.020511763 0.10221114
000190 33 b2 44 bc 68 2a 44 bd 0b 5a 54 3d e9 79 83 3c
       -0.012005377 -0.047892004 0.051843684 0.016049342
0001a0 22 2b c5 3d 8b 38 9d bc 29 68 1b be 94 c7 f1 3c
       0.096273676 -0.019192 -0.15176453 0.029514112
0001b0 5f fb 8a 3d b9 96 04 3e 5c 37 20 be 0c 12 89 bd
       0.067862265 0.12948121 -0.15646118 -0.06692895
0001c0 de 5a 07 3e 2c 9c 55 bc 2b 33 72 bd 28 b4 b6 ba
       0.13218257 -0.013037723 -0.05913083 -0.0013939189
0001d0 84 05 d8 3c 6f 7d c1 bc 41 37 9c 3d 92 4b 74 3d
       0.026369818 -0.023619382 0.07627726 0.059642382
0001e0 77 c3 c2 bc a2 e8 56 3d c0 e9 c3 3b 56 35 04 3e
       -0.023774846 0.05246795 0.005978793 0.12910971
0001f0 1e 0e c7 3c 98 59 b6 bd 0e 66 b0 bd f2 a8 1d be
       0.024298724 -0.089038074 -0.086132154 -0.15396479
000200 3e c4 0e be e2 b2 2b bd 8e 74 3e 3c 4a 4d 52 bc
       -0.13942048 -0.041918643 0.0116244685 -0.01283581
000210 95 3a 87 bd b1 b4 0e 3e 68 82 07 be aa b4 1c be
       -0.066029705 0.13936116 -0.1323334 -0.15303293
000220 6b de 08 3c 3e 2f bd 3d 84 8a 90 bc ab a9 d8 3d
       0.00835381 0.09237526 -0.017644174 0.105792366
000230 71 13 89 3d e0 00 98 3c 9b 0d 2e bd a7 f8 d9 3c
       0.06693161 0.018555105 -0.042493444 0.026607824
000240 d8 2a 43 bd ea 22 f2 3d 43 0d db 3c 6c 5b 43 bd
       -0.04764828 0.118230656 0.026739722 -0.04769461
000250 4b c5 7f bc bb 09 30 3e 89 3e 6c 3d fa d1 6d 3d
       -0.015611003 0.17191212 0.057676826 0.058061577
000260 23 10 59 bd 3c 02 ef 3d f9 c0 63 3d 97 b5 b4 3c
       -0.052993905 0.11670348 0.055603955 0.022059245
000270 f5 2d 82 bd 9c fb 71 3d 2a cd 58 be 6e 9c 0a 3d
       -0.06356422 0.059077844 -0.21172014 0.03384059
000280 2e ec 76 3d 33 b7 c6 bd 37 9c 12 3e 40 54 29 bd
       0.060283832 -0.09702911 0.14317404 -0.041340113
000290 e4 12 1a bc 43 a0 9a 3d 68 8e f4 3c 20 b8 da 3c
       -0.009403918 0.07550099 0.02985306 0.026699126
0002a0 ca 7b 9e 3d 0d 93 1a bd f7 d2 2a be 1c bd 81 3d
       0.07738455 -0.037737895 -0.16682039 0.06334898
0002b0 dc 6d 08 bd 96 8a 09 bd 38 7d de bd 04 6d 9a bc
       -0.033307895 -0.03357943 -0.10863727 -0.01885081
0002c0 f8 db 23 bb 3c ec 9a 3d d8 ec 77 bd 4e a9 b9 bd
       -0.0025002938 0.075645894 -0.060528606 -0.090654954
0002d0 58 9b d9 3d 3a aa df bd 62 07 c3 3d ad 38 db 3d
       0.106253326 -0.1092114 0.095228925 0.107041694
0002e0 27 25 d2 3c d2 01 1b 3e 99 8e bf 3c 3f 23 64 bd
       0.025652481 0.15137413 0.023383426 -0.055697676
0002f0 d2 25 1a be a5 13 03 3c 44 5c 81 bc 86 4a 1c 3e
       -0.1505349 0.008000289 -0.015791066 0.15262803
000300 11 e8 02 3c 51 9d 28 bd a1 11 06 bc 84 7d 24 be
       0.007989899 -0.041165654 -0.008182914 -0.16063505
000310 83 cd 65 bd 74 9f 30 bd 3d e7 c6 bd 71 40 f6 3c
       -0.056104194 -0.043120816 -0.09712074 0.030060025
000320 3c 49 84 bd 62 14 1a be 8b 72 d0 3d dc 8e c0 3c
       -0.06459281 -0.15046838 0.10178097 0.02350562
000330 0b db 83 bd a6 59 dc 3d 99 55 fe 3c 1e 92 1f 3d
       -0.064382635 0.107592866 0.031046676 0.038957708
000340 bf f3 43 3e 2c 29 a6 bd 4f 4d 91 3d 3b d7 0b bc
       0.1913595 -0.08113322 0.070948236 -0.008535202
000350 d7 c9 66 bd e2 a7 92 bd 51 75 1a bd af 2f 59 3d
       -0.056344833 -0.07160927 -0.037709538 0.05302399
000360 75 12 50 bd be 50 da 3d d9 39 38 3d 43 16 ae bd
       -0.050798852 0.106599316 0.044977043 -0.0850034
000370 29 96 ab bc ea d5 3c 3d 2a b2 d3 3c d7 db c4 bd
       -0.020945625 0.04610244 0.025841791 -0.096122436
000380 5c dd 8b bc ef 77 b2 3d 2c 59 2e be dc 76 a6 3c
       -0.017073326 0.08714282 -0.17026204 0.020320348
000390 10 30 01 3e 5c 99 dd bd f1 53 94 3d e3 4e 1b bb
       0.1261599 -0.108202666 0.07242573 -0.0023698143
0003a0 d7 52 6a 3d 3d bc 19 be cc ec 9b 3c c7 0a 7c 3d
       0.05720791 -0.15013213 0.019033812 0.061533716
0003b0 ea c1 db bd 74 89 d7 ba 95 c0 ff bc 28 fc dc bd
       -0.107303455 -0.0016444162 -0.03121976 -0.107902825
0003c0 61 63 18 3c bf db b2 bb 97 b7 46 be 5e a8 13 3e
       0.0093010375 -0.0054583247 -0.19405971 0.14419696
0003d0 22 b1 24 3e f5 37 8b bc c3 19 ba 3d a3 0a 38 3e
       0.16083196 -0.016994456 0.09086945 0.17972808
0003e0 b0 c7 59 3d cf c0 80 bd d8 fe af 3c 4c cd 2b bd
       0.053168952 -0.06286775 0.021483824 -0.041943833
0003f0 2f bb cd 3d b0 f7 a6 bd 77 44 8b bd 7d 1a 89 bd
       0.10045468 -0.081527114 -0.06800168 -0.06694505

model.3.main.4.weight f4 [32]
000000 56 e4 7c 3f af 05 80 3f 37 22 7f 3f 57 72 7f 3f
       0.98785913 1.0001734 0.9966158 0.99783844
000010 bb 82 7f 3f c5 14 82 3f 87 9f 7d 3f 81 fc 7c 3f
       0.99808854 1.0162588 0.99071544 0.9882279
000020 93 39 7e 3f 40 03 81 3f 56 5a 80 3f a1 7d 80 3f
       0.993066 1.0079117 1.0027568 1.0038339
000030 fe 8b 7e 3f 34 84 80 3f 76 e5 7f 3f 6a 5e 80 3f
       0.9943236 1.0040345 0.99959505 1.0028813
000040 79 ab 7f 3f b2 46 80 3f d9 fc 7a 3f c7 3e 7e 3f
       0.9987102 1.0021574 0.98042065 0.9931454
000050 13 31 80 3f bb 78 77 3f 47 f6 80 3f 7e e4 7f 3f
       1.0014976 0.96668595 1.0075158 0.99958026
000060 3c 54 7f 3f b2 bc 7d 3f ec 54 7d 3f 39 db 7e 3f
       0.99737906 0.9911605 0.98957705 0.9955326
000070 0a 56 80 3f 4b 65 7e 3f 19 3f 7f 3f 92 a0 80 3f
       1.0026257 0.9937331 0.99705654 1.0049002

model.3.main.4.bias f4 [32]
000000 c1 c9 6e 3c 68 e4 93 bb f7 38 98 bc ef b2 63 3c
       0.014574469 -0.004513312 -0.01858185 0.013897642
000010 f7 7a bd 3b f6 5d a4 3c bf 40 44 bb 58 4b 03 3b
       0.005782481 0.020064335 -0.0029945818 0.0020033922
000020 56 2a 2d 3a 4b 88 aa 3c 49 90 8d 3d 49 90 fa 3b
       0.0006605735 0.020816943 0.06912286 0.0076465947
000030 d7 f8 dd 3b 6a 71 ca 3b 03 be 93 bc 6d 0e 54 bc
       0.006774049 0.006178071 -0.01803494 -0.0129428925
000040 c0 bf 33 3c 63 09 b7 3c db 7d f2 3b 4e 2e 9e bb
       0.01097101 0.022343343 0.007400257 -0.0048272973
000050 a1 cd d6 bb 95 e4 2e 3b a3 3b a0 3c af 3f b8 3c
       -0.0065552746 0.0026686538 0.019559687 0.022491304
000060 6c 08 c7 3b 40 60 06 3c 65 63 81 3c 88 a0 e5 3c
       0.006074002 0.008201659 0.015794465 0.028030649
000070 f3 c8 94 bc 32 3d 70 3c 3f 64 b2 3b 73 01 b3 bc
       -0.018162226 0.014663028 0.005444079 -0.021851277

model.3.main.4.gate f4 [32]
000000 64 1a 7f 3f 7b 7d 7c 3f 9a 49 7b 3f ac 87 81 3f
       0.99649644 0.9862897 0.9815918 1.0119529
000010 f3 92 7d 3f 17 8f 7d 3f 1c 04 82 3f 97 97 81 3f
       0.9905235 0.9904646 1.0157504 1.0124387
000020 f7 ce 7b 3f 26 78 83 3f a1 b0 81 3f 8b b6 7a 3f
       0.9836268 1.0271041 1.0132028 0.9793479
000030 fa 21 80 3f e9 4b 7f 3f d6 20 80 3f 76 19 80 3f
       1.0010369 0.99725205 1.0010021 1.000777
000040 ac 8a 78 3f 56 dc 81 3f fd c1 7a 3f 4f 9d 74 3f
       0.97086596 1.0145366 0.9795225 0.95552534
000050 1f 46 7a 3f 10 45 7a 3f a4 0e 7e 3f 5b 18 84 3f
       0.97763246 0.9776163 0.9924109 1.0319933
000060 ec d7 81 3f 1f 46 7e 3f 63 fe 83 3f 56 45 82 3f
       1.0144019 0.99325746 1.0312008 1.017741
000070 a4 d1 81 3f 9b 5f 79 3f 60 73 7b 3f d1 f9 81 3f
       1.0142102 0.9741151 0.98222923 1.0154363

model.3.main.4.running_mean f4 [32]
000000 e1 cd 57 bd a3 30 1c bf b4 fc 40 3f 70 59 aa 3c
       -0.052686576 -0.61011714 0.75385594 0.0207946
000010 71 52 95 be 92 23 40 bf 89 84 c4 be 86 67 ee be
       -0.2916446 -0.75054276 -0.38382366 -0.46563357
000020 f0 25 a5 3e f2 44 65 bf 25 73 77 bf 4e 89 44 3e
       0.32255507 -0.8955833 -0.9666007 0.19193003
000030 65 7b b6 be 88 59 47 be 47 2f 9b 3f 8c 8b 99 be
       -0.35641018 -0.19467747 1.2123803 -0.29989278
000040 0a 81 c6 3d f7 27 42 bf 49 2c 9f be 76 19 ea be
       0.09692581 -0.7584223 -0.31088474 -0.4572255
000050 65 41 4f 3f b4 fe b9 3e 69 8f 34 bf 14 30 84 3e
       0.8095916 0.36327136 -0.70531327 0.2581793
000060 62 28 d2 3e 5c 70 a8 be 05 05 04 bf c4 6f 60 be
       0.41046435 -0.32898223 -0.5157016 -0.21917635
000070 e2 8b 69 3f d8 88 1b 3f 13 0b 53 bd b7 c3 6c 3f
       0.9122907 0.6075568 -0.051524233 0.9248614

model.3.main.4.running_var f4 [32]
000000 bf 66 4a 3f 26 e2 81 3f 79 0d 63 40 c4 59 55 3f
       0.7906303 1.014714 3.5476973 0.83340096
000010 4c f9 00 40 5d 0e 51 3f 4b 27 19 3f 2b 6a 91 3f
       2.0152159 0.8166254 0.5982558 1.1360525
000020 cb a4 79 3f d0 23 1b 40 3f b7 a8 3f c3 48 f1 3f
       0.9751708 2.4240608 1.3180922 1.885033
000030 2f f8 02 3f 19 f2 c9 3f 92 35 26 40 8d c8 96 3f
       0.5115995 1.5777007 2.5970197 1.1779953
000040 35 4e 88 3f bb 09 9e 3f a3 27 06 3f cf fd c7 3f
       1.0648867 1.234672 0.5240423 1.5624331
000050 ea 7f d6 3f d3 67 47 3f 2a 35 1a 40 81 6f 7a 3f
       1.6757786 0.778928 2.4094949 0.9782639
000060 81 ce b6 3f 5f f6 7c 3f 67 ec 05 40 53 23 49 3f
       1.428177 0.9881343 2.0925539 0.78569525
000070 97 dd cd 3f 8b ea 82 3f 5b c4 58 3f e6 11 cb 3f
       1.6083249 1.0227827 0.84674615 1.5864837

model.4.main.0.weight f4 [32, 32, 3, 3]
000000 f6 44 c0 bd bd 6a c5 3c 44 a6 17 be 8b fd 8e bd
       -0.09388153 0.024098748 -0.14809519 -0.06981953
000010 01 9b 52 3d 38 ad c2 bc 5e bf e0 bb b8 c3 f3 bc
       0.051417354 -0.023764238 -0.0068587502 -0.029756412
000020 59 b9 e5 bd 83 bf a3 3d d1 d6 b3 3c 3f c1 49 bd
       -0.11216993 0.07995512 0.021953018 -0.04925656
000030 1b 0c 91 bd 35 30 05 3d 0a c7 37 be 16 83 e4 bd
       -0.07082387 0.032516677 -0.17947021 -0.11157815
000040 5a c1 c3 bd a5 8d 96 3d 73 f9 69 3d 6a 23 05 3e
       -0.09558363 0.07351235 0.05712266 0.1300179
000050 50 cc b3 bd c0 74 dc 3b 33 71 4c 3d b3 46 29 35
       -0.08779204 0.006727785 0.049912643 6.3060287e-07
000060 1a ca 97 bd c9 22 3f 3d d9 91 ac 3d c3 11 02 be
       -0.07411595 0.046664033 0.08426256 -0.12702088
000070 86 8e fd 3d cf 07 c1 3d ba d4 a5 bc d0 7d cc bd
       0.123807 0.094253175 -0.020243037 -0.09984934
000080 f7 d0 ba bd 46 85 01 3e 19 34 ef 3d 8d 1b 00 3d
       -0.09121888 0.12648496 0.11679859 0.031276274
000090 07 ad 2e bd bf 93 8c 3d 55 6d 4b bb 37 b1 4b be
       -0.04264548 0.06864118 -0.0031040509 -0.19891821
0000a0 16 90 e0 bd 64 d8 8b 3d 35 a0 67 bc 67 a5 cf 3c
       -0.10964982 0.068283826 -0.014137317 0.025347425
0000b0 33 86 df 3d 65 f3 50 bd af 7c b0 bd 28 26 54 3c
       0.10914268 -0.05101337 -0.086175315 0.01294855
0000c0 da 0e f8 3c 8f 76 25 3d b1 17 f3 3c 9f 31 98 3c
       0.03028052 0.04039627 0.029674383 0.018578349
0000d0 7c 92 6b be f5 79 60 3e cb 73 37 3d 66 4c 02 bd
       -0.23005098 0.21921523 0.044788163 -0.03181114
0000e0 51 c0 16 3e dd 08 9f 3d e0 cf 88 bc ed f7 3e 3e
       0.147218 0.077653624 -0.016700685 0.18649264
0000f0 1a 83 ee ba b2 d8 c7 3d f5 22 49 be 00 91 b2 bd
       -0.001819703 0.09758128 -0.19642241 -0.08719063
000100 3a 24 1b bd f2 c1 10 3e 6e 31 fd bd e8 eb 25 bc
       -0.037876345 0.14136484 -0.123629436 -0.010127045
000110 7c 74 4d bd a0 c1 77 3b 65 2d 26 3d 4f 87 0d 3d
       -0.050159916 0.0037804618 0.040570635 0.03455287
000120 4b 06 42 3e b9 24 23 3e 7e 06 cb bc 05 74 23 3d
       0.18947713 0.15931977 -0.02478337 0.039905567
000130 6e f4 98 bd aa f6 97 3c 6b b6 5b 3a 7a ac 29 bd
       -0.07468496 0.018550236 0.00083813694 -0.041424252
000140 29 44 8d 3c 58 9d 4d be 53 69 a6 3d ab 1c 9b bd
       0.017244415 -0.20079553 0.08125558 -0.07573827
000150 ea e2 5d 3d 80 a2 3c 3d e2 a2 d1 3d 7e d7 78 bd
       0.05417148 0.04605341 0.102361456 -0.060752384
000160 77 35 46 bd 15 36 88 3d 19 14 64 bd 44 db 20 bd
       -0.04839083 0.0665094 -0.05568323 -0.039271608
000170 cc d9 2b 3e 3e c3 ad bd 43 d2 c3 3d b8 12 84 bd
       0.16782302 -0.08484505 0.095615886 -0.06448883
000180 c2 a4 9c bd dc ce 4f bd 89 6e 7e 3c ac c2 34 3d
       -0.076486126 -0.050734386 0.015529283 0.044130966
000190 03 4f 03 be ee 1c bd 3d 07 3b 7e 3d 7c bb c0 3d
       -0.1282311 0.092340335 0.06206801 0.0941076
0001a0 53 2f 9b 3d c9 2a b7 3d 33 57 b8 bb 2a a0 0f be
       0.07577386 0.089437075 -0.0056256293 -0.14025941
0001b0 b2 16 c7 3d 83 c6 d7 3c a0 bb df bd 53 a8 07 be
       0.09721126 0.026339775 -0.109244585 -0.13247804
0001c0 79 37 c9 3b 97 b2 9e bd 81 dd 56 3e 0b a2 33 3e
       0.006140646 -0.07748907 0.20982935 0.17542283
0001d0 93 a5 81 bd e6 87 4f be c6 c7 3b bd c9 e3 2d 3d
       -0.06330409 -0.20266685 -0.045844816 0.04245356
0001e0 32 6f 0d bd 19 98 d1 3c 4b 52 89 3d 75 73 5d 3d
       -0.034529872 0.025585221 0.06705149 0.054065187
0001f0 bb 31 54 bd 7f 34 5b bd ee d7 84 3d e7 a1 6c 3d
       -0.05180524 -0.05351686 0.06486498 0.05777159
000200 87 34 5c 3d ab 2b e7 bc 2b f4 2e bd 0e 02 23 3d
       0.05376103 -0.028219065 -0.042713325 0.03979688
000210 fe 23 df bb 51 ee 70 3d 06 58 65 3d 38 2a 72 3d
       -0.0068097105 0.058821026 0.05599215 0.059122294
000220 f3 e9 89 bd 72 19 02 bd 30 3f 40 bd 29 b1 1c 3e
       -0.067340754 -0.031762548 -0.04693526 0.15301956
000230 a0 e2 0e 3c 49 11 d1 bd 6a 21 ce bd 76 51 15 bc
       0.008721024 -0.10208375 -0.10064967 -0.00911366
000240 dc 3f d6 3d bd 63 c5 bd 41 1e d4 bd 40 f4 cf bc
       0.10461399 -0.09638164 -0.10357333 -0.025385022
000250 c1 c6 e0 3d b2 b1 33 3c 6a 12 8f bd 5e 6a 02 3d
       0.10975409 0.010967659 -0.06985934 0.03183972
000260 08 2e 05 be 87 b3 10 3c fd 79 f6 3c 5e b6 64 3d
       -0.13005841 0.008831865 0.030087465 0.05583798
000270 00 5d 2e be 7f 91 77 3c 4c 3e 0b bd cc 00 7f bd
       -0.17027664 0.015110373 -0.033994958 -0.06225662
000280 8d 4e 7e 3d 74 42 f4 3d 29 8d 69 3d 19 99 d5 bc
       0.06208663 0.119267374 0.057019386 -0.02607398
000290 5d df d2 3c f9 ea 1e bd 35 86 77 3d 29 17 93 3d
       0.025741274 -0.038798306 0.060430724 0.07182152
0002a0 02 18 79 be d2 9b ba 3c 58 ad 83 3d 35 21 cd bd
       -0.24325565 0.022779379 0.06429547 -0.10016099
0002b0 5c f8 6c bd d6 ff 4d 3c f8 3f 6b bd 49 81 14 bd
       -0.05785404 0.012573203 -0.057434052 -0.03625611
0002c0 56 31 f6 3d 18 a2 ec bd b2 4f 7b bd 78 32 82 3d
       0.12021129 -0.115543544 -0.0613553 0.063572824
0002d0 17 bf 15 3b 77 b9 22 3d 29 25 0b bd ae 04 d9 bd
       0.0022849494 0.039727654 -0.033970986 -0.10596596
0002e0 f0 9d 95 bd 2d 16 f0 3c 5a 69 16 bd 0b b4 3a 3d
       -0.07305515 0.02930745 -0.036721565 0.04558186
0002f0 e9 64 8c 3c f3 08 29 be 43 9c 45 bd 99 06 58 bd
       0.017137961 -0.1650732 -0.048244726 -0.052740667
000300 d5 2e c2 bc 9d a2 80 3d fc d5 88 3c 82 4b 95 3d
       -0.023703972 0.06281016 0.016703598 0.072897926
000310 ce 14 c1 3c e8 05 c2 bd 6e a7 0f bc be 2c b1 bd
       0.02356949 -0.09473783 -0.008767946 -0.08651112
000320 92 45 31 3d 54 4e 64 bd 6a 09 69 bc ed 8e 86 3d
       0.043279238 -0.055738762 -0.014223436 0.0657023
000330 d7 55 5d bc db b1 8c bd f9 77 cf bc 64 7f 4d bc
       -0.013509235 -0.06869861 -0.025325762 -0.012542579
000340 e9 07 36 bd 80 15 a0 3d df 11 bc 3c 94 70 7c bd
       -0.044441137 0.07816601 0.02295774 -0.0616308
000350 3b 49 cf bb 02 ed 55 3c 46 31 81 bd 25 68 30 3d
       -0.0063258684 0.013056995 -0.06308226 0.04306807
000360 82 a1 34 3d 42 93 c7 bd eb 2a c8 3d 20 e9 57 bc
       0.04409934 -0.09744884 0.09773811 -0.01317814
000370 5a 2f fb 3d 3a dc 00 be b6 33 a2 bd f3 2e b1 bd
       0.12264891 -0.1258401 -0.07920019 -0.08651533
000380 bd da 1e 3e 12 23 04 be 49 3e 3b 3d 8b e0 f7 bd
       0.1551313 -0.12904003 0.045713697 -0.12103375
000390 2a a3 41 3d c1 aa cc 3d 02 06 0d bb 13 8f 2d 3c
       0.047274746 0.09993506 -0.0021518474 0.010593194
0003a0 54 e5 45 bd b4 b8 b3 bd 4b 29 c5 bd 44 3c 8d 3d
       -0.048314407 -0.08775464 -0.09627017 0.068962604
0003b0 74 3c f1 bc b9 58 f0 3c 28 c0 18 bd fd 68 05 3e
       -0.029447772 0.029339181 -0.03729263 0.13028331
0003c0 08 d1 06 bd 49 ef ed 3d b8 9b 3c bd df 95 19 3d
       -0.03291419 0.11617906 -0.046046942 0.037496444
0003d0 66 b7 8d bd d8 bf 35 bd 24 10 c4 bc 50 40 27 be
       -0.06919746 -0.04437241 -0.023933478 -0.16333127
0003e0 d2 19 a3 bc ec c6 82 bd 26 b7 04 3d d2 aa e0 3c
       -0.019909773 -0.063855976 0.032401226 0.027425203
0003f0 12 c0 50 3e a4 5a cb 3c 53 3f 25 3d 91 d1 42 3e
       0.20385769 0.024823494 0.040343594 0.19025256

model.4.main.1.weight f4 [32]
000000 07 d2 7c 3f fe 0f 81 3f ae af 7f 3f eb 28 80 3f
       0.98757976 1.0083005 0.9987744 1.0012487
000010 ab 8d 7f 3f a4 7d 7e 3f ad 25 7e 3f c9 dc 80 3f
       0.99825543 0.9941046 0.9927624 1.0067378
000020 45 22 81 3f 62 9f 7f 3f 9b 7e 80 3f 2f 1f 82 3f
       1.0088583 0.99852574 1.0038637 1.0165766
000030 1b 45 7f 3f f9 f7 7d 3f ca f6 7f 3f a4 4e 80 3f
       0.9971482 0.992065 0.99985945 1.0023999
000040 f5 15 7d 3f ac 84 80 3f 68 fb 7f 3f ce 97 7f 3f
       0.9886163 1.0040488 0.9999299 0.9984101
000050 d7 a3 80 3f c6 57 7e 3f 80 19 7f 3f ce ff 7d 3f
       1.005 0.9935268 0.99648285 0.9921845
000060 01 9d 7f 3f 85 e0 7f 3f 86 7e 80 3f 18 13 80 3f
       0.99848944 0.99951965 1.0038612 1.0005827
000070 45 d9 80 3f 3c 0f 80 3f 12 7b 80 3f 22 f5 80 3f
       1.0066305 1.0004649 1.0037558 1.0074809

model.4.main.1.bias f4 [32]
000000 70 d4 8e bc 55 13 48 3c bc fe 1d 3b 93 47 0c bc
       -0.017435282 0.01221164 0.0024108132 -0.0085619865
000010 2f aa f5 3b b6 e7 cf 3b a7 f0 fa ba a2 77 e3 3b
       0.007497094 0.006344761 -0.0019145206 0.0069417516
000020 83 e7 94 3b cb 3a a9 3a ec f2 fa ba ee 61 41 3c
       0.0045442 0.0012911198 -0.0019145883 0.011803133
000030 a5 a7 5c 3b 4c cd b0 bb 1c 45 42 bc 26 e9 ea bb
       0.003366926 -0.005395567 -0.011857297 -0.0071689067
000040 19 98 f7 bb 86 5b fd 3b 38 cc 43 3c 91 84 5b ba
       -0.0075559733 0.0077318577 0.011950545 -0.0008373941
000050 61 a0 80 3a 13 ba ad bb a9 92 ae 3b 24 47 fb bb
       0.0009813422 -0.005301723 0.005327542 -0.0076683927
000060 cb aa 93 3b 71 55 9e ba 20 93 90 bc 0d 88 75 3a
       0.004506444 -0.0012079907 -0.01764828 0.00093662814
000070 89 2a 26 bb 94 01 31 3c 17 bb 35 3b d8 22 c7 3a
       -0.0025354943 0.010803599 0.0027729922 0.0015192879

model.4.main.1.gate f4 [32]
000000 fe d6 82 3f 50 d0 7f 3f 33 64 82 3f fc 9d 83 3f
       1.022186 0.99927235 1.0186828 1.0282588
000010 81 04 81 3f 5f 0a 83 3f bd 39 7a 3f 52 41 80 3f
       1.00795 1.023754 0.9774435 1.0019934
000020 2b 20 7f 3f a9 54 82 3f d7 90 82 3f 03 64 81 3f
       0.9965846 1.0182086 1.0200452 1.0108646
000030 da 89 7a 3f 72 08 85 3f ba 37 84 3f a8 2f 7d 3f
       0.97866595 1.0393202 1.0329506 0.9890084
000040 1c b7 7a 3f 67 c5 79 3f 8c cb 77 3f 38 34 82 3f
       0.9793565 0.9756684 0.9679496 1.0172186
000050 2e 24 7f 3f c6 64 7f 3f a8 a6 7d 3f 9f 77 7d 3f
       0.9966458 0.99763143 0.9908242 0.9901065
000060 d5 59 81 3f e1 bf 7f 3f 6e 60 83 3f 1f 2a 80 3f
       1.010554 0.9990216 1.0263803 1.0012854
000070 63 09 80 3f 7d 01 6e 3f ae 64 78 3f 7c e8 81 3f
       1.0002865 0.9297102 0.97028625 1.0149074

model.4.main.1.running_mean f4 [32]
000000 75 cf a2 be 85 31 ef be 35 d7 09 bf 7f 61 b6 bc
       -0.31798902 -0.46717468 -0.53844005 -0.022263287
000010 16 db 88 be df 01 d8 bd 13 3c 1b 3f be 9d f1 be
       -0.2672965 -0.10547232 0.6063854 -0.4719066
000020 16 ff 00 be 44 cc f5 bd ac d7 02 3f 5a 4c f5 bb
       -0.12597308 -0.12001851 0.5111034 -0.0074859085
000030 ae 07 11 bf da d3 98 be cf e3 84 3e 18 e6 22 bf
       -0.56652343 -0.2984913 0.25955054 -0.63632345
000040 92 75 4d bf 02 f2 ea be a4 46 7b bc e6 9e fa 3d
       -0.80257523 -0.45887762 -0.015336666 0.12237339
000050 92 7c 93 be 38 34 32 3d 02 82 c0 3d 17 06 d2 3d
       -0.28805977 0.04350683 0.09399797 0.10255068
000060 3d 2b 11 3e cc 3d fa 3e 47 94 06 3f d8 6a 84 be
       0.1417665 0.48875272 0.52570003 -0.25862765
000070 17 6f db bc 9c fa 1d 3f 8e 13 82 be a1 de f5 3e
       -0.02678637 0.61710525 -0.25405544 0.48021415

model.4.main.1.running_var f4 [32]
000000 88 6d 67 40 4e 44 c7 40 93 fd 90 40 c1 c9 35 40
       3.6160603 6.227088 4.530954 2.840439
000010 ef 99 f2 40 3f df 3c 40 eb 5f d6 3f cb 4e e4 40
       7.5812907 2.9511259 1.6748022 7.1346183
000020 a4 e7 4b 40 f0 a4 58 40 5e 6f 88 40 c2 e2 3f 40
       3.1860132 3.385067 4.2635946 2.9982152
000030 73 0c 2a 40 00 12 59 40 8d f3 5d 40 fe 42 2e 40
       2.6570098 3.3917236 3.4679902 2.7228389
000040 89 e3 2f 40 95 c5 25 40 54 12 b7 40 db be 8f 40
       2.7482626 2.5901845 5.7209873 4.492048
000050 45 5c c6 40 41 bf 1b 40 3b 57 8f 40 9c 4f 77 40
       6.1987634 2.4335482 4.4793983 3.864234
000060 34 ab 6c 40 cd 6f e2 40 32 71 8d 40 27 c1 8d 40
       3.6979494 7.0761476 4.420068 4.429828
000070 b4 f8 8f 40 b3 35 a3 40 2e 8f 21 40 ed fb 6c 40
       4.4991093 5.100305 2.524364 3.7028763
