checkpoint/clf/experiment_name/100/netS.pth (torch, 828110 bytes, 10 tensors)

conv.0.bias f4 [64]
00000000: d7e6 caba c8b1 3e3a 08d2 fcba bc8b 243c
00000010: b37a fc3a 295e 993a 4289 4dbc 2c51 e4bb
00000020: 62e0 d53a bb4c 493b efb3 25ba e2d7 0abc
00000030: 3b9b 843a 8190 5ebb e0e6 a3bb b590 35bb
00000040: ab32 c438 8e0a c3bb 4a64 79bb bb10 2cbc
00000050: 7362 ee3b 4166 97bb e8e4 003c 13bd 31bb
00000060: 0525 49bb fe1a d4ba 7bed d5bb b773 62bb
00000070: 816b 55bb 85fa 2ebb 3f05 2a3c 9fec 25bb
00000080: 58c7 58bb b8ed 223a 79bd c9bb f7eb d4b9
00000090: 4b2c 97bb 5e35 1c3c 9382 963a 19f6 cdbb
000000a0: b8aa 073b 2a83 0bbb 653a 0c3c d324 64bb
000000b0: a574 17bc d558 72bb a3ee 00bc 7c45 cc3a
000000c0: 8f87 7d3b 7b23 fcba 0e76 bc3b 3821 ff3b
000000d0: ba7c a6b9 c517 2ebc 74da 00bb ddd4 a83b
000000e0: 2959 a4b7 5147 f7bb 5be5 983b 4336 843a
000000f0: 5318 773c e772 b7bb b0aa 673c 1d98 aa3b
-0.0015480173 0.0007274416 -0.0019288668 0.010043081 0.0019262641 0.0011701036 -0.012544932 -0.0069676843
0.0016317482 0.00307159 -0.00063210627 -0.008474322 0.0010117063 -0.0033960643 -0.0050018877 -0.002770466
9.355446e-05 -0.005952186 -0.0038054162 -0.010502036 0.0072749197 -0.004620344 0.0078670755 -0.0027120754
-0.0030692231 -0.0016182361 -0.006528554 -0.0034553835 -0.0032565298 -0.0026699614 0.010377227 -0.002531804
-0.0033077803 0.00062152324 -0.00615662 -0.00040611599 -0.0046134344 0.009534208 0.0011483006 -0.0062854406
0.0020701122 -0.0021287897 0.008558844 -0.0034811988 -0.009244119 -0.0036979218 -0.007869395 0.0015584673
0.0038685536 -0.0019236648 0.005751378 0.0077859424 -0.00031754916 -0.010625784 -0.0019661458 0.0051523284
-1.9591842e-05 -0.0075463434 0.004666013 0.0010086972 0.015081483 -0.005598414 0.014139816 0.0052061216

conv.0.weight_orig f4 [64, 64, 3, 3]
00000000: f402 2d3d 0854 a6bc 54be b6bc 1890 c4bd
00000010: 94fb bcbd db4e fabb 06de 6fbd d25d 093d
00000020: 6677 e3bc 2ef5 053d 1103 b13d 5810 bbbb
00000030: dde2 ef3d 5ead 00bd 2050 88bd 0a97 0ebd
00000040: 0aec 9bbc 325d 3f3c 9d22 053d e9a1 323e
00000050: a4ca 1b3d c1c9 e93d e3e5 2fbc ac81 cf3d
00000060: 62c1 c6bc 97ce bc3d 2786 84bd da25 bfbd
00000070: 788e 70bd 5d4e 74b9 34f3 7f3d 4c6c aabd
00000080: fb71 16bc 5049 0d3d 94f5 ec3c cdfa a1bb
00000090: 3362 d13c 4003 8abc 8975 123d f8ed d6bc
000000a0: 4413 533d 8ce0 963d 62d7 cc3c e212 a13d
000000b0: c60a 0f3d 25e3 473d 1557 c33d 317c 85bc
000000c0: 2cf1 983c 32c7 8e3d a1ff 593d 42e5 8cbb
000000d0: b2cc 633d 0f01 133e 6324 17bd a65f 173b
000000e0: 707d 003c f0df da3c 7fb3 fb3d 0519 b5bd
000000f0: 3f0f 513c bd1d 4ebc 37b9 ff3d 4551 e63d
00000100: 80b2 463d 95bc f93d 208a 89bd 881c d33d
00000110: 8d3a e0bc 7aec c7bb 6b1e 3fbb f88e 243d
00000120: 0651 873d cb69 5a3d bab0 b9bc 7963 ed3d
00000130: 80a2 6d3d 1633 7b3d 6735 03bd 96ff 8d3d
00000140: 6402 0d3c 05a1 1e3d 838e c5bd dd23 7c3c
00000150: 9571 cbbd 794b 853d 7979 c5bb eba7 24bd
00000160: 3107 5abc 2bc7 453d 5bbf b43b fe2a 843d
00000170: f3d0 b4bd ea88 833d bcca 613c 3f97 3a3c
00000180: 5f65 9abc c7e5 f6bc bf48 673d f9bb 013e
00000190: 2da2 3bbc ae9f 88bc a067 b13c 6f96 c1bd
000001a0: 12ae af3d 1c72 a5bc 13da 9c3b f3c1 f0bc
000001b0: 79c5 55bd b677 ffbc 0efe 5d3b 27e7 193d
000001c0: d817 e63c 026e 3ebd e3c0 8c3d 8733 993c
000001d0: 34a1 f83c 26ee 45bd 8463 8a3c b28d fbbd
000001e0: 3142 70bb 7a61 923d 9027 423c 1428 d73c
000001f0: 415b 2bbd 6b89 873d 5faa 0f3e d147 453d
00000200: c80a 19bd a5ab 79bc b9ef cebd 796f bebd
00000210: e9ca e3bc 2690 38bd 9a57 ad3b b9ae a7bc
00000220: 88bb 503d befb f03d 1b65 2fbc b938 6b3d
00000230: f496 a6bd ef24 b03c 3023 9e3c ab47 433c
00000240: c12e 593d d8ec bbbc 3b04 b63d 353a babb
00000250: f10f de3c 3aea dabc 4b2a 053c f948 03bc
00000260: d9cd 693d 81e8 143d abf8 af3c e360 28bc
00000270: a929 be3d 9a6d d1bd a502 1abd 52fb 6b3d
00000280: 431e fc3c 0b5b cebd 87d9 d7b9 1c6c 7d3d
00000290: bc3f 0c3c 683c 003e 4f50 113c 1b08 ccbd
000002a0: eb7e 07be a068 383d cf46 09bd f4a5 16be
000002b0: 1ef3 54ba e609 653d 3686 ddbc 2610 4dbe
000002c0: 222d ebbc 63ee 8f3d cf69 63bb 1d83 b93c
000002d0: 1967 d7bc b09a 42bc d0d3 563d 00ba 273d
000002e0: 709d 8dbd 59f7 c5bd 8513 d1bd fdf3 9e3c
000002f0: 789f 163d 7ca0 70bd 6374 f13b e20e 1b3d
00000300: 0bcd 533d edac 23bc 4dba ca3c 438c 013d
00000310: 16b9 173d b611 29bd 0eb5 1fbd c047 a03d
00000320: b9aa 1d3d 0914 8b3d baa9 fc3c 2170 093d
00000330: 7a3b 313d 8235 6cbc 1c76 5d3d 7b13 70bd
00000340: 4c97 a83c 7730 10be aa9c 673d 3178 973d
00000350: d9f7 06bc 7b4f 1bbe 1e20 62bd f252 173b
00000360: 3d8d adbd eb88 2d3c d3ed 853c c64c 3c3d
00000370: 6824 09bd abff 003d bf84 173d 661e 3a3d
00000380: 5401 80bc d92e 9abd 8d9c 203c a5dd d33c
00000390: dc37 993a 4cf2 95bd 4b84 1ebd ee67 61bd
000003a0: 107d 8a3d 61ba 60bc 61f0 933d a689 87bc
000003b0: bcb6 f63c 1e81 323d c40e c1bb 6bde c2bc
000003c0: aa1c 5dbd af24 2a3e 5ac0 b7bd 1510 ebbd
000003d0: e1b1 cbbc 5801 2cbc 4d69 f6bb 0bd2 ad3c
000003e0: a90e 023d 3a8f 4cbd c576 f5bd 9546 483b
000003f0: 59ff bcbc 48f2 a03c db58 93bc bb26 be3c
0.042239144 -0.020303741 -0.022307552 -0.09597796 -0.09227672 -0.007638795 -0.058561347 0.03353674
-0.027766895 0.032704525 0.08643163 -0.0057087354 0.117131926 -0.031415336 -0.06655908 -0.03481201
-0.01903345 0.011679934 0.032503713 0.17444576 0.03803505 0.11415435 -0.010735962 0.10132155
-0.024262134 0.092190914 -0.064709 -0.093333915 -0.05872962 -0.00023298846 0.062487796 -0.08321437
-0.0091824485 0.034493744 0.028925695 -0.004943228 0.02555952 -0.016847253 0.03575662 -0.02623652
0.051532045 0.07367048 0.025005046 0.0786493 0.034922384 0.048800606 0.09538094 -0.01629457
0.018669687 0.06971587 0.053222302 -0.0042997906 0.055615135 0.14355873 -0.036899935 0.0023097782
0.007842407 0.02671811 0.122900955 -0.08842663 0.012759983 -0.012580332 0.12486499 0.1124597
0.048510075 0.12194172 -0.067157984 0.10308176 -0.02737167 -0.0061011882 -0.0029162418 0.040175408
0.06607251 0.05332355 -0.022667278 0.115912385 0.0580163 0.061328016 -0.03203335 0.06933515
0.008606527 0.03872778 -0.096463226 0.01538941 -0.099337734 0.06508536 -0.0060264436 -0.0401992
-0.013307379 0.048285645 0.0055159754 0.064535126 -0.088289164 0.06422599 0.013781246 0.011388599
-0.018847166 -0.030138863 0.05646586 0.12669362 -0.01145224 -0.016677704 0.021655858 -0.09452521
0.08578123 -0.020196013 0.0047867387 -0.029389357 -0.052190278 -0.031185012 0.0033873352 0.03757396
0.028087541 -0.04649163 0.06872728 0.018701328 0.030350305 -0.04832282 0.016893156 -0.122828856
-0.0036660547 0.071474984 0.011850253 0.026264228 -0.041835073 0.06618007 0.14029835 0.048164193
-0.037363797 -0.015238677 -0.10104317 -0.092986055 -0.027806716 -0.045059346 0.005289984 -0.020469056
0.050960094 0.11766766 -0.010705258 0.05742714 -0.08134261 0.021501986 0.019303888 0.011918942
0.053023104 -0.022940084 0.08887526 -0.0056832084 0.02710721 -0.026723016 0.008127759 -0.0080130035
0.057081077 0.036354546 0.021480879 -0.010277006 0.0928529 -0.10225983 -0.03760018 0.057612725
0.030776149 -0.10075959 -0.00041170066 0.06187068 0.008560117 0.12523043 0.008869245 -0.099624835
-0.13232009 0.045021653 -0.033514794 -0.14711744 -0.00081233855 0.055917643 -0.027041536 -0.20025691
-0.028708044 0.070278905 -0.0034700518 0.022645527 -0.026294278 -0.011877701 0.052448094 0.040948868
-0.069147944 -0.096663184 -0.10208801 0.019403452 0.036773175 -0.0587468 0.0073686107 0.03785599
0.051709216 -0.009989959 0.024747038 0.031627905 0.037041746 -0.041276656 -0.038991027 0.07826185
0.038492892 0.06790931 0.03084265 0.0335542 0.043269612 -0.014417054 0.054067716 -0.058612328
0.020579956 -0.14080988 0.05654589 0.073959716 -0.008237802 -0.15167038 -0.05520641 0.002309021
-0.08474205 0.010591726 0.016348755 0.045971654 -0.033481985 0.031493824 0.03699183 0.045439146
-0.015625633 -0.07528467 0.00980295 0.025862524 0.0011689621 -0.07321605 -0.038700383 -0.055030756
0.06762135 -0.013716311 0.07223583 -0.016545128 0.030116431 0.043580167 -0.005891653 -0.023787698
-0.053982414 0.16615556 -0.08972235 -0.11477677 -0.024865093 -0.010498367 -0.007519877 0.02121832
0.031752262 -0.04994128 -0.11985544 0.0030559648 -0.023070978 0.019646779 -0.017986706 0.023211828

conv.0.weight_u f4 [64]
00000000: 3952 c63d 3fcf 7d3e 8b21 233d 2a44 243e
00000010: d52b 91bd f1fb 153c 2d6d 70bd 96cb 8bbe
00000020: e943 c73d 2022 80bd 2c1e ccbd d4a6 7abd
00000030: eae6 bfbb 6d71 373e a434 fbbd e039 02be
00000040: 78cd 003d 041d 3cbe 5133 07bd 99a2 1d3e
00000050: a6fa 4cbd 01e7 3dbc a1d0 983c 4bd2 353e
00000060: 5ab7 adbc 39b1 0dbe a77a 26bd 477b 8abe
00000070: 18d8 673d 7316 8e3d 3804 d7be 7300 c2bc
00000080: 1479 20be 9411 ec3d 55b4 253d 8a39 b93d
00000090: 9b3d 1abe 6b63 6a3e 5730 efbc 8c89 6b3d
000000a0: ee20 26bd 3348 8a3e 87b3 3dbd fe8c 55bc
000000b0: 51eb d5bd 160a 3c3e 9b53 cebd 0427 0c3d
000000c0: dc22 9e3d f4ed a1bc 61c5 873c 1c5d afbd
000000d0: ecd5 dcbd 6180 b8bd 28c4 1d3c f404 6dbd
000000e0: b76a 703d f808 fabd f5e5 98bc ae2d 1b3d
000000f0: c1d1 fc3d 21d1 d13d 5186 dcbd de0b cb3c
0.096836515 0.2478609 0.03982691 0.16041628 -0.070884384 0.009154306 -0.05869787 -0.2730376
0.0972975 -0.06256509 -0.09966692 -0.061194256 -0.0058563845 0.17914362 -0.122659 -0.1271739
0.03144595 -0.18370444 -0.033007924 0.15394057 -0.050043724 -0.01159072 0.01865417 0.17756002
-0.021205593 -0.13837136 -0.040644314 -0.27047178 0.056602567 0.069378756 -0.41995406 -0.023681855
-0.15671188 0.1152679 0.04045518 0.09044178 -0.15062563 0.22889487 -0.029197855 0.05750422
-0.040558748 0.2700821 -0.04631379 -0.013034103 -0.10445274 0.18363222 -0.1007454 0.034216896
0.07721493 -0.019766785 0.01657361 -0.08562681 -0.1078299 -0.09008861 0.009629287 -0.05786605
0.05869552 -0.12208742 -0.01866434 0.03788536 0.12344695 0.10244966 -0.10767806 0.024785932

conv.0.weight_v f4 [576]
00000000: 2cf1 1abd 03c5 2dbd 6d89 4e3d 0003 c23d
00000010: 742c 0b3d 959e f8bc 990b 433b fc1a cf3c
00000020: ee74 8fbd ed00 ee3c f9f6 14be eb25 743d
00000030: 0051 283e 766c 993c e417 46bd 5fd6 803c
00000040: 9117 27bd 7bf4 0bbd 26e3 c53c 7ae4 273d
00000050: 09c1 d9bb eae0 ddbc a8ab 05bd c85a a93c
00000060: 081d 1a3d 4670 043d 97bc 803d 59fe f8bc
00000070: d3d4 5dbc 26c7 a638 fdfd 3bbc ec6c 44bc
00000080: 4f6b c43a 495c 593d 10f9 24bd a9b0 a63c
00000090: f928 88bc 50ca 60bd 211e a83c 4627 27bd
000000a0: 36b5 2c3d 2e5e f5bc fd46 7bbc b20e 3d3b
000000b0: 889d 433c d72f 14bd ee2d a83c 4de3 9c3b
000000c0: 66e1 79bd 5842 06bd db01 563b 8fba 45bb
000000d0: 99c8 ab3d 8914 2bbd e75a ae3d f16f 853d
000000e0: 2488 5dbd 79fa 1a3b ea56 153d a6b4 fabc
000000f0: a80c 89bd 69ed 05bd a424 3b3d 71a8 193d
00000100: 16da d33c 50e3 333d e556 9b3d cef3 2e3d
00000110: fad3 603d b8c8 563d 466e ffbc 887d 36bc
00000120: 1a96 8cbc 3d6a 92bd f3d0 b0bc 0a32 31bc
00000130: c9ec 2f3d 6476 f03b 142d 27bb 937f f1bc
00000140: 410c 913c c5a4 443c 5591 22bd d709 c73c
00000150: 0c16 61bc d98e 263d 37be 243d 8b3d 5a3d
00000160: 6d6f 46bc 4c44 31bd 976c 7abd c611 0a3d
00000170: 693b 813d 324d 003d 8fb3 8f3d e463 1f3d
00000180: 2c67 00bc 9615 d7ba 29be aabd 74fb f73b
00000190: fd67 26bd 54c0 d9bc 14f5 23bd 73d1 993c
000001a0: 1230 3d3d 0e7b 56bc b40d 493c dfae 82bd
000001b0: 6198 19bc 2f0f 99bc 71d3 813c e575 183c
000001c0: e029 273d ae9a 1bbd bcb2 6d3b 15ee 81bb
000001d0: 3cb3 53ba fd47 49bd 6e2a 82bd 7644 cb3c
000001e0: 2ccf c5bc a6ad b33b 79cf 56bc 3c38 d83c
000001f0: a017 a0bd 891c a2bc 4580 34bc cb6f 073d
00000200: 14f7 5abd 15b0 3dbb b89e 09bc 6135 7dbc
00000210: 53d6 a5bc e7ed 1b3c 1bd5 f7bc 8a07 9ebd
00000220: 9e32 84bc c473 30bb 5187 96bd 23e3 efbb
00000230: d38c 2dbd 20f6 24bd c423 e33c 565a 17bd
00000240: 4b05 7c3d 39f7 5137 5da0 483d 5414 d53c
00000250: 3243 113c fcf2 18bd d5b5 113c e53a a73d
00000260: 059b a03d 8922 f53c ed90 2b3d cb5e 38bb
00000270: 4d5b 003c f404 443d d643 da3c 71ab 1bbd
00000280: a932 cfbc 4d84 053d ded5 ccbb 5c80 a93d
00000290: 2d53 abbd c7f3 2f3d d384 9c3d b995 bdbd
000002a0: 7a5d a13c 12a2 86bc a416 ae3c ac02 ee3b
000002b0: b0be b53d 091a 9ebd 22d4 afbc 0d45 0bbc
000002c0: d7dc 44bc ae00 933d 2207 42bc 1176 bb3d
000002d0: f1ee d03c 6108 3dbd d5eb cdbb 6b1d 8c3d
000002e0: 4e06 c13c 552f c7bc 46e6 423d 0cc3 d23c
000002f0: 3ffc 94bb 41bd ebbb 618e 92bd 70df ba3c
00000300: 5c32 1b3d ebcf cabc ab23 0c3b c53c 64bc
00000310: 7926 2c3d 2506 61bd 348c 3dbd 9181 e1bc
00000320: 82f2 2cbc 1c36 0cbc 866e 0e3d 7633 2f3b
00000330: 7d51 90bd bbc7 4d3d d4ff 33bb 754d d5bc
00000340: 1d6d 7bbd 2ee5 52bb 55bc 663d 8545 193b
00000350: c271 8bbd 2a5d 14bb 0118 183c 1944 2bbc
00000360: 4074 9ebd 18de a3bc 8b8c 963d 548a 903c
00000370: 367a 173d 52c7 9bbc b012 91bc c6ef b0bc
00000380: ac76 78bc 490c fbbc 6f1a ce3c 6760 6fbd
00000390: e20c 33be e301 8a3c 83fa 733d 158f 363d
000003a0: 4ab1 533d 7ac8 403d 1b0b 093d 7fa5 b93c
000003b0: db8f 9b3d 4afa 673d 3cb9 f33a 895c d9bc
000003c0: 1530 3d3d 4d75 c53d 3f02 49bd 5238 89bd
000003d0: 2673 d23c 7b3c 853d 8087 da3c b8ae bc3c
000003e0: d9b3 aabc 662d 383d 2394 c13d c742 99bc
000003f0: 2c04 9e3c fb00 f63c 56f2 033c 25d5 2abc
-0.037827656 -0.042424213 0.05042403 0.094732285 0.03397794 -0.030349055 0.0029761551 0.025281422
-0.070047244 0.029053176 -0.14547338 0.059606474 0.16437149 0.018728476 -0.048362628 0.01572722
-0.04079396 -0.0341687 0.024156164 0.040989377 -0.006645326 -0.027084786 -0.032634407 0.02067317
0.037625343 0.032333635 0.06285971 -0.03039472 -0.013539511 7.952591e-05 -0.01147413 -0.01198886
0.0014985594 0.053066526 -0.040276587 0.02034791 -0.0166211 -0.05488044 0.02052218 -0.04080894
0.042165004 -0.029952135 -0.015336749 0.002884787 0.011939414 -0.036178436 0.020529713 0.0047878386
-0.061005972 -0.032778114 0.0032654915 -0.0030171012 0.0838787 -0.04176763 0.08513432 0.06515492
-0.054084912 0.0023647828 0.03645984 -0.030603718 -0.06691867 -0.032697115 0.04568924 0.037514154
0.025860827 0.043917954 0.07584933 0.04271298 0.054889657 0.052437514 -0.031180512 -0.011138327
-0.017161418 -0.071491696 -0.02158401 -0.010815153 0.042950425 0.007338332 -0.0025509046 -0.029479777
0.017706038 0.012002175 -0.03968938 0.024296684 -0.013738167 0.040663574 0.040220466 0.05328135
-0.012111527 -0.043278024 -0.061138716 0.033708356 0.0631016 0.03132362 0.0701667 0.038913622
-0.007837098 -0.0016409631 -0.083370514 0.0075678173 -0.040626515 -0.026580967 -0.040028647 0.018776631
0.04618842 -0.013090862 0.0122713335 -0.0638101 -0.009374709 -0.018683998 0.015847893 0.009305452
0.04081142 -0.03798931 0.0036269864 -0.003965149 -0.0008075719 -0.04914092 -0.06355749 0.024812918
-0.024146639 0.005483347 -0.013110989 0.026394002 -0.07817006 -0.019788997 -0.01101691 0.0330656
-0.05345829 -0.0028944064 -0.008399658 -0.015454621 -0.0202438 0.00951717 -0.030252984 -0.07716282
-0.016137417 -0.002692447 -0.07350028 -0.007320778 -0.04237063 -0.040273786 0.027727015 -0.036951385
0.061528485 1.2514932e-05 0.04898106 0.02601067 0.008866118 -0.037341103 0.00889345 0.0816553
0.07842068 0.029923694 0.04188626 -0.0028132673 0.007834268 0.047856286 0.026643675 -0.038005296
-0.025292711 0.032596875 -0.006251081 0.08276436 -0.08365474 0.042957094 0.07642522 -0.09257073
0.019697893 -0.016434703 0.02125103 0.007263502 0.088742614 -0.077198096 -0.021463457 -0.00850035
-0.012015543 0.07177864 -0.011842521 0.09153379 0.025504561 -0.04615057 -0.006284217 0.068415485
0.023562577 -0.024314562 0.047582887 0.025727771 -0.0045466716 -0.0071941917 -0.07156063 0.022811621
0.037889823 -0.024757346 0.0021383564 -0.013930504 0.042028878 -0.0549375 -0.046276286 -0.027527602
-0.010555865 -0.008557823 0.034773372 0.0026733554 -0.07046793 0.050239306 -0.0027465718 -0.026037911
-0.061383355 -0.0032180059 0.05633195 0.0023387384 -0.06808807 -0.0022638538 0.009283067 -0.010453247
-0.07737017 -0.020003363 0.07351025 0.017644085 0.036981784 -0.019015942 -0.017709106 -0.021598708
-0.015165012 -0.030645506 0.025159089 -0.058441546 -0.17485383 0.016846603 0.05956508 0.044570047
0.051682748 0.04706619 0.033457857 0.022661922 0.07595798 0.05663518 0.0018594633 -0.026533382
0.046188433 0.09641514 -0.049074408 -0.06700195 0.025689673 0.06505676 0.02667594 0.023032531
-0.020837711 0.04496517 0.09452083 -0.0187086 0.019289099 0.030029764 0.008053383 -0.010426794

conv.2.bias f4 [64]
00000000: ebd6 03bc ca9b 9bbc cb94 08bd eb5e 87bb
00000010: f856 01bb 8b52 a8bb de33 b9ba 6af4 e5bb
00000020: ff14 4dbc 6a0f 4d39 1f29 203c d3c6 5cbc
00000030: 2b71 fabb 748d d0bb 2cb6 71bc c589 2fbc
00000040: 4f67 21bc 58f4 6fbc 82e3 ebbb 5fa0 a9bb
00000050: 3eac 78bc f524 2cbc 2f3b 61bb 7c6e 5cbb
00000060: f88d 05bd ce51 d7bb 87e6 6fbc 4c6a c0bb
00000070: cfb0 0bbc 6dd3 05bb 4927 0ebd 0197 64bb
00000080: 0b85 21bc d3ac debc fd91 d6bb 9e96 25bd
00000090: 60ee d6bb 87a1 43bc af40 d4bb 1f24 97bc
000000a0: dd08 dfbb 574f babb fb82 03bc 8cf8 87bb
000000b0: 0798 0dbc b3bd f0bb 9cef c8ba b9fa a4bb
000000c0: 8039 7139 e768 1bbc 7296 93bc 407e 02bc
000000d0: 192e 8dbb 3ed9 d2bb c691 dbbb e7d1 f1bb
000000e0: 03ec 60bb f8cd 1abc 769b 02bc 4fd7 a6bb
000000f0: 5ad8 e3bc 7ed1 fdbb 73a5 1dbc 27fd 63bc
-0.008046846 -0.018995184 -0.033345025 -0.004131188 -0.0019735675 -0.005136793 -0.0014129838 -0.007017662
-0.012517213 0.00019556066 0.009775429 -0.013475138 -0.007642885 -0.006364519 -0.014752906 -0.010713999
-0.009851291 -0.014645658 -0.007198752 -0.0051765884 -0.0151777845 -0.010506858 -0.0034367552 -0.003363519
-0.032606095 -0.006571031 -0.014642364 -0.0058720466 -0.008526041 -0.002042021 -0.034705434 -0.0034880044
-0.00985838 -0.027182018 -0.006548165 -0.040426843 -0.0065591782 -0.011940367 -0.0064774374 -0.018449841
-0.0068064765 -0.0056857276 -0.008026834 -0.004149502 -0.008642203 -0.0073468327 -0.0015330198 -0.0050347713
0.00023004971 -0.00948546 -0.018016074 -0.007964671 -0.004308474 -0.0064345887 -0.006700727 -0.0073797586
-0.0034320361 -0.009448521 -0.007971635 -0.0050915848 -0.027813125 -0.0077459207 -0.009621966 -0.013915337

conv.2.weight_orig f4 [64, 64, 3, 3]
00000000: c5eb e5bb 27f1 393d 0608 51bd ca08 dcbd
00000010: 497d 26be 4433 9f3b f622 ee3b 2283 a5bd
00000020: 8d57 ddba f508 fabc 31f4 9cbc b9ad 08bc
00000030: faa8 273d dc8e a43c e477 e9bc 60c6 d8bb
00000040: b1b4 f3bc 2402 c0bd 156d 0cbd 1619 be3c
00000050: a12a 6bbd 28fa b6bc f8ae ecbc b519 3e3d
00000060: 63e8 e1bd 3327 12bd d746 903c 0813 16bd
00000070: a4a3 0b3b e4ce 9d3c 1c59 163c 1b02 b1bd
00000080: b2d8 8a3c a17a b83c 47e8 4b3d cb7c 9c3d
00000090: b1b7 553d 0cf8 3e3d 5790 d73c 8a29 cb3d
000000a0: e84b 20bc 7c92 95bd 8fe2 e23c f8fb 8cbc
000000b0: ecd5 403c 3998 11bd 511b 8abd 79fd 92bd
000000c0: 3a18 863c ad72 993b bd28 01bd c743 e63a
000000d0: 96cb 18bd 6616 2ebd fbee 8a3b 24f6 79bd
000000e0: baf9 a13b 5840 abbd 9530 77bc 3282 f8bc
000000f0: 24ea 9a3b 6fb5 41bd ebf2 3c3d c729 a8bd
00000100: 07c6 65bc 3eef eabc 81ec 55bc 29b9 d43d
00000110: e2ff 54bd 7734 93bd b4fe 2dbd 5be9 a53d
00000120: 7a56 b63c 5ba4 bdbc a9f9 2dbd 331c d2bc
00000130: 5b98 c03b aafa 553c 580d 96bd faa0 6bbc
00000140: 87ce 24bd 948a f1bc 208a b6bc d3e1 9f3c
00000150: 915d 243d 3c42 30bd 363a fabc a65e 45bc
00000160: 0b72 e2bd cf3c 33bd 5485 2abd b0b1 2cbd
00000170: 31ad 30bd 3b19 d3bd a852 063e 200e d73d
00000180: 1f64 febc 82f4 c2bc 5938 1e3d f107 373b
00000190: c167 a53d f6ef 21bc f959 3f3d 9bec 683b
000001a0: 14a2 8ebc bb52 623d 6d40 653d 5363 71bc
000001b0: c67c c73d b384 ae3d 6ae9 09bd da7d fbbc
000001c0: 5d04 c9ba 7a78 a4bd 6f13 d2bd 0060 42bc
000001d0: a9a3 a53b b032 85bd 988d 9b3c 3195 463d
000001e0: a819 b13c ad9a 39bc b7c4 4dbd 3869 23bc
000001f0: 71f0 76bd 8582 26bd 0cb5 04bd 30c1 0fbd
00000200: 5bd3 883c 17a7 ba3d 029b f53c a85b 6c3d
00000210: 1ad5 a83c c534 933d 5bed 773c 3145 17bb
00000220: 40d8 3dbe eb0c 14bc b399 b63d d16a 0dbd
00000230: f22e 323d 7bba a1bd 0fa4 0bbc 385a 71bc
00000240: 578c 8bbd 2e59 b9bc 9e9c 2f3d cf3e 0b3b
00000250: 8ca0 c93b 8faf 4f3d 5d6b 40bd 6f8d bd3d
00000260: 191f 04bd 72eb 0b3d d69c 593d 67df c1bd
00000270: 4b4b d0bc 00a7 c03c 0983 06bd 39ed be3d
00000280: 66f9 c6bc e2ff d3bc b86c 69bc 66bb 543d
00000290: d30e 84bc 4fe9 8d3d c959 6cbd f008 2ebd
000002a0: 092b b33c 3a79 2a3d 05ce a8bb d36a fb3d
000002b0: 8c96 5d3d aa2c 6abc 35d8 56bd bcfa 00bd
000002c0: 8b45 093c 24bd 44bb be4f d63d 6278 233d
000002d0: 28fe 013d 430c e83c 6594 a63d d8e0 c3bd
000002e0: ccda 04bd 18f2 7ebb 133a 96bd 58e3 94bd
000002f0: fa4f d5bd c22f d13c cfaf b03c 6257 32bd
00000300: 9d7d 1cbe fa1e dfbc c2c8 a23d 8ade e03c
00000310: 29cc 8e3d b1ed 47bd 7b24 82bc 919a 04be
00000320: 1e71 bcbc 0246 7fbd c14a 39bd 4a6d 433c
00000330: 36a0 4cbd 0a68 b13d cb73 443c 44ea 28bd
00000340: bee6 b8bc 322e e3bc 6494 c33d 3f93 01bb
00000350: 87e9 cc3b 02fa a5bd 1087 86bc cecb 403d
00000360: 7499 903d 6ec2 2b3c b28f 953c 8336 49bd
00000370: b9b7 bc3d c850 89bc d6cc cebc c00c 503d
00000380: 9db2 29bc 8fba 933c f911 a3bb 10d4 88bd
00000390: 060f b2bb 55d3 e4bb 9cf7 343d 9826 12bd
000003a0: c0b0 0dbd 7995 aebd ebc5 9dbb 03bc 0abd
000003b0: cb3e 733d bf73 b1bc 4520 0a3e c66a 98bc
000003c0: e861 3d3c b47e 7dbc 55fb 51bd 240b 853d
000003d0: 5fd3 cbbc 3890 51bd 29fd b4bc 823e 193d
000003e0: 7616 173e f330 743d 172d 783d f059 16be
000003f0: bfdc be3c 87d6 dd3c 8fa4 9a3d a0f7 dabc
-0.0070166313 0.045395996 -0.051033042 -0.10743864 -0.1625873 0.0048584063 0.0072673513 -0.08081652
-0.0016887054 -0.03052185 -0.019159408 -0.0083422 0.040932633 0.020087652 -0.028499551 -0.006615445
-0.029749246 -0.09375408 -0.034283716 0.023205321 -0.0574137 -0.02233608 -0.028892025 0.046411235
-0.110306524 -0.035681915 0.017611904 -0.036639243 0.0021307254 0.019263692 0.009176519 -0.0864298
0.016949032 0.022519412 0.049782064 0.0764099 0.052177135 0.046623275 0.026313944 0.09920032
-0.009783722 -0.0730333 0.027695922 -0.017209992 0.011769753 -0.03554556 -0.067434914 -0.07177252
0.016368974 0.00468286 -0.03153299 0.0017567807 -0.03730353 -0.04250183 0.0042399145 -0.061025754
0.0049431 -0.08361882 -0.015087266 -0.03033552 0.004727619 -0.04729217 0.046130102 -0.082110934
-0.014024264 -0.028678533 -0.013056875 0.10386879 -0.05200184 -0.07187741 -0.042479232 0.0810115
0.022258032 -0.02314966 -0.042474423 -0.025648212 0.005877537 0.013060251 -0.07326764 -0.0143816415
-0.040236022 -0.029485025 -0.02228266 0.019516861 0.040128294 -0.043031916 -0.030545335 -0.012046492
-0.11056908 -0.043759163 -0.041631058 -0.042161644 -0.04313392 -0.10307547 0.13117468 0.10500741
-0.0310536 -0.023798231 0.038627956 0.0027928317 0.0807643 -0.009883871 0.046716664 0.0035541418
-0.01741127 0.05525468 0.055969644 -0.014733153 0.097405955 0.08521404 -0.033669867 -0.03069966
-0.0015336383 -0.080307916 -0.10257613 -0.0118637085 0.00505491 -0.065038085 0.018988416 0.048482124
0.02161868 -0.0113283815 -0.05023643 -0.009973817 -0.060287897 -0.040651817 -0.032399222 -0.035096347
0.016702345 0.09113901 0.02998114 0.057704598 0.020609427 0.07187799 0.015132274 -0.0023082013
-0.18539524 -0.009036283 0.089160345 -0.034525696 0.0435018 -0.078968965 -0.008523001 -0.0147309825
-0.06813877 -0.022625532 0.04287397 0.0021247154 0.006153172 0.050704535 -0.04697739 0.09255492
-0.03225622 0.034160085 0.053128086 -0.09466439 -0.025426527 0.023517132 -0.03283981 0.093225904
-0.024288844 -0.02587885 -0.014247112 0.05193653 -0.01612035 0.06929266 -0.057702813 -0.042488992
0.021871107 0.041619517 -0.0051515126 0.122762345 0.05409865 -0.014292875 -0.052452285 -0.03148912
0.008378397 -0.0030019963 0.10464428 0.039909728 0.031736523 0.02832616 0.08133773 -0.0956437
-0.032435223 -0.0038901623 -0.073352955 -0.07269925 -0.10415645 0.025535468 0.021568207 -0.043540366
-0.15282293 -0.02723645 0.07948448 0.027449865 0.06972534 -0.048810665 -0.015886536 -0.12949587
-0.023003157 -0.062322624 -0.045237307 0.011927912 -0.049957477 0.08662422 0.011990498 -0.041239038
-0.022570964 -0.027731989 0.09549788 -0.0019771603 0.0062534246 -0.08104326 -0.016421825 0.047069363
0.07060519 0.010483367 0.018256996 -0.049124252 0.0921473 -0.016762152 -0.025244158 0.05079341
-0.010357526 0.018033294 -0.0049765077 -0.06681073 -0.00543392 -0.0069832006 0.04418145 -0.035681337
-0.03459239 -0.085246034 -0.0048148534 -0.03387071 0.059386056 -0.021661637 0.13488872 -0.018605601
0.011558987 -0.015472103 -0.05126508 0.064962655 -0.024881063 -0.05116293 -0.022093372 0.037413128
0.14754662 0.059616994 0.060589876 -0.14682746 0.02329862 0.027079834 0.07550918 -0.026729405

conv.2.weight_u f4 [64]
00000000: 6ec4 933d fdfa c83c 0ea0 79bc 8f2a 323d
00000010: be29 d33d b8c0 10bd a187 db3d 9a99 563d
00000020: e35c 383e aee9 b9bc 614b 8d3d dd99 77bd
00000030: 5e54 2abd a95f 7ebd f606 4abe 8c82 3f3e
00000040: a27e 1a3d 5c9e 133d 4f4f 03bd 9cd1 33bc
00000050: e43f a3bc 8f1b 6cbd a0b9 7bbd 66e4 42bd
00000060: 38b1 f33d 034f 833d 9334 05be 694a 3bbc
00000070: d655 f13c ef7c 833d ffd1 1abe 177c ccbd
00000080: f069 893c 1aa3 b1bd a7b5 48be d267 1bbd
00000090: 08dc e1bd e46c c5bd ba13 a53e 7741 5ebd
000000a0: e64b 083e 745d c2bd 3b4c 3cbd a494 16bd
000000b0: a38a 293e 88e8 063c 4fa7 1e3e 3823 8abd
000000c0: 9b33 13be 3f94 f63c 7457 bcbd 0568 f0be
000000d0: 50b2 e6bd 1509 de3d a5e7 86bd 8be5 36be
000000e0: eb52 08be 47bd 313e e561 513e cb9d 45be
000000f0: 0df9 c53d 6489 113e dc84 2a3e 55ee e0bc
0.072152 0.024533743 -0.015235914 0.04349762 0.10310696 -0.03534004 0.107192285 0.05239258
0.18004183 -0.022694435 0.06899143 -0.06044947 -0.041584365 -0.062102947 -0.19729218 0.18702143
0.037718423 0.036039695 -0.032058056 -0.010975268 -0.019927926 -0.05764347 -0.061456323 -0.0475811
0.11899036 0.06411555 -0.13008337 -0.011431315 0.029459875 0.064203136 -0.1511917 -0.09984606
0.016774148 -0.08673687 -0.19600545 -0.037940808 -0.11028296 -0.0963991 0.32241613 -0.05426165
0.13310203 -0.09490481 -0.045971137 -0.03676285 0.16556792 0.008234151 0.1549351 -0.06744999
-0.14375155 0.030099986 -0.09196368 -0.4695436 -0.11264479 0.10841576 -0.065871514 -0.17861001
-0.1331288 0.1735736 0.204475 -0.19298474 0.09666643 0.14212567 0.16652244 -0.027457396

conv.2.weight_v f4 [576]
00000000: 2984 93bc 1995 27bd 1772 c6bc f8fb 173d
00000010: 5d0b d03c 547f a23c c6c6 113d c24a 7ebd
00000020: 9901 8a3d c029 26bc eb28 3bbc 17f0 5ebb
00000030: 77c1 a83d 831c 4d3c 5503 9abc 1110 30bc
00000040: 9633 113d 6cad 19bc 8c37 2e3c b503 2fbd
00000050: 1cb2 66bd 750a 94bc adec 5cbd b46d 4c3d
00000060: 9682 5fbd 3040 b9bc e836 b93d 10b1 933d
00000070: 6675 70bc cbbc ce3b 4c02 d83d 868c 9bbd
00000080: 4e14 313d 4d12 343d 1fa1 413b b171 853c
00000090: a763 af3c f162 54ba e07e 0b3d 095a 453d
000000a0: b5d9 113b 158f 98bc aaba a6bd e4cd 3abd
000000b0: 498a 5ebd f5e7 dbbc a9e9 0d3d fc51 bcbb
000000c0: 3822 4c3d 8a33 1b3d 8d07 623d d7b6 af3c
000000d0: e460 8abd 70a3 833d 9913 373b 82c9 853c
000000e0: 205c 39bd a6d3 86bb 7a73 a1bd e70c 433d
000000f0: 3359 b63b 88eb c2bc b1b8 01bd a450 5abc
00000100: 8276 403d 7049 e7bc 7176 c8bc e428 0a3d
00000110: 0788 13bc c0f6 dfbc d437 51bc 122f 44bc
00000120: 48c9 f73c 1e47 193d bd2d 223d 4b54 3d3c
00000130: f8a3 543d d92c 193d b37a df3a 9d69 76bd
00000140: 6efb c83c d48b e33c 39f3 76bd 52cb a23c
00000150: 78d0 6a3d 01a1 65bb c1a0 61bc dd1e 10bd
00000160: 9b25 f9bc f1ba 533d 7736 393d d342 1bbd
00000170: a72d 863d 2745 f3bc b4af 4e3d d52a 7abd
00000180: 302f a0bd 68f9 5dbd 4b49 013d 5a67 79bd
00000190: 66bf ca3c 60c8 aabc f53a 8a3c 9f74 63bd
000001a0: f76a ad3c d2ca 483d 9511 1fbc 4b3b cc3c
000001b0: cff6 243d 3250 e73b aec8 bdbc cfb0 d6bc
000001c0: 5347 1cbd 6390 7fbd ee3d 67bd da58 4e39
000001d0: 9ee9 493d a876 31bd 10b5 efbc 14a7 973d
000001e0: 49bc 4c3d 15f9 813d 5b21 a7bc 2542 823b
000001f0: 8aa0 873c 75e3 273d 0251 9a3b ed80 593d
00000200: 74cf 64bc 4423 3bbc b089 9f3d 62c8 b0bc
00000210: c593 453d 096b ecbc 1b3b 7bbc c745 033c
00000220: 3493 fa3c 346b 25bd 3f67 7a3d 8467 0fbd
00000230: 2a6e 74bd 3239 43bd d298 1a3d c943 173c
00000240: 6990 563d d3c7 5b3d 9eab a83a f52c 4f3d
00000250: e725 e9bc db00 493d 5863 953c e060 733d
00000260: ba5f 93bc 869d 7f3d bb4a 573d c0a3 61bd
00000270: b050 d73d 287b 42bc d1b0 903d 68e8 573c
00000280: 14a9 a0bd 2b70 d63c 7a8a a53c a1ab 20bd
00000290: b45e 2cbd 295e 6a3c 4e19 11bd a047 cf3c
000002a0: 8b0a 803c b100 b9bb c956 febc aa04 6a3d
000002b0: 44f2 94bd 8d8a 6bbc aaf4 79bd 92c9 303d
000002c0: 8cd8 9abb 5eaf 44bd d66d 0a3d f457 4f3d
000002d0: 884e b1bd 827c 38bd 966f e9bc c187 e6ba
000002e0: 79a9 eabc 57e7 b83c 9e8b 94bc cba2 01be
000002f0: 944b 5dbd c6b5 cf3b 351e 293c 8dfc 4b3d
00000300: 0a88 8f3b 2cb5 763a b805 8c3c c0a2 2d3d
00000310: 4d94 903d 2af2 2e3c b5d7 593d e4e7 92bd
00000320: 6abe 143d f47c b23d 15f4 743d 36e4 363c
00000330: 0054 e33c ffa2 50bc ca70 a1bc 5f92 d0bc
00000340: c60f 213d b897 183a e545 a0bc a0f5 09bb
00000350: 3632 733d b44f ec3c 6acf d8bc 12c3 6a3c
00000360: 3377 15bd e3ca 203b 8a7e 8f3d e3df 593d
00000370: d3fd 933d 1236 c2bc 3860 d2bc 1a2b f43c
00000380: 86c2 ed3c f536 973b ae50 85bc d1ca 19bc
00000390: adc4 b2bd b0ef 933c b710 623b 086e 99bc
000003a0: 3887 953d f297 25bd dfd9 073d cd0a 8b3d
000003b0: f7a2 2d3d 1920 12bc cffb 263d 99c3 b83c
000003c0: 5d65 263d 30ef 90bc bf6b 06bd cdb6 13bd
000003d0: e247 b43d e9e4 923b b559 5bbd d3da 1dbd
000003e0: e3d9 f0bc 7557 6f3c 7e79 d33c 20a3 b6bc
000003f0: ca0c 15bc d309 ca3c 10d0 3dbc 9b7f febc
-0.018007355 -0.040913675 -0.024224324 0.03710553 0.025396043 0.019836105 0.035589956 -0.062083013
0.06738586 -0.01014179 -0.01142333 -0.0034017616 0.082400255 0.012519005 -0.018800417 -0.010746018
0.035449587 -0.009379726 0.010633361 -0.042728145 -0.056322202 -0.018071393 -0.05393665 0.04990931
-0.054567896 -0.022613615 0.09043676 0.07211506 -0.0146764275 0.006309127 0.10547313 -0.07595162
0.043232255 0.043962765 0.0029545499 0.016289564 0.021409823 -0.00081019016 0.034056544 0.048181567
0.0022255008 -0.018622914 -0.08141072 -0.04560651 -0.054331098 -0.026844004 0.034646664 -0.005747078
0.04983732 0.03789095 0.055182982 0.02144949 -0.06756762 0.064276576 0.0027935265 0.016331438
-0.045253873 -0.004114586 -0.078833535 0.047619727 0.0055648326 -0.02379395 -0.031670276 -0.01332489
0.046988018 -0.02823326 -0.02447054 0.033730403 -0.009004599 -0.02733934 -0.012769658 -0.011974113
0.030247346 0.03742134 0.0395944 0.011555742 0.051914185 0.037396286 0.0017050117 -0.060159314
0.024533954 0.027776636 -0.06029055 0.019872341 0.057327718 -0.0035038593 -0.013771237 -0.035185684
-0.03041344 0.051691953 0.045217957 -0.037905525 0.06551676 -0.02969606 0.050460532 -0.061076004
-0.078215 -0.05419293 0.03156404 -0.06088958 0.024749469 -0.0208475 0.016873816 -0.05553114
0.021169169 0.04902155 -0.009708782 0.024930617 0.040274438 0.0070591206 -0.02316698 -0.026207356
-0.038153958 -0.062393557 -0.056455545 0.0001967879 0.04929506 -0.04332605 -0.029261142 0.074049145
0.04998425 0.06346337 -0.020401647 0.00397517 0.016556043 0.040988404 0.004709364 0.05310147
-0.013965476 -0.011421982 0.07789934 -0.021579925 0.048236627 -0.028859632 -0.015333916 0.008012242
0.03058777 -0.04038544 0.06113362 -0.03501083 -0.059675373 -0.047661968 0.037743397 0.00923247
0.052383814 0.053657364 0.0012868529 0.050579984 -0.028460456 0.04907308 0.018235847 0.05941856
-0.017989982 0.062406085 0.052561503 -0.055087805 0.10513437 -0.011870183 0.07064975 0.013177969
-0.07844749 0.026176533 0.020207632 -0.039226178 -0.042082503 0.014304676 -0.035424523 0.025302708
0.015630027 -0.0056458344 -0.031047242 0.057133354 -0.07272771 -0.014376295 -0.061024345 0.043160982
-0.0047255214 -0.048018806 0.033796154 0.050620988 -0.08657557 -0.045040615 -0.028495591 -0.0017588065
-0.028645264 0.022571249 -0.01813298 -0.12659757 -0.054027155 0.0063388078 0.010322143 0.049801398
0.004380231 0.0009411152 0.01709257 0.04239154 0.07059536 0.010677854 0.05318423 -0.07173136
0.036314406 0.08715239 0.059803087 0.011162808 0.027750015 -0.012734174 -0.019707102 -0.02546042
0.039321683 0.00058209477 -0.019564578 -0.0021050945 0.059374057 0.0288466 -0.02646609 0.014328735
-0.03649063 0.0024534992 0.07006557 0.05319203 0.072261475 -0.023707423 -0.025680646 0.029805709
0.02902342 0.0046147057 -0.016273823 -0.009386734 -0.08728919 0.018058628 0.0034494826 -0.018729225
0.073011816 -0.04042811 0.033166762 0.067891695 0.042391744 -0.0089187855 0.040767487 0.022554206
0.04062401 -0.017692178 -0.0328176 -0.036063004 0.08802773 0.0044828546 -0.05355235 -0.038538765
-0.029400771 0.014608254 0.025814768 -0.022294581 -0.009097287 0.024662888 -0.0115852505 -0.031066706

w.M2MM f4 [1, 64, 32, 32]
00000000: 62ca 813f 47cf 823f dc90 803f b04f 803f
00000010: 23e4 7e3f f981 763f 9a75 803f 74ba 753f
00000020: 0fdd 813f 20da 843f d46a 7f3f beb9 7f3f
00000030: 2970 813f 1d11 813f 3303 7a3f 3644 793f
00000040: b9a0 7d3f a7fe 7d3f b970 793f cc2e 783f
00000050: d491 7b3f 42f9 7c3f f930 783f 3998 803f
00000060: 0ab2 7b3f 0942 803f 4164 833f e98f 763f
00000070: cc10 783f 4cf9 7f3f b64a 803f 7f95 823f
00000080: 182b 843f 74ad 7f3f 095d 813f f3e7 7f3f
00000090: 252b 803f f802 7f3f ac63 803f 91a0 803f
000000a0: 5caf 7e3f 7503 7e3f 6fcb 7f3f adf0 7d3f
000000b0: 8bf0 7e3f febe 7e3f 4ffb 7d3f 9efd 7d3f
000000c0: ff5c 7b3f 3f4b 7d3f 5c1e 7e3f a287 7e3f
000000d0: ff29 7e3f c302 7e3f 9d13 803f 383b 803f
000000e0: b148 7f3f 65f5 7d3f a1d6 7e3f 8064 803f
000000f0: 92f8 7b3f adcc 763f 0191 7d3f 0ec9 823f
00000100: be68 7f3f 0454 793f f1ed 7f3f 36a3 7d3f
00000110: e99a 7b3f b52f 7d3f 6deb 7d3f 88df 803f
00000120: 4b7f 823f ba27 803f eb05 7e3f a666 7b3f
00000130: 78a8 7d3f 3e4e 7d3f e63e 7e3f 4c0b 7f3f
00000140: e330 7f3f 5b5d 7c3f 3f78 7d3f 786f 7d3f
00000150: e55d 803f 6c6d 7d3f 474b 7f3f 6e83 803f
00000160: 12a4 803f ebf3 7c3f bcc9 7e3f b0ce 813f
00000170: 4370 7b3f 1102 803f c208 7f3f c2db 7c3f
00000180: 69c1 7e3f 9252 7a3f 1e4c 803f 2321 803f
00000190: c1b0 803f 7245 7e3f d0a7 803f 11a5 7c3f
000001a0: ecca 7e3f 12bf 803f 2785 7b3f f432 7d3f
000001b0: e7d1 803f 9ea8 7f3f 8644 7d3f 0a09 803f
000001c0: 2627 813f f222 803f a00f 823f 379c 803f
000001d0: 2e6e 803f d81f 803f ee73 803f ce7d 803f
000001e0: f19c 833f 2d53 7f3f 2a48 7b3f e724 793f
000001f0: 666f 7b3f 9b9c 803f 65b9 7f3f 1333 783f
00000200: 5020 803f 090d 803f 7c98 7d3f b2bd 813f
00000210: db1e 803f ce28 7f3f 4cf4 7d3f 8233 803f
00000220: 36cc 7f3f 14a6 7d3f 81db 7f3f 60f5 7f3f
00000230: 6487 803f 62b7 803f e0b1 7f3f bc51 7f3f
00000240: 6612 7e3f 7e53 7e3f d71e 7f3f 1249 803f
00000250: 5c01 7e3f 08f3 7e3f d3bd 803f 8004 803f
00000260: fa51 803f 9d39 7a3f bd0c 7e3f c023 803f
00000270: 80ec 7c3f d4e9 803f d46f 7d3f 19e5 7e3f
00000280: 3896 7e3f 58b6 803f 02f7 7f3f ebcf 7c3f
00000290: 3ecd 7f3f e5d2 7e3f 18ea 7c3f 02b6 7f3f
000002a0: d3c0 7b3f b4b1 7a3f 3eea 7c3f cb21 803f
000002b0: b93c 7a3f 5f0a 7e3f 7fa2 7e3f 7d2e 7f3f
000002c0: 2df0 7c3f 6214 7f3f 3287 7c3f dace 7f3f
000002d0: 0a81 803f 435e 7d3f 7890 7d3f 150e 803f
000002e0: 8a18 803f b3c6 7d3f d8da 763f ca09 803f
000002f0: 580f 7e3f 823c 7f3f 3cb5 7f3f d90e 7e3f
00000300: 3c33 803f d143 813f a015 7c3f 778d 803f
00000310: 4e1d 7e3f b7e6 7f3f 0998 7e3f a919 7e3f
00000320: 053a 7e3f 4ff7 7d3f 4ff9 7b3f 0b69 7f3f
00000330: ca34 7f3f 05b9 7f3f 6cc4 7e3f 7f57 7c3f
00000340: 271c 7d3f 2991 7d3f ed3a 7d3f 947a 7f3f
00000350: a904 7e3f 6eed 7e3f aad7 7e3f 6c62 7f3f
00000360: c04d 803f d5bf 7e3f 549b 793f 3e72 7f3f
00000370: 507c 7d3f 6e15 7f3f a581 7d3f 4793 803f
00000380: b082 803f 9184 803f 46ff 7a3f 9647 7d3f
00000390: 97c0 7f3f 71c6 7f3f 32ce 7e3f 77fa 7f3f
000003a0: c512 803f 73fe 7e3f c47e 803f 7da1 7f3f
000003b0: 11b5 7e3f 706c 7f3f efc7 793f 17d7 7b3f
000003c0: eb98 7e3f 2eed 7e3f c68d 7e3f e237 7e3f
000003d0: d7b6 7d3f 6763 7f3f 2027 7c3f 348d 7f3f
000003e0: 67d2 7e3f 467b 7e3f d2f6 7d3f b4af 803f
000003f0: b58b 803f bffd 7e3f 339a 7e3f f168 773f
1.0139887 1.0219506 1.0044208 1.0024319 0.9956686 0.9629207 1.0035889 0.9598763
1.0145587 1.0379066 0.9977238 0.99892795 1.0112354 1.0083348 0.9766113 0.97369707
0.9907337 0.99216694 0.97437626 0.96946406 0.9826939 0.9881784 0.96949726 1.0046455
0.9831854 1.0020152 1.026497 0.9631334 0.9690063 0.9998977 1.00228 1.0201873
1.0325651 0.99874043 1.0106517 0.999633 1.0013167 0.99613905 1.0030417 1.0049001
0.9948633 0.99224025 0.9991979 0.9919537 0.9958579 0.9951018 0.9921159 0.99215114
0.98188776 0.9894294 0.99265075 0.9942571 0.9928283 0.99222964 1.0005985 1.0018072
0.99720293 0.9920257 0.9954625 1.003067 0.98426163 0.9640606 0.99049383 1.0217607
0.997692 0.9739382 0.99972445 0.99077165 0.9828325 0.9890092 0.99187356 1.0068216
1.0195097 1.0012124 0.9922778 0.98203504 0.9908519 0.98947513 0.99314725 0.9962661
0.9968397 0.9857995 0.99011606 0.9899821 1.0028654 0.9899509 0.9972424 1.0040109
1.005007 0.9880969 0.9952657 1.0141201 0.9821817 1.0000631 0.9962274 0.98772824
0.9951387 0.9778224 1.0023229 1.0010113 1.0053941 0.99324715 1.0051212 0.9868937
0.99528384 1.005831 0.9825005 0.98905873 1.0064057 0.99866664 0.98932683 1.0002759
1.0090072 1.0010664 1.0161018 1.0047673 1.0033624 1.0009718 1.0035379 1.0038393
1.028227 0.9973629 0.9815699 0.97321934 0.98216856 1.0047792 0.99892265 0.96952933
1.0009861 1.0003978 0.990608 1.0136015 1.0009416 0.9967164 0.9920089 1.0015719
0.99920976 0.9908154 0.9994431 0.9998379 1.0041318 1.0055964 0.9988079 0.9973409
0.99246824 0.9934615 0.9965643 1.0022299 0.99220824 0.99589586 1.005793 1.0001373
1.0025017 0.9774416 0.9923819 1.001091 0.9879837 1.0071359 0.9899876 0.99568325
0.99447966 1.0055647 0.9998628 0.9875476 0.9992255 0.9954055 0.987947 0.99887097
0.983411 0.97927403 0.98794925 1.0010313 0.97748905 0.99234575 0.994667 0.9968031
0.9880398 0.99640477 0.9864379 0.99925005 1.003938 0.98971957 0.99048567 1.0004297
1.0007489 0.99131316 0.9642768 1.0002987 0.9924216 0.997017 0.99885917 0.99241406
1.0015635 1.0098821 0.984705 1.0043172 0.99263465 0.9996142 0.9945074 0.99257904
0.9930728 0.9920549 0.9842729 0.9976966 0.99689925 0.9989169 0.99518466 0.9857101
0.9887108 0.9904962 0.9891804 0.99796414 0.9922586 0.9958104 0.9954783 0.99759555
1.0023727 0.9951146 0.97502637 0.99783695 0.9901781 0.99642074 0.99025947 1.0044945
1.0039883 1.0040456 0.98045766 0.98937356 0.99903244 0.9991217 0.9953338 0.99991554
1.0005728 0.9960701 1.0038686 0.99855787 0.99495035 0.9977484 0.975707 0.98375076
0.99452084 0.9958066 0.9943508 0.9930402 0.99107116 0.9976105 0.984972 0.99824834
0.995398 0.9940685 0.9920474 1.005362 1.0042635 0.99605936 0.9945404 0.966445

w.MM2M f4 [1, 64, 32, 32]
00000000: 2afb 7d3f 94a1 853f 78f6 863f 45d2 813f
00000010: 3c56 803f ca7c 793f 114b 7d3f b585 6e3f
00000020: 4044 743f 0993 823f 11f9 763f 42a9 783f
00000030: a024 7c3f 18b2 7c3f 0b94 743f f998 7a3f
00000040: 16df 773f f200 793f 404a 743f 476c 743f
00000050: f38d 773f 2569 753f be28 743f 9b9f 7b3f
00000060: 07c8 743f f7ea 763f 1995 7c3f fe3d 7f3f
00000070: a94f 733f 2a87 7c3f c772 7e3f 165e 8c3f
00000080: c1bd 853f e9f5 7a3f a63e 833f 8c46 763f
00000090: f54d 813f 6055 803f b028 813f 5a69 843f
000000a0: 7afb 7a3f 8001 7b3f 3168 823f 11bf 7a3f
000000b0: 1adc 783f a581 7d3f 411b 7f3f 724f 783f
000000c0: 6d2e 7a3f 4904 7a3f eb92 7c3f 25fd 793f
000000d0: 419b 7e3f dbef 7f3f 1546 813f a2fa 813f
000000e0: 147c 813f 3227 793f 2fdf 7a3f 862d 813f
000000f0: ef4e 693f fb4b 7a3f c854 7c3f 77c1 883f
00000100: 157e 7e3f f0f0 773f 55e1 823f a01b 7e3f
00000110: 7883 7e3f 1927 7f3f dee1 7a3f 2064 823f
00000120: 032c 843f 7555 803f 89bf 7c3f 6096 7d3f
00000130: 3cc6 803f 9ecc 7a3f 1287 7c3f 56c8 793f
00000140: da67 7b3f ffcb 7f3f 4de9 7e3f 6d63 7d3f
00000150: 1ec8 813f 6c6c 7f3f 479c 7f3f 5d76 803f
00000160: 3e74 853f 48cb 7b3f 3301 7f3f e0d3 823f
00000170: f116 803f 1763 7e3f fd76 7d3f b4e7 803f
00000180: e75b 793f cd49 783f 984e 803f c5f1 7f3f
00000190: 67f4 803f d0b5 743f 08d2 803f cdc4 823f
000001a0: 8285 7f3f 106c 7b3f a5e1 783f 2f75 7e3f
000001b0: dcb9 7f3f 9073 803f cf07 823f dfc7 7f3f
000001c0: 8839 813f c62b 803f 4f61 803f 4a6b 803f
000001d0: 874d 803f d4e1 7b3f 1b26 7d3f eb2c 7f3f
000001e0: 320b 803f 6e8b 7c3f b212 7a3f eced 793f
000001f0: 5012 7e3f c4d1 873f cbda 7e3f e4e8 703f
00000200: 0acb 7e3f b36b 7c3f b3cd 783f 95b9 803f
00000210: e856 7f3f e658 7d3f c1fc 7c3f 80db 823f
00000220: 5475 7f3f 65b8 7a3f d8db 7d3f 3fd1 7f3f
00000230: 8fd9 7f3f 8aca 7f3f 3261 823f 969f 7e3f
00000240: 11ae 7d3f 1eac 7d3f ebd4 7c3f ddc7 763f
00000250: 3357 7e3f 62e7 7a3f e27f 7c3f 7086 7e3f
00000260: 0ff1 7d3f d216 773f 6776 783f b005 813f
00000270: 375a 7a3f 56a5 813f adc4 7f3f 7da1 7c3f
00000280: 8960 783f ad74 813f 0aae 803f 847a 7f3f
00000290: 5d4d 7d3f 3294 773f f53a 7d3f a6fd 803f
000002a0: 7462 7f3f 9070 7e3f 8cdd 7c3f 803b 803f
000002b0: 9f5f 803f 710b 813f b599 803f 3b27 833f
000002c0: 7851 813f 3bad 823f 3960 813f 769f 803f
000002d0: c663 803f ee59 803f b490 7f3f ffcc 813f
000002e0: 7a11 813f 2684 7b3f 5ef7 783f d6c4 813f
000002f0: 65ce 7d3f 585e 7e3f 72c4 7d3f 575d 843f
00000300: fa5c 7e3f 3b36 833f 7166 7d3f f3b7 813f
00000310: 7343 7c3f dfd0 7f3f 18ac 7b3f 7a7e 7b3f
00000320: e006 7d3f 8a0b 803f c7b8 7e3f f499 7e3f
00000330: 042c 813f a457 823f 9781 833f 2e29 803f
00000340: 753b 7f3f 7854 7f3f 447f 7f3f a522 803f
00000350: de9f 803f 92a4 7f3f e690 803f d0e5 803f
00000360: 5690 803f d784 803f 7bfa 773f 2b0a 803f
00000370: 5d0d 7e3f 0ee0 7e3f 1c84 7d3f e4fd 7f3f
00000380: 01e7 7c3f 38d6 803f 601e 743f 06f0 7c3f
00000390: 8bb4 7d3f 3d50 7c3f 57cb 7a3f 612b 7e3f
000003a0: 239f 7f3f 3ae4 7c3f 80f9 803f d210 7f3f
000003b0: d1e7 823f 03cf 813f 824b 803f 8184 823f
000003c0: a8a4 7e3f 53f3 803f 256e 7d3f 5fe7 7f3f
000003d0: e30c 813f 7ad2 7f3f b003 803f 54e6 7f3f
000003e0: 8d69 803f 1ea3 7e3f 276e 7c3f ccd6 803f
000003f0: c514 7c3f 2c42 7e3f 8df6 7f3f 6547 7e3f
0.9921137 1.0439935 1.0543966 1.0142294 1.0026317 0.9745604 0.9894267 0.9317277
0.9541664 1.0201122 0.96473795 0.97133267 0.98493385 0.9870925 0.95538396 0.9788967
0.9682478 0.9726707 0.95425797 0.9547772 0.9670097 0.9586356 0.9537467 0.98290414
0.9561772 0.9645228 0.98665005 0.9970397 0.95043427 0.98643744 0.99393886 1.0966213
1.0448533 0.9803148 1.0253494 0.96201396 1.0101916 1.0026054 1.0090542 1.0344651
0.9803997 0.98049164 1.0188047 0.97947794 0.9721085 0.99025947 0.9965096 0.96996224
0.9772709 0.9766279 0.9866168 0.9765189 0.9945565 0.99975365 1.0099512 1.0154612
1.0115991 0.9732543 0.979968 1.0092018 0.9113607 0.97772187 0.98566866 1.0684041
0.99411136 0.96852016 1.0225016 0.992609 0.99419355 0.99669033 0.98000896 1.0186806
1.0325931 1.002608 0.9872976 0.9905758 1.0060496 0.9796847 0.986436 0.97571313
0.9820534 0.9992065 0.9957474 0.98979837 1.0139196 0.99774814 0.99847835 1.0036122
1.0426099 0.9835706 0.99611205 1.0220909 1.0007001 0.9936995 0.99009687 1.007071
0.97405857 0.9698761 1.0023985 0.99978286 1.0074586 0.95589924 1.0064096 1.0216309
0.9981309 0.98211765 0.97219306 0.9939756 0.99892974 1.0035267 1.0158633 0.99914354
1.0095682 1.0013359 1.0029696 1.0032742 1.002366 0.9839146 0.9888627 0.99677914
1.0003417 0.9865025 0.97684777 0.97628665 0.9924669 1.061089 0.995526 0.9410536
0.99528563 0.98601836 0.9718887 1.0056635 0.99741983 0.98963773 0.9882317 1.0223236
0.99788404 0.97937614 0.9916358 0.9992866 0.99941343 0.99918425 1.0185912 0.9946226
0.9909373 0.99090755 0.9876239 0.9639872 0.99351805 0.9800931 0.98632634 0.99423885
0.9919595 0.96519196 0.9705567 1.0079861 0.97793907 1.0128582 0.9990948 0.9868391
0.970223 1.0113732 1.0053113 0.9979632 0.9894617 0.96710503 0.98918086 1.0077407
0.997596 0.99390507 0.98775554 1.0018158 1.0029181 1.0081617 1.0046908 1.0246347
1.0102987 1.0209116 1.010749 1.0048664 1.0030448 1.0027444 0.99830174 1.0140685
1.0083458 0.9824852 0.9725245 1.0138195 0.9914306 0.9936271 0.99127877 1.0340985
0.9936062 1.0250925 0.9898444 1.0134262 0.9854042 0.99928087 0.9830947 0.9823986
0.98838615 1.0003521 0.995007 0.99453664 1.0091558 1.0182996 1.0273923 1.0012567
0.997001 0.99738264 0.99803567 1.0010573 1.0048788 0.9986049 1.004422 1.0070133
1.0044048 1.004054 0.9686658 1.0003103 0.9923914 0.9956063 0.9902971 0.9999678
0.98789984 1.0065374 0.9535885 0.98803747 0.9910361 0.98559934 0.9796652 0.9928494
0.998522 0.98785746 1.0076141 0.9963504 1.0226995 1.01413 1.0023043 1.0196687
0.99469995 1.0074257 0.9899619 0.9996242 1.0082058 0.99930537 1.0001125 0.9996083
1.0032212 0.9946765 0.9860558 1.0065551 0.9846919 0.9931972 0.9998558 0.9932769
