checkpoint/clf/experiment_name/400/netE.pth (torch, 241318 bytes, 33 tensors)

model.0.weight f4 [32, 3, 4, 4]
0	0xbe194d01	-0.14970781
1	0x3d678b59	0.056529377
2	0xbd3d8762	-0.04627169
3	0x3c8de695	0.017321864
4	0xbdcba07d	-0.0994272
5	0x3cfd7302	0.030938629
6	0xbcde0d3a	-0.027105916
7	0x3a473613	0.0007599305
8	0x3cc51ffb	0.024063101
9	0x3c935264	0.017983623
10	0x3d9d6e85	0.076870956
11	0xbd368b6a	-0.04456655
12	0xbd4e110c	-0.050309226
13	0xbd23697e	-0.039895527
14	0xbcd8d259	-0.02646749
15	0x3cd003da	0.025392462
16	0x3d3211ac	0.043473884
17	0xbdab2ca4	-0.08358124
18	0x3dedd20d	0.1161233
19	0x3d2c6884	0.04209186
20	0xbd6954d7	-0.056965675
21	0xbd3f7e60	-0.04675138
22	0xbe2c2949	-0.16812624
23	0xbd9e2cb2	-0.07723369
24	0xbc29062e	-0.010316415
25	0x3d5dd8a7	0.054161694
26	0x3d92a307	0.07160001
27	0x3e013949	0.12619509
28	0xbc5f6007	-0.013633735
29	0x3d3f6dea	0.04673568
30	0xbced8ea2	-0.028998677
31	0xbc7e09ea	-0.015505293
32	0xbdc9d6b6	-0.09855406
33	0xbdd2f104	-0.10299876
34	0xbcde5204	-0.027138717
35	0xbab5290f	-0.001382144
36	0xbe26ee10	-0.16301751
37	0xbc960f51	-0.01831785
38	0x3d3700a5	0.04467835
39	0xbccb68c0	-0.024830222
40	0xbd3d5d5a	-0.046231605
41	0x3d3497b7	0.04409
42	0x3c82f2a8	0.015984848
43	0xbd3ccbad	-0.046092678
44	0xbd30289c	-0.043007478
45	0xbd652e9e	-0.05595266
46	0xbd4a826e	-0.049440794
47	0xbd8a8505	-0.06763653
48	0xbd2dd4b7	-0.04243919
49	0x3d76ca5d	0.060251582
50	0x3d9c190d	0.076219656
51	0xbda6971c	-0.081342906
52	0x3dfd7b5d	0.12377045
53	0x3cc9a99d	0.02461701
54	0x3ca6e75c	0.020373993
55	0x3d139ea8	0.03603998
56	0x3d8c738a	0.06857975
57	0xbca2d87d	-0.01987862
58	0xbd649442	-0.055805452
59	0x3d17c565	0.037053484
60	0xbbaad8e7	-0.005213845
61	0x3d4ced00	0.05003071
62	0x3d9c9720	0.07646012
63	0x3c27348b	0.010205398
64	0xbdbcd7cf	-0.0922085
65	0x3c2b6c96	0.010462901
66	0xbd8fdc53	-0.070244454
67	0x3cdf138e	0.027231004
68	0xbd7604c7	-0.06006315
69	0xbacb47d6	-0.001550908
70	0x3c83e75e	0.016101535
71	0xbd8163bb	-0.0631785
72	0x3d9027a1	0.070388086
73	0x3c6159f7	0.013754359
74	0xbc8daebf	-0.01729524
75	0x3ceca7ef	0.02888867
76	0xbd537983	-0.051629554
77	0xbd983f87	-0.07433992
78	0xbd4cf51e	-0.05003845
79	0x3c501c9c	0.0127021335
80	0xbddc12b3	-0.10745754
81	0xbd7e8bc3	-0.062145006
82	0xbdb3a79e	-0.08772205
83	0x3cbf9c3e	0.023389932
84	0x3d87d352	0.06632103
85	0xbd8ab241	-0.067722805
86	0x3e23416e	0.15942928
87	0x3d8b8c6f	0.06813895
88	0x3cca7a97	0.024716659
89	0xbd87d3b1	-0.06632174
90	0xbcf7be4a	-0.030242104
91	0x3d0ea16d	0.034821916
92	0x3df260a2	0.118348375
93	0x3d840d59	0.06447858
94	0x3d937221	0.07199503
95	0xbba99ce1	-0.005176172
96	0xbd84212d	-0.0645164
97	0x3d5cf25d	0.053942073
98	0x3dd22954	0.10261789
99	0xbde882df	-0.11353087
100	0xbc48e0bb	-0.012260611
101	0x3d2bea97	0.04197177
102	0xbc37e756	-0.011224588
103	0x3dab5408	0.08365637
104	0xbd827616	-0.06370179
105	0xbc860806	-0.016361248
106	0xbd48cff2	-0.049026437
107	0xbe1d9e37	-0.15392385
108	0x3d87dc20	0.066337824
109	0xbdb76902	-0.089555755
110	0x3d772dee	0.060346536
111	0x3c3be896	0.011469027
112	0xbdc43e20	-0.09582162
113	0x3bd0d0cc	0.006372547
114	0x3db95426	0.09049253
115	0x3db3fb2d	0.08788142
116	0x3cb9defa	0.022689331
117	0x3dca1241	0.09866763
118	0x3bcc0044	0.0062256176
119	0x3d1f47aa	0.038886704
120	0xbc856426	-0.016283106
121	0x3d47eda5	0.04881062
122	0xbd5f4bb5	-0.05451556
123	0x3d335c42	0.043789156
124	0xbda919ef	-0.082568996
125	0xbc0c1956	-0.008550962
126	0x3c529af1	0.012854324
127	0x3c361817	0.011114142
128	0x3d89f867	0.06736832
129	0xbd1e0f2b	-0.038588684
130	0x3c17048b	0.009217392
131	0xbb15b61d	-0.0022844144
132	0xbcd30e1a	-0.02576356
133	0x3d814f59	0.063139625
134	0xbdb5f7ca	-0.08885153
135	0x3d9488ed	0.07252679
136	0x3c9416ff	0.018077372
137	0xbd3693de	-0.04457461
138	0x3c1a0a2c	0.009401839
139	0x3de27339	0.11057133
140	0x3be5cbfb	0.0070128418
141	0xbd1d7f5c	-0.038451537
142	0xbd734b92	-0.05939824
143	0x3d4bc4cb	0.049748223
144	0x3d7fdf48	0.062468797
145	0x3c6b92df	0.0143782785
146	0xbda2a460	-0.07941508
147	0xbc86fc47	-0.016477717
148	0xbe0a58a5	-0.13510378
149	0xbd9ff29c	-0.07809946
150	0xbd36e34e	-0.04465037
151	0x39a11db6	0.0003073045
152	0xbd19ae44	-0.03751971
153	0x3d8cf39f	0.068824045
154	0xbd793874	-0.060844854
155	0x3d2b8bcc	0.041881368
156	0xbd8028cf	-0.062577836
157	0xbcb1f3f4	-0.021722771
158	0xbcaef167	-0.021355344
159	0x3c4fb24c	0.012676787
160	0xba134299	-0.0005617529
161	0xbd982cf3	-0.074304484
162	0xbc66da7a	-0.014090175
163	0xba5547ed	-0.0008136023
164	0xbc5b2f42	-0.013377966
165	0xbc79eaf8	-0.015253775
166	0x3cd25122	0.025673453
167	0xbd018ed5	-0.031630356
168	0xbbdfac89	-0.0068259877
169	0xbd93f046	-0.07223563
170	0x3d96c906	0.07362561
171	0x3db33b53	0.087515496
172	0xbe193300	-0.14960861
173	0xbd0e1d76	-0.034696065
174	0x3dcdb302	0.10043909
175	0xbd665d64	-0.056241408
176	0xbdcc43a8	-0.09973842
177	0xbdb873e4	-0.090064794
178	0xbc70c263	-0.014694783
179	0x3d972941	0.073809154
180	0xbd377a02	-0.04479409
181	0x3ddc19cb	0.10747107
182	0xbd3d6144	-0.046235338
183	0x3da6bee6	0.0814188
184	0x3d8788c7	0.06617885
185	0x3cab3036	0.020897012
186	0xbd09986e	-0.033592634
187	0xbc268249	-0.010162898
188	0x3d0628ab	0.032753628
189	0xbc169fe6	-0.009193396
190	0x3d90565b	0.07047721
191	0xbc73666f	-0.014855965
192	0x3d6ff284	0.05858089
193	0xbd45f500	-0.048329353
194	0xbce292e3	-0.027657932
195	0x3c563d50	0.0130761415
196	0x3d3b36d0	0.04570657
197	0xbcb43726	-0.021998953
198	0xbd90d37f	-0.0707159
199	0x3c0b0c0e	0.008486761
200	0x3db4a32d	0.08820186
201	0xbc632892	-0.013864653
202	0x3d5adfd3	0.05343611
203	0x3b9d13db	0.0047936267
204	0x3d0bd6db	0.03414045
205	0x3ce904a5	0.028444597
206	0xbc482e95	-0.012218137
207	0xbce268ba	-0.027637828
208	0x3da26d47	0.07930999
209	0xbd62c15a	-0.055360176
210	0xbd4469ce	-0.047952466
211	0x3e01e6fd	0.12685771
212	0x3d77fe17	0.060545053
213	0xbdad16a3	-0.08451583
214	0xbe073eee	-0.132076
215	0xbd1748ea	-0.03693477
216	0x3dc2daa3	0.09514358
217	0x3db8246b	0.08991321
218	0xbb214ca2	-0.0024612327
219	0x3c980bb9	0.018560277
220	0xbb185371	-0.0023243094
221	0xbdcb3d3a	-0.099237874
222	0xbddb1a08	-0.106983244
223	0x3d701682	0.058615215
224	0x3d8fc08f	0.070191495
225	0xbbac90be	-0.005266278
226	0x3b93ed2c	0.004514357
227	0xbcb9a4f4	-0.022661664
228	0x3d7fd451	0.06245834
229	0xbcadb8bc	-0.021206252
230	0x3d6884c0	0.056767225
231	0x3d29f9d4	0.04149802
232	0x3d185ec4	0.03719975
233	0x3d032417	0.03201684
234	0xbcd3db90	-0.025861531
235	0xbe09a283	-0.134409
236	0x3d178386	0.036990665
237	0x3c519401	0.012791635
238	0x3d248926	0.040169857
239	0xbd8e66c5	-0.069531955
240	0x3da3e651	0.08002914
241	0xbcfd38d5	-0.030910889
242	0xbcdccc08	-0.026952758
243	0xbe0a930e	-0.1353266
244	0x3c852570	0.016253203
245	0xbd144b73	-0.036204766
246	0xbc6b2fe4	-0.01435468
247	0x3c0b79f3	0.008512962
248	0xbd0deba6	-0.03464856
249	0x3cd29bcd	0.025709057
250	0x3d1c73aa	0.038196243
251	0x3afaa2b7	0.0019121979
252	0xbcdb4e50	-0.02677074
253	0xbd7321b7	-0.059358325
254	0xbd2b1440	-0.04176736
255	0xbdb3c899	-0.08778495

model.0.bias f4 [32]
0	0x3926a401	0.0001589209
1	0xb831b0dd	-4.2364805e-05
2	0x39f5026b	0.00046731843
3	0x3928477f	0.00016048363
4	0xb9f47d62	-0.00046632724
5	0x39eac6ad	0.00044779983
6	0xbb35057f	-0.0027621684
7	0xb8045823	-3.1553336e-05
8	0x380e94e7	3.3994114e-05
9	0x3a26cf4e	0.0006363288
10	0x39a069cd	0.00030596406
11	0xb97e8bcc	-0.00024275406
12	0xb9cc1721	-0.00038927144
13	0x3a6c7298	0.00090197613
14	0xba8953ca	-0.0010477242
15	0x39897e93	0.0002622498
16	0x3a90911f	0.0011029578
17	0x3a274dfd	0.00063821656
18	0x3a58f88d	0.0008276783
19	0xba564022	-0.00081730087
20	0xb84b0ed5	-4.8412785e-05
21	0x3a115cde	0.00055451493
22	0x3881dddc	6.192524e-05
23	0x39da7a7c	0.00041671458
24	0xb9d4ef4b	-0.00040614078
25	0x3887ac31	6.469375e-05
26	0x3a3a21ab	0.0007100354
27	0x3b6db35b	0.0036270234
28	0xb9d3a49b	-0.00040367697
29	0x3a28a105	0.0006432685
30	0xb96e802f	-0.00022745201
31	0x3aa8a09a	0.0012865246

model.1.weight f4 [32]
0	0x3f816170	1.010786
1	0x3f7d1cb4	0.9887192
2	0x3f7d0fc9	0.9885221
3	0x3f7b56f0	0.9817953
4	0x3f821eb3	1.0165619
5	0x3f819711	1.0124227
6	0x3f7dd79f	0.99157137
7	0x3f7fa998	0.99868155
8	0x3f7dde17	0.9916701
9	0x3f80ca32	1.0061705
10	0x3f83f1b2	1.0308135
11	0x3f7db33d	0.9910162
12	0x3f804a91	1.0022756
13	0x3f80d419	1.0064727
14	0x3f7f1bd9	0.9965187
15	0x3f7cd072	0.9875556
16	0x3f80dde0	1.0067711
17	0x3f81b84b	1.0134367
18	0x3f81dbb5	1.0145174
19	0x3f7cd624	0.9876425
20	0x3f808732	1.0041258
21	0x3f7ca2c2	0.9868585
22	0x3f80eade	1.0071676
23	0x3f861189	1.0474101
24	0x3f7e118b	0.9924552
25	0x3f7bb9d0	0.983304
26	0x3f856961	1.0422784
27	0x3f793b23	0.9735586
28	0x3f7e437e	0.99321735
29	0x3f81795c	1.0115161
30	0x3f7e5d49	0.9936109
31	0x3f7e1402	0.9924928

model.1.bias f4 [32]
0	0x3cce0fbe	0.02515399
1	0x3c17c5d7	0.009263477
2	0xbca9289c	-0.020649247
3	0xbbf2d933	-0.007411146
4	0x3bf2c388	0.007408563
5	0x3c9be27a	0.01902889
6	0x3b2dcac6	0.0026518567
7	0x3bb95fc2	0.005657167
8	0xbb84cac7	-0.0040524933
9	0x3b986c13	0.0046515553
10	0x3ce0f83d	0.02746212
11	0x3cbfbec8	0.023406401
12	0x3cac37e7	0.02102275
13	0x3c18929f	0.009312301
14	0xbc0e2060	-0.008674711
15	0xbc0258b3	-0.007955718
16	0x3cd40002	0.02587891
17	0x3c91f50d	0.017817045
18	0x3c961d7d	0.018324608
19	0x3bcef16b	0.0063154004
20	0x3c099110	0.008396402
21	0x3cf1b8dd	0.029507095
22	0x3d2168ed	0.039406706
23	0x3cadd91c	0.02122169
24	0x3c9eb046	0.019371163
25	0xbc1d3b72	-0.009596692
26	0x3d35ed2a	0.04441563
27	0x3c6edbae	0.014578743
28	0x3c2854f2	0.010274159
29	0x3ce96cbd	0.028494233
30	0x3c9a8c2c	0.018865667
31	0x3ca73ae3	0.020413822

model.1.gate f4 [32]
0	0x3f88d88b	1.0691084
1	0x3f7ea53a	0.99470866
2	0x3f7b3696	0.98130167
3	0x3f8380fd	1.0273739
4	0x3f7f2c31	0.99676806
5	0x3f7d464a	0.9893538
6	0x3f6f6d65	0.935263
7	0x3f6eef6e	0.9333409
8	0x3f70cb1a	0.9405991
9	0x3f925498	1.1432066
10	0x3f81b9b2	1.0134795
11	0x3f6b6180	0.9194565
12	0x3f7f4fd9	0.9973121
13	0x3f773d70	0.9657812
14	0x3f80f488	1.0074625
15	0x3f7ac6dd	0.9795969
16	0x3f76cd6d	0.96407205
17	0x3f751510	0.95735264
18	0x3f823f4d	1.0175568
19	0x3f706842	0.93909085
20	0x3f82eedb	1.0229143
21	0x3f77393e	0.9657172
22	0x3f88e537	1.0694951
23	0x3f74034f	0.9531755
24	0x3f76ddda	0.9643227
25	0x3f8168ff	1.0110167
26	0x3f80e04f	1.0068454
27	0x3f9f17fd	1.2429196
28	0x3f71d62e	0.9446744
29	0x3f79db5c	0.9760034
30	0x3f6b756e	0.9197606
31	0x3f5d80b1	0.8652449

model.1.running_mean f4 [32]
0	0x3f3c4188	0.7353749
1	0xbe7c34c3	-0.24629502
2	0xbe120771	-0.14260651
3	0x3ecffc53	0.40622196
4	0xbe169add	-0.14707513
5	0x3f419462	0.7561704
6	0xbe16fe8b	-0.14745538
7	0xbf1a111d	-0.6018236
8	0xbebf484a	-0.3735984
9	0xbdb288fd	-0.08717535
10	0x3f693311	0.91093546
11	0xbe9f4d08	-0.31113458
12	0xbe2f9b3a	-0.17149058
13	0x3f0cbf5a	0.5497948
14	0x3d047d9f	0.032346364
15	0x3f32a9cb	0.69790334
16	0xbe22c3e0	-0.15895033
17	0x3f918189	1.1367656
18	0x3f5126c3	0.8169977
19	0xbeb168be	-0.34650224
20	0x3efb0617	0.49028084
21	0xbf6a0272	-0.9140998
22	0x3f0b4f96	0.54418314
23	0x3ee8e63b	0.45488152
24	0x3c831b1f	0.016004143
25	0xbe7f1c13	-0.24913053
26	0x3f812a6f	1.0091075
27	0x3efbce3b	0.4918078
28	0xbf7247f6	-0.94641054
29	0xbc312c98	-0.010813855
30	0xbdac6971	-0.08418549
31	0x3ca9cd7c	0.020727865

model.1.running_var f4 [32]
0	0x3d9b15d3	0.07572522
1	0x3d11bb46	0.03557899
2	0x3c4467da	0.011987651
3	0x3ccaf89e	0.024776753
4	0x3ca5ff7f	0.020263432
5	0x3d0269c8	0.031839162
6	0x3d5a27ce	0.053260617
7	0x3ce62a68	0.028096393
8	0x3cd0a388	0.025468603
9	0x3c4a6fd7	0.012355766
10	0x3d2d36a0	0.042288423
11	0x3c274cbe	0.010211168
12	0x3c9ca3e2	0.019121114
13	0x3d259253	0.04042275
14	0x3c8e11fd	0.017342562
15	0x3d84ef24	0.06490925
16	0x3cb2368c	0.021754526
17	0x3d750705	0.059821147
18	0x3d59665b	0.05307613
19	0x3caa8f2e	0.020820227
20	0x3c93e441	0.018053176
21	0x3d197047	0.03746059
22	0x3d4b0623	0.0495664
23	0x3cc86039	0.024459945
24	0x3dbc60ab	0.091981255
25	0x3d6adcc7	0.057339456
26	0x3d4b4344	0.049624696
27	0x3d54d18c	0.051957652
28	0x3d55ffe2	0.052245982
29	0x3c0bd70a	0.008535156
30	0x3cb3d0a3	0.021950072
31	0x3d4a0679	0.04932258

model.3.main.0.weight f4 [32, 32, 3, 3]
0	0xbd03afab	-0.032149952
1	0x3b000750	0.0019535609
2	0x3db33487	0.08750253
3	0xbdf3dc7f	-0.11907291
4	0x3d6ba15c	0.05752693
5	0xbe171624	-0.1475454
6	0xbe0f4b83	-0.13993649
7	0xbc977d4e	-0.018492367
8	0x3d16ea11	0.036844317
9	0xbe2c6f8b	-0.16839425
10	0xbe031779	-0.12801923
11	0x3a66d9f7	0.0008806283
12	0x3d110f9d	0.03541528
13	0xbddeefb5	-0.10885564
14	0x3e1d276c	0.1534707
15	0xbdfb500b	-0.12271126
16	0xbe435396	-0.19074854
17	0xbccfc607	-0.025362981
18	0xbd72e813	-0.059303354
19	0xbdf7a189	-0.12091357
20	0xbd70c422	-0.058780797
21	0xbc42bfbe	-0.011886535
22	0x3ce2ff76	0.027709704
23	0x3cace8fa	0.021107186
24	0xbd9860c3	-0.07440331
25	0x3db34d93	0.087550305
26	0x3d46a1e9	0.048494253
27	0xbe0f3c3a	-0.13987818
28	0xbd82a97a	-0.06379981
29	0xbb294efc	-0.0025834432
30	0xbdf6dc91	-0.120537885
31	0x3dc9dc8c	0.09856519
32	0xbdc010db	-0.09378215
33	0x3d7595c4	0.05995728
34	0x3bb31602	0.00546527
35	0x3cad5e1a	0.021163035
36	0xbe2ca31d	-0.16859098
37	0x3c45df80	0.012077212
38	0xbd8ce1db	-0.06879016
39	0xbdcd0b3f	-0.10011911
40	0x3d1260b9	0.035736773
41	0x3a1d8924	0.000600951
42	0xbd42c4c7	-0.047550943
43	0x3d1d7923	0.038445603
44	0xbd8452b5	-0.064610876
45	0xbdad9e88	-0.08477503
46	0xbd153cee	-0.03643506
47	0xbd836118	-0.064150035
48	0x3dbd4de1	0.0924337
49	0xbdd8cc2c	-0.10585818
50	0xbcaa5a9e	-0.020795163
51	0xbd25bdeb	-0.040464323
52	0x3c5fe625	0.013665711
53	0x3c79761a	0.0152259115
54	0x3cd9ec05	0.0266018
55	0xbdc47c06	-0.09593968
56	0x3c988cf4	0.0186219
57	0xbdb175fb	-0.08665081
58	0x3d822820	0.063553095
59	0xbd1d1108	-0.03834632
60	0x3d2432fc	0.040087685
61	0x3cdd86b7	0.027041776
62	0xbcdc8ce2	-0.026922647
63	0x3da1ff4d	0.07910023
64	0x3dac2b02	0.084066406
65	0x3dbf0f47	0.09329086
66	0xbcccd9da	-0.025006223
67	0x3d80cab5	0.06288663
68	0xbcd395f8	-0.025828347
69	0x3d8984db	0.06714793
70	0xbe139603	-0.14412694
71	0xbd8bf2e4	-0.06833437
72	0xbc2f225c	-0.010689344
73	0x3d936e23	0.07198741
74	0xbdd0f528	-0.1020301
75	0xbcdb9d10	-0.026808292
76	0xbe391f1f	-0.18078278
77	0xbe075481	-0.1321583
78	0xbd62577c	-0.055259213
79	0x3d577029	0.0525972
80	0x3da2a891	0.07942308
81	0xbd8e867a	-0.06959243
82	0x3d9a0c89	0.07521922
83	0xbc537ad8	-0.012907706
84	0xbe49da9c	-0.19712299
85	0xbceb4130	-0.028717607
86	0xbbc60995	-0.0060436227
87	0xbda591f3	-0.08084478
88	0xbccf5a15	-0.02531151
89	0xbde8b593	-0.113627575
90	0xbe39b71d	-0.18136258
91	0xbd55883a	-0.05213187
92	0xbcf1b5db	-0.02950566
93	0xbcfea68d	-0.031085277
94	0x3c1bded6	0.009513577
95	0xbd94f6bc	-0.07273623
96	0x3da95282	0.0826769
97	0xbc2345f7	-0.009965411
98	0xbe138513	-0.14406233
99	0x3a19309c	0.000584373
100	0x3d4c659f	0.0499016
101	0x3cf1d9bc	0.02952277
102	0x3d09232b	0.033480804
103	0xbe188726	-0.14895305
104	0xbd54444e	-0.051822953
105	0x3babfacb	0.0052484027
106	0xbddbdb53	-0.10735192
107	0x3de32851	0.11091674
108	0x3d3ece01	0.04658318
109	0xbdf9d408	-0.12198645
110	0xbd35b47b	-0.044361573
111	0xbdc9c202	-0.09851457
112	0x3ce35efe	0.027755257
113	0xbce58102	-0.028015617
114	0xbd03d993	-0.032189917
115	0xbd1c918f	-0.038224753
116	0xbe6885ec	-0.22707337
117	0x3e114db3	0.14189796
118	0xbca98754	-0.020694412
119	0xbe06a28e	-0.13147947
120	0xbe026c49	-0.1273662
121	0x3e14ef6a	0.14544454
122	0x3c3f8377	0.0116890585
123	0xbe039190	-0.12848496
124	0x3d1210a5	0.035660405
125	0x3e3e1ad9	0.18564929
126	0xbcf02c84	-0.029318102
127	0x3db74d71	0.08950318
128	0xbd1e5ba4	-0.038661614
129	0x3d6921d6	0.056917034
130	0xbda9fc7d	-0.083001114
131	0x3e1027f5	0.14077742
132	0xbe0af1ac	-0.13568753
133	0xbcc26b6a	-0.02373286
134	0x3e664d0c	0.22490329
135	0x3d2d582c	0.042320415
136	0xbd83dddf	-0.06438803
137	0xbc8b9a33	-0.017041301
138	0xbdf907b3	-0.12159672
139	0xbe416679	-0.18886746
140	0xbcdae491	-0.026720317
141	0xbcba1e67	-0.022719575
142	0xbcda09dd	-0.026616031
143	0x3e3a5303	0.18195729
144	0xbdc7aac9	-0.097493716
145	0x3cf62224	0.030045576
146	0xba08c6a0	-0.0005217586
147	0xbde5b3dd	-0.11215947
148	0x3d9115d3	0.07084241
149	0x3d8dae9f	0.06918072
150	0xbc5facc8	-0.013652034
151	0xbd34e053	-0.044159245
152	0xbc884eb2	-0.016639087
153	0x3d884742	0.06654216
154	0xbdd5db2a	-0.10442193
155	0x3d27dc20	0.040981412
156	0xbd5dcba1	-0.054149274
157	0xbc9379c3	-0.018002396
158	0xbe28698b	-0.16446511
159	0x3d65085e	0.055916183
160	0xbd5c9e88	-0.053862125
161	0xbe213292	-0.15741947
162	0x3cd62b2d	0.026143635
163	0x3d99d4a4	0.07511261
164	0x3d4347d5	0.047675926
165	0x3c5d58e5	0.013509964
166	0x3c8c5a1e	0.017132815
167	0xbdea0b59	-0.11427946
168	0xbcee8f72	-0.029121134
169	0xbe07d126	-0.13263378
170	0x3e567e1d	0.20946546
171	0xb985b461	-0.0002550213
172	0x3d2d22ef	0.042269643
173	0x3e0255a6	0.12727985
174	0xbc2f52ac	-0.010700863
175	0xbde12044	-0.10992482
176	0xbe70f8d3	-0.23532419
177	0xbd16f56f	-0.036855157
178	0x3b98dcd0	0.004664995
179	0x3d2e1d9c	0.042508706
180	0xbd72b073	-0.059250306
181	0xbdb25106	-0.0870686
182	0x39a49791	0.00031393443
183	0x3dc2922d	0.09500537
184	0xbbf8c5ba	-0.00759193
185	0x3d93ccef	0.07216822
186	0x3d32b998	0.043634027
187	0xbd55e631	-0.05222148
188	0xbe262c71	-0.1622789
189	0xbd8d2032	-0.068909064
190	0x3d34848e	0.044071727
191	0xbd5cb893	-0.05388696
192	0x3e27917f	0.16364096
193	0xbd3e7227	-0.046495583
194	0x3d84031f	0.06445908
195	0xbd1a9ae2	-0.037745364
196	0xbdc7ce28	-0.09756118
197	0xbdacbb30	-0.08434141
198	0xbcaa4039	-0.020782577
199	0xbdd61998	-0.104541
200	0xbe0432e8	-0.12910044
201	0x3e2cc3ed	0.16871615
202	0x3d2bd705	0.041953105
203	0xbc1d7cfa	-0.009612316
204	0xbbabad68	-0.0052391775
205	0xbd054d03	-0.032544147
206	0xbd088b51	-0.033335987
207	0xbde3724e	-0.11105786
208	0x3ced4973	0.028965687
209	0xbd9bce79	-0.07607741
210	0x3d4c0f7c	0.049819455
211	0xbe7fd1aa	-0.24982324
212	0xbd904d0d	-0.07045946
213	0xbc6bc94d	-0.014391256
214	0xbd5db6a4	-0.054129258
215	0x3dc22250	0.09479201
216	0x3c06da4c	0.008230757
217	0xbce465eb	-0.02788063
218	0x3ce1d376	0.027566653
219	0x3e3bddff	0.18346404
220	0x3b4495c0	0.0029996485
221	0x3de64806	0.11244206
222	0x3d83f46f	0.064431064
223	0x39e70ba1	0.00044068418
224	0xbe3adc9f	-0.18248223
225	0xbb232634	-0.0024894597
226	0xbd112e66	-0.03544464
227	0x3e29798e	0.16550276
228	0x3b3dd92f	0.0028968563
229	0x3ca53033	0.020164585
230	0xbdaf7d69	-0.08568842
231	0xbc9f11a2	-0.019417588
232	0xbca48949	-0.020084994
233	0x3c9fa5aa	0.019488174
234	0xbd9b71cb	-0.07590064
235	0x3e3b1bd4	0.18272334
236	0xbd942ab6	-0.07234709
237	0xbd3ef6ba	-0.046622016
238	0x3c92e39f	0.017930804
239	0xbdff0d23	-0.124536775
240	0x3db873d6	0.09006469
241	0xbd1b5189	-0.037919555
242	0x3d9e2731	0.07722319
243	0x3ccfdfce	0.025375273
244	0x3d89e843	0.067337535
245	0x3e154852	0.1457837
246	0xbd01c6c2	-0.03168369
247	0xbd302100	-0.04300022
248	0xbd321a3d	-0.043482054
249	0x3caa1b49	0.020764964
250	0x3c36ff15	0.011169215
251	0x3da3531e	0.07974838
252	0xbcbaf582	-0.022822145
253	0xbd78697b	-0.06064747
254	0x3dae11d7	0.084994964
255	0xbc957fa2	-0.018249337

model.3.main.1.weight f4 [32]
0	0x3f80a20c	1.0049453
1	0x3f7fd106	0.9992832
2	0x3f814079	1.00978
3	0x3f81b2ec	1.0132728
4	0x3f80f273	1.007399
5	0x3f80c7c6	1.0060966
6	0x3f7d5c46	0.98968923
7	0x3f8025c6	1.0011528
8	0x3f805b34	1.0027833
9	0x3f826b7b	1.018905
10	0x3f80253d	1.0011364
11	0x3f7eeb0b	0.995774
12	0x3f7ded74	0.9919045
13	0x3f7e4a60	0.9933224
14	0x3f7b34f4	0.98127675
15	0x3f7baa8a	0.98307097
16	0x3f81ff08	1.0155954
17	0x3f7fc518	0.99910116
18	0x3f8017c2	1.000725
19	0x3f7dfcc5	0.9921382
20	0x3f828aba	1.0198586
21	0x3f7de3e8	0.9917588
22	0x3f80968d	1.0045944
23	0x3f7de38f	0.9917535
24	0x3f7ffdd3	0.9999668
25	0x3f7efee3	0.99607676
26	0x3f80b548	1.0055323
27	0x3f7e826d	0.99417764
28	0x3f7e7da0	0.9941044
29	0x3f7fe15d	0.9995325
30	0x3f7dd5a1	0.99154097
31	0x3f816701	1.0109559

model.3.main.1.bias f4 [32]
0	0x3aeb3050	0.0017943475
1	0x3c2d68d3	0.010584074
2	0xbb80c827	-0.00393011
3	0x3c99f53e	0.018793698
4	0x3aba92f5	0.001423447
5	0x3c9c957c	0.019114248
6	0x3c1688eb	0.009187917
7	0x3c78fa2d	0.015196365
8	0x3ce2b89c	0.02767592
9	0x3c6e5520	0.014546663
10	0x3cd2cac8	0.02573146
11	0x3ca0ba17	0.019619985
12	0x3b9dd479	0.0048165885
13	0x3be6fd38	0.007049229
14	0x3aa3b07c	0.001248851
15	0xbbceaff5	-0.006307597
16	0x3c77f6e3	0.015134546
17	0x3c6b9f8e	0.0143813025
18	0x3bd7b093	0.0065823286
19	0xbb11e411	-0.0022261182
20	0xbc0c60c7	-0.008567995
21	0xbb3307de	-0.0027317922
22	0xbb7cb626	-0.0038560717
23	0xbbf02454	-0.0073285494
24	0xbafe4386	-0.0019398786
25	0x39708a68	0.00022939744
26	0x3a931dda	0.0011224106
27	0xba50ebea	-0.0007969724
28	0xbc8b89dd	-0.017033512
29	0x3d230c46	0.039806627
30	0xbc01f639	-0.007932239
31	0x3da1c818	0.07899493

model.3.main.1.gate f4 [32]
0	0x3f850e02	1.03949
1	0x3f8c96de	1.0983541
2	0x3f85e895	1.0461603
3	0x3f785fcc	0.97021174
4	0x3f7a63da	0.9780861
5	0x3f5fa06a	0.8735415
6	0x3f6fd7a5	0.9368842
7	0x3f7fdba9	0.9994455
8	0x3f82e340	1.0225601
9	0x3f7b25b2	0.98104393
10	0x3f696019	0.9116226
11	0x3f7550c9	0.95826393
12	0x3f7cea9f	0.98795503
13	0x3f8e2ee0	1.1108055
14	0x3f79f5f7	0.9764094
15	0x3f8b37a2	1.0876353
16	0x3f7d0a75	0.9884408
17	0x3f9351eb	1.1509374
18	0x3f79bfde	0.9755839
19	0x3f8462f3	1.0342697
20	0x3f775c28	0.96624994
21	0x3f8072af	1.0034999
22	0x3f74d4b5	0.95637065
23	0x3f86049e	1.0470159
24	0x3f8116eb	1.0085119
25	0x3f715cbf	0.94282144
26	0x3f7efb78	0.9960246
27	0x3f80d956	1.0066326
28	0x3f8336a7	1.0251054
29	0x3f5b2cc3	0.85615176
30	0x3f852802	1.0402834
31	0x3f683626	0.90707624

model.3.main.1.running_mean f4 [32]
0	0xbfa8a789	-1.3176128
1	0x3f890333	1.0704101
2	0x3e850366	0.25979155
3	0xbef53b07	-0.47896597
4	0x3f271ef4	0.65281606
5	0xbf429559	-0.76009136
6	0xbefa7fd0	-0.48925638
7	0xbe9107dd	-0.28326312
8	0x3f2501c9	0.6445585
9	0x3e8791f1	0.26478532
10	0xbf266742	-0.6500131
11	0xbc93d6c4	-0.018046744
12	0xbe9f0cc9	-0.31064442
13	0xbd9f59d7	-0.077808075
14	0xbe887a52	-0.26655823
15	0xbf0b8e75	-0.5451425
16	0xbf6d18b6	-0.9261583
17	0xbed27fe3	-0.41113195
18	0x3d3a88b2	0.04554052
19	0x3ec171ee	0.37782234
20	0xbdb63335	-0.08896486
21	0x3d973e8f	0.07384979
22	0x3f03a175	0.5141824
23	0xbef62a70	-0.48079252
24	0x3f4d4076	0.80176485
25	0x3f19fb22	0.60148823
26	0x3de8512f	0.113436095
27	0x3e2557ea	0.16146818
28	0xbf8e7100	-1.1128235
29	0x3dc2d883	0.095139526
30	0x3df527c4	0.11970475
31	0xbd3f92a2	-0.0467707

model.3.main.1.running_var f4 [32]
0	0x3f276195	0.65383273
1	0x3f98e48b	1.1944746
2	0x3f4103cf	0.75396436
3	0x3fb745d6	1.4318187
4	0x3fdc9679	1.7233421
5	0x40157596	2.3353019
6	0x3f3b2d77	0.7311625
7	0x3f0375cb	0.5135161
8	0x3fb1773d	1.3864514
9	0x3f405e5e	0.7514399
10	0x3edcc7b3	0.43121108
11	0x3efab1f0	0.4896388
12	0x3f4f2b3d	0.8092535
13	0x3f0a8df8	0.5412288
14	0x3f8052ee	1.0025308
15	0x3f7d356e	0.9890965
16	0x3f12cf25	0.5734733
17	0x3f5e13be	0.86748874
18	0x3f0ce82c	0.55041766
19	0x3f9d933a	1.2310555
20	0x3effebf8	0.49984717
21	0x3f9365f8	1.1515493
22	0x3f34cc6a	0.7062441
23	0x3f80449a	1.0020936
24	0x3fa08981	1.2541963
25	0x3ff01f96	1.8759639
26	0x3f939c6b	1.153211
27	0x3f05a31e	0.5220202
28	0x3f0d58ea	0.552138
29	0x3f9c6229	1.2217456
30	0x3efc93d5	0.49331537
31	0x3f81d863	1.0144161

model.3.main.3.weight f4 [32, 32, 3, 3]
0	0xbcbeb4c1	-0.02327955
1	0x3b20fed7	0.002456596
2	0xbd9941f5	-0.074832834
3	0x3e296dd1	0.16545798
4	0xbdf7b921	-0.120958574
5	0xbc87a78d	-0.016559387
6	0xbdf92551	-0.12165321
7	0xbce0380e	-0.027370479
8	0xbde165d9	-0.11005754
9	0x3d11c32b	0.035586517
10	0x3cd12e4c	0.025534771
11	0x3c10f68e	0.008847846
12	0xbcb2dd3c	-0.021834008
13	0xbd33b344	-0.043872133
14	0xbd6041fe	-0.054750435
15	0xbde023e1	-0.10944343
16	0xbca4b4ed	-0.020105803
17	0xbdcae5eb	-0.099071346
18	0xbd50b287	-0.050951507
19	0x3d771072	0.060318418
20	0x3db1f175	0.086886324
21	0xbdc5c730	-0.096571326
22	0x3db3cc66	0.0877922
23	0xbdd344fc	-0.10315892
24	0x3d941943	0.07231381
25	0xbd1dbe5a	-0.03851161
26	0xbd51f3df	-0.051257964
27	0xbda0c95d	-0.07850907
28	0xbe137300	-0.14399338
29	0x3d7cff5f	0.06176698
30	0x3b2fd246	0.0026828214
31	0x3ded019c	0.115725726
32	0xbda410eb	-0.08011039
33	0x3d30b0a6	0.043137215
34	0xbd9a2872	-0.075272456
35	0xbe1e03d7	-0.15431152
36	0x3c08bb5c	0.008345451
37	0x3e33bf11	0.17553355
38	0xbc7d9def	-0.015479549
39	0xbc0e3f86	-0.008682137
40	0xbde612a5	-0.11234025
41	0xba763a70	-0.0009392863
42	0x3cdeb6ef	0.027186839
43	0x3e3d03eb	0.18458526
44	0xbc68dec4	-0.014213268
45	0x3e0329bb	0.12808888
46	0xbe27106a	-0.16314855
47	0xbe2127d9	-0.15737857
48	0x3d6f43d3	0.05841429
49	0x3b1aeabb	0.0023638445
50	0x3e0e4198	0.1389221
51	0xbd76ed27	-0.06028476
52	0x3bec7e37	0.0072171944
53	0x3c05b3d0	0.008160546
54	0xbcc7f74d	-0.024409914
55	0x3df9e7c6	0.122024104
56	0x3c3e74b7	0.011624507
57	0xbca4a74f	-0.02009931
58	0xbdbfd1d9	-0.09366197
59	0x3d8cf6ca	0.06883009
60	0xbd556cfc	-0.05210589
61	0xbdd80223	-0.105472825
62	0x3d475ce8	0.048672587
63	0xbdbebb33	-0.09313049
64	0x3c98e728	0.018664911
65	0x3d4f220c	0.05056958
66	0x3c025061	0.007953734
67	0x3d9755ff	0.07389449
68	0x3c9ab7c2	0.01888645
69	0xbcf47afa	-0.029843796
70	0x3de4ff43	0.111815
71	0x3d0366b3	0.032080363
72	0x3dfba71b	0.12287732
73	0x3d2dd2eb	0.042437475
74	0xbd60bbdf	-0.054866668
75	0x3e277d19	0.16356315
76	0xbd22f6ad	-0.03978603
77	0xbc6c8183	-0.014435175
78	0xbd74a7f7	-0.059730496
79	0x3dbd064d	0.092297174
80	0xbe02d98f	-0.12778305
81	0xbd114364	-0.03546466
82	0x3da9fe23	0.08300426
83	0x3d268e25	0.040662903
84	0x3e1c7215	0.15277894
85	0xbdadfef8	-0.08495897
86	0xbcb61f3a	-0.022231687
87	0xbdbefa51	-0.09325088
88	0x3c58f1b0	0.013241217
89	0xbbed5504	-0.0072428007
90	0x3d7af776	0.061271153
91	0xbdb52cd7	-0.08846443
92	0x3d9f0208	0.07764059
93	0xbd82573b	-0.06364294
94	0xbdb58512	-0.08863272
95	0x3de27c4b	0.11058863
96	0xbd35ba71	-0.044367258
97	0xbd28d1f4	-0.041215852
98	0x3c597c16	0.013274213
99	0x3dd5f81b	0.10447713
100	0xbc4365e5	-0.011926149
101	0xbd5070e8	-0.050888926
102	0x3d5ae2ef	0.053439077
103	0x3c8854cb	0.016641995
104	0x3dc5d417	0.096595936
105	0xbc47f691	-0.012204782
106	0xbe163fcc	-0.14672774
107	0x3d00cbda	0.031444408
108	0x3d9b54fc	0.07584569
109	0x3e0fba0e	0.14035818
110	0xbe16c00a	-0.14721695
111	0xbd4a4fbc	-0.049392447
112	0x3e0ef91b	0.13962214
113	0xbc307c86	-0.010771876
114	0xbd089f46	-0.03335502
115	0x3be1dbef	0.006892673
116	0x3cd388cc	0.025822066
117	0xbbcde392	-0.006283232
118	0x3dceff3d	0.101072766
119	0x3d97770f	0.073957555
120	0xbc95e1cd	-0.018296147
121	0x3d73c598	0.059514612
122	0x3bb1a936	0.005421783
123	0x3e0ad9c5	0.13559635
124	0x3d0d9c88	0.034573108
125	0xbdbc7de9	-0.09203703
126	0xbdba6d1c	-0.09102842
127	0xbe29f7d6	-0.16598448
128	0xbe0fc7bb	-0.14041035
129	0xbd21dbe2	-0.039516337
130	0x3c291a3a	0.010321194
131	0xbc4e0c40	-0.012576163
132	0xbd8a8625	-0.06763867
133	0x3e0b5a71	0.1360872
134	0xbe083985	-0.13303192
135	0xbe1a15eb	-0.15047424
136	0x3c5d79e7	0.013517833
137	0x3dc3737b	0.095435105
138	0xbc687ea8	-0.014190353
139	0x3ddfd417	0.10929125
140	0x3d908bce	0.07057916
141	0x3c2f9827	0.010717428
142	0xbd4020d6	-0.046906315
143	0x3cd9a618	0.026568457
144	0xbd34e025	-0.044159073
145	0x3e0a7d1f	0.13524292
146	0x3cf75299	0.030190753
147	0xbd3b6ceb	-0.04575817
148	0xbc1da509	-0.009621867
149	0x3e305cd4	0.17222911
150	0x3d8256fa	0.06364246
151	0x3d9a7afc	0.07542989
152	0xbd419fa3	-0.047271382
153	0x3dfa67c7	0.12226825
154	0x3d61b2cd	0.05510216
155	0x3cb02cd2	0.021505747
156	0xbd59ffcd	-0.053222466
157	0x3d8830a0	0.066498995
158	0xbe58c077	-0.2116717
159	0x3d2706b4	0.040777877
160	0x3d894a67	0.06703644
161	0xbdd7b7f8	-0.10533136
162	0x3e17f317	0.14838825
163	0xbd08fd25	-0.033444542
164	0xbb0ab725	-0.0021166292
165	0x3d8c30ca	0.06845243
166	0x3cf87a8b	0.03033187
167	0x3ce5e293	0.02806214
168	0x3d883a77	0.06651776
169	0xbd20b0f5	-0.03923126
170	0xbe2e32a6	-0.17011508
171	0x3d8e5ac6	0.069509074
172	0xbd06dc94	-0.032925203
173	0xbd09717e	-0.0335555
174	0xbdcce233	-0.100040816
175	0xbc96a7a7	-0.01839049
176	0xbb0905e4	-0.0020908052
177	0x3d9f4812	0.07777418
178	0xbd716c2d	-0.058941055
179	0xbdb372e3	-0.08762147
180	0x3ddc8878	0.10768217
181	0xbdc568b1	-0.09639109
182	0x3dd0b038	0.10189861
183	0x3de46c72	0.11153497
184	0x3d469867	0.048485186
185	0x3e2742ea	0.1633412
186	0x3cd19dae	0.025587883
187	0xbd329654	-0.043600395
188	0xbe10b9e0	-0.14133406
189	0x3b59d1e3	0.0033236674
190	0xbce635c0	-0.028101802
191	0x3e1dc238	0.1540612
192	0x3a47ffc1	0.0007629358
193	0xbd780be7	-0.060558226
194	0xbb9a7e9e	-0.004714801
195	0xbe2be2c2	-0.1678572
196	0xbd80295d	-0.062578894
197	0xbd1eb8fa	-0.038750626
198	0xbdbf2472	-0.09333123
199	0x3d0cdd1b	0.03439055
200	0xbd81849f	-0.063241236
201	0xbe13bc10	-0.14427209
202	0x3dd3c259	0.10339803
203	0x3caa05a3	0.02075464
204	0xbd6ddda8	-0.058072716
205	0x3ddb095f	0.10695147
206	0x3cdb9197	0.026802821
207	0x3d0c0e86	0.034193538
208	0x3e420b5a	0.18949643
209	0xbdaa76f6	-0.08323471
210	0x3d98b54d	0.074564554
211	0xbc06986e	-0.008215053
212	0xbd618cfd	-0.055066098
213	0xbd80e7d1	-0.062942155
214	0xbd18ddf8	-0.03732106
215	0x3d5315c6	0.051534437
216	0xbd31092c	-0.043221638
217	0x3ddf5e8b	0.109067045
218	0x3d354685	0.044256706
219	0xbda222db	-0.079168044
220	0xbc9dd43c	-0.01926624
221	0x3d3cf3bb	0.046130877
222	0x3ce44d91	0.027869018
223	0xbdc7b14f	-0.09750616
224	0xbc93d35d	-0.018045122
225	0x3dc6f03d	0.097137906
226	0xbe24fe53	-0.16112642
227	0x3cbb66fc	0.022876255
228	0x3e0b4477	0.13600336
229	0xbdd007d0	-0.1015774
230	0x3d97696e	0.07393156
231	0xb7271157	-9.958013e-06
232	0x3d6e7bb4	0.05822344
233	0xbe185087	-0.14874469
234	0x3cc9286d	0.02455541
235	0x3d872426	0.06598692
236	0xbdd86ea8	-0.10567981
237	0x3b933ca1	0.0044933115
238	0xbcdeeed5	-0.027213493
239	0xbdd9b249	-0.10629708
240	0x3c6646c1	0.014054955
241	0xbb068248	-0.002052443
242	0xbe44f90a	-0.19235626
243	0x3e1b6a3c	0.15177244
244	0x3e28f0ef	0.16498159
245	0xbc8a9967	-0.016918851
246	0x3dcdf0fa	0.10055728
247	0x3e3a6272	0.18201616
248	0x3d65cb21	0.056101922
249	0xbd5cfefc	-0.05395411
250	0x3cc66ba2	0.024221245
251	0xbd13fdc7	-0.036130693
252	0x3dcfd1ad	0.10147414
253	0xbda0d23d	-0.078526
254	0xbd887f20	-0.06664872
255	0xbd8a1a3d	-0.06743286

model.3.main.4.weight f4 [32]
0	0x3f7940e4	0.9736464
1	0x3f7b5111	0.9817057
2	0x3f7d0ac5	0.9884456
3	0x3f7a0551	0.9766436
4	0x3f7e3bb0	0.99309826
5	0x3f7fe7a9	0.9996286
6	0x3f7c8a91	0.98648936
7	0x3f793d98	0.9735961
8	0x3f7af43f	0.9802894
9	0x3f80601f	1.0029334
10	0x3f7eaf9e	0.9948672
11	0x3f7c2e78	0.98508406
12	0x3f7b4b1c	0.9816148
13	0x3f80df24	1.0068097
14	0x3f7c51ba	0.98562205
15	0x3f7e3875	0.99304897
16	0x3f8023f3	1.0010971
17	0x3f7ac860	0.97962
18	0x3f765e46	0.962376
19	0x3f7cd718	0.98765707
20	0x3f7fd474	0.9993355
21	0x3f7475fc	0.9549253
22	0x3f8008a0	1.0002632
23	0x3f7f8b66	0.9982208
24	0x3f7c273e	0.9849738
25	0x3f788aab	0.9708659
26	0x3f7c7e08	0.9862981
27	0x3f7af32a	0.9802729
28	0x3f7df4e0	0.99201775
29	0x3f7ba3de	0.98296916
30	0x3f7d17c6	0.988644
31	0x3f7b0f95	0.9807065

model.3.main.4.bias f4 [32]
0	0x3c53a755	0.012918313
1	0x3b552b20	0.0032526925
2	0xbcde53a4	-0.027139492
3	0x3c71bb8c	0.014754187
4	0x3be0df81	0.0068625812
5	0x3cf203c1	0.029542806
6	0xbbbf2c60	-0.0058341473
7	0x379885b8	1.818208e-05
8	0x3b51b37a	0.0031997846
9	0x3cc1787d	0.023617024
10	0x3dbf4232	0.09338798
11	0x3cf90605	0.030398378
12	0x3c429f79	0.011878842
13	0x3c1356db	0.008992876
14	0xbc9cd161	-0.019142808
15	0xbb9de91c	-0.0048190486
16	0x3cb7b8c0	0.022426963
17	0x3ce226d4	0.027606405
18	0x3c0bdf5c	0.00853714
19	0xbc047914	-0.008085508
20	0x3c2328cc	0.009958457
21	0x3b41a73e	0.0029549147
22	0x3ce35331	0.02774963
23	0x3d2c5ee4	0.042082682
24	0x3bcf3ece	0.0063246256
25	0x3c0b35d8	0.008496724
26	0x3d09791f	0.033562776
27	0x3d2e4580	0.04254675
28	0xbc976881	-0.018482449
29	0x3d274757	0.04083952
30	0x3c66c078	0.014083974
31	0xbd0e5295	-0.034746725

model.3.main.4.gate f4 [32]
0	0x3f7b9e4b	0.9828841
1	0x3f8016f1	1.0007001
2	0x3f700bee	0.93768203
3	0x3f8cfd8f	1.101488
4	0x3f74e407	0.9566044
5	0x3f7a95c0	0.9788475
6	0x3f88b3e6	1.0679901
7	0x3f84ed00	1.0384827
8	0x3f7c5961	0.9857388
9	0x3f8a9afc	1.0828547
10	0x3f81846d	1.0118538
11	0x3f75b195	0.95974094
12	0x3f6d3429	0.92657715
13	0x3f7b3cee	0.98139846
14	0x3f7bfe39	0.9843479
15	0x3f725164	0.9465544
16	0x3f76c89e	0.9639987
17	0x3f85f628	1.0465746
18	0x3f6895f9	0.9085384
19	0x3f73a5a6	0.95174634
20	0x3f749e5b	0.9555413
21	0x3f7477cf	0.95495313
22	0x3f75bd8c	0.9599235
23	0x3f88ebaf	1.0696925
24	0x3f868188	1.050828
25	0x3f7f9af5	0.9984582
26	0x3f854193	1.0410637
27	0x3f86f690	1.0543995
28	0x3f870771	1.0549146
29	0x3f712654	0.9419911
30	0x3f7c99f2	0.986724
31	0x3f86ea9e	1.054035

model.3.main.4.running_mean f4 [32]
0	0x3daac28a	0.08337887
1	0xbf1fc2e7	-0.6240677
2	0x3f3b6a3c	0.73208976
3	0xbeb7f938	-0.35932326
4	0xbec4e564	-0.3845626
5	0xbf64421d	-0.8916338
6	0xbf065459	-0.52472454
7	0xbf288bdc	-0.6583841
8	0x3f04d44f	0.5188646
9	0xbf88f29c	-1.0699039
10	0xbfbec0d7	-1.49026
11	0x3eb3eb98	0.3514068
12	0xbea13a4f	-0.31489798
13	0x3e5ac0e0	0.21362638
14	0x3fa942f5	1.3223559
15	0xbead2584	-0.33817685
16	0x3c856e65	0.016287992
17	0xbf3da0bb	-0.7407338
18	0xbe2a9150	-0.16656995
19	0xbf496b57	-0.7867941
20	0x3f5eddbf	0.8705711
21	0x3f102e3f	0.56320566
22	0xbf295f22	-0.66160786
23	0x3ed9d30a	0.42543823
24	0x3eb54dbc	0.3541087
25	0xbe637c9b	-0.22215502
26	0xbf0e3f9b	-0.55565804
27	0xbf16b863	-0.588751
28	0x3f8fac6f	1.1224498
29	0x3ef18af8	0.47176337
30	0xbdfcb960	-0.12340045
31	0x3f4b59af	0.7943372

model.3.main.4.running_var f4 [32]
0	0x3f878224	1.0586591
1	0x3f9f6d38	1.2455206
2	0x408a4257	4.320598
3	0x3f7abfe0	0.9794903
4	0x3fea6544	1.8312154
5	0x3f83b19f	1.0288581
6	0x3f420f38	0.7580447
7	0x3f99ba28	1.2009935
8	0x3fa50a3e	1.2893751
9	0x3fd0e5bd	1.632011
10	0x4049eb0d	3.1549714
11	0x400e6f39	2.2255385
12	0x3f684b34	0.9073975
13	0x3ff94fc2	1.9477465
14	0x40330f7c	2.79782
15	0x3fc7f1f3	1.5620712
16	0x3fc7da45	1.5613486
17	0x3fb2d77f	1.3972014
18	0x3f14f560	0.5818691
19	0x401d25c7	2.4554307
20	0x3fd71ca5	1.6805617
21	0x3fadb8ea	1.3572056
22	0x3ffd29c9	1.9778377
23	0x3fe3d584	1.7799535
24	0x3fabecab	1.34316
25	0x3fa260e6	1.2685821
26	0x3fe11266	1.758374
27	0x400d882a	2.2114358
28	0x400e75cb	2.2259395
29	0x3f95a2d4	1.1690316
30	0x3f70c66c	0.9405277
31	0x3f6e220c	0.930207

model.4.main.0.weight f4 [32, 32, 3, 3]
0	0xbdd98570	-0.10621154
1	0x3c83bac9	0.016080277
2	0xbe168c0a	-0.14701858
3	0xbdb10dee	-0.08645235
4	0x3d16e662	0.036840804
5	0xbcd4656f	-0.025927274
6	0xbc81121e	-0.01575571
7	0xbd0f22e8	-0.0349454
8	0xbde6e9f8	-0.11275095
9	0x3da5d8b9	0.08097977
10	0x3c9d3453	0.01918999
11	0xbd50e99d	-0.05100404
12	0xbd9b54ba	-0.0758452
13	0x3d165bc6	0.036708616
14	0xbe2cc368	-0.16871417
15	0xbdee1b7e	-0.116263375
16	0xbdbf55cc	-0.09342536
17	0x3da3ce9e	0.079983935
18	0x3cdace4f	0.026709704
19	0x3de798db	0.11308452
20	0xbdcae723	-0.09907367
21	0x3b2d5b47	0.002645211
22	0x3d3cddab	0.046109837
23	0xbbafe24d	-0.0053675533
24	0xbd8de8c1	-0.0692916
25	0x3d40ff70	0.047118604
26	0x3da72f79	0.081633516
27	0xbdfd0f36	-0.12356417
28	0x3e002f6b	0.12518089
29	0x3dc0abbe	0.09407757
30	0xbc8803b3	-0.016603326
31	0xbdcd366b	-0.10020145
32	0xbdbf6708	-0.093458235
33	0x3e01d442	0.12678626
34	0x3dea2be1	0.114341505
35	0x3cef551c	0.029215388
36	0xbd4dbde4	-0.050229922
37	0x3d7f4e65	0.062330622
38	0xba8b301b	-0.0010619195
39	0xbe5391e8	-0.20661128
40	0xbdeae994	-0.11470333
41	0x3d9269a9	0.07149059
42	0xbca8290d	-0.020527387
43	0x3cb376ae	0.021907177
44	0x3debdf85	0.11517242
45	0xbd540226	-0.05175986
46	0xbdb4b6d9	-0.08823938
47	0x3c43a20d	0.011940491
48	0x3cf221c9	0.029557126
49	0x3d237313	0.039904665
50	0x3cec7515	0.028864423
51	0x3cb70aff	0.02234411
52	0xbe69c73c	-0.22829908
53	0x3e5f7384	0.2182141
54	0x3d60ef11	0.05491549
55	0xbccca007	-0.02497865
56	0x3e18abd9	0.14909305
57	0x3da11558	0.07865399
58	0xbc66d9f9	-0.014090055
59	0x3e43ab93	0.19108419
60	0xbb903170	-0.0044004247
61	0x3dce8171	0.10083283
62	0xbe416276	-0.18885216
63	0xbdb410cf	-0.087922685
64	0xbd27c14d	-0.04095583
65	0x3e14595f	0.14487217
66	0xbdfed3eb	-0.12442764
67	0xbc4648d9	-0.012102329
68	0xbd461618	-0.048360914
69	0x3b5b5da2	0.0033472558
70	0x3d18d5a1	0.037313107
71	0x3d08d977	0.033410516
72	0x3e3fa975	0.18716986
73	0x3e271099	0.16314925
74	0xbcd4fbfe	-0.025999065
75	0x3d38e7de	0.045143
76	0xbd907a60	-0.07054591
77	0x3ca80207	0.02050878
78	0x3b49621b	0.0030728641
79	0xbd23056b	-0.03980009
80	0x3c8b3318	0.016992137
81	0xbe46df4d	-0.1942112
82	0x3db0bb82	0.08629514
83	0xbd82af66	-0.06381111
84	0x3d50747a	0.05089233
85	0x3d43968c	0.047750995
86	0x3de2303d	0.11044357
87	0xbd8d1e54	-0.0689055
88	0xbd546ce0	-0.051861644
89	0x3d8b1512	0.06791128
90	0xbd66314f	-0.056199368
91	0xbd174b66	-0.03693714
92	0x3e3122a3	0.17298369
93	0xbdb6e407	-0.089302115
94	0x3dbde2a4	0.09271744
95	0xbd81693e	-0.063189015
96	0xbda1da2e	-0.079029426
97	0xbd5fc907	-0.054635074
98	0x3c67e9b3	0.014154839
99	0x3d3ba534	0.045811847
100	0xbe0037cb	-0.12521283
101	0x3dbadd27	0.09124213
102	0x3d8534b4	0.06504193
103	0x3dc82d27	0.09774237
104	0x3d9e8bd6	0.07741515
105	0x3dc3447f	0.09534549
106	0x3a6aa0d1	0.0008950355
107	0xbe098973	-0.13431339
108	0x3de2fa14	0.11082855
109	0x3d046538	0.032323092
110	0xbddc3785	-0.10752777
111	0xbe026aca	-0.1273605
112	0x3bb7d528	0.005610127
113	0xbda88bbf	-0.082297795
114	0x3e571494	0.21003944
115	0x3e2eddb8	0.17076766
116	0xbd9a2b7a	-0.07527824
117	0xbe4c7aad	-0.19968672
118	0xbd05a9fd	-0.032632817
119	0x3d6db8e4	0.058037654
120	0xbd1088f4	-0.03528686
121	0x3cdf5f77	0.0272672
122	0x3d93b8f9	0.07213015
123	0x3d42ba55	0.04754098
124	0xbd612769	-0.054969225
125	0xbd5899f0	-0.05288118
126	0x3d7126d9	0.05887494
127	0x3d3ddddc	0.04635416
128	0x3d17d558	0.037068695
129	0xbccef08d	-0.025261188
130	0xbd2c8bd1	-0.042125527
131	0x3d163432	0.03667087
132	0xbb8046e0	-0.003914699
133	0x3d72b7cf	0.059257325
134	0x3d613845	0.054985303
135	0x3d7d22b1	0.061800662
136	0xbd8867ed	-0.06660447
137	0xbd17465b	-0.03693233
138	0xbd278bbf	-0.040904757
139	0x3e1f8d31	0.15581204
140	0x3b9ca669	0.00478058
141	0xbdc1e83a	-0.09468122
142	0xbdc86060	-0.09784007
143	0xbc4b99b0	-0.012426779
144	0x3dcf4931	0.10121382
145	0xbdd373fa	-0.10324855
146	0xbdf1e859	-0.11811895
147	0xbc69e627	-0.014276064
148	0x3df27a9f	0.11839794
149	0x3c5b1390	0.013371363
150	0xbd7f7f54	-0.06237729
151	0x3d15ba18	0.036554426
152	0xbe02922a	-0.1275107
153	0x3c459b56	0.012060961
154	0x3d10813b	0.035279494
155	0x3d6df6e3	0.058096778
156	0xbe2b1ffe	-0.16711423
157	0x3c8a8d67	0.016913129
158	0xbd134843	-0.035957586
159	0xbd846edb	-0.064664565
160	0x3d6db332	0.058032222
161	0x3debfe75	0.11523143
162	0x3d47c477	0.048771348
163	0xbc86180c	-0.016368888
164	0x3d3422cf	0.04397851
165	0xbd23b765	-0.03996982
166	0x3d87b433	0.06626167
167	0x3dbbd6d0	0.091718316
168	0xbe781208	-0.24225628
169	0x3cd11753	0.025523817
170	0x3d9188fe	0.07106207
171	0xbdbe278c	-0.09284887
172	0xbd40daeb	-0.047083776
173	0x3c988b0f	0.018620996
174	0xbd4b8cc1	-0.04969478
175	0xbcd3b6ec	-0.02584406
176	0x3e01e9cc	0.12686843
177	0xbde67108	-0.11252028
178	0xbd70761c	-0.058706388
179	0x3d862df2	0.06551732
180	0xba2532d2	-0.00063018233
181	0x3d1658fa	0.03670595
182	0xbd14d440	-0.03633523
183	0xbde124ea	-0.10993369
184	0xbd9e65bb	-0.07734247
185	0x3cdc1f57	0.026870413
186	0xbd1cf79d	-0.03832208
187	0x3d25dded	0.040494848
188	0x3c4d523f	0.012531816
189	0xbe26be2f	-0.16283487
190	0xbd58435c	-0.052798614
191	0xbd86ce55	-0.065823235
192	0xbc99dee7	-0.018783046
193	0x3d75cc3b	0.060009222
194	0x3c12c6b0	0.008958504
195	0x3d94bf8f	0.072630994
196	0x3cc16dcc	0.023611926
197	0xbdbecf0f	-0.09316837
198	0xbb8b16b1	-0.0042446484
199	0xbdaae851	-0.08345092
200	0x3d40e3a7	0.047092106
201	0xbd748537	-0.059697356
202	0xbc5b8c78	-0.01340019
203	0x3d900707	0.0703259
204	0xbc8acef3	-0.016944384
205	0xbd8a04d8	-0.06739205
206	0xbca6f67b	-0.020381203
207	0xbc8ad61b	-0.016947797
208	0xbd3e579d	-0.046470273
209	0x3d9aa324	0.07550648
210	0x3cb8fa98	0.02258043
211	0xbd7d27cd	-0.061805535
212	0xbbef1453	-0.007296124
213	0x3c53609e	0.012901453
214	0xbd826968	-0.06367761
215	0x3d25158a	0.040303744
216	0x3d523a19	0.051324937
217	0xbdb89149	-0.09012086
218	0x3dcca6ca	0.0999275
219	0x3bce9222	0.0063040415
220	0x3e04604e	0.12927362
221	0xbe025168	-0.12726367
222	0xbd9aa552	-0.075510636
223	0xbdafce63	-0.08584287
224	0x3e1ceb9d	0.15324254
225	0xbe004d5e	-0.12529513
226	0x3d588737	0.052863326
227	0xbdf347ef	-0.118789546
228	0x3d4b8f9a	0.049697496
229	0x3dd7f94f	0.10545599
230	0xbb2b61bb	-0.0026150781
231	0x3c2b17da	0.010442698
232	0xbd3f3efa	-0.04669092
233	0xbdb4b0f1	-0.088228114
234	0xbdbe7a6a	-0.093006924
235	0x3d91b32c	0.071142524
236	0xbccf70c3	-0.025322324
237	0x3d000225	0.031252045
238	0xbd20e4ab	-0.039280575
239	0x3e0551ab	0.13019435
240	0xbd185bb3	-0.037196826
241	0x3dd38890	0.103287816
242	0xbd4f0a1d	-0.050546754
243	0x3d412c72	0.047161527
244	0xbd5a4164	-0.053285018
245	0xbcf06cfe	-0.029348847
246	0xbcad3f44	-0.021148331
247	0xbe1f0a52	-0.1553128
248	0xbc1f4bf1	-0.009722696
249	0xbd7700b8	-0.06030342
250	0x3d1ef884	0.03881122
251	0x3d1f94d6	0.0389603
252	0x3e437e6e	0.19091198
253	0x3c63da44	0.013907019
254	0x3cc7255d	0.024309808
255	0x3e436434	0.19081193

model.4.main.1.weight f4 [32]
0	0x3f7cd2ef	0.9875936
1	0x3f829875	1.0202776
2	0x3f80843d	1.0040356
3	0x3f7599a8	0.95937586
4	0x3f808f88	1.0043802
5	0x3f7fafaa	0.9987742
6	0x3f7936ba	0.9734913
7	0x3f81dde3	1.014584
8	0x3f83a561	1.0284845
9	0x3f7e0fc2	0.99242795
10	0x3f807951	1.0037023
11	0x3f82d124	1.0220075
12	0x3f7d6cd8	0.9899421
13	0x3f7cfed1	0.9882632
14	0x3f7db591	0.99105173
15	0x3f7ed51c	0.9954393
16	0x3f80784d	1.0036713
17	0x3f80068f	1.0002002
18	0x3f805f1f	1.0029029
19	0x3f805926	1.0027206
20	0x3f81bcfa	1.0135796
21	0x3f80cff4	1.0063462
22	0x3f809e26	1.0048263
23	0x3f7ba98d	0.9830559
24	0x3f7f61f9	0.9975887
25	0x3f7f077b	0.9962079
26	0x3f7f452c	0.9971492
27	0x3f805e0c	1.0028701
28	0x3f8260c0	1.0185776
29	0x3f80bb13	1.005709
30	0x3f80c648	1.0060511
31	0x3f7d0bdb	0.98846215

model.4.main.1.bias f4 [32]
0	0xbc3b85a3	-0.011445436
1	0x3cad69d6	0.02116863
2	0x3c3028c3	0.010751906
3	0xbd0457ec	-0.03231041
4	0x3cc64da2	0.02420694
5	0x3ca5726f	0.020196168
6	0x3a2e52ea	0.00066499284
7	0x3c2465b1	0.010034011
8	0x3c547567	0.012967444
9	0x3c1da309	0.00962139
10	0x3acb4804	0.0015509133
11	0x3d322078	0.043487996
12	0x3b3a3859	0.0028414933
13	0x3c07fb17	0.008299611
14	0xbc8ae030	-0.016952604
15	0xbbf385a3	-0.007431702
16	0x3a801448	0.0009771669
17	0x3cb0e122	0.021591727
18	0x3d08c366	0.03338947
19	0xb90f574b	-0.00013670062
20	0x3c73c3c5	0.014878218
21	0x3bed42db	0.007240636
22	0x3c697bc5	0.0142507
23	0xbc55f066	-0.013057804
24	0x3c648ceb	0.013949613
25	0xbb7be805	-0.0038437855
26	0x3ba13ef0	0.004920833
27	0x3acf38f9	0.0015809826
28	0xbafc1290	-0.0019231606
29	0x3cdbfa28	0.026852682
30	0xba4fd996	-0.0007928846
31	0xbc04018b	-0.0080570085

model.4.main.1.gate f4 [32]
0	0x3f87a1ec	1.059629
1	0x3f8f597f	1.1199187
2	0x3f879b69	1.0594302
3	0x3f7ccda7	0.987513
4	0x3f81627a	1.0108178
5	0x3f99d5f8	1.2018423
6	0x3f87a3e7	1.0596894
7	0x3f805154	1.0024819
8	0x3f8c38b5	1.0954806
9	0x3f8840da	1.0644791
10	0x3f8a45d5	1.0802561
11	0x3f789b58	0.97112036
12	0x3f77c876	0.96790254
13	0x3f88eba1	1.0696908
14	0x3f82d7d8	1.022212
15	0x3f7c3837	0.9852328
16	0x3f75297b	0.9576642
17	0x3f6cc5c0	0.9248924
18	0x3f72322e	0.9460782
19	0x3f92a299	1.1455871
20	0x3f7dd044	0.99145913
21	0x3f716cc9	0.9430662
22	0x3f809def	1.0048198
23	0x3f65d976	0.89784944
24	0x3f84c78b	1.0373396
25	0x3f82fd82	1.0233614
26	0x3f834ded	1.0258156
27	0x3f86dced	1.0536171
28	0x3f7f17f0	0.996459
29	0x3f4e14e8	0.8050065
30	0x3f70fae5	0.94132835
31	0x3f821f63	1.0165828

model.4.main.1.running_mean f4 [32]
0	0xbeb6bd15	-0.35691133
1	0xbf0a4138	-0.54005766
2	0xbf010da3	-0.50411433
3	0x3c49feda	0.012328828
4	0xbe6e926e	-0.23298046
5	0xbe07b12b	-0.13251178
6	0x3f155ad5	0.58341724
7	0xbedf8051	-0.43652585
8	0xbe7d1c34	-0.2471779
9	0xbe041491	-0.1289847
10	0x3f13318f	0.57497495
11	0x3d96ff5f	0.07372927
12	0xbf331dbe	-0.6996726
13	0xbe9f9d9c	-0.31174934
14	0x3e75761f	0.23970841
15	0xbf3b404e	-0.73144996
16	0xbf60e9a6	-0.8785652
17	0xbf0a01c3	-0.5390894
18	0x3cc0ff87	0.023559345
19	0x3e068f10	0.13140512
20	0xbed6cdd9	-0.41953924
21	0x3e0388a7	0.12845097
22	0x3e03f3f6	0.12886032
23	0x3e415e8b	0.18883722
24	0x3e5ca343	0.21546654
25	0x3f09b1eb	0.53787106
26	0x3ebed606	0.37272662
27	0xbe55b3fb	-0.20869438
28	0xbdad8414	-0.084724575
29	0x3f09d3b0	0.53838634
30	0xbea9ad2e	-0.33139938
31	0x3eb3ad82	0.35093313

model.4.main.1.running_var f4 [32]
0	0x40894cd3	4.290628
1	0x40a443a8	5.133259
2	0x4031d775	2.7787755
3	0x406273ad	3.5383103
4	0x40f1b5c2	7.553437
5	0x409eeb20	4.966202
6	0x40593c25	3.394296
7	0x4123915e	10.22299
8	0x401cb304	2.4484262
9	0x4054d65e	3.325584
10	0x40c1e07a	6.058652
11	0x405114a6	3.2668853
12	0x404d72b2	3.2101254
13	0x40873da7	4.226276
14	0x403b124f	2.9229925
15	0x3ff55e8d	1.916948
16	0x40863133	4.193506
17	0x4065196f	3.5796773
18	0x40d15316	6.5413923
19	0x4060e263	3.5138175
20	0x40b590c2	5.6739206
21	0x4011cb9a	2.2780519
22	0x406e2a83	3.7213447
23	0x407fea7f	3.9986875
24	0x40608768	3.5082645
25	0x405a8f40	3.4149933
26	0x3ff7e9c9	1.936822
27	0x40bce3a1	5.9027867
28	0x409b2317	4.8480334
29	0x409a1c00	4.815918
30	0x401e1226	2.4698577
31	0x408dfe0a	4.4372606
