checkpoint/clf/experiment_name/400/netG.pth (torch, 244594 bytes, 32 tensors)

model.0.bias f4 [32]
0	0xbc85e85b	-0.016346147
1	0xbbda38f0	-0.0066596195
2	0x3c94cb55	0.018163363
3	0x3d863da4	0.06554726
4	0xbcdf3d91	-0.027251037
5	0x3d72f0a0	0.05931151
6	0x3cafdcd9	0.021467613
7	0xbc180332	-0.009278106
8	0xbd6bf77b	-0.057609063
9	0x3d50eedb	0.05100904
10	0x3bb76877	0.00559717
11	0xbd13878d	-0.036017943
12	0x3d348bd1	0.04407865
13	0x3cffbf01	0.031219007
14	0x3bb27a0c	0.005446678
15	0x3c283dd9	0.010268652
16	0xbcc6ca0e	-0.024266269
17	0x3cc8115f	0.024422346
18	0xbd447dc2	-0.047971494
19	0xbd2afa8a	-0.04174284
20	0x3dd2adee	0.10287081
21	0xbca4a2c6	-0.020097148
22	0x3d0eb7bc	0.03484319
23	0xbc8e01f7	-0.017334921
24	0xbbaecc69	-0.005334426
25	0xbd3a735e	-0.04552018
26	0xbd75091c	-0.05982314
27	0xbd49b55d	-0.049245227
28	0x3d7538b3	0.059868526
29	0x3d5ea9fd	0.054361332
30	0x3ce36096	0.027756017
31	0xbc4a73f8	-0.012356751

model.0.weight_orig f4 [64, 32, 3, 3]
0	0xbc00bc19	-0.007857346
1	0xbc0aeac5	-0.008478825
2	0x3bc21e5e	0.00592403
3	0x3c4a03ab	0.012329976
4	0x3d354c19	0.044262026
5	0xbd127ca7	-0.03576341
6	0x3b952000	0.004550934
7	0x3d333173	0.04374833
8	0x3c865053	0.016395723
9	0x3cfbbbdc	0.030729227
10	0x3d866366	0.065619275
11	0xbd039505	-0.032124538
12	0x3c9200ac	0.017822586
13	0x3d360bd7	0.044444885
14	0xbce79609	-0.028269785
15	0x3bc3ac0a	0.0059714364
16	0x3baf6188	0.005352203
17	0xbd32036f	-0.043460306
18	0x3d6c47d6	0.057685696
19	0xbc7577e3	-0.0149821965
20	0x3b6a7573	0.0035775572
21	0xbd1675b4	-0.036733344
22	0xbb11c0e0	-0.0022240207
23	0xbbefe1f8	-0.0073206387
24	0xbcecc486	-0.028902303
25	0xbd486768	-0.04892674
26	0xbcc67e3e	-0.024230119
27	0xbc6312fc	-0.013859507
28	0x3c60250a	0.013680706
29	0x3d3fb1c5	0.046800394
30	0x3d71c2fb	0.05902384
31	0x3da6f765	0.081526555
32	0x3ba39a4c	0.004992759
33	0x3d3eaf6b	0.04655401
34	0xbca2e1dc	-0.019883089
35	0x3d873b22	0.066030756
36	0xbcc1de2e	-0.023665514
37	0xbd818ada	-0.06325312
38	0xbd5cc4f5	-0.05389877
39	0xbd3cfa51	-0.046137158
40	0x3b837d07	0.004012707
41	0x3ccf61a9	0.025315123
42	0xbd2a1bcc	-0.041530415
43	0xbd49f413	-0.049305033
44	0xbd7a0058	-0.061035484
45	0xbbef8c41	-0.0073104207
46	0x3d0f3623	0.03496374
47	0x3b8d33d5	0.0043091574
48	0xbc914119	-0.017731236
49	0xbc08261c	-0.008309867
50	0xbd31ceae	-0.043409996
51	0xbc497e00	-0.012298107
52	0x3d20ebbf	0.039287325
53	0xbd7906c6	-0.060797475
54	0xbc0264cc	-0.007958602
55	0xbd0a7ccb	-0.033810418
56	0xbd686150	-0.05673343
57	0x3b59853b	0.0033190984
58	0xbcda84ce	-0.026674654
59	0x3d543cc7	0.051815774
60	0x3cf8e392	0.030381951
61	0xbd0db417	-0.034595575
62	0xbc70e095	-0.014701982
63	0x3d2a95be	0.04164671
64	0xbcf7b22c	-0.030236326
65	0xbb3c035f	-0.0028688533
66	0xbbd56251	-0.0065119644
67	0x3cd6b51d	0.026209408
68	0xbd598534	-0.053105548
69	0xbcad0e65	-0.021125028
70	0xbd213a90	-0.03936249
71	0xbd30e4e2	-0.04318703
72	0xbd3e3b76	-0.046443425
73	0x3d04cb38	0.032420367
74	0x3d1a34e1	0.037648086
75	0xbd436e0a	-0.047712363
76	0x3b82f104	0.0039960165
77	0xbcea5756	-0.028606098
78	0x3d1997fe	0.037498467
79	0xbd259911	-0.04042918
80	0x3d5479d1	0.051873986
81	0xbba2d4f7	-0.004969235
82	0x3d67e772	0.056617208
83	0xbc97cf0c	-0.018531345
84	0x3ccb0f4d	0.02478757
85	0xbc889acf	-0.016675381
86	0x3c67d888	0.014150746
87	0x3d820fbc	0.06350657
88	0xbc19f32f	-0.009396358
89	0xbd469fc5	-0.04849221
90	0x3b520e03	0.0032051809
91	0xbd5db28f	-0.054125365
92	0x3d1f042a	0.03882233
93	0xbd108f1d	-0.035292733
94	0x3cedca95	0.029027263
95	0xbb8b8e01	-0.0042588715
96	0xbc7b7878	-0.015348546
97	0x3d3f6da2	0.046735413
98	0xbd31388a	-0.04326681
99	0xbd5c5810	-0.05379492
100	0x3d146da3	0.03623737
101	0x37c81e35	2.3855924e-05
102	0xbd4e5e74	-0.050383046
103	0xbc3df22c	-0.011593383
104	0x3cdc2b55	0.026876131
105	0x3c97c705	0.018527517
106	0xbc5da8ee	-0.0135290455
107	0x3c2cf72a	0.010556975
108	0x3c3742e2	0.01118538
109	0x3d3de967	0.046365168
110	0xbc2da615	-0.010598679
111	0x3d767f00	0.06017971
112	0x3d9a3f30	0.07531583
113	0xbcc9bb8d	-0.024625564
114	0xbbb52993	-0.0055286377
115	0x3c1207b7	0.008912972
116	0xbd03fed2	-0.032225437
117	0xbaac01d6	-0.0013123106
118	0xbcf5873c	-0.029971711
119	0xb8e9bf98	-0.00011145993
120	0x3ceb6aa5	0.028737376
121	0x3b8eb158	0.004354637
122	0xbd423b6a	-0.047419943
123	0x3cdf69f9	0.027272211
124	0xbd5edabf	-0.05440783
125	0xbcc5570a	-0.024089355
126	0x3c9363d4	0.017991938
127	0xbb283ad7	-0.0025669837
128	0x3d0f301f	0.034958
129	0xbc7d095d	-0.015444127
130	0x3c9a5099	0.01883726
131	0x3d19aeea	0.037520327
132	0xbd16d96a	-0.036828436
133	0x3d6aab5c	0.057292327
134	0xbd17e000	-0.037078857
135	0x3cee003b	0.029052844
136	0x3cdfb80d	0.027309442
137	0x3d4b8646	0.0496886
138	0x3d46c5af	0.04852837
139	0xbd456460	-0.04819143
140	0x3c9ca16d	0.019119943
141	0xbd024a19	-0.031808946
142	0xbd3d0afe	-0.04615306
143	0xbcc51304	-0.024056919
144	0x3d1b7ee8	0.037962824
145	0xbd4e534f	-0.050372418
146	0xbd1f6732	-0.038916774
147	0x3c489fa6	0.012245094
148	0xbd685187	-0.056718376
149	0x3d20d679	0.039267037
150	0x3d2f75b0	0.042836845
151	0xbd0b0721	-0.033942346
152	0x3d062839	0.032753203
153	0x3d4e72ea	0.05040256
154	0x3afd828c	0.0019341274
155	0x3cc00239	0.02343856
156	0x3d578318	0.052615255
157	0x3c0a960b	0.008458625
158	0xbc2ed159	-0.01067003
159	0x3d58f4ad	0.052967716
160	0x3d675fef	0.056487974
161	0xbc97725c	-0.018487148
162	0x3d4a935e	0.049456947
163	0xbd3b033b	-0.045657378
164	0x3c96dd82	0.01841617
165	0x3b0abadb	0.0021168503
166	0x3c968fd9	0.018379139
167	0xbd6ece24	-0.05830206
168	0x3d078569	0.033086214
169	0x3d2424fc	0.040074334
170	0x3cca4016	0.024688762
171	0x3cefeb13	0.029286897
172	0xbcf3020b	-0.02966406
173	0x3cc43983	0.023953205
174	0xbca2cdad	-0.019873464
175	0x3bd0d80f	0.0063734124
176	0x3d6fcd94	0.058545664
177	0x3bd8ced8	0.0066164546
178	0x3c69b61d	0.014264611
179	0x3cc666c9	0.024218934
180	0x3d018dad	0.031629253
181	0xbc6015e9	-0.013677099
182	0xbd14e695	-0.036352713
183	0x3d5c3d11	0.053769175
184	0xbc8e3d05	-0.01736308
185	0x3d642996	0.055703722
186	0x3d609354	0.054828003
187	0xbbf7fb2a	-0.007567783
188	0x3cd00f15	0.025397817
189	0xbc9ee37d	-0.019395584
190	0x3d5c99e9	0.053857718
191	0xbd0de721	-0.03464425
192	0xbd49f098	-0.049301714
193	0x3c9efa9e	0.019406613
194	0xbc2353b9	-0.0099686915
195	0x3d52473a	0.05133746
196	0x3b5f8bbc	0.0034110388
197	0xbd5bc27c	-0.05365227
198	0x3b69674b	0.0035614546
199	0xbd7415e5	-0.059591193
200	0x3bb255f0	0.0054423735
201	0x3cf7f2d8	0.030267164
202	0x3d326674	0.04355474
203	0xbcf7c0eb	-0.030243358
204	0xbd3f5578	-0.04671237
205	0xbd3db8a2	-0.046318658
206	0xbd0e7393	-0.03477819
207	0x3b14e801	0.0022721293
208	0x3c8b49a8	0.017002895
209	0xbcaafc16	-0.020872157
210	0xbd434d7e	-0.047681324
211	0x3bedbac4	0.00725493
212	0x3c62cf1c	0.013843324
213	0xbc1c2c1e	-0.009532003
214	0xbd67a94a	-0.05655793
215	0xbd3c8bd5	-0.04603179
216	0xbcf194c3	-0.02948988
217	0xbc12766c	-0.008939367
218	0x3c6305b2	0.013856338
219	0xbd4716ed	-0.048605848
220	0x3d331030	0.04371661
221	0x3cbbdff7	0.022933943
222	0xbd06f7f9	-0.03295133
223	0xbb66e3e4	-0.0035231048
224	0x3d690748	0.05689171
225	0xba82a954	-0.0009968677
226	0x3c82fb2d	0.01598891
227	0xbd298ca7	-0.041393902
228	0xbd426dd7	-0.047468033
229	0x3bb5b699	0.005545449
230	0x3d1070c8	0.035263807
231	0x3d4dcb1a	0.05024252
232	0x3d6d8a1f	0.05799305
233	0x3d0688e6	0.0328454
234	0x3d11bc37	0.035579886
235	0xbc89d3d3	-0.016824638
236	0xbc746306	-0.014916187
237	0x3d15614c	0.036469743
238	0xbd08844e	-0.0333293
239	0xbd1ddd36	-0.03854104
240	0x3cdb359e	0.026758965
241	0xbac9b450	-0.001538882
242	0x3cb63851	0.02224365
243	0xbd305020	-0.043045163
244	0x3d72cf91	0.059279982
245	0xbcef3702	-0.029201034
246	0x3bd0bfd4	0.006370524
247	0xbc0f9f59	-0.008766019
248	0xbccc1fd9	-0.02491753
249	0x3d71b03f	0.059005972
250	0x3d02b920	0.03191483
251	0x3cbd6048	0.0231172
252	0x3d1a8544	0.03772475
253	0x3ced8b63	0.028997129
254	0xbcbfbe38	-0.023406133
255	0xbd4c2574	-0.049840406

model.0.weight_u f4 [32]
0	0x3db49288	0.08817011
1	0x3e84d62f	0.2594466
2	0x3db55500	0.08854103
3	0x3eb89660	0.36052227
4	0xbb5f7f2f	-0.0034102907
5	0x3b934cb2	0.004495227
6	0xbb953d44	-0.0045544226
7	0xbd6fc03f	-0.05853295
8	0xbd3b4e03	-0.045728695
9	0x3e834fbb	0.25646767
10	0xbd4dd264	-0.050249472
11	0xbd4af64e	-0.0495513
12	0x3e2ecdd5	0.17070706
13	0xbdbccb54	-0.09218469
14	0x3c996b32	0.018727873
15	0xbd6a730e	-0.05723863
16	0xbc4bee4c	-0.012446951
17	0x3eab8683	0.33501062
18	0xbd3a0bb0	-0.045421302
19	0xbd7665d0	-0.06015569
20	0x3f362dbe	0.7116355
21	0x3d157ae4	0.03649415
22	0xbd941a35	-0.07231561
23	0xbd2dc19c	-0.04242097
24	0x3d81f6e7	0.06345921
25	0x3d10d194	0.03535612
26	0xbd59497d	-0.0530486
27	0x3d3ced25	0.046124596
28	0xbd18aef6	-0.03727623
29	0x3d9839cf	0.07432901
30	0x3dd0204c	0.1016241
31	0x3dc4565c	0.09586784

model.0.weight_v f4 [576]
0	0x3cf286a0	0.02960521
1	0x3d4a9250	0.04945594
2	0xbc8e7696	-0.01739053
3	0x3d9e4cde	0.07729505
4	0x3d1a239a	0.03763161
5	0x3d03c5ac	0.032170936
6	0x3db02266	0.08600311
7	0x3cce2881	0.025165798
8	0x3c3dd116	0.0115854945
9	0x3c3de9bb	0.01159137
10	0x3cf73725	0.030177662
11	0x3db2d14b	0.08731326
12	0x3d5619d7	0.052270737
13	0x3d9af89b	0.07566949
14	0x3dcf0124	0.101076394
15	0x3d826994	0.06367794
16	0x3da5f5b4	0.08103505
17	0x3d939c26	0.07207517
18	0xba5e655e	-0.0008483733
19	0x3cc65325	0.024209568
20	0x3d791ab5	0.060816485
21	0x3c6fb586	0.014630681
22	0x3cce36cd	0.025172615
23	0x3d1ddd5d	0.038541187
24	0x3d199b35	0.037501533
25	0x3d9655fa	0.073406175
26	0x3d9b206d	0.07574544
27	0x3d076680	0.033056736
28	0x3ccab2a4	0.024743386
29	0x3bb31889	0.0054655713
30	0x3d2c146b	0.04201166
31	0x3d0f96c5	0.035055894
32	0xbc037dd2	-0.008025603
33	0x3d54cfb2	0.051955886
34	0x3db1bb8f	0.08678352
35	0x3ca84129	0.020538883
36	0x3d0bb780	0.034110546
37	0x3d5bba2a	0.053644337
38	0x3d80cfc1	0.06289626
39	0x3d06088a	0.032722987
40	0x3d5d573f	0.054038282
41	0x3dd2a0fd	0.10284612
42	0xbc462277	-0.012093178
43	0x3d64a1dd	0.055818427
44	0x3d6359ce	0.055505566
45	0x3d394bd8	0.045238346
46	0x3d8b5495	0.06803242
47	0xbbebb252	-0.0071928883
48	0x3d267189	0.04063562
49	0x3d91080d	0.07081614
50	0x3cb8a160	0.022537887
51	0x3cef3ea0	0.029204667
52	0x3d0f5ce8	0.03500071
53	0x3c884a28	0.016636923
54	0x3d20af89	0.039229903
55	0x3d299c2a	0.041408695
56	0x3da0b122	0.078462854
57	0x3d79af32	0.060958095
58	0x3d87236c	0.06598553
59	0x3d2d49cf	0.042306717
60	0x3da6ae20	0.081386805
61	0x3d3fad56	0.046796165
62	0x3d407f3a	0.046996333
63	0x3bcd0a81	0.0062573557
64	0x3d40c9cb	0.047067445
65	0x3b22395b	0.0024753425
66	0x3d125bc2	0.03573204
67	0x3d02e75d	0.031958926
68	0xbc84ad7f	-0.01619601
69	0x3d4325a9	0.047643337
70	0xbbf7b23f	-0.0075590904
71	0xbbb4e656	-0.0055206222
72	0x3cf1cc53	0.029516375
73	0x3d9ad445	0.075600185
74	0x3ddff8cd	0.10936127
75	0x3df351b2	0.118808165
76	0x3dc2a158	0.0950343
77	0x3de77f07	0.113035254
78	0x3d28566f	0.041098054
79	0x3d29186a	0.04128305
80	0x3d046982	0.032327183
81	0x3cc2932b	0.023751816
82	0x3d83fd8f	0.06444847
83	0x3d0bb6f2	0.034110017
84	0x3cafec65	0.021475026
85	0x3db0cc30	0.08632696
86	0xb8ede30d	-0.00011343332
87	0x3c325dc4	0.010886613
88	0xbcac4565	-0.021029184
89	0x3b5c4baf	0.0033614447
90	0xbb3dff65	-0.0028991338
91	0x3c75ff24	0.015014444
92	0xba8a6387	-0.0010558226
93	0x3d10f17c	0.035386547
94	0x3cb0cd67	0.021582318
95	0xbb177c98	-0.0023115035
96	0x3d5e4c51	0.054272
97	0x3d3a175e	0.04543244
98	0x3c9f4a1a	0.019444514
99	0x3ca14395	0.019685546
100	0x3cc2be24	0.023772307
101	0xbc506fe8	-0.012721993
102	0xbc3a3bb2	-0.0113667715
103	0xbc5d1a4c	-0.013495039
104	0xbc215540	-0.009846985
105	0x3c57ef66	0.013179636
106	0xbb8afa01	-0.0042412286
107	0x3c00c45e	0.007859318
108	0xbc3080f8	-0.010772936
109	0x3bb3879b	0.005478812
110	0x3d002b9f	0.0312916
111	0x3b6076a6	0.0034250407
112	0x3d83f15c	0.0644252
113	0x3d8054bd	0.062661625
114	0x3b87f048	0.004148517
115	0x3c99ad55	0.018759409
116	0x3dae32d4	0.085057884
117	0x3d08b6de	0.03337752
118	0xbc479dc3	-0.012183609
119	0x3ce70e36	0.028205018
120	0x3cf153db	0.02945893
121	0x3b7788f0	0.003777083
122	0x3ccc152a	0.024912436
123	0x3cc461ef	0.02397248
124	0x3ad13786	0.0015961982
125	0x3d63b9b3	0.05559702
126	0x3d410b80	0.047130108
127	0x3d9e4cc3	0.07729485
128	0x3d2f2748	0.04276207
129	0x3c7afa4b	0.015318464
130	0x3cfbc593	0.03073386
131	0x3d96552a	0.073404625
132	0x3d99dbb4	0.07512608
133	0x3d955194	0.072909504
134	0x3d22e34f	0.03976756
135	0x3d8bcbb6	0.06825964
136	0x3d9359ea	0.07194884
137	0x3bfa4332	0.007637405
138	0x3d7d7069	0.06187478
139	0x3d8e7c5d	0.06957314
140	0x3ca802c3	0.02050913
141	0x3d7d0f17	0.06178197
142	0x3d70b871	0.058769647
143	0x3b3862ea	0.002813513
144	0x3d71b360	0.059008956
145	0x3c30d5d2	0.010793166
146	0x3d977f7f	0.07397365
147	0xbd02b186	-0.03190758
148	0x3ca67055	0.020317236
149	0x3d66b4a5	0.05632462
150	0x3b960c84	0.0045791287
151	0x3d8a97d0	0.06767237
152	0x3d6b8faf	0.057510074
153	0x3d39b247	0.045336034
154	0x3d069708	0.03285888
155	0x3d2035e3	0.03911389
156	0x3c03c34a	0.008042166
157	0x3d51a0ca	0.05117873
158	0x3ce6c078	0.028167948
159	0x3cdcc7d6	0.026950758
160	0x3cf61354	0.030038513
161	0x3cb170af	0.021660177
162	0x3dc759d4	0.0973393
163	0x3d017ada	0.0316113
164	0x3cebf33f	0.028802512
165	0x3d9e9880	0.07743931
166	0x3d2f1e54	0.042753533
167	0x3d90f987	0.070788436
168	0x3d7509fb	0.05982397
169	0x3d5b6558	0.053563446
170	0x3d3d56f1	0.046225492
171	0x3d1ff01c	0.039047346
172	0xbbf27c56	-0.007400076
173	0x3d100bbf	0.035167452
174	0xbbda20fd	-0.0066567645
175	0x3d0e4220	0.03473103
176	0x3cae59e2	0.021283094
177	0x3d53f7d1	0.051750008
178	0x3d152229	0.03640953
179	0x3d1736e6	0.03691759
180	0x3cc9e995	0.024647513
181	0x3d93cfc2	0.07217361
182	0x3db85b5e	0.09001802
183	0x3dbd9e5f	0.092587225
184	0x3cb578e6	0.022152375
185	0x3d8f2df9	0.069911905
186	0x3dc9b8f5	0.09849731
187	0x3d3595a4	0.04433216
188	0x3d841ec3	0.0645118
189	0x3d76cee2	0.060255893
190	0x3d2dbc87	0.04241612
191	0x3d094bc4	0.03351952
192	0x3c676d79	0.014125221
193	0x3c9be9f1	0.01903245
194	0x3c614c79	0.013751143
195	0x3c28cd29	0.01030282
196	0x3cd6f66c	0.02624055
197	0x3d20ba29	0.039240036
198	0x3b9946c8	0.0046776272
199	0x3d28e037	0.041229453
200	0xbca583a7	-0.020204378
201	0xbc3ac61f	-0.011399775
202	0x3bae775a	0.0053242864
203	0x3bd27c4c	0.0064235087
204	0x3c7ac4bf	0.015305697
205	0x3d439380	0.04774809
206	0x3c1e6a9b	0.009668971
207	0xbb7fb80c	-0.0039019613
208	0x3cc9d2d6	0.024636667
209	0x3cb18fde	0.021675047
210	0x3d50b085	0.050949592
211	0x3c90a119	0.017654942
212	0xbc541373	-0.01294409
213	0x3d251f23	0.040312897
214	0x3ca325ae	0.019915428
215	0x3c8e0a72	0.017338965
216	0x3cda7189	0.026665466
217	0x3d2a206c	0.041534826
218	0x3c209187	0.009800321
219	0xbbc4ffa2	-0.006011919
220	0xbc2961f0	-0.0103382915
221	0x3cd15974	0.02555535
222	0x3cbc252a	0.02296694
223	0x3b6fefde	0.0036611478
224	0x3d1427a8	0.03617063
225	0xbb757784	-0.003745527
226	0xbc6b6347	-0.014366931
227	0x3a941a2a	0.0011299301
228	0x3d153370	0.036426008
229	0x3d581953	0.052758526
230	0x3d2e5056	0.042557083
231	0xbb2dcfda	-0.0026521594
232	0xbbceaa78	-0.0063069426
233	0xbbe3f69a	-0.0069568874
234	0x3d663aa4	0.056208268
235	0x3dc007b0	0.09376466
236	0x3d848caf	0.06472146
237	0x3d66a01b	0.056305032
238	0x3d9bae6b	0.07601627
239	0x3c8b0b25	0.016973088
240	0xbc2b6405	-0.010460858
241	0x3da01a9e	0.07817577
242	0x3c79abd9	0.015238726
243	0x3c8dce93	0.017310416
244	0x3d2bf330	0.04197997
245	0x3d4bef29	0.049788628
246	0x3d88625b	0.06659385
247	0x3d611a23	0.054956567
248	0x3d9a9776	0.0754842
249	0x3d8825b8	0.06647819
250	0x3c90aacb	0.017659565
251	0x3cbe4f35	0.023231128
252	0x3d675c3e	0.056484453
253	0x3d43709a	0.047714807
254	0x3d04666d	0.032324243
255	0x3d2d019b	0.04223786

model.2.main.0.weight f4 [32, 32, 3, 3]
0	0x3e2a2819	0.16616859
1	0x3d60b9f0	0.054864824
2	0x3dbcb4b0	0.09214151
3	0xbd4e2192	-0.050324984
4	0xbd23a38a	-0.039950885
5	0x3d6fd475	0.058552224
6	0x3bcc270c	0.0062302407
7	0xbdd803c2	-0.10547592
8	0x3dd00b10	0.1015836
9	0x3c16af01	0.009196998
10	0x3dac5382	0.08414365
11	0x3dccb0e2	0.09994675
12	0x3d80b27e	0.06284045
13	0x3e156788	0.14590275
14	0xbc6b3bbb	-0.014357503
15	0x3e4e4d7f	0.2014675
16	0xbc800634	-0.015627958
17	0x3d187468	0.03722039
18	0x3e38426d	0.1799409
19	0x3cd6a54f	0.026201872
20	0xbba0f9fa	-0.004912612
21	0xbd2f62ff	-0.04281902
22	0x3da6ca5c	0.08144066
23	0xbb292d4d	-0.0025814355
24	0xbdcd8b47	-0.10036331
25	0xbe205870	-0.15658736
26	0x3d7e4f8b	0.062087577
27	0xbd8c1cd1	-0.06841434
28	0xbe4903a7	-0.196303
29	0xbc8084a8	-0.015688255
30	0x3e0bb0a7	0.13641606
31	0x3d4fc0e5	0.050721068
32	0xb93538b0	-0.00017282623
33	0x3db2bc69	0.08727343
34	0xbd0aabb6	-0.033855163
35	0xbe0a152d	-0.1348464
36	0xbdc9eff4	-0.098602206
37	0xbc8fa7f5	-0.017536143
38	0x3debb469	0.1150902
39	0xbd88caa5	-0.066792764
40	0x3a77eda3	0.0009457713
41	0x3cbdd844	0.023174413
42	0xbe2bbcb4	-0.16771203
43	0x3e17e06d	0.14831705
44	0xbcc9fdfb	-0.02465724
45	0x3d58af51	0.05290157
46	0xbde00d3a	-0.10940023
47	0xbcd40556	-0.02588145
48	0x3d10b221	0.035326127
49	0xbd3e2605	-0.046422977
50	0x3e3369e2	0.1752086
51	0xbe47bc6e	-0.19505474
52	0x3c84b099	0.01619749
53	0xbd1bbacc	-0.03801994
54	0x3d00a6ab	0.031408947
55	0xbe022b3b	-0.12711804
56	0xbdce6ffa	-0.100799516
57	0xbcef12e3	-0.02918381
58	0xbe012f0c	-0.12615603
59	0xbdeb2172	-0.114809886
60	0xbbe18774	-0.0068826023
61	0xbb2b897a	-0.0026174472
62	0x3bca7963	0.006179021
63	0x3ce7ff63	0.02832002
64	0xbe437208	-0.19086468
65	0xbd2b75b7	-0.04186031
66	0x3d64781a	0.0557786
67	0xbe0d215f	-0.13782261
68	0xbd72706f	-0.059189256
69	0xbcfd7a8e	-0.030942228
70	0x3d1d66c1	0.038428072
71	0x3c0907c2	0.008363666
72	0xbc7a6eda	-0.015285218
73	0x3d1dde64	0.038542166
74	0x3de4d94b	0.11174258
75	0x3d2d7935	0.04235192
76	0x3dd06695	0.10175816
77	0xbd4a8cc8	-0.049450666
78	0xbca5b018	-0.02022557
79	0xbd31afb7	-0.043380465
80	0x3e041044	0.1289683
81	0xbdd682c3	-0.104741596
82	0xbb8be7e6	-0.004269588
83	0xbd7f381e	-0.062309377
84	0xbbaa7fc1	-0.0052032177
85	0xbd6d357a	-0.057912327
86	0x3db7e0df	0.08978438
87	0x3c87d814	0.016582526
88	0x3d639b6b	0.05556814
89	0xbd752ed4	-0.059859112
90	0x3cd2783d	0.0256921
91	0x3c2fdeb3	0.010734248
92	0xbdc017cc	-0.09379539
93	0xbd8cc042	-0.06872608
94	0xbde66a0b	-0.11250695
95	0x3e2ad7aa	0.16683832
96	0x3cc13a38	0.023587331
97	0xbe03657d	-0.12831683
98	0xbdb058f4	-0.086107165
99	0xbd70a5c5	-0.05875184
100	0xbd998de2	-0.07497765
101	0x3d5b7162	0.053574927
102	0xbdd25230	-0.10269582
103	0x3dc1223b	0.09430357
104	0x3d15411d	0.03643905
105	0x3e9249db	0.28571972
106	0x3d22b2a6	0.039721154
107	0x3dcce5b4	0.1000475
108	0xbc90b314	-0.017663516
109	0x3be94878	0.0071192347
110	0xbc3b2076	-0.0114213135
111	0xbd6b6398	-0.057468027
112	0x3d2275e4	0.03966321
113	0xbd2f9536	-0.042866908
114	0xbe3b8c92	-0.18315342
115	0x3db5902d	0.0886539
116	0xbca8e124	-0.020615168
117	0xbcd8c6fe	-0.026462074
118	0x3d36805b	0.044556003
119	0xbced58b3	-0.02897296
120	0x3e03021c	0.12793773
121	0x3e11fa00	0.14255524
122	0xba07ced9	-0.0005180664
123	0x3e280607	0.16408549
124	0xbe0859f0	-0.13315558
125	0xbd1406ca	-0.036139287
126	0x3c33d83a	0.010976845
127	0xbc984f18	-0.018592402
128	0x3d7db6c4	0.061941877
129	0x3d90c360	0.07068515
130	0x3d88ca12	0.06679167
131	0xbc3338bc	-0.0109388195
132	0x3c9688fb	0.018375864
133	0x3d62c3b0	0.055362403
134	0x3d914090	0.070923924
135	0x3e684198	0.22681272
136	0x3e27817b	0.16357987
137	0xbd86f1e2	-0.06589104
138	0xbdf2a01e	-0.11846946
139	0x3d84c705	0.064832725
140	0x3cd9c4fd	0.02658319
141	0x3d4287c8	0.047492772
142	0x3c576547	0.013146705
143	0x3c98ccb5	0.0186523
144	0x3c8f12ea	0.017465074
145	0xbd86593c	-0.06559989
146	0xbc2800d3	-0.010254103
147	0x3b268cfc	0.0025413623
148	0xbc0f7d92	-0.008757966
149	0x3c420856	0.011842808
150	0x3d856b22	0.065145746
151	0xbe2f2269	-0.1710297
152	0x3d159fe1	0.036529426
153	0x3d8d895c	0.06910965
154	0xbd81ce20	-0.06338143
155	0x3d96e25f	0.073673956
156	0x3d220fde	0.039565913
157	0x3b4f1e0f	0.003160361
158	0x3ca18e0c	0.019721054
159	0xbe0d38f1	-0.13791253
160	0xbdbee36e	-0.093207225
161	0xbd4ed3e4	-0.050495043
162	0x3a2991d8	0.0006468571
163	0xbc99c11e	-0.018768843
164	0x3cbe775b	0.023250272
165	0x3d2cbac6	0.04217031
166	0x3da26a40	0.07930422
167	0x3be019b6	0.0068390025
168	0xbe187f54	-0.14892322
169	0xbd27c2f2	-0.0409574
170	0x3c2eddc7	0.010672993
171	0xbcee841b	-0.029115727
172	0xbcb05576	-0.021525126
173	0xbd03e236	-0.032198153
174	0x3d95bb5f	0.07311129
175	0xbdb70f60	-0.089384794
176	0xbae6adb9	-0.0017599381
177	0x3d0070fb	0.031357747
178	0x3e00111e	0.1250653
179	0x3da08a6c	0.07838902
180	0x3e207a9d	0.15671773
181	0xbd209add	-0.03921019
182	0x3b550c15	0.0032508422
183	0x3dc39a76	0.095509455
184	0xbc3f1cb5	-0.011664559
185	0xbd0c9ddc	-0.034330234
186	0xbcbd5114	-0.02310995
187	0x3dce93b3	0.10086765
188	0x3e026227	0.12732755
189	0xbdc22ee7	-0.09481602
190	0x3c2dc820	0.010606796
191	0x3cfaf577	0.030634625
192	0x3d94ae0c	0.07259759
193	0xbd0d1b94	-0.03445013
194	0xbc8d9ef4	-0.017287709
195	0x3d14d025	0.036331315
196	0xbd874680	-0.06605244
197	0x3e0ca7f5	0.13735946
198	0x3dd146da	0.10218592
199	0xbd5b7936	-0.053582393
200	0xbd4f19b1	-0.05056161
201	0xbcb896d1	-0.022532852
202	0xbd06a3fd	-0.032871235
203	0xbdab1e8d	-0.083554365
204	0x3cd0b79c	0.025478177
205	0xbdba32b8	-0.09091705
206	0xbd640879	-0.055672143
207	0x3e0b15bd	0.13582511
208	0xbc416589	-0.011803993
209	0xbd2aef13	-0.041731905
210	0xbca807a3	-0.020511454
211	0xbd0ecaf2	-0.034861512
212	0xbd3e0672	-0.046392865
213	0xbcc8eb5d	-0.024526292
214	0x3c9b7d3f	0.01898062
215	0xbd79cb71	-0.060985032
216	0xbe0d4b10	-0.13798165
217	0x3dd135cf	0.10215341
218	0xbe24e292	-0.16102055
219	0xbe077ba5	-0.1323076
220	0x3d39a879	0.045326684
221	0x3e375de3	0.17906909
222	0x3bd45e32	0.0064809555
223	0xbc95c278	-0.018281206
224	0x37d6938b	2.5579493e-05
225	0xbdbc896b	-0.09205898
226	0x3cb6fe45	0.022338042
227	0xbd3d9b19	-0.04629049
228	0xbdfc098c	-0.123065084
229	0xbd37d3c7	-0.0448797
230	0x3cd7406d	0.026275838
231	0x3da81e73	0.08208933
232	0xbdbd9870	-0.09257591
233	0xbbb05213	-0.0053808778
234	0xbe2d89dc	-0.1694712
235	0x3d669f61	0.05630434
236	0xbcc82329	-0.024430828
237	0x3af742f3	0.0018864557
238	0x3d7dc31e	0.061953656
239	0x3cb544c7	0.022127522
240	0xbd8f08dc	-0.06984112
241	0xbc946bd3	-0.01811782
242	0xbd9d7852	-0.07688965
243	0x3d2a3ce1	0.041561965
244	0x3e0816e1	0.13289978
245	0x3d36c219	0.0446187
246	0x3a76cd9a	0.00094147923
247	0x3c4df4f5	0.012570609
248	0x3d027166	0.031846426
249	0x3cd25581	0.025675537
250	0x3b1d771c	0.0024027294
251	0xbbd6186a	-0.006533672
252	0x3d464551	0.04840595
253	0x3cd5c68e	0.026095655
254	0xbe2e4ffb	-0.17022698
255	0xbd823171	-0.063570864

model.2.main.1.weight f4 [32]
0	0x3f7e79f5	0.9940484
1	0x3f82f2f3	1.0230392
2	0x3f7ddad3	0.99162024
3	0x3f7e7108	0.9939122
4	0x3f7d7f73	0.990226
5	0x3f7de21e	0.9917315
6	0x3f859e3d	1.0438915
7	0x3f8135ef	1.0094584
8	0x3f84e0ab	1.0381063
9	0x3f8075b9	1.0035926
10	0x3f7f9c97	0.9984831
11	0x3f7cbe6e	0.9872807
12	0x3f7ee0ad	0.9956158
13	0x3f835cdc	1.0262713
14	0x3f83435d	1.0254933
15	0x3f7fc0e1	0.99903685
16	0x3f82e8fe	1.0227354
17	0x3f7b7960	0.9823208
18	0x3f7ee47a	0.9956738
19	0x3f7edb1d	0.9955309
20	0x3f835b9a	1.026233
21	0x3f7eaf3e	0.9948615
22	0x3f802a7f	1.0012969
23	0x3f7ea4b1	0.9947005
24	0x3f7e862c	0.9942348
25	0x3f7b7274	0.98221517
26	0x3f7d115a	0.988546
27	0x3f80c5ae	1.0060327
28	0x3f7f678b	0.9976737
29	0x3f7d66a0	0.9898472
30	0x3f7faffa	0.99877894
31	0x3f8024ed	1.0011269

model.2.main.1.bias f4 [32]
0	0x3a59784d	0.0008295819
1	0x3b1385f6	0.0022510267
2	0x3b2f4fad	0.0026750371
3	0xbbc0dc0c	-0.0058856066
4	0x3c51a7e9	0.012796381
5	0xbbb7a3a5	-0.0056042247
6	0xbb71da8c	-0.0036903946
7	0x3c72051d	0.014771727
8	0x3c013597	0.007886312
9	0xbcfc4d61	-0.030798616
10	0x3be907e4	0.0071115363
11	0xbc33ed2d	-0.01098184
12	0xbc1d037f	-0.009583353
13	0xbbe769b2	-0.0070621604
14	0x3cce4747	0.025180472
15	0xbc2d12a1	-0.0105635235
16	0x3c56b71d	0.013105181
17	0xbae60ea5	-0.0017551972
18	0x39ebd512	0.00044981443
19	0x3ac8997c	0.0015304531
20	0xbbf76067	-0.007549334
21	0x3bef197d	0.0072967396
22	0x3a43ed11	0.00074739853
23	0xbabeea83	-0.001456574
24	0x3a7ad0d9	0.0009567864
25	0xbc4b3168	-0.012401916
26	0xbcd1b86d	-0.025600636
27	0xbbe5b1bb	-0.0070097125
28	0xbb6da094	-0.0036259042
29	0xbb87d0ca	-0.0041447626
30	0x3d2f5ced	0.04281323
31	0x3b3a8a68	0.0028463844

model.2.main.1.gate f4 [32]
0	0x3f7edcb7	0.99555534
1	0x3f89a5a1	1.0753671
2	0x3f87d54e	1.061197
3	0x3f7f16c6	0.99644125
4	0x3f82afe5	1.0209929
5	0x3f7ca5e3	0.98690623
6	0x3f847bb4	1.0350251
7	0x3f7f449d	0.9971407
8	0x3f892bab	1.0716451
9	0x3f84c4ba	1.0372536
10	0x3f7f02bd	0.99613553
11	0x3f829fe1	1.0205041
12	0x3f8c5953	1.096476
13	0x3f7695e3	0.9632246
14	0x3f86be2e	1.0526788
15	0x3f82f1e5	1.023007
16	0x3f88dffb	1.0693353
17	0x3f848d80	1.0355682
18	0x3f856de7	1.0424165
19	0x3f82a01a	1.0205109
20	0x3f85ed45	1.0463034
21	0x3f86da35	1.0535342
22	0x3f8258a3	1.01833
23	0x3f67dff6	0.9057611
24	0x3f706329	0.93901306
25	0x3f83faea	1.0310948
26	0x3f8a0045	1.0781332
27	0x3f91b3b2	1.1382964
28	0x3f80b1ee	1.00543
29	0x3f7cec16	0.9879774
30	0x3f8232a4	1.0171704
31	0x3f81bc6c	1.0135627

model.2.main.1.running_mean f4 [32]
0	0x40b20543	5.5631423
1	0xc081cf2d	-4.05654
2	0x3fb5ae27	1.4193772
3	0x3fbeeb9a	1.491565
4	0xc049b6a2	-3.151772
5	0xbf87161e	-1.0553625
6	0xc0174d9b	-2.3641117
7	0xbdf638ac	-0.12022528
8	0xbeb029fe	-0.34407037
9	0x3f340711	0.7032328
10	0xbf6c2735	-0.92247325
11	0x40eccc5b	7.3999457
12	0xc0937049	-4.6074567
13	0xbf0f46c6	-0.55967367
14	0x3fa31774	1.2741532
15	0xc035e78c	-2.8422575
16	0x409a330a	4.8187304
17	0x3f8585e8	1.043149
18	0xbfbcf981	-1.4763643
19	0x4081cdc0	4.056366
20	0x3f82bf4f	1.0214633
21	0xc07211cc	-3.7823362
22	0x3efa2ead	0.48863736
23	0xc013d046	-2.309587
24	0x3ee28f01	0.44249728
25	0xbd1052e5	-0.035235304
26	0xc011b595	-2.276708
27	0xc0889650	-4.2683487
28	0x409216fe	4.5653067
29	0x410d8e77	8.847281
30	0x3fd02c98	1.6263609
31	0x3ee4a806	0.44659442

model.2.main.1.running_var f4 [32]
0	0x408cbe35	4.3982186
1	0x406eddfa	3.7322984
2	0x4017071e	2.3598094
3	0x403703d6	2.8596091
4	0x403aa816	2.9165092
5	0x4062a334	3.5412111
6	0x3fb8c7b0	1.443594
7	0x3f6a1248	0.91434145
8	0x40640c56	3.563253
9	0x4054862b	3.320689
10	0x3ff0c5c7	1.8810357
11	0x40a2303f	5.0683894
12	0x3fff6e7d	1.9955593
13	0x400a48b5	2.1606877
14	0x40599b5f	3.400108
15	0x404f0cf1	3.2351649
16	0x40408a7f	3.0084531
17	0x3f8659a2	1.0496104
18	0x401006c1	2.2504122
19	0x4010936b	2.2589977
20	0x40830058	4.093792
21	0x3fd7ea6b	1.6868414
22	0x40097031	2.1474726
23	0x4098b9ce	4.772681
24	0x400861f9	2.1309798
25	0x403169af	2.7720754
26	0x404ef849	3.2339041
27	0x4016a1c9	2.3536246
28	0x400c0577	2.1878335
29	0x40f58d82	7.673524
30	0x4003c8db	2.0591342
31	0x40d34dfd	6.60327

model.2.main.3.weight f4 [32, 32, 3, 3]
0	0xbd0538a3	-0.032524716
1	0xbd1bdb4e	-0.038050942
2	0x3d1e5093	0.03865106
3	0x3cbfcd05	0.02341319
4	0xbd961eeb	-0.07330116
5	0xbc10cd01	-0.008837939
6	0x3c5a6f1c	0.013332155
7	0x3dfdb50c	0.123880476
8	0x3d357633	0.044302177
9	0xbd23e3da	-0.040012218
10	0xbd8b7dad	-0.0681108
11	0xbd4d201b	-0.050079446
12	0x3cce45a5	0.025179693
13	0x3d141f03	0.036162388
14	0xbe2b395b	-0.16721098
15	0xbd84b1b6	-0.06479208
16	0x3c3760eb	0.011192541
17	0xbd30ad4a	-0.04313401
18	0x3d7d6552	0.061864205
19	0xbd03d6d8	-0.032187313
20	0xbdaa8da6	-0.083277985
21	0xbe0d891f	-0.13821839
22	0x3e0aab15	0.13541825
23	0xbdedc394	-0.11609569
24	0x3e1ae445	0.1512614
25	0x3dec759a	0.11545868
26	0xbde5d33b	-0.1122193
27	0x3e569c79	0.20958127
28	0x3d3d8b49	0.04627541
29	0xbcee0ad6	-0.029057901
30	0x3e0358c9	0.12826838
31	0xbdbde041	-0.09271289
32	0xbd4b9f8f	-0.049712714
33	0x3c70522e	0.014668031
34	0xbd99707f	-0.0749216
35	0x3d5a0b73	0.053233575
36	0x3d57e302	0.052706726
37	0x3d9878c6	0.07444911
38	0x3d8aa3ce	0.067695245
39	0x3de0b72d	0.10972438
40	0x3da12c25	0.07869748
41	0x3dc2b95f	0.09508013
42	0xbdf1fac4	-0.11815408
43	0x3ccc3059	0.024925398
44	0x3cb2e934	0.021839716
45	0xbcd5caed	-0.02609774
46	0x3cd113c1	0.025522115
47	0x3d159b53	0.03652508
48	0x3d9b0fd7	0.075713806
49	0xbdbe3c30	-0.092888236
50	0xbdd49069	-0.103791066
51	0x3d14d197	0.036332693
52	0x3daac0e7	0.083375745
53	0x3dab9433	0.08377876
54	0x3dc74218	0.09729403
55	0x3b25a039	0.0025272502
56	0x3dcd30fd	0.100191094
57	0x3db0e845	0.08638052
58	0x3d59d820	0.05318463
59	0xbd0cd23f	-0.034380194
60	0x3d2461e1	0.040132407
61	0xbd7c423a	-0.061586596
62	0xbc57458a	-0.013139138
63	0x3dff2b5a	0.124594405
64	0xbc3bd779	-0.011464947
65	0x3ce3febe	0.027831431
66	0xbd1be228	-0.038057476
67	0xbdeb5f5d	-0.114927985
68	0x3d6ef383	0.0583377
69	0xbc2a44e7	-0.010392404
70	0xbce12814	-0.027484931
71	0x3d147314	0.03624256
72	0xbd85418a	-0.06506641
73	0xbb4751d6	-0.0030413768
74	0xbd08aa59	-0.03336558
75	0x3d803ea2	0.06261946
76	0xbdec6589	-0.11542804
77	0x3dd1e7e1	0.102493055
78	0x3dcaae05	0.09896473
79	0x3d366088	0.044525653
80	0xbd8be196	-0.068301365
81	0x3daba2a8	0.083806336
82	0x3d78fe63	0.060789477
83	0x3e33620a	0.17517868
84	0x3d8714fc	0.06595799
85	0x39d84b0c	0.00041254645
86	0xbc9d5f19	-0.019210385
87	0x3d7f56f1	0.062338773
88	0xbc5686e3	-0.013093683
89	0xbd8d93fa	-0.0691299
90	0x3c2aa157	0.010414443
91	0x3c9aa016	0.018875163
92	0xbdc7025b	-0.09717246
93	0xbe017371	-0.12641694
94	0xbd9b9f21	-0.07598711
95	0x3d537234	0.051622584
96	0xbd82f0b2	-0.06393565
97	0xbe55c0a5	-0.2087427
98	0x3cbc34b6	0.022974353
99	0xbdb9ed5c	-0.09078476
100	0x3df19797	0.117964916
101	0xbd2e111b	-0.04249678
102	0x3d8a9365	0.067663945
103	0xbda374ac	-0.07981238
104	0x3e0ca24a	0.13733783
105	0x3dd71590	0.105021596
106	0xbc801d7f	-0.015639065
107	0x3d0f615c	0.03500496
108	0x3d507aa5	0.050898213
109	0x3c0f14cd	0.008732987
110	0x3d7c71f4	0.06163211
111	0xbd100bb2	-0.035167404
112	0x3e0a3571	0.13496949
113	0x3e017820	0.1264348
114	0xbdb3ab1b	-0.0877287
115	0x3d81ed46	0.063440844
116	0x3dc9d867	0.098557286
117	0xbd4fcd1c	-0.050732717
118	0xbdaccd98	-0.084376514
119	0x3d7455b0	0.05965203
120	0x3deacc0f	0.11464702
121	0x3d294689	0.041327033
122	0xbb329f35	-0.002725554
123	0x3cdd8c6d	0.0270445
124	0x3c528a41	0.012850345
125	0x3d10ce34	0.0353529
126	0x3c941fb3	0.018081522
127	0xbc855ecf	-0.01628056
128	0xbd2cab6c	-0.04215567
129	0xbddf7b2c	-0.10912165
130	0x3dd00778	0.101576746
131	0x3d554574	0.05206819
132	0x3d0e5d93	0.034757208
133	0xbe037bd1	-0.12840201
134	0x3c9f5c6d	0.019453252
135	0x3e0f8d05	0.14018638
136	0xbe16aecc	-0.14715117
137	0x3d81d157	0.063387565
138	0x3dffb7d8	0.12486237
139	0xbd1aba7d	-0.037775505
140	0xbd3ef8d6	-0.046624027
141	0xbc1c3e24	-0.0095363
142	0xbd916adc	-0.0710046
143	0x3ab8560b	0.0014063729
144	0xbd667d7f	-0.056272026
145	0xbb5adda1	-0.0033396261
146	0x3dd463c2	0.1037059
147	0x3c5d468d	0.01350559
148	0x3da83096	0.08212392
149	0xbdfc5898	-0.123215854
150	0xbd0ef738	-0.034903735
151	0xbe27b77d	-0.16378589
152	0xbd93fc80	-0.07225895
153	0xbd7951ff	-0.060869213
154	0xbdf42557	-0.119211845
155	0xbb81dfea	-0.00396346
156	0xbe00340c	-0.12519854
157	0x3aa582c2	0.001262747
158	0x3b1aa6b4	0.0023597898
159	0xbd257362	-0.04039324
160	0x3d82199b	0.0635254
161	0x3d992018	0.074768245
162	0xbdb7499c	-0.08949587
163	0xbb39722a	-0.0028296807
164	0x3e00d863	0.12582545
165	0x3d4d4348	0.050112993
166	0x3e27154c	0.16316718
167	0xbdb64a62	-0.08900906
168	0xbce2ca29	-0.027684288
169	0x3e4f8bfa	0.2026824
170	0xbc928a9b	-0.017888358
171	0x3d1d1083	0.038345825
172	0xbd8a2438	-0.067451894
173	0xbdc2ccd2	-0.095117226
174	0xbe10c5d0	-0.1413796
175	0x3e219583	0.1577969
176	0xbcdce3c9	-0.026964085
177	0x3d3fdb38	0.046839923
178	0xbe2b3820	-0.16720629
179	0x3da351ea	0.07974608
180	0x3d2b953b	0.041890364
181	0x3e2b033f	0.16700457
182	0x3db53424	0.08847836
183	0x3d338958	0.043832153
184	0xbd00747c	-0.03136109
185	0xbd4b5d87	-0.04964974
186	0xbdcdd164	-0.10049704
187	0xbd5389c6	-0.051645063
188	0x3e17f946	0.14841184
189	0x3d0298d1	0.03188402
190	0xbcf61c0d	-0.030042673
191	0x3d8daf1b	0.06918164
192	0x3d84f055	0.06491152
193	0xb9a178c0	-0.0003079828
194	0xbe3b94f9	-0.18318547
195	0x3cf37c66	0.029722404
196	0xba00da96	-0.00049153843
197	0x3d088f4f	0.033339795
198	0x3c95ed94	0.018301763
199	0xbdc134e0	-0.09433913
200	0xbe523251	-0.20527007
201	0xbc763564	-0.015027378
202	0x3d84a421	0.064766176
203	0xbb361e0f	-0.0027788912
204	0x3cc0f094	0.023552217
205	0x3d8f6838	0.070023
206	0x3d58db35	0.052943427
207	0x3bf7b0fc	0.00755894
208	0xbb2fc8c2	-0.0026822542
209	0xbe12ad06	-0.14323816
210	0x3c2dd82a	0.01061062
211	0x3d6d38eb	0.05791561
212	0xbd72b8b9	-0.059258197
213	0xbe4091d7	-0.18805633
214	0x3b779090	0.0037775375
215	0xbbb764f8	-0.005596753
216	0xbe719e7e	-0.23595616
217	0xbe2e87b1	-0.1704395
218	0xbc25a5ad	-0.010110301
219	0x3bccf026	0.006254214
220	0xbd2bc0e8	-0.041932017
221	0x3d69708b	0.056992095
222	0xbd062ecb	-0.03275947
223	0x3d1a8626	0.03772559
224	0xbd77e315	-0.060519297
225	0x3d82fdda	0.063960746
226	0xbdac7f2c	-0.084226936
227	0xbc0a2b59	-0.008433186
228	0x3cf2b326	0.02962644
229	0xbe23168b	-0.15926568
230	0x3dc5deb7	0.0966162
231	0x3d9625de	0.07331441
232	0xbe38c037	-0.18042074
233	0xbd62a91c	-0.055337057
234	0xbd8f2942	-0.06990291
235	0x3c2e8722	0.010652335
236	0xbcf97b07	-0.030454172
237	0xbc8a52d4	-0.016885199
238	0x3d88355d	0.06650803
239	0x3dc59fe7	0.096496396
240	0x3d7c4770	0.061591566
241	0xbdf1f6d9	-0.118146606
242	0xbc4a6569	-0.01235328
243	0xbde7e3b5	-0.113227285
244	0x3e340049	0.17578234
245	0x3ac212a4	0.0014806581
246	0x3d89ce60	0.06728816
247	0x3d329370	0.04359764
248	0x3defb2df	0.11704039
249	0xbd917067	-0.07101517
250	0xbdbbf557	-0.09177654
251	0x3d9d8ee1	0.076932676
252	0x3cea0336	0.028565984
253	0x3d48ede7	0.049055006
254	0x3c351880	0.011053205
255	0x3e03af41	0.12859823

model.2.main.4.weight f4 [32]
0	0x3f82883d	1.0197827
1	0x3f7ee117	0.9956221
2	0x3f80a79f	1.0051154
3	0x3f80ef69	1.0073062
4	0x3f79befe	0.97557056
5	0x3f7ffec7	0.99998134
6	0x3f7ebd34	0.9950745
7	0x3f7e8f38	0.99437284
8	0x3f717fff	0.9433593
9	0x3f7f59cf	0.9974641
10	0x3f7934bf	0.9734611
11	0x3f7cce39	0.9875217
12	0x3f7e2802	0.992798
13	0x3f78fdb0	0.97262096
14	0x3f76297f	0.9615707
15	0x3f7c3984	0.9852526
16	0x3f76f095	0.9646085
17	0x3f814ff0	1.010252
18	0x3f7e2375	0.99272853
19	0x3f748c19	0.9552627
20	0x3f80b8a5	1.0056349
21	0x3f7c1e30	0.9848356
22	0x3f7d7232	0.99002373
23	0x3f7bc14d	0.9834183
24	0x3f7e01d5	0.99221545
25	0x3f7e30af	0.99293035
26	0x3f8137ae	1.0095117
27	0x3f7aeda0	0.98018837
28	0x3f7ca2a3	0.98685664
29	0x3f7b41c9	0.98147255
30	0x3f768e80	0.9631119
31	0x3f78e996	0.97231424

model.2.main.4.bias f4 [32]
0	0x3d2c8073	0.042114686
1	0x3cb58ad8	0.022160932
2	0x3c3c9d5a	0.011512125
3	0x3d2bf7b3	0.04198427
4	0xbab3ec99	-0.0013727128
5	0x3c0f95d7	0.008763752
6	0xbc645eca	-0.013938615
7	0xbc881681	-0.016612293
8	0xbc345005	-0.011005406
9	0x3c7cd5b3	0.015431809
10	0xbc5d4f4c	-0.013507675
11	0xbc442a9f	-0.011973052
12	0x3c8c22ab	0.017106375
13	0xbcd08927	-0.025456024
14	0xbb7b2b62	-0.0038325419
15	0xbc619a62	-0.013769718
16	0x3b9cd214	0.0047857855
17	0x3d2096a9	0.03920618
18	0xbbb938c2	-0.005652518
19	0xbb9bd2de	-0.004755362
20	0x3da2b3a9	0.07944424
21	0x3bb5c9cf	0.005547739
22	0xbadffd5f	-0.001708906
23	0xbc97d38e	-0.018533494
24	0x3bde87ab	0.006791075
25	0x3c708c73	0.014681923
26	0xbcbc266e	-0.022967543
27	0x3c01e5c3	0.007928315
28	0x3c297b23	0.0103442995
29	0x3a8899f5	0.0010421859
30	0x3d093e14	0.033506468
31	0x3caf3bcb	0.021390816

model.2.main.4.gate f4 [32]
0	0x3f67d1a6	0.90554273
1	0x3f8240ec	1.0176063
2	0x3f827d79	1.0194541
3	0x3f8b107d	1.0864407
4	0x3f855498	1.0416441
5	0x3f7d6e09	0.98996025
6	0x3f83d2c0	1.0298691
7	0x3f704e42	0.9386941
8	0x3f86bf7f	1.052719
9	0x3f7f18dc	0.9964731
10	0x3f83d13b	1.0298227
11	0x3f808ec1	1.0043565
12	0x3f85c3d3	1.0450386
13	0x3f851680	1.0397491
14	0x3f8685ff	1.0509642
15	0x3f7f368c	0.99692607
16	0x3f80e086	1.0068519
17	0x3f7c4520	0.98542976
18	0x3f81aab8	1.0130224
19	0x3f81137d	1.0084072
20	0x3f861eb3	1.0478119
21	0x3f8079f6	1.003722
22	0x3f811cd4	1.0086923
23	0x3f846cf9	1.0345756
24	0x3f792ede	0.9733714
25	0x3f7ca412	0.9868785
26	0x3f7c6f07	0.98606914
27	0x3f826712	1.0187705
28	0x3f8e6b46	1.1126487
29	0x3f7c094e	0.984517
30	0x3f861b64	1.0477109
31	0x3f875859	1.0573837

model.2.main.4.running_mean f4 [32]
0	0xbe2f888c	-0.17141932
1	0x3ea0dc16	0.31417912
2	0x3e88edbb	0.26743874
3	0x3fac1e23	1.3446697
4	0x3ea48616	0.3213355
5	0xbf873bce	-1.0565126
6	0x3ef17b97	0.47164604
7	0x3edbdd53	0.42942294
8	0xbe447c67	-0.1918808
9	0xbf4212a7	-0.7580971
10	0xbf2497f1	-0.64294344
11	0x3d4eb2c2	0.050463445
12	0x3f39a2d9	0.7251411
13	0x3c5edda8	0.013602652
14	0x3f2bded2	0.6713687
15	0x3ee82322	0.45339304
16	0xbd74eef8	-0.05979821
17	0xbf3802fa	-0.7187954
18	0xbec9d585	-0.39420715
19	0x3f01a026	0.5063499
20	0xbe6b9597	-0.23006283
21	0xbd819aa6	-0.06328325
22	0x3dc0c2ba	0.09412141
23	0x3e24dddb	0.16100256
24	0xbe3eba32	-0.18625715
25	0xbeb27486	-0.34854525
26	0x3f137330	0.5759764
27	0x3d6d6986	0.057961963
28	0xbf07ee5a	-0.5309807
29	0xbf452a88	-0.7701802
30	0xbfc0d5ca	-1.5065243
31	0xbe429ee2	-0.19005921

model.2.main.4.running_var f4 [32]
0	0x3f81249b	1.0089296
1	0x3f60dc96	0.8783659
2	0x3f73c6ee	0.9522542
3	0x3fba43e9	1.4551975
4	0x3f8ac31e	1.0840795
5	0x3f9831bf	1.1890181
6	0x3eb01003	0.34387216
7	0x3f5f35e4	0.87191606
8	0x3f3af4ae	0.730296
9	0x3f4ecae2	0.80778325
10	0x3fb945ce	1.4474428
11	0x3fd7cc0c	1.6859145
12	0x3fdb0f73	1.711409
13	0x3ec5e640	0.3865223
14	0x3f83cc84	1.0296788
15	0x3f90b375	1.1304766
16	0x3fa9b103	1.3257145
17	0x3f760999	0.96108395
18	0x401109cf	2.2662237
19	0x3fc1ddff	1.5145873
20	0x3f6ceb5a	0.9254662
21	0x3faa922e	1.332586
22	0x3f86b8c7	1.052514
23	0x3f3984ff	0.7246856
24	0x3fb581e3	1.4180263
25	0x3f8c830f	1.0977496
26	0x3fccfaf5	1.6014086
27	0x3f5a99da	0.8539101
28	0x40213a69	2.51919
29	0x3f61364b	0.8797347
30	0x3fba7c9d	1.4569279
31	0x3f334864	0.70032334

model.3.main.0.weight f4 [32, 32, 3, 3]
0	0xbd5b7d8e	-0.053586535
1	0xbd985556	-0.074381515
2	0x3e1e214f	0.15442394
3	0x3dbdd9f8	0.0927009
4	0x3d7df47a	0.06200073
5	0x3cf2e166	0.029648494
6	0x3d83347a	0.064064935
7	0xbd9bc92e	-0.07606731
8	0x3d060557	0.032719936
9	0x3cbd3794	0.02309779
10	0x3d2ad11b	0.041703325
11	0xbd9644b2	-0.07337321
12	0xbda86938	-0.08223194
13	0x3d9ef8c3	0.07762291
14	0x3d1c0a83	0.038095962
15	0xbe4b6d36	-0.1986588
16	0x3d811d61	0.06304432
17	0xbd3fd0ec	-0.046830103
18	0x3dda824c	0.106693834
19	0xbce18c5d	-0.02753275
20	0xbca78abb	-0.020451894
21	0x3e284c91	0.16435458
22	0xbb4e6b33	-0.0031497001
23	0x3cf55e8e	0.029952314
24	0xbda8c6c2	-0.08241035
25	0x3d9b11d7	0.07571762
26	0x3ddcb027	0.10775786
27	0x3e22c4c6	0.15895376
28	0xbdcfc0ab	-0.101441704
29	0x3af185cb	0.0018426714
30	0x3cc613a4	0.024179287
31	0x3dce2de9	0.100673504
32	0xbd13e97f	-0.03611135
33	0xbd515474	-0.05110593
34	0x3da62e25	0.0811427
35	0x3e1d26aa	0.1534678
36	0xbd8ea6cd	-0.069654085
37	0x3e0d8b10	0.1382258
38	0x3da1d199	0.07901306
39	0xbd3d665e	-0.046240203
40	0x3cc02a53	0.023457682
41	0xbda42cfc	-0.080163926
42	0xbd58a5b0	-0.052892387
43	0x3c4209a6	0.011843121
44	0xbb9a45f0	-0.004708044
45	0xbca5dcce	-0.02024689
46	0x3d832dc7	0.06405216
47	0x3c81496a	0.015782077
48	0x3dd14fb8	0.10220283
49	0x3aaa0dae	0.0012974048
50	0x3d875e02	0.066097274
51	0xbca35f27	-0.019942833
52	0xbc5aa347	-0.013344592
53	0xbca16a67	-0.019704057
54	0x3d130b9f	0.035899755
55	0x3dae081c	0.084976405
56	0xbd2f47bf	-0.04279303
57	0x3dcdc657	0.10047596
58	0x3dc1fc68	0.09471971
59	0x3c37d82a	0.011220971
60	0xbda0216f	-0.07818877
61	0xbb763a63	-0.0037571422
62	0x3e0b476e	0.13601467
63	0x3e50863e	0.2036371
64	0xbcd01e70	-0.025405139
65	0x3d331451	0.043720547
66	0x3d95265e	0.072827086
67	0x3d99cbe6	0.07509594
68	0xbde0414a	-0.10949953
69	0xbdd32897	-0.10310476
70	0x3da65caa	0.08123143
71	0xbe10e017	-0.14147983
72	0x3e6f5100	0.23370743
73	0x3ccdbf66	0.02511568
74	0xbd9cfb80	-0.07665157
75	0xbe0ab55d	-0.13545747
76	0xbd7ea237	-0.06216642
77	0xbde3bc10	-0.111198545
78	0xbcf31adb	-0.029675892
79	0x3c08036e	0.008301599
80	0x3e096085	0.13415726
81	0x3c257d20	0.010100633
82	0xbd15215d	-0.03640877
83	0xbc02ed9a	-0.007991219
84	0x3db6d727	0.08927756
85	0x3e03da40	0.12876225
86	0xbd172210	-0.03689772
87	0xbd749004	-0.059707657
88	0x3da559b8	0.08073753
89	0x3d013869	0.031547938
90	0xbc2c0dd3	-0.010501343
91	0x3e69041b	0.22755472
92	0xbb961d79	-0.00458115
93	0x3daf0d09	0.08547408
94	0xbd301000	-0.04298401
95	0xbd1e8ec7	-0.03871038
96	0xbda3b64e	-0.07993756
97	0x3d1528a9	0.03641573
98	0xbae35fa5	-0.001734723
99	0xbd0fb591	-0.035085265
100	0xbd369f7e	-0.044585697
101	0xbd69b7dc	-0.057060108
102	0xbd69608c	-0.05697684
103	0x3ce46f7b	0.02788519
104	0x3ce4f1d3	0.027947342
105	0xbe89750d	-0.26847115
106	0x3bcc6580	0.0062376857
107	0x3d224fb6	0.0396268
108	0x3caaa676	0.020831328
109	0x3d3f0c2f	0.04664248
110	0xbcfa7df9	-0.030577647
111	0xbd956923	-0.07295444
112	0x3e0062ab	0.12537639
113	0xbcae6450	-0.021288067
114	0xbc8f9aaf	-0.017529814
115	0xbdf42d72	-0.119227305
116	0x3d828045	0.06372122
117	0xbd8ea277	-0.069645815
118	0xbc17484f	-0.009233548
119	0xbdf856ee	-0.121259555
120	0x3e0c4c37	0.13700949
121	0x3cc9adb6	0.024618965
122	0xbe00affd	-0.12567134
123	0x3e24d0ac	0.16095227
124	0xbe27406c	-0.16333169
125	0xbddc738a	-0.10764225
126	0xbd61054d	-0.054936696
127	0x3e5aa2fa	0.21351233
128	0x3d60a3ac	0.05484359
129	0x3d6bf7b2	0.057609268
130	0xbd69229c	-0.05691777
131	0x3ccf75f0	0.025324792
132	0x3e1ac18c	0.15112895
133	0x3c9d2cb5	0.019186357
134	0xbd4a2e41	-0.049360517
135	0xbd6f9745	-0.05849387
136	0x3dd5b27b	0.10434433
137	0x3d31a473	0.04336972
138	0x3d1eda33	0.03878231
139	0x3c74929f	0.014927535
140	0xbe372d45	-0.17888363
141	0x3d826abd	0.06368015
142	0xbd5b76f0	-0.053580225
143	0xbe08b5eb	-0.13350646
144	0xbd8738dd	-0.06602643
145	0x3dd819c2	0.10551788
146	0x3e1efa00	0.15525055
147	0xbcd5342d	-0.026025856
148	0xbd9894f5	-0.07450286
149	0x3c1f9d76	0.009742131
150	0xbc3a18c5	-0.011358445
151	0xbd5e0950	-0.0542081
152	0xbe0b8288	-0.13624012
153	0x3cbae35d	0.022813493
154	0x3cb15226	0.021645617
155	0xbccc7131	-0.024956318
156	0x3beef5e6	0.007292497
157	0x3da19b57	0.07890957
158	0x3e11efda	0.14251652
159	0x3e6a4af5	0.22880156
160	0x3c9698cf	0.018383412
161	0x3d6c6be5	0.057720084
162	0x3bc77abc	0.006087629
163	0xbdaf6973	-0.08565035
164	0x3c606b37	0.013697437
165	0x3d1d51ee	0.038408212
166	0xbe93fa0a	-0.28901702
167	0xbe01ff0e	-0.12694952
168	0x3dc2ec51	0.0951773
169	0x3d2a9d19	0.041653726
170	0xbe0836e8	-0.13302195
171	0x3d67b3e9	0.05656806
172	0x3d75c61d	0.06000339
173	0x3c77a29e	0.015114455
174	0x3b1d3019	0.0023984967
175	0x3d9dc5cf	0.077037446
176	0x3dcc5b9c	0.099784106
177	0x3d98b4e8	0.0745638
178	0x3dfaa837	0.12239116
179	0x3d80f1e1	0.06296135
180	0xbe033b59	-0.12815608
181	0xbcecb22b	-0.02889355
182	0xbdb9fd05	-0.09081463
183	0xbd98ae6a	-0.07455142
184	0x3d82f15c	0.06393692
185	0xbda35002	-0.07974245
186	0xbd22df46	-0.03976371
187	0xbbca001e	-0.0061645648
188	0x3df20e01	0.11819077
189	0x3e0d6aa4	0.13810211
190	0x3d919e4e	0.07110272
191	0xbd4b45d2	-0.049627133
192	0xbcbccb3c	-0.023046128
193	0x3e36ec42	0.17863563
194	0x3cbdfc82	0.023191694
195	0xbd1a4d5d	-0.037671436
196	0x3dfba624	0.12287548
197	0x3d67cd2f	0.056592163
198	0x3d7316ca	0.059347905
199	0x3d0b07ce	0.03394299
200	0xbd25d1f5	-0.040483434
201	0xbd87e383	-0.06635191
202	0x3e56a849	0.20962633
203	0xbdcc6c0c	-0.09981546
204	0xbd848bcb	-0.06471976
205	0xbd48e22d	-0.049043823
206	0xbdb1154c	-0.0864664
207	0xbc45ab44	-0.012064759
208	0xbdba65ad	-0.09101424
209	0xbca4b3cf	-0.02010527
210	0xbdad55a9	-0.08463604
211	0x3e8994f4	0.26871455
212	0xbd3c8d07	-0.04603293
213	0xbd9c5410	-0.07633221
214	0xbcf175d6	-0.029475134
215	0xbe383085	-0.17987259
216	0xbe124229	-0.1428305
217	0x3d89e83f	0.067337506
218	0xbd061e24	-0.032743588
219	0x3c4db6db	0.012555803
220	0xbd86cbc0	-0.06581831
221	0xbd96e0c7	-0.073670916
222	0x3de23109	0.11044509
223	0xbdfb0c63	-0.12258222
224	0xb934e839	-0.00017252647
225	0x3d91b812	0.07115187
226	0xbd9342ed	-0.071904995
227	0x3dc724a6	0.09723787
228	0xbe243929	-0.1603743
229	0xbd5f30e8	-0.05449
230	0xbd0275ca	-0.031850614
231	0xbd819456	-0.06327121
232	0xbc0fa9cc	-0.00876851
233	0xbb296e9c	-0.0025853282
234	0x3db8b941	0.090197094
235	0xbd33c464	-0.043888465
236	0xbd45b4f3	-0.04826827
237	0x3cff7088	0.031181589
238	0xbcbb3563	-0.022852605
239	0xbd2f28c6	-0.042763494
240	0x3b3c483d	0.002872958
241	0x3dc4384d	0.09581051
242	0xbb1a6ce3	-0.0023563437
243	0xbcc97164	-0.024590202
244	0xbd2f99c6	-0.04287126
245	0xbc5164b9	-0.012780362
246	0x3da6e8a0	0.081498384
247	0x3cb56aad	0.022145594
248	0xbdb2e0a1	-0.08734251
249	0xbca3e38f	-0.02000597
250	0x3d56eed0	0.052473843
251	0x3b56d611	0.0032781402
252	0x3d2b4ede	0.04182326
253	0x3d744771	0.059638444
254	0xbc8bd5b5	-0.017069677
255	0x3cee63ae	0.029100265

model.3.main.1.weight f4 [32]
0	0x3f7f1196	0.9963621
1	0x3f7e9985	0.99453
2	0x3f81e6f9	1.0148612
3	0x3f7f8971	0.99819094
4	0x3f772a9c	0.9654939
5	0x3f7f60d8	0.99757147
6	0x3f78829f	0.9707431
7	0x3f803048	1.0014734
8	0x3f7cc2fc	0.9873502
9	0x3f7b5a82	0.9818498
10	0x3f7f07fb	0.9962155
11	0x3f80120b	1.0005506
12	0x3f7eb272	0.99491036
13	0x3f80292e	1.0012567
14	0x3f7ec6de	0.995222
15	0x3f7f61df	0.99758714
16	0x3f7f2cf2	0.99677956
17	0x3f812ece	1.0092409
18	0x3f82375c	1.0173144
19	0x3f803a77	1.0017842
20	0x3f809004	1.004395
21	0x3f7f09fe	0.9962462
22	0x3f814d3e	1.0101697
23	0x3f7d40b3	0.9892685
24	0x3f838530	1.0275021
25	0x3f80a61a	1.005069
26	0x3f7ee84d	0.9957321
27	0x3f819e66	1.0126464
28	0x3f7e8009	0.99414116
29	0x3f86aac0	1.0520859
30	0x3f804359	1.0020553
31	0x3f81be24	1.0136151

model.3.main.1.bias f4 [32]
0	0xbaf66e3c	-0.0018801163
1	0x387f446a	6.0860453e-05
2	0x3d22688f	0.039650496
3	0xba88046e	-0.0010377297
4	0x3c8f5584	0.017496832
5	0x3c3ad1e8	0.011402585
6	0xbb04d788	-0.0020270068
7	0x3c8ef4f2	0.017450783
8	0xbc9c4dc2	-0.019080047
9	0xbb0f9185	-0.0021906805
10	0x3d25c5d4	0.040471867
11	0x3aa43c84	0.0012530242
12	0xbb955280	-0.004556954
13	0x3c9095d3	0.017649567
14	0xbc6ec957	-0.01457437
15	0x3c842a9c	0.016133599
16	0x3cc78c3c	0.024358861
17	0x3b134bb4	0.0022475543
18	0x3d228dd6	0.039686047
19	0x3bf458dd	0.0074568824
20	0x3c704f0f	0.014667287
21	0xbba854a8	-0.005137045
22	0x3c3ab354	0.011395294
23	0xbb02c046	-0.001995103
24	0x3bd40187	0.0064699086
25	0x3b0d6c5f	0.0021579487
26	0xbbab0083	-0.005218567
27	0x3cd8c09c	0.02645903
28	0x3ca1596a	0.019695956
29	0x3d93e3b3	0.072211646
30	0x3d0805b5	0.033208568
31	0xb9b3f6a8	-0.00034325314

model.3.main.1.gate f4 [32]
0	0x3f80bfcc	1.0058532
1	0x3f85346d	1.0406624
2	0x3f898e68	1.0746584
3	0x3f7b4013	0.98144644
4	0x3f7c435c	0.9854028
5	0x3f760869	0.9610658
6	0x3f840ad7	1.0315808
7	0x3f833fb0	1.0253811
8	0x3f7ff418	0.9998183
9	0x3f832b85	1.0247656
10	0x3f6d5495	0.92707187
11	0x3f80b6bf	1.005577
12	0x3f8189e5	1.0120207
13	0x3f840393	1.0313591
14	0x3f85fa69	1.0467044
15	0x3f82f54d	1.023111
16	0x3f7f1957	0.9964804
17	0x3f88bc9f	1.0682563
18	0x3f87f42b	1.0621389
19	0x3f7c71a6	0.98610914
20	0x3f8079ee	1.003721
21	0x3f816542	1.0109026
22	0x3f7fa8da	0.9986702
23	0x3f7c4fdc	0.98559356
24	0x3f886d0b	1.0658277
25	0x3f86f63b	1.0543894
26	0x3f84bf1d	1.0370823
27	0x3f8082f5	1.0039965
28	0x3f7075a6	0.9392952
29	0x3f82efaf	1.0229396
30	0x3f7d3a96	0.9891752
31	0x3f80955b	1.004558

model.3.main.1.running_mean f4 [32]
0	0x3fc34e4c	1.5258269
1	0x3f9c0f1c	1.2192111
2	0xbec5d91a	-0.38642198
3	0x3ff80929	1.9377795
4	0xc06b25ba	-3.6741776
5	0x3f62009e	0.8828219
6	0x3f595121	0.8488942
7	0x408625e9	4.1921277
8	0xbf89a351	-1.0752965
9	0x3fde5efe	1.7372739
10	0x3f1c61c0	0.61086655
11	0x40e19613	7.0495696
12	0x40713d98	3.7693844
13	0xc07538c7	-3.8315904
14	0x4000685c	2.0063696
15	0xc010c66c	-2.2621107
16	0x3e3383f2	0.17530802
17	0xc073d0df	-3.8096235
18	0xbf094cf5	-0.5363305
19	0xbf5581af	-0.83401006
20	0x40a310e5	5.0958123
21	0x407d91fb	3.962035
22	0xc01b4880	-2.4263
23	0x401c25ec	2.4398146
24	0xc00d248a	-2.2053552
25	0xbf292481	-0.66071326
26	0x3fef77b2	1.8708403
27	0xc02bd845	-2.685075
28	0xc0703282	-3.7530828
29	0xc002c458	-2.0432339
30	0x406f7b46	3.741899
31	0xbf3825e1	-0.719328

model.3.main.1.running_var f4 [32]
0	0x40a544c3	5.164644
1	0x409f5766	4.9794188
2	0x40d646e2	6.6961527
3	0x405bdb99	3.4352782
4	0x4096f97a	4.7179537
5	0x407c57d4	3.9428606
6	0x40cc8185	6.3908105
7	0x4067b775	3.6205723
8	0x40c546d5	6.1648965
9	0x40552714	3.3305101
10	0x40bb8702	5.8602304
11	0x4115bd07	9.358649
12	0x40e000c3	7.000093
13	0x40ac8f33	5.3924804
14	0x40db1842	6.846711
15	0x40b7314d	5.724768
16	0x4074b8bd	3.8237755
17	0x4102db20	8.178497
18	0x410b5031	8.707078
19	0x409c3e3e	4.882598
20	0x40d30d92	6.5954065
21	0x40cab480	6.3345337
22	0x4076d1b7	3.85655
23	0x403f97f3	2.9936492
24	0x4117bf84	9.484257
25	0x4093676e	4.6063757
26	0x40723311	3.7843668
27	0x4062025f	3.5313947
28	0x40325462	2.7864003
29	0x41556849	13.33796
30	0x407eb5b3	3.97984
31	0x40a261ed	5.074454
