checkpoint/clf/experiment_name/400/netS.pth (torch, 828110 bytes, 10 tensors)

conv.0.bias f4 [64]
-0.0058834325 -0.0006425611 -0.0047809063 0.03444954 0.0080117695 -0.002870966 -0.0108147 -0.0035076386
-0.00011008981 0.0046590376 -0.0023459692 -0.011153913 0.009386393 -0.0036766182 -0.008558782 -0.0015960401
-0.00045363017 -0.00686997 -0.0055052433 -0.010095043 0.014070097 -0.021857692 -0.016418979 -0.0096181175
-0.0035498685 -0.0026250794 -0.00600931 0.007449963 -0.0019620159 -0.007174669 0.006642965 -0.012521756
-0.00046275914 -0.00043119115 -0.0019465751 -0.0045797694 -0.006262556 0.0057767634 0.0019387329 -0.009519687
-0.013014271 0.0012781309 0.041513905 -0.010158637 -0.007832348 -0.00094432407 -0.008104225 0.011151908
0.0067333356 -0.0014852732 0.010324677 0.0045630615 0.009743276 -0.013381366 -0.00735751 0.0055144094
0.008729659 -0.007164163 0.007032917 0.005999683 0.029215327 3.6081894e-06 0.013299018 0.015758853
00000000: cfc9 c0bb 8c71 28ba 26a9 9cbb f61a 0d3d
00000010: cc43 033c d126 3cbb 2430 31bc 69e0 65bb
00000020: 04e0 e6b8 d7aa 983b d5be 19bb e7be 36bc
00000030: 63c9 193c 6bf3 70bb 223a 0cbc 3832 d1ba
00000040: 36d5 edb9 7c1d e1bb 5465 b4bb ae65 25bc
00000050: 4486 663c e70e b3bc 1881 86bc 4f95 1dbc
00000060: e9a4 68bb 8609 2cbb bfe9 c4bb d21e f43b
00000070: 2a95 00bb 7c19 ebbb 3bad d93b 0d28 4dbc
00000080: 7b9e f2b9 7f11 e2b9 3924 ffba e411 96bb
00000090: 2136 cdbb 014b bd3b 151d fe3a 76f8 1bbc
000000a0: cf39 55bc f586 a73a 7c0a 2a3d 6970 26bc
000000b0: 4053 00bc 848c 77ba 95c7 04bc 7eb6 363c
000000c0: 50a3 dc3b 80ad c2ba d628 293c bc85 953b
000000d0: 43a2 1f3c 843d 5bbc 4417 f1bb 38b2 b43b
000000e0: d806 0f3c 5bc1 eabb 6274 e63b fd98 c43b
000000f0: fb54 ef3c 3924 7236 20e4 593c b618 813c

conv.0.weight_orig f4 [64, 64, 3, 3]
0.03521197 -0.026213737 -0.031603217 -0.09737351 -0.09836548 -0.020704756 -0.052403588 0.033149954
-0.03711158 0.025635421 0.08040323 -0.010813474 0.11665497 -0.034191042 -0.07210459 -0.032745726
-0.02270871 0.0018249013 0.055518232 0.19916347 0.06918591 0.13392486 0.00926375 0.12755032
-0.0030102953 0.1139916 -0.039102864 -0.092516 -0.061770063 -0.0061427923 0.07135432 -0.07885026
-0.007941343 0.04297438 0.03212773 -0.0035628274 -0.013950578 -0.05126758 0.017559746 -0.06095839
0.029926106 0.06229028 0.010997909 0.0675742 0.03881004 0.05108309 0.09532572 -0.017514246
0.02685037 0.070496224 0.05229621 0.009113596 0.059543643 0.14829181 -0.01991776 0.0180389
0.044191282 0.030762695 0.12875226 -0.06336436 0.012638939 -0.012499024 0.14101009 0.12539439
0.054093458 0.12280564 -0.056757696 0.11071247 -0.02270685 0.005915269 0.008672777 0.05144082
0.08655105 0.067622475 -0.005257037 0.13219379 0.06947912 0.0725383 -0.019388307 0.0750787
0.016689474 0.041524477 -0.08526062 0.0234843 -0.10207883 0.06630117 -0.0053593377 -0.04202281
-0.017573405 0.045089867 -0.002846708 0.057958126 -0.09492347 0.059488516 0.009451991 0.00548849
-0.018425541 -0.030498913 0.05332383 0.12490067 -0.013862011 -0.02132292 0.022803588 -0.09138976
0.08411095 -0.016955545 0.0078834845 -0.03311537 -0.048774928 -0.029116632 0.0072329575 0.0412646
0.030419817 -0.04289116 0.075415045 0.022881491 0.03540121 -0.063966036 0.0089488095 -0.12254207
-0.023110077 0.05870227 0.0065198583 0.0026629686 -0.060694475 0.054818016 0.117543384 0.03041583
-0.040909942 -0.028279878 -0.11142945 -0.0917727 -0.031092634 -0.041290294 0.01816751 -0.00087378075
0.06848683 0.12674628 0.013528988 0.0767196 -0.06856789 0.04655677 0.038207687 0.024040783
0.049660757 -0.025492309 0.086461134 -0.0087473085 0.023711648 -0.031111725 0.0077478574 -0.011272483
0.050574668 0.0347745 0.01902575 -0.00741004 0.08793188 -0.10721649 -0.04101408 0.059807017
0.027745703 -0.1035975 0.0041986327 0.06803463 0.017079573 0.1330578 0.010175134 -0.09232392
-0.12955472 0.044738255 -0.027946623 -0.14563121 -0.00036490703 0.057655197 -0.030271366 -0.2080386
-0.033671726 0.06725524 -0.01497924 0.0069543766 -0.03141976 -0.014332909 0.054328334 0.02714503
-0.080638155 -0.10014935 -0.12113007 0.0012252156 0.02765963 -0.10336301 -0.017430684 0.0069345064
0.00029988884 -0.044366833 -0.008259918 -0.010393609 -0.0137254 -0.08153503 -0.041516308 0.07907514
0.04124916 0.06479712 0.030875264 0.034942064 0.042753924 -0.013044577 0.05559689 -0.053225696
0.023552468 -0.13966908 0.06442009 0.07638964 -0.012455719 -0.1361982 -0.049282815 -0.0008988271
-0.08761657 0.014080454 0.02593679 0.044356745 -0.032374773 0.03502092 0.045137342 0.04842378
-0.012554391 -0.08306194 0.0078037926 0.028176926 -0.009029133 -0.07720583 -0.040312823 -0.059792757
0.06275742 -0.01741504 0.057139486 -0.022584291 0.030625142 0.03059154 -0.013950844 -0.026617376
-0.06285442 0.15856005 -0.09621821 -0.11792896 -0.033860244 -0.022293502 -0.010758566 0.010494922
0.015028959 -0.059631012 -0.13512066 -0.014930224 -0.013085842 0.022535443 -0.027926516 0.031914253
00000000: 6d3a 103d 31be d6bc 6072 01bd c36b c7bd
00000010: d773 c9bd 059d a9bc 25a5 56bd 3fc8 073d
00000020: 5002 18bd 6001 d23c 73aa a43d ff2a 31bc
00000030: cde8 ee3d e80b 0cbd 92ab 93bd 6220 06bd
00000040: 9e07 babc 8731 ef3a 1667 633d 82f1 4b3e
00000050: 58b1 8d3d 9923 093e fcc6 173c 8d9c 023e
00000060: 6048 45bb 6e74 e93d 532a 20bd 0779 bdbd
00000070: 9b02 7dbd 7a49 c9bb 3722 923d 3f7c a1bd
00000080: 681c 02bc e705 303d 5e98 033d 537e 69bb
00000090: f790 64bc f4fd 51bd 75d9 8f3c 81af 79bd
000000a0: 9827 f53c 1824 7f3d 9330 343c 5864 8a3d
000000b0: 47f7 1e3d 813c 513d 223a c33d 097a 8fbc
000000c0: 4ff5 db3c 5360 903d 8d34 563d 3151 153c
000000d0: 09e4 733d cfd9 173e 922a a3bc 51c6 933c
000000e0: eb01 353d 0c02 fc3c a2d7 033e 2cc5 81bd
000000f0: 8d13 4f3c b5c8 4cbc f364 103e 6367 003e
00000100: 1a91 5d3d 8681 fb3d c27a 68bd 38bd e23d
00000110: b703 babc dfd4 c13b 4318 0e3c 9cb3 523d
00000120: ad41 b13d a77d 8a3d 3943 acbb cf5d 073e
00000130: 124b 8e3d f68e 943d 3ad4 9ebc ddc2 993d
00000140: 5db8 883c 9215 2a3d 1f9d aebd 2662 c03c
00000150: b50e d1bd e8c8 873d 629d afbb 1c20 2cbd
00000160: 1af6 8fbc 27b0 383d d68f 3abb 8065 6d3d
00000170: 3c67 c2bd 3baa 733d 86dc 1a3c cbd8 b33b
00000180: 29f1 96bc dbd8 f9bc 176a 5a3d eccb ff3d
00000190: 7d1d 63bc 68ad aebc 97ce ba3c 8e2a bbbd
000001a0: 5d42 ac3d 5be6 8abc bb29 013c fba3 07bd
000001b0: 38c8 47bd 0186 eebc 7202 ed3b 1205 293d
000001c0: fb32 f93c a4ae 2fbd 3473 9a3d f771 bb3c
000001d0: dc00 113d a000 83bd 079e 123c 56f7 fabd
000001e0: 5851 bdbc cb71 703d 89a4 d53b 3385 2e3b
000001f0: c59a 78bd db88 603d 96ba f03d 9e2a f93c
00000200: 2f91 27bd 34ab e7bc 2035 e4bd 53f3 bbbd
00000210: fbb5 febc 0320 29bd 08d4 943c 6f0e 65ba
00000220: d342 8c3d c7c9 013e b0a8 5d3c 2a1f 9d3d
00000230: 526d 8cbd 50b2 3e3d aa7f 1c3d 2df1 c43c
00000240: 1469 4b3d 3fd5 d0bc 8912 b13d df50 0fbc
00000250: ee3e c23c 04de febc bde1 fd3b 38b0 38bc
00000260: 6227 4f3d b56f 0e3d e4db 9b3c eccf f2bb
00000270: a115 b43d 5294 dbbd 61fe 27bd 34f8 743d
00000280: f54a e33c ed2a d4bd af94 893b bd55 8b3d
00000290: 76ea 8b3c 4e40 083e 9bb5 263c 5314 bdbd
000002a0: fea9 04be 763f 373d 51f0 e4bc 5920 15be
000002b0: fe50 bfb9 db27 6c3d a8fb f7bc 1208 55be
000002c0: 5deb 09bd 1ebd 893d 7c6b 75bc 8ae1 e33b
000002d0: 02b2 00bd 94d4 6abc 6387 5e3d 415f de3c
000002e0: 9e25 a5bd 1a1b cdbd 0b13 f8bd 6a97 a03a
000002f0: 7396 e23c fcaf d3bd cbca 8ebc db3a e33b
00000300: 663a 9d39 ffb9 35bd 9b54 07bc f549 2abc
00000310: 80e0 60bc d6fb a6bd 010d 2abd 26f2 a13d
00000320: e1f4 283d 5ab4 843d 1fee fc3c 691f 0f3d
00000330: bd1e 2f3d ecb8 55bc 91b9 633d 3003 5abd
00000340: 1bf1 c03c 6905 0fbe aeee 833d 2c72 9c3d
00000350: 1213 4cbc 8a77 0bbe c7dc 49bd 449f 6bba
00000360: 5170 b3bd b4b1 663c 6479 d43c 6baf 353d
00000370: 699b 04bd 1972 0f3d efe1 383d 0358 463d
00000380: efb0 4dbc 611c aabd f5b6 ff3b 4cd3 e63c
00000390: eeee 13bc 171e 9ebd 0f1f 25bd 40e9 74bd
000003a0: f686 803d fca9 8ebc 180b 6a3d b102 b9bc
000003b0: 94e1 fa3c 1c9b fa3c 1592 64bc af0c dabc
000003c0: d1b9 80bd 915d 223e 0e0e c5bd bd84 f1bd
000003d0: 0ab1 0abd dda0 b6bc b244 30bc e5f2 2b3c
000003e0: 063c 763c a63f 74bd 125d 0abe e69d 74bc
000003f0: 0066 56bc 409c b83c 26c6 e4bc 85b8 023d

conv.0.weight_u f4 [64]
0.24640079 0.2945601 0.091853134 0.38938457 -0.049782697 -0.053536907 -0.051378544 -0.15487437
0.09343501 0.054556753 -0.031728726 0.02909233 -0.12870225 0.1556081 -0.08092204 -0.1019392
0.053777184 -0.11372879 0.03635309 0.027928293 -0.11086961 0.034638565 0.24112894 0.02464154
-0.04519732 -0.0689479 -0.05641901 -0.11968651 0.10173935 0.15033501 -0.18846716 -0.041874394
-0.12372855 0.063809425 0.017787145 0.0092837075 0.02985577 0.22379951 0.03071319 0.10406349
0.13439265 0.13744473 -0.068240166 0.084625885 -0.089775585 0.15336049 -0.06087455 0.08285187
-0.058047626 0.024274282 -0.13539563 -0.115121804 -0.06688478 -0.11577987 -0.008830132 -0.016823154
-0.13117675 -0.153534 -0.1281609 -0.18698756 -0.16538286 0.07230306 0.05070442 0.22351736
00000000: 7d50 7c3e 95d0 963e 7f1d bc3d 6a5d c73e
00000010: f1e8 4bbd 8449 5bbd 4f72 52bd 6397 1ebe
00000020: db5a bf3d e776 5f3d fbf5 01bd 0a53 ee3c
00000030: 86ca 03be bb57 1f3e 74ba a5bd 80c5 d0bd
00000040: 7745 5c3d a4ea e8bd fae6 143d e0c9 e43c
00000050: 9b0f e3bd 2be1 0d3d 81ea 763e 0edd c93c
00000060: d320 39bd 8e34 8dbd 9f17 67bd 331e f5bd
00000070: b85c d03d 6cf1 193e 89fd 40be 7c84 2bbd
00000080: 6565 fdbd 84ae 823d 59b6 913c b11a 183c
00000090: 1694 f43c b32b 653e 3a9a fb3c 3d1f d53d
000000a0: 3a9e 093e 50be 0c3e 80c1 8bbd 5650 ad3d
000000b0: 43dc b7bd 880a 1d3e 9857 79bd 3eae a93d
000000c0: 59c3 6dbd dcda c63c 27a5 0abe fbc4 ebbd
000000d0: e3fa 88bd ff1d edbd 42ac 10bc b6d0 89bc
000000e0: 3353 06be 0438 1dbe 9c3c 03be ab79 3fbe
000000f0: 205a 29be a013 943d 70af 4f3d bce1 643e

conv.0.weight_v f4 [576]
-0.056986894 -0.038155146 0.0071586017 0.045447156 0.014565256 -0.04114776 0.024044719 0.011404258
-0.094115466 0.019244192 -0.109584816 0.02220878 0.06755579 -0.011956317 -0.05520377 -0.034525637
-0.055157017 -0.0390239 0.11559858 0.11034299 0.08557751 0.06920784 0.099397235 0.06721155
0.09025027 0.11567538 0.08971145 -0.019034214 0.02208317 0.037867427 0.02989366 0.027053386
-0.009454511 0.059101474 0.0070820567 -0.0082067 -0.02910476 -0.07449447 -0.006605399 -0.025499746
0.009581966 -0.034774877 -0.041118693 0.010908845 0.012755318 -0.007980211 0.028257405 0.035465878
0.021134978 0.0010161403 0.041632593 0.016777381 0.08222103 0.0030490106 0.11367988 0.09433527
0.022444582 0.032944035 0.09523467 0.030333364 -0.029211668 0.02666915 0.08802336 0.077088214
0.05210674 0.035466276 0.07501952 0.08327339 0.035108726 0.037135094 -0.016511247 0.036245983
0.09276702 0.02910006 0.07894706 0.07576438 0.08718761 0.106349476 0.071417496 0.052697584
0.035361353 0.053744186 -0.019395085 0.013722929 -0.0076511614 0.057833806 0.052593924 0.04673295
-0.022625199 -0.04742382 -0.037948642 -0.02372081 -0.0015121103 0.002335163 0.04099974 0.031187039
-0.025684789 -0.0032377956 -0.06597245 0.02884136 -0.04930164 -0.013745304 -0.06322016 -0.019417718
-0.004446941 -0.031466864 -0.04384074 -0.03206718 0.047874432 0.0070377416 0.04219314 0.061687067
0.07046416 -0.0011918279 0.03314469 0.028805694 0.038069203 -0.063518174 -0.059878502 0.025910905
-0.05192231 -0.012134355 0.0061748773 -0.03315596 -0.042931627 0.009276508 -0.008482644 0.030261854
-0.039863683 -0.030337276 -0.009164656 0.002712819 0.021733629 0.012830792 0.0077067455 -0.038999993
0.014395388 0.02982942 -0.027487427 0.023546997 -0.015682943 0.0084548965 0.019432714 -0.025084084
0.04185447 -0.0073830164 0.033673514 -0.0173572 0.013099673 -0.06876537 0.020763427 0.108637504
0.04061074 0.010423906 0.018675566 0.03151634 0.007532233 0.0014913598 0.012773543 -0.013785112
-0.048145223 -0.039944384 0.03303864 0.05775265 -0.025448106 0.078047894 0.10098216 -0.00275085
-8.03136e-06 -0.0065747066 0.00868395 -0.049511798 0.051877838 -0.040983766 -0.0134584205 0.035649106
0.0048980117 0.012926885 -0.028868433 0.09431415 0.015129803 -0.03342081 -0.041051604 0.00346721
-0.018567465 -0.069224924 -0.0067532463 0.021201754 -0.020471297 -0.05939267 -0.07938286 -0.051465336
-0.053573824 -0.066891044 -0.053022694 -0.036690824 -0.06364169 -0.11861737 -0.027829746 -0.012154671
-0.037623458 0.0016535715 0.01730448 -0.022956612 -0.04772215 0.027360031 0.05884783 -0.032747332
-0.047192566 -0.044781443 0.073572844 -0.020144949 -0.06541768 -0.010385136 0.033007152 0.006667698
-0.04685257 -0.036767874 0.06999507 0.02307586 0.01524344 -0.0029370824 -0.022173034 0.0050133094
-0.01843225 -0.02520284 0.016636524 0.0065480694 -0.06400835 -0.018937513 0.048787408 -0.028399607
0.003999537 0.04861694 -0.018250264 -0.051411625 0.026327377 -0.008238457 -0.049029306 -0.02153654
0.017026788 0.02587368 -0.068986915 -0.0991326 -0.049553707 -0.031884585 -0.016865287 -0.013253426
-0.04236825 -0.0073227314 0.030448485 -0.04937829 0.008846149 0.008943606 -0.05905998 0.004146061
00000000: 176b 69bd 9248 1cbd b492 ea3b cc26 3a3d
00000010: 1da3 6e3c 8e8a 28bd 6ef9 c43c edd8 3a3c
00000020: 9cbf c0bd ffa5 9d3c 016e e0bd 30ef b53c
00000030: b15a 8a3d 6ee4 43bc 591d 62bd c16a 0dbd
00000040: 53ec 61bd 86d7 1fbd f3be ec3d 81fb e13d
00000050: 4343 af3d d7bc 8d3d c790 cb3d 36a6 893d
00000060: 22d5 b83d 37e7 ec3d a3ba b73d a4ed 9bbc
00000070: c4e7 b43c e01a 1b3d 8de3 f43c 109f dd3c
00000080: 18e7 1abc 6314 723d 9910 e83b 6575 06bc
00000090: 1b6d eebc 8f90 98bd 1a72 d8bb d8e4 d0bc
000000a0: aefd 1c3c 1a70 0ebd 136c 28bd 03bb 323c
000000b0: aefb 503c 6ebf 02bc 137c e73c ab44 113d
000000c0: 4323 ad3c 0330 853a f086 2a3d b870 893c
000000d0: 8063 a83d e9d1 473b ffd0 e83d da32 c13d
000000e0: b3dd b73c 53f0 063d 650a c33d ad7d f83c
000000f0: 4f4d efbc 4379 da3c 9745 b43d 6de0 9d3d
00000100: e16d 553d 1645 113d d6a3 993d 3d8b aa3d
00000110: 2bce 0f3d f81a 183d 9842 87bc ab76 143d
00000120: a3fc bd3d 4063 ee3c ffae a13d 5b2a 9b3d
00000130: 6b8f b23d c1cd d93d 5643 923d 6cd9 573d
00000140: 11d7 103d dd22 5c3d 71e2 9ebc 23d6 603c
00000150: 98b6 fabb 24e3 6c3d ba6c 573d 0d6b 3f3d
00000160: 7b58 b9bc 7b3f 42bd 0970 1bbd 2552 c2bc
00000170: 0132 c6ba 8909 193b 58ef 273d f67b ff3c
00000180: e868 d2bc 3231 54bb 901c 87bd b744 ec3c
00000190: 84f0 49bd fc33 61bc 9279 81bd e811 9fbc
000001a0: a5b7 91bb 66e3 00bd 5992 33bd e058 03bd
000001b0: fb17 443d db9c e63b b7d2 2c3d 94ab 7c3d
000001c0: 834f 903d 1c37 9cba bac2 073d ebf9 eb3c
000001d0: 74ee 1b3d d115 82bd 2943 75bd 1b43 d43c
000001e0: 7dac 54bd 2ccf 46bc a056 ca3b 8bce 07bd
000001f0: 13d9 2fbd 7ffc 173c cafa 0abc b5e7 f73c
00000200: 1a48 23bd e185 f8bc 5a27 16bc 8dc9 313b
00000210: b90a b23c 3e38 523c de88 fc3b 75be 1fbd
00000220: a2da 6b3c d45c f43c 502d e1bc a2e5 c03c
00000230: 8479 80bc 6886 0a3c 5b31 9f3c 237d cdbc
00000240: 986f 2b3d 3bed f1bb 3ded 093d b030 8ebc
00000250: 03a0 563c dcd4 8cbd 1018 aa3c 577d de3d
00000260: 7357 263d 08c9 2a3c 80fd 983c 4717 013d
00000270: f3d0 f63b bb79 c33a 1f48 513c f3da 61bc
00000280: ed33 45bd b99c 23bd 8653 073d 0b8e 6c3d
00000290: 8c78 d0bc 93d7 9f3d bccf ce3d 9b47 34bb
000002a0: 6ebe 06b7 a370 d7bb 2047 0e3c e2cc 4abd
000002b0: db7d 543d 98de 27bd b580 5cbc cc04 123d
000002c0: 807f a03b 49cb 533c 7e7d ecbc c727 c13d
000002d0: fee2 773c 42e4 08bd ba25 28bd 223a 633b
000002e0: cc1a 98bc ccc5 8dbd 564a ddbb 4daf ad3c
000002f0: 6cb3 a7bc ba45 73bd 7b93 a2bd 51cd 52bd
00000300: 3a70 5bbd 2cfe 88bd 532e 59bd 1e49 16bd
00000310: 9356 82bd aaed f2bd 35fb e3bc 6324 47bc
00000320: 0e1b 1abd a7bc d83a 20c2 8d3c 810f bcbc
00000330: 4d78 43bd 2522 e03c 6c0a 713d 1122 06bd
00000340: fe4c 41bd bf6c 37bd 5cad 963d 0507 a5bc
00000350: b4f9 85bd 6b26 2abc 8232 073d b47c da3b
00000360: 7be8 3fbd e999 16bd 9359 8f3d 9609 bd3c
00000370: 9fbf 793c 117c 40bb 39a4 b5bc b046 a43b
00000380: 3bff 96bc 3076 cebc 5249 883c 3091 d63b
00000390: cf16 83bd d822 9bbc 4ed5 473d 4ba6 e8bc
000003a0: 8c0e 833b 8e22 473d 9481 95bc ff94 52bd
000003b0: 83ac d73c 98fa 06bc f4d2 48bd 666d b0bc
000003c0: c37b 8b3c 0af5 d33c 0349 8dbd 0806 cbbd
000003d0: d4f8 4abd 6999 02bd 1229 8abc e624 59bc
000003e0: 558a 2dbd 86f3 efbb 1a6f f93c e440 4abd
000003f0: 70ef 103c 3488 123c e1e8 71bd aedb 873b

conv.2.bias f4 [64]
-0.008819587 -0.020351477 0.026904013 -0.0041893804 -0.0062689073 -0.006003697 -0.0035367087 -0.007794098
-0.0142998155 -0.00025795598 0.004285509 -0.013864032 -0.0077648 -0.006371394 -0.017059974 -0.011084824
-0.010295796 -0.015931204 -0.00816522 -0.0054188836 -0.01800922 -0.010866093 -0.0064778547 -0.0060365484
-0.036668066 -0.0075272303 -0.01707238 -0.0072126845 -0.00953461 -0.0027717445 -0.03818212 -0.0046909885
-0.013583889 -0.031452324 -0.008939309 -0.05431994 -0.0064819832 -0.012165583 -0.0064950865 -0.018327426
-0.008620103 -0.00595257 -0.013668045 -0.0043406393 -0.030267285 -0.007409965 -0.004582294 -0.0051074903
-0.00477587 -0.0096565345 -0.020788336 -0.007421345 -0.0047267308 -0.007059036 -0.007064805 -0.0081437
-0.003857329 -0.012114839 -0.009994612 -0.0058715795 -0.033483718 -0.0055600493 -0.010363339 -0.015500106
00000000: 0780 10bc 24b8 a6bc ce65 dc3c 1247 89bb
00000010: 686b cdbb a9ba c4bb 20c8 67bb a265 ffbb
00000020: c649 6abc 443e 87b9 756d 8c3b f725 63bc
00000030: dd6f febb 20c7 d0bb 5cc1 8bbc 1f9d 35bc
00000040: b3af 28bc 2882 82bc 6ac7 05bc e490 b1bb
00000050: 1288 93bc b307 32bc 2f44 d4bb 3dce c5bb
00000060: 4131 16bd fca6 f6bb 60db 8bbc 6258 ecbb
00000070: 0e37 1cbc 28a6 35bb db64 1cbd ddb6 99bb
00000080: f68e 5ebc 27d4 00bd 2e76 12bc 967e 5ebd
00000090: d166 d4bb 2752 47bc bcd4 d4bb 6623 96bc
000000a0: 553b 0dbc c70d c3bb f0ef 5fbc ec3b 8ebb
000000b0: 19f3 f7bc 4bcf f2bb 1127 96bb bc5c a7bb
000000c0: e77e 9cbb 7136 1ebc 4d4c aabc c12e f3bb
000000d0: b1e2 9abb 7c4f e7bb e17f e7bb 276d 05bc
000000e0: 3ecb 7cbb 517d 46bc 71c0 23bc 6166 c0bb
000000f0: 3926 09bd 1331 b6bb ffca 29bc 28f4 7dbc

conv.2.weight_orig f4 [64, 64, 3, 3]
-0.007775594 0.044815596 -0.051482268 -0.107847154 -0.16283727 0.0043799607 0.006935426 -0.08136727
-0.0016718815 -0.03235043 -0.020637779 -0.010205482 0.040027726 0.019144222 -0.029582923 -0.0081842635
-0.030575015 -0.09466733 -0.034496803 0.022756433 -0.058250826 -0.02276601 -0.029518142 0.045233946
-0.110927045 -0.0364483 0.016311118 -0.040007584 -0.0010494253 0.01383029 0.0056913774 -0.091095924
0.0133643 0.016280517 0.046187427 0.0730969 0.051811103 0.046083964 0.024993751 0.09861962
-0.010438238 -0.074146494 0.025996864 -0.018069515 0.0105630895 -0.035332385 -0.067006156 -0.07137411
0.016548347 0.0049410085 -0.03188878 0.0012731942 -0.038340837 -0.04313505 0.004201683 -0.061079375
0.004774872 -0.08368788 -0.015391394 -0.030657811 0.0045982013 -0.047563266 0.045647863 -0.08201549
-0.013939535 -0.028639264 -0.013013658 0.10407512 -0.051815137 -0.07180384 -0.04239144 0.081065156
0.020745654 -0.024285585 -0.04393293 -0.026910452 0.004764564 0.011589729 -0.07424978 -0.015626553
-0.042580336 -0.029602004 -0.02243507 0.019610899 0.04017546 -0.042923067 -0.030488232 -0.012252484
-0.110446736 -0.04350429 -0.042287007 -0.043641616 -0.043849077 -0.103955835 0.13048694 0.10418505
-0.031616967 -0.025230445 0.038552605 0.002221126 0.08063056 -0.0098527 0.046640903 0.0032972586
-0.017439103 0.055406153 0.05597728 -0.014708264 0.097353496 0.08512379 -0.033743408 -0.030809578
-0.0016793102 -0.08057997 -0.10274171 -0.012025889 0.004763784 -0.06519207 0.019050471 0.0486586
0.021658553 -0.010916148 -0.050235465 -0.010180451 -0.06039308 -0.04061809 -0.03242839 -0.034894045
0.0165722 0.09108532 0.030128045 0.057714943 0.020710694 0.071787044 0.015084874 -0.0024589805
-0.18526281 -0.009313719 0.0893593 -0.03463221 0.042339068 -0.079125695 -0.008614197 -0.015215652
-0.06826828 -0.02312954 0.041371502 0.0017896007 0.004992381 0.0487723 -0.048137654 0.09064016
-0.034343373 0.03426287 0.051880833 -0.09375721 -0.023752902 0.02408614 -0.032919858 0.092525244
-0.024249787 -0.02606759 -0.014499218 0.051628586 -0.016469091 0.0689989 -0.057879232 -0.04251394
0.021751529 0.041552726 -0.005341906 0.122652374 0.053602602 -0.015611327 -0.052706875 -0.03200018
0.007146908 -0.0033379116 0.10430548 0.039428804 0.027955668 0.026589645 0.07605915 -0.09741456
-0.033645928 -0.008431467 -0.07599796 -0.07452694 -0.10886301 0.025068134 0.021470644 -0.043407127
-0.15290499 -0.027237322 0.07951757 0.027472662 0.069946714 -0.048696555 -0.015379748 -0.12971483
-0.022842433 -0.06184547 -0.04500107 0.011813769 -0.049798552 0.08667785 0.012115463 -0.041204263
-0.022414822 -0.027762014 0.09537241 -0.0021562544 0.006122879 -0.081154324 -0.016743708 0.046690643
0.07049501 0.010388903 0.018300401 -0.049112454 0.09219224 -0.016832508 -0.025387837 0.050285526
-0.010961431 0.018036684 -0.0049790195 -0.066720665 -0.005631001 -0.0070009823 0.044102002 -0.03568744
-0.03447627 -0.08536641 -0.004793459 -0.033797257 0.05939492 -0.02164743 0.13488312 -0.018689359
0.011578018 -0.015512423 -0.051541198 0.06423298 -0.026249269 -0.05261796 -0.023185197 0.03608419
0.14618742 0.058605216 0.059902515 -0.14778998 0.02317436 0.02649396 0.07478532 -0.02704737
00000000: 69ca febb 8f90 373d 12df 52bd f8de dcbd
00000010: d0be 26be c685 8f3b 9242 e33b e2a3 a6bd
00000020: 0923 dbba e281 04bd 8f10 a9bc e534 27bc
00000030: 1df4 233d 58d4 9c3c e357 f2bc 4a17 06bc
00000040: 7478 fabc f2e0 c1bd 854c 0dbd b36b ba3c
00000050: 6b98 6ebd c97f babc 08d0 f1bc 3b47 393d
00000060: b82d e3bd d04a 15bd e59e 853c fede 23bd
00000070: df8c 89ba 7198 623c bc7e ba3b 8090 babd
00000080: f0f5 5a3c b85e 853c 072f 3d3d d4b3 953d
00000090: e137 543d 8ac2 3c3d b2bf cc3c 15f9 c93d
000000a0: 2505 2bbc 1eda 97bd 60f7 d43c 8506 94bc
000000b0: cf10 2d3c b1b8 10bd 863a 89bd 972c 92bd
000000c0: 6690 873c 2fe8 a13b cf9d 02bd 4fe1 a63a
000000d0: 480b 1dbd 61ae 30bd 46ae 893b 5e2e 7abd
000000e0: 8876 9c3b 8d64 abbd 2f2c 7cbc 1726 fbbc
000000f0: 82ac 963b b3d1 42bd 41f9 3a3d bdf7 a7bd
00000100: a662 64bc e49c eabc 3d37 55bc 5625 d53d
00000110: 1c3c 54bd e40d 93bd a6a2 2dbd 7d05 a63d
00000120: caf2 a93c 90f2 c6bc 04f3 33bd 4f73 dcbc
00000130: 0f20 9c3b d9e2 3d3c 4510 98bd 4203 80bc
00000140: b868 2ebd e77f f2bc c0c9 b7bc 09a7 a03c
00000150: 068f 243d 19d0 2fbd 75c2 f9bc a5be 48bc
00000160: e631 e2bd 8e31 32bd 2435 2dbd 8dc1 32bd
00000170: 179b 33bd cce6 d4bd 5e9e 053e f95e d53d
00000180: cb80 01bd 14b0 cebc 56e9 1d3d 5090 113b
00000190: a321 a53d 386d 21bc 880a 3f3d d216 583b
000001a0: 73dc 8ebc 90f1 623d 6f48 653d eefa 70bc
000001b0: 4561 c73d 6255 ae3d 8736 0abd 5e64 fcbc
000001c0: 4d1c dcba 1c07 a5bd 3f6a d2bd 3c08 45bc
000001d0: 8419 9c3b 6c83 85bd bc0f 9c3c 3d4e 473d
000001e0: 476d b13c a5d9 32bc b4c3 4dbd e8cb 26bc
000001f0: bc5e 77bd 285f 26bd a2d3 04bd 0fed 0ebd
00000200: 6cc2 873c f18a ba3d 17cf f63c 8166 6c3d
00000210: 79a9 a93c 1605 933d 8c26 773c d926 21bb
00000220: 89b5 3dbe 9298 18bc 0202 b73d 81da 0dbd
00000230: bb6b 2d3d a70c a2bd 9022 0dbc 124b 79bc
00000240: 3dd0 8bbd 297a bdbc 2a75 293d 0991 ea3a
00000250: 2197 a33b 77c5 473d fd2b 45bd 8ca1 b93d
00000260: a3ab 0cbd 3957 0c3d ff80 543d c803 c0bd
00000270: 7295 c2bc 4c50 c53c f9d6 06bd e07d bd3d
00000280: 7da7 c6bc b38b d5bc 218e 6dbc 7f78 533d
00000290: 30ea 86bc 4c4f 8d3d c612 6dbd 1923 2ebd
000002a0: 4330 b23c 3133 2a3d 280b afbb 2b31 fb3d
000002b0: 678e 5b3d a7c6 7fbc 2ae3 57bd 9f12 03bd
000002c0: 9c30 ea3b ddc0 5abb 1d9e d53d 1980 213d
000002d0: 4903 e53c 87d2 d93c e6c4 9b3d 4981 c7bd
000002e0: 50d0 09bd 2324 0abc d2a4 9bbd 95a1 98bd
000002f0: 92f3 debd b05b cd3c 34e3 af3c accb 31bd
00000300: 2093 1cbe ce20 dfbc 1cda a23d 590e e13c
00000310: 3940 8f3d 0a76 47bd 57fb 7bbc f7d3 04be
00000320: 0e20 bbbc ad51 7dbd 0b53 38bd 8a8e 413c
00000330: 91f9 4bbd 2884 b13d ef7f 463c cdc5 28bd
00000340: 4a9f b7bc 2a6d e3bc 9c52 c33d f24f 0dbb
00000350: 6fa2 c83b 3d34 a6bd 1a2a 89bc b03e 3f3d
00000360: b05f 903d 3836 2a3c b9ea 953c 242a 49bd
00000370: 49cf bc3d 54e4 89bc 27fa cfbc 32f8 4d3d
00000380: 9397 33bc abc1 933c 0b27 a3bb d8a4 88bd
00000390: 4384 b8bb 7f68 e5bb 4da4 343d fe2c 12bd
000003a0: fd36 0dbd 96d4 aebd 7312 9dbb fe6e 0abd
000003b0: 1648 733d f355 b1bc cd1e 0a3e 6d1a 99bc
000003c0: bab1 3d3c d127 7ebc dd1c 53bd 958c 833d
000003d0: b508 d7bc ee85 57bd e2ee bdbc 04cd 133d
000003e0: 28b2 153e 060c 703d 575c 753d 4256 17be
000003f0: 28d8 bd3c dc09 d93c 0c29 993d 7292 ddbc

conv.2.weight_u f4 [64]
0.063758925 0.02213374 -0.018118426 0.030667573 0.091064274 -0.04311302 0.06473204 0.034832053
0.203053 -0.028944444 0.053320084 -0.055556018 -0.04545937 -0.06171213 -0.21260722 0.19767442
0.034307707 0.022148686 -0.029200373 -0.011778862 -0.02762549 -0.05735858 -0.063820094 -0.060288414
0.108580686 0.032982256 -0.13093348 -0.001503461 0.02716821 0.059427094 -0.15603067 -0.099260814
0.0077624973 -0.08485435 -0.209071 -0.05219424 -0.11194345 -0.098617144 0.29844606 -0.06745823
0.11369054 -0.094559 -0.05522853 -0.03791716 0.16235447 0.004180377 0.14084318 -0.06479769
-0.17795725 0.023148345 -0.10050737 -0.47083753 -0.118579485 0.0929712 -0.05284891 -0.18746655
-0.12487664 0.16204448 0.19703665 -0.19348724 0.09550763 0.19247591 0.14555007 -0.033434246
00000000: 0a94 823d d151 b53c 186d 94bc 903a fb3c
00000010: e87f ba3d 4797 30bd 3b92 843d 0eac 0e3d
00000020: 20ed 4f3e e61c edbc 2966 5a3d b58e 63bd
00000030: 9b33 3abd dcc5 7cbd b5b5 59be 2a6b 4a3e
00000040: 3d86 0c3d 2971 b53c 9f35 efbc 21fc 40bc
00000050: da4e e2bc d5f0 6abd 1cb4 82bd fcf0 76bd
00000060: 8d5f de3d 6718 073d 6d13 06be c80f c5ba
00000070: de8f de3c d369 733d 81c6 1fbe 4149 cbbd
00000080: 8c5c fe3b 1ec8 adbd b516 56be a1c9 55bd
00000090: 9c42 e5bd c9f7 c9bd eccd 983e 8a27 8abd
000000a0: 96d6 e83d 26a8 c1bd 5037 62bd 064f 1bbd
000000b0: 4040 263e 8bfb 883b 3239 103e a7b4 84bd
000000c0: 6d3a 36be 99a1 bd3c cfd6 cdbd 9e11 f1be
000000d0: cdd9 f2bd af67 be3d 1978 58bd 3bf7 3fbe
000000e0: 53bf ffbd fdee 253e fac3 493e 8521 46be
000000f0: 8199 c33d 6818 453e 140b 153e 59f2 08bd

conv.2.weight_v f4 [576]
-0.012758238 -0.040985316 -0.022971999 0.039543625 0.025976887 0.019795634 0.033303928 -0.063582905
0.06481146 -0.0037458148 -0.004497049 0.007897953 0.081554964 0.011455304 -0.017596321 -0.009634209
0.034386307 -0.005163341 0.010706637 -0.038036276 -0.051523324 -0.024166374 -0.049374517 0.04857457
-0.04497564 -0.021404296 0.086826615 0.06269553 -0.0238492 -0.0005056338 0.09744342 -0.082923345
0.031746507 0.030753626 -0.0024898513 0.0011036993 0.014115979 -0.007249726 0.026400607 0.044920515
-0.009279397 -0.023407519 -0.08114416 -0.04470131 -0.04919215 -0.014492212 0.038082812 -0.004736524
0.05694949 0.042776626 0.055274673 0.026391432 -0.068841465 0.06957694 -0.0001438486 0.013892822
-0.050981376 -0.0042250007 -0.079870746 0.04297621 0.009113059 -0.025763921 -0.025450757 -0.017811278
0.042880755 -0.024621936 -0.028280498 0.034479734 -0.012701013 -0.029169137 -0.015468433 -0.014907333
0.04130898 0.03844375 0.036117554 0.015025645 0.05548411 0.038081355 0.004380509 -0.053410605
0.021506965 0.028476361 -0.060272098 0.020791246 0.05526397 -0.0031003659 -0.013475333 -0.035647176
-0.025890727 0.056312367 0.043266274 -0.035990827 0.06875954 -0.028520294 0.056643073 -0.055232145
-0.07763353 -0.04622871 0.026978023 -0.058180027 0.02427888 -0.013055688 0.009679803 -0.05373621
0.018438546 0.045519568 -0.012693053 0.01788313 0.046603624 0.016972896 -0.009272791 -0.021654898
-0.028007425 -0.055986445 -0.04834124 0.0007243389 0.04632919 -0.04947117 -0.026941752 0.08269044
0.049969003 0.071699105 -0.01779894 0.0010562476 0.013122946 0.04191492 0.0016887242 0.05334456
-0.01793393 -0.01100233 0.07409236 -0.016445294 0.04634713 -0.024460437 -0.019185834 0.008042443
0.025642224 -0.039297875 0.059171677 -0.034511797 -0.066063985 -0.048999507 0.036810458 0.014467011
0.053531457 0.06102936 0.0008568259 0.050048407 -0.027191542 0.04781639 0.012634471 0.066292234
-0.008864112 0.058972932 0.04622269 -0.04697203 0.10115508 -0.005042179 0.0684248 0.0028423565
-0.08320678 0.030621866 0.023216812 -0.04007709 -0.04239463 0.0076974034 -0.03554382 0.02335933
0.011898329 -0.008364446 -0.038658112 0.051377103 -0.07674764 -0.0023683994 -0.06215385 0.043101963
-0.003345219 -0.047172032 0.036173116 0.046817396 -0.08501951 -0.04152139 -0.028421989 0.006259814
-0.024235578 0.019653456 -0.0009619903 -0.12157608 -0.050838675 0.01381923 0.01787684 0.055570994
0.009668636 0.0048172013 0.011079515 0.045077514 0.07353645 0.009595637 0.06663638 -0.060181826
0.039851513 0.092078164 0.06695407 0.014060132 0.030408438 -0.0029753926 -0.010003709 -0.0155824665
0.036374383 0.005581446 -0.021823574 -0.0008033886 0.061176304 0.033560395 -0.018788286 0.015651518
-0.03422785 0.0026742478 0.07036014 0.05514342 0.0733682 -0.0248452 -0.026183426 0.033003747
0.02419501 0.008659677 -0.018555311 0.002070357 -0.08651113 0.014783356 0.0030076797 -0.020360146
0.072138704 -0.045356758 0.031431377 0.07326715 0.043711603 -0.012417894 0.04195841 0.024714233
0.04177507 -0.015682865 -0.031964168 -0.03238148 0.094977655 -0.003110416 -0.046668705 -0.03749864
-0.030490918 0.013973418 0.024764342 -0.019163795 -0.0073558413 0.021416266 -0.013669767 -0.030941298
00000000: ee07 51bc 38e0 27bd c62f bcbc 7ff8 213d
00000010: 7bcd d43c 742a a23c b369 083d c137 82bd
00000020: dfbb 843d 587c 75bb fb5b 93bb 6a66 013c
00000030: 4a06 a73d 07af 3b3c 2926 90bc cdd8 1dbc
00000040: a8d8 0c3d 3e31 a9bb e46a 2f3c edcb 1bbd
00000050: 1f0a 53bd 8ff8 c5bc ef3c 4abd 21f6 463d
00000060: 6038 38bd 1058 afbc 27d2 b13d 8466 803d
00000070: 665f c3bc 838c 04ba 6a90 c73d b7d3 a9bd
00000080: a008 023d 07ef fb3c c62c 23bb 01aa 903a
00000090: b546 673c 1c8f edbb 1646 d83c 93fe 373d
000000a0: 9d08 18bc 20c1 bfbc e92e a6bd b918 37bd
000000b0: b57d 49bd be70 6dbc b9fc 1b3d d834 9bbb
000000c0: de43 693d 8b36 2f3d b267 623d d832 d83c
000000d0: c1fc 8cbd 5b7e 8e3d 11d6 16b9 b89e 633c
000000e0: d9d1 50bd e071 8abb 4693 a3bd d307 303d
000000f0: f14e 153c dc0e d3bc 1b7e d0bc f5e8 91bc
00000100: bba3 2f3d f1b3 c9bc 81ac e7bc 9f3a 0d3d
00000110: e917 50bc 1df4 eebc 4f6f 7dbc e33d 74bc
00000120: 9b33 293d 3277 1d3d 00f0 133d 1f2e 763c
00000130: 4e43 633d 32fb 1b3d 5f8a 8f3b 14c5 5abd
00000140: 602f b03c 4247 e93c e0df 76bd 6752 aa3c
00000150: 795c 623d 822f 4bbb a5c7 5cbc c602 12bd
00000160: ca18 d4bc cca7 663d fa37 313d 1e6b 13bd
00000170: cdd1 8c3d 64a3 e9bc 9102 683d 1a3b 62bd
00000180: 54fe 9ebd 515a 3dbd 0401 dd3c 2e4e 6ebd
00000190: 80e4 c63c 86e7 55bc 0998 1e3c 801a 5cbd
000001a0: 6f0c 973c ba72 3a3d 86f6 4fbc a47f 923c
000001b0: 71e3 3e3d be0a 8b3c e8ec 17bc 9d65 b1bc
000001c0: d46f e5bc 0b52 65bd 7701 46bd 90e1 3d3a
000001d0: adc3 3d3d 48a2 4abd f3b4 dcbc 9b59 a93d
000001e0: 4cac 4c3d fbd6 923d 15cf 91bc ca71 8a3a
000001f0: a001 573c fbae 2b3d 2e58 dd3a d37f 5a3d
00000200: 2dea 92bc 1e43 34bc bcbd 973d 48b8 86bc
00000210: 7dd6 3d3d 4161 c8bc 9c2b 9dbc 73c4 033c
00000220: a40f d23c cff6 20bd 005e 723d 3e5c 0dbd
00000230: 8e4c 87bd b5b3 48bd 90c6 163d 0b07 6d3c
00000240: cd43 5b3d ecf9 793d 9d9c 603a 8fff 4c3d
00000250: ccc0 debc 1edb 433d d000 4f3c 39c4 873d
00000260: c83a 11bc 9a8d 713d 0154 3d3d be65 40bd
00000270: 652a cf3d dd38 a5bb 4d22 8c3d d446 3a3b
00000280: 5168 aabd b5da fa3c 2f31 be3c e027 24bd
00000290: fea5 2dbd 803a fc3b 6696 11bd 115c bf3c
000002a0: 35f1 423c 080b 09bc f857 1ebd cc70 523d
000002b0: de2d 9dbd 2637 1bbb 0995 7ebd af8b 303d
000002c0: 763b 5bbb 7637 41bd 432a 143d 99c3 3f3d
000002d0: b51e aebd 5512 2abd 3bd5 e8bc 201f cd3b
000002e0: b189 c6bc 4900 a13c 142e 7cba e1fc f8bd
000002f0: 373c 50bd 0d6a 623c 7372 923c 699e 633d
00000300: 3369 1e3c 9dd9 9d3b db86 353c 33a3 383d
00000310: 479a 963d 0537 1d3c a878 883d 3881 76bd
00000320: 573b 233d 7a93 bc3d 371f 893d 785c 663c
00000330: 1e1b f93c cefe 42bb 99e6 23bc 9a4d 7fbc
00000340: 4efd 143d 90e4 b63b 5ac7 b2bc 7f9a 52ba
00000350: 0194 7a3d a076 093d e4e9 99bc 9d37 803c
00000360: 8132 0cbd 6f42 2f3b fa18 903d 11de 613d
00000370: 1142 963d 2988 cbbc a07e d6bc f02e 073d
00000380: 9d34 c63c 51e1 0d3c 4f01 98bc d4ae 073b
00000390: bf2c b1bd e435 723c 7e1c 453b 52ca a6bc
000003a0: 75bd 933d 02c8 39bd 30be 003d 160d 963d
000003b0: f00a 333d 6c74 4bbc 95dc 2b3d 8175 ca3c
000003c0: 561c 2b3d 5a79 80bc dcec 02bd 71a2 04bd
000003d0: a583 c23d 1fd8 4bbb af27 3fbd 2d98 19bd
000003e0: 17c8 f9bc c3f0 643c 97de ca3c 64fd 9cbc
000003f0: 4509 f1bb 2a71 af3c 29f7 5fbc 9b78 fdbc

w.M2MM f4 [1, 64, 32, 32]
1.0465966 1.0445677 1.0218383 1.0234531 0.97052294 0.9839468 1.0823213 1.1152481
1.1192065 1.1085923 1.087749 1.0662835 1.0883949 1.0631479 1.0297614 1.0086187
1.0015243 0.9907393 0.96841705 0.9298986 0.9610546 1.0096499 1.0035739 1.0257615
1.007511 1.0342993 1.1194028 1.1221021 0.98445046 1.0143316 0.99678284 1.097969
1.0422381 1.0032454 1.0071765 1.0153943 0.9999107 0.994308 1.0076969 1.0069908
0.998332 0.9939065 1.007351 0.99355996 0.9939845 0.99113053 0.99760133 0.9880625
0.9863198 0.9849619 0.9876536 0.9889305 0.9902935 0.9908432 0.9993074 1.0021076
0.99873453 0.9899443 0.9940663 1.004544 0.9824088 0.9636755 0.9839761 1.0309623
1.0002424 0.9763149 0.98705196 0.97586894 0.9832173 0.98502254 0.9868372 0.99918777
0.99591106 0.97389275 0.9817698 0.9565865 0.98536706 0.9676168 0.98510486 0.9879244
1.0000288 0.99133265 0.9937551 0.9820735 1.0005673 0.9891844 0.9970899 0.9991419
1.0073653 0.9809706 0.9917868 1.0048484 0.96665436 0.98803884 0.97772294 0.99158204
0.9914207 0.97423947 0.9975333 0.99546677 0.9885996 0.9874297 0.97376144 0.9500483
0.93483645 0.9739334 0.9597149 0.9570782 0.9939015 0.98161966 0.9744253 0.9954921
1.0252827 1.0104934 1.0282204 0.9956476 1.0121368 1.0014365 0.9925475 0.99759406
0.99919146 0.9575773 0.95483017 0.9662325 0.9666356 1.0048823 0.9742671 0.9415337
0.99748737 1.000232 0.97117823 1.0304832 1.0012748 0.99618405 0.9910948 0.99802554
0.99884844 0.9835142 0.9952579 0.9840533 1.0006704 1.0042235 0.99526143 0.9928138
0.9893007 0.98869455 0.99559635 0.9924131 0.98363096 0.98522514 0.98556477 0.9753074
0.98332876 0.9513703 0.98200494 0.9974151 0.98898953 1.0106727 0.977057 0.96324164
0.99346244 0.99838173 0.98261666 1.001131 0.9978676 0.99425673 0.9841069 0.99132717
0.97503203 0.96805984 0.9720042 0.98489285 0.955241 0.965686 0.9739612 0.9865556
0.9790088 0.98953307 0.9676757 0.97607285 0.9881793 0.9656385 0.97305346 0.96869016
0.9864969 0.977229 0.94056034 0.9949628 0.993112 0.9964286 0.9829527 0.960999
0.9997623 1.0046197 0.9591383 1.015552 0.99055815 0.9989766 0.99233305 0.9833627
0.9869951 0.98972136 0.9710232 0.9876483 0.98493636 0.97908163 0.97894496 0.9569653
0.9754728 0.9823982 0.9666966 0.9865203 0.97847104 0.9482133 0.98264456 0.9559434
0.9597651 0.968909 0.9406573 0.99344486 0.98485345 0.99262404 0.95586294 0.9734092
1.000059 0.9997349 0.9347582 1.0193112 0.99913263 0.99836063 0.9911527 1.005066
0.9936346 0.9883803 0.99561006 0.9904081 0.9764488 0.97919065 0.9538597 0.9668211
0.98298687 0.98324555 0.98086125 0.98642784 0.9788131 0.9837717 0.9483495 0.9816378
0.96753037 0.9738932 0.9367951 0.9901652 0.9950466 0.9917425 0.9403925 0.9265479
00000000: e1f6 853f 65b4 853f 99cb 823f 8300 833f
00000010: 3174 783f f0e3 7b3f 8189 8a3f 73c0 8e3f
00000020: 2942 8f3f 5ae6 8d3f 5c3b 8b3f fa7b 883f
00000030: 8650 8b3f 3b15 883f 39cf 833f 6b1a 813f
00000040: f331 803f 17a1 7d3f 2eea 773f d60d 6e3f
00000050: ad07 763f 353c 813f 1c75 803f 274c 833f
00000060: 1ff6 803f eb63 843f 9748 8f3f 0ba1 8f3f
00000070: f204 7c3f 9ed5 813f 292d 7f3f 408a 8c3f
00000080: 0f68 853f 586a 803f 29eb 803f 71f8 813f
00000090: 26fa 7f3f f88a 7e3f 36fc 803f 13e5 803f
000000a0: b092 7f3f a870 7e3f e1f0 803f f259 7e3f
000000b0: c575 7e3f bbba 7d3f cd62 7f3f aaf1 7c3f
000000c0: 747f 7c3f 7726 7c3f ded6 7c3f 8d2a 7d3f
000000d0: e083 7d3f e6a7 7d3f 9cd2 7f3f 1045 803f
000000e0: 11ad 7f3f fd6c 7d3f 217b 7e3f e694 803f
000000f0: 257f 7b3f 70b3 763f dce5 7b3f 93f6 833f
00000100: f107 803f c6ef 793f 70af 7c3f 8cd2 793f
00000110: 21b4 7b3f 702a 7c3f 5da1 7c3f c5ca 7f3f
00000120: 07f4 7e3f 0951 793f 4455 7b3f dae2 743f
00000130: 0441 7c3f bcb5 773f d52f 7c3f 9de8 7c3f
00000140: f200 803f fac7 7d3f bc66 7e3f 2b69 7b3f
00000150: 9712 803f 303b 7d3f 4941 7f3f c3c7 7f3f
00000160: 59f1 803f e420 7b3f bde5 7d3f df9e 803f
00000170: a976 773f 1df0 7c3f 0d4c 7a3f 52d8 7d3f
00000180: bfcd 7d3f c267 793f 585e 7f3f e9d6 7e3f
00000190: dd14 7d3f 31c8 7c3f 6e48 793f 5e36 733f
000001a0: 7151 6f3f b353 793f e0af 753f 1403 753f
000001b0: 5470 7e3f 6d4b 7b3f f073 793f 92d8 7e3f
000001c0: 773c 833f d957 813f ba9c 833f c3e2 7e3f
000001d0: b38d 813f 122f 803f 9817 7e3f 5362 7f3f
000001e0: 03cb 7f3f c923 753f c06f 743f 035b 773f
000001f0: 6e75 773f fc9f 803f 9269 793f 5a08 713f
00000200: 555b 7f3f 9a07 803f 239f 783f e0e6 833f
00000210: c629 803f eb05 7f3f 64b8 7d3f 9a7e 7f3f
00000220: 88b4 7f3f 96c7 7b3f 39c9 7e3f ebea 7b3f
00000230: f815 803f 658a 803f 74c9 7e3f 0c29 7e3f
00000240: d042 7d3f 161b 7d3f 67df 7e3f c90e 7e3f
00000250: 3dcf 7b3f b737 7c3f f94d 7c3f bfad 793f
00000260: 6fbb 7b3f 018d 733f ad64 7b3f 9956 7f3f
00000270: 6b2e 7d3f b95d 813f 6820 7a3f 0197 763f
00000280: 8e53 7e3f f295 7f3f c48c 7b3f 1025 803f
00000290: 4074 7f3f 9c87 7e3f 6eee 7b3f 9ec7 7d3f
000002a0: b39b 793f c5d2 773f 44d5 783f f021 7c3f
000002b0: ad8a 743f 3337 773f 8555 793f e88e 7c3f
000002c0: 52a0 7a3f 0a52 7d3f 98b9 773f e9df 793f
000002d0: 52f9 7c3f 1634 773f 081a 793f 14fc 773f
000002e0: 108b 7c3f ae2b 7a3f 90c8 703f e2b5 7e3f
000002f0: 973c 7e3f f215 7f3f caa2 7b3f 0804 763f
00000300: 6cf0 7f3f 6197 803f 168a 753f 9cfd 813f
00000310: 3895 7d3f eebc 7f3f 8a09 7e3f a8bd 7b3f
00000320: b6ab 7c3f 615e 7d3f fa94 783f 85d6 7c3f
00000330: ca24 7c3f 18a5 7a3f 239c 7a3f aefb 743f
00000340: 96b8 793f 737e 7b3f 6e79 773f 988c 7c3f
00000350: 147d 7a3f 1bbe 723f 988e 7b3f b5b8 743f
00000360: 2ab3 753f 6c0a 783f ebce 703f 6752 7e3f
00000370: 5b1f 7c3f 9c1c 7e3f 6fb3 743f 5831 793f
00000380: ef01 803f a0ee 7f3f 504c 6f3f ca78 823f
00000390: 28c7 7f3f 9094 7f3f 2fbc 7d3f 01a6 803f
000003a0: d65e 7e3f 7e06 7d3f 4de0 7e3f 638b 7d3f
000003b0: 8cf8 793f 3dac 7a3f 2630 743f 9681 773f
000003c0: 07a5 7b3f fbb5 7b3f b919 7b3f 8986 7c3f
000003d0: 7f93 7a3f 76d8 7b3f 08c7 723f 9d4c 7b3f
000003e0: 12b0 773f 1151 793f ced1 6f3f 777b 7d3f
000003f0: 60bb 7e3f d6e2 7d3f 90bd 703f 3e32 6d3f

w.MM2M f4 [1, 64, 32, 32]
0.9821564 1.0508804 1.052396 1.0320274 0.98652655 1.007566 1.0681294 1.0572966
1.0464852 1.0397184 1.0306035 1.0254449 1.0181111 0.9973112 0.9872297 0.97399217
0.9540689 0.9497749 0.94097865 0.89135796 0.88072807 0.92463666 0.9447026 0.9866247
0.9746707 0.9813842 1.0399733 1.0577389 0.99223924 1.0357574 0.9602977 1.1858652
0.99994004 1.0123701 0.98971015 0.9832425 0.99483645 1.0111184 1.0217334 1.024756
0.9972038 0.9959645 1.0056702 0.9993397 0.9882997 0.9849714 0.9856749 0.94682014
0.95190495 0.9547013 0.95473194 0.9469044 0.96108544 0.9633012 0.9665783 0.9875242
1.0021962 0.9837434 0.98447466 1.0096962 0.92018276 0.9939011 0.9772754 1.0846668
0.9989122 0.99433345 0.9940366 0.9872686 1.0030905 1.0200795 1.0007513 1.0206624
1.011133 1.0005655 0.9818194 0.98691326 0.998618 0.9791171 0.979554 0.9726166
0.9898119 1.0024374 0.9909861 0.99409914 1.020928 1.0114403 1.0017221 0.99983734
1.0350939 0.9964175 1.0009897 1.0294822 0.98906106 0.99070174 0.9482438 1.0197884
0.9924914 0.9904395 0.99221605 0.9802085 0.93534714 0.9079743 0.93528533 0.8815041
0.8964725 0.9152197 0.9068844 0.9332385 0.9462488 0.9402802 0.97024536 0.96885484
0.9839541 0.96844643 0.98252183 0.97769284 1.0029696 0.96406484 0.97354305 0.9795281
0.97803414 0.926735 0.90641737 0.93036515 0.9483591 1.0452286 0.94758546 0.9046218
1.0061182 1.0123936 0.89982265 0.99611104 0.9920475 0.9778097 0.96893287 1.0005497
0.98338974 0.95363945 0.961967 0.9617411 0.972351 0.9742862 0.9916914 0.9813634
0.9764432 0.9668141 0.9779084 0.955265 0.9958847 0.9818387 0.98514223 0.9774177
0.9670024 0.93679106 0.95165527 0.9574204 0.9634683 1.0161527 0.96017945 0.9452212
0.98715377 1.0193954 0.9275933 0.96251947 0.9743626 0.95632017 0.976925 0.96149206
0.9737387 0.96722376 0.95382 0.9642836 0.9710046 0.98233473 0.9856657 0.9957351
0.9974095 1.0180995 1.0082551 0.99379295 0.997741 0.9997868 0.9826822 0.99096
0.9861279 0.94971055 0.955178 0.98860836 0.9814566 0.98696303 0.9043436 0.9622566
1.0026292 1.021688 0.87772405 0.9872256 0.9688702 0.9877987 0.9614825 0.9442783
0.94417334 0.9625581 0.97675693 0.9707981 0.9896974 1.0073988 1.023282 0.99660695
0.98652107 1.0067459 1.0092925 1.010512 0.99765486 0.9773494 0.98863196 0.9891141
0.977171 0.98283243 0.93554807 0.9789064 0.96497774 0.9699406 0.8663728 0.968223
0.9977809 1.0156631 0.853139 0.9709865 0.97816575 0.98134935 0.9622648 0.9652962
0.9681918 0.97128606 0.9947687 0.98817766 1.0240185 1.0050846 1.0005851 1.0148998
0.9899977 1.0073764 0.99944603 1.0069914 0.99793214 0.9911696 0.99519646 0.9859346
0.9865244 0.9778684 0.95246506 0.97111255 0.95696205 0.9698295 0.9655229 0.9697655
00000000: 9a6e 7b3f 4083 863f eab4 863f 7919 843f
00000010: 018d 7c3f ecf7 803f 77b8 883f 7f55 873f
00000020: 3af3 853f 7e15 853f d1ea 833f c741 833f
00000030: 7751 823f c94f 7f3f 16bb 7c3f 8d57 793f
00000040: dc3d 743f 7324 733f fae3 703f 0930 643f
00000050: 6577 613f fdb4 6c3f 08d8 713f 7093 7c3f
00000060: 0584 793f ff3b 7b3f d81d 853f fd63 873f
00000070: 6403 7e3f b393 843f 12d6 753f 6eca 973f
00000080: 12fc 7f3f 5895 813f a55d 7d3f c8b5 7b3f
00000090: 9aad 7e3f 546c 813f 29c8 823f 342b 833f
000000a0: c048 7f3f 88f7 7e3f cdb9 803f bad4 7f3f
000000b0: 3601 7d3f 1627 7c3f 3155 7c3f ce62 723f
000000c0: 0bb0 733f 4e67 743f 5069 743f 5468 723f
000000d0: b209 763f e89a 763f ad71 773f 63ce 7c3f
000000e0: f747 803f 9cd6 7b3f 8806 7c3f ba3d 813f
000000f0: 1991 6b3f 4d70 7e3f b82e 7a3f 5dd6 8a3f
00000100: b6b8 7f3f a38c 7e3f 2f79 7e3f a3bd 7c3f
00000110: 4565 803f f791 823f 9e18 803f 11a5 823f
00000120: ce6c 813f 8812 803f 8458 7b3f 59a6 7c3f
00000130: 6ea5 7f3f 6ba7 7a3f 0dc4 7a3f 67fd 783f
00000140: 5064 7d3f de4f 803f 44b1 7d3f 487d 7e3f
00000150: c5ad 823f e076 813f 6e38 803f 57f5 7f3f
00000160: f57d 843f 3815 7f3f 6e20 803f 13c6 833f
00000170: 1b33 7d3f a19e 7d3f 1bc0 723f 6d88 823f
00000180: eb13 7e3f 718d 7d3f df01 7e3f f2ee 7a3f
00000190: e972 6f3f 0171 683f dc6e 6f3f 41aa 613f
000001a0: 397f 653f d74b 6a3f 9329 683f b8e8 6e3f
000001b0: 5d3d 723f 34b6 703f 0062 783f df06 783f
000001c0: 6ae4 7b3f 1bec 773f 8d86 7b3f 144a 7a3f
000001d0: 4f61 803f f4cc 763f 1e3a 793f 5bc2 7a3f
000001e0: 7260 7a3f 813e 6d3f f80a 683f 692c 6e3f
000001f0: a9c7 723f 0dca 853f f694 723f 4b95 673f
00000200: 7bc8 803f 1d96 813f c75a 663f 2201 7f3f
00000210: d3f6 7d3f bd51 7a3f fc0b 783f 0312 803f
00000220: 6ebf 7b3f b721 743f 7843 763f aa34 763f
00000230: ffeb 783f d26a 793f 7ddf 7d3f a23a 7b3f
00000240: 2ef8 793f 2181 773f 3458 7a3f 3f8c 743f
00000250: 4df2 7e3f c859 7b3f 4832 7c3f 0c38 7a3f
00000260: 788d 773f 8ad1 6f3f ae9f 733f 8119 753f
00000270: dca5 763f 4b11 823f 52ce 753f 04fa 713f
00000280: 1cb6 7c3f 8c7b 823f c176 6d3f ad67 763f
00000290: d46f 793f 66d1 743f c217 7a3f 5824 763f
000002a0: f046 793f fa9b 773f 8c2d 743f 4adb 763f
000002b0: c293 783f 4a7a 7b3f 9654 7c3f 7fe8 7e3f
000002c0: 3b56 7f3f 1651 823f 810e 813f 3769 7e3f
000002d0: f46b 7f3f 07f2 7f3f 1091 7b3f 8eaf 7d3f
000002e0: e172 7c3f 3b20 733f 8c86 743f 7015 7d3f
000002f0: bd40 7b3f 9ca9 7c3f 1083 673f 7356 763f
00000300: 2756 803f acc6 823f 86b2 603f d1ba 7c3f
00000310: e107 783f 60e0 7c3f b823 763f 39bc 713f
00000320: 58b5 713f 356a 763f be0c 7a3f 3986 783f
00000330: cf5c 7d3f 72f2 803f e8fa 823f a221 7f3f
00000340: a58c 7c3f 0ddd 803f 7f30 813f 7558 813f
00000350: 4f66 7f3f 9233 7a3f fc16 7d3f 9536 7d3f
00000360: e127 7a3f e89a 7b3f 1480 6f3f 9c99 7a3f
00000370: c808 773f 074e 783f 9cca 5d3f 76dd 773f
00000380: 926e 7f3f 4001 823f 5167 5a3f 9292 783f
00000390: 1269 7a3f b639 7b3f fc56 763f a71d 773f
000003a0: 6bdb 773f 34a6 783f 29a9 7e3f 36f9 7c3f
000003b0: 0a13 833f 9da6 803f 2c13 803f 3de8 813f
000003c0: 7d70 7d3f b6f1 803f b2db 7f3f 18e5 803f
000003d0: 7b78 7f3f 4abd 7d3f 32c5 7e3f 3666 7c3f
000003e0: dd8c 7c3f 9555 7a3f c0d4 733f d59a 783f
000003f0: 77fb 743f bf46 783f 822c 773f 8d42 783f
