checkpoint/clf/experiment_name/900/netE.pth (torch, 241318 bytes, 33 tensors)

model.0.weight f4 [32, 3, 4, 4]
-0.1399763 0.061018486 -0.047395673 0.01638473 -0.09727458 0.029129263 -0.030516526 -0.0024670605
0.030888248 0.023894899 0.07697719 -0.047229383 -0.032665845 -0.025642969 -0.019368572 0.02192689
0.032740355 -0.09179693 0.11167429 0.037596002 -0.06692353 -0.05398985 -0.17260344 -0.080848776
-0.016946321 0.04982843 0.06933462 0.123627625 -0.016548697 0.045907944 -0.029182171 -0.015519717
-0.10726521 -0.112464905 -0.0313233 0.000461484 -0.1734977 -0.03184628 0.034790836 -0.0252639
-0.06076749 0.02708503 0.0052147703 -0.046898875 -0.05322836 -0.06090552 -0.049606927 -0.06516195
-0.034292962 0.06044323 0.07573032 -0.07645729 0.12883815 0.022911236 0.018964944 0.042199355
0.07280041 -0.021245616 -0.05310457 0.051084694 -0.0046401965 0.047653373 0.07769774 0.024835203
-0.095395744 0.0016736806 -0.078526266 0.025609598 -0.05979413 -0.005931572 0.012050083 -0.062042817
0.071376525 0.010071415 -0.020054 0.030348511 -0.046985913 -0.07220765 -0.047687072 0.01755893
-0.104292855 -0.06282986 -0.090670176 0.020856762 0.07224168 -0.06592417 0.15886433 0.06678424
0.030068006 -0.0652618 -0.03168583 0.033357326 0.12619528 0.065603316 0.07131304 -0.006184117
-0.07285243 0.05132561 0.102990195 -0.109997645 -0.011279041 0.050270546 -0.0018828381 0.08984003
-0.0640389 -0.0092677595 -0.0404874 -0.14857292 0.06266578 -0.0873134 0.061941583 0.014874217
-0.10366872 0.0062179435 0.09163423 0.09426004 0.019305661 0.10511055 0.014680009 0.048184678
-0.020536788 0.0565407 -0.045978483 0.04881988 -0.09632425 -0.013439269 0.008859038 0.0020411604
0.060805213 -0.03983999 0.012639228 0.0039707953 -0.031586584 0.06172228 -0.08550982 0.07649828
0.010982417 -0.045850858 0.011138171 0.1138744 -0.003726523 -0.04408442 -0.06051063 0.0537976
0.054155998 0.005614402 -0.08632155 -0.013485943 -0.14277294 -0.0883956 -0.053550642 0.0028638395
-0.044361472 0.05877945 -0.069683746 0.044409942 -0.06844449 -0.029241206 -0.02820557 0.014883707
-0.0007455427 -0.07444068 -0.0146533055 0.0031259977 -0.013454542 -0.017748695 0.02379896 -0.027862491
-0.00891308 -0.07681422 0.066520885 0.087430485 -0.15194638 -0.040327914 0.09106399 -0.06022542
-0.09664943 -0.088975556 -0.012327155 0.08361443 -0.045671713 0.10385221 -0.048675034 0.08660747
0.06279734 0.015696498 -0.037505295 -0.00682288 0.024499856 -0.019291177 0.06256583 -0.017323159
0.06324269 -0.048371393 -0.025376076 0.018026108 0.052913744 -0.023393195 -0.06582994 0.014278093
0.0929468 -0.01824961 0.050957274 0.0012694831 0.034238834 0.021272339 -0.014692509 -0.031498987
0.08255855 -0.055705007 -0.047676742 0.12869585 0.07383491 -0.08164495 -0.12745771 -0.02959412
0.10889671 0.08910233 -0.00014063872 0.024455536 0.003737982 -0.10687743 -0.11148402 0.059475414
0.072811514 -0.010626752 -0.0034253867 -0.032225084 0.06974058 -0.027811052 0.0475497 0.03386339
0.044608776 0.031034678 -0.023326008 -0.12912387 0.040716764 0.013640884 0.04941864 -0.05879093
0.08675504 -0.03229391 -0.022789776 -0.12458514 0.019131284 -0.041651726 -0.015937947 0.012309672
-0.028979896 0.032220308 0.041185014 0.025940971 -0.021051465 -0.053476162 -0.03635611 -0.0738273
00000000: f255 0fbe 85ee 793d f721 42bd 4539 863c
00000010: e537 c7bd 7ea0 ee3c cbfd f9bc 68ae 21bb
00000020: 5a09 fd3c 3cbf c33c 38a6 9d3d 9973 41bd
00000030: 9fcc 05bd 3411 d2bc d7aa 9ebc 05a0 b33c
00000040: c01a 063d 0700 bcbd 7db5 e43d 44fe 193d
00000050: 340f 89bd 7624 5dbd f5be 30be 0b94 a5bd
00000060: 03d3 8abc e518 4c3d 4fff 8d3d 7b30 fd3d
00000070: 2291 87bc f809 3c3d 730f efbc 6946 7ebc
00000080: ddad dbbd 0054 e6bd dc4c 00bd 56f3 f139
00000090: 62a9 31be 3f71 02bd d680 0e3d 3df6 cebc
000000a0: 55e7 78bd 6de1 dd3c aae0 aa3b 0919 40bd
000000b0: fb05 5abd 1178 79bd a230 4bbd a173 85bd
000000c0: c776 0cbd 5293 773d 7f18 9b3d a495 9cbd
000000d0: 26ee 033e 58b0 bb3c 5f5c 9b3c 3bd9 2c3d
000000e0: 6218 953d 490b aebc 2d84 59bd 2f3e 513d
000000f0: ca0c 98bb 2f30 433d fe1f 9f3d 3273 cb3c
00000100: d85e c3bd 675f db3a 61d2 a0bd 38cb d13c
00000110: b1ea 74bd a25d c2bb b66d 453c 9c20 7ebd
00000120: db2d 923d 9402 253c 4948 a4bc 719d f83c
00000130: 4d74 40bd 9be1 93bd 8553 43bd bfd7 8f3c
00000140: 7e97 d5bd f1ac 80bd 49b1 b9bd cddb aa3c
00000150: 72f3 933d 4003 87bd 55ad 223e 2dc6 883d
00000160: 2e51 f63c fba7 85bd 00c9 01bd b1a1 083d
00000170: 5639 013e 085b 863d 920c 923d 22a4 cabb
00000180: a833 95bd ce3a 523d 86ec d23d 7246 e1bd
00000190: bacb 38bc 7de8 4d3d 90c9 f6ba 0dfe b73d
000001a0: d426 83bd cdd7 17bc 1ed6 25bd 8023 18be
000001b0: eb56 803d 5ed1 b2bd 75b6 7d3d fdb2 733c
000001c0: 4450 d4bd e4bf cb3b baaa bb3d 680b c13d
000001d0: e826 9e3c 3344 d73d 6c84 703c 4c5d 453d
000001e0: c43c a8bc 3997 673d ef53 3cbd 5bf7 473d
000001f0: a645 c5bd 6130 5cbc 8025 113c fdc4 053b
00000200: e30e 793d 422f 23bd c414 4f3c 721d 823b
00000210: ef60 01bd 80d0 7c3d c61f afbd 21ab 9c3d
00000220: 98ef 333c 1cce 3bbd e07c 363c fb36 e93d
00000230: ae38 74bb dd91 34bd ffd9 77bd df5a 5c3d
00000240: aed2 5d3d 04f9 b73b 5ac9 b0bd 25f4 5cbc
00000250: 1233 12be c108 b5bd eb57 5bbd 41af 3b3b
00000260: 60b4 35bd b8c2 703d 5ab6 8ebd 33e7 353d
00000270: a02c 8cbd 418b efbc 5e0f e7bc cbda 733c
00000280: 8670 43ba 5b74 98bd 6b14 70bc 8add 4c3b
00000290: 7070 5cbc b665 91bc 09f6 c23c e13f e4bc
000002a0: 2b08 12bc c650 9dbd 1a3c 883d c10e b33d
000002b0: d597 1bbe e22e 25bd c27f ba3d eeae 76bd
000002c0: 23f0 c5bd d138 b6bd d6f7 49bc 0b3e ab3d
000002d0: 4312 3bbd 78b0 d43d 795f 47bd 425f b13d
000002e0: e49b 803d f195 803c 279f 19bd 7792 dfbb
000002f0: ecb3 c83c 8808 9ebc 8422 803d 4ce9 8dbc
00000300: 6285 813d 1521 46bd 7de1 cfbc 7dab 933c
00000310: 15bc 583d 16a3 bfbc d9d1 86bd aaee 693c
00000320: e45a be3d 3580 95bc 93b8 503d c964 a63a
00000330: 053e 0c3d 5443 ae3c d9b8 70bc 1505 01bd
00000340: 7514 a93d ef2a 64bd b048 43bd d8c8 033e
00000350: c236 973d 7835 a7bd 4684 02be 5e6f f2bc
00000360: 3d05 df3d 487b b63d 6b78 13b9 fa56 c83c
00000370: eef8 743b 8ee2 dabd bc51 e4bd 7e9c 733d
00000380: 341e 953d d41b 2ebc 747c 60bb 73fe 03bd
00000390: 26d4 8e3d 01d4 e3bc 79c3 423d 57b4 0a3d
000003a0: b1b7 363d 703c fe3c 2f16 bfbc 0c39 04be
000003b0: 9fc6 263d 047e 5f3c 336b 4a3d c2ce 70bd
000003c0: a0ac b13d 9e46 04bd a0b1 babc 7e26 ffbd
000003d0: 36b9 9c3c 009b 2abd 4c90 82bc 82ae 493c
000003e0: 3f67 edbc 71f9 033d 9eb1 283d 2982 d43c
000003f0: 1f74 acbc d209 5bbd 25ea 14bd c432 97bd

model.0.bias f4 [32]
0.00019000928 -0.00010831081 0.000103099286 -0.00037629125 -0.00030642524 0.00031805 -0.00032663616 -0.00057826936
-0.000608063 -0.00064039027 -0.00041137892 -0.00043031856 -0.0015215931 0.0011285396 0.00067674887 -1.2130057e-05
0.0015660838 -0.00031447396 -0.001343198 -0.00083093194 0.00074502564 -0.00034539608 -0.0009085759 -0.0018000338
-0.001997431 0.0002917986 0.00055065734 0.003356038 0.0011486673 -0.00043776009 -0.0001384105 0.0006062777
00000000: 3a3d 4739 ec24 e3b8 0237 d838 f548 c5b9
00000010: b3a7 a0b9 f3bf a639 5d40 abb9 0097 17ba
00000020: 6b66 1fba dddf 27ba 58ae d7b9 619c e1b9
00000030: 3170 c7ba 81eb 933a d967 313a 3382 4bb7
00000040: 0d45 cd3a fbdf a4b9 3f0e b0ba e6d2 59ba
00000050: d34d 433a 4716 b5b9 7f2d 6eba 1def ebba
00000060: 55e7 02bb 8cfc 9839 fd59 103a f9f0 5b3b
00000070: e18e 963a 2a83 e5b9 4922 11b9 9cee 1e3a

model.1.weight f4 [32]
0.9893359 0.9747222 0.96842563 0.97426105 1.0149753 1.0140524 0.99126077 0.99578357
0.96852237 0.9888936 1.0394102 0.9537636 0.99678385 1.008514 0.98257375 0.9903508
0.98783684 1.0133005 1.0137101 0.9746019 1.0115223 0.9734273 0.9866453 1.0664623
0.9945346 0.96056193 1.0691189 0.9698527 0.98753583 1.0026233 0.9927816 0.99660134
00000000: 1e45 7d3f 6587 793f beea 773f 2c69 793f
00000010: b6ea 813f 78cc 813f 44c3 7d3f aceb 7e3f
00000020: 15f1 773f 2228 7d3f 650b 853f da29 743f
00000030: 3a2d 7f3f fd16 813f f489 7b3f a187 7d3f
00000040: e0e2 7c3f d5b3 813f 41c1 813f 837f 793f
00000050: 9079 813f 8832 793f c994 7c3f d681 883f
00000060: d299 7e3f 63e7 753f e3d8 883f 4448 783f
00000070: 26cf 7c3f f655 803f ef26 7e3f 4421 7f3f

model.1.bias f4 [32]
0.019999295 -0.0009578357 -0.03265564 -0.013565137 0.015043822 0.031546496 -0.010082468 0.0066190395
-0.02307378 -0.0024815293 0.029900156 0.020346006 0.012492058 0.014061549 -0.020627953 -0.0044098548
0.03533902 0.017805602 0.011142543 0.01512212 0.016238842 0.025345242 0.03871841 0.031883467
0.03831872 -0.01868813 0.055896834 0.036337253 0.013856691 0.007211762 0.005672367 0.038371947
00000000: 90d5 a33c 4417 7bba ecc1 05bd 4f40 5ebc
00000010: 5d7a 763c e636 013d f030 25bc 87e4 d83b
00000020: 3905 bdbc 27a1 22bb 2cf1 f43c abac a63c
00000030: 7dab 4c3c 6962 663c f4fb a8bc 8b80 90bb
00000040: a6bf 103d 0edd 913c 368f 363c c5c2 773c
00000050: 5207 853c d3a0 cf3c 3297 1e3d 3d98 023d
00000060: 17f4 1c3d d917 99bc 14f4 643d 5fd6 143d
00000070: 2d07 633c a550 ec3b 43df b93b e72b 1d3d

model.1.gate f4 [32]
1.1077458 0.987751 0.9880009 1.0599941 1.0869523 1.0703063 0.8902874 0.9099855
0.8818569 1.1903474 1.160318 0.8310007 0.98450494 0.8735617 1.0588518 0.93914914
0.9502387 1.0695244 0.994104 0.8885696 1.0447344 0.9427962 1.0363628 0.9254008
0.8841546 1.0222987 0.97837454 1.2825916 0.9635214 0.9906368 1.0128709 0.79392064
00000000: 9dca 8d3f 40dd 7c3f a1ed 7c3f e3ad 873f
00000010: 4121 8b3f ccff 883f e0e9 633f cff4 683f
00000020: 60c1 613f 4e5d 983f 4d85 943f 76bc 543f
00000030: 8408 7c3f bda1 5f3f 7588 873f 146c 703f
00000040: d842 733f 2de6 883f 9a7d 7e3f 4c79 633f
00000050: dbb9 853f 175b 713f 89a7 843f 11e7 6c3f
00000060: f557 623f afda 823f c176 7a3f f62b a43f
00000070: 57a9 763f 609a 7d3f c1a5 813f 623e 4b3f

model.1.running_mean f4 [32]
0.8594152 -0.29312566 -0.1755736 0.52424574 -0.20437631 0.7632571 -0.20440118 -0.6525575
-0.32228586 -0.08101425 0.92884314 -0.4411732 -0.16177493 0.6415372 0.08329047 0.9531234
-0.118584804 1.3081918 0.8119555 -0.4174823 0.6008529 -1.0141177 0.66086847 0.48519844
-0.022496065 -0.13349071 0.9811843 0.6246566 -0.9244573 0.018223593 0.040109925 0.098450124
00000000: a202 5c3f 9114 96be 91c9 33be f834 063f
00000010: 0648 51be d164 433f 8b4e 51be 020e 27bf
00000020: a702 a5be cdea a5bd aac8 6d3f 74e1 e1be
00000030: 54a8 25be c83b 243f 3294 aa3d e5ff 733f
00000040: 97dc f2bd d472 a73f 51dc 4f3f 3dc0 d5be
00000050: 7fd1 193f 9cce 81bf ad2e 293f ee6b f83e
00000060: ab49 b8bc cab1 08be e52e 7b3f 7fe9 1f3f
00000070: 3ca9 6cbf a549 953c 4e4a 243d 38a0 c93d

model.1.running_var f4 [32]
0.09329596 0.047623515 0.015197356 0.03590596 0.022399243 0.03846714 0.056923326 0.03984436
0.052306008 0.015199205 0.048864227 0.017538803 0.029090961 0.06063516 0.020786423 0.09035014
0.02776916 0.08429022 0.0553623 0.026937922 0.025095867 0.04913261 0.0679898 0.031490307
0.10798509 0.044491783 0.06429655 0.07784296 0.06045234 0.014692244 0.028757025 0.08107514
00000000: f411 bf3d e010 433d 55fe 783c 2112 133d
00000010: 9e7e b73c b88f 1d3d 6f28 693d d733 233d
00000020: d33e 563d 1606 793c db25 483d 89ad 8f3c
00000030: 2b50 ee3c 935c 783d 4a48 aa3c 7f09 b93d
00000040: 267c e33c 5aa0 ac3d 94c3 623d ebac dc3c
00000050: d995 cd3c 473f 493d 3c3e 8b3d fbfb 003d
00000060: 4927 dd3d 043d 363d e9ad 833d 216c 9f3d
00000070: df9c 773d bdb7 703c da93 eb3c b90a a63d

model.3.main.0.weight f4 [32, 32, 3, 3]
-0.0376156 -0.015181005 0.06927758 -0.120000385 0.043579288 -0.1602363 -0.13648798 -0.020559952
0.026535058 -0.16400851 -0.116528824 -0.003750748 0.033101574 -0.105672374 0.14772853 -0.13405976
-0.19516554 -0.027463308 -0.09243021 -0.1314441 -0.07230118 -0.0069561843 0.029900845 -0.01073539
-0.05987385 0.08692927 0.0039252453 -0.13682175 -0.0582192 0.0061302786 -0.12143802 0.09872034
-0.09651193 0.06200996 0.0068596336 0.019658532 -0.17301227 0.0143862665 -0.06947909 -0.10441119
0.036590815 0.0063609 -0.05901521 0.038801335 -0.053351298 -0.09695074 -0.042471763 -0.06398389
0.095832326 -0.10490492 -0.019028338 -0.032963954 0.019058779 0.024740608 0.010552717 -0.109596126
0.007886473 -0.09590135 0.05751281 -0.04349534 0.029847754 0.020329183 -0.029344473 0.08260428
0.09678023 0.096895024 -0.021887153 0.06782394 -0.024530487 0.06751496 -0.13694707 -0.06296662
-0.014794775 0.07047152 -0.10662045 -0.026525546 -0.17499654 -0.13449448 -0.054577414 0.055787552
0.08103514 -0.027196918 0.122649156 -0.02163154 -0.17867148 -0.007825115 0.02689531 -0.06514525
0.0046980903 -0.031132769 -0.1866443 -0.05586326 -0.02430136 -0.040537056 -0.0008451361 -0.076329075
0.08620619 -0.010113762 -0.1331025 0.016910266 0.053260114 0.021160206 0.041518986 -0.14640482
-0.056527678 0.004363598 -0.1052609 0.10560382 0.028190983 -0.12952319 -0.048435345 -0.09814273
0.028437383 -0.032614507 -0.027671127 -0.03487423 -0.24261048 0.13882612 -0.02383716 -0.12859115
-0.13829511 0.13598683 0.010663877 -0.13978681 0.033310656 0.19385174 -0.05190319 0.07248857
-0.048567228 0.05560316 -0.08732496 0.13462058 -0.14498322 -0.041078363 0.191952 0.038923666
-0.080163375 -0.0371711 -0.10831311 -0.18726632 -0.041007333 0.0014392391 -0.011578572 0.18693575
-0.10585232 0.016914463 -0.005168444 -0.115367875 0.068483256 0.06776062 -0.023170719 -0.04864556
-0.021568578 0.064887375 -0.10893978 0.040919673 -0.06071143 -0.027268508 -0.1669173 0.060278244
-0.04749187 -0.15381959 -0.002618761 0.04864929 0.041288916 -0.009425703 -0.004692119 -0.10932377
-0.034173105 -0.12546645 0.23439124 0.003618655 0.04689391 0.12170359 -0.0072771553 -0.10396865
-0.23516627 -0.048068732 -0.0071663638 0.037302382 -0.06015838 -0.09224285 -0.00097483606 0.09102973
-0.009993893 0.07368909 0.06872294 -0.035033047 -0.14366347 -0.079112165 0.036327016 -0.061455704
0.15882201 -0.046760257 0.056932647 -0.04002528 -0.09397018 -0.084566265 -0.028529927 -0.10994897
-0.12748684 0.16269808 0.037757408 0.0006193056 -0.0018146813 -0.028634593 -0.017666716 -0.10083716
0.026995646 -0.085769646 0.06046424 -0.2441438 -0.081556134 0.0022440727 -0.022430846 0.085738115
0.00617277 -0.028349945 0.027624935 0.18691307 0.0082852 0.11587759 0.0679618 0.007240174
-0.17588586 -0.016925318 -0.044318385 0.15669923 -0.0010427141 0.016818296 -0.09116298 -0.023878565
-0.024906958 0.012218548 -0.08529427 0.17351958 -0.07273919 -0.04959764 0.015345209 -0.12573978
0.103705615 -0.029882232 0.08490107 0.018196966 0.05863551 0.13373762 -0.036446113 -0.04993302
-0.05016433 0.017593369 0.005620338 0.075356156 -0.026159663 -0.06317741 0.07785001 -0.019083627
00000000: d112 1abd c0b9 78bc 67e1 8d3d c3c2 f5bd
00000010: 3280 323d fc14 24be 81c3 0bbe 586d a8bc
00000020: 0d60 d93c d9f1 27be aaa6 eebd 1ccf 75bb
00000030: 8495 073d c26a d8bd 2646 173e f646 09be
00000040: 7ad9 47be bbfa e0bc 0d4c bdbd 4899 06be
00000050: a412 94bd b4f0 e3bb 9ef2 f43c 7de3 2fbc
00000060: 483e 75bd f907 b23d 589f 803b 001b 0cbe
00000070: 4177 6ebd 81e0 c83b 7fb4 f8bd e42d ca3d
00000080: 0ca8 c5bd 28fe 7d3d c7c6 e03b ee0a a13c
00000090: 212a 31be 60b4 6b3c 0e4b 8ebd 89d5 d5bd
000000a0: 40e0 153d 196f d03b efb9 71bd 26ee 1e3d
000000b0: e486 5abd 1c8e c6bd dff6 2dbd fc09 83bd
000000c0: bd43 c43d 64d8 d6bd 51e1 9bbc 3605 07bd
000000d0: 2821 9c3c d1ac ca3c 4ee5 2c3c ef73 e0bd
000000e0: 4436 013c ed67 c4bd 8d92 6b3d 2b28 32bd
000000f0: 4783 f43c 6389 a63c d263 f0bc 6f2c a93d
00000100: b734 c63d e670 c63d b04c b3bc 47e7 8a3d
00000110: 29f4 c8bc 4945 8a3d da3b 0cbe a5f4 80bd
00000120: c965 72bc 5f53 903d d35b dabd 1a4c d9bc
00000130: 4b32 33be ecb8 09be 918c 5fbd 7d81 643d
00000140: c0f5 a53d 12cc debc 7b2f fb3d a134 b1bc
00000150: a8f5 36be e934 00bc 8e53 dc3c df6a 85bd
00000160: 70f2 993b 260a ffbc af1f 3fbe e0d0 64bd
00000170: a513 c7bc 2f0a 26bd 208c 5dba 6b52 9cbd
00000180: df8c b03d 31b4 25bc 064c 08be 6687 8a3c
00000190: 4727 5a3d 2b58 ad3c d00f 2a3d 25eb 15be
000001a0: 9189 67bd 83fc 8e3b 0793 d7bd d146 d83d
000001b0: c7f0 e63c baa1 04be 2464 46bd 0eff c8bd
000001c0: 84f5 e83c ca96 05bd 8fae e2bc 48d8 0ebd
000001d0: e26e 78be 6f28 0e3e 2646 c3bc 66ad 03be
000001e0: 3c9d 0dbe 2240 0b3e 8bb7 2e3c 4624 0fbe
000001f0: c170 083d 1281 463e 7098 54bd e374 943d
00000200: 6eee 46bd 24c0 633d 6ed7 b2bd fad9 093e
00000210: 7b76 14be c941 28bd 118f 443e 6c6e 1f3d
00000220: b22c a4bd b940 18bd 44d3 ddbd bec2 3fbe
00000230: 4ef7 27bd daa4 bc3a 0db4 3dbc 166c 3f3e
00000240: 1ac9 d8bd 3390 8a3c 0d5c a9bb fe45 ecbd
00000250: f340 8c3d 14c6 8a3d 85d0 bdbc 9140 47bd
00000260: 96b0 b0bc ace3 843d d21b dfbd 639b 273d
00000270: 8cac 78bd 3562 dfbc 5eec 2abe 52e6 763d
00000280: d686 42bd e282 1dbe 859f 2bbb 7a44 473d
00000290: 911e 293d 446e 1abc 59c0 99bb 24e5 dfbd
000002a0: 19f9 0bbd 477a 00be 4204 703e f526 6d3b
000002b0: d413 403d bb3f f93d 3475 eebb 84ed d4bd
000002c0: 6dcf 70be b8e3 44bd d1d3 eabb 62ca 183d
000002d0: a268 76bd d2e9 bcbd 248c 7fba cc6d ba3d
000002e0: 6dbd 23bc 4eea 963d 9dbe 8c3d d07e 0fbd
000002f0: 841c 13be 8f05 a2bd a3cb 143d fab8 7bbd
00000300: 3da2 223e af87 3fbd 3532 693d 8cf1 23bd
00000310: 7073 c0bd 1431 adbd 98b7 e9bc ed2c e1bd
00000320: e98b 02be 539a 263e 83a7 1a3d e558 223a
00000330: 9ada edba 1893 eabc cab9 90bc b783 cebd
00000340: f925 dd3c ffa7 afbd 5aa9 773d d500 7abe
00000350: e706 a7bd 4b11 133b e5c0 b7bc 7797 af3d
00000360: f344 ca3b 253e e8bc b04d e23c 2466 3f3e
00000370: a6be 073c 3b51 ed3d 8e2f 8b3d fb3e ed3b
00000380: 6c1b 34be f7a6 8abc 3287 35bd c375 203e
00000390: aeab 88ba 86c6 893c a8b3 babd fb9c c3bc
000003a0: ad09 ccbc 4e30 483c c3ae aebd 1eaf 313e
000003b0: 49f8 94bd e526 4bbd 796a 7b3c eec1 00be
000003c0: 9c63 d43d 95cb f4bc 9de0 ad3d ce11 953c
000003d0: ca2b 703d 84f2 083e 8548 15bd 9186 4cbd
000003e0: 1d79 4dbd f81f 903c d02a b83b 5454 9a3d
000003f0: ca4c d6bc 2863 81bd d36f 9f3d 4455 9cbc

model.3.main.1.weight f4 [32]
0.9976104 1.0018328 1.0264173 1.021148 1.0221572 1.005187 0.98238415 1.0010737
1.0020665 1.0094694 1.0014553 0.9988084 0.98329324 0.9982623 0.9651868 0.99843216
1.0138804 1.002112 0.99883085 0.9871769 1.0225614 0.99469835 0.98585165 0.9746312
0.998968 0.9940124 0.99832034 0.98543507 0.9932351 1.0080289 1.00001 1.0210868
00000000: 6563 7f3f 0f3c 803f a461 833f fab4 823f
00000010: 0cd6 823f f8a9 803f 877d 7b3f 2f23 803f
00000020: b743 803f 4b36 813f b02f 803f e8b1 7f3f
00000030: 1bb9 7b3f 1e8e 7f3f 7b16 773f 4099 7f3f
00000040: d5c6 813f 3545 803f 61b3 7f3f a0b7 7c3f
00000050: 4be3 823f 8da4 7e3f c660 7c3f 6e81 793f
00000060: 5ebc 7f3f 9977 7e3f ec91 7f3f 7945 7c3f
00000070: a844 7e3f 1707 813f 5400 803f f9b2 823f

model.3.main.1.bias f4 [32]
0.0008255079 0.015427452 -0.0088239135 0.01575968 0.0255318 0.0223949 0.02029615 0.026145758
0.02932642 0.01036225 0.036290377 0.03786612 -0.001382113 0.03328075 -0.0032340302 -0.0061397
0.023730706 0.036744084 0.0070451633 -0.0014509793 -0.05143397 -0.008632488 -0.008590484 -0.037690897
-0.003581686 -8.913853e-05 -0.015936865 -0.020183451 0.0016598678 0.037880797 -0.0040110983 0.102240875
00000000: e666 583a 6cc3 7c3c 2d92 10bc 721a 813c
00000010: 1128 d13c 8275 b73c 1d44 a63c a12f d63c
00000020: f63d f03c 6dc6 293c 38a5 143d 8119 1b3d
00000030: 0428 b5ba 6551 083d 06f2 53bb 892f c9bb
00000040: e666 c23c f780 163d 1ddb e63b c92e beba
00000050: 6dac 52bd 476f 0dbc 1abf 0cbc c561 1abd
00000060: b8ba 6abb e2ef bab8 078e 82bc c457 a5bc
00000070: ec8f d93a e528 1b3d 886f 83bb aa63 d13d

model.3.main.1.gate f4 [32]
0.9441363 1.1717669 1.1331733 0.94679123 0.9571652 0.7008189 0.85240346 1.0361644
1.0653788 0.96503997 0.8487418 0.93380445 1.006049 1.1706984 0.94255733 1.3909458
0.97731817 1.1684755 0.96477264 1.0781304 0.99063873 0.9613655 0.91394436 1.1762817
0.97961694 0.81234604 0.9553056 1.0207545 1.0658619 0.60872316 1.0274725 0.79038054
00000000: ebb2 713f 75fc 953f d30b 913f e960 723f
00000010: c708 753f de68 333f 1d37 5a3f 09a1 843f
00000020: 555e 883f dc0c 773f 2547 593f cf0d 6f3f
00000030: 37c6 803f 72d9 953f 704b 713f 830a b23f
00000040: 8631 7a3f 9b90 953f 57fb 763f 2d00 8a3f
00000050: 809a 7d3f 0d1c 763f 42f8 693f 6690 963f
00000060: 2dc8 7a3f e9f5 4f3f e88e 743f 15a8 823f
00000070: 2a6e 883f 48d5 1b3f 3884 833f 6156 4a3f

model.3.main.1.running_mean f4 [32]
-1.4134711 0.9806299 0.37597063 -0.025373278 0.27147698 -0.80118126 -0.61482656 -0.7353963
0.3689121 0.14072563 -1.0410148 -0.18360604 -0.5574141 -0.16775373 -0.13317454 -0.41157845
-0.8990999 -0.4749797 0.28173968 0.21551366 -0.28396764 0.25855646 0.55232996 -0.62815833
0.8591756 0.4865829 -0.043379538 0.07678729 -1.2237769 0.15997884 0.034278218 -0.19681627
00000000: 9fec b4bf 900a 7b3f 397f c03e 9fdb cfbc
00000010: 08ff 8a3e 371a 4dbf 4665 1dbf ef42 3cbf
00000020: 0ce2 bc3e 611a 103e f93f 85bf 3903 3cbe
00000030: b1b2 0ebf a2c7 2bbe e85e 08be 69ba d2be
00000040: 692b 66bf 8a30 f3be 2f40 903e 9daf 5c3e
00000050: 3564 91be 8361 843e 7f65 0d3f fcce 20bf
00000060: eff2 5b3f 6521 f93e beae 31bd a842 9d3d
00000070: b9a4 9cbf 7ed1 233e 5167 0c3d 348a 49be

model.3.main.1.running_var f4 [32]
0.68421686 1.335349 0.8379812 1.2151694 1.8107345 3.229805 0.8041404 0.59352857
1.591464 0.7563475 0.57978994 0.7099454 0.9266645 0.53939617 1.2763582 1.4520078
0.69086593 0.95453596 0.48205984 1.1293731 0.5981643 1.181597 0.7680746 1.2394762
1.5921894 2.2122948 1.1307045 0.45821375 0.65442187 1.2236911 0.67221344 0.9849139
00000000: d628 2f3f b7ec aa3f f085 563f ac8a 9b3f
00000010: 26c6 e73f 20b5 4e40 25dc 4d3f 7df1 173f
00000020: 18b5 cb3f fd9f 413f 1d6d 143f fbbe 353f
00000030: e239 6d3f de15 0a3f b55f a33f 64db b93f
00000040: 97dc 303f 785c 743f 8cd0 f63e 4c8f 903f
00000050: 4c21 193f 923e 973f 89a0 443f 28a7 9e3f
00000060: ddcc cb3f 3d96 0d40 edba 903f fe9a ea3e
00000070: 3188 273f e9a1 9c3f 2e16 2c3f 5123 7c3f

model.3.main.3.weight f4 [32, 32, 3, 3]
-0.029307164 0.0002515589 -0.069073886 0.14960946 -0.12564906 -0.0076621785 -0.12405402 -0.036028333
-0.104885474 0.039144333 0.02916479 0.015922533 -0.0156177115 -0.039604675 -0.052575957 -0.107308
-0.015778786 -0.09281417 -0.055028886 0.06689859 0.09284537 -0.099081144 0.08746049 -0.10318919
0.07033528 -0.037041936 -0.04742554 -0.07864488 -0.14457738 0.06382601 0.0014670482 0.1198383
-0.071784794 0.0373401 -0.07312635 -0.1454121 0.014117249 0.18152381 -0.013433934 -0.0019399415
-0.10339915 0.00485166 0.028509405 0.18893473 -0.009490062 0.14390877 -0.1504953 -0.15314253
0.06560218 0.008104731 0.1401596 -0.06626628 0.0054338467 0.00807123 -0.011310184 0.12327553
0.002644835 -0.010774601 -0.09367214 0.058792796 -0.044581544 -0.10383782 0.042788923 -0.09292269
0.021379134 0.05555283 0.011095655 0.07370935 0.016652541 -0.026821304 0.10634853 0.021923471
0.12785149 0.043528054 -0.05851506 0.17049599 -0.036211792 -0.013328796 -0.049127575 0.09587073
-0.12587726 -0.033080623 0.085464366 0.03943946 0.15860467 -0.076436006 -0.018783933 -0.08746903
0.015651144 -0.0047822427 0.07901545 -0.07836907 0.08244412 -0.038923204 -0.08551383 0.104517445
-0.035363864 -0.045639105 0.0025551708 0.101996645 -0.015439535 -0.05123066 0.05683323 0.0208192
0.10291247 -0.006745397 -0.14169133 0.038857546 0.08509321 0.14468306 -0.14971304 -0.030386982
0.14739946 -0.00853581 -0.013396995 0.016045932 0.034491774 -0.003108645 0.103939675 0.0813754
-0.008298688 0.06874667 0.006182588 0.15984523 0.063499264 -0.080711156 -0.084689155 -0.16954869
-0.13953704 -0.038392093 0.015469955 -0.0051619355 -0.063631184 0.14374541 -0.12217636 -0.1488526
0.021764038 0.1042121 -0.013408547 0.118263505 0.085445866 0.012662385 -0.042158198 0.034127463
-0.044816483 0.15274796 0.03910806 -0.04573426 -0.0042310725 0.18813416 0.062162578 0.07828668
-0.04000711 0.11872296 0.054777812 0.018641904 -0.047646202 0.06396863 -0.22173308 0.054659896
0.068977855 -0.11209991 0.14426814 -0.02367333 0.01258875 0.060914878 0.035562232 0.028078364
0.058933396 -0.046172515 -0.1759973 0.0767158 -0.034047615 -0.038740307 -0.08383448 -0.013740155
0.0053294124 0.077373356 -0.056765094 -0.08189463 0.10485438 -0.09003695 0.106534824 0.106151424
0.05338058 0.16872758 0.026336532 -0.04360605 -0.14419554 0.009445071 -0.024851477 0.15080734
0.0022521873 -0.081036985 -0.015183956 -0.17252846 -0.07846977 -0.04599545 -0.094496116 0.03283209
-0.06540009 -0.14652278 0.09571704 0.013727417 -0.057359576 0.10646125 0.03134209 0.031603463
0.18805489 -0.086852126 0.080575295 -0.007893851 -0.054657508 -0.0475134 -0.03280129 0.061748933
-0.03779795 0.10967853 0.044086345 -0.072579294 -0.011309961 0.052404214 0.029424256 -0.09561692
-0.014918076 0.11208013 -0.14733995 0.026228296 0.14843255 -0.09038498 0.079070024 -0.0013434109
0.058859736 -0.14766279 0.029403143 0.06789152 -0.105203256 0.0076060873 -0.025408706 -0.104042895
0.013130264 -0.0026793822 -0.19105455 0.14127208 0.16417198 -0.025588077 0.11547644 0.18528515
0.054543555 -0.036677632 0.028166728 -0.02998103 0.10253432 -0.08072141 -0.06483027 -0.06577164
00000000: 9415 f0bc aae3 8339 9c76 8dbd 3933 193e
00000010: 26aa 00be 0313 fbbb 0910 febd 7292 13bd
00000020: 32ce d6bd cf55 203d ffea ee3c f96f 823c
00000030: 6ee1 7fbc 8338 22bd e359 57bd 4cc4 dbbd
00000040: 8342 81bc 5b15 bebd f865 61bd 2102 893d
00000050: b725 be3d 0eeb cabd 7c1e b33d db54 d3bd
00000060: f10b 903d 49b9 17bd 4841 42bd 9110 a1bd
00000070: 180c 14be 36b7 823d f849 c03a c86d f53d
00000080: e803 93bd eff1 183d 45c3 95bd e9e6 14be
00000090: 094c 673c 61e1 393e 011a 5cbc a345 feba
000000a0: efc2 d3bd adfa 9e3b 8e8c e93c 1b78 413e
000000b0: 347c 1bbc d25c 133e 711b 1abe 65d1 1cbe
000000c0: 705a 863d b5c9 043c 0086 0f3e 9eb6 87bd
000000d0: 690e b23b 313d 043c 5a4e 39bc e277 fc3d
000000e0: f854 2d3b f487 30bc 2ed7 bfbd b7d0 703d
000000f0: 239b 36bd eca8 d4bd 7043 2f3d 404e bebd
00000100: 4b23 af3c 5d8b 633d 8dca 353c edf4 963d
00000110: e96a 883c 5ab8 dbbc 42cd d93d da98 b33c
00000120: 80eb 023e 794a 323d 7dad 6fbd 8096 2e3e
00000130: d152 14bd 0661 5abc ff39 49bd e057 c43d
00000140: f8e5 00be 8c7f 07bd f107 af3d 458b 213d
00000150: 4369 223e 7b8a 9cbd c3e0 99bc f622 b3bd
00000160: d436 803c 5cb4 9cbb dad2 a13d f77f a0bd
00000170: 76d8 a83d f06d 1fbd e021 afbd 3e0d d63d
00000180: b3d9 10bd 12f0 3abd a774 273b 9ee3 d03d
00000190: 1af6 7cbc 3ed7 51bd f6c9 683d 078d aa3c
000001a0: c6c3 d23d 7e08 ddbb 8817 11be 1729 1f3d
000001b0: 5945 ae3d cc27 143e 604e 19be 1fee f8bc
000001c0: e2ef 163e c8d9 0bbc 127f 5bbc c272 833c
000001d0: 3f47 0d3d 69ba 4bbb 53de d43d 25a8 a63d
000001e0: 38f7 07bc 0ecb 8c3d 4f97 ca3b 78ae 233e
000001f0: e70b 823d e44b a5bd 8271 adbd 2c9e 2dbe
00000200: cce2 0ebe 0741 1dbd b275 7d3c 7425 a9bb
00000210: 1151 82bd ff31 133e 9937 fabd d16c 18be
00000220: 7f4a b23c 276d d53d 86af 5bbc 2334 f23d
00000230: 3efe ae3d e475 4f3c 13ae 2cbd 3dc9 0b3d
00000240: 7d91 37bd f669 1c3e c62f 203d d953 3bbd
00000250: cfa4 8abb 3ea6 403e 309e 7e3d c454 a03d
00000260: 7fde 23bd 0625 f33d b35e 603d e8b6 983c
00000270: aa28 43bd fc01 833d ff0d 63be 0ee3 5f3d
00000280: 4344 8d3d a394 e5bd 07bb 133e 92ee c1bc
00000290: 0b41 4e3c e181 793d b4a9 113d 9904 e63c
000002a0: 2564 713d 641f 3dbd a338 34be 2c1d 9d3d
000002b0: 8375 0bbd 28ae 1ebd 69b1 abbd 631e 61bc
000002c0: 5aa2 ae3b ec75 9e3d 8482 68bd 5fb8 a7bd
000002d0: e5bd d63d 4b65 b8bd ee2e da3d eb65 d93d
000002e0: 98a5 5a3d ecc6 2c3e b6bf d73c 429c 32bd
000002f0: ffa7 13be 80bf 1a3c 5395 cbbc 3d6d 1a3e
00000300: 6f99 133b b8f6 a5bd 21c6 78bc 4dab 30be
00000310: c2b4 a0bd ba65 3cbd 2e87 c1bd f17a 063d
00000320: 7bf0 85bd 110a 16be 4c07 c43d f6e8 603c
00000330: e0f1 6abd 5b08 da3d 9060 003d a272 013d
00000340: 7691 403e 87df b1bd a904 a53d 3655 01bc
00000350: 8de0 5fbd 699d 42bd a55a 06bd 73ec 7c3d
00000360: 06d2 1abd 239f e03d e293 343d 74a4 94bd
00000370: 6a4d 39bc cda5 563d 230b f13c ced2 c3bd
00000380: f26a 74bc 448a e53d 49e0 16be b9dc d63c
00000390: b4fe 173e c31b b9bd 77ef a13d 6415 b0ba
000003a0: e816 713d ea34 17be dcde f03c b60a 8b3d
000003b0: ce74 d7bd 7c3c f93b eb25 d0bc 7114 d5bd
000003c0: 5220 573c 9398 2fbb cea3 43be a1a9 103e
000003d0: b31c 283e 169e d1bc e97e ec3d 64bb 3d3e
000003e0: 1069 5f3d 493b 16bd e9bd e63c c79a f5bc
000003f0: 83fd d13d 4451 a5bd bcc5 84bd 48b3 86bd

model.3.main.4.weight f4 [32]
0.97978365 0.9730752 0.98314345 0.9345116 0.9796944 0.98787415 0.9775166 0.973898
0.9610358 0.99069136 0.9857944 0.95738095 0.9651971 1.0048503 0.97737885 0.9685529
0.9926419 0.9444101 0.92218935 0.98704296 0.98481756 0.9349546 0.9744965 0.99241096
0.96859294 0.93409824 0.9498011 0.98034495 0.96397674 0.96643245 0.9828611 0.9663835
00000000: 1ad3 7a3f 751b 793f 4aaf 7b3f 273c 6f3f
00000010: 41cd 7a3f 52e5 7c3f 873e 7a3f 6151 793f
00000020: 7106 763f f39d 7d3f 065d 7c3f eb16 753f
00000030: 2817 773f ef9e 803f 8035 7a3f 15f3 773f
00000040: c81d 7e3f dcc4 713f 9a14 6c3f d9ae 7c3f
00000050: 011d 7c3f 2f59 6f3f 9a78 793f a50e 7e3f
00000060: b5f5 773f 1021 6f3f 2a26 733f e3f7 7a3f
00000070: 2ec7 763f 1e68 773f c99c 7b3f e964 773f

model.3.main.4.bias f4 [32]
0.0075897207 0.011235274 -0.037241977 0.009508181 0.0032372246 0.043003794 -0.0012270034 -0.0048653255
0.0012634937 0.016216248 0.09526369 0.041068655 0.015928173 0.011901083 -0.02584674 0.0010868832
0.026440868 0.032569643 0.008743328 -0.010875499 0.022081887 0.005084837 0.03243593 0.06623694
0.0038421834 0.011959763 0.05200395 0.053990234 -0.009113638 0.042806745 0.024802662 -0.03725454
00000000: 31b3 f83b 2814 383c 0b8b 18bd 34c8 1b3c
00000010: 9e27 543b bf24 303d 67d3 a0ba 4f6d 9fbb
00000020: d09b a53a f0d7 843c 9c19 c33d 9b37 283d
00000030: cd7b 823c c3fc 423c 8bbc d3bc c075 8e3a
00000040: 859a d83c bf67 053d 2d40 0f3c 262f 32bc
00000050: 13e5 b43c b49e a63b 8adb 043d 3ca7 873d
00000060: 24cd 7b3b e2f2 433c 1802 553d dd24 5d3d
00000070: 5e51 15bc 2056 2f3d f42e cb3c 3798 18bd

model.3.main.4.gate f4 [32]
0.841383 1.0813448 0.9165463 1.1346903 0.9216388 0.9812819 1.132571 1.0777825
1.0700395 1.1054022 1.0519341 0.9011374 0.8404952 0.9291437 1.0447328 0.8469347
0.9159449 1.1181866 0.9386533 0.9104364 0.9610851 0.88565874 0.8991943 1.0768867
1.0552927 0.9513188 0.9975326 1.1438622 1.1030067 0.95543236 0.99559927 1.1008763
00000000: e064 573f 8269 8a3f c7a2 6a3f 883d 913f
00000010: 85f0 6b3f 4a35 7b3f 16f8 903f c7f4 893f
00000020: 0ef7 883f d27d 8d3f c7a5 863f f1b0 663f
00000030: b22a 573f 5ddc 6d3f ceb9 853f b6d0 583f
00000040: 5d7b 6a3f bd20 8f3f 954b 703f 5c12 693f
00000050: ac09 763f 88ba 623f 9931 663f 6cd7 893f
00000060: d513 873f a189 733f 4c5e 7f3f 146a 923f
00000070: 532f 8d3f 3797 743f 98df 7e3f 84e9 8c3f

model.3.main.4.running_mean f4 [32]
0.3823269 -0.7314755 0.78629136 -0.528061 -0.4863108 -0.97060865 -0.6698824 -0.7911277
0.5520677 -1.3654264 -1.7461846 0.34405002 -0.31552276 0.31604612 1.1959103 -0.33693784
-0.06827808 -0.5223853 0.11256737 -0.76387626 0.999357 0.869354 -0.76899904 0.44517627
0.4978092 -0.027862197 -1.0635144 -0.7613941 1.1912163 0.38446534 -0.284555 0.8621692
00000000: 5ac0 c33e fa41 3bbf 644a 493f 012f 07bf
00000010: bbfd f8be cf79 78bf 6a7d 2bbf 5887 4abf
00000020: 4f54 0d3f 4bc6 aebf fa82 dfbf 5327 b03e
00000030: 338c a1be ccd0 a13e 9713 993f 1e83 acbe
00000040: 61d5 8bbd 0bbb 05bf b989 e63d 658d 43bf
00000050: dcd5 7f3f fc8d 5e3f 1fdd 44bf 25ee e33e
00000060: d9e0 fe3e 433f e4bc 3d21 88bf b9ea 42bf
00000070: c779 983f a4d8 c43e 31b1 91be 1fb7 5c3f

model.3.main.4.running_var f4 [32]
1.4227096 2.1184704 4.3759255 1.2472849 2.6475554 1.5104853 1.0341142 1.471431
1.560996 2.267321 5.3145456 2.9766054 1.1810672 2.7237284 2.6644843 1.8000952
1.5356939 1.1620222 0.84620893 2.7289145 2.4598732 1.9276577 2.3570635 2.0637255
1.6904871 1.4474889 2.7951376 3.1334128 1.9411612 1.3403592 1.0965409 1.7641995
00000000: 591b b63f 0595 0740 9507 8c40 08a7 9f3f
00000010: 8c71 2940 9557 c13f db5d 843f da57 bc3f
00000020: b8ce c73f ca1b 1140 c210 aa40 b480 3e40
00000030: 362d 973f 9151 2e40 e986 2a40 8569 e63f
00000040: 9e91 c43f 25bd 943f 26a1 583f 89a6 2e40
00000050: 906e 1d40 7dbd f63f 21da 1640 1414 0440
00000060: e261 d83f 5147 b93f 89e3 3240 d689 4840
00000070: f877 f83f e490 ab3f 745b 8c3f 4ad1 e13f

model.4.main.0.weight f4 [32, 32, 3, 3]
-0.103546605 0.015325875 -0.1469481 -0.09117435 0.030331802 -0.025472442 -0.019415682 -0.037192862
-0.10779236 0.07845263 0.017639546 -0.048762996 -0.08798839 0.030932337 -0.1698112 -0.12382803
-0.09592944 0.08087316 0.015641868 0.08879071 -0.1109029 0.011626225 0.036356475 -0.014454436
-0.058041476 0.049659934 0.08162193 -0.13307066 0.12388786 0.09739268 -0.021502974 -0.10331556
-0.095176116 0.12413712 0.10873796 0.02236324 -0.04519011 0.06450648 0.0060394644 -0.21238008
-0.12023996 0.072291724 -0.024834841 0.017979553 0.12092008 -0.05748519 -0.08897314 0.01367877
0.02556469 0.037819106 0.02731818 0.020912455 -0.23252451 0.20642938 0.060462274 -0.015284853
0.1522642 0.08275854 -0.011349889 0.18685876 -0.0021749036 0.09979387 -0.18924415 -0.08264982
-0.038499814 0.15354382 -0.12289861 -0.008693523 -0.03783209 -0.0012663944 0.03246227 0.0463799
0.19528241 0.17209288 -0.021071719 0.054256126 -0.0630413 0.027545363 0.008905167 -0.033135407
0.024100093 -0.18831104 0.08519252 -0.061764892 0.04105602 0.034531355 0.112430416 -0.07584118
-0.05363491 0.07459542 -0.051193047 -0.033763513 0.17683946 -0.09324637 0.08837385 -0.06387689
-0.08181444 -0.059626777 0.01160375 0.050952505 -0.119249806 0.09823828 0.071124494 0.10910848
0.08856373 0.09788702 0.016007347 -0.11315509 0.10530449 0.027423069 -0.101267196 -0.11478013
0.011322266 -0.07737532 0.2361458 0.18048874 -0.06652604 -0.20542446 -0.04909579 0.044287845
-0.043826755 0.020886218 0.0659963 0.03402804 -0.060112733 -0.054686088 0.05134937 0.030847209
0.029382609 -0.023449026 -0.042131744 0.03637966 0.01125602 0.06732175 0.059847403 0.056462307
-0.0795381 -0.0461839 -0.03819324 0.15556318 0.0011852474 -0.08502024 -0.09041673 -0.010287038
0.09913147 -0.10009282 -0.107202284 -0.012129192 0.12769048 0.023575533 -0.049703244 0.050418388
-0.11743197 0.012965725 0.042620793 0.062096674 -0.1651362 0.018966218 -0.049164344 -0.05401318
0.061147574 0.102920935 0.039986223 -0.016837712 0.048400927 -0.049985852 0.059302963 0.09573164
-0.243235 0.02272477 0.071795784 -0.08860611 -0.03291672 0.041478734 -0.054691058 -0.026467098
0.13997173 -0.12519364 -0.072814584 0.06454065 -0.0044671334 0.030070975 -0.044702377 -0.11205694
-0.076082 0.029612822 -0.037687734 0.04063252 0.016124263 -0.17765531 -0.05695378 -0.06793815
-0.019604687 0.06361265 0.012613996 0.078333564 0.03831576 -0.075691186 0.014600124 -0.065102726
0.059751745 -0.056202777 -0.009502906 0.07848863 -0.015870245 -0.06928125 -0.01828533 -0.024246335
-0.050736174 0.0751604 0.027591707 -0.0595716 -0.0014451909 0.02103255 -0.060739614 0.047601387
0.06677927 -0.077265464 0.10635132 0.04253297 0.14065352 -0.12648581 -0.06691245 -0.08321788
0.15169977 -0.124835126 0.059979934 -0.11288796 0.044029716 0.100863054 -0.012877784 0.012532969
-0.054983284 -0.10465027 -0.0865372 0.07752355 -0.016287263 0.045718316 -0.03105086 0.13345465
-0.040127832 0.096432246 -0.05644775 0.06599471 -0.03451206 -0.011879296 -0.01591807 -0.14652571
-0.00031916812 -0.058366343 0.04182833 0.046709284 0.15686569 -0.0041639376 0.0199112 0.18198636
00000000: 3e10 d4bd 6119 7b3c 9079 16be 9eb9 babd
00000010: 667a f83c 95ab d0bc a30d 9fbc 8b57 18bd
00000020: 3ec2 dcbd c6ab a03d cf80 903c b5bb 47bd
00000030: 4233 b4bd d065 fd3c fde2 2dbe 8d99 fdbd
00000040: a776 c4bd d4a0 a53d 6023 803c e7d7 b53d
00000050: 0f21 e3bd ec7b 3e3c 87ea 143d 4cd2 6cbc
00000060: e6bc 6dbd 3768 4b3d 6629 a73d ad43 08be
00000070: ebb8 fd3d d075 c73d 0127 b0bc 1c97 d3bd
00000080: b2eb c2bd 9a3b fe3d 02b2 de3d 1d33 b73c
00000090: 4419 39bd f91b 843d b3e6 c53b 2a7a 59be
000000a0: 5e40 f6bd af0d 943d 7072 cbbc db49 933c
000000b0: f2a4 f73d 9775 6bbd 8d37 b6bd eb1c 603c
000000c0: 0a6d d13c 35e8 1a3d 60ca df3c 9950 ab3c
000000d0: e81a 6ebe 3962 533e 4aa7 773d 526d 7abc
000000e0: 25eb 1b3e 4f7d a93d e3f4 39bc e757 3f3e
000000f0: d488 0ebb ba60 cc3d 38c9 41be 4f44 a9bd
00000100: fbb1 1dbd 973a 1d3e 44b2 fbbd 476f 0ebc
00000110: d2f5 1abd 25fd a5ba 28f7 043d daf8 3d3d
00000120: 1df8 473e 1e39 303e 999e acbc ac3b 5e3d
00000130: cc1b 81bd d0a6 e13c fae6 113c feb8 07bd
00000140: 8f6d c53c 9cd4 40be 6a79 ae3d 2ffd 7cbd
00000150: 5b2a 283d c070 0d3d eb41 e63d 9f52 9bbd
00000160: 48b0 5bbd 7cc5 983d cdaf 51bd 9c4b 0abd
00000170: 6715 353e f4f7 bebd 59fd b43d e3d1 82bd
00000180: 548e a7bd 353b 74bd a81d 3e3c 93b3 503d
00000190: 3e39 f4bd 2731 c93d b8a9 913d 4474 df3d
000001a0: e760 b53d fd78 c83d d721 833c dbbd e7bd
000001b0: e1a9 d73d 58a6 e03c 2d65 cfbd d811 ebbd
000001c0: 0781 393c f476 9ebd 34d0 713e 0ad2 383e
000001d0: ce3e 88bd ca5a 52be ab18 49bd 2c67 353d
000001e0: af83 33bd 9319 ab3c 1129 873d fc60 0b3d
000001f0: c538 76bd 85fe 5fbd b853 523d 49b3 fc3c
00000200: ccb3 f03c 2c18 c0bc 5692 2cbd d702 153d
00000210: 2b6b 383c fcdf 893d 8d22 753d 0545 673d
00000220: dfe4 a2bd 542b 3dbd 8470 1cbd f44b 1f3e
00000230: 4e5a 9b3a 171f aebd 682c b9bd f78a 28bc
00000240: 7105 cb3d 77fd ccbd df8c dbbd 85b9 46bc
00000250: 4bc1 023e 7a21 c13c a195 4bbd 8383 4e3d
00000260: 2c80 f0bd 316e 543c 2493 2e3d 1559 7e3d
00000270: 7719 29be 0b5f 9b3c 8d60 49bd ed3c 5dbd
00000280: e175 7a3d 36c8 d23d 98c8 233d 3eef 89bc
00000290: 0d40 463d f7bd 4cbd aae7 723d f30e c43d
000002a0: 9912 79be 4c29 ba3c ab09 933d 1f77 b5bd
000002b0: afd3 06bd 9be5 293d bb03 60bd 87d1 d8bc
000002c0: c054 0f3e c332 00be d01f 95bd e32d 843d
000002d0: 0861 92bb 6857 f63c d719 37bd 1c7e e5bd
000002e0: e1d0 9bbd 9796 f23c 745e 1abd 496e 263d
000002f0: 0817 843c 46eb 35be 5e48 69bd 2823 8bbd
00000300: 029a a0bc 5947 823d efaa 4e3c 596d a03d
00000310: fdf0 1c3d fb03 9bbd 5c35 6f3c 9454 85bd
00000320: 3fbe 743d e234 66bd 14b2 1bbc a6be a03d
00000330: 5102 82bc 54e3 8dbd 1ecb 95bc 40a0 c6bc
00000340: bcd0 4fbd b2ed 993d 0108 e23c 5a01 74bd
00000350: 8f6c bdba 744c ac3c 1aca 78bd acf9 423d
00000360: 92c3 883d 5b3d 9ebd b9ce d93d 0d37 2e3d
00000370: 7a07 103e 7f85 01be 6509 89bd 236e aabd
00000380: 2f57 1b3e 8fa9 ffbd 85ad 753d ce31 e7bd
00000390: 8158 343d 4a91 ce3d 57fd 52bc 1557 4d3c
000003a0: 2736 61bd e152 d6bd 6a3a b1bd abc4 9e3d
000003b0: de6c 85bc 2143 3b3d 605e febc 56a8 083e
000003c0: 155d 24bd 457e c53d c235 67bd 3c28 873d
000003d0: 855c 0dbd 61a1 42bc 9d66 82bc d60a 16be
000003e0: 0556 a7b9 8c11 6fbd 2f54 2b3d 3c52 3f3d
000003f0: 66a1 203e a471 88bb d01c a33c a25a 3a3e

model.4.main.1.weight f4 [32]
0.9910941 1.0298939 1.0013709 0.93979776 1.006995 1.0086707 0.9615772 1.0208797
0.9803277 0.98659176 0.99860394 1.0120931 0.99497414 0.984808 0.97958356 0.9935889
1.014924 0.992023 1.0069902 1.0006179 1.0269136 1.0201745 1.0038921 0.9791311
0.9955904 1.0006424 0.9795097 1.005481 1.0178229 1.0209051 1.0107417 0.9783479
00000000: 58b8 7d3f 90d3 833f ec2c 803f 9696 703f
00000010: 36e5 803f 1f1c 813f ec29 763f 30ac 823f
00000020: c2f6 7a3f 4791 7c3f 82a4 7f3f 448c 813f
00000030: a0b6 7e3f 611c 7c3f fdc5 7a3f d85b 7e3f
00000040: 08e9 813f 38f5 7d3f 0ee5 803f 3f14 803f
00000050: e871 833f 1495 823f 897f 803f 56a8 7a3f
00000060: 03df 7e3f 0d15 803f 26c1 7a3f 9ab3 803f
00000070: 0548 823f 05ad 823f fc5f 813f 0275 7a3f

model.4.main.1.bias f4 [32]
0.0045188437 0.031531688 -0.007954096 -0.02202231 0.030004071 0.053989038 0.011445546 0.015834441
0.011144296 0.0211189 -0.0009779582 0.05143048 -0.0025562113 0.0030823485 -0.013167906 0.0008616132
-0.003933244 0.025913255 0.042633 -0.0017438052 0.013862602 0.0066898703 0.016622607 -0.027285565
0.0186944 -0.003339323 -0.008260369 0.0041011493 0.00023731378 0.02663522 0.0009925298 -0.017667418
00000000: cf12 943b 5f27 013d e651 02bc 2268 b4bc
00000010: 19cb f53c 9c23 5d3d 1986 3b3c 3bb7 813c
00000020: 9196 363c 8b01 ad3c d52e 80ba c4a8 523d
00000030: 1c86 27bb 3a01 4a3b 33be 57bc e2dd 613a
00000040: 71e2 80bb 0948 d43c f19f 2e3d 6590 e4ba
00000050: f81f 633c b336 db3b 222c 883c fa85 dfbc
00000060: 0025 993c 8bd8 5abb 8056 07bc ef62 863b
00000070: 6fd7 7839 1b32 da3c c617 823a 43bb 90bc

model.4.main.1.gate f4 [32]
1.1542434 1.3367949 1.0778403 0.96531224 1.1242523 1.3211783 1.0556092 1.0549434
1.0975802 1.0697186 1.1313893 0.879489 0.9600305 1.1118542 0.99692005 0.9904309
0.91755295 0.8646074 0.8928761 1.2567704 0.96436477 0.66567004 0.9995083 0.7825127
1.0587134 1.0839952 1.083004 1.1021671 1.1094136 0.5144159 0.9513204 1.0149384
00000000: 3fbe 933f 181c ab3f acf6 893f b41e 773f
00000010: 80e7 8f3f 5f1c a93f 341e 873f 6308 873f
00000020: 827d 8c3f 8aec 883f 5dd1 903f 3126 613f
00000030: 8fc4 753f 3d51 8e3f 2736 7f3f e18c 7d3f
00000040: c0e4 6a3f e956 5d3f 8793 643f dadd a03f
00000050: 9ce0 763f 5a69 2a3f c7df 7f3f c152 483f
00000060: ec83 873f 5bc0 8a3f e09f 8a3f d013 8d3f
00000070: 4401 8e3f c3b0 033f bc89 733f 80e9 813f

model.4.main.1.running_mean f4 [32]
-0.34568167 -0.649205 -0.52119225 -0.0032460797 -0.26507944 -0.32889155 0.53370315 -0.38071367
-0.35109898 -0.06320619 0.39349967 0.24597877 -0.7192172 -0.31477526 0.1863284 -0.68338484
-1.0168095 -0.6268723 0.07621389 0.13433482 -0.4405704 0.27529174 0.125306 0.41629276
0.10429274 0.49482802 0.13324766 -0.25880387 -0.255573 0.4212544 -0.3906907 0.19020678
00000000: 30fd b0be 4d32 26bf db6c 05bf 2ebc 54bb
00000010: 7eb8 87be 7964 a8be c5a0 083f e7ec c2be
00000020: 3fc3 b3be 3f72 81bd ca78 c93e dce1 7b3e
00000030: 9e1e 38bf 392a a1be dfcc 3e3e 4ff2 2ebf
00000040: d026 82bf b47a 20bf 0716 9c3d 118f 093e
00000050: 7292 e1be 0af3 8c3e 3750 003e 5324 d53e
00000060: 6f97 d53d 195a fd3e 1372 083e f181 84be
00000070: 77da 82be a8ae d73e 9d08 c8be 91c5 423e

model.4.main.1.running_var f4 [32]
3.64655 5.3251233 2.350467 3.958619 9.552483 5.6665897 3.0343971 10.240809
4.092754 3.8082087 5.12903 3.4830184 3.6576962 4.9093256 4.2945733 2.4739375
3.5605037 4.380757 7.118531 4.289594 3.8890905 2.4593637 5.664984 6.906849
4.9267764 3.7780364 3.4680614 4.877569 4.3654737 3.9286644 2.2299747 3.0351915
00000000: 1361 6940 6967 aa40 0d6e 1640 045a 7d40
00000010: f8d6 1841 b454 b540 9033 4240 5bda 2341
00000020: d7f7 8240 b1b9 7340 0421 a440 c6e9 5e40
00000030: b217 6a40 3219 9d40 256d 8940 fe54 1e40
00000040: 4bdf 6340 292f 8c40 02cb e340 5b44 8940
00000050: dce6 7840 3766 1d40 8d47 b540 e804 dd40
00000060: 27a8 9d40 59cb 7140 b8f4 5d40 0c15 9c40
00000070: f6b1 8b40 3d6f 7b40 e8b7 0e40 9440 4240

model.4.main.3.weight f4 [32, 32, 3, 3]
-0.17430422 -0.047463063 0.012048369 -0.07421076 -0.08752533 0.0114784045 0.078282125 -0.033979844
0.07954342 -0.13107073 -0.044983916 0.033147812 0.008752947 0.075638026 -0.06782898 -0.11264529
-0.079038486 -0.13466954 -0.007999897 0.10532614 -0.106524326 0.051200207 -0.053065903 0.18374385
-0.0014336741 -0.006640327 0.02808308 -0.035055213 -0.019682182 -0.15103756 -0.010613372 -0.06873733
-0.07776402 -0.14298606 -0.09908662 -0.04434768 0.0010090098 -0.00797187 0.06822241 -0.030931663
0.19773473 -0.060847193 -0.020193668 0.10040282 0.062327918 -0.15166003 -0.0070644254 0.06703023
-0.082570724 -0.14067958 -0.049757097 -0.029269682 -0.068982795 -0.16273141 -0.027429944 0.09569773
-0.10726174 -0.0060649626 0.062544204 -0.035448533 -0.0039416095 -0.050005645 -0.16526423 -0.0034151266
0.03843675 -0.036416195 0.0074343947 -0.11633441 -0.012587904 -0.114576444 0.024044843 -0.047773663
-0.05450942 -0.12594466 0.046243273 -0.042158745 -0.06056901 -0.14402354 0.094961375 0.06993739
0.037932247 0.022766564 0.06967365 -0.02827921 -0.14916535 -0.06629055 0.02685211 -0.05718947
0.14646378 -0.1533897 0.04756883 -0.036592267 -0.14600216 0.05607381 0.097735725 -0.0050461483
-0.048357427 0.056957114 0.08062362 0.10905064 0.024961922 -0.07310506 0.08532765 -0.09280228
-0.010714137 -0.0045179557 -0.0033315665 0.13090058 -0.003559618 0.059215102 0.23082446 -0.087135926
-0.012372383 -0.056541648 0.15732226 -0.0014772322 0.027568752 -0.06181952 -0.0510111 0.055852078
-0.021056626 0.018449338 -0.13264479 -0.066983186 -0.002147627 -0.02656358 -0.02154601 -0.11142791
-0.018166153 -0.023238745 0.010476424 0.06973885 -0.01578497 -0.17427449 0.076542616 -0.013712379
-0.00046604086 0.10850712 -0.08086403 0.13750754 -0.09545303 0.012073083 -0.058453195 -0.06993633
-0.12855014 0.03639989 0.0065973606 0.048986994 -0.15584874 0.100547284 0.07187452 -0.018509155
-0.058316763 -0.07354437 0.03749432 0.048377976 -0.07170032 -0.06337528 -0.14823784 0.0020056376
-0.013208282 0.02614732 -0.017789088 -0.124709785 -0.015255837 -0.056556985 0.022342458 -0.034721475
-0.03326535 0.08243601 0.10197269 -0.008730864 -0.045012325 0.014426869 -0.03864702 0.017702855
0.020955278 -0.146286 0.092984006 0.19594634 -0.05003984 0.030877214 0.08167506 -0.07657575
0.04128294 0.08588888 -0.055467047 -0.050946068 -0.06967932 0.013225916 -0.10075033 -0.22848791
0.05035943 -0.041604694 0.12730245 0.05224634 0.076999135 0.09505991 0.17501175 -0.08668729
-0.110534444 0.0030642408 -0.014019241 0.07609766 0.022029266 0.08107016 0.066319466 -0.059940785
0.021448007 -0.12991026 0.080487326 -0.058321495 0.014908769 -0.010337801 -0.10269977 -0.07575472
-0.053402364 -0.1013077 -0.049138572 -0.055030063 -0.1547161 -0.19233094 -0.0596649 -0.03299167
-0.0830442 -0.027351039 0.0011308021 0.029345952 0.05163533 0.095673345 0.04501109 0.13865592
0.07658375 -0.0017508897 -0.05378756 -0.028574362 0.12640035 0.09931665 -0.1021598 0.05160602
-0.11369555 -0.07458922 -0.014029862 0.08541785 0.047821686 0.10585008 0.0046408186 -0.022297412
-0.0669629 0.06326417 0.12680058 -0.101269856 -0.12906736 -0.13084203 -0.022396633 0.0074693277
00000000: ce7c 32be a168 42bd 8666 453c d0fb 97bd
00000010: 7b40 b3bd eb0f 3c3c 6152 a03d 732e 0bbd
00000020: a9e7 a23d 6837 06be 0e41 38bd 00c6 073d
00000030: 8568 0f3c 1ce8 9a3d ece9 8abd 93b2 e6bd
00000040: eede a1bd d0e6 09be 0012 03bc 3bb5 d73d
00000050: 6d29 dabd 4fb7 513d a25b 59bd 5927 3c3e
00000060: 1fea bbba 1a97 d9bb 7d0e e63c 0e96 0fbd
00000070: 873c a1bc 97a9 1abe b5e3 2dbc 28c6 8cbd
00000080: be42 9fbd f06a 12be eded cabd eaa5 35bd
00000090: c040 843a 729c 02bc 31b8 8b3d 6664 fdbc
000000a0: f97a 4a3e e83a 79bd 316d a5bc fe9f cd3d
000000b0: 8f4b 7f3d c44c 1bbe b27c e7bb 2547 893d
000000c0: d71a a9bd 4f0e 10be 19ce 4bbd f9c6 efbc
000000d0: da46 8dbd 10a3 26be c3b4 e0bc 2cfd c33d
000000e0: 0bac dbbd 98bc c6bb 2d17 803d 7b32 11bd
000000f0: 9e28 81bb b8d2 4cbd 073b 29be 51d0 5fbb
00000100: db6f 1d3d 2629 15bd 399c f33b bc40 eebd
00000110: 7f3d 4ebc 0ea7 eabd b1f9 c43c 51ae 43bd
00000120: 4545 5fbd a3f7 00be 9669 3d3d a6ae 2cbd
00000130: 3617 78bd e87a 13be 1c7b c23d 563b 8f3d
00000140: d85e 1b3d f280 ba3c 0fb1 8e3d cda9 e7bc
00000150: cdbe 18be 57c3 87bd f5f8 db3c 813f 6abd
00000160: 9afa 153e 3112 1dbe 89d7 423d c6e1 15bd
00000170: 9781 15be a7ad 653d ab29 c83d 295a a5bb
00000180: 7012 46bd dd4b 693d ff1d a53d f155 df3d
00000190: f27c cc3c 1bb8 95bd 43c0 ae3d 1f0f bebd
000001a0: 598a 2fbc 5c0b 94bb 6956 5abb cd0a 063e
000001b0: 7b48 69bb 898b 723d 3f5d 6c3e 5274 b2bd
000001c0: 89b5 4abc 3798 67bd 1619 213e b09f c1ba
000001d0: ddd7 e13c 7736 7dbd 04f1 50bd 26c5 643d
000001e0: f27e acbc 1123 973c 09d4 07be 7b2e 89bd
000001f0: 34bf 0cbb dd9b d9bc 4281 b0bc 5134 e4bd
00000200: 2fd1 94bc 2e5f bebc 4fa5 2b3c 3ed3 8e3d
00000210: 7b4f 81bc 0375 32be 60c2 9c3d e3a9 60bc
00000220: f256 f4b9 fb38 de3d 0a9c a5bd c7ce 0c3e
00000230: e17c c3bd 2ece 453c 9e6c 6fbd c73a 8fbd
00000240: a6a2 03be 0d18 153d ac2e d83b 96a6 483d
00000250: d096 1fbe bceb cd3d f332 933d 83a0 97bc
00000260: 8fdd 6ebd 6e9e 96bd a593 193d fc27 463d
00000270: 9ed7 92bd e6ca 81bd a9cb 17be 0471 033b
00000280: 8d67 58bc e832 d63c 6cba 91bc d867 ffbd
00000290: 9ef3 79bc 4ca8 67bd 8807 b73c 1b38 0ebd
000002a0: 3f41 08bd 36d4 a83d 0fd7 d03d e60b 0fbc
000002b0: d85e 38bd ad5e 6c3c 564c 1ebd 9405 913c
000002c0: 67aa ab3c ffcb 15be 666e be3d 28a6 483e
000002d0: 93f6 4cbd 36f2 fc3c 4145 a73d bfd3 9cbd
000002e0: 4d18 293d 82e6 af3d 6a31 63bd d3ac 50bd
000002f0: 08b4 8ebd 83b1 583c 3056 cebd bcf8 69be
00000300: b145 4e3d af69 2abd 935b 023e 4200 563d
00000310: b9b1 9d3d c5ae c23d 4836 333e 1b89 b1bd
00000320: e25f e2bd 6ed1 483b f5b0 65bc 17d9 9b3d
00000330: b876 b43c 1d08 a63d 80d2 873d 7884 75bd
00000340: bbb3 af3c 3207 05be 8ad6 a43d 85e2 6ebd
00000350: e943 743c e15f 29bc 4254 d2bd 4a25 9bbd
00000360: 70bc 5abd 697a cfbd 8745 49bd 3467 61bd
00000370: e66d 1ebe 67f2 44be 2f63 74bd 4622 07bd
00000380: 1413 aabd 490f e0bc 6c37 943a ec66 f03c
00000390: 917f 533d 63f0 c33d 8c5d 383d d1fb 0d3e
000003a0: f1d7 9c3d 1c7e e5ba 5850 5cbd c814 eabc
000003b0: 186f 013e 8766 cb3d 2839 d1bd d660 533d
000003c0: 36d9 e8bd 3cc2 98bd 82dd 65bc 8eef ae3d
000003d0: ace0 433d edc7 d83d 0212 983b 10a9 b6bc
000003e0: d823 89bd a590 813d 03d8 013e 9266 cfbd
000003f0: 3c2a 04be 74fb 05be 2579 b7bc 43c1 f43b

model.4.main.4.weight f4 [32]
0.945234 0.9342859 0.9852782 0.94557244 0.95464814 0.9742328 0.9691572 0.9714535
0.99692506 0.9840999 0.97990215 0.9539659 0.9643384 0.94700325 1.0085733 0.94365674
1.000557 0.96519303 0.9761151 0.9674286 0.98053783 1.0178978 0.94915813 0.98730785
1.0039859 1.0327595 1.0049516 0.96732265 0.9651445 0.9540032 0.9779498 0.95124906
00000000: dbfa 713f 5c2d 6f3f 313b 7c3f 0911 723f
00000010: d263 743f 5267 793f b01a 783f 2db1 783f
00000020: 7b36 7f3f f9ed 7b3f deda 7a3f 1c37 743f
00000030: e2de 763f ce6e 723f ee18 813f 7d93 713f
00000040: 4012 803f e416 773f aee2 793f 67a9 773f
00000050: 8704 7b3f 7a4a 823f 07fc 723f 35c0 7c3f
00000060: 9c82 803f 7731 843f 41a2 803f 75a2 773f
00000070: b613 773f 8e39 743f eb5a 7a3f 0f85 733f

model.4.main.4.bias f4 [32]
0.005810148 0.011958253 -0.036563616 0.009512433 0.003526087 0.04300585 -0.00042209134 -0.005029597
0.00021065173 0.015907904 0.080362834 0.054462634 0.015624405 0.011096286 -0.023563707 0.0003622222
0.026940327 0.035413276 0.0075745713 -0.0112883225 0.021149533 0.0055054864 0.031882007 0.05951545
0.0043121064 0.01348217 0.055633195 0.036615506 -0.008908613 0.03628783 0.027160544 -0.04478788
00000000: 0e63 be3b 8cec 433c bbc3 15bd 09da 1b3c
00000010: ec15 673b e726 303d 244c ddb9 51cf a4bb
00000020: 65e2 5c39 4b51 823c 4595 a43d 3614 5f3d
00000030: 81fd 7f3c 32cd 353c ad08 c1bc a4e8 bd39
00000040: f6b1 dc3c 830d 113d 1c34 f83b a8f2 38bc
00000050: c941 ad3c 5e67 b43b b596 023d 79c6 733d
00000060: 924c 8d3b 52e4 5c3c a2df 633d 24fa 153d
00000070: 6ef5 11bc 8ca2 143d ca7f de3c 7f73 37bd

model.4.main.4.gate f4 [32]
1.0809234 1.0393678 0.9777127 1.0860838 1.0417691 1.1039286 0.804448 1.0599067
1.0116729 1.1579434 0.89510274 0.93172026 0.9033479 0.8659501 0.91780305 0.8781753
1.0572488 0.96484303 1.0196924 0.94695425 1.031354 0.9764367 0.9318402 0.9811468
1.1034304 0.48106492 1.0977646 0.95738083 1.0469483 0.9345451 1.0923985 1.2176374
00000000: b35b 8a3f 010a 853f 614b 7a3f cb04 8b3f
00000010: b158 853f 884d 8d3f 4ef0 4d3f 06ab 873f
00000020: 7f7e 813f 7d37 943f 7425 653f 3885 6e3f
00000030: cf41 673f e8ae 5d3f 24f5 6a3f 19d0 603f
00000040: ee53 873f f4ff 763f 4885 823f 986b 723f
00000050: 6803 843f c1f7 793f 148d 6e3f 702c 7b3f
00000060: 353d 8d3f 244e f63e 8d83 8c3f e916 753f
00000070: 6702 863f 593e 6f3f b7d3 8b3f 8bdb 9b3f
