checkpoint/clf/experiment_name/900/netG.pth (torch, 244594 bytes, 32 tensors)

model.0.bias f4 [32]
00000000: f5cb 6abc 1dcb ca3a 8aa3 c63c 6c2d b33d
00000010: 9bb4 c3bc 373d 853d 6c28 b43c 7b3f babc
00000020: edc6 6fbd 89fa 5e3d e89a aa3b e9c5 2dbd
00000030: bd9c 353d 0b86 a13c d6cb a83b f1bd 253c
00000040: f58a e2bc 16f7 1e3d 2e8a 45bd 689f 39bd
00000050: 13aa f83d c8e3 b0bc 2ef7 093d 7e63 94bc
00000060: c140 a9bb f3cd 3fbd 33fa 86bd 3956 39bd
00000070: f8d1 913d 46b0 5c3d e1f2 ed3c f052 5abc
-0.014330854 0.001547191 0.024247903 0.08748898 -0.02388983 0.065058164 0.02199193 -0.022735348
-0.05853932 0.054438148 0.0052064545 -0.04242507 0.04433893 0.019717237 0.0051512523 0.010116086
-0.02765415 0.03880986 -0.04822748 -0.045318037 0.12141814 -0.02159299 0.033682995 -0.018113848
-0.00516519 -0.046827268 -0.065906905 -0.045248244 0.071201265 0.053879045 0.029046478 -0.013325438

model.0.weight_orig f4 [64, 32, 3, 3]
00000000: 1459 58bb 8e49 dbbb 531f 433c 2a1f 913c
00000010: 073d 4e3d ea22 c1bc db5e 1f3c 69b0 3c3d
00000020: 0ee2 c63c c54d fb3c 649c 823d 6a9a e8bc
00000030: bd41 943c 7bcc 2e3d 9155 c5bc af13 983b
00000040: aa41 a43b 405f 27bd 1fc3 743d f33e 6abc
00000050: cc9f 9eba 7545 1bbd 7de8 05bb 588c 20bc
00000060: 577d d9bc 093e 3ebd 28b3 b8bc 52a8 89bc
00000070: 8b40 6a3c 7c0e 563d 708d 823d 95b3 bc3d
00000080: 49bc 083c 9a86 593d 404c 3abc 7f71 8d3d
00000090: 9123 e0bc b918 93bd e0cf 7ebd 76aa 3cbd
000000a0: b6cf 95ba 16ce 8a3c 2c52 15bd 712a 53bd
000000b0: 49f0 81bd fecf 7fbb 2a69 213d 4b7a 513c
000000c0: fbea 86bc 3d05 9dbb 2d5c 25bd 5f1b 36bb
000000d0: f3f4 4c3d d6c7 5dbd 9a33 c1bb d80e 08bd
000000e0: 48f7 6cbd d2ee f33b 124e d2bc d8ca 503d
000000f0: 89ec 073d 6b1b 08bd f636 75bc 13fa 303d
00000100: 15f7 f8bc 7600 7abb 65a7 10ba a5e7 ec3c
00000110: 451f 41bd 9b22 3cbc 87c0 20bd 22f0 2fbd
00000120: 7d7e 3cbd 7559 073d 6f5f 183d 96aa 3ebd
00000130: c4ed 943b e300 e8bc 36b7 203d 5fab 22bd
00000140: 5fe9 533d 26d0 e837 df42 823d f242 54bc
00000150: df05 d23c 7f37 34bc 0479 873c 3679 803d
00000160: cb64 eb3a c33e 35bd e7e6 423b 9788 5fbd
00000170: 0229 0f3d a11a 0ebd 54fd ee3c f7b3 f2bb
00000180: 431d 70bc 4582 413d bda2 3ebd c8fb 5dbd
00000190: e5f3 0b3d 12d4 1abc b8f5 49bd dc4f 58bc
000001a0: 3a6a 5f3c 43c0 9f3c d848 6cbc 255e 9c3b
000001b0: 8126 e63b 1ca9 373d b4f5 46bc bae1 793d
000001c0: 5fe6 c23d 9ffd 1bbc d46a c2bb 30bf c43c
000001d0: 39b9 6cbc 4450 6bbb c549 00bd 16fa 0abc
000001e0: fed7 053d 9a53 8e3b 2ac8 4abd 3564 c03c
000001f0: ae09 78bd 8a6d 01bd 9137 a23c 8c43 f239
00000200: b9e4 0d3d 51f5 63bc 1dba b63c 227e 163d
00000210: 9d5d 08bd 2f75 7d3d ba78 16bd becd f33c
00000220: f76e ec3c 116f 4c3d d9c6 573d 4d1d 39bd
00000230: 6072 ae3c 2d12 f4bc b91a 37bd 5b78 bcbc
00000240: 4f49 113d 50a4 52bd d718 26bd 9eb2 873c
00000250: 34c4 5cbd c24d 133d 1428 3d3d 2ed6 00bd
00000260: 5491 023d 5c99 553d 1a3e 093b e6f1 083d
00000270: 1e29 423d c6b8 fe3b 83be 1ebc 8272 513d
00000280: e367 783d bdaf 83bc 5710 4b3d 9e78 3abd
00000290: b657 963c 5e11 233b 09fe 973c 457a 6ebd
000002a0: 07fb 083d 5eaa 243d 3f75 ca3c 9919 ee3c
000002b0: 9e46 e5bc e7fc b53c 0b0a 94bc 487e ea3b
000002c0: 4a09 6c3d 19d1 1b3c 473a 703c 3de7 b33c
000002d0: b796 083d 68ad 86bc 1472 03bd 216d 513d
000002e0: 4319 3bbc d9f5 5e3d b42c 3d3d 69c1 46bb
000002f0: 2ee0 013d 4463 77bc 1c72 683d 41f2 03bd
00000300: 3bef 49bd b89c a63c 2443 39bc cb7d 593d
00000310: a4c4 be3b 4db4 5bbd 69d7 303c 3848 6cbd
00000320: 2e4e 573b a76e 0b3d d0eb 2f3d 2230 06bd
00000330: 6be3 33bd 5532 41bd be3b 18bd 659f 0d3a
00000340: 7b0e 493c 820d e3bc d493 49bd 99b1 a13b
00000350: 90d1 0a3c 9b23 0abc d856 6bbd 8c20 47bd
00000360: fab7 08bd d76b 36bc 1eb7 663c 27e0 52bd
00000370: 1d21 323d b2a8 bc3c 27b1 edbc 3610 89b8
00000380: f806 813d 8bac 2db9 4eba 943c c0cc 16bd
00000390: 13ad 44bd f3c0 113c dd2a 293d 1fa5 4e3d
000003a0: 266a 823d 51a8 163d fbeb 1a3d 44af 89bc
000003b0: 8d9f 94bc 54d5 333d 0259 eebc f3b3 12bd
000003c0: a153 e23c c339 dc38 9d1b bb3c 195d 30bd
000003d0: b1a1 7e3d 373e b7bc 9692 083c 9d82 05bb
000003e0: c786 71bb d31e 7f3d 0dfd 223d 066b 033d
000003f0: b974 383d 76e0 293d 4346 d33b ab04 edbc
-0.003301208 -0.006692118 0.011909324 0.017715055 0.05035117 -0.023576219 0.009727205 0.046066675
0.024277713 0.030676732 0.063774854 -0.028393943 0.018097753 0.042675477 -0.024088653 0.0046410183
0.0050127106 -0.04086232 0.059756394 -0.014297235 -0.0012102067 -0.037908036 -0.0020432763 -0.009799086
-0.026549025 -0.04644588 -0.022546366 -0.016803894 0.014297615 0.052259907 0.06374633 0.0921394
0.008345672 0.05310688 -0.0113707185 0.06906413 -0.02736071 -0.0718245 -0.062209964 -0.046061
-0.00114297 0.016943973 -0.03645532 -0.051554147 -0.06344659 -0.0039033885 0.039406933 0.012785505
-0.01646947 -0.004791884 -0.04037111 -0.002778731 0.05003829 -0.054145657 -0.005896044 -0.03321728
-0.057853013 0.007444241 -0.025671992 0.050974697 0.033184562 -0.033229273 -0.014966717 0.04320724
-0.030391255 -0.0038147247 -0.0005518108 0.02891905 -0.04714896 -0.01148286 -0.03924611 -0.042953618
-0.046019066 0.033044297 0.037200388 -0.046549402 0.0045449454 -0.028320735 0.039237224 -0.039714213
0.051736232 2.7753482e-05 0.06360411 -0.012955414 0.025637565 -0.010999559 0.016537197 0.06273119
0.0017959116 -0.044249307 0.002973968 -0.05457362 0.034951217 -0.034693364 0.02917353 -0.0074067074
-0.014655414 0.047243375 -0.046541918 -0.054195195 0.034168143 -0.009449976 -0.0493066 -0.013202634
0.013636166 0.019500857 -0.014421664 0.004771965 0.007023633 0.04483901 -0.012143541 0.061006285
0.09516596 -0.009520917 -0.005933145 0.024016947 -0.014448457 -0.0035905996 -0.031320352 -0.008482477
0.03267669 0.004343462 -0.049507298 0.023485282 -0.060556106 -0.031598605 0.019801887 0.00046208163
0.034641955 -0.013913468 0.022305543 0.036741383 -0.0332924 0.061879333 -0.036736228 0.029761191
0.028861506 0.04991061 0.05267987 -0.04519396 0.021294773 -0.029793823 -0.04470322 -0.023006609
0.035470303 -0.05142623 -0.040551033 0.016564663 -0.05389805 0.035962828 0.0461808 -0.031454258
0.031876877 0.052148208 0.0020941556 0.033433817 0.047402494 0.0077734916 -0.009688976 0.051134594
0.06064595 -0.01607501 0.04957613 -0.045525186 0.01835237 0.0024882178 0.01855375 -0.058222074
0.033442523 0.040201537 0.02471411 0.02906494 -0.027987774 0.02221532 -0.018071195 0.007156167
0.057626046 0.009510302 0.014662332 0.021960849 0.033346858 -0.016440108 -0.032091215 0.051129464
-0.011419597 0.054433677 0.04618521 -0.0030327684 0.031707935 -0.01509935 0.05674945 -0.032213453
-0.049300414 0.020338401 -0.0113075115 0.05309848 0.0058217812 -0.053638745 0.010793545 -0.05768606
0.0032852995 0.034041073 0.042949498 -0.032760747 -0.043918055 -0.04716714 -0.03716635 0.0005402475
0.012271519 -0.027716402 -0.049213246 0.0049345014 0.008472815 -0.008431341 -0.057455868 -0.048615023
-0.03337858 -0.011134109 0.0140817445 -0.0514833 0.04348861 0.023029659 -0.029015137 -6.5356886e-05
0.06300157 -0.00016562843 0.018155243 -0.03681636 -0.04801662 0.0088961 0.041300643 0.05045044
0.063679025 0.036781613 0.037822705 -0.016807206 -0.018142486 0.043904617 -0.029095177 -0.035816144
0.027627768 0.000105011764 0.022840315 -0.043057535 0.06216592 -0.022368534 0.00833573 -0.002037204
-0.0036854015 0.062285256 0.03979211 0.032084487 0.04503319 0.04147383 0.006447585 -0.02893289

model.0.weight_u f4 [32]
00000000: 3b86 2a3e ea53 863e 8b48 3c3d 1b43 a83e
00000010: e3b1 3bbd c2de 733b aa6d 25bd 3e45 5cbd
00000020: 17d2 06bd d491 553e 2de6 8ebc e74a 87bd
00000030: f1dd 703e eb82 20be e994 d53c d39c 91bd
00000040: 23eb 9ebd 342d b13e 41b4 bbbc f08f 8fbd
00000050: 82d3 253f 0f01 513d ed57 19bd 0d07 81bd
00000060: bdbd 043e 48a4 6b3d 8e7f 87bd bd20 9e3d
00000070: b513 3cbe 6140 1bbc 7189 bf3d 69d1 103e
0.16652767 0.26235896 0.04596762 0.32863697 -0.045823943 0.0037211631 -0.040387787 -0.053776972
-0.0329152 0.2085641 -0.01744374 -0.06606083 0.23522164 -0.15674941 0.026071982 -0.0710999
-0.077596925 0.346048 -0.0229131 -0.07009876 0.6477586 0.0510264 -0.03743737 -0.06300173
0.12963004 0.057529718 -0.06616126 0.07721088 -0.18366893 -0.009475798 0.09352387 0.14142384

model.0.weight_v f4 [576]
00000000: 8cfb 833c 11df 523d 0b57 c23b a6ca 993d
00000010: 7596 893d 929d 183d 2455 a93d 04b4 7f3d
00000020: e4cb ce3c ebf7 1e3d c4d1 f23c 1f9d ba3d
00000030: 765f 8a3d 344d a53d 74ff cf3d f566 9a3d
00000040: 5b98 be3d d369 c73d e06d fc3c 857b 153d
00000050: 9f45 a73d 6bbd e23c 8b65 073d 9bf1 993d
00000060: 53ea 2b3d 1c5b c13d c885 cb3d fba1 753c
00000070: 4910 6cbc 4621 e639 8f37 1b3d 881b af3b
00000080: 989a dcbc 0241 0f3d ad5b 8f3d 4905 b13c
00000090: d49b 773d 2cde 633d 0db5 7d3d 2bca e23c
000000a0: 78fa 973d a4d9 cf3d 6f52 08bd 3d1d 843d
000000b0: ced5 5d3d 290f b43c 84b4 413d 8083 bf3b
000000c0: 09e5 0e3d f454 9f3d e194 00bb f9fc e33c
000000d0: da00 453d abf4 c5bc ef50 3d3d c7a9 2d3d
000000e0: 7fae 823d 3493 873d 5df4 723d 5fa5 703d
000000f0: 4583 973d 2a2b 8d3d 78e7 963d cac8 673a
00000100: 7aa8 b53c 7202 9dbb 7952 b33c 56c5 873c
00000110: 13a4 a2bc 4fbe cc3c 3e0e 2fbc 7cb7 4f3c
00000120: 6353 013d 603e 973d 03d4 da3d bbcd e73d
00000130: 5fda dc3d b910 d23d 92bf 6b3d 4250 3e3d
00000140: ce2d 293d c40b bf3c 4d26 8d3d b2de c73c
00000150: be5b 0a3d 713b b03d b01e 203b 567c 04bc
00000160: 869d 36bc 09de 03bb a47b 9fbc cd98 0e3c
00000170: ea48 d43b e474 a13c 12f3 1e3c 98a4 bcba
00000180: c732 d43c 98c4 103d bcfb af3c 995c 933c
00000190: 83e5 523c 333a 02bb d960 a8bb 3f16 d4bb
000001a0: ccb3 15bb 8e59 0e3c de8b 433b 15bf f73b
000001b0: 83de 8fbc 43b1 8dbb 1112 b63c 0abe 1cbc
000001c0: c8cd 583d de76 343d c592 d2bb 3006 793c
000001d0: 9213 513d f68d 0b3d 4cfd 8fbc d908 fe3a
000001e0: 58b3 a13c 8e81 aa3c 336b fd3c ba24 113d
000001f0: 3b2e 9a3c 91c5 283d 920b 883d 64fb 9e3d
00000200: 024a 8b3d 6a9a 193d f461 fb3c 2de3 8a3d
00000210: cbb2 a13d 598d c03d 72fc 4d3d 523b 5c3d
00000220: 44a5 4f3d 10e2 bf3a 21a6 a53d 47d6 9b3d
00000230: 4a4e e2bb 15a1 943d 35c9 673d 8ee0 5cbc
00000240: e9a3 713d 7f21 693c 0ff1 9d3d a6ec d6bb
00000250: 0a40 4d3d 82d2 783d 8ca7 223d 5aa8 bd3d
00000260: 49b0 6d3d 35a6 533d c4d0 353d 9e13 303d
00000270: 3ea9 af3c 92b3 2e3d 101a 953c 0188 ab3c
00000280: 1b20 f43c a071 b93c 05c0 e63d 5d8e 193d
00000290: 5e00 ed3c 84b5 b63d 549c 823d 5935 cd3d
000002a0: 0930 853d e317 4a3d ead6 633d 0e3b c63c
000002b0: 9fb3 14bc ab69 da3c d69d a8bb 1a3d bd3b
000002c0: 363f 043d 941b 0e3d 2ff5 fd3c 46e1 4a3d
000002d0: c6d9 333d d99a a83d 52cf cb3d 5bbd cf3d
000002e0: 10d4 4a3d 82aa a43d 1a04 fc3d 1520 953d
000002f0: 9f4e 943d 376d 533d 1c36 0f3d c18a 0c3d
00000300: e84b f03c 2d85 2bb9 ffbe 133c 8ca4 383c
00000310: 2844 dc3c 4d80 2e3d 150f c23a 938c bc3c
00000320: 74a9 2fbc e9a1 93ba 7b1c 143b 5707 85ba
00000330: b48b 3a3b e2b9 313d da26 183c 7564 1dbc
00000340: 056a 7d3c 1c32 173c ffd3 273d 7329 ce3b
00000350: 8b4f 7fbc 679c 053d d925 85bb 76d2 69bc
00000360: 34e4 453b 8725 963c a3a0 1e3b 7b32 93bc
00000370: b0fe 27bb 035c 623c 3f8a a03c f0ae 0a3c
00000380: 4766 083d e811 a2bc 4b93 863a 3e41 ae3b
00000390: 2858 a33c f88f 1b3d c158 033d 3c5c 51bb
000003a0: da46 fabb a766 cd3a fc87 803d 3d95 b13d
000003b0: d928 793d d206 3a3d 05cd 953d c1a7 ea3c
000003c0: 685e 8c3b 8bb1 803d 7852 0a3d fa18 263c
000003d0: ddf4 153d 4a5a 223d 7d6f 343d 59d6 1a3d
000003e0: 2654 2f3d 9d25 433d 70a1 32ba 6199 b83a
000003f0: 9695 223d a26a 613d cf98 cf3c bbdc d03c
0.016111158 0.051482264 0.0059307865 0.07509355 0.067181505 0.037259646 0.082681924 0.062427536
0.025243707 0.03881065 0.02964104 0.09112 0.06756489 0.08071366 0.10156146 0.07539169
0.09306403 0.09736981 0.030814111 0.03649475 0.08167576 0.027678212 0.033055823 0.07516786
0.041971516 0.09441206 0.09937626 0.014992232 -0.01440818 0.0004389381 0.03789478 0.005343858
-0.026929185 0.034974106 0.06999908 0.021608965 0.060451344 0.0556318 0.06194024 0.027684292
0.0742082 0.101489335 -0.03328174 0.06450889 0.05415898 0.021979885 0.047291294 0.0058445334
0.034886394 0.077798754 -0.0019619989 0.027830588 0.048096515 -0.024164518 0.046219762 0.04239824
0.06380939 0.06619874 0.059315074 0.05875146 0.073980846 0.068929985 0.07368368 0.00088418706
0.022175062 -0.0047915513 0.021889912 0.01657359 -0.019853627 0.02499309 -0.010684548 0.012678023
0.031573664 0.07384944 0.10684969 0.11318537 0.107838385 0.10257096 0.057555743 0.04646326
0.04130345 0.02332104 0.06892071 0.024398182 0.0337789 0.086050875 0.0024432354 -0.008086285
-0.011145955 -0.0020121357 -0.019468136 0.008703423 0.0064784186 0.019709058 0.009701507 -0.0014392314
0.025903119 0.035343736 0.021482341 0.01798849 0.012872103 -0.0019871115 -0.0051384983 -0.0064723785
-0.0022842763 0.008688344 0.0029838006 0.0075606206 -0.017562157 -0.0043241098 0.022225412 -0.009566793
0.052930623 0.044058673 -0.0064261877 0.015199229 0.051044054 0.03407093 -0.017576836 0.0019381299
0.019738838 0.02081373 0.030934906 0.035435416 0.018820873 0.04120404 0.06642832 0.07762793
0.06801225 0.037500776 0.030686356 0.067816116 0.0789543 0.0940196 0.05028958 0.05376751
0.05069472 0.0014639515 0.08088327 0.076092295 -0.0069063054 0.072572865 0.05658837 -0.013481272
0.058994208 0.0142291775 0.07711994 -0.0065589724 0.0501099 0.06074763 0.039710566 0.09260626
0.058029447 0.05167218 0.044388548 0.04298746 0.021443006 0.04265172 0.018200904 0.020938875
0.029800465 0.022637188 0.112670936 0.037489284 0.02893084 0.0892134 0.063774735 0.10019941
0.065033026 0.049339186 0.05562488 0.024198081 -0.009076028 0.026661715 -0.0051457686 0.005775106
0.032286845 0.03469427 0.031000702 0.049531244 0.043908857 0.0823266 0.099516526 0.101435386
0.049518645 0.08040334 0.1230547 0.0728151 0.07241558 0.051617827 0.034963712 0.034312014
0.02933307 -0.00016357443 0.009017705 0.0112697 0.026887968 0.042602826 0.001480552 0.02301625
-0.010721553 -0.0011263463 0.0022599983 -0.0010149282 0.0028464617 0.043390162 0.009286607 -0.00960647
0.015467172 0.009228256 0.04097366 0.006291562 -0.015582929 0.03261986 -0.0040633497 -0.014271369
0.0030195834 0.018328441 0.0024204634 -0.017968407 -0.0025633983 0.013815883 0.01959717 0.00846456
0.033300664 -0.019783929 0.0010267285 0.005317836 0.019939497 0.037979096 0.032067064 -0.0031945845
-0.0076378407 0.0015670852 0.06275937 0.08671043 0.06082997 0.04541666 0.07314495 0.028644444
0.004283715 0.06283864 0.033770055 0.010137791 0.036610473 0.039636888 0.044051636 0.037802074
0.04280486 0.047643293 -0.0006814217 0.0014083796 0.039693438 0.055033334 0.02534142 0.025495877

model.2.main.0.weight f4 [32, 32, 3, 3]
00000000: b96b 293e 5288 673d 0155 c03d 3fa9 5dbd
00000010: 63a8 30bd 166f 763d 79dd 6d3b 3643 ddbd
00000020: 911e d63d 0271 e63b 47ab ac3d bd2e d43d
00000030: 4f60 713d 4edd 0f3e 351a 66bc d46d 4a3e
00000040: 5817 c0bc a76a 083d 2ff1 383e b86e dd3c
00000050: d0b1 a3bb 20bf 30bd e004 a33d 890f 77bb
00000060: 70e7 d0bd f687 25be 2e6e 6c3d fa7a adbd
00000070: 7104 4dbe b312 3abc 417f 083e 57a8 7e3d
00000080: fbb2 733c 0783 ae3d 9096 84bc 5383 f2bd
00000090: 359c cabd 7f45 9abc ddf0 e63d 88b2 88bd
000000a0: 7aa2 813a 6ab9 c03c 7a1d 2abe fa2e 183e
000000b0: 0bd9 cbbc 5202 553d 678f e2bd e726 f3bc
000000c0: 63ff 0c3d 7230 43bd aec6 2f3e 6661 48be
000000d0: 67e2 793c fb55 25bd 0268 f43c 84bb 02be
000000e0: 47b6 d0bd a05e efbc 9b07 01be 96e9 ebbd
000000f0: afe3 e9bb edbe 2fbb bbfe b73b faa0 ee3c
00000100: 5812 42be 5fd6 2abd 9973 763d 6c55 0bbe
00000110: e754 73bd 9041 dcbc 6e49 1d3d c3c1 0c3c
00000120: f287 7abc 57e2 1d3d 17d7 e43d c064 2d3d
00000130: 536f d03d e466 4abd c28c a5bc 9678 31bd
00000140: 8113 043e 2f32 d6bd 8e1e 08bc 2087 7bbd
00000150: 163d 093b 7885 5bbd a1f5 c23d a009 913c
00000160: ef33 4d3d 7fba 82bd 95dc c83c 2a25 cc3b
00000170: ea28 c6bd a2d0 8bbd b213 e4bd baf5 2b3e
00000180: 59e8 c63c c9a0 00be 187b abbd e7f2 74bd
00000190: 025c 97bd 2d9a 5c3d 8e68 bbbd 4ffb d53d
000001a0: db44 323d aa90 993e 77bc 383d 4885 d53d
000001b0: 5c43 dbbc 52af a6bb d66e 9bbc 388e 8cbd
000001c0: 5445 bc3c 0817 57bd fd0c 4bbe 6b87 963d
000001d0: f0df fbbc b36c b4bc a9ac 443d d831 c4bc
000001e0: c55e 0b3e 51f4 163e 8bb9 d53b 9c70 323e
000001f0: 384d 05be f3e9 f6bc e886 0f3c fc54 acbc
00000200: b74a 803d ddc7 8b3d 9a98 873d d2cb 03bc
00000210: f3d3 913c 90bb 693d ed9e 953d 2d35 683e
00000220: 7265 273e 340e 87bd 1581 f2bd 74c8 843d
00000230: d6f7 d93c cece 423d 8d57 583c 4f0c 993c
00000240: 39f5 823c 7444 87bd a9b9 2cbc 501b e83a
00000250: 96ad 13bc 7d97 3a3c f8fc 843d 8a8d 2fbe
00000260: 382f 143d 3386 843d 9bee 86bd 962b 8d3d
00000270: fdba 073d b6b7 ee3a b3fd 9b3c 6739 14be
00000280: 4cc6 bcbd d7f9 44bd 7388 cab8 a166 97bc
00000290: df9b c13c 9f13 2c3d ba18 a23d 1000 f53b
000002a0: dc61 18be 0232 29bd 5850 2f3c 5d4f cdbc
000002b0: bc73 9ebc 7122 0bbd 78c4 a33d 27e6 adbd
000002c0: a06a f3ba 09d7 1a3d 0a80 023e e033 a13d
000002d0: cc5d 173e 76d4 41bd 000f 20ba 18ec b43d
000002e0: 7d56 96bc 349b 1ebd d735 06bd 86b3 bb3d
000002f0: 911f f23d ca16 c2bd 094a 233c c494 f53c
00000300: 63ff 943d 2459 10bd 0bba 97bc 8199 173d
00000310: 46ee 85bd db5b 0d3e c254 d13d 265c 5bbd
00000320: 4284 4ebd 38c7 bebc f5ce 08bd 3e95 aabd
00000330: 48c0 c63c df45 bdbd fec1 63bd 75a8 0a3e
00000340: 0c54 4bbc 0525 31bd f8cc a8bc 734d 08bd
00000350: d476 3abd c207 bdbc 20a8 ae3c 9c43 74bd
00000360: 7057 07be eebc e53d bb2d 14be d2b3 07be
00000370: 84cb 2e3d 0df9 333e bdbe 1c3b e3f6 d6bc
00000380: 022c 2fbc 6539 b9bd 2b08 f13c ecbb f8bc
00000390: 65af eebd d082 11bd faff 1d3d 0504 a63d
000003a0: 7656 b5bd 36ea 5a3a bae7 2cbe 8054 6b3d
000003b0: cbca c4bc e235 753b 1362 843d 9c9c b13c
000003c0: 313b 90bd 01bd babc 5018 9fbd 90de 263c
000003d0: 4d5e f23d 5dd3 413d 31bc bdbc edef fa3a
000003e0: 89d5 d33c 0d2d 113c 2f14 8abc 5eaf 85bc
000003f0: 229c 3c3d 0ebd 4a3c fcac 3ebe b44c 85bd
0.16544999 0.05652649 0.09391213 -0.054116484 -0.043129336 0.060164534 0.0036295338 -0.10803835
0.10455049 0.0070325145 0.08431106 0.10360477 0.058929738 0.14049265 -0.014044334 0.19768459
-0.023448631 0.033304837 0.18060754 0.027030334 -0.004995562 -0.04315102 0.07959914 -0.0037698469
-0.10200393 -0.16165146 0.057722263 -0.084707215 -0.20021226 -0.011356997 0.13329794 0.06217226
0.014874215 0.08521085 -0.016185075 -0.11841454 -0.098930754 -0.018831966 0.1127641 -0.06674677
0.0009890341 0.023525912 -0.16612807 0.1486167 -0.024883768 0.052004166 -0.11062508 -0.029681636
0.034423243 -0.047653623 0.17165634 -0.19568405 0.015251732 -0.0403652 0.029834751 -0.12766844
-0.10191017 -0.029219925 -0.12600558 -0.11519162 -0.0071377377 -0.0026816681 0.005615083 0.029129494
-0.1895231 -0.041708346 0.060168836 -0.13606805 -0.05940714 -0.026886731 0.038400106 0.008591118
-0.015291201 0.038545933 0.11173838 0.04233241 0.101774834 -0.04941453 -0.02020872 -0.04332789
0.12898065 -0.104587905 -0.008308066 -0.061408162 0.002094095 -0.053594083 0.09519506 0.017704785
0.050098356 -0.063832276 0.024519244 0.0062300162 -0.096757725 -0.06826903 -0.11136569 0.16792956
0.024280714 -0.12561335 -0.08373088 -0.059801962 -0.07390596 0.05385797 -0.091508016 0.10448324
0.043522697 0.29993182 0.04510161 0.10425812 -0.026765518 -0.005086818 -0.01897375 -0.068630636
0.022982277 -0.0525122 -0.19829173 0.07350048 -0.03074643 -0.022024488 0.048016224 -0.023949549
0.1361037 0.14741637 0.0065223626 0.1742577 -0.13017738 -0.030140853 0.0087601915 -0.021036617
0.06264251 0.0682523 0.06620903 -0.0080442 0.01780126 0.05706364 0.07305703 0.22676535
0.16347292 -0.06594506 -0.11841027 0.06483546 0.026607435 0.047560506 0.0132044675 0.018682627
0.015986072 -0.06604853 -0.010542312 0.0017708335 -0.009013554 0.011388657 0.064935625 -0.17143837
0.036177844 0.06470909 -0.06588479 0.06893079 0.03313731 0.0018212709 0.019041872 -0.14475022
-0.092175096 -0.04808983 -9.657526e-05 -0.018481554 0.023633895 0.0420109 0.079148725 0.007476814
-0.1488108 -0.041307457 0.010700308 -0.025062257 -0.019342296 -0.033968393 0.07996458 -0.08491164
-0.0018571205 0.03780273 0.12744156 0.078712225 0.14781874 -0.04732176 -0.0006105751 0.08834094
-0.018351788 -0.038722232 -0.03276619 0.09165101 0.11822427 -0.09477003 0.009966382 0.029978164
0.07275274 -0.03524126 -0.01852133 0.037011627 -0.06539588 0.13804571 0.102212444 -0.053554676
-0.0504191 -0.023288354 -0.033400495 -0.08329247 0.024261609 -0.092418425 -0.055604927 0.13540824
-0.012410175 -0.043248195 -0.02060555 -0.033276986 -0.04552348 -0.023074988 0.021320403 -0.05963479
-0.13216949 0.11217676 -0.1447057 -0.1325219 0.042674556 0.17575474 0.00239174 -0.026240772
-0.010691645 -0.0904415 0.02942284 -0.030363046 -0.116545476 -0.035525143 0.038574196 0.081062354
-0.08854382 0.000835094 -0.16885272 0.057453632 -0.02402248 0.003741615 0.06464019 0.021681122
-0.0704254 -0.022795202 -0.07768309 0.010184899 0.11834393 0.047320712 -0.023161026 0.001914499
0.025858657 0.008860839 -0.016855327 -0.016318973 0.046047337 0.012374176 -0.18620676 -0.065087706

model.2.main.1.weight f4 [32]
00000000: 123e 7e3f 1d32 843f 4775 803f ccbe 7e3f
00000010: e8ee 7c3f e599 7d3f 9983 883f 90dd 813f
00000020: a8b0 853f a2b4 803f e486 7f3f 10c9 7b3f
00000030: fe9b 813f 0cf2 823f 58de 843f 1fc5 7e3f
00000040: 8d8f 833f 38d0 793f 9502 803f 3dd7 7e3f
00000050: 4893 823f 6796 7e3f d32b 813f cf28 7a3f
00000060: 67af 7b3f 16a6 783f 9a7b 7d3f a26e 823f
00000070: 0d86 7f3f 3a2c 7c3f 02f9 7e3f 78b1 7d3f
0.9931346 1.0327793 1.003579 0.9950988 0.9880204 0.9906295 1.066516 1.014574
1.0444536 1.0055125 0.998152 0.9835367 1.012573 1.0230117 1.0380354 0.9951953
1.0278183 0.9758334 1.0000788 0.9954718 1.0201197 0.99448246 1.0091499 0.9771852
0.9831452 0.9712843 0.99016726 1.0190012 0.9981392 0.98504984 0.99598706 0.9909892

model.2.main.1.bias f4 [32]
00000000: 1d33 02bb 0c26 68bb 91d3 bc3b cb03 4bba
00000010: 6e14 42bb dc20 afbb 7c03 a23a e20a 9fba
00000020: 168b 70bb 3ec1 9dbc 5109 513c 62c8 93bc
00000030: 2f8c b3bb b44a dcbc 3fab 11bb 1bae 37bc
00000040: c42e 94bb d9e0 9dbb 7aa2 e3bb 0ec1 8abb
00000050: d254 a0bc b15a 57bc d254 c9ba 4b1d 54bc
00000060: 6df5 83bc d074 b0bc dd64 01bd d501 893b
00000070: 9ed5 b73b f392 4cbc f3cb 1b3d d5b8 dcbb
-0.0019866892 -0.0035423068 0.0057625254 -0.00077444006 -0.0029614228 -0.0053444933 0.0012360658 -0.0012133981
-0.0036703995 -0.019257184 0.012758569 -0.018039886 -0.0054793577 -0.02689109 -0.0022227315 -0.011210944
-0.0045221765 -0.0048180637 -0.006946859 -0.0042344397 -0.019571695 -0.013144181 -0.0015360361 -0.012946437
-0.01610824 -0.021540076 -0.03159033 0.0041811266 0.005610182 -0.012486207 0.038036298 -0.006735901

model.2.main.1.gate f4 [32]
00000000: d91a 803f b9f1 8c3f a932 8a3f 8380 813f
00000010: 1a84 7a3f f2cd 743f d4bc 7b3f 1fc7 7a3f
00000020: b5b1 8c3f 5cde 833f 7062 783f bdee 803f
00000030: 2ba4 8d3f 559a 7c3f be09 963f 26a1 833f
00000040: 800c 8d3f 4823 773f da79 843f e16d 873f
00000050: 966c 863f ed78 833f c425 823f cfd8 5e3f
00000060: d9a8 5e3f 0cd2 823f 9b72 8c3f 29ab 8a3f
00000070: 9af0 803f 9960 7c3f cf00 863f f541 883f
1.0008193 1.1011268 1.079671 1.0117344 0.9785782 0.9562675 0.98335004 0.97960085
1.0991732 1.0302234 0.97025204 1.0072857 1.1065725 0.9867299 1.1721723 1.0283554
1.101944 0.9653821 1.0349686 1.0580407 1.0501888 1.0271279 1.0167775 0.87049574
0.8697639 1.0220351 1.0972475 1.0833484 1.0073426 0.98584896 1.0468997 1.0645128

model.2.main.1.running_mean f4 [32]
00000000: 2e64 6140 2bd3 01c0 03a2 b93f 7ae9 b93e
00000010: ef4c aabf a36d 7cbf 0272 85bf 94b6 75bf
00000020: 89f4 723e fbe0 f83e b97b 92bf 5524 a040
00000030: d8eb 27c0 9001 f33d 6860 0740 8f1d 01be
00000040: 55fc 4d40 03cc b43e 2b4f 66bf 2b82 7c40
00000050: afd6 d53f 3e90 7ac0 3907 7cbd 36a8 96bf
00000060: 6b2a 91bf 6e90 143f a913 0cc0 59f5 67c0
00000070: 9350 4a40 863e ba40 e26f e23f 2ff5 0940
3.5217395 -2.0285137 1.4502567 0.3631094 -1.3304728 -0.9860479 -1.0425417 -0.9598172
0.23726095 0.48609146 -1.1444007 5.004435 -2.6237698 0.118655324 2.1152592 -0.12608932
3.2185261 0.353119 -0.8996455 3.9454448 1.6706141 -3.9150538 -0.061530326 -1.1770084
-1.134107 0.5803288 -2.1887 -3.6243498 3.1611679 5.8201323 1.7690394 2.1555898

model.2.main.1.running_var f4 [32]
00000000: a79d 1240 ac58 fb3f 6e47 d93f dc8b ff3f
00000010: d090 1540 3180 3840 bfa0 653f b77f 3d3f
00000020: a2aa ea3f bbe4 0340 28f5 c53f 40c0 3240
00000030: c1a6 b33f cb24 af3f ec4b 3040 8e41 0540
00000040: 2938 a83f a2c5 193f 1211 ba3f 3e26 c43f
00000050: 9e5a 2740 cf17 963f 2934 cb3f 42b4 3f40
00000060: 6e67 1240 a724 f63f 517e ef3f 072a c93f
00000070: 78c8 dc3f 44d0 8940 4005 0040 bb18 6940
2.2908723 1.9636436 1.6974924 1.9964557 2.3369637 2.8828242 0.89698404 0.74023
1.8333323 2.0608356 1.5465441 2.792984 1.4035264 1.3683103 2.754634 2.0821261
1.3142139 0.6006719 1.453646 1.532417 2.6149058 1.1726016 1.5875293 2.995377
2.2875628 1.9229935 1.8710424 1.5715951 1.7248678 4.306673 2.0003204 3.6421344

model.2.main.3.weight f4 [32, 32, 3, 3]
00000000: 9199 0dbd 77f1 2bbd 6cee bc3c 30d0 403c
00000010: e2da a5bd a280 c2bc ac97 053c c135 f83d
00000020: 57bc 313d fbad 0dbd e2c3 1dbd ebd3 7bbc
00000030: 0f6b 2d3d f152 8b3d 8703 10be c662 26bd
00000040: 5add 2a3d 667f b6bc 0491 423d 01dd 71bd
00000050: c542 c1bd 8e5e 21be 7029 da3d d221 02be
00000060: 720e f73d c56b a53d 54aa f1bd cb42 543e
00000070: ed1b 4d3d c283 abbc a13a 053e 8ab9 bdbd
00000080: c820 3dbd 55eb 7f3c 384c 85bd c5de 813d
00000090: f24c c43c 871e 7c3d aef4 8b3d 9d5c c23d
000000a0: 0800 b33d 7aad db3d 1af1 eabd 05cb 053d
000000b0: f910 653c 7ece aebc 378e 1f3d 1fcb 923d
000000c0: aef0 9e3d 2cb6 a8bd aff2 87bd bd96 353d
000000d0: 99bd d23d f61b 003e 8a79 393d e2f9 7bbc
000000e0: 92dd 943d 9b7d a33d 33fc 623d 0cc8 76bd
000000f0: 4e97 213d 523f 8dbd 127d 06bd ed08 093e
00000100: 6b42 8ebc 7712 b23c 3715 eebc 0183 febd
00000110: d522 253d ff0f 73bc 0c05 26bd 2d55 ec3c
00000120: 8280 7cbd 30c9 fbba 828e 95bc 3177 513d
00000130: d13d 00be 87d0 d13d e6e5 d43d 03ff 623d
00000140: d285 6bbd e5b9 b13d 9fe2 953d 45cd 303e
00000150: 5002 7c3d 7ba4 fabb 2a6d 0fbd 87ab 873d
00000160: 304d adbc 1c26 9dbd ccc2 61bc d4f2 343c
00000170: b321 d4bd 7f50 04be 7ab3 b3bd 153f 123d
00000180: 1863 8abd 462a 5dbe 242c d83c 3340 e2bd
00000190: ecc6 ea3d fe79 27bd f336 633d 1cbe 9ebd
000001a0: a84c 113e 240c e63d 5da1 d33b 5c1a 483d
000001b0: 24df 443d 2c2d d43b 828e af3d ec92 fcbc
000001c0: a956 0e3e 5ea4 063e 29ca b2bd a38a 813d
000001d0: 742b db3d 2744 aebd 4792 d2bd c39e 773d
000001e0: bcd3 de3d 1ab9 0c3d 34cc 23bc 1716 a73c
000001f0: c382 53bc 6c75 8f3a cf24 023c 1f4c 06bd
00000200: 2ea9 33bd 8d92 e4bd 4daf d73d 005f 7a3d
00000210: 36cd 0b3d 3e84 02be 07b7 d03c 14c6 043e
00000220: 2bb6 17be 6ed0 803d 2822 053e 5a5d c8bc
00000230: c74d 2abd 61c8 c03b 62f2 50bd c0b4 133c
00000240: 1b63 78bd 6784 adb9 8997 cc3d 129c 32bc
00000250: 976e 763d 7077 0fbe 25c2 97bd f8ba 3fbe
00000260: f0ca aabd b221 64bd 9488 03be 3372 a0bc
00000270: ea53 f5bd 3c19 47bc b79b 51bc 2c83 39bd
00000280: 7918 903d 0db5 a33d 2524 97bd 2db1 493c
00000290: 9785 253e d613 8a3d 72ff 313e 1deb 95bd
000002a0: 4d3d 8abc e36e 4e3e 0949 47bc dc75 183d
000002b0: 98e8 7cbd 2807 babd d351 18be 9fed 223e
000002c0: eb51 cbbc f3f1 063d 0fc5 2ebe 72f0 9d3d
000002d0: 6623 193d d944 323e dd7a c33d bfc9 563d
000002e0: 7bdb 8bbc 2669 1bbd 627a b7bd 0412 16bd
000002f0: 89d8 2b3e 12c0 e83c 64b3 e9bc b5b4 ac3d
00000300: d43d 8e3d 46be f03b 11b0 25be 25b6 2c3d
00000310: 891e 8b3b 0161 5e3d 7200 9f3b 090b ffbd
00000320: 0a29 5fbe c980 f4bc d2ec 2c3d fa49 04bc
00000330: 0254 8b3c 53db 943d 2c83 8f3d 096e 92bc
00000340: 1836 7dbc 3b14 10be 0290 6c3b 21e3 663d
00000350: d0de 45bd c449 3abe 7b6d 2f3c ad33 593c
00000360: 6781 5fbe 2462 1bbe 28e3 52bc 10ca 563c
00000370: 3089 21bd 57b8 693d 5384 fcbc 521f e53c
00000380: b4de 8bbd dc2e 6b3d 33bd a5bd 94fc d9bb
00000390: 72aa 013d e437 1fbe f442 c53d 49dc b13d
000003a0: d535 2cbe c83b 53bd 4e00 98bd ac3d 203d
000003b0: f0c0 703c 088d 8dbc 5978 c23d e6f7 033e
000003c0: 8d93 5e3d 3c3e cebd 9606 0c3c c76f c7bd
000003d0: bd73 573e 41b1 8d3d 9f94 9e3d 4956 963d
000003e0: 731f 253e 90c9 8ebd 201d 9bbd 44b3 d23d
000003f0: 2ad6 0d3d f10c 513d 9d12 963c e855 fc3d
-0.03457028 -0.041978326 0.023062907 0.011768386 -0.08098389 -0.023742978 0.008153837 0.12119628
0.043392505 -0.03458975 -0.038516887 -0.015370349 0.042338427 0.06802929 -0.14063846 -0.04062154
0.041715004 -0.022277545 0.04750158 -0.059048656 -0.094365634 -0.15758726 0.10652435 -0.12708214
0.12063302 0.08077196 -0.11800066 0.20728604 0.05007546 -0.02093685 0.13010646 -0.092639044
-0.04617384 0.015620072 -0.06508678 0.06341318 0.023962472 0.06155255 0.06833778 0.09490321
0.0874024 0.107264474 -0.11471768 0.032664318 0.013981097 -0.021338698 0.038953986 0.071676485
0.0776075 -0.082378715 -0.06638085 0.04433321 0.10290069 0.12510666 0.045281924 -0.015379401
0.07268824 0.07982942 0.055416297 -0.060249373 0.039450936 -0.06896843 -0.03283412 0.13382311
-0.017365655 0.02173732 -0.02906285 -0.12427331 0.04031642 -0.014835357 -0.040532157 0.028849209
-0.061645992 -0.0019209739 -0.01825643 0.05113906 -0.12523581 0.102448516 0.10395412 0.05541898
-0.057500668 0.08678035 0.07318615 0.17265804 0.061525643 -0.007649002 -0.035016216 0.06624513
-0.02115497 -0.076732844 -0.013779353 0.011044223 -0.1035799 -0.12921332 -0.08774467 0.03570469
-0.06757182 -0.21598157 0.026388235 -0.11047401 0.114637226 -0.040887825 0.055472326 -0.07751104
0.14189398 0.112327844 0.006458445 0.048853263 0.048064366 0.0064751115 0.08572103 -0.030831777
0.13900246 0.13148639 -0.08729965 0.06325271 0.107016474 -0.08509093 -0.102818064 0.06045414
0.10880229 0.034356214 -0.009997416 0.020396275 -0.012909594 0.0010945029 0.007943346 -0.03278744
-0.043862514 -0.11160765 0.10531483 0.061125755 0.03413125 -0.12745759 0.0254779 0.12966186
-0.14815585 0.06289755 0.13001311 -0.024458576 -0.04157808 0.005883262 -0.051012404 0.009015262
-0.06064139 -0.0003309578 0.099898405 -0.010901468 0.06016406 -0.14010406 -0.07410077 -0.18723667
-0.083394885 -0.055696197 -0.12845069 -0.019585704 -0.11978896 -0.012152012 -0.012793473 -0.04529111
0.07035918 0.07993517 -0.07379941 0.012310308 0.16164242 0.06742065 0.17382601 -0.07320235
-0.016874934 0.20159487 -0.012163409 0.037221774 -0.061745256 -0.09083396 -0.14874963 0.15910958
-0.024819335 0.032945585 -0.1706736 0.07711877 0.037387274 0.17409076 0.09544919 0.052438494
-0.01707243 -0.037942074 -0.089588895 -0.036638275 0.1678182 0.028411899 -0.028527923 0.08432905
0.069453865 0.007346901 -0.16180445 0.042165894 0.0042455834 0.05429173 0.004852348 -0.12453277
-0.21792999 -0.029846566 0.042218037 -0.008074278 0.017007831 0.07268395 0.07007441 -0.017874734
-0.0154547915 -0.14070217 0.0036096578 0.05636895 -0.048308194 -0.18192202 0.0107072545 0.013256949
-0.21826707 -0.15174156 -0.012871541 0.013109699 -0.039437473 0.057060566 -0.030824816 0.027969036
-0.068295866 0.057417735 -0.080927275 -0.006652424 0.03165669 -0.15548664 0.09631911 0.08684594
-0.1681741 -0.051570684 -0.07421933 0.039121315 0.014694437 -0.017279163 0.09495611 0.12887534
0.054339934 -0.10070464 0.008546492 -0.09738117 0.21040244 0.06918574 0.07743191 0.07340676
0.16125278 -0.06972039 -0.075739145 0.102880985 0.03462807 0.051037733 0.018319422 0.12321073

model.2.main.4.weight f4 [32]
00000000: 8fcd 813f 22c6 7c3f 5f60 803f 12be 803f
00000010: 1643 773f cb07 7e3f 2ea2 7f3f 6e67 7d3f
00000020: ebf1 6e3f 96fd 7c3f ce1c 763f 3090 7a3f
00000030: 7955 803f 8c49 773f ec64 753f a7cf 7e3f
00000040: 12a0 713f 78ff 823f 0663 7e3f 8594 723f
00000050: 3b0e 813f 1b51 7b3f aa1b 7c3f fd35 7c3f
00000060: ec36 7d3f 00c4 7d3f 17de 803f 3e0b 793f
00000070: 122e 7c3f 299e 7a3f 0bae 723f 645c 793f
1.0140857 0.98739827 1.002941 1.0058005 0.9658674 0.9923064 0.9985684 0.98985946
0.9333789 0.9882444 0.961377 0.9787626 1.0026084 0.965966 0.9585712 0.995356
0.9438487 1.0234213 0.9936985 0.9475787 1.0082468 0.9817063 0.9847971 0.9851988
0.9891193 0.991272 1.0067776 0.9728278 0.985078 0.97897583 0.9479682 0.974066

model.2.main.4.bias f4 [32]
00000000: 55be 5d3d 6a21 f13c ff7a 593c 595f 533d
00000010: 40cd b0ba bbe9 243c 782d 5ebc 4af6 8cbc
00000020: 050d 38bc baba 9a3c de9f 41bc 3f5e 76bc
00000030: f398 aa3c 9842 ebbc e24f 9bbb e63a 95bc
00000040: 10b6 343b af36 443d 3a4e e5bb 3507 8dbb
00000050: c49d ce3d 931d e63b 91d2 23bb 3062 a8bc
00000060: c725 073c ae20 9e3c 36b6 eebc af77 733c
00000070: 734f 283c 6d8d 2e3a f4bc 213d af7d c63c
0.054136593 0.029434878 0.013273953 0.051604602 -0.0013488904 0.010065491 -0.013560645 -0.017207284
-0.011233573 0.018887866 -0.0118179 -0.015037118 0.020824885 -0.028718278 -0.0047397474 -0.018216562
0.0027574338 0.047903713 -0.0069978507 -0.0043038377 0.10088685 0.0070225685 -0.0024997334 -0.020554632
0.008248753 0.019302692 -0.02913962 0.014860078 0.010272848 0.00066586473 0.03948684 0.024229852

model.2.main.4.gate f4 [32]
00000000: b634 5a3f 599f 753f 72e4 7f3f 253a 8a3f
00000010: 8426 823f 8cb5 773f 4a1b 7c3f caca 6d3f
00000020: 9811 853f 2431 783f 0d37 833f d26a 803f
00000030: ae23 893f a941 8c3f f2fb 883f ea3f 803f
00000040: cd1d 7c3f c6f9 6e3f 8c29 843f b20b 813f
00000050: 6914 853f 5dac 7d3f cd16 813f 2c51 873f
00000060: e24f 703f 7568 7e3f f3a0 793f ed65 803f
00000070: 2e49 8b3f 6836 743f abb7 853f 8109 893f
0.8523668 0.9594627 0.99957955 1.0798994 1.0168004 0.96761394 0.9847914 0.92887557
1.0395994 0.9694998 1.0251175 1.0032599 1.0714014 1.0957538 1.0701888 1.0019505
0.9848297 0.93349874 1.0325179 1.0081694 1.0396854 0.9909113 1.0085083 1.0571647
0.9387189 0.9937814 0.97511214 1.0031105 1.0881708 0.9539552 1.0446676 1.0706025

model.2.main.4.running_mean f4 [32]
00000000: 3d5f b4bc 1134 c43e 9e68 4a3e 5cc5 5f3f
00000010: 9f78 033e d07c 80bf 3015 723f a133 263f
00000020: f063 f0be 9e28 88bf 910a 2abf 12f8 58be
00000030: ebfe 3c3f 908f 573d ae99 133f 0f10 fb3e
00000040: d303 bdbe a095 3ebf d4a5 06bf 9ff4 003f
00000050: 2432 dabb 27ae 09bf e287 353c 1da8 38bd
00000060: 3239 acbe 9339 ec3d 09a2 093f fc1c cc3e
00000070: 41c5 27bf abf2 4bbf 47e0 b8bf c64f 84be
-0.02201807 0.38320974 0.19766471 0.8741052 0.12838982 -1.003809 0.9456358 0.6492253
-0.46951246 -1.0637395 -0.66422373 -0.21188381 0.73826474 0.052627146 0.5765637 0.4903569
-0.3691698 -0.7444706 -0.52596784 0.5037326 -0.0066588093 -0.5378136 0.01107976 -0.0450822
-0.33637387 0.11534419 0.5376287 0.39865863 -0.6553536 -0.79667157 -1.4443444 -0.25842112

model.2.main.4.running_var f4 [32]
00000000: ff03 5c3f cf5f 5b3f beb4 383f 9161 4140
00000010: 3a3c d73f c16f 893f 24da e23e 2763 a83f
00000020: 6089 213f 954b 593f 230a fd3f 24f8 1140
00000030: 52ff 933f bfc1 023f cf18 943f f7ae 553f
00000040: a58f 863f 7d11 173f 9154 0540 7337 ba3f
00000050: 3acf b13f 49fc c53f d181 8f3f 56c6 313f
00000060: d120 9d3f 7251 933f e822 fc3f 10e6 793f
00000070: ff29 4e40 9285 2b3f 4f45 1f40 30c6 163f
0.859436 0.8569307 0.7215079 3.02158 1.6815255 1.073723 0.44307053 1.3155259
0.6310024 0.84880954 1.9768718 2.2807703 1.1562293 0.51076883 1.1570071 0.834701
1.0512587 0.5901106 2.0832865 1.4548172 1.3891366 1.5467616 1.1211492 0.6944326
1.227564 1.150923 1.9698153 0.9761667 3.2213132 0.6700069 2.4886053 0.5889616

model.3.main.0.weight f4 [32, 32, 3, 3]
00000000: 7fee 3ebd 30a2 8cbd 388a 213e 207a c73d
00000010: b4f9 863d 7e6d e03c 7312 903d a1ab 85bd
00000020: 36cf f53c ba5f 833c c930 103d a1c1 a4bd
00000030: 6cb9 b8bd 4b5c 8b3d 3255 cc3c 024b 54be
00000040: 68c7 7d3d dc15 6dbd 46f5 d73d 834f d3bc
00000050: af7a acbc 1752 1c3e e52d cfbb dc79 2a3d
00000060: 3887 cbbd b3dc 7f3d 779e f73d 0cde 1c3e
00000070: ca3c dbbd d30e e0bb 79f7 eb3b 91ae c03d
00000080: a8e0 49bd c731 68bd 0c2c 9f3d 9482 0c3e
00000090: 384f 85bd 104a 0c3e e979 8e3d 0705 25bd
000000a0: eac5 cb3c c88b b6bd 3394 55bd 7942 2d3c
000000b0: a44a adbb 8cbd 1dbc 2d8c 883d 5618 2e3c
000000c0: bbea eb3d 4e2a 5bbb 8a72 6f3d baf4 1fbc
000000d0: edfa 4abc 6b8b cebc 78e9 2d3d b89f a73d
000000e0: 4907 37bd 2db5 e03d 00fa a73d 190c a23b
000000f0: c578 a2bd 3585 a4bc 68b9 003e 2caf 4f3e
00000100: 0d2e c7bc 2704 283d b267 983d 8efa 913d
00000110: 8959 e5bd 0d7b ddbd 21a3 923d f73f 15be
00000120: cdf0 653e 01cd fd3c 556c 94bd 9ad7 0dbe
00000130: d9a4 84bd 4d1e dfbd 6446 f5bc 416a e4ba
00000140: 5243 083e c772 a03c f591 eebc ebc4 d6bb
00000150: ed9a c53d 2cb1 0d3e 89d7 eabc 23b1 6cbd
00000160: f10c c03d fe5f 103d bcd8 22bc 818b 683e
00000170: c5f1 0fbc 0ed9 a93d ae9a 27bd 9332 1bbd
00000180: aeb2 b0bd 5db8 193d 4947 abba 3db3 0dbd
00000190: 7e30 29bd 766c 61bd 0f6b 6fbd f684 cf3c
000001a0: c0ec 053d 7c05 8abe 4287 f63b a6de 4e3d
000001b0: 05ac a13c afd5 043d 6894 12bd 1ae7 97bd
000001c0: e196 f23d 566d fbbc d470 acbc 41ef f8bd
000001d0: c82b 683d 76ab acbd f572 51bc f8c3 02be
000001e0: d345 e93d 0520 263c 6d00 f4bd 7606 1c3e
000001f0: 9445 33be 7eb9 ddbd 6590 94bd d7a8 513e
00000200: 3da3 523d cb3f 493d 86df 96bd a9e7 413c
00000210: bdfd 1a3e 4b17 1b3c 170f 67bd 7d56 82bd
00000220: 45aa df3d 8725 433d 9214 0d3d 5d63 6b3c
00000230: e97c 36be 8662 823d 86ab 5cbd 2598 05be
00000240: ca90 6dbd 2d66 f03d d2fc 213e 5d9d 8fbc
00000250: f0b1 8fbd dfb8 2b3c 4a2e 95bb fe02 58bd
00000260: 87ab 09be 90a6 e43c 7d0d 6d3c 2cee bdbc
00000270: ac73 1a3c 704d af3d c012 183e 708d 6d3e
00000280: 5711 ff3c ebbe 593d 5025 b93b bf1b afbd
00000290: 7226 623c 6921 223d c890 94be 782d 02be
000002a0: 8977 be3d cf41 0e3d 8c93 0cbe b19f 633d
000002b0: 14ea 903d 1726 c43c 4aea cb39 c6b1 ab3d
000002c0: 7cc5 d93d d560 a73d 2802 013e 7aec 8c3d
000002d0: 29ab ffbd 1e8d 17bd 8f60 c9bd 99c4 97bd
000002e0: 3909 673d 80ef c2bd 8aa3 14bd 91f5 9438
000002f0: f5e1 d53d 92a3 0b3e a92a 843d b344 48bd
00000300: fb10 e9bc 5b20 373e 7101 eb3c 02c9 40bd
00000310: f398 003e b77b 943d c1b7 473d 4960 dc3c
00000320: 2d53 47bd fdd3 b1bd 34bf 3f3e bac1 d2bd
00000330: b413 afbd 8bcf 88bd 0485 b4bd 0944 24bc
00000340: 3add c1bd 8ae2 d3bc 6ecd adbd 36bd 8a3e
00000350: ff87 42bd b06b 9fbd 456f ddbc 01e2 37be
00000360: edb5 0fbe 7b49 883d 179c f1bc 3f74 843c
00000370: 3aa5 78bd 7890 91bd 59eb e63d 5539 e2bd
00000380: 9889 2cbb 6465 8b3d fa84 90bd c14a c73d
00000390: 0fcf 26be 6955 64bd da77 11bd 7fae 73bd
000003a0: 46ba 11bc 348a 5fbc d318 ac3d 6338 38bd
000003b0: 08a2 5abd 4922 a43c a117 e7bc be6a 3fbd
000003c0: 6beb eabb da53 ad3d 024b 0dbb 1be1 bcbc
000003d0: f8a6 6cbd e15d f0bc d3a4 a03d 9712 4d3c
000003e0: ee13 d4bd adc7 cfbc d4bc 343d 60bd 75bc
000003f0: 8bd8 3e3d b1fe 773d 1d84 4ebc 82d8 0a3d
-0.046614166 -0.06866872 0.15775383 0.0974009 0.06590596 0.02739596 0.07034769 -0.06526876
0.030006032 0.016036857 0.035202775 -0.08044744 -0.090197414 0.06804713 0.024942968 -0.20731738
0.061957747 -0.057882175 0.10544829 -0.02579475 -0.021054594 0.1526569 -0.0063226097 0.04162012
-0.099379 0.062466335 0.12090772 0.15319079 -0.10704954 -0.0068377047 0.007201132 0.09408296
-0.049286515 -0.056688096 0.07772073 0.13721687 -0.065092504 0.13700128 0.06956846 -0.040287998
0.024874646 -0.0891338 -0.052143287 0.01057493 -0.005288439 -0.009627711 0.066673614 0.010625919
0.11519381 -0.0033441964 0.058458842 -0.009762937 -0.012388927 -0.025212964 0.04245898 0.08184761
-0.044684682 0.109720565 0.082019806 0.00494529 -0.07933191 -0.02008305 0.12570727 0.20281667
-0.02431395 0.041019585 0.07441653 0.07127868 -0.11198718 -0.10814486 0.071600206 -0.14575182
0.2245514 0.030981543 -0.07247225 -0.13851777 -0.06476755 -0.10894451 -0.029940791 -0.0017426686
0.1330693 0.01958598 -0.029122332 -0.006554236 0.096486904 0.13837117 -0.028667228 -0.05778612
0.093774684 0.035247795 -0.009939369 0.22709467 -0.00878567 0.08293353 -0.040919 -0.03789003
-0.086278304 0.03752934 -0.0013067509 -0.034594763 -0.04130601 -0.055035077 -0.05845171 0.025331955
0.032696486 -0.2695731 0.007523448 0.050505303 0.019735346 0.032430347 -0.035786062 -0.07417126
0.11845184 -0.030691784 -0.021049894 -0.12155009 0.056682378 -0.08431141 -0.012783756 -0.12770069
0.11390271 0.01013947 -0.11914144 0.1523684 -0.1750701 -0.108263955 -0.072541036 0.20474564
0.051425207 0.049133103 -0.073668525 0.011835017 0.15135856 0.009466003 -0.056410875 -0.063641526
0.10921148 0.04764321 0.034443446 0.014366952 -0.17821087 0.06366448 -0.053874515 -0.1304632
-0.05799941 0.117382385 0.158191 -0.017531091 -0.07016361 0.010481088 -0.004552637 -0.05273723
-0.13444339 0.027911454 0.014468548 -0.023184858 0.009426992 0.08559692 0.14850903 0.23198485
0.031136198 0.05316059 0.0056502 -0.08550214 0.013803111 0.039582644 -0.2901671 -0.12712657
0.09300143 0.03473073 -0.1372816 0.055572215 0.07075897 0.023943944 0.00038893736 0.08383517
0.1063337 0.08172766 0.12598479 0.06881042 -0.12483818 -0.036999814 -0.0983287 -0.07410545
0.05640528 -0.09518337 -0.036288776 7.10293e-05 0.104434885 0.13636616 0.06453449 -0.04889364
-0.02845048 0.17883436 0.02868721 -0.047066696 0.12558345 0.07250159 0.048759226 0.026901381
-0.048663307 -0.08683012 0.18725282 -0.10290857 -0.0854868 -0.06680211 -0.08814433 -0.0100259865
-0.09466024 -0.025864858 -0.08486448 0.2709748 -0.047492977 -0.07784212 -0.027030597 -0.17957307
-0.14034243 0.0665464 -0.029493375 0.016168712 -0.060704447 -0.07107633 0.11275358 -0.110460915
-0.002632713 0.06806448 -0.07056613 0.09731055 -0.16289924 -0.055745516 -0.03551469 -0.059492584
-0.008894509 -0.01364379 0.08403172 -0.04497565 -0.05337718 0.02003588 -0.02820951 -0.046732657
-0.0071691773 0.08463259 -0.00215596 -0.023056557 -0.05777642 -0.02934164 0.07843938 0.012516639
-0.10355364 -0.025363768 0.044125393 -0.014998764 0.04659323 0.060545627 -0.01260474 0.033897884

model.3.main.1.weight f4 [32]
00000000: dd1a 7f3f 9106 803f 57c4 823f 29b7 7f3f
00000010: bbba 713f ae0c 803f 9748 763f f20f 803f
00000020: 65cf 7c3f 1559 823f 8dff 7c3f c3af 7f3f
00000030: 05b9 7d3f f2b8 7d3f 562c 7e3f 2824 813f
00000040: da3b 803f 01a9 813f 60be 833f 6754 803f
00000050: 6105 7f3f f141 7f3f b968 803f 0c5c 7e3f
00000060: 716c 833f b323 813f 2e6e 7e3f af68 803f
00000070: 5596 7c3f 42c7 873f 9492 7f3f 3da5 833f
0.99650365 1.0002004 1.0216168 0.99888855 0.94425553 1.000387 0.96204513 1.0004866
0.9875396 1.0183436 0.9882744 0.99877566 0.9911044 0.9911033 0.992864 1.0089159
1.0018265 1.0129701 1.0292473 1.0025758 0.9961758 0.99709994 1.0031959 0.993592
1.0267469 1.008902 0.9938687 1.0031947 0.9866689 1.0607684 0.99833035 1.0284802

model.3.main.1.bias f4 [32]
00000000: 1f57 45ba f0fe c5bb 2c85 e03c 16ab 183a
00000010: ff35 d43c 4caa 983c 1177 87bc 93c3 303c
00000020: 2531 5dbd f1ee ae3b b955 303d d899 92ba
00000030: bbd8 4abb c735 0f3d 413e 01bc 11c8 633c
00000040: e20d 063a 0074 31bb c602 4a3d 7e25 1b3c
00000050: 9cab 783c c6d6 16bb 6e4a b43b 34b5 dcba
00000060: 33aa bdb6 1332 bbbb 0fbe 78bb 3701 3a3d
00000070: 5361 d93c 60d2 ad3d 1f58 0f3d 7c5a 8abb
-0.00075279357 -0.006042354 0.027407251 0.00058238336 0.025904654 0.018635891 -0.016536267 0.010788816
-0.054001946 0.0053385426 0.0430505 -0.0011184765 -0.0030951935 0.034963395 -0.007888378 0.01390268
0.0005113763 -0.0027077198 0.04931905 0.009469388 0.015177634 -0.0023016199 0.005502037 -0.0016838671
-5.6524527e-06 -0.0057127564 -0.003795508 0.045411315 0.026535666 0.084873915 0.03499615 -0.0042222124

model.3.main.1.gate f4 [32]
00000000: cae1 7d3f 4e38 8c3f df1b 873f 5b12 873f
00000010: 0d5c 6e3f a250 783f 65db 833f 6f1c 843f
00000020: 9459 7e3f 2ac2 7b3f 40cb 4d3f fbb8 7a3f
00000030: 3f8b 803f 9895 7e3f 82fc 863f 2aa8 7a3f
00000040: 625f 943f f166 8b3f 65ef 8b3f 0b91 7a3f
00000050: e1db 763f 670d 843f 4410 793f 3e9b 803f
00000060: ffa0 853f 3f1e 873f 4b47 833f 3427 733f
00000070: 80fb 653f 83b5 853f 6d6f 803f 230f 763f
0.9917265 1.0954683 1.055538 1.0552477 0.9310921 0.96998036 1.0301329 1.0321177
0.99355435 0.98343146 0.8038826 0.9793851 1.0042495 0.9944701 1.0545809 0.9791285
1.1591609 1.089079 1.0932432 0.9787757 0.9642926 1.031659 0.97290444 1.0047376
1.0439757 1.0556105 1.0256132 0.94981694 0.89836884 1.0446018 1.0034004 0.96116847

model.3.main.1.running_mean f4 [32]
00000000: 0a2d 073f 3ef6 5bbf b752 13bf 5b2c 2940
00000010: 1097 0fc0 b7f1 493f 11d2 ad3f aafc 4840
00000020: 83c0 0c40 d48e 9c3f cb52 22c0 04a1 ae40
00000030: 9293 6440 5399 46c0 2828 863f a3c4 c6bf
00000040: 431b fe3f 544a 5ec0 0f8e bcbf 7b7a b4bf
00000050: f490 6e40 149c 8040 4c01 11c0 b51d 5a40
00000060: 8f22 43bf 72c6 283e 1e1f 0840 f368 07c0
00000070: 2e84 31c0 5a1a 02bf 1a3f 3f40 d441 913d
0.528031 -0.8592261 -0.5754809 2.6433322 -2.2435951 0.7888445 1.3579732 3.1404214
2.19925 1.2231088 -2.5363033 5.457155 3.571507 -3.1031082 1.0481005 -1.5528759
1.985207 -3.4732866 -1.4730853 -1.4099878 3.7275972 4.0190525 -2.2657042 3.4080632
-0.7622461 0.16481951 2.1268992 -2.1157806 -2.7736926 -0.5082146 2.9882264 0.07092634

model.3.main.1.running_var f4 [32]
00000000: 9278 c340 6a0b 4840 48c2 ea40 5889 9440
00000010: 650c a840 3403 2340 f476 c840 edff 3340
00000020: 1b63 6f40 58b4 1040 fedd c340 c7ed 1441
00000030: 6b88 bd40 d402 9e40 31db cd40 5a20 d740
00000040: f4e1 7440 d154 1041 c4f5 2d41 066a 6a40
00000050: 5b90 e540 67e8 0041 4f0c 6240 cd58 7640
00000060: 4e0d 0841 e7d7 3340 2c25 5640 6e91 2a40
00000070: 7a6e 5240 c8e6 2a41 e705 3640 e6dc 7940
6.108468 3.1256967 7.336216 4.6417656 5.251513 2.5470705 6.2645206 2.8124955
3.740424 2.2610073 6.1208487 9.308051 5.9229026 4.937845 6.433007 6.722699
3.826291 9.020707 10.872501 3.6627212 7.1738715 8.056739 3.5320013 3.84917
8.503248 2.8100526 3.3460188 2.6651263 3.287993 10.681343 2.8441103 3.9041076
