checkpoint/clf/experiment_name/900/netS.pth (torch, 828110 bytes, 10 tensors)

conv.0.bias f4 [64]
0	0x3aa7e67d	0.001280978
1	0x3cb08492	0.02154759
2	0xba45fc9e	-0.00075525965
3	0x3d87d65b	0.06632682
4	0x3cddb716	0.027064841
5	0xbca48c6a	-0.020086486
6	0xbc6b68a9	-0.014368215
7	0xbbea27bc	-0.00714585
8	0xbb7a29b7	-0.0038171837
9	0x3cb5cb3c	0.022191636
10	0xbb401147	-0.0029307173
11	0xbc61a652	-0.013772564
12	0x3b923542	0.004461915
13	0xbb9acb84	-0.004723968
14	0xbbdda745	-0.006764325
15	0x3ace0c8b	0.0015720291
16	0xbc3701ba	-0.011169845
17	0x3c4f4b56	0.012652239
18	0xba5a2602	-0.00083217036
19	0x3be6927c	0.0070365053
20	0x3bad7d3b	0.0052944697
21	0xbd3c67ab	-0.045997303
22	0xbcbadb50	-0.022809654
23	0xbd01fecc	-0.031737134
24	0xbb9b214d	-0.0047341944
25	0xbb589def	-0.003305312
26	0xbc030e77	-0.007999054
27	0xbbc66372	-0.0060543353
28	0x3c92f422	0.017938677
29	0xbb18bff1	-0.0023307765
30	0x3c42faf9	0.011900657
31	0xbbb97af0	-0.0056604072
32	0x3c1ca2e3	0.00956032
33	0xbc60c9c7	-0.0137199825
34	0x3c046637	0.008081011
35	0xbc00d9ec	-0.007864457
36	0xbc250f88	-0.010074504
37	0xbc2484e6	-0.010041451
38	0xbb153b64	-0.0022770995
39	0xbc135c34	-0.008994151
40	0xbc4284e6	-0.011872506
41	0xbb2cd49c	-0.0026371842
42	0x3d7f0d6d	0.062268663
43	0xbcc6ede9	-0.024283366
44	0xbc6fc093	-0.014633316
45	0x3954af4e	0.00020283202
46	0xbbc4b6f6	-0.006003256
47	0xbcc641be	-0.02420127
48	0x3c161f4f	0.009162738
49	0x3af3377b	0.0018555963
50	0xbc2f4a0d	-0.010698807
51	0xbb05a412	-0.0020391983
52	0x3c0d934c	0.008641075
53	0xbc90cbfa	-0.017675389
54	0xbc604e66	-0.013690567
55	0x3c0a73e7	0.008450485
56	0x3ba0f486	0.004911962
57	0xbc43ed94	-0.0119584985
58	0xbbba4f33	-0.005685711
59	0xbc5e4de6	-0.013568377
60	0x3ce4e861	0.027942838
61	0xb98520c3	-0.00025392146
62	0x3c803beb	0.015653571
63	0x3d07e6e8	0.033179194

conv.0.weight_orig f4 [64, 64, 3, 3]
0	0x3d21b28a	0.03947691
1	0xbc971e4b	-0.018447062
2	0xbcb44499	-0.022005366
3	0xbdc614b8	-0.096719205
4	0xbdc3210e	-0.09527789
5	0xbcb351df	-0.021889625
6	0xbd2a059d	-0.04150926
7	0x3d29eeea	0.04148761
8	0xbd0c6d1d	-0.034283746
9	0x3ca5cf3b	0.020240417
10	0x3d9cfc77	0.07665341
11	0xbc1d1690	-0.009587899
12	0x3de6b426	0.11264829
13	0xbd14bc61	-0.036312465
14	0xbd8cf58d	-0.068827726
15	0xbd059dbe	-0.032621138
16	0xbca8945c	-0.020578556
17	0x3c13082c	0.008974116
18	0x3da21339	0.07913823
19	0x3e608699	0.21926345
20	0x3db5ead4	0.088826805
21	0x3e1ee037	0.15515219
22	0x3cea7212	0.028618846
23	0x3e1452eb	0.14484756
24	0x3c2e2020	0.010627776
25	0x3dfed35c	0.12442657
26	0xbcf8f1c2	-0.030388717
27	0xbda7ce2f	-0.08193623
28	0xbd68ddc4	-0.056852117
29	0xbc039816	-0.008031866
30	0x3d6f44b6	0.058415137
31	0xbdbb1c28	-0.0913623
32	0xbce83ce2	-0.028349344
33	0x3c74dfe8	0.014945962
34	0x3c05f8ef	0.008177026
35	0xbd14a259	-0.03628764
36	0xbcc9fc70	-0.024656504
37	0xbd441690	-0.04787308
38	0x3cecbc60	0.028898418
39	0xbd83ddf6	-0.0643882
40	0x3d1eede8	0.038801104
41	0x3d93fabe	0.0722556
42	0x3c4ea4ab	0.012612502
43	0x3d99e289	0.07513911
44	0x3d5b0f94	0.053481653
45	0x3d23b42a	0.03996674
46	0x3da35d95	0.07976834
47	0xbd2c9c72	-0.042141385
48	0x3cc43189	0.023949401
49	0x3d81e5ae	0.06342636
50	0x3cfd07c8	0.0308875
51	0x3c18ff01	0.009338141
52	0x3d5a58cd	0.053307343
53	0x3e085d93	0.13316946
54	0xbc538a9a	-0.012911463
55	0x3ca56a32	0.02019224
56	0x3d44bd68	0.048032194
57	0x3d07c5d9	0.033147667
58	0x3e06d9e3	0.13169055
59	0xbd6f5835	-0.05843373
60	0x3c75cc90	0.015002385
61	0xbc3c4701	-0.011491538
62	0x3e172500	0.14760208
63	0x3e058db3	0.13042335
64	0x3d74578d	0.059653807
65	0x3e018e9f	0.12652062
66	0xbd515fb8	-0.051116675
67	0x3df475aa	0.11936505
68	0xbc8a7234	-0.01690016
69	0x3c042a2c	0.008066695
70	0x3c414db2	0.011798309
71	0x3d5ee5b6	0.05441829
72	0x3dc8c1ee	0.09802614
73	0x3d9b66e2	0.07587983
74	0x3bb422d7	0.0054973173
75	0x3e1ce597	0.15321957
76	0x3db22387	0.086981826
77	0x3dbda7ab	0.09260496
78	0x3b255e77	0.0025233307
79	0x3dbd2637	0.092358045
80	0x3d0b7edf	0.03405654
81	0x3d250170	0.040284574
82	0xbdb73d93	-0.08947291
83	0x3cd1d90f	0.025616197
84	0xbdd1931c	-0.10233137
85	0x3d8b1a7a	0.067921594
86	0x3b3b0985	0.002853961
87	0xbd03eabd	-0.032206286
88	0xbc1ebd28	-0.009688653
89	0x3d685b39	0.05672762
90	0xbb2c4712	-0.0026287478
91	0x3d673744	0.05644919
92	0xbdcac9a5	-0.09901742
93	0x3d76606e	0.060150556
94	0x3bf81c57	0.0075717377
95	0x399ee0da	0.00030303636
96	0xbcdcfd8d	-0.026976371
97	0xbd1a2c38	-0.037639827
98	0x3d302075	0.042999703
99	0x3dff4d33	0.124658965
100	0xbc8b43e5	-0.017000148
101	0xbca8b0b6	-0.020592075
102	0x3ca7fdd4	0.020506777
103	0xbdbe8969	-0.09303553
104	0x3da800ef	0.08203303
105	0xbca14450	-0.019685894
106	0x3a21874c	0.00061618234
107	0xbd077eb3	-0.033079814
108	0xbd34f684	-0.044180408
109	0xbce038c6	-0.027370822
110	0x3c33266b	0.0109344525
111	0x3d304650	0.043035805
112	0x3cf88fe7	0.030342055
113	0xbd35e056	-0.044403397
114	0x3d9258e0	0.07145858
115	0x3c994fc5	0.018714795
116	0x3cfdd2c1	0.030984284
117	0xbd7b46f3	-0.06134696
118	0x3c062969	0.008188584
119	0xbdf0b9cb	-0.11754187
120	0xbce5637c	-0.02800154
121	0x3d526d5c	0.051373824
122	0x3b9d3302	0.0047973404
123	0xbac84c9f	-0.0015281624
124	0xbd88cd78	-0.06679815
125	0x3d6562ea	0.056002535
126	0x3de42c62	0.11141278
127	0x3cd8bdcd	0.026457692
128	0xbd2c3bfe	-0.0420494
129	0xbcbe2266	-0.023209762
130	0xbdd96e2c	-0.10616717
131	0xbdaef1bd	-0.08542202
132	0xbc73f08f	-0.014888897
133	0xbd045142	-0.032304056
134	0x3cae5adf	0.021283565
135	0x3c7a6901	0.015283824
136	0x3d9e1518	0.07718867
137	0x3e03c250	0.12867093
138	0x3cc9c6f5	0.024631003
139	0x3dad92e5	0.084752835
140	0xbd8a8845	-0.067642726
141	0x3d683df1	0.056699697
142	0x3d44f4ae	0.048084907
143	0x3ce79d1a	0.028273154
144	0x3d310cb2	0.043224998
145	0xbd0b67d7	-0.034034576
146	0x3da0e6a1	0.07856489
147	0xbc79be9e	-0.015243201
148	0x3c85f0ba	0.016350139
149	0xbd1eb459	-0.03874621
150	0x3be3dd3f	0.006953865
151	0xbc47916c	-0.012180667
152	0x3d48e473	0.04904599
153	0x3cd5008f	0.026001243
154	0x3c3cbace	0.011519147
155	0xbc2c8f8c	-0.010532271
156	0x3daf8bd8	0.08571595
157	0xbde3fd3f	-0.11132287
158	0xbd3771f2	-0.0447864
159	0x3d8214b2	0.063516036
160	0x3cd69cb9	0.026197778
161	0xbddd2680	-0.10798359
162	0x3bacb229	0.005270262
163	0x3d872c1a	0.066002086
164	0x3c7ff35f	0.015621989
165	0x3e04c303	0.12965016
166	0x3bcaf4c7	0.0061937305
167	0xbdbf5940	-0.09343195
168	0xbe0a9dc7	-0.1353675
169	0x3d1d7ce1	0.038449172
170	0xbcfdd19b	-0.030983737
171	0xbe1fc49b	-0.15602343
172	0xbc673131	-0.014110849
173	0x3d4bc686	0.049749874
174	0xbd060035	-0.03271504
175	0xbe5a1206	-0.21295938
176	0xbd175d5f	-0.03695428
177	0x3d934b57	0.07192104
178	0xbc94d1c6	-0.018166434
179	0x3bc63d8e	0.0060498184
180	0xbc916369	-0.017747598
181	0x3a8dc642	0.0010816532
182	0x3d871254	0.06595293
183	0x3cfe620c	0.031052612
184	0xbd965cad	-0.07341895
185	0xbdbde3ed	-0.09271989
186	0xbdea5b0f	-0.11443149
187	0x3c5379d5	0.012907465
188	0x3d26697d	0.040627945
189	0xbdcac781	-0.099013336
190	0xbc8cd07b	-0.017189255
191	0x3c726bc7	0.014796204
192	0x3ba4a567	0.0050246003
193	0xbd1266fd	-0.03574275
194	0x3c36193f	0.011114418
195	0xb9c52d58	-0.00037608552
196	0xbc2e1a10	-0.010626331
197	0xbd91dcd7	-0.071222
198	0xbd38983c	-0.045067057
199	0x3d9ce4f6	0.07660858
200	0x3d0f3c28	0.03496948
201	0x3d82136c	0.06351361
202	0x3ce66571	0.028124543
203	0x3cf32449	0.029680388
204	0x3d244a55	0.04010995
205	0xbc72542e	-0.014790578
206	0x3d5dd561	0.054158572
207	0xbd6179fc	-0.055047974
208	0x3cae585e	0.021282371
209	0xbe1b0105	-0.15137108
210	0x3d8d858e	0.06910239
211	0x3d9b19dd	0.075732924
212	0xbc8b1f3e	-0.01698267
213	0xbe076f53	-0.1322606
214	0xbd2c3fda	-0.04205308
215	0x3b86707b	0.004102764
216	0xbdb8eb83	-0.09029295
217	0x3c430a9e	0.011904387
218	0x3cf33fb1	0.029693456
219	0x3d28db37	0.041224685
220	0xbd0aa1d7	-0.03384575
221	0x3d19128d	0.037371207
222	0x3d1cdf7e	0.038299076
223	0x3d3d345f	0.046192523
224	0xbc6d4668	-0.014482118
225	0xbdac58c2	-0.08415367
226	0x3c18dbe0	0.009329766
227	0x3cdf69c2	0.027272109
228	0xbbfb8762	-0.007676051
229	0xbdb307a0	-0.08741689
230	0xbd4a8cf8	-0.049450845
231	0xbd68d969	-0.056847963
232	0x3d9350ea	0.071931675
233	0xbc7ee900	-0.015558481
234	0x3d62fc87	0.05541661
235	0xbcbededc	-0.023299627
236	0x3cdf5de7	0.027266456
237	0x3ce9793c	0.028500192
238	0xbc87dde5	-0.0165853
239	0xbd030d8d	-0.031995345
240	0xbd79a059	-0.060943935
241	0x3e23517b	0.15949051
242	0xbdcafc3b	-0.099113904
243	0xbe02e2a8	-0.12781775
244	0xbd371320	-0.044695973
245	0xbcef3cf9	-0.029203879
246	0xbc698b1d	-0.014254359
247	0x3b9d04a9	0.0047918153
248	0x3c1a1ab7	0.009405783
249	0xbd86fad4	-0.065908104
250	0xbe12440c	-0.1428377
251	0xbceca231	-0.028885933
252	0xbbfdf69a	-0.0077503445
253	0x3cf3358e	0.029688623
254	0xbcbe6687	-0.023242248
255	0x3d1689ad	0.03675239

conv.0.weight_u f4 [64]
0	0x3e868a76	0.26277512
1	0x3e7dc74b	0.24783055
2	0x3dbbcca7	0.09169894
3	0x3ed6313f	0.41834447
4	0xbbe1afec	-0.0068874266
5	0xbdad0d4b	-0.08449801
6	0xbd111866	-0.03542366
7	0x3c860c29	0.01636322
8	0x3d8db7d4	0.06919828
9	0x3e2245c8	0.15846932
10	0xbcad127f	-0.021126984
11	0x3ca0f01e	0.019645747
12	0xbdf2e820	-0.118606806
13	0x3e04a7ce	0.12954637
14	0xbd65c0ad	-0.056091953
15	0xbd44cb4a	-0.048045434
16	0xbbcf1df9	-0.0063207117
17	0xbd1f4502	-0.03888417
18	0x3d1801e9	0.037111197
19	0xbd687d2b	-0.056759994
20	0xbe18f242	-0.14936164
21	0x3c452f3d	0.012035188
22	0x3e7d2dbd	0.24724479
23	0xbc797e3e	-0.015227852
24	0xbd2e3d94	-0.042539194
25	0xbc5c0b5e	-0.0134304445
26	0xbd8683b5	-0.0656809
27	0xbd812b93	-0.06307139
28	0x3dca9969	0.09892542
29	0x3e187a47	0.14890395
30	0xbd35b6ba	-0.044363715
31	0xbd4f9fd1	-0.050689522
32	0xbdbdc78d	-0.09266577
33	0x3d009cbb	0.03139947
34	0x3bbfbe56	0.0058515472
35	0xbc9fbe1d	-0.019499833
36	0x3dc5cc11	0.09658063
37	0x3e158d12	0.14604595
38	0x3d943b3e	0.07237862
39	0x3d341b10	0.04397112
40	0x3e3a918c	0.18219584
41	0xbb0fe403	-0.0021955974
42	0xbdade7ef	-0.084915034
43	0x3d69a6dd	0.0570439
44	0xbdb13361	-0.08652378
45	0x3daa22b4	0.083074
46	0xbc4461ca	-0.011986205
47	0x3c63041e	0.013855962
48	0xbdc607cb	-0.09669455
49	0x3a9aad13	0.0011800848
50	0xbe21f1fd	-0.15814967
51	0xbdceaaaa	-0.10091145
52	0x3bde70db	0.0067883558
53	0xbdbdba1f	-0.092640154
54	0xbc3c5977	-0.011495939
55	0xbc1380b3	-0.009002852
56	0xbe573289	-0.21015371
57	0xbdedc399	-0.11609573
58	0xbe0cc8b9	-0.13748445
59	0xbe7b0472	-0.24513415
60	0xbe814ed9	-0.25255468
61	0x3da52980	0.08064556
62	0x3e147d4e	0.14500925
63	0x3e963643	0.29338273

conv.0.weight_v f4 [576]
0	0xbd2013de	-0.039081447
1	0xbb9ab37b	-0.004721103
2	0x3ca58a99	0.02020769
3	0x3bbdad32	0.0057884688
4	0x3cdda48e	0.027056005
5	0xbccbc6a4	-0.024874993
6	0x3d461c08	0.048366576
7	0x3d172fad	0.0369107
8	0xbd81b70a	-0.0633374
9	0x3c3fbcca	0.011702726
10	0xbd540fc8	-0.051772863
11	0x3ca9fa62	0.020749275
12	0x3cb2c845	0.021824012
13	0xbc88a103	-0.016678339
14	0xbc64ec9c	-0.013972428
15	0xbc946af8	-0.018117413
16	0xbcb0454c	-0.021517418
17	0xbc0672c2	-0.008206071
18	0x3e1d04b1	0.15333821
19	0x3e01fada	0.12693349
20	0x3df45f64	0.11932257
21	0x3dfa02c5	0.122075595
22	0x3e18760b	0.1488878
23	0x3dab1ea6	0.08355455
24	0x3dbf9e04	0.09356311
25	0x3e090092	0.13379124
26	0x3da97a92	0.082753316
27	0x3b8f8f47	0.0043810937
28	0x3d0d152c	0.03444402
29	0x3d7e61c1	0.062104944
30	0x3d029afe	0.031886093
31	0x3ca3ed2b	0.020010551
32	0xbcb3515e	-0.021889385
33	0x3c8e06a7	0.017337156
34	0x3bd0a099	0.006366801
35	0xbd445078	-0.047928303
36	0xbcdc8c8c	-0.026922487
37	0xbd786415	-0.06064232
38	0xbb376e6c	-0.00279894
39	0xbcca31cb	-0.024681946
40	0xbc9679aa	-0.01836856
41	0xbc9114cf	-0.017710118
42	0xbd752baa	-0.059856094
43	0xbbc23e99	-0.0059278724
44	0x3c31918e	0.010837926
45	0xbca10dff	-0.019659994
46	0x3c8b5dd5	0.017012516
47	0x3ccba7b6	0.024860244
48	0x3d093ac2	0.0335033
49	0x3ccd78d3	0.025082028
50	0x3d24651f	0.0401355
51	0x3c79780f	0.015226378
52	0x3d57f75d	0.05272614
53	0x3b412c66	0.0029475926
54	0x3dc6e6ee	0.09712015
55	0x3da2328d	0.07919798
56	0x3d80cd77	0.06289189
57	0x3d10fdc1	0.03539825
58	0x3db83dca	0.0899616
59	0x3d57935a	0.05263076
60	0x3b941c13	0.0045199483
61	0x3d310cee	0.04322522
62	0x3d9bd3bd	0.07608745
63	0x3d7fa264	0.062410727
64	0x3d31de60	0.043424964
65	0x3c49ce94	0.0123173185
66	0x3d64efa2	0.055892594
67	0x3db2751a	0.087137416
68	0x3ceb85d9	0.028750347
69	0x3c749bdc	0.014929738
70	0xb982b5df	-0.00024931037
71	0x3d697865	0.056999583
72	0x3ddd15f4	0.10795203
73	0x3d6dae06	0.05802729
74	0x3dbcce6f	0.092190616
75	0x3dd461a3	0.10370185
76	0x3da262d3	0.079290055
77	0x3df0423f	0.117313854
78	0x3dcc9119	0.09988613
79	0x3db9bfe8	0.09069806
80	0x3d3d24fa	0.04617784
81	0x3d8a6098	0.06756705
82	0xba992652	-0.0011684394
83	0x3cb2b1b6	0.021813255
84	0x3c70d164	0.01469836
85	0x3d3b61a4	0.045747414
86	0x3d48e286	0.049044155
87	0x3d3e7a7f	0.04650354
88	0xbc1d90f4	-0.009617079
89	0xbce1e9a5	-0.02757723
90	0xbc49ef26	-0.012325084
91	0xbd3268c0	-0.04355693
92	0xbcc01cf6	-0.02345131
93	0xbc1418f1	-0.00903915
94	0x3c417931	0.011808679
95	0x3c4e8cef	0.012606843
96	0xbcfa42f2	-0.0305495
97	0x3bb00507	0.005371693
98	0xbce8dfcc	-0.028427027
99	0x3c1e3cc7	0.009658045
100	0xbd4952f5	-0.04915138
101	0x3bb18cef	0.005418412
102	0xbd687562	-0.05675257
103	0xbcd8d608	-0.026469246
104	0xbcfffa5e	-0.031247314
105	0xbd0fc2ef	-0.035098013
106	0xbd568e53	-0.052381825
107	0xbc4fafa8	-0.012676157
108	0x3d865601	0.06559373
109	0x3cc94e77	0.024573548
110	0x3d211db4	0.039334968
111	0x3d9ad67a	0.075604394
112	0x3d88572d	0.066572525
113	0x3ca10bb6	0.019658905
114	0x3d1d07d8	0.03833756
115	0x3d1cd6c1	0.038290743
116	0x3d351682	0.04421092
117	0xbcf95dc2	-0.030440215
118	0xbd0329e6	-0.03202238
119	0x3d0396ca	0.032126226
120	0xbd172cdd	-0.03690802
121	0xbc3055e6	-0.010762667
122	0x3c9e1cd9	0.019300865
123	0xbd296fe3	-0.04136647
124	0xbc4fd7ef	-0.01268576
125	0x3d0a2bb0	0.03373307
126	0xba464bed	-0.00075644144
127	0x3d0dd032	0.03462238
128	0xbc83cba9	-0.016088324
129	0xbcedaf1c	-0.029014163
130	0x3ba8748b	0.005140846
131	0x3cbe29e3	0.023213333
132	0x3d7a498e	0.061105303
133	0x3d0202ac	0.03174083
134	0x3d235c28	0.03988281
135	0xbbac2424	-0.0052533317
136	0x3c9931b2	0.018700454
137	0x3d0825d1	0.03323919
138	0x3a8db7a5	0.0010812177
139	0x3cd8f848	0.026485577
140	0xbc7eca3d	-0.015551147
141	0x3cade1a1	0.021225752
142	0x3c892b3d	0.01674425
143	0xbc967fe5	-0.018371532
144	0x3ccaf803	0.024776464
145	0xbc103cca	-0.008803556
146	0x3c9e2ecb	0.019309422
147	0xbcacd954	-0.021099724
148	0x3bdf0020	0.006805435
149	0xbd6ba439	-0.05752966
150	0x3d06fb55	0.032954533
151	0x3dbc84f4	0.09205046
152	0x3cdc3923	0.026882714
153	0xbc7a1cb0	-0.015265629
154	0x3bbf2d0b	0.005834227
155	0x3d491d12	0.04909999
156	0x3be938e6	0.0071173785
157	0xbc57f404	-0.013180736
158	0x3c633b17	0.013869069
159	0x3c96b43c	0.01839649
160	0xbd3175a8	-0.043325096
161	0xbd4d43a9	-0.050113354
162	0x3d4adc76	0.049526654
163	0x3ce0eda7	0.027457071
164	0x3ba37d01	0.004989267
165	0x3d9f1e3e	0.0776944
166	0x3d846188	0.06463915
167	0x3d29f9b7	0.041497912
168	0xbc9f24ae	-0.01942667
169	0xbb93735e	-0.004499837
170	0x3c1497b7	0.009069375
171	0xbd31c490	-0.043400347
172	0x3cd4bd32	0.025969122
173	0xba5ce707	-0.000842676
174	0x3b79791e	0.0038066576
175	0x3d410b7e	0.0471301
176	0x3c82be5c	0.015959911
177	0x3c3f6293	0.011681217
178	0xbb8656fd	-0.0040997253
179	0x3d84fa84	0.064930946
180	0x3ce1057b	0.027468434
181	0x3c4b559c	0.012410548
182	0xbcad5a67	-0.021161271
183	0xbc77a727	-0.015115536
184	0xbca41dcd	-0.020033741
185	0xbd6136fc	-0.054984078
186	0xbc487359	-0.012234532
187	0x3cf28e02	0.02960873
188	0xbc2d43c3	-0.010575238
189	0xbd65d92e	-0.05611532
190	0xbd513819	-0.05107889
191	0xbd50922f	-0.05092066
192	0xbd982a97	-0.07429998
193	0xbd438652	-0.04773552
194	0xbd3f43e2	-0.046695597
195	0xbcd576e4	-0.026057668
196	0xbda809ed	-0.08205018
197	0xbdb94e4a	-0.090481356
198	0xbcb5e2e5	-0.022202918
199	0xbb5b6584	-0.0033477256
200	0xbd2b642b	-0.041843574
201	0x3bd8657a	0.006603894
202	0x3ba0175f	0.0048855986
203	0xbcdec638	-0.027194127
204	0xbd0c0fda	-0.034194805
205	0x3c4c1de2	0.0124582965
206	0x3d6260cc	0.055268094
207	0xbcf6d06d	-0.030128682
208	0xbcd38f13	-0.025825059
209	0xbd87f955	-0.06639353
210	0x3d86c215	0.06579987
211	0xbca504ff	-0.020143984
212	0xbd32e9c0	-0.043679953
213	0xbc9e801e	-0.0193482
214	0x3cf13d9f	0.029448329
215	0x3c4207c3	0.011842671
216	0xbc8d7ef6	-0.017272454
217	0xbd0257a3	-0.03182186
218	0x3d58e845	0.052955884
219	0x3c7781af	0.015106603
220	0x3b9938ce	0.004675961
221	0x3ce377b0	0.027767032
222	0xbc8128b3	-0.015766477
223	0x3cc7a4ec	0.024370633
224	0xbb848aad	-0.0040448518
225	0xbc706048	-0.014671393
226	0x3c12ba13	0.008955496
227	0x3c5a0a3b	0.013308103
228	0x391a2ebd	0.00014703996
229	0xbd4318b4	-0.04763098
230	0x3b6fb243	0.0036574758
231	0xbd89341c	-0.06699392
232	0xbccddffd	-0.02513122
233	0x3b6055c1	0.00342308
234	0xbc987ecf	-0.018615155
235	0xbd3ffa49	-0.04686955
236	0x3ca0b9ac	0.019619785
237	0xbc84a10e	-0.016190078
238	0xbd40bec7	-0.04705694
239	0xba44c3e0	-0.0007505994
240	0x3b6fe0e3	0.0036602549
241	0xbb7b12db	-0.00383108
242	0xbd5d4fcd	-0.054031182
243	0xbdbb94fb	-0.09159275
244	0xbda0e642	-0.07856418
245	0xbd814f49	-0.063139506
246	0xbd2f0cac	-0.042736694
247	0xbd1fa823	-0.038978707
248	0xbd26d81c	-0.04073344
249	0xbd16de84	-0.0368333
250	0xbcb7d505	-0.022440443
251	0xbd8ab4a9	-0.067727394
252	0x3c41b527	0.011822975
253	0x3c84854c	0.016176842
254	0xbd5b722c	-0.05357568
255	0x3abd9262	0.0014463181

conv.2.bias f4 [64]
0	0xbc07bcf9	-0.008284801
1	0xbcac04ee	-0.020998444
2	0x3e3ae5f6	0.18251786
3	0xbb8653c5	-0.0040993416
4	0xbbe1621c	-0.0068781506
5	0xbbc89659	-0.0061214385
6	0xbb71c45f	-0.0036890728
7	0xbc00fa2f	-0.007872148
8	0xbcc6a110	-0.024246722
9	0xb98ed3df	-0.00027242207
10	0x3b681afc	0.0035416475
11	0xbc6f1fb0	-0.014594957
12	0xbbff0b71	-0.0077833463
13	0xbbd0a61b	-0.0063674576
14	0xbc8e4f17	-0.017371697
15	0xbcc7e1ef	-0.024399726
16	0xbc28d783	-0.010305288
17	0xbc8d3189	-0.017235534
18	0xbc090d02	-0.008364918
19	0xbbdf5bb8	-0.0068163536
20	0xbc9d6d20	-0.019217074
21	0xbc3439ba	-0.011000091
22	0xbbf2b2e7	-0.0074065807
23	0xbbe0b7bd	-0.006857841
24	0xbd17be52	-0.037046738
25	0xbc09a4ff	-0.008401155
26	0xbc8baeb7	-0.017051084
27	0xbbeb8394	-0.007187316
28	0xbc1e6809	-0.009668359
29	0xbb411216	-0.0029460243
30	0xbd1c7c85	-0.03820469
31	0xbb9c2db5	-0.004766191
32	0xbc5fc487	-0.013657696
33	0xbd074d45	-0.033032674
34	0xbc1f767f	-0.0097328415
35	0xbd6db10d	-0.058030177
36	0xbbd44b71	-0.00647872
37	0xbc495a60	-0.0122896135
38	0xbc4216e6	-0.01184628
39	0xbca4a0c5	-0.020096192
40	0xbc161dc8	-0.009162374
41	0xbbc222b1	-0.0059245457
42	0xbc9dc79b	-0.019260218
43	0xbb8d78b2	-0.0043173665
44	0xbc402e71	-0.0117298225
45	0xbc01bb83	-0.007918241
46	0xbc1d1a69	-0.009588816
47	0xbbb1a5f6	-0.0054213954
48	0xbbd48d99	-0.0064866063
49	0xbc2282be	-0.009918867
50	0xbcb45645	-0.022013793
51	0xbc97ce02	-0.01853085
52	0xbb9ee79c	-0.0048493873
53	0xbbdc5714	-0.0067242477
54	0xbbea38f1	-0.007147901
55	0xbc18ac9b	-0.009318496
56	0xbb922bca	-0.0044607865
57	0xbc63af57	-0.013896785
58	0xbc578ebb	-0.013156588
59	0xbbcedce1	-0.006312952
60	0xbcff1409	-0.031137483
61	0xbc5d27c3	-0.013498249
62	0xbc52709d	-0.012844232
63	0xbc7c4aa6	-0.015398657

conv.2.weight_orig f4 [64, 64, 3, 3]
0	0xbc0ec557	-0.008714042
1	0x3d2dbaeb	0.042414587
2	0xbd613701	-0.054984096
3	0xbddbe6ee	-0.10737406
4	0xbe2859f7	-0.16440569
5	0x3990bdf8	0.00027607358
6	0x3c00f82c	0.007871669
7	0xbda88a88	-0.08229548
8	0x3a9f63a8	0.0012160437
9	0xbd0ee490	-0.034885943
10	0xbcb0f957	-0.02160327
11	0xbc2483a6	-0.010041153
12	0x3d27fb3f	0.04101109
13	0x3c97d5ff	0.018534658
14	0xbcfacd45	-0.030615458
15	0xbc096694	-0.008386273
16	0xbcfb0c9c	-0.030645661
17	0xbdc5cfb6	-0.09658758
18	0xbd0b168e	-0.033957057
19	0x3cbbe22c	0.022934996
20	0xbd6cf800	-0.0578537
21	0xbcba0639	-0.022708045
22	0xbcf47d28	-0.029844835
23	0x3d39be88	0.04534772
24	0xbde351ba	-0.110995725
25	0xbd162ad7	-0.03666195
26	0x3c8baf0e	0.017051246
27	0xbd1332ee	-0.035937242
28	0xbb4a418a	-0.0030861818
29	0x3c633e6c	0.013869863
30	0x3b94ba0c	0.00453878
31	0xbdc69950	-0.09697211
32	0x3c9e5e66	0.019332122
33	0x3c4a07fa	0.012331003
34	0x3d4155be	0.04720091
35	0x3da3754f	0.07981359
36	0x3d4d467b	0.050116044
37	0x3d3a4b3c	0.045481905
38	0x3cc741ac	0.024323307
39	0x3dca099f	0.09865116
40	0xbc3ccccd	-0.011523438
41	0xbd9cf19b	-0.0766327
42	0x3cc2cab6	0.0237783
43	0xbca0f3a9	-0.019647436
44	0x3c08b740	0.008344471
45	0xbd1b961e	-0.03798496
46	0xbd8a8ec3	-0.06765511
47	0xbd97b520	-0.07407594
48	0x3c5e4773	0.0135668395
49	0x3b9b9baf	0.0047487835
50	0xbd035218	-0.032060713
51	0xbaac3458	-0.0013138158
52	0xbd32f47e	-0.043690197
53	0xbd2df37c	-0.042468533
54	0x3b8ae77c	0.004239021
55	0xbd7a2de9	-0.06107894
56	0x3b8a5405	0.0042214417
57	0xbdab6246	-0.083683535
58	0xbc825a0c	-0.015912078
59	0xbcf9b56b	-0.030482015
60	0x3b97bac8	0.0046304204
61	0xbd4343db	-0.047672134
62	0x3d3a72f6	0.04551979
63	0xbda686e5	-0.08131198
64	0xbc50e315	-0.012749453
65	0xbcde8dbc	-0.027167194
66	0xbc3a9536	-0.011388114
67	0x3de09388	0.10965639
68	0xbd43d754	-0.047812775
69	0xbd8efed6	-0.069822
70	0xbd1c5818	-0.03816995
71	0x3dac646d	0.08417592
72	0x3ca507b8	0.020145282
73	0xbccdf7c3	-0.025142556
74	0xbd37b1df	-0.044847365
75	0xbce5a609	-0.028033273
76	0x3b8e5415	0.0043435195
77	0x3c341d60	0.010993332
78	0xbd98c412	-0.074592724
79	0xbc859951	-0.016308459
80	0xbd2f4e1b	-0.042799097
81	0xbceab59b	-0.02865105
82	0xbcb7f265	-0.02245445
83	0x3ca36484	0.01994539
84	0x3d23e030	0.040008724
85	0xbd2fc7fe	-0.042915337
86	0xbcfe3368	-0.031030372
87	0xbc68a61d	-0.014199761
88	0xbde3746a	-0.111061886
89	0xbd309b48	-0.043116838
90	0xbd28bb25	-0.0411941
91	0xbd345f89	-0.044036422
92	0xbd24eee4	-0.040266886
93	0xbdd6e7a8	-0.10493404
94	0x3e0618f7	0.13095461
95	0x3dd27af9	0.102773614
96	0xbd0c71da	-0.034288265
97	0xbcdaf423	-0.026727742
98	0x3d1ea075	0.038727242
99	0x3b0ecdb8	0.0021790098
100	0x3dad6cb2	0.084679976
101	0xbbc5a2d6	-0.0060313744
102	0x3d4ac068	0.0494999
103	0x3bbc71dc	0.005750878
104	0xbc6f81c2	-0.014618339
105	0x3d6ffe42	0.05859209
106	0x3d6d0c2d	0.05787294
107	0xbc5c7d82	-0.013457658
108	0x3dc57806	0.09642033
109	0x3dab7536	0.083719656
110	0xbd115829	-0.035484467
111	0xbcffa281	-0.031205418
112	0xbb184d64	-0.0023239488
113	0xbda66b38	-0.08125919
114	0xbdd21a1c	-0.10258886
115	0xbc41bdc1	-0.011825026
116	0x3bb029f8	0.005376097
117	0xbd823aa5	-0.06358842
118	0x3cbd33c3	0.023095971
119	0x3d4cd511	0.050007883
120	0x3cc90c2b	0.024541935
121	0xbbf8eff1	-0.0075969626
122	0xbd505891	-0.050865714
123	0xbc43244a	-0.011910507
124	0xbd7e40b3	-0.06207342
125	0xbd23b7ad	-0.03997009
126	0xbd05726c	-0.032579824
127	0xbd0bdc3b	-0.034145575
128	0x3c7764f4	0.015099753
129	0x3db9f4d3	0.090799
130	0x3cfca729	0.030841427
131	0x3d6b978e	0.05751758
132	0x3caccf78	0.021095023
133	0x3d924569	0.07142145
134	0x3c726aa7	0.014795936
135	0xbbe704e7	-0.007050145
136	0xbe3e7734	-0.1860016
137	0xbc27c9b4	-0.010240961
138	0x3db616dc	0.08891079
139	0xbd133954	-0.035943344
140	0x3d18387e	0.03716325
141	0xbda2d6cf	-0.07951128
142	0xbc0cec43	-0.008601251
143	0xbc87553f	-0.01652014
144	0xbd895dc9	-0.06707341
145	0xbcb145ab	-0.021639666
146	0x3d28a576	0.04117342
147	0x3b2351fb	0.002492069
148	0x3b9b1041	0.004732162
149	0x3d49825d	0.04919659
150	0xbd44db68	-0.048060805
151	0x3dbca94e	0.0921198
152	0xbd0c1a43	-0.034204733
153	0x3d1b9a98	0.03798923
154	0x3d78d6ff	0.06075191
155	0xbdb83115	-0.08993737
156	0xbc92e308	-0.017930523
157	0x3cf3b7d9	0.029750751
158	0xbcfa9e43	-0.030593043
159	0x3dbe2a26	0.09285383
160	0xbcdc8e07	-0.026923193
161	0xbcb228d0	-0.021747977
162	0xbc66a378	-0.01407706
163	0x3d529856	0.05141481
164	0xbc899ab8	-0.016797408
165	0x3d8d5efc	0.069028825
166	0xbd6d85b6	-0.057988845
167	0xbd2c19b6	-0.042016707
168	0x3cb20db8	0.021735057
169	0x3d29e4b4	0.041477874
170	0xbbd31beb	-0.006442537
171	0x3dfd76bf	0.12376165
172	0x3d5942aa	0.05304209
173	0xbc82b88d	-0.015957141
174	0xbd58b3d2	-0.052905865
175	0xbd00876e	-0.031379156
176	0x3bf8f48c	0.0075975116
177	0xbb70e36c	-0.0036756648
178	0x3dd71bc0	0.1050334
179	0x3d297531	0.041371528
180	0x3cd423b8	0.025895938
181	0x3cd85ec6	0.026412379
182	0x3da92fc5	0.082610644
183	0xbdbf9739	-0.09355015
184	0xbd057861	-0.032585505
185	0xbb5ec224	-0.0033990229
186	0xbd8e65bb	-0.06952997
187	0xbd98c1ab	-0.07458814
188	0xbdd892d6	-0.10574882
189	0x3cd05ba0	0.025434315
190	0x3cb2b4e8	0.021814778
191	0xbd28a36f	-0.041171487
192	0xbe1c8361	-0.15284492
193	0xbcddbadd	-0.027066642
194	0x3da51df5	0.080623545
195	0x3ce82f6a	0.028342921
196	0x3d9255b3	0.07145252
197	0xbd40e646	-0.047094606
198	0xbc303246	-0.010754174
199	0xbe059aa5	-0.13047273
200	0xbc9da2d2	-0.019242678
201	0xbd6f6e33	-0.058454704
202	0xbd2f24a0	-0.042759538
203	0x3c4e4c7e	0.012591479
204	0xbd475372	-0.048663564
205	0x3db24a8f	0.08705627
206	0x3c434673	0.011918652
207	0xbd1fbe6c	-0.03899996
208	0xbcadc125	-0.021210263
209	0xbce100f7	-0.02746628
210	0x3dc24544	0.094858676
211	0xbb202919	-0.0024438559
212	0x3bdfd1d0	0.0068304315
213	0xbda63f1d	-0.08117507
214	0xbc8c93fb	-0.017160406
215	0x3d3ea55a	0.04654441
216	0x3d8f9496	0.070107624
217	0x3c3c1e4c	0.011481833
218	0x3c9e2deb	0.019309005
219	0xbd4749cb	-0.04865436
220	0x3dbff612	0.09373106
221	0xbc866960	-0.016407669
222	0xbcce3e98	-0.025176331
223	0x3d5206cc	0.051276013
224	0xbc2d7027	-0.010585821
225	0x3c94e626	0.01817615
226	0xbba77315	-0.0051101544
227	0xbd880323	-0.06641223
228	0xbbe72eea	-0.007055153
229	0xbbe6e45f	-0.007046267
230	0x3d33f2a3	0.04393257
231	0xbd11e36a	-0.03561727
232	0xbd09301b	-0.033493143
233	0xbdb0071b	-0.08595105
234	0xbb9725f2	-0.0046126777
235	0xbd07bded	-0.03314011
236	0x3d74ea3d	0.0597937
237	0xbcadba48	-0.02120699
238	0x3e0b220e	0.1358721
239	0xbc90369b	-0.017604163
240	0x3c4b1a1d	0.012396363
241	0xbc759c7a	-0.01499092
242	0xbd50fd27	-0.051022675
243	0x3d81878b	0.06324681
244	0xbcc741ab	-0.024323305
245	0xbd57348b	-0.052540343
246	0xbcc8d1da	-0.024514128
247	0x3d127254	0.035753563
248	0x3e16611b	0.1468548
249	0x3d6f97a2	0.058494218
250	0x3d778806	0.060432456
251	0xbe1623cf	-0.14662097
252	0x3cbd3b45	0.023099551
253	0x3cd89eab	0.026442846
254	0x3d97f48b	0.0741969
255	0xbcdf757f	-0.027277706

conv.2.weight_u f4 [64]
0	0x3d6818a0	0.05666411
1	0x3cb93de8	0.022612527
2	0x3bac317f	0.005254924
3	0x3bfc6376	0.0077022864
4	0x3d90ab69	0.07063944
5	0xbd532f2e	-0.051558666
6	0x3c460a6f	0.0120874485
7	0x3c09e6eb	0.008416872
8	0x3e6b8cd6	0.23002943
9	0xbcd026f9	-0.025409209
10	0x3d25e1d3	0.040498566
11	0xbd378346	-0.044802926
12	0xbd49335b	-0.049121242
13	0xbd6ece47	-0.05830219
14	0xbe654a4a	-0.2239162
15	0x3e479f7c	0.19494432
16	0x3cf62f21	0.03005177
17	0x3aa28f22	0.0012402276
18	0xbc873e99	-0.016509341
19	0xbc8b18b4	-0.016979553
20	0xbcc32ed8	-0.023826048
21	0xbd83f09c	-0.06442377
22	0xbd82bfd7	-0.06384247
23	0xbd8ad9f8	-0.067798555
24	0x3dbbd427	0.09171324
25	0xbbc9976e	-0.006152085
26	0xbe057ede	-0.13036677
27	0x3b3168ab	0.0027070444
28	0x3c6ac676	0.014329543
29	0x3d4ffb4c	0.050776765
30	0xbe1c6699	-0.15273513
31	0xbdc2e265	-0.095158376
32	0xb86430db	-5.4404936e-05
33	0xbdbbfe1c	-0.09179327
34	0xbe65859e	-0.22414252
35	0xbd3c2f48	-0.04594353
36	0xbde38d1b	-0.11110898
37	0xbddf4f12	-0.10903753
38	0x3e8ddf1a	0.27709275
39	0xbdc57aad	-0.09642539
40	0x3db152e6	0.0865839
41	0xbdb002c7	-0.0859428
42	0xbd8004aa	-0.062508896
43	0xbd13c176	-0.03607317
44	0x3e483302	0.19550708
45	0xbb577e00	-0.0032881498
46	0x3de8b24e	0.11362134
47	0xbd804689	-0.062634535
48	0xbe50a327	-0.20374738
49	0x3ba30194	0.0049745534
50	0xbde8adbc	-0.11361262
51	0xbef92291	-0.48659185
52	0xbe0b226e	-0.13587353
53	0x3d6495bc	0.05580686
54	0xbd38eebf	-0.04514956
55	0xbe438c18	-0.1909641
56	0xbdd54164	-0.10412863
57	0x3e045ecf	0.12926792
58	0x3e34a8ea	0.1764256
59	0xbe3f7cfa	-0.18700019
60	0x3da9fdc8	0.08300358
61	0x3e5f0ab4	0.21781427
62	0x3df79159	0.1208827
63	0xbd214b1b	-0.039378267

conv.2.weight_v f4 [576]
0	0xb98c8920	-0.00026805047
1	0xbd278f0f	-0.040907916
2	0xbca6df82	-0.020370249
3	0x3d3fc666	0.046820067
4	0x3cf2fc33	0.029661274
5	0x3cd67cf7	0.026182635
6	0x3d2c5fc6	0.042083524
7	0xbd6a0f7e	-0.05714368
8	0x3d8f72fe	0.07004355
9	0x3b832751	0.0040024896
10	0x3b9990a6	0.004686433
11	0x3ceb7712	0.0287433
12	0x3da338b2	0.07969798
13	0x3c5c3cba	0.013442213
14	0xbc48b22a	-0.012249509
15	0x3b67d879	0.003537683
16	0x3d09f05a	0.033676483
17	0x3bfd0937	0.0077220458
18	0x3c7ecb9e	0.015551476
19	0xbcb45b6a	-0.022016246
20	0xbd330018	-0.04370126
21	0xbd138a10	-0.03602034
22	0xbd2aa3d9	-0.041660164
23	0x3d45b65c	0.048269615
24	0xbce7d09e	-0.028297719
25	0xbc994fdf	-0.018714843
26	0x3da5bf82	0.08093168
27	0x3d8095e6	0.06278591
28	0xbcc03880	-0.023464441
29	0x3c6ea198	0.014564894
30	0x3dd56d9c	0.10421297
31	0xbd8b3e20	-0.06798959
32	0x3d1b3e63	0.037901293
33	0x3ce7ba62	0.028287116
34	0x3c117367	0.008877612
35	0x3c06520f	0.008198275
36	0x3c2d6475	0.010583033
37	0xbba9da3d	-0.0051834867
38	0x3cee5d1d	0.029097134
39	0x3d3c12b9	0.045916293
40	0xbc30365c	-0.010755148
41	0xbca06d60	-0.019583404
42	0xbd8db79a	-0.06919785
43	0xbd2e07e4	-0.042487994
44	0xbd1a080e	-0.037605338
45	0xb92857a2	-0.00016054374
46	0x3d0e76cb	0.03478126
47	0xbbb64466	-0.005562353
48	0x3d81dd4e	0.06341039
49	0x3d30d238	0.04316923
50	0x3d67c8f9	0.056588147
51	0x3d243215	0.040086824
52	0xbd8e634c	-0.06952533
53	0x3d95239b	0.07282182
54	0xbb32eac5	-0.0027300578
55	0x3c6a7556	0.014310202
56	0xbd5cad65	-0.0538763
57	0x3b04cdd4	0.0020264285
58	0xbd962188	-0.07330614
59	0x3d1667fa	0.036720254
60	0x3c9f9d6f	0.01948425
61	0xbce95e92	-0.028487477
62	0xbc6ca836	-0.0144444015
63	0xbc0eceb3	-0.008716273
64	0x3d272b17	0.040812578
65	0xbccc53b2	-0.024942253
66	0xbcdf4d96	-0.027258676
67	0x3d1f9760	0.03896272
68	0xbc8d2f9a	-0.017234612
69	0xbcf46d37	-0.029837234
70	0xbc838a49	-0.01605715
71	0xbc8f5da9	-0.017500715
72	0x3d4a669d	0.049414266
73	0x3d2c2399	0.042026136
74	0x3d1c13d4	0.038104847
75	0x3c821c39	0.015882598
76	0x3d6d3e8f	0.05792099
77	0x3d11db73	0.035609674
78	0x3c2428e3	0.010019514
79	0xbd30310b	-0.04301552
80	0x3cb5ed4f	0.022207884
81	0x3d0cf329	0.034411583
82	0xbd45b7fe	-0.04827117
83	0x3ceae9fe	0.02867603
84	0x3d63e07e	0.055634014
85	0x3bde2cee	0.0067802584
86	0xbc6d58ca	-0.014486501
87	0xbd0761f0	-0.033052385
88	0xbcbaf1ca	-0.022820372
89	0x3d7566f4	0.059912637
90	0x3d38ac91	0.045086447
91	0xbd171518	-0.03688535
92	0x3d8fd1b1	0.07022417
93	0xbcf8655f	-0.030321775
94	0x3d670eb8	0.05641052
95	0xbd46b7b5	-0.04851504
96	0xbdaa9435	-0.083290495
97	0xbd22fd6d	-0.039792467
98	0x3ca5637c	0.02018904
99	0xbd4a43e9	-0.04938117
100	0x3cefa0e4	0.029251523
101	0xbb4a7ef1	-0.0030898417
102	0x3c420440	0.011841834
103	0xbd4f1180	-0.0505538
104	0x3cb3ad1f	0.021933137
105	0x3d48e3c0	0.049045324
106	0xbc93a292	-0.018021856
107	0x3c6d0914	0.014467496
108	0x3d3a4194	0.045472696
109	0x3cb12e92	0.021628652
110	0x3baa69ca	0.0052005993
111	0xbce2421f	-0.02761942
112	0xbcdfb43c	-0.027307622
113	0xbd47000c	-0.04858403
114	0xbd394ea8	-0.045241028
115	0xbb6cc935	-0.003613067
116	0x3d366a5a	0.04453502
117	0xbd808002	-0.062744156
118	0xbcd7d6f3	-0.026347613
119	0x3db004db	0.08594676
120	0x3d5ff6d4	0.054678753
121	0x3da8496e	0.082171306
122	0xbc8d35aa	-0.017237503
123	0x3b1f3dc4	0.002429829
124	0x3be891da	0.007097465
125	0x3d1d925d	0.03846966
126	0xb9dee6ab	-0.00042515
127	0x3d44aca0	0.04801619
128	0xbcf65779	-0.030071007
129	0xbc7ea84d	-0.015543056
130	0x3d8b47ec	0.068008274
131	0xbc428646	-0.011872834
132	0x3d28698b	0.04111628
133	0xbc9f71ad	-0.019463385
134	0xbc94d744	-0.018169053
135	0x3c9f4476	0.019441824
136	0x3cd96dfc	0.026541702
137	0xbd0a5450	-0.033771813
138	0x3d7923c0	0.06082511
139	0xbd1c8d67	-0.03822079
140	0xbd941736	-0.0723099
141	0xbd410ebe	-0.0471332
142	0x3d01ba1d	0.031671632
143	0x3c937540	0.018000245
144	0x3d58ddec	0.052946016
145	0x3d8e5bc0	0.06951094
146	0xb9eeeff8	-0.00045573688
147	0x3d47e11a	0.048798658
148	0xbcfe1f6d	-0.031020844
149	0x3d4120ca	0.04715041
150	0x3bd82970	0.0065967366
151	0x3d9e3e84	0.07726768
152	0x3b0eacdd	0.0021770515
153	0x3d577870	0.052605093
154	0x3d15b644	0.036550775
155	0xbd14d353	-0.036334347
156	0x3dbf3372	0.09335984
157	0xbb26eba9	-0.0025470054
158	0x3d817675	0.06321422
159	0xbba5a36f	-0.005054883
160	0xbdc0a748	-0.09406906
161	0x3d011d3b	0.031522017
162	0x3ce8efe3	0.0284347
163	0xbd2a89ea	-0.04163543
164	0xbd27ab51	-0.040934864
165	0x3baeb1ab	0.0053312383
166	0xbd084acb	-0.033274453
167	0x3cec4b61	0.028844537
168	0x3bf390f9	0.0074330536
169	0xbc4f32e1	-0.012646408
170	0xbd3c0f3f	-0.045912977
171	0x3d3b1e87	0.04568341
172	0xbd9bc629	-0.076061554
173	0x3c8b526f	0.01700708
174	0xbd5c9299	-0.053850744
175	0x3d37c60b	0.044866603
176	0x3ac748d9	0.0015204205
177	0xbd2b421b	-0.04181109
178	0x3d382eda	0.044966556
179	0x3d62d804	0.05538179
180	0xbdac8363	-0.084234975
181	0xbd29767d	-0.041372765
182	0xbcaeb159	-0.0213248
183	0x3b78a024	0.0037937248
184	0xbca6d825	-0.020366738
185	0x3bfabb85	0.0076517486
186	0x3c27533b	0.010212715
187	0xbdea8c03	-0.11452486
188	0xbd627eee	-0.05529683
189	0x3cf5f6a8	0.030024841
190	0x3cf7f594	0.030268468
191	0x3d8514be	0.06498097
192	0x3c9f076b	0.019412717
193	0x3c82842b	0.015932163
194	0x3bf8c9e5	0.007592427
195	0x3d49c173	0.049256753
196	0x3d998422	0.074959055
197	0x3c487d9a	0.012236977
198	0x3d983a74	0.07433024
199	0xbd55a850	-0.05216247
200	0x3d13d181	0.03608847
201	0x3dc45435	0.09586374
202	0x3d938dbe	0.072047696
203	0x3c7b5621	0.015340359
204	0x3d04c67b	0.03241585
205	0x3c48057d	0.01220834
206	0xbaaf68cc	-0.0013382672
207	0xb9778737	-0.00023606127
208	0x3cf2e66d	0.029650891
209	0x3c2e41ef	0.010635837
210	0xbce0886e	-0.027408805
211	0xbb8a37f8	-0.004218098
212	0x3d76875a	0.060187675
213	0x3d03fd24	0.032223836
214	0xbc464fd4	-0.012103993
215	0x3c71a1a2	0.014748009
216	0xbd0ac2dc	-0.03387724
217	0x3b39555a	0.0028279633
218	0x3d909b1f	0.07060837
219	0x3d56dd60	0.052457213
220	0x3d98dd2a	0.07464059
221	0xbcbc43ea	-0.022981603
222	0xbd281d0d	-0.04104333
223	0x3d087bfe	0.033321373
224	0x3c951a05	0.018200884
225	0x3c9fd5f8	0.019511208
226	0xbcbd5284	-0.023110636
227	0x3c986afb	0.0186057
228	0xbdb6f469	-0.08933336
229	0x3c3ff8e1	0.011717052
230	0x3bba7693	0.0056904047
231	0xbc448680	-0.011994958
232	0x3d8aac44	0.06771138
233	0xbd442d3e	-0.04789471
234	0x3cb8591c	0.022503428
235	0x3d9de0f9	0.07708926
236	0x3d1af2cd	0.03782921
237	0xbc82b6cd	-0.015956307
238	0x3d373226	0.04472556
239	0x3ccf6d7d	0.025320763
240	0x3d324833	0.043525886
241	0xbbe3cce7	-0.0069519165
242	0xbcf7ec5d	-0.030264074
243	0xbcdfc8bc	-0.027317397
244	0x3dc71431	0.09720648
245	0xbc8248ca	-0.01590385
246	0xbd2d9129	-0.042374764
247	0xbd15f7fe	-0.036613457
248	0xbcdf1094	-0.027229585
249	0x3c71ef84	0.014766578
250	0x3ce3746b	0.027765473
251	0xbc69cb64	-0.0142696835
252	0xbadde17e	-0.0016928164
253	0x3cabf653	0.02099148
254	0xbc83e870	-0.016102046
255	0xbcf3eb65	-0.02977533

w.M2MM f4 [1, 64, 32, 32]
0	0x3f85d026	1.0454147
1	0x3f82d26d	1.0220467
2	0x3f7cfd3c	0.98823905
3	0x3f75f0c6	0.96070516
4	0x3f63a88e	0.8892907
5	0x3f510d98	0.8166137
6	0x3f7ab118	0.97926474
7	0x3f7ad6f4	0.9798424
8	0x3f80d63e	1.0065382
9	0x3f818af9	1.0120536
10	0x3f784652	0.969823
11	0x3f77a49d	0.96735555
12	0x3f823e18	1.01752
13	0x3f75ef64	0.96068406
14	0x3f6cff69	0.92577225
15	0x3f66a3e3	0.9009382
16	0x3f678150	0.9043169
17	0x3f5947b8	0.8487506
18	0x3f630c84	0.8869097
19	0x3f5ae4be	0.8550528
20	0x3f67c364	0.9053252
21	0x3f73acc3	0.9518549
22	0x3f74b80f	0.9559335
23	0x3f738aa2	0.9513341
24	0x3f6cfd67	0.9257416
25	0x3f7064ef	0.9390401
26	0x3f809438	1.0045233
27	0x3f83c598	1.0294676
28	0x3f7775ec	0.9666431
29	0x3f7cbb3a	0.98723185
30	0x3f773399	0.96563107
31	0x3f845c2b	1.0340627
32	0x3f83e2f5	1.0303637
33	0x3f8010a8	1.0005083
34	0x3f79e053	0.97607917
35	0x3f809070	1.0044079
36	0x3f7ff95d	0.99989873
37	0x3f7f76a5	0.9979041
38	0x3f82c6c3	1.0216907
39	0x3f81d792	1.0143912
40	0x3f822882	1.0168612
41	0x3f802865	1.0012327
42	0x3f828d99	1.0199462
43	0x3f80eb2f	1.0071772
44	0x3f80cead	1.0063072
45	0x3f7fd9c3	0.99941653
46	0x3f805e55	1.0028788
47	0x3f7e0e7a	0.9924084
48	0x3f7a7a8d	0.9784325
49	0x3f77edb0	0.9684706
50	0x3f7a9055	0.97876483
51	0x3f7cf63a	0.9881321
52	0x3f7d722c	0.9900234
53	0x3f7caf48	0.9870496
54	0x3f80158f	1.0006579
55	0x3f814463	1.0098995
56	0x3f81068b	1.0080122
57	0x3f7ec5c2	0.99520504
58	0x3f7fd45a	0.999334
59	0x3f8152f9	1.0103446
60	0x3f7ed822	0.9954854
61	0x3f7b1a83	0.9808733
62	0x3f75df98	0.960443
63	0x3f82ebdb	1.0228227
64	0x3f821647	1.0163049
65	0x3f812337	1.0088872
66	0x3f79f433	0.97638243
67	0x3f74e481	0.9566117
68	0x3f77f5c3	0.9685938
69	0x3f784d70	0.9699316
70	0x3f7ccbbc	0.98748374
71	0x3f7fb550	0.99886036
72	0x3f785cd1	0.97016627
73	0x3f6ae7b0	0.9175978
74	0x3f792714	0.97325253
75	0x3f761e95	0.96140414
76	0x3f7ec131	0.99513537
77	0x3f71c5fa	0.94442713
78	0x3f7fb467	0.9988465
79	0x3f7a47ce	0.97765815
80	0x3f7fb3ed	0.9988392
81	0x3f768af7	0.96305794
82	0x3f7ee06d	0.99561197
83	0x3f7d37a8	0.9891305
84	0x3f7c17db	0.984739
85	0x3f79ced3	0.97581214
86	0x3f74a70f	0.9556741
87	0x3f722d38	0.9460025
88	0x3f78826f	0.97074026
89	0x3f7167f0	0.9429922
90	0x3f7be41d	0.9839495
91	0x3f80a095	1.0049006
92	0x3f77ae24	0.9675009
93	0x3f78dd6e	0.97212875
94	0x3f6ab97d	0.9168928
95	0x3f7efb34	0.99602056
96	0x3f82eae1	1.0227929
97	0x3f810636	1.008002
98	0x3f7c6277	0.98587745
99	0x3f73e7ca	0.9527556
100	0x3f726d81	0.9469834
101	0x3f798ebb	0.97483414
102	0x3f736516	0.9507612
103	0x3f6a7532	0.91585076
104	0x3f640879	0.8907543
105	0x3f6e540e	0.9309701
106	0x3f600c8a	0.87519133
107	0x3f65e571	0.89803225
108	0x3f6c045e	0.92194164
109	0x3f6cd78d	0.92516404
110	0x3f71eea8	0.94504786
111	0x3f78a009	0.97119194
112	0x3f81c572	1.013838
113	0x3f8053c2	1.0025561
114	0x3f810d0f	1.008211
115	0x3f7bf03f	0.9841346
116	0x3f7cd7f2	0.98767006
117	0x3f776bfd	0.9664915
118	0x3f7a5e6e	0.9780034
119	0x3f6ff2a8	0.9372964
120	0x3f62e3a9	0.8862863
121	0x3f599251	0.84988886
122	0x3f64b7ae	0.8934277
123	0x3f76cfce	0.96410835
124	0x3f77e6d4	0.9683659
125	0x3f817aca	1.0115597
126	0x3f64f888	0.8944173
127	0x3f7d6fb5	0.98998576
128	0x3f823e46	1.0175254
129	0x3f814b43	1.0101093
130	0x3f66339b	0.89922494
131	0x3f7f041d	0.9961565
132	0x3f803e4c	1.0019011
133	0x3f7fc524	0.9991019
134	0x3f7e1e9e	0.9926547
135	0x3f7dfb15	0.99211246
136	0x3f7fa210	0.9985666
137	0x3f79b129	0.9753595
138	0x3f78cdde	0.9718913
139	0x3f708403	0.93951434
140	0x3f7b9ada	0.9828316
141	0x3f7c8768	0.98644114
142	0x3f757785	0.958855
143	0x3f77c6ae	0.96787536
144	0x3f7e4560	0.9932461
145	0x3f7adacb	0.979901
146	0x3f7a9d49	0.9789625
147	0x3f70601a	0.9389664
148	0x3f68a7b6	0.90880907
149	0x3f72c43c	0.9483068
150	0x3f6e73c5	0.931454
151	0x3f631b0a	0.88713133
152	0x3f680ebe	0.90647495
153	0x3f68b582	0.9090196
154	0x3f760019	0.960939
155	0x3f7f52be	0.9973563
156	0x3f7e212c	0.99269366
157	0x3f8225c3	1.0167774
158	0x3f6efc84	0.9335406
159	0x3f7acdd6	0.9797033
160	0x3f8397ab	1.028066
161	0x3f81ee01	1.0150758
162	0x3f6cbd95	0.9247678
163	0x3f7e44db	0.99323815
164	0x3f8018d0	1.0007572
165	0x3f7f69f6	0.9977106
166	0x3f7cb054	0.98706555
167	0x3f7bbe93	0.9833767
168	0x3f77f6aa	0.96860754
169	0x3f773d42	0.96577847
170	0x3f6cac62	0.92450535
171	0x3f71e877	0.9449534
172	0x3f654f8c	0.89574504
173	0x3f6bfbdf	0.921812
174	0x3f77f417	0.96856827
175	0x3f7aa5c8	0.9790921
176	0x3f7b6791	0.98204905
177	0x3f801677	1.0006856
178	0x3f6f951e	0.9358691
179	0x3f6fe317	0.93705887
180	0x3f74b3f2	0.95587075
181	0x3f6cd70c	0.92515635
182	0x3f6fbb7c	0.93645453
183	0x3f680492	0.90631974
184	0x3f72132e	0.94560516
185	0x3f7604e5	0.9610122
186	0x3f6ff96a	0.9373995
187	0x3f7da7cf	0.9908418
188	0x3f7c7fac	0.9863231
189	0x3f8059b9	1.0027381
190	0x3f6e121d	0.9299639
191	0x3f7a6887	0.97815746
192	0x3f82b155	1.0210367
193	0x3f81e591	1.0148183
194	0x3f61beca	0.88181746
195	0x3f806ed6	1.0033824
196	0x3f7f15a6	0.9964241
197	0x3f80443e	1.0020826
198	0x3f7ef1f0	0.9958792
199	0x3f79d852	0.97595704
200	0x3f799e7b	0.97507447
201	0x3f7785af	0.9668836
202	0x3f626bc5	0.88445693
203	0x3f748275	0.9551156
204	0x3f73be07	0.95211834
205	0x3f76f29b	0.96463937
206	0x3f77906b	0.9670474
207	0x3f6c1f72	0.9223548
208	0x3f733326	0.9499992
209	0x3f7c3532	0.9851867
210	0x3f71eb8a	0.9450003
211	0x3f79d012	0.97583115
212	0x3f7753dd	0.9661234
213	0x3f702e53	0.93820685
214	0x3f783a16	0.9696363
215	0x3f7320ca	0.9497191
216	0x3f6c5868	0.923224
217	0x3f73671a	0.95079195
218	0x3f72c00e	0.948243
219	0x3f7d10b3	0.98853606
220	0x3f789a48	0.97110415
221	0x3f7db6f5	0.99107295
222	0x3f58bd09	0.84663445
223	0x3f7bd8be	0.983776
224	0x3f830596	1.023608
225	0x3f81bdbf	1.0136031
226	0x3f482992	0.7818843
227	0x3f7a9e52	0.9789783
228	0x3f7fb590	0.9988642
229	0x3f801253	1.0005592
230	0x3f7db564	0.99104905
231	0x3f7c9b19	0.9867416
232	0x3f723104	0.9460604
233	0x3f7b8042	0.9824258
234	0x3f77cde8	0.96798563
235	0x3f791616	0.97299325
236	0x3f6fba3d	0.9364355
237	0x3f74533e	0.9543952
238	0x3f6dd2e1	0.928999
239	0x3f6f811a	0.9355637
240	0x3f768473	0.9629585
241	0x3f77847d	0.96686536
242	0x3f7a84f9	0.9785915
243	0x3f7b6d74	0.9821389
244	0x3f7a81f9	0.9785457
245	0x3f76fb73	0.9647743
246	0x3f667f82	0.9003831
247	0x3f76c101	0.9638825
248	0x3f70bc75	0.9403756
249	0x3f6c503b	0.9230992
250	0x3f4e3d71	0.805625
251	0x3f7aff9f	0.98046297
252	0x3f7bb7bd	0.9832724
253	0x3f7d6b87	0.989922
254	0x3f472fd2	0.77807343
255	0x3f750455	0.95709735

w.MM2M f4 [1, 64, 32, 32]
0	0x3f6c6bf5	0.9235223
1	0x3f7a6f5b	0.97826165
2	0x3f6920c4	0.9106562
3	0x3f50164f	0.8128404
4	0x3f45f388	0.77324724
5	0x3f512e7f	0.8171157
6	0x3f5c5f09	0.8608251
7	0x3f5e5bf8	0.86859083
8	0x3f5eb133	0.86989135
9	0x3f618402	0.8809205
10	0x3f618eb0	0.8810835
11	0x3f635028	0.88794184
12	0x3f5e8ad6	0.86930597
13	0x3f5d1781	0.8636399
14	0x3f5a4b73	0.85271376
15	0x3f6683b2	0.900447
16	0x3f69d73d	0.9134405
17	0x3f63e22c	0.89016986
18	0x3f5f7158	0.87282324
19	0x3f5ec8e8	0.8702531
20	0x3f5acba1	0.85466963
21	0x3f64660f	0.8921823
22	0x3f691e26	0.9106163
23	0x3f69bd52	0.91304505
24	0x3f6b846b	0.9199893
25	0x3f688f71	0.90843874
26	0x3f6a3a7e	0.914955
27	0x3f611480	0.87921906
28	0x3f5e571d	0.86851674
29	0x3f71d4bd	0.9446524
30	0x3f3d1062	0.73853123
31	0x3f78d893	0.97205466
32	0x3f641ea9	0.89109284
33	0x3f7c28fc	0.9850004
34	0x3f699b19	0.91252285
35	0x3f68821e	0.90823543
36	0x3f6ddf80	0.9291916
37	0x3f706108	0.9389806
38	0x3f724fae	0.9465283
39	0x3f72d030	0.9484892
40	0x3f6e18da	0.9300667
41	0x3f6f89dd	0.9356974
42	0x3f6fe532	0.937091
43	0x3f6d193b	0.92616624
44	0x3f7156a7	0.94272846
45	0x3f6fa646	0.9361309
46	0x3f713194	0.94216275
47	0x3f754492	0.95807755
48	0x3f76c35a	0.9639183
49	0x3f7ad851	0.9798632
50	0x3f7de96c	0.991843
51	0x3f80de16	1.0067775
52	0x3f798c28	0.97479486
53	0x3f7d3afb	0.9891812
54	0x3f7c3098	0.9851165
55	0x3f7d3f72	0.98924935
56	0x3f754373	0.95806044
57	0x3f7160a6	0.942881
58	0x3f6f66a1	0.93515974
59	0x3f6c28e5	0.922499
60	0x3f684032	0.90722954
61	0x3f7726c0	0.965435
62	0x3f628dda	0.884977
63	0x3f7d6bcf	0.9899263
64	0x3f7a0633	0.9766571
65	0x3f7d3870	0.9891424
66	0x3f70b6f8	0.9402919
67	0x3f66f60c	0.9021919
68	0x3f70de41	0.9408913
69	0x3f748e5c	0.95529723
70	0x3f704b39	0.9386478
71	0x3f695135	0.9113954
72	0x3f615037	0.88013023
73	0x3f5c5e77	0.8608164
74	0x3f60aae5	0.87760764
75	0x3f64fee4	0.8945143
76	0x3f6c118e	0.92214286
77	0x3f66686d	0.9000309
78	0x3f674fe2	0.90356266
79	0x3f73bae2	0.95207036
80	0x3f6aca87	0.9171528
81	0x3f7067b4	0.9390824
82	0x3f673a10	0.9032297
83	0x3f7476d1	0.954938
84	0x3f6e9d0a	0.9320837
85	0x3f746f01	0.9548188
86	0x3f6f9d9c	0.9359987
87	0x3f6faf04	0.9362643
88	0x3f727c1d	0.9472063
89	0x3f613bba	0.8798176
90	0x3f6e6f4c	0.93138576
91	0x3f73343a	0.95001566
92	0x3f721161	0.9455777
93	0x3f6c690a	0.92347777
94	0x3f518c3d	0.8185461
95	0x3f7dd8a4	0.9915869
96	0x3f7a39f7	0.977447
97	0x3f7f23f6	0.9966425
98	0x3f7604f7	0.96101326
99	0x3f5d195b	0.86366814
100	0x3f3f377f	0.74694055
101	0x3f495f56	0.78661096
102	0x3f51bc95	0.8192838
103	0x3f377de2	0.71676457
104	0x3f3ab33f	0.7292976
105	0x3f47adba	0.7799946
106	0x3f407dff	0.75192255
107	0x3f52fc81	0.8241654
108	0x3f5725e1	0.84042174
109	0x3f5f05be	0.87118137
110	0x3f589ab6	0.8461107
111	0x3f69ff55	0.9140523
112	0x3f6299c1	0.8851586
113	0x3f694f64	0.91136765
114	0x3f71c63c	0.94443107
115	0x3f818b5b	1.0120653
116	0x3f832272	1.0244887
117	0x3f743653	0.9539539
118	0x3f734b35	0.9503663
119	0x3f73d1eb	0.95242184
120	0x3f66bc39	0.90130955
121	0x3f4edbf9	0.808044
122	0x3f50230f	0.81303495
123	0x3f5de3af	0.8667554
124	0x3f692f61	0.9108792
125	0x3f686a9a	0.9078766
126	0x3f4d1402	0.80108654
127	0x3f76f428	0.964663
128	0x3f78aeec	0.9714191
129	0x3f7f91a2	0.99831593
130	0x3f33c226	0.7021812
131	0x3f6e1e5e	0.93015087
132	0x3f76eaff	0.96452326
133	0x3f6ffb1b	0.9374253
134	0x3f64edef	0.8942556
135	0x3f69c55d	0.9131678
136	0x3f6ce2cb	0.9253356
137	0x3f5eeb94	0.87078214
138	0x3f60e83e	0.87854373
139	0x3f63c038	0.8896518
140	0x3f6bb443	0.9207193
141	0x3f6c1139	0.9221378
142	0x3f6e44e0	0.93073845
143	0x3f765ba1	0.96233565
144	0x3f70ceae	0.9406537
145	0x3f7373fb	0.9509885
146	0x3f6f0194	0.93361783
147	0x3f7bc2ee	0.98344314
148	0x3f7fddd4	0.9994786
149	0x3f737f2c	0.95115924
150	0x3f74a2fe	0.95561206
151	0x3f6da8ee	0.9283589
152	0x3f701a23	0.9378988
153	0x3f623137	0.88356346
154	0x3f66e756	0.9019674
155	0x3f653c33	0.8954498
156	0x3f747952	0.9549762
157	0x3f79e2a3	0.97611445
158	0x3f568f5b	0.83812493
159	0x3f7a1abb	0.9769704
160	0x3f781fef	0.96923727
161	0x3f7f2227	0.9966149
162	0x3f479ac2	0.77970517
163	0x3f5cd7c8	0.86266756
164	0x3f705671	0.938819
165	0x3f68de4d	0.90964204
166	0x3f631297	0.8870024
167	0x3f4e7ab3	0.80655974
168	0x3f5b98c6	0.8577999
169	0x3f60a0b8	0.8774524
170	0x3f5a5189	0.8528066
171	0x3f5f6d45	0.8727611
172	0x3f6aebdb	0.91766137
173	0x3f73d511	0.9524699
174	0x3f73d75a	0.95250475
175	0x3f80cfd4	1.0063424
176	0x3f812357	1.008891
177	0x3f86105a	1.047374
178	0x3f84140d	1.0318619
179	0x3f84d470	1.0377331
180	0x3f82bc49	1.021371
181	0x3f7a38fa	0.9774319
182	0x3f7931fe	0.9734191
183	0x3f770288	0.9648824
184	0x3f70c38a	0.9404837
185	0x3f60a477	0.87750953
186	0x3f643475	0.89142543
187	0x3f673bab	0.9032542
188	0x3f6dbce9	0.9286638
189	0x3f6ffb4c	0.93742824
190	0x3f2aa00b	0.66650456
191	0x3f7b4014	0.9814465
192	0x3f78564b	0.9700667
193	0x3f7ef427	0.99591297
194	0x3f27c039	0.65527683
195	0x3f5d3e2f	0.8642301
196	0x3f6ca0cf	0.92432874
197	0x3f71ec01	0.9450074
198	0x3f5af024	0.85522676
199	0x3f476e52	0.7790271
200	0x3f560d88	0.836144
201	0x3f5c225c	0.8598993
202	0x3f672281	0.90287024
203	0x3f648968	0.89272165
204	0x3f7491ce	0.9553498
205	0x3f74084e	0.9532517
206	0x3f7af1f1	0.98025423
207	0x3f7f8016	0.9980482
208	0x3f7e4bc4	0.9933436
209	0x3f8123c4	1.008904
210	0x3f81c058	1.0136824
211	0x3f804617	1.002139
212	0x3f7ab48f	0.9793176
213	0x3f75d818	0.9603286
214	0x3f77f1d8	0.968534
215	0x3f78fcb5	0.972606
216	0x3f6be03d	0.92139035
217	0x3f65e7d6	0.8980688
218	0x3f5b70a7	0.8571877
219	0x3f658df5	0.89669734
220	0x3f65651d	0.8960741
221	0x3f661794	0.8987973
222	0x3f0f9875	0.56092006
223	0x3f7939ac	0.97353625
224	0x3f78a642	0.9712869
225	0x3f7ebcf1	0.9950705
226	0x3f1f59fc	0.6224668
227	0x3f59bd4c	0.8505447
228	0x3f6cb016	0.92456186
229	0x3f6e3e83	0.93064135
230	0x3f5a115a	0.85182726
231	0x3f4e0aa8	0.8048501
232	0x3f55aa6a	0.83463156
233	0x3f63e112	0.89015305
234	0x3f6fd4b0	0.9368391
235	0x3f72a009	0.94775444
236	0x3f7b50bf	0.98170084
237	0x3f808278	1.0039816
238	0x3f801208	1.0005503
239	0x3f8009b8	1.0002966
240	0x3f743351	0.953908
241	0x3f7c01b7	0.98440117
242	0x3f7db026	0.99096906
243	0x3f817b75	1.0115801
244	0x3f78caf3	0.97184676
245	0x3f796e75	0.9743417
246	0x3f74c9a5	0.95620185
247	0x3f71a3db	0.9439065
248	0x3f72b4a7	0.94806904
249	0x3f6b3559	0.9187828
250	0x3f5a6cfa	0.85322535
251	0x3f5ca950	0.8619585
252	0x3f5e005b	0.8671929
253	0x3f605bcd	0.87640077
254	0x3f5b22fe	0.8560027
255	0x3f740717	0.9532332
