checkpoint/clf/experiment_name/1000/netE.pth (torch, 241318 bytes, 33 tensors)

model.0.weight f4 [32, 3, 4, 4]
000000 91 7a 24 be 3c 35 20 3d 50 4c 8d bd 02 2c 93 3b
       -0.1606238 0.03911327 -0.06899321 0.00449133
000010 3c 09 e5 bd 1f 58 70 3c e6 a8 41 bd ff 3c 33 bc
       -0.11183402 0.014669447 -0.047280215 -0.010939836
000020 1a 2e 05 3c 4b 45 9d 3b 23 a3 77 3d 8b 84 57 bd
       0.008128667 0.00479952 0.060458314 -0.052616637
000030 88 e6 93 bd 09 e9 66 bd 59 69 2b bd d4 d0 92 3c
       -0.07221705 -0.056374583 -0.041848514 0.017921843
000040 38 ac 26 3d c6 9a ba bd d6 c4 de 3d ac 53 0b 3d
       0.040691584 -0.09111552 0.10877387 0.034015343
000050 20 d7 53 bd 47 2d 39 bd 76 4c 2b be 0b 80 a1 bd
       -0.05171883 -0.045209195 -0.16728386 -0.078857504
000060 d5 97 28 bb 95 4a 71 3d 64 d9 9c 3d 06 69 03 3e
       -0.0025725265 0.058909018 0.076586515 0.12833032
000070 b7 c7 88 bb 21 f0 5a 3d 8e 87 bf bc e2 6d 31 bc
       -0.0041741985 0.05345166 -0.023380067 -0.010829421
000080 c3 13 d6 bd d0 95 e2 bd 74 41 1e bd 23 fa 9f 3a
       -0.10452988 -0.11063731 -0.03863664 0.0012205284
000090 80 bf 29 be 11 77 a8 bc 8a 66 16 3d b0 86 b1 bc
       -0.16576958 -0.020564588 0.036718883 -0.02167067
0000a0 24 2e 69 bd a5 71 1b 3d 58 32 1f 3c a5 71 2f bd
       -0.05692877 0.037950177 0.009716593 -0.04283299
0000b0 b0 ee 83 bd 24 86 8d bd 16 e2 68 bd a2 df 82 bd
       -0.064420104 -0.06910351 -0.056856237 -0.06390311
0000c0 ab b5 3a bd d8 f0 56 3d ca 28 9e 3d cd 70 89 bd
       -0.04558341 0.05247578 0.07722624 -0.06710968
0000d0 47 96 ef 3d 37 80 9e 3c 80 0f cd 3c c2 a6 66 3d
       0.11698585 0.019348247 0.025031805 0.056311376
0000e0 1a ce 7e 3d 50 76 c7 bc 5c 86 45 bd 71 0e 68 3d
       0.062208273 -0.024348408 -0.04822384 0.056654397
0000f0 1a 9d 7f bc 23 d0 31 3d 7a 30 a0 3d 59 90 d4 3c
       -0.015601421 0.043411385 0.07821746 0.025947737
000100 73 4f cf bd 5d d1 11 bc bc 29 b6 bd 82 ba ce 3c
       -0.101225756 -0.008900014 -0.08894679 0.025235418
000110 cc cd 84 bd 33 8e 9a bc 91 50 5d 3a 11 c4 7b bd
       -0.06484565 -0.018866634 0.0008442486 -0.06146628
000120 16 ef 89 3d ea 3b b7 3a 99 c9 dc bc 9c ad 07 3d
       0.06735055 0.0013979648 -0.026951598 0.03312455
000130 da bb 3f bd 08 1e 98 bd 8d 5c 44 bd be 11 be 3c
       -0.04681001 -0.07427603 -0.047939826 0.02320182
000140 40 83 cc bd 43 5c 7c bd 42 a4 b3 bd f2 d4 d4 3c
       -0.099859715 -0.061611425 -0.08771564 0.025980446
000150 a9 b0 9b 3d 23 c6 83 bd 7b 21 25 3e 71 cb 91 3d
       0.076020546 -0.06434276 0.16126053 0.071188815
000160 48 70 00 3d 21 b4 84 bd 76 a8 e5 bc 72 9b 1e 3d
       0.03135708 -0.06479669 -0.02803443 0.038722463
000170 64 94 fa 3d f6 6c 7f 3d ae 1b 98 3d e2 d2 c0 39
       0.122353345 0.062359773 0.074271545 0.00036778214
000180 b3 ae bf bd 89 9e ad 3c 82 b5 97 3d 3e 48 f4 bd
       -0.09359493 0.02119376 0.07407667 -0.119278416
000190 df e9 02 bd 93 f3 b3 3c 5f 44 fc bc 5d 06 a3 3d
       -0.031961318 0.021966731 -0.03079432 0.07960198
0001a0 48 7c a4 bd 57 f8 11 bd 84 16 8a bd 1c 03 22 be
       -0.08031517 -0.035637226 -0.06742576 -0.15821499
0001b0 3c e0 51 3d aa 92 dd bd 6a 1a 16 3d 3a c5 d0 3b
       0.051239237 -0.108189896 0.036646284 0.0063711675
0001c0 41 51 c2 bd 2b 8d 63 3c de 33 c7 3d d2 b4 b2 3d
       -0.09488154 0.013888638 0.0972669 0.08725895
0001d0 2c 4a 95 3c 4d 45 d2 3d c0 2a 69 3c 9e 7d 17 3d
       0.018223844 0.10267124 0.014231384 0.036985032
0001e0 51 2b 02 bd a4 3f 3c 3d c4 d8 5c bd 1a a9 0c 3d
       -0.03177959 0.04595913 -0.05391766 0.034340955
0001f0 13 2d d5 bd 03 f9 90 bc 07 17 39 3c d9 d7 4c 3b
       -0.10408988 -0.017696863 0.011296994 0.0031256585
000200 38 09 70 3d 8b 92 41 bd 07 08 a9 ba 4c cc f3 bb
       0.05860254 -0.047258895 -0.0012896069 -0.0074401256
000210 71 dc 0d bd b0 0d 5d 3d 4e e9 c9 bd e1 1c 86 3d
       -0.034634057 0.05396813 -0.098589525 0.06548477
000220 ac a6 16 3c ec 3d 59 bd 91 9e 54 ba 04 f1 d5 3d
       0.009195011 -0.05303757 -0.00081107864 0.10446361
000230 11 31 0a 3a d7 a9 43 bd ad 44 8b bd b8 63 39 3d
       0.00052715937 -0.047769394 -0.06800208 0.045261115
000240 27 60 90 3d c3 ea 8f 3c 45 56 9c bd e1 a4 73 bb
       0.070495896 0.017567998 -0.07633642 -0.0037177133
000250 c5 06 04 be 9a b7 9f bd 80 38 39 bd 8c 1a 38 3c
       -0.12893207 -0.07798691 -0.0452199 0.011236798
000260 e0 77 07 bd 5a 2f 8c 3d 25 0c 85 bd 71 07 5e 3d
       -0.033073306 0.06844969 -0.06496457 0.054206315
000270 ca e9 43 bd 1d 7d 43 bc 02 a5 63 bc 28 0a dd 3c
       -0.04783038 -0.011931685 -0.013894321 0.026982382
000280 fb 46 57 3c d9 fe 50 bd de e2 43 3b f5 b8 d5 3c
       0.013139482 -0.05102429 0.0029889862 0.026089171
000290 5f a6 e3 3b 40 68 cc 3b 8f a4 22 3d b2 e3 d5 bb
       0.006947323 0.0062380135 0.039707717 -0.0065273875
0002a0 0e f4 88 3c aa 06 4b bd 3a f8 ab 3d 98 88 e0 3d
       0.016717937 -0.049566902 0.08396955 0.10963553
0002b0 83 d6 f9 bd ba 3d 58 bc 39 e7 e5 3d 13 30 0e bd
       -0.12199118 -0.0131983105 0.11225743 -0.034713816
0002c0 f3 10 c3 bd 23 37 b3 bd 98 52 56 bc e3 8d c4 3d
       -0.09524717 -0.08750751 -0.013081215 0.09597375
0002d0 2e dc 26 bd 36 0e ce 3d ca ef 54 bd 41 58 ca 3d
       -0.040737323 0.10061304 -0.051986493 0.09880114
0002e0 8f 15 a1 3d c8 11 aa 3c 27 0c 1a bd b8 0c b6 3b
       0.0786544 0.020760432 -0.037609246 0.0055557154
0002f0 b7 b2 7b 3d 7a cf 61 3b ea a5 95 3d 41 b0 40 3b
       0.061449733 0.003445594 0.07307036 0.002940193
000300 3b 9f 82 3d 58 71 43 bd 87 f5 d3 bc ad 53 95 3c
       0.06378027 -0.047715515 -0.025873912 0.018228376
000310 7f 97 48 3d 86 7f e9 bc 93 f4 8a bd e0 7d 5c 3c
       0.048972603 -0.02850319 -0.0678493 0.013457745
000320 4a bc b5 3d 00 e5 85 bc 7e eb 5d 3d 6e 58 5e 3c
       0.08873804 -0.016344547 0.05417966 0.013570888
000330 35 c9 e6 3c ca 9f 64 3c 6b 1a 81 bc 24 ea e1 bc
       0.028172115 0.013954112 -0.015759667 -0.027577467
000340 a1 a9 a4 3d df ff 6a bd 5b 07 43 bd 20 12 02 3e
       0.08040167 -0.057372924 -0.047614437 0.12702227
000350 5b 8c 87 3d 68 ce cd bd ed 3b 10 be 1f 59 31 bd
       0.066185676 -0.100491345 -0.1408536 -0.043297883
000360 9c 97 db 3d a0 2f 97 3d 43 ae 43 bb 2e 84 8f 3c
       0.107222766 0.073821306 -0.0029858507 0.017519083
000370 54 8b 25 3c c7 c0 d4 bd aa 22 d4 bd d3 f7 7d 3d
       0.010104019 -0.10388332 -0.10358174 0.06200392
000380 6e e5 8e 3d 6c 93 e3 bb fc c5 29 3c d6 75 62 bc
       0.06977354 -0.0069450643 0.010362145 -0.01382204
000390 3c bd 4f 3d f8 a9 18 bd eb 04 38 3d 6e 43 01 3d
       0.050717577 -0.03727147 0.044926565 0.031558447
0003a0 db 3c fd 3c f5 83 39 3c 28 09 20 bd dc 37 1d be
       0.030912807 0.011322965 -0.039071232 -0.1535334
0003b0 df 32 0a 3d b4 20 91 ba a6 0d c4 3c ec 15 ba bd
       0.03373992 -0.0011072368 0.02393229 -0.090862125
0003c0 2e ec cb 3d b4 af 1f bd 7c 96 c1 bc af 05 05 be
       0.09957157 -0.038985923 -0.023631327 -0.1299045
0003d0 7f 61 02 3d 59 b0 5c bd aa 19 50 3c cb 92 e4 3c
       0.03183126 -0.053879116 0.012701431 0.027902028
0003e0 1f 35 cb bc 35 a6 e3 3b 41 51 80 3d 93 26 c9 3c
       -0.024805604 0.0069473037 0.06265498 0.024554526
0003f0 b2 2d 6f bc 1a 14 7f bd 40 9b bc 3b c2 42 39 bd
       -0.014598297 -0.06227503 0.005755812 -0.04522968

model.0.bias f4 [32]
000000 16 cc b7 38 cf b7 23 ba 0b 35 64 b8 28 b7 2d 3a
       8.764134e-05 -0.0006245346 -5.4408836e-05 0.00066267187
000010 07 64 01 ba 90 1c e1 ba 0b 78 16 39 d6 ea 34 3a
       -0.00049358647 -0.001717465 0.00014349834 0.00069014484
000020 11 09 51 ba 9a 25 aa ba 81 8a fc 3a 4c 07 aa 3a
       -0.0007974068 -0.0012981177 0.0019267352 0.0012972145
000030 2d 0d ac 38 00 4c 9f b9 13 7c d0 39 21 46 35 39
       8.204053e-05 -0.00030383468 0.00039765294 0.0001728763
000040 98 6a 72 3a 72 e5 43 ba 09 98 fc b9 89 f4 23 39
       0.0009247451 -0.00074728497 -0.0004817846 0.00015635988
000050 0a e7 7f ba 03 12 a1 3a ac ee 55 b9 82 bb bb 3a
       -0.00097619055 0.0012288693 -0.00020402175 0.001432285
000060 d4 54 97 3a 01 f0 7c ba 39 45 cc 3a 45 ad 7c ba
       0.0011545666 -0.00096488005 0.0015584595 -0.0009638856
000070 43 5c 90 3a c6 9f 57 39 1d eb 0a ba 9c a0 de 38
       0.0011013824 0.00020563518 -0.0005299317 0.00010615701

model.1.weight f4 [32]
000000 db bf 82 3f a9 8f 75 3f ed a9 78 3f 50 57 72 3f
       1.02148 0.95922333 0.97134286 0.9466448
000010 42 60 82 3f 43 42 7f 3f c9 d9 78 3f 59 20 7d 3f
       1.0185626 0.9971048 0.97207314 0.98877484
000020 ef 33 7a 3f d0 72 7a 3f 86 3d 85 3f f9 49 7c 3f
       0.97735494 0.9783144 1.04094 0.98550373
000030 96 3e 7e 3f 87 83 81 3f f7 84 7b 3f 3d b8 7e 3f
       0.9931425 1.0118264 0.98249763 0.99499875
000040 a0 85 7c 3f 0c 75 80 3f d9 5b 80 3f d8 b2 7a 3f
       0.98641396 1.003572 1.002803 0.97929144
000050 a4 e2 82 3f 0c b0 75 3f 71 7e 81 3f 03 58 88 3f
       1.0225415 0.9597175 1.0116712 1.0651859
000060 a0 4c 7f 3f c5 fc 76 3f 54 3b 89 3f de 28 76 3f
       0.99726295 0.96479446 1.072123 0.9615611
000070 e2 39 7f 3f f7 0a 80 3f a2 33 79 3f 07 52 7f 3f
       0.996977 1.0003346 0.9734441 0.9973454

model.1.bias f4 [32]
000000 5d 4e d0 3c 7a 52 b6 bc 2b 4b 29 bd b0 32 cb bd
       0.025427992 -0.022256125 -0.04133145 -0.09921777
000010 b5 85 47 3c c4 87 d6 3c 84 95 da bb 00 1f c2 3b
       0.012177874 0.026187785 -0.0066706557 0.0059241056
000020 63 b2 5b bc 5d b7 a7 bb 73 ad c3 3c ed 36 bd 3c
       -0.01340923 -0.005118294 0.023886418 0.02309748
000030 5d d3 fe bd 0d 48 26 3c 70 36 fb bb 9f 44 00 3a
       -0.12442658 0.010149014 -0.0076664016 0.0004893038
000040 2c c1 52 3d 78 0d b3 3c 81 cd 5a 3c ab 8a a6 3b
       0.051453754 0.021857008 0.01335466 0.0050824485
000050 2e 8f c7 3c 35 f6 b1 3c 61 9f 7b 3d 55 e0 f7 3c
       0.024360266 0.021723846 0.061431292 0.030258337
000060 96 6d c5 3c 82 57 d5 bc 87 7d 62 3d 6f 52 4b 3c
       0.024100106 -0.026042704 0.055295493 0.01240979
000070 8a 55 ad 3c 0f 21 59 3c f2 a9 0c bd a5 67 6c 3c
       0.021158952 0.013252511 -0.03434176 0.014429008

model.1.gate f4 [32]
000000 b6 5c a6 3f fb 37 83 3f a2 ae 88 3f 1b dd 82 3f
       1.2997043 1.0251459 1.0678294 1.0223726
000010 f0 1f 82 3f dd d7 83 3f 9d 1a 63 3f 83 97 71 3f
       1.0165997 1.0300251 0.88712484 0.94371814
000020 65 47 71 3f b1 4b 98 3f a0 b4 8a 3f cd 83 46 3f
       0.94249564 1.1898099 1.0836372 0.7754486
000030 2a c6 86 3f 84 18 6e 3f 13 90 8a 3f 66 9a 6f 3f
       1.0529225 0.9300616 1.0825218 0.9359497
000040 a5 ff 6d 3f ce 2f 94 3f f1 c9 87 3f 25 ec 52 3f
       0.9296821 1.1577089 1.0608503 0.8239158
000050 2f b9 8c 3f ad af 6a 3f e4 8f 84 3f 90 b9 5f 3f
       1.0994014 0.9167431 1.0356412 0.8739252
000060 08 08 49 3f d8 9f 88 3f 2e 7f 8e 3f 30 cc a0 3f
       0.7852788 1.067378 1.1132562 1.2562313
000070 7b 5b 7c 3f c8 a3 74 3f 15 8b 72 3f 20 80 4b 3f
       0.9857709 0.9556241 0.9474347 0.7949238

model.1.running_mean f4 [32]
000000 fa 50 84 3f 06 15 85 be 0f 1d 87 3e 27 be 95 bd
       1.0337212 -0.25992602 0.26389357 -0.07311659
000010 e2 53 9e 3b df 5d e7 3e 76 88 45 be e5 1d 11 bf
       0.004831777 0.45188805 -0.19290337 -0.5668624
000020 50 bf ca bd e2 d0 c0 bd ee bf 73 3f 61 a7 12 3e
       -0.09899771 -0.09414841 0.95214736 0.14321662
000030 9d 49 52 3d b4 90 2b 3f 5d 2d 97 3e 5d 6c 84 3f
       0.051339734 0.67017674 0.29526797 1.034557
000040 b0 3d d3 bd 9d 09 a3 3f 30 1c 65 3f ae 0b 6a be
       -0.103145 1.2737309 0.89496136 -0.22856018
000050 87 24 10 3f 08 4a 77 bf a9 6c 25 3f 4f 28 c7 3e
       0.56305736 -0.9659734 0.6461893 0.3889794
000060 9f 5c cf 3e 8a c3 79 3e e4 a1 4d 3f 3e 6c 4d 3f
       0.40500352 0.24390998 0.8032515 0.8024329
000070 25 f0 66 bf 77 70 5e 3c 98 f7 7d be 5f 5b 32 3e
       -0.9021018 0.013576618 -0.24801481 0.17417668

model.1.running_var f4 [32]
000000 0c 90 a4 3d 58 cf 65 3d 65 70 0e 3d f4 84 cc 3c
       0.08035287 0.05610594 0.034775157 0.02496574
000010 70 f5 a4 3c 06 2c d1 3c 8f 29 4f 3d 49 3e 18 3d
       0.020136565 0.025533687 0.050576743 0.037168775
000020 d5 32 47 3d 52 28 80 3c cc d9 4d 3d bd f1 53 3c
       0.04863246 0.015644226 0.050256535 0.012936053
000030 c6 52 d8 3c 4b 5a 4a 3d 31 58 0b 3d 54 13 a8 3d
       0.026406657 0.049402516 0.034019653 0.082068115
000040 97 43 d0 3c c3 0b bf 3d 6f a9 80 3d 7f 55 67 3c
       0.025422854 0.09328415 0.06282317 0.014119505
000050 e9 33 a0 3c d5 b0 47 3d 89 19 25 3d b4 8f f3 3c
       0.019556003 0.048752625 0.040307555 0.029731609
000060 5e 06 d3 3d 40 bd 8c 3d 82 be 58 3d cd dc 1c 3d
       0.10303949 0.06872034 0.052916057 0.03829651
000070 98 3d 68 3d 24 08 6f 3c a8 a5 fd 3c 01 1e 1f 3d
       0.056699365 0.014589343 0.03096278 0.038846973

model.3.main.0.weight f4 [32, 32, 3, 3]
000000 45 43 b3 bd 31 8f 82 bd 68 e9 7d 3c 34 5b 4f be
       -0.08753065 -0.06374968 0.015497543 -0.20249635
000010 fe 53 0c bd 17 b0 72 be 3b 9f 42 be 90 35 95 bd
       -0.03425979 -0.23699985 -0.19006054 -0.07285607
000020 5e 49 5a bd 62 71 1f be b9 0c f2 bd 5d 83 03 bb
       -0.053292625 -0.15570596 -0.11818833 -0.0020067312
000030 85 f0 4b 3d 68 b9 bc bd c1 17 1c 3e 27 78 ce bd
       0.049789924 -0.09215051 0.15243436 -0.10081511
000040 67 91 2e be 28 0c d7 bc 02 20 99 bd 30 41 0a be
       -0.17047654 -0.026250914 -0.07476808 -0.1350143
000050 2f d5 b4 bd 80 eb 11 bd 1f d9 c6 3b 95 31 1d bc
       -0.08829724 -0.03562498 0.0060683633 -0.009594341
000060 2b 0a c7 bd 44 d6 90 3d bd 30 bc 3c 33 ff 1a be
       -0.09718736 0.07072118 0.022972459 -0.15136413
000070 45 fb 85 bd 50 1a b9 3b 66 d5 03 be ad f9 d8 3d
       -0.065420665 0.0056488886 -0.12874374 0.10594497
000080 07 a5 99 bd 38 25 55 3d 4f 70 01 3c f1 a5 ff 3c
       -0.075021796 0.052037448 0.007900312 0.031207057
000090 23 4b 1f be fc 33 cf 3c 11 ba 4c bd 89 56 c1 bd
       -0.15556006 0.025293343 -0.049982134 -0.094403334
0000a0 7b 2a 52 3d d8 c9 0c 3c 0a b6 d7 bc f5 6e 65 3d
       0.051310044 0.008593045 -0.02633192 0.05601402
0000b0 53 02 5b bd 2e 08 c7 bd 5e 0e 11 bd eb 01 8b bd
       -0.053469013 -0.09718357 -0.035414092 -0.06787475
0000c0 55 35 b1 3d ca 27 d1 bd 80 1d 6c bc 8f cf 47 bd
       0.086527504 -0.10212667 -0.01441133 -0.048781928
0000d0 4f f1 fb 3b a7 32 eb 3c 69 96 96 3c 1c 06 e1 bd
       0.0076886783 0.028710676 0.018382268 -0.109874934
0000e0 f1 b1 2b ba 21 b5 bf bd 6d f9 6e 3d ba be 3f bd
       -0.00065496477 -0.093607195 0.05834334 -0.04681275
0000f0 df bc 2e 3d 93 2b 0f 3d 90 0c c9 bc 32 53 8e 3d
       0.04266059 0.034953665 -0.024542123 0.06949462
000100 3d ce af 3d 59 00 bb 3d bc e2 06 bd 33 00 69 3d
       0.08584259 0.09130926 -0.032931075 0.056884956
000110 f8 ea 05 bd cd 9f 82 3d de b5 15 be de fb 9e bd
       -0.032694787 0.06378136 -0.14620158 -0.077628836
000120 1d ac 65 bc 90 f8 83 3d 86 04 e5 bd f4 d5 ef bc
       -0.014018086 0.06443894 -0.111825034 -0.029276825
000130 c1 16 3e be c9 ad 13 be 4d 18 72 bd cd ed 3e 3d
       -0.18563367 -0.14421763 -0.059105206 0.046613503
000140 3e 5c 88 3d 7f fb 05 bc b4 d0 02 3e 4d c2 ed 3b
       0.06658219 -0.008177637 0.12774926 0.0072558285
000150 83 1f 1d be 82 ae d4 3c ee fe 46 3d 2a 93 cc bc
       -0.15344052 0.025962118 0.048582964 -0.024972517
000160 72 e3 b5 b9 42 b9 d8 bd 6c 69 37 be 03 e2 46 bd
       -0.0003469247 -0.1058221 -0.17911309 -0.048555385
000170 94 9e a6 bc db 74 11 bd 93 9e 8f 3b 59 97 90 bd
       -0.020339288 -0.035511833 0.004382917 -0.07060117
000180 38 3a 8f 3d b0 ee e1 bc 86 ed 18 be 48 0c 91 3b
       0.06993526 -0.027579635 -0.14934358 0.004426513
000190 b4 1f 54 3d d0 74 03 3d 95 f5 b5 3c f2 52 23 be
       0.051788047 0.032093823 0.02221183 -0.1594961
0001a0 d3 da 79 bd ba 44 68 bc b9 24 f6 bd 89 57 c0 3d
       -0.060999703 -0.014176542 -0.12018723 0.09391696
0001b0 c4 27 df 3c 03 cc 0d be 64 b4 87 bd e8 ab d8 bd
       0.027240641 -0.13847356 -0.06626204 -0.105796635
0001c0 71 0c ae 3c 38 b5 20 bd e0 24 3f bd b4 86 5a bd
       0.021246167 -0.039235324 -0.046666026 -0.05335112
0001d0 2f e2 82 be 6b c7 19 3e 5c d8 8c bc 7e 62 03 be
       -0.2556319 0.15017478 -0.017193012 -0.1283054
0001e0 c3 a1 06 be f0 f1 0b 3e e0 ac 27 3c 1b c1 0d be
       -0.13147645 0.1366651 0.010234088 -0.13843195
0001f0 d9 60 c7 3c 9f 2e 34 3e 01 01 f8 bc 79 9b a8 3d
       0.024338173 0.1759591 -0.030273916 0.08232779
000200 20 bb 61 bd 35 02 51 3d 44 e4 ac bd e3 77 0c 3e
       -0.055110097 0.051027495 -0.08441976 0.13717608
000210 46 ba 19 be 38 bf 41 bb 22 46 81 3e d1 b4 7e 3d
       -0.15012464 -0.0029563438 0.2524882 0.06218416
000220 11 c4 83 bd 44 93 d4 bb 6d 7e d0 bd 30 b9 3a be
       -0.06433881 -0.006487282 -0.10180364 -0.18234706
000230 b7 ff f6 bc 1a 6f 44 bc 62 39 90 bc 02 91 4a 3e
       -0.030151231 -0.011989379 -0.017605487 0.19781879
000240 a1 84 d0 bd f3 5e f9 3c 33 f5 c0 bb ab 4f f1 bd
       -0.10181547 0.030440783 -0.005888605 -0.117827736
000250 ff 29 8e 3d 8b fa 86 3d e7 c5 dc bc ad 19 4e bd
       0.06941604 0.06590756 -0.026949836 -0.050317455
000260 61 10 ae bc 7c fc 8c 3d f8 36 dc bd 35 34 1d 3d
       -0.021248044 0.06884095 -0.10752672 0.038379867
000270 12 a9 56 bd c1 12 9f bc 5f 41 24 be ef 26 88 3d
       -0.05240733 -0.019418122 -0.16040562 0.06648051
000280 81 c5 3e bd 07 fe 18 be 77 73 1d 3a 3f fd 40 3d
       -0.046575073 -0.14940654 0.00060062803 0.047116514
000290 43 47 05 3d bb 12 1a ba d5 58 5f bc 6d c9 05 be
       0.032538664 -0.0005877425 -0.013632019 -0.13065119
0002a0 7c ac 37 bd 49 d3 1b be 2c e2 42 3e 33 ac 44 bc
       -0.04484223 -0.15217318 0.1903159 -0.012003946
0002b0 1d db c6 3c 81 eb de 3d 04 c6 06 bd bd fa 01 be
       0.024274403 0.108847626 -0.032903686 -0.12693305
0002c0 61 35 7a be 2d 95 5b bd 0b ca 51 bb 4b b6 14 3d
       -0.24434425 -0.053609062 -0.0032011296 0.03630666
0002d0 62 b4 7a bd f2 67 b8 bd 17 ee 8e 39 b3 7b be 3d
       -0.061207183 -0.09004201 0.0002726174 0.093009375
0002e0 67 39 9e bb 7f 95 9b 3d 9d 66 18 3d 98 d6 5e bd
       -0.0048286202 0.075968735 0.037207235 -0.05440387
0002f0 e9 e1 21 be be 91 82 bd 15 cd 2c 3d 7f de 81 bd
       -0.15808834 -0.06375454 0.04218777 -0.06341266
000300 28 0d 31 3e f5 5f 25 bd e8 56 6b 3d 47 e2 b5 bc
       0.17290175 -0.040374715 0.057455927 -0.022202624
000310 5b 37 ab bd e2 8e ae bd d8 52 fe bc 10 99 ec bd
       -0.083601676 -0.085233465 -0.031045362 -0.11552632
000320 b3 96 06 be 44 9f 24 3e 83 81 fb 3c 38 55 bf bb
       -0.13143425 0.1607638 0.030701404 -0.0058390163
000330 fd df 15 bc e6 ba 28 bd e9 44 13 bd ea ac a2 bd
       -0.009147641 -0.041193865 -0.03595439 -0.07943137
000340 b7 1a 87 3d fc 0c 11 bd a6 6d 85 3d da b6 79 be
       0.06596892 -0.035412773 0.065150544 -0.24386159
000350 e6 af 65 bd f6 fb fa 3b e8 81 ad bc 3e 40 e8 3d
       -0.056075953 0.0076594306 -0.021180108 0.11340378
000360 3f 8c 5d 3c f0 10 9e bc 6a b6 25 3d c2 62 3e 3e
       0.013522207 -0.019295186 0.040457167 0.1859236
000370 75 29 b8 3b 3d c0 ee 3d 1d 10 8a 3d 04 ba 07 3c
       0.0056201764 0.1165776 0.067413546 0.008284096
000380 d5 ce 2e be ff 91 4b bc 21 9e 49 bd 43 f2 1b 3e
       -0.17071088 -0.012424945 -0.04922307 0.15229134
000390 7d f0 34 3b 8e 0f c7 3c 47 42 a7 bd 94 f0 9e bc
       0.0027609162 0.02429941 -0.08166938 -0.019401826
0003a0 22 2c 65 bc f3 66 c0 3c 09 03 92 bd 6f 89 38 3e
       -0.013987573 0.02348659 -0.07129485 0.18021177
0003b0 cf 7c 97 bd e2 7a 38 bd 71 d5 79 3c 24 fc ff bd
       -0.07396852 -0.045039065 0.015248642 -0.12499264
0003c0 ab e3 bf 3d 57 20 19 bd af 2f b0 3d b4 e3 80 3c
       0.09369596 -0.037384357 0.08602845 0.015733577
0003d0 07 c3 62 3d 74 01 0a 3e 7c 7e 1c bd 7b a4 5b bd
       0.055361774 0.13477117 -0.038206562 -0.053623658
0003e0 a3 7d 49 bd 2d ba a0 3c 3b a7 36 3c d0 e6 ae 3d
       -0.049192082 0.019620026 0.011148269 0.08540118
0003f0 94 d4 a2 bb 1d f0 44 bd f2 18 a7 3d 95 be fc bb
       -0.004969189 -0.048080552 0.08159055 -0.007713149

model.3.main.1.weight f4 [32]
000000 15 18 80 3f cc 39 7e 3f cb a4 7e 3f 50 2e 83 3f
       1.0007349 0.9930694 0.99470204 1.0248508
000010 8a 9d 82 3f a7 f3 80 3f d2 84 7b 3f d9 44 80 3f
       1.0204327 1.0074357 0.9824954 1.0021011
000020 6b 46 7d 3f 77 b6 7f 3f 41 8d 7e 3f 51 8b 80 3f
       0.98935574 0.99887794 0.99434286 1.0042516
000030 04 33 7d 3f 72 85 80 3f a0 fc 77 3f 25 68 83 3f
       0.9890597 1.0040724 0.9686985 1.0266157
000040 77 bb 83 3f 36 59 7e 3f 75 33 81 3f 5d 3c 7e 3f
       1.0291585 0.99354875 1.0093828 0.9931086
000050 d0 22 85 3f 5c bb 7c 3f 24 b2 75 3f f9 90 7c 3f
       1.0401249 0.9872339 0.95974946 0.9865871
000060 7e be 7f 3f 6e b7 7b 3f 06 bc 7e 3f 81 99 80 3f
       0.99900043 0.98326766 0.9950565 1.0046846
000070 bf f5 7e 3f 1c 2c 80 3f 3b 90 80 3f 46 51 83 3f
       0.9959373 1.0013461 1.0044016 1.0259178

model.3.main.1.bias f4 [32]
000000 36 60 90 3b c0 f7 84 3b dc 77 31 bc d5 4f c8 3c
       0.0044060005 0.0040578544 -0.010831799 0.02445213
000010 2e ad 2f 3d 3f 7e d9 3c 78 8d b8 bc ff c7 60 3c
       0.042889766 0.026549457 -0.022528395 0.013719558
000020 1e f6 d5 3c 7e e4 29 3c eb 03 17 3c 31 0d d8 3a
       0.026118334 0.010369418 0.009217243 0.0016483424
000030 c2 a7 a8 3c 49 61 16 3d 71 cf 93 39 53 f1 f4 bb
       0.020587806 0.036713872 0.0002819258 -0.007475057
000040 31 ab 0d 3c 83 87 4e 3c d8 bb ac 3b 8b fd 00 3c
       0.008646772 0.012605551 0.005271416 0.007872949
000050 e7 9e 77 3c 7a 7b 39 bc 2d 66 c7 bc c4 2d 0b bc
       0.015113569 -0.011320943 -0.024340713 -0.008494798
000060 27 8d 16 bc a2 34 f7 3a b2 3b 8d 3b db 0c 62 3b
       -0.009188927 0.001886029 0.0043100948 0.0034492526
000070 00 bf c8 bb 25 59 86 3d 98 b0 03 bb dd 77 09 3e
       -0.0061262846 0.06559972 -0.0020094272 0.1342463

model.3.main.1.gate f4 [32]
000000 84 9c b1 3f 90 bb 92 3f 80 c5 85 3f c9 31 88 3f
       1.387589 1.146349 1.0450897 1.0640193
000010 be 1e 66 3f 94 79 1e 3f 3d 84 5c 3f bb 43 80 3f
       0.8989066 0.61904263 0.8613928 1.002067
000020 ee 20 84 3f c0 66 83 3f b7 b8 58 3f 67 bc 80 3f
       1.0322549 1.0265732 0.8465685 1.0057496
000030 70 3b 87 3f aa 69 9f 3f 5e 2a 80 3f 91 19 ae 3f
       1.0565014 1.2454121 1.001293 1.3601552
000040 f2 8c 7f 3f be 16 88 3f 55 27 81 3f 54 ea 88 3f
       0.9982444 1.063194 1.0090128 1.0696511
000050 fb a0 87 3f d6 73 6d 3f a0 91 7b 3f 77 06 91 3f
       1.0596002 0.92754877 0.9826908 1.1330098
000060 6b 1e 83 3f 58 ba 76 3f c2 24 70 3f d6 73 84 3f
       1.0243658 0.9637809 0.9380609 1.034785
000070 cf 55 6a 3f 0c 35 39 3f d1 a9 87 3f 9a 8d 25 3f
       0.91537184 0.7234657 1.0598699 0.6466919

model.3.main.1.running_mean f4 [32]
000000 ce fe ba bf 9e e8 a6 3f 5a 69 5d 3e 1e 54 f1 3d
       -1.460901 1.3039739 0.2162222 0.11783622
000010 4b f4 f5 3d 80 66 4b bf e1 71 ff be 01 45 0e bf
       0.12009486 -0.7945328 -0.4989157 -0.5557404
000020 e6 ea 51 3e cb 70 06 3e cb aa 5c bf 8f 4e d1 be
       0.20499763 0.13128965 -0.8619811 -0.40880248
000030 73 b4 12 bf 68 f6 bf bd 2d 4b 52 3d 95 5a 6d be
       -0.57306594 -0.0937317 0.051341224 -0.23179086
000040 6f 54 9c bf d4 fd fc be a9 bb 8d 3e 61 ac 34 3e
       -1.2213267 -0.49412405 0.27682236 0.17643882
000050 7f e3 37 be 1c f6 59 3e aa fc 94 3e da b0 01 bf
       -0.17957877 0.2128529 0.29099017 -0.5066048
000060 d7 04 80 3f d1 a8 01 3e 1c 35 51 3e 09 51 57 bd
       1.0001477 0.12662055 0.20430416 -0.052567516
000070 26 17 90 bf 9b 14 a3 3d 8f aa 31 be 09 66 02 be
       -1.1257064 0.079629146 -0.17350219 -0.12734236

model.3.main.1.running_var f4 [32]
000000 97 42 23 3f da 02 88 3f 19 57 34 3f e0 2b 43 3f
       0.63773483 1.062587 0.704454 0.7623882
000010 6b 06 d7 3f ab 0d 99 3f c6 4f 3f 3f 49 a4 fa 3e
       1.6798834 1.1957296 0.747311 0.48953465
000020 4f 27 95 3f 14 11 2d 3f 92 75 3e 3f 7e 29 4b 3f
       1.1652621 0.67604184 0.7439815 0.7936019
000030 35 c5 6c 3f ac 45 3b 3f 49 d7 81 3f 83 b3 9e 3f
       0.92488414 0.73153186 1.0143825 1.2398533
000040 30 99 24 3f 5c 85 41 3f c4 fa 20 3f 3b 58 0a 3f
       0.64296246 0.75594115 0.6288264 0.5404088
000050 04 1a 3c 3f bb 01 6c 3f d5 64 e1 3e f5 ce 76 3f
       0.73477197 0.9219014 0.4402224 0.9640954
000060 d1 71 98 3f 3a 7a e1 3f 7e 88 80 3f 67 1c f9 3e
       1.1909734 1.7615426 1.0041654 0.48654482
000070 73 e3 6a 3f 1d c4 67 3f 97 57 34 3f 99 80 57 3f
       0.9175331 0.9053362 0.7044615 0.841806

model.3.main.3.weight f4 [32, 32, 3, 3]
000000 4e e9 54 bc 24 10 17 3c de 97 99 bd a2 be 32 3e
       -0.012995077 0.009220157 -0.074996695 0.17455533
000010 40 7c f6 bd c7 7e c2 bc f3 9c a6 bd b4 49 c4 bb
       -0.120354176 -0.023742093 -0.081354044 -0.0059902314
000020 2a 91 b0 bd 18 48 29 3d f7 15 0d 3d 0b fc db 3c
       -0.08621438 0.04132852 0.034444775 0.026853582
000030 bd df 65 bc 19 9c 24 bd 1f 9b 3c bd 0e 17 dd bd
       -0.014030394 -0.04018793 -0.046046373 -0.10795413
000040 a7 aa b7 bc 2e 71 c4 bd 19 e8 1f bd 2a 29 90 3d
       -0.02242024 -0.095919 -0.039039705 0.070391014
000050 17 ba be 3d b7 49 c3 bd 20 0c b1 3d 15 a1 cd bd
       0.093128376 -0.09535544 0.08644891 -0.100404896
000060 2a 32 a2 3d 7c 55 2a bd e2 d3 3c bd e3 6e 92 bd
       0.07919724 -0.04158543 -0.046100505 -0.07150056
000070 e6 99 0f be 9e 80 7b 3d 23 70 9b bb 37 1a eb 3d
       -0.14023551 0.061401956 -0.0047435923 0.114796095
000080 a1 47 a8 bd c2 7e dd 3c 06 5b 9b bd 36 26 19 be
       -0.08216787 0.027037982 -0.07585721 -0.14955983
000090 a0 31 44 3c d0 4a 39 3e 92 07 34 bc ea 47 47 3a
       0.011974722 0.18094945 -0.010988133 0.00076019636
0000a0 fd 9a d3 bd 6d a9 55 3b 7f 60 0a 3d c6 ad 45 3e
       -0.10332296 0.0032602206 0.033783432 0.1930457
0000b0 ac 0d e3 bb be da f4 3d 26 b2 29 be 92 2e 1b be
       -0.00692912 0.11955784 -0.16571864 -0.15154484
0000c0 03 1d 3f 3d e3 31 81 bc 61 0e 09 3e 55 36 99 bd
       0.046658527 -0.015770858 0.13384391 -0.07481066
0000d0 4a ef 3b bc 46 98 dc ba 5a c7 f4 bc 3d 21 f3 3d
       -0.011470625 -0.0016830049 -0.029880214 0.11871574
0000e0 48 ed 95 3a 68 d3 a8 bc ba 2a ca bd 58 9d 76 3d
       0.0011438513 -0.020608619 -0.09871431 0.06020865
0000f0 34 bb 6e bd 25 92 f0 bd 0b e5 2c 3d 66 bf c4 bd
       -0.058284 -0.11746625 0.04221062 -0.09606819
000100 68 f0 9c 3c 69 4c 4c 3d 28 66 59 3b da f4 92 3d
       0.019157603 0.049877558 0.0033172462 0.07175608
000110 cb c5 65 3c 9d c0 f9 bc 61 45 d6 3d 68 e2 80 3c
       0.014024208 -0.030487353 0.10462452 0.015732959
000120 a7 4d eb 3d 2e 5d 0c 3d c1 3c 80 bd a4 c3 19 3e
       0.114894204 0.03426855 -0.06261588 0.15016037
000130 8b e1 46 bd cc f6 c7 bc e4 f3 9a bd 1d d4 9f 3d
       -0.04855494 -0.024409674 -0.0756605 0.07804129
000140 9a 11 13 be 9e 79 0e bd c7 33 c3 3d eb c1 36 3d
       -0.14362183 -0.034783952 0.0953136 0.04461853
000150 e6 c2 25 3e ab 29 8d bd 73 ea b4 bc 1e 39 b7 bd
       0.16187629 -0.06892713 -0.02208445 -0.08946441
000160 1d f7 98 3c e4 fd d8 bb 55 26 86 3d 8b 33 a9 bd
       0.01867252 -0.006622063 0.0655028 -0.08261784
000170 a9 c4 a2 3d d9 ba 4c bd 08 29 c7 bd 42 38 c7 3d
       0.07947666 -0.04998288 -0.09724623 0.09727527
000180 29 be 34 bd d1 64 55 bd fb 8e 09 bb a3 9b e9 3d
       -0.044126663 -0.0520981 -0.0020989764 0.114066385
000190 e5 68 29 bc e5 dc 5a bd d3 9c 84 3d 40 4e de 3c
       -0.01033995 -0.053433318 0.06475224 0.027136922
0001a0 da 62 d9 3d e2 b2 87 ba 16 ee 05 be 26 34 56 3d
       0.106145576 -0.0010352994 -0.13079104 0.052295826
0001b0 10 92 ba 3d c8 2c 1b 3e e5 4c 0e be c2 3a 2a bd
       0.091098905 0.15153801 -0.1389652 -0.041559942
0001c0 5f 77 16 3e 6b e4 fe 3a 37 2e e0 bc 4a 03 55 3c
       0.14693974 0.0019446736 -0.027365787 0.013001272
0001d0 e0 de 2b 3d 61 1d 25 bd c4 16 61 3d ed 15 57 3d
       0.041960597 -0.04031122 0.05495335 0.052511144
0001e0 3b 76 c0 bc e8 e2 64 3d f9 73 1f bb 54 ba 02 3e
       -0.023493877 0.055880457 -0.00243306 0.12766391
0001f0 1b af b1 3c 14 ad ff bd 3a 59 c3 bd 36 e2 30 be
       0.021689942 -0.12484184 -0.09538503 -0.17273793
000200 b7 75 fb bd 75 30 29 bd 09 72 f6 3b d6 f9 26 bb
       -0.12278312 -0.041305978 0.0075209183 -0.0025478504
000210 a8 ec 8c bd b7 65 07 3e c6 57 03 be c1 05 19 be
       -0.06881076 0.13222395 -0.12826452 -0.14943601
000220 f5 9d a7 3c 3f 8a c9 3d 13 0f 16 bc 12 a9 fa 3d
       0.020461062 0.098408215 -0.009158867 0.12239279
000230 c2 4f a4 3d 4f f7 8f 3a 6a 7c 35 bd 1a 62 06 3d
       0.08023025 0.0010983738 -0.044308104 0.0328084
000240 de 94 3f bd 3b b0 1f 3e cc 22 f5 3c 6e 58 5c bd
       -0.04677283 0.1559457 0.029923819 -0.05379527
000250 fb 64 80 39 af 8e 37 3e 63 6c 5d 3d 84 47 bb 3d
       0.000244893 0.17925523 0.054058444 0.091445
000260 46 69 05 bd d9 85 e8 3d ec c2 6f 3d ff a5 24 3d
       -0.0325711 0.113536544 0.0585355 0.04019737
000270 44 73 3a bd a1 65 9c 3d 4b e5 50 be 51 7a 65 3d
       -0.045520082 0.07636572 -0.20399968 0.056024853
000280 ec 7f a8 3d f1 51 e5 bd ab 14 21 3e ec bb f2 bc
       0.08227524 -0.1119727 0.1573054 -0.029630624
000290 82 bf 9b bc 88 85 a1 3d a3 d5 4e 3d 9e ea 93 3c
       -0.019012216 0.07886797 0.05049671 0.01805621
0002a0 03 37 8e 3d 72 8c 18 bd 57 b2 29 be 49 30 ac 3d
       0.069440864 -0.037243314 -0.16571938 0.08407647
0002b0 55 26 e7 bc 1d 8b 0b bd dc 2a bf bd e8 8b 6d bc
       -0.02821652 -0.034068216 -0.09334347 -0.014498688
0002c0 1c a4 e7 3a 20 5a 95 3d b6 12 65 bd 18 df a4 bd
       0.001767281 0.072925806 -0.055926047 -0.08050364
0002d0 9d 8f ce 3d d3 1e b1 bd ec 3a d9 3d 7e 38 d2 3d
       0.10085986 -0.086484574 0.106069416 0.10264681
0002e0 41 dd 7d 3d 72 b1 32 3e 44 5b 9e 3c e7 78 16 bd
       0.061978582 0.17450503 0.019330628 -0.036736395
0002f0 23 1c 01 be 77 ba 4b 3c 75 4b 9d bc e9 7e 19 3e
       -0.1260839 0.012434593 -0.01920102 0.14989819
000300 75 30 be 3b e3 cd 87 bd 43 08 28 bc 88 0e 29 be
       0.0058041164 -0.06631067 -0.010255876 -0.1650945
000310 d7 44 8b bd aa ca 3a bd 19 7a c2 bd d0 66 19 3d
       -0.068002395 -0.04560343 -0.094959445 0.037451565
000320 fe b2 86 bd 69 76 0c be c2 b6 d8 3d 64 6d b1 3c
       -0.06577109 -0.13717045 0.10581733 0.021658607
000330 a6 05 4d bd 57 0e e3 3d 49 b4 11 3d 44 9a 6a 3d
       -0.050054215 0.110867195 0.035572324 0.057276025
000340 eb d3 4c 3e 03 3a 8d bd ba d1 c4 3d c6 94 1f 3b
       0.20002715 -0.068958305 0.09610315 0.002435015
000350 c3 6f 26 bd 55 8c 3d bd 11 11 e9 bc ff e8 90 3d
       -0.040633928 -0.04627641 -0.02845052 0.070756905
000360 4d 2d 1b bd 55 71 e5 3d 8b 55 35 3d 9a 17 96 bd
       -0.037885 0.11203257 0.044271033 -0.073287204
000370 93 de 45 bc 5a 63 43 3d c9 70 ab 3c 2c 08 d1 bd
       -0.012076992 0.04770217 0.020927804 -0.10206637
000380 16 87 a6 bc 6a 14 d3 3d 66 8f 17 be 3d 44 f6 3c
       -0.020328086 0.10306628 -0.14800796 0.030061835
000390 cf f5 10 3e 4e 50 cd bd fc 46 97 3d cd e9 42 bb
       0.14156269 -0.100250825 0.07386586 -0.0029741407
0003a0 60 73 4b 3d 45 83 1f be 61 34 02 3d eb 58 8c 3d
       0.049670577 -0.15577419 0.031788234 0.06852897
0003b0 5c 25 d9 bd 44 a4 28 3c 6d 55 d4 bc ba fb d3 bd
       -0.10602829 0.01029307 -0.02591964 -0.103507474
0003c0 21 dc 6f 3c 18 c7 98 b9 53 42 3d be 40 e4 08 3e
       0.014639885 -0.00029140036 -0.18482332 0.1336832
0003d0 5b 8b 2b 3e 80 2a bd bc be e4 d7 3d 14 e9 3f 3e
       0.16752379 -0.023091555 0.10541676 0.18741256
0003e0 51 4b 58 3d 59 31 29 bd 61 a1 16 3d ac 33 09 bd
       0.052806202 -0.041306827 0.036774997 -0.033496544
0003f0 e3 a0 da 3d 03 5d 8b bd 64 83 72 bd 6e 09 74 bd
       0.10675218 -0.0680485 -0.059207335 -0.059579305

model.3.main.4.weight f4 [32]
000000 9e f8 76 3f a0 1a 7c 3f 7a ea 75 3f 84 e5 6f 3f
       0.9647311 0.98478127 0.9606091 0.9370959
000010 80 25 77 3f 80 94 80 3f 7b 66 7b 3f 0c 2f 7c 3f
       0.96541595 1.0045319 0.9820325 0.9850929
000020 52 2e 77 3f 1d 5e 7a 3f 65 b6 7b 3f c7 18 6f 3f
       0.96555054 0.97799855 0.98325187 0.9339718
000030 07 ac 78 3f ab 77 7e 3f 08 6e 79 3f 9b 91 76 3f
       0.9713749 0.9940135 0.9743352 0.96315926
000040 8d 37 7c 3f 3e 85 6f 3f 1f f0 73 3f 80 06 79 3f
       0.98522264 0.93562686 0.9528827 0.97275543
000050 8d dd 7b 3f 5b 6d 6c 3f 0f ff 7d 3f e7 f8 7d 3f
       0.98384935 0.92354363 0.99217314 0.9920792
000060 de ee 75 3f 1e 57 70 3f 35 2b 73 3f 60 9b 79 3f
       0.9606761 0.9388293 0.94987804 0.9750271
000070 9a d6 77 3f ab ef 73 3f 17 c8 78 3f 20 0d 77 3f
       0.9681183 0.9528758 0.9718031 0.965044

model.3.main.4.bias f4 [32]
000000 5c e3 1e 3c 47 b8 4c 3c 8c 77 ba bc f4 90 56 3c
       0.009697761 0.012495107 -0.022762083 0.013096083
000010 e4 a8 fd 3b 28 f6 fd 3c 6c 7c 0d bc 1a 5a e5 ba
       0.0077410806 0.031001166 -0.0086356215 -0.0017498166
000020 e9 6c 05 bc 28 a5 50 3c 4b 17 b0 3d 8a 37 20 3d
       -0.008143642 0.012734689 0.08598193 0.039115466
000030 ab c4 e7 3b 7b d6 4e 3c e2 a6 db bc 8a 33 de ba
       0.007073005 0.012624378 -0.026812974 -0.0016952616
000040 f3 38 bd 3c a2 88 a2 3c 58 43 35 3c 1f 9f 37 bc
       0.023098445 0.019840542 0.011063419 -0.011207371
000050 ae f0 c4 3c dd 6d c1 3b 4b 20 26 3d 98 25 66 3d
       0.024040546 0.0059029893 0.04055814 0.056188196
000060 d4 c4 42 3a 7e 4c 0d 3c 13 24 3a 3d 22 a0 51 3d
       0.00074298424 0.008624194 0.04544456 0.051178105
000070 17 83 d1 bc 0a e8 50 3d 57 6f b7 3c 15 d3 03 bd
       -0.025575204 0.05100254 0.022391958 -0.032183725

model.3.main.4.gate f4 [32]
000000 ff 74 62 3f 33 ee 72 3f 92 a5 81 3f 8c 93 8d 3f
       0.8845977 0.94894713 1.0128653 1.1060653
000010 78 e3 8d 3f 02 4c 68 3f dc b5 95 3f bb f1 8d 3f
       1.1085043 0.9074098 1.1696124 1.1089395
000020 e7 85 7e 3f b5 e0 88 3f ca ad 74 3f 15 31 6e 3f
       0.9942307 1.0693575 0.9557768 0.93043643
000030 b8 63 70 3f ab ab 85 3f ec 6d 85 3f f3 c9 62 3f
       0.9390216 1.0443014 1.042417 0.885894
000040 41 fc 6f 3f 7d e0 8a 3f d5 14 75 3f 9f 19 77 3f
       0.93744284 1.0849758 0.9573491 0.9652347
000050 a2 20 40 3f 9e 6a 6c 3f f3 86 59 3f 5c a4 93 3f
       0.75049794 0.92350185 0.8497154 1.1534534
000060 2b d5 84 3f f8 0d 7f 3f f4 f6 82 3f 46 5a 87 3f
       1.0377554 0.9963069 1.0231614 1.0574424
000070 31 33 83 3f 4a 65 76 3f 9d 46 88 3f b1 90 95 3f
       1.0249997 0.96248305 1.064655 1.1684781

model.3.main.4.running_mean f4 [32]
000000 67 df b1 3e 38 82 92 bf 64 cd 01 3f 9e a2 19 3e
       0.34740755 -1.144599 0.50704026 0.1500344
000010 97 3f f4 bd 73 1c 84 bf 04 ce 35 bf af 11 6b bf
       -0.11926191 -1.0321182 -0.7101748 -0.9182386
000020 32 f1 dd 3e fc 22 c2 bf 8b 3d ca bf e2 b4 07 3e
       0.4334808 -1.5166926 -1.5800031 0.13252595
000030 be 11 94 3d ab 0c f5 3e 17 14 a4 3f f1 9f ff be
       0.072299466 0.47861227 1.2818631 -0.49926713
000040 65 ec 2f 3e e2 67 97 be 59 9b 81 bd 95 fb 73 bf
       0.17180021 -0.29571444 -0.06328458 -0.9530576
000050 42 93 8a 3f b1 85 3b 3f c4 58 71 bf 29 74 c6 3e
       1.082619 0.7325087 -0.9427607 0.38760498
000060 3c ba 21 3f bd 30 76 bd a2 49 f9 be e2 ee 1d bf
       0.63174796 -0.060105074 -0.4868899 -0.6169263
000070 9d 5d ac 3f 93 e9 6a 3e 13 49 5e be ad f4 7c 3f
       1.3466069 0.22940664 -0.21707563 0.98810846

model.3.main.4.running_var f4 [32]
000000 38 6a eb 3f cf 92 23 40 8a 49 a3 40 2f 49 85 3f
       1.839179 2.5558355 5.102727 1.0412959
000010 6b 96 1f 40 e4 d9 b9 3f 2b 02 e1 3f 7a 38 bd 3f
       2.4935558 1.451962 1.7578787 1.478286
000020 c8 e2 ec 3f 70 8e 7e 40 1b c8 ac 40 2f db 42 40
       1.8506708 3.9774437 5.399427 3.044628
000030 6e ee e5 3f 49 4e 28 40 8f c4 7f 40 ab 36 ed 3f
       1.7963388 2.6297781 3.996372 1.8532308
000040 22 65 0a 40 55 71 d6 3f 48 d0 42 3f 7d 1b 53 40
       2.1624227 1.6753336 0.7609906 3.2985528
000050 d1 24 16 40 e3 d3 f6 3f cf 2f 8b 40 32 60 08 40
       2.345997 1.9283413 4.349586 2.1308713
000060 8e 11 1c 40 46 15 24 40 74 fb 5c 40 b6 df 49 40
       2.4385715 2.5637984 3.4528475 3.1542792
000070 53 2b 50 40 bc e8 92 3f 58 2f d9 3f ad 0e d9 3f
       3.2526443 1.1477275 1.6967573 1.6957604

model.4.main.0.weight f4 [32, 32, 3, 3]
000000 5b 38 c7 bd ff a2 05 3d e3 68 f4 bd c9 b5 e5 bd
       -0.09727546 0.03262615 -0.11934068 -0.112163134
000010 0a d4 14 3d b1 c7 43 bc e8 03 28 bd 37 e5 29 bd
       0.03633503 -0.011949466 -0.04101935 -0.041478362
000020 79 61 e1 bd 7c 8a 91 3d ec a4 b8 3b 2e 6d 86 bd
       -0.110049196 0.07106492 0.0056348946 -0.06563793
000030 5d 12 93 bd 96 36 22 3d 1d 57 27 be 40 a1 e2 bd
       -0.07181237 0.03960284 -0.16341825 -0.11065912
000040 87 51 a8 bd d2 33 c8 3d 32 1d b5 3c 16 78 d0 3d
       -0.08218675 0.09775509 0.022108648 0.101791546
000050 49 80 d8 bd 14 80 51 ba 45 c0 1f 3d 33 bf 59 bc
       -0.105713435 -0.00079918024 0.039001722 -0.013290214
000060 61 6b 95 bd 24 83 32 3d 61 56 9b 3d 87 9e 08 be
       -0.072958715 0.043582097 0.07584835 -0.13341723
000070 9c 09 f3 3d 4a 26 86 3d c3 1a 9e bc 24 10 d3 bd
       0.11867067 0.06550272 -0.01929987 -0.10305813
000080 dc aa d2 bd 85 8a ef 3d 0b 5c d2 3d f8 87 88 3c
       -0.10286495 0.116963424 0.10271462 0.016666397
000090 af 9b 33 bd 5a 39 85 3d 02 75 db 3c 54 aa 54 be
       -0.043849643 0.065050796 0.026789192 -0.207681
0000a0 49 a7 eb bd 62 7c af 3d d4 71 9c bc 8b dc cd 3c
       -0.115065165 0.08568646 -0.019097246 0.025129577
0000b0 4c d4 f9 3d b8 2a 72 bd 13 a0 c9 bd 65 ac 3b 3c
       0.121986955 -0.05912277 -0.09844985 0.011454676
0000c0 07 7c be 3c 9d 49 1a 3d 13 45 05 3d 9e c3 29 3c
       0.0232525 0.03766786 0.032536577 0.01036158
0000d0 25 53 6c be 3d 11 64 3e 17 8e 73 3d 85 5f a4 bc
       -0.23078592 0.22272201 0.05946168 -0.020065079
0000e0 b4 4d 1c 3e ef 54 b2 3d a8 c4 26 bc e1 5c 41 3e
       0.15264016 0.08707606 -0.010178722 0.18883087
0000f0 76 5f ca ba 05 a1 d1 3d 81 a4 46 be 1d 87 b7 bd
       -0.0015439827 0.1023579 -0.19398691 -0.08961318
000100 fa 08 45 bd 88 1d 0d 3e 6f 90 04 be 64 f5 4d bc
       -0.048104264 0.13780797 -0.12945722 -0.012570713
000110 b0 68 2e bd 93 80 03 bc 9c d0 0b 3d 8c f1 2a 3d
       -0.042580307 -0.00802626 0.034134492 0.041734263
000120 68 94 58 3e 85 f7 42 3e 25 41 9b bb 79 91 86 3d
       0.21150362 0.19039734 -0.0047379904 0.065707155
000130 04 37 72 bd c5 f1 05 3d b1 e7 8b 3c a8 ba ef bc
       -0.0591345 0.032701273 0.017078253 -0.02926381
000140 10 e2 be 3c 39 6f 3f be 87 53 d1 3d e9 4b 5a bd
       0.023301154 -0.18694772 0.1022101 -0.05329505
000150 12 f9 5f 3d b2 e3 72 3d cd b9 f0 3d 96 a4 97 bd
       0.05468089 0.05929918 0.11754189 -0.07404439
000160 96 91 5e bd 66 ef 88 3d f7 b4 73 bd 41 49 07 bd
       -0.05433806 0.06686287 -0.059498753 -0.033028845
000170 c0 7f 35 3e 5e 90 dc bd ff 43 a6 3d b7 7a 91 bd
       0.17724514 -0.10769723 0.08118438 -0.07103484
000180 a6 6f c2 bd 2f ac 8e bd a9 13 0d 3b 11 17 6b 3d
       -0.094939515 -0.06966435 0.002152661 0.057395045
000190 3f b1 dc bd 82 df d1 3d 50 2d 96 3d af 7e de 3d
       -0.107759945 0.10247709 0.073328614 0.10864007
0001a0 16 ce b4 3d 39 96 b1 3d c8 eb 21 bb 72 30 f9 bd
       0.0882837 0.08671231 -0.0024707187 -0.12167443
0001b0 5d bd 9c 3d fb fa 2c 3c 8f 0a fd bd bb 82 03 be
       0.07653306 0.010557885 -0.123555295 -0.12842838
0001c0 19 eb f5 3b 3b 1d 98 bd a5 6f 4d 3e 8d e3 2b 3e
       0.0075048325 -0.0742745 0.2006212 0.16786022
0001d0 d3 7e c5 bd 0d 90 3b be 98 dd b7 bc 06 06 7c 3d
       -0.096433304 -0.1831667 -0.022444531 0.061529182
0001e0 b9 f3 d9 bc b7 a4 04 3d e4 12 a2 3d 61 78 5e 3d
       -0.026605474 0.032383647 0.07913759 0.05431402
0001f0 09 d7 4b bd 11 50 2f bd c0 f3 69 3d 9d 4c 2e 3d
       -0.04976562 -0.042800967 0.057117224 0.042553533
000200 94 e5 cd 3c d3 f8 09 bd 7f bb 2a bd ab 4b 18 3d
       0.025133885 -0.033684563 -0.041682716 0.037181538
000210 e9 f3 35 bb 15 fb 7d 3d 4d 11 6e 3d 61 11 8d 3d
       -0.002776379 0.06200703 0.058121968 0.068880804
000220 2c 0a 6b bd 81 05 12 bd 8f 88 03 bd a6 ef 28 3e
       -0.057382748 -0.03564978 -0.032112654 0.16497669
000230 79 01 98 3b da 3e a4 bd 62 15 ad bd f8 a2 42 bc
       0.0046388474 -0.080198005 -0.08451344 -0.011879675
000240 0b 9e d1 3d 27 fd d1 bd 82 71 c3 bd bc e7 31 bc
       0.102352224 -0.10253363 -0.09543134 -0.010858472
000250 41 0d 00 3e a3 9f ff 3c a3 cf 50 bd 16 a6 3c 3d
       0.12505056 0.03120405 -0.050979268 0.04605683
000260 61 c3 eb bd 70 15 a0 3b c1 0b fe 3c a5 c7 4a 3d
       -0.11511875 0.004885368 0.031011464 0.049506802
000270 f3 d0 39 be f6 ac 49 3c d9 a8 56 bd e4 c5 85 bd
       -0.18146114 0.0123093035 -0.05240712 -0.06531885
000280 d0 58 6b 3d da a4 e2 3d 66 1d 8a ba 04 f8 5a bd
       0.057457745 0.11066599 -0.0010537326 -0.053459182
000290 51 c9 83 3d 9f 20 78 bd f2 01 35 3d 23 53 eb 3d
       0.064348824 -0.060577985 0.04419131 0.114904664
0002a0 a4 86 7b be 78 b2 dc 3c 8e 6e b4 3d 7a 9d c6 bd
       -0.2456308 0.02694057 0.08810149 -0.09698005
0002b0 4c 2d 3e bd d1 af 35 3c b2 2f 5a bd 99 4c a2 bc
       -0.046429917 0.011089281 -0.053268142 -0.019811915
0002c0 71 1d f4 3d 80 1a d4 bd 47 d3 54 bd 25 9c 64 3d
       0.11919678 -0.10356617 -0.051959302 0.055812974
0002d0 26 d7 18 bb e1 d8 11 3d 44 55 32 bd e5 08 d6 bd
       -0.0023321598 0.035607222 -0.043538347 -0.10450915
0002e0 89 c2 95 bd 8d 43 f0 3c 95 17 e8 bc 85 e0 39 3d
       -0.07312495 0.029329086 -0.028331557 0.045380134
0002f0 6a 8b 84 3c fd 6c 1b be fd 5d 50 bd 68 fd 94 bd
       0.016179759 -0.15178294 -0.050870884 -0.07274896
000300 04 f1 59 bc f4 f5 77 3d cb b2 90 3c 8b f6 a3 3d
       -0.0133020915 0.060537294 0.01766338 0.08006009
000310 a5 51 df 3c d3 fc 8f bd be d9 63 bc 5e a8 a4 bd
       0.02726061 -0.07030644 -0.013906894 -0.08039926
000320 c0 b5 4a 3d fe 33 90 bd 1f 1a ae bc dc 44 8a 3d
       0.049489737 -0.07041167 -0.02125269 0.06751415
000330 18 ac fc bc 80 45 a7 bd 71 ec de bc 10 2c 4a bc
       -0.03084378 -0.08167553 -0.027212353 -0.012339607
000340 ca ad 46 bd 27 4f 8d 3d 28 7b 10 3d 1e f1 63 bd
       -0.048505582 0.06899863 0.0352737 -0.05564987
000350 61 5b 95 ba 9e 97 b9 3c 9c d8 6c bd 93 35 30 3d
       -0.0011395031 0.022655305 -0.057823762 0.043019842
000360 90 6c 3c 3d a3 46 c2 bd 19 e4 b6 3d 00 51 eb bb
       0.04600197 -0.09486129 0.08930225 -0.007181287
000370 8d a8 eb 3d 1d 9d 10 be d4 41 a4 bd 2c eb be bd
       0.11506758 -0.14122434 -0.08020368 -0.09322199
000380 d9 6f 13 3e a0 b0 09 be 6d 67 36 3d a2 30 0e be
       0.14398135 -0.13446283 0.04453223 -0.1388574
000390 64 8f 43 3d d6 c0 d0 3d bf 09 9c bc 11 b4 c7 3c
       0.04774417 0.101930305 -0.019047616 0.024377855
0003a0 91 81 0d bd 81 0c bc bd 2a 7d bc bd f8 42 86 3d
       -0.034547392 -0.091820724 -0.09203561 0.06555742
0003b0 2c ee b4 bc 6c 37 de 3c 5f d2 36 bd 9f b3 0b 3e
       -0.022086225 0.027126037 -0.04463422 0.13642739
0003c0 d8 19 90 bd d1 48 b2 3d 20 e2 53 bd 14 3e 6d 3d
       -0.07036179 0.08705295 -0.05172932 0.05792053
0003d0 49 11 58 bd cd ff 01 bd f0 61 e5 bc ab 42 25 be
       -0.05275086 -0.03173809 -0.028000802 -0.16138713
0003e0 c9 b9 80 bc 61 09 97 bd 55 c1 03 3d 60 28 31 3d
       -0.01571359 -0.07374836 0.032166798 0.043251395
0003f0 59 67 4f 3e 1f 7e 54 3c 06 f2 e2 3b 7b 29 53 3e
       0.20254268 0.012969523 0.006925824 0.20621292

model.4.main.1.weight f4 [32]
000000 37 dc 7e 3f 5e ef 82 3f f8 26 81 3f 36 e7 77 3f
       0.9955477 1.0229299 1.0090017 0.96837175
000010 23 93 81 3f f5 eb 84 3f d0 ee 77 3f 0c d4 82 3f
       1.0123028 1.0384508 0.96848774 1.0220962
000020 9a 25 7d 3f b3 f9 79 3f 48 4a 7f 3f 87 9e 83 3f
       0.988855 0.97646636 0.9972272 1.0282754
000030 f6 7e 80 3f 97 92 7d 3f 31 1a 7b 3f de 98 7a 3f
       1.0038745 0.99051803 0.9808684 0.97889507
000040 5a d6 81 3f ae 2c 7a 3f 35 c2 7a 3f 49 3c 80 3f
       1.014354 0.97724426 0.97952586 1.0018398
000050 c7 f0 82 3f 44 52 82 3f 34 f5 7f 3f 70 0b 7b 3f
       1.022973 1.0181355 0.99983525 0.9806433
000060 0c 20 7f 3f c1 ce 7e 3f 4f c3 7e 3f fd da 7f 3f
       0.99658275 0.9953423 0.9951677 0.99943525
000070 fc e4 81 3f bb 58 82 3f a6 eb 81 3f 5d d6 7a 3f
       1.0148005 1.0183328 1.0150039 0.9798334

model.4.main.1.bias f4 [32]
000000 a1 15 f8 bb 50 6d 51 3d 2e 23 47 bb ce 76 08 bd
       -0.0075709377 0.05112964 -0.003038596 -0.033316426
000010 a2 7f 9d 3c 1f 16 2f 3d 7d 45 6c 3c e3 20 8e 3c
       0.0192259 0.042745706 0.014420864 0.017349666
000020 51 a8 a4 3c 1b 6b 44 3c 7c d2 0c bc e3 c3 43 3d
       0.02009979 0.011988427 -0.008595105 0.047794234
000030 52 a6 e8 3b 39 fe a2 ba b7 02 2c bc 32 f3 08 3b
       0.007099905 -0.0012435383 -0.010498694 0.0020896909
000040 35 2a ab bc 8a 4b f3 3c 5a fc a3 3c 4e 2a f6 bb
       -0.02089415 0.029699106 0.020017792 -0.0075123673
000050 c4 88 2e 3c cc 89 cc ba 3f 1b 13 3d 70 8a 19 bd
       0.010652725 -0.0015605032 0.035914656 -0.03748554
000060 f4 53 5f bc 9d 8b e6 bb 83 e7 aa 3b c1 4b 8e ba
       -0.013630856 -0.007035686 0.0052155866 -0.0010856317
000070 95 ac d7 3a ac cd f8 3c d6 63 02 bc fb 70 0b bc
       0.0016454632 0.03037151 -0.007958373 -0.008510823

model.4.main.1.gate f4 [32]
000000 b5 ce 81 3f 16 9e a2 3f ce 19 9b 3f a6 56 89 3f
       1.0141207 1.2704494 1.211725 1.0729568
000010 32 a1 8a 3f f1 17 b5 3f dc ec 50 3f 42 1e 7f 3f
       1.0830443 1.4147931 0.8161142 0.99655545
000020 f5 4e 8b 3f 0f b1 8f 3f bc d3 80 3f d5 02 69 3f
       1.0883471 1.1225909 1.0064616 0.91019946
000030 2c f3 6c 3f ec 3e a0 3f 9d de 80 3f d6 0a 70 3f
       0.9255855 1.2519202 1.0067936 0.93766534
000040 05 b0 58 3f 1e e6 84 3f f7 f9 60 3f f2 2b 97 3f
       0.84643584 1.0382726 0.87881416 1.1810286
000050 2d 49 73 3f f0 3e 49 3f e9 00 81 3f c9 23 3c 3f
       0.9503353 0.7861166 1.0078403 0.73492104
000060 a6 38 88 3f 6e 96 70 3f 73 18 80 3f ca 08 87 3f
       1.0642288 0.9397954 1.0007461 1.0549557
000070 5c 22 86 3f 46 b6 f9 3e 57 8f 6e 3f d0 5f 88 3f
       1.0479236 0.48771876 0.9318747 1.065424

model.4.main.1.running_mean f4 [32]
000000 f8 1a ee be f9 c3 76 be 78 28 de be ed b9 48 3d
       -0.4650495 -0.24098195 -0.4339025 0.049005438
000010 3e ff 38 be 61 78 48 be f1 2c 39 3f a8 3a ab be
       -0.18066117 -0.19577171 0.723342 -0.3344319
000020 4f dc a0 be 83 8c 7b ba eb f5 df 3e e0 f6 cf 3d
       -0.31418082 -0.0009595828 0.43742308 0.101545095
000030 c0 53 c8 be 91 7e f3 bd bd af 2b be e9 27 2b bf
       -0.39126396 -0.11889375 -0.16766258 -0.66857773
000040 e0 88 54 bf c8 5a 09 bf e4 d6 4b bd b0 69 3b 3e
       -0.83021355 -0.53654146 -0.049765483 0.18302035
000050 b7 64 39 bf d2 a6 8a 3e 7b 40 d1 bd aa de 96 3e
       -0.72419304 0.270804 -0.10217377 0.29466754
000060 de 3d 3a 3e 4a 67 1f 3f 6b 65 42 bd 6c 5d bb be
       0.18187663 0.6226698 -0.04746 -0.36594713
000070 8e 96 3d be 31 e9 79 3e d8 9f d5 be 69 3d 6a 3e
       -0.18514463 0.24405362 -0.41723514 0.22874989

model.4.main.1.running_var f4 [32]
000000 51 8d 9f 40 a0 58 94 40 63 f7 4e 40 3d 28 78 40
       4.9860005 4.6358185 3.2338493 3.877456
000010 e7 30 c5 40 3c 6e c0 40 0e 02 a0 40 e3 fe 81 40
       6.1622195 6.0134563 5.000251 4.062364
000020 fe a9 77 40 7d 91 70 40 e7 7b c4 40 84 d6 86 40
       3.8697505 3.75888 6.140125 4.213686
000030 08 17 06 40 eb 48 af 40 49 9d 86 40 b8 58 28 40
       2.0951557 5.477651 4.2067 2.630415
000040 cd 12 47 40 ac bd 72 40 e6 80 bf 40 25 43 c9 40
       3.1105225 3.7928267 5.9844847 6.2894464
000050 a4 0b 89 40 d7 ab e5 3f 91 0b 07 41 c8 bb 99 40
       4.282671 1.7943066 8.440324 4.8041725
000060 61 25 aa 40 a8 ba bb 40 e4 ea 9c 40 a3 c1 a8 40
       5.317063 5.866535 4.903673 5.2736373
000070 41 a0 a3 40 98 a4 87 40 8c 2e 1f 40 5c 2b af 40
       5.1133122 4.238842 2.487216 5.474043
