checkpoint/clf/experiment_name/1000/netG.pth (torch, 244594 bytes, 32 tensors)

model.0.bias f4 [32]
000000 d6 68 c7 3b 42 da f7 3a 8d 08 e7 3c 8d 3b c0 3d
       0.0060854955 0.001890965 0.02820232 0.093863584
000010 b5 2a 16 bd 85 e4 98 3d 03 97 97 3c d5 97 08 3d
       -0.036661822 0.07465462 0.018504625 0.033347923
000020 10 ad 63 bd f0 ef 62 3d 23 c7 d1 3b 67 e4 3e bd
       -0.055584967 0.055404603 0.006401913 -0.04660454
000030 e0 f4 42 3d 34 b8 40 3c ab 05 c0 3b 8e d3 3d 3c
       0.047596812 0.011762667 0.0058600507 0.011586083
000040 99 1f eb bc bc 5e 32 3d 34 41 43 bd 97 3d 5e bd
       -0.02870159 0.043547377 -0.047669604 -0.054257955
000050 91 ca 00 3e 29 43 84 bc 1e 37 dc 3c 05 60 b9 bc
       0.12577273 -0.016145306 0.02688175 -0.022628793
000060 3f b5 29 bb a7 9f 45 bd e5 7e 89 bd f7 7e 1b bd
       -0.0025895385 -0.04824796 -0.06713656 -0.03796288
000070 e2 3c 70 3d fc f5 57 3d b7 77 fb 3c 3a 05 1d bc
       0.058651812 0.052724823 0.030696733 -0.009583766

model.0.weight_orig f4 [64, 32, 3, 3]
000000 09 01 bc bc ba c6 3f bc 02 95 d2 3c bc c0 99 3c
       -0.022949712 -0.011705095 0.025705818 0.01876866
000010 ed cf 77 3d bb 75 82 bc 27 f5 00 3c ed f0 81 3d
       0.060501028 -0.015925279 0.007870949 0.06344781
000020 e0 12 17 3d 97 31 15 3d d3 bb 82 3d df db 1a bd
       0.036883235 0.036424246 0.06383481 -0.03780734
000030 0a db cb 3c 7a 05 6d 3d 92 8b 7e bc 26 15 16 3a
       0.02488472 0.05786655 -0.015536206 0.0005725197
000040 4e 4b cc 3b 24 e0 17 bd 73 5b 56 3d 1d f5 8b bc
       0.006234563 -0.03707899 0.052333307 -0.017084653
000050 b7 15 3c 3c dc 4f 32 bd 34 c4 af ba 11 54 e7 bb
       0.011479787 -0.04353319 -0.0013409914 -0.007059582
000060 d5 ca 2d bd 57 9d 54 bd 2f 21 dc bc 69 95 31 bb
       -0.042429764 -0.051907863 -0.026871292 -0.0027097112
000070 5b 51 60 3b c9 ca 32 3d b0 fc 7e 3d 1a d1 83 3d
       0.003422818 0.043650422 0.0622527 0.06436367
000080 4d 3d 2c bc 34 66 67 3d 6c d3 05 bd 8d 3b 7e 3d
       -0.010512662 0.056493953 -0.03267233 0.06206851
000090 11 34 0c bd df 6d 99 bd 33 d5 8e bd a8 ea 3c bd
       -0.034229342 -0.074916594 -0.06974258 -0.046122223
0000a0 f5 24 d2 bb 0d 2e 7b 3c c8 3c 1a bd 6c ee 38 bd
       -0.006413097 0.015330804 -0.03765562 -0.04514925
0000b0 26 9e 69 bd 8f da 5c 3c 82 fa 99 3d 15 36 b6 3c
       -0.057035588 0.013479843 0.07518484 0.022242585
0000c0 e9 52 89 bc a1 64 ab bb 71 fd 15 bd ca 95 61 bc
       -0.016763167 -0.0052305018 -0.036618654 -0.013768623
0000d0 a7 4f 29 3d 65 8a 5c bd 0d 18 a8 bb 92 89 07 bd
       0.041335728 -0.05384292 -0.00512982 -0.03309018
0000e0 d1 1b 6a bd 12 6d 11 3c 6c 90 d3 bc 10 30 53 3d
       -0.057155434 0.008876102 -0.025825702 0.051559508
0000f0 66 ec 12 3d 7a 33 08 bd 27 06 80 bc 9b ef 23 3d
       0.03586998 -0.033252217 -0.015627934 0.040023427
000100 75 a6 02 bd c9 10 3a 3c 1c 96 1e bb 9c 5c b2 3c
       -0.031897027 0.011356541 -0.002419836 0.021772675
000110 36 f3 5e bd 35 e8 cc bc 10 b7 32 bd 35 04 9f bd
       -0.054431163 -0.025013069 -0.043631613 -0.07764474
000120 12 cb 39 bd b0 ba 09 3d 34 20 24 3d ae 51 3a bd
       -0.04535968 0.033625305 0.040069774 -0.045488052
000130 87 11 d7 3b 98 eb c2 bc 3d ac 2d 3d 45 15 08 bd
       0.0065633687 -0.02379398 0.042400587 -0.03322341
000140 0b f4 79 3d d9 1c ad bb 00 42 4f 3d d3 3e bc bc
       0.061023753 -0.00528298 0.050600052 -0.022979176
000150 98 7d df 3c 13 10 d2 bc 2b 3a 22 3c c9 26 76 3d
       0.027281567 -0.02564243 0.009901564 0.060095582
000160 b7 5e a8 bc 94 78 51 bd f1 f4 51 3b b3 dc 62 bd
       -0.020552976 -0.051140383 0.0032036866 -0.055386256
000170 3c 96 03 3d fd 42 03 bd ec 09 e6 3c 29 d7 6d bc
       0.032125697 -0.032046307 0.028080903 -0.01451663
000180 9b 6c 5d bc 98 20 3f 3d 79 c7 43 bd af d3 58 bd
       -0.013514663 0.046661943 -0.047797654 -0.052936252
000190 78 b6 10 3d c7 ec b0 3b 7d 0e 54 bd a1 30 78 bc
       0.035330266 0.00539932 -0.05177163 -0.015148313
0001a0 8f 49 bc 3c a0 74 98 3c 4f 06 6f bc 31 77 f0 3b
       0.022984294 0.018610299 -0.014588906 0.0073384275
0001b0 4b 61 11 bc ec 32 06 3d fd 6d a6 bc 27 f5 5f 3d
       -0.008873294 0.032763407 -0.020316118 0.054677155
0001c0 7f 6c 9e 3d b3 0a c9 bc d2 73 ec bb 42 1f 69 3c
       0.07735538 -0.024541235 -0.0072159553 0.014228644
0001d0 11 a4 11 bd f9 79 3f ba d5 90 09 bd 3f f5 8a bc
       -0.035556857 -0.0007304247 -0.03358539 -0.016962646
0001e0 e5 52 f2 3c 17 51 35 3c 10 7d 39 bd a7 2f d4 3c
       0.029580543 0.011066697 -0.045285285 0.025901629
0001f0 86 7c 5b bd dd bd a1 bc 82 fe b7 3c ea 4c 80 3b
       -0.05358555 -0.019743854 0.022460226 0.003915419
000200 b5 00 20 3d 1f 38 0c bc 72 33 b1 3c ce c9 10 3d
       0.039063174 -0.008558302 0.021630976 0.035348706
000210 bd bc 06 bd 79 8f 6b 3d 3e d9 24 bd 7b d3 ff 3c
       -0.03289484 0.057509873 -0.04024624 0.031228771
000220 d4 7f f4 3c 30 42 50 3d d0 bb 68 3d 7c 6e 34 bd
       0.02984611 0.05084437 0.056819737 -0.04405068
000230 17 58 c4 3c 19 a2 d6 bc 28 fd 34 bd 5a ca 8a bc
       0.023967786 -0.026200341 -0.04418674 -0.016942192
000240 e3 a6 17 3d 7e f3 4c bd 2a 5a 22 bd 1c 8a 4f 3c
       0.03702439 -0.0500369 -0.03963677 0.012667205
000250 05 24 64 bd 5f bb 21 3d 78 7c 2d 3d d8 2e 0b bd
       -0.055698413 0.03948533 0.04235503 -0.03398022
000260 35 51 04 3d b9 a0 4b 3d 7a 34 24 bc e4 93 a8 3c
       0.032304008 0.049713824 -0.010022277 0.020578332
000270 8d 89 89 3d f7 8e f6 3c 52 41 d8 3b af 58 6b 3d
       0.06715689 0.030097468 0.0065995837 0.057457622
000280 e4 c5 a5 3d bf e4 42 bb 1d 46 49 3d 4f a8 3c bd
       0.08094385 -0.0029738394 0.04913913 -0.04605895
000290 25 b8 8f 3c 6b 44 1b 3b cc 94 95 3c c5 2f 71 bd
       0.017543862 0.0023691903 0.018259428 -0.058883447
0002a0 5b ae 08 3d f2 7d 22 3d 78 08 c5 3c bf b2 ac 3c
       0.033369403 0.039670892 0.02405189 0.021081327
0002b0 84 67 16 bd ac 5d 9f 3c a4 0c 67 bc 21 8b c6 3b
       -0.036719814 0.019453846 -0.014102135 0.006059066
0002c0 73 76 5a 3d 55 03 6f 3c ab 8b 84 3c 55 f9 6d 3c
       0.05333562 0.014588197 0.01617988 0.014524777
0002d0 72 65 0d 3d 65 43 5d bc e0 a8 eb bc 46 58 5d 3d
       0.034520574 -0.013504838 -0.02876705 0.054039262
0002e0 8b 22 1b bc e3 69 83 3d 75 da 3c 3d b7 32 31 ba
       -0.009468685 0.06416681 0.046106774 -0.0006759571
0002f0 c3 ca 2c 3d 72 a3 9d bc d5 9d 5a 3d 72 15 f2 bc
       0.042185556 -0.019242976 0.053373177 -0.029551242
000300 9e 89 35 bd a7 b4 03 3d 22 a8 13 3b 51 17 55 3d
       -0.044320695 0.032154705 0.0022530635 0.05202419
000310 91 fc 3f 3c c2 da 2e bd 1c 82 ff 3b f8 f5 50 bd
       0.011717931 -0.042689092 0.0077974927 -0.051015824
000320 cb 72 10 3c 1e 50 22 3d 3a b3 50 3d a7 b8 ca bc
       0.008816431 0.039627187 0.050952174 -0.024746252
000330 94 5b 1f bd 04 46 15 bd 72 26 03 bd d6 2c 22 bb
       -0.038905695 -0.036443725 -0.032019086 -0.0024745963
000340 61 ad 57 3c cb e1 00 bd 6d ed 3d bd f3 1e 2c 3c
       0.013163895 -0.031465333 -0.046369005 0.010505426
000350 e3 70 3b 3c 1d c5 f8 bb 1f b2 60 bd 70 d8 39 bd
       0.0114404885 -0.007591857 -0.05485737 -0.045372427
000360 de ef ec bc 9e 0e 0a bc de 5c b3 3c bd 80 48 bd
       -0.028922971 -0.008426337 0.021894868 -0.0489509
000370 90 6f 32 3d c5 38 fe 3c 07 b8 a3 bc 85 65 a4 3b
       0.043563426 0.03103293 -0.019985212 0.005016985
000380 4a 40 90 3d 37 2f b1 bb 46 a9 7e 3c 2d 3d 28 bd
       0.07043512 -0.00540724 0.015543288 -0.041073967
000390 4d b3 4c bd d2 50 10 3c d2 9e 2f 3d 9c 74 4d 3d
       -0.049975682 0.008808332 0.042876072 0.050160035
0003a0 0d 71 86 3d c7 f2 16 3d 57 c1 12 3d bf b5 82 bc
       0.065645315 0.036852624 0.035828914 -0.015955804
0003b0 f6 a9 6f bc 64 4f 3a 3d 01 c4 01 bd e4 49 0e bd
       -0.014627924 0.04548587 -0.031681065 -0.034738436
0003c0 d4 7b 01 3d 5a d9 1b bb 36 4b c8 3c 12 c4 24 bd
       0.031612232 -0.0023780675 0.024449926 -0.04022605
0003d0 11 81 88 3d ef 02 87 bc ed 00 33 3c 80 82 89 3b
       0.066652425 -0.016480891 0.010925514 0.004196465
0003e0 f5 81 a0 bc 13 25 7e 3d 87 6b 03 3d 98 7a 28 3c
       -0.019593218 0.062047075 0.032084968 0.010283135
0003f0 c6 98 e3 3c 49 01 22 3d 8e 1f 88 bc 37 1d 60 bd
       0.027782809 0.039552007 -0.016616609 -0.05471536

model.0.weight_u f4 [32]
000000 95 bd 95 3e 66 7a 64 3e 63 4f 4f 3d de 38 86 3e
       0.29246202 0.22312316 0.05061282 0.2621526
000010 23 66 99 bd 18 30 14 bd 8a 14 ed bc 1a fc 89 be
       -0.07490184 -0.03617868 -0.028940458 -0.2695015
000020 7e 21 a5 ba be 79 00 3e 7d 60 0d bc c7 40 ad bd
       -0.0012598482 0.12546441 -0.008628962 -0.08459621
000030 8e 4d 47 3e 7e a5 36 be d4 7a e3 bc 1a c9 a0 bd
       0.19463179 -0.17836568 -0.02776853 -0.07850857
000040 56 1e 99 bc 41 97 ad 3e 6e ae f4 bc d5 f5 b7 bd
       -0.018691223 0.3390446 -0.02986833 -0.089824356
000050 89 6d 23 3f b9 35 5b 3d 54 a9 80 bd 42 e4 ac bd
       0.6383901 0.05351803 -0.06282297 -0.08441974
000060 a2 f5 1c 3e 50 dd 9b 3d 59 c4 d4 bc 59 3a b6 3d
       0.15328076 0.076105714 -0.025972532 0.08897848
000070 ce 99 6e bd 1c a0 9e bc ef a1 16 3e 82 7f 87 3d
       -0.05825215 -0.019363455 0.1471021 0.06616117

model.0.weight_v f4 [576]
000000 ed 23 1e 3c d9 e0 2c 3d c5 54 49 ba 84 96 93 3d
       0.00965212 0.04220662 -0.0007680173 0.07206443
000010 d8 9c 61 3d 53 bb 2d 3d 47 2e b0 3d 68 80 99 3d
       0.05508122 0.042414974 0.08602577 0.07495195
000020 10 98 8c 3d b2 dd 34 3d f8 76 a3 3c 76 c6 a6 3d
       0.06864941 0.044156738 0.01995419 0.08143322
000030 f9 e3 3a 3d 52 f7 6f 3d 6c e4 b7 3d 16 97 7e 3d
       0.045627568 0.058585472 0.08979115 0.062155806
000040 85 26 a0 3d 2f c6 d8 3d ec 4d b5 3c 53 7f 9b 3c
       0.07819847 0.105846755 0.022131883 0.018981611
000050 c2 0c 0b 3d ba 8d 2c 3c a7 65 a2 3c 9a e7 f9 3c
       0.033947714 0.010531837 0.019823862 0.030505944
000060 bf 7e 89 3c ef 51 10 3d 3a f1 8b 3d 95 ae 86 3c
       0.01678407 0.035234388 0.0683312 0.01644067
000070 d0 31 97 3c 38 e3 90 3c c7 50 5d 3d 58 8c a9 3b
       0.01845637 0.017686471 0.054032113 0.005174201
000080 14 2c cf bb fe 84 57 3d 05 ce 1f 3d 39 d2 1a 3d
       -0.006322393 0.052617066 0.039014835 0.03779814
000090 61 85 2f 3d b8 ec 97 3d 5e cf 3d 3d 2a d3 56 3d
       0.04285181 0.074181974 0.04634034 0.052447475
0000a0 fa 0a aa 3d e4 77 87 3d 4d 16 80 3c af 55 8a 3d
       0.08302875 0.06614664 0.015635634 0.06754624
0000b0 e8 7e 13 3d 98 6b 29 3c 7f 5c ef 3c 25 8b d4 ba
       0.0360097 0.010340594 0.02921891 -0.0016215785
0000c0 62 ef 00 3d 9a d9 3c 3d 6a 3d 46 3b 86 11 23 3c
       0.031478293 0.04610596 0.0030249008 0.009952908
0000d0 9c ab af 3b 02 47 91 3b 47 46 49 3d 2f 90 11 3d
       0.0053610336 0.0044335136 0.049139287 0.035537895
0000e0 18 f0 43 3d 0a 12 64 3d 16 77 79 3d 8d 05 5c 3d
       0.047836393 0.055681266 0.060904585 0.05371623
0000f0 51 92 57 3d 84 c8 54 3d d9 e3 39 3d ff 74 d3 3b
       0.052629773 0.05194904 0.045383308 0.006453156
000100 56 34 ed 3c b2 e4 71 3c 9a 4a fc 3c c1 1b e7 3c
       0.02895562 0.014763998 0.030797292 0.028211476
000110 e3 e8 72 bc 92 88 3e 3b cd f4 29 bc 60 ce 9d bb
       -0.014826032 0.0029073101 -0.010373306 -0.0048158616
000120 6e b7 bc 3c 95 d5 ba 3d b6 81 09 3e f3 09 fc 3d
       0.023036685 0.09122769 0.13428387 0.12306585
000130 3a 0a 03 3e e6 5e fa 3d db cf c1 3d 21 af 97 3d
       0.1279687 0.12225132 0.094634734 0.0740645
000140 ff e9 a3 3d 73 51 80 3c 69 f9 45 3d 66 42 f1 3c
       0.080036156 0.015663838 0.04833356 0.029450607
000150 6c 72 21 3c ef bf 9a 3d d3 f3 93 3b d6 ad a9 bb
       0.00985394 0.0755614 0.00451515 -0.0051781936
000160 7b 92 b6 bb ae a6 ee 3b 30 36 a5 ba 91 49 f8 3c
       -0.005571661 0.0072830534 -0.001260465 0.030308517
000170 53 f5 a7 3c fe 0c 09 3d e5 05 0d 3d 3d 26 81 3c
       0.020502722 0.033459656 0.03442945 0.015765304
000180 9e 1e 2a 3d 1f 13 50 3d 8e 29 16 3d df 7c cb 3c
       0.041533105 0.050799485 0.036660723 0.024839817
000190 f2 72 51 3c 75 34 8b 3a 25 fa b0 3b 6d e8 e0 ba
       0.012783753 0.0010620492 0.0054009133 -0.0017159112
0001a0 16 d9 3a bc a5 40 97 3c 4d 90 ca 3b d7 9f d9 3b
       -0.011404296 0.018463442 0.006181753 0.006641369
0001b0 e3 23 c3 3c 17 87 5e 3c e5 60 b7 3c 97 74 92 3c
       0.023820823 0.013582013 0.02238507 0.01787786
0001c0 91 d3 89 3d 1a 5b 8f 3d 63 a6 70 bb 8e 32 7d 3c
       0.06729806 0.06999798 -0.0036720268 0.015453948
0001d0 0a c7 a8 3d a4 b7 0c 3c ae 65 68 bc 60 d4 e4 bb
       0.08241089 0.008588705 -0.014184399 -0.006983325
0001e0 4a 63 69 3c 35 d9 a6 3c ad 4c a3 3c df 09 bf 3c
       0.014244864 0.020367244 0.019934023 0.023320137
0001f0 6c 84 17 3c 34 4d b2 3c a3 20 8c 3d 4f 56 76 3d
       0.00924788 0.021765329 0.068421625 0.060140904
000200 89 42 83 3d 5f 1e 5e 3d 79 c7 6f 3d d6 2f b9 3d
       0.06409175 0.054228183 0.05853984 0.09042327
000210 00 d5 c9 3d 6f 35 d4 3d 15 22 8d 3d 25 8e 32 3d
       0.0985508 0.10361754 0.06891266 0.04359259
000220 35 26 1f 3d e5 05 b3 3b 08 a1 63 3d 20 46 45 3d
       0.038854796 0.005463349 0.055573493 0.04816258
000230 a7 b9 81 3c 11 67 3b 3d 65 62 a4 3d 5a 0a 0f 3d
       0.015835596 0.04575259 0.0802658 0.03492198
000240 a3 06 8e 3d 71 9f a8 3c a9 4f 91 3d f5 d3 8e 3c
       0.069348596 0.02058384 0.07095272 0.017435053
000250 84 0a 44 3d 51 2f 7e 3d eb 76 2e 3d 59 85 bf 3d
       0.04786159 0.062056843 0.042593878 0.09351606
000260 b7 24 67 3d 27 ad 35 3d db 03 e1 3c 7e e1 92 3c
       0.0564315 0.044354584 0.027467659 0.017929789
000270 23 b5 0d 3b e5 aa 02 3d 51 aa b3 3c 7d 24 c2 3c
       0.0021622858 0.03190126 0.0219318 0.02369904
000280 65 16 53 3b 7a 62 92 3c 51 0f ea 3d 43 be 57 3d
       0.0032209393 0.017869223 0.114287026 0.052671682
000290 1d 4f 42 3d ce 13 b7 3d fd 5c a2 3d 8f 3a 04 3e
       0.04743873 0.08939324 0.07927892 0.12912963
0002a0 af b6 c1 3d ad ba 94 3d bf dd 8b 3d cd 32 2e 3d
       0.09458672 0.07262168 0.06829404 0.042528916
0002b0 08 2a 29 bc 55 85 28 3d bc 57 0c 3d 7a de bc 3c
       -0.010324962 0.04114278 0.034263358 0.023055304
0002c0 be 8c 2e 3d 7b a7 70 3d f4 b7 fb 3c 39 b6 84 3d
       0.04261469 0.05875347 0.030727364 0.06480069
0002d0 37 5d 01 3d 80 9c a9 3d 9c 74 89 3d ee bc bc 3d
       0.031583037 0.08281803 0.067116946 0.09215723
0002e0 07 33 2e 3d 34 9b 81 3d 84 6e e8 3d 3f 0c 93 3d
       0.042529132 0.06328431 0.11349204 0.0718007
0002f0 54 6c a2 3d d5 90 39 3d 1f fb 1b 3d d0 a6 33 3d
       0.07930818 0.04530414 0.038081285 0.043860257
000300 24 e3 13 3d 9d d0 aa 3c 42 29 fc 3c 96 dd fd 3c
       0.03610529 0.020851428 0.030781392 0.03098945
000310 6f be d2 3c c3 8e f4 3c ab 99 91 39 fd b0 06 3c
       0.025725571 0.02985323 0.00027771047 0.008220908
000320 6a 11 b2 bc a8 1f c2 3b 86 b6 ea bb c3 9d 0e bc
       -0.02173682 0.005924184 -0.007162872 -0.0087046055
000330 47 b6 2e 3c 3d fc ad 3c 90 d5 2b 3c 5f 7c 30 3a
       0.0106635755 0.02123844 0.010487929 0.00067324
000340 49 8e 18 3c cc f7 44 3c dc cd 88 3c da cb 45 3b
       0.009311267 0.01202197 0.016699724 0.003018132
000350 f3 2c 98 bb 2a f0 cd 3b 7e 71 92 b9 a8 3a 81 bc
       -0.0046440302 0.0062847333 -0.00027931848 -0.01577504
000360 c6 cf 50 3c 72 d7 c9 3c 96 96 3b 3c a7 4e f2 bb
       0.01274485 0.024638865 0.011449477 -0.00739463
000370 90 bb 8f 3b 57 e7 ad 3b 3d 5b 9b 3a 69 5d 46 3b
       0.004386373 0.005307119 0.0011852753 0.003026808
000380 40 5f f4 3c 86 e9 8e bb c0 11 6f 3b a9 e6 7f 3c
       0.029830575 -0.0043613343 0.0036479086 0.0156189585
000390 df 47 0d 3c 95 1d df 3b ae 4d c1 3c 6c 25 20 bb
       0.008623092 0.0068089464 0.02359661 -0.0024436368
0003a0 d6 2e 56 3a d9 a0 5d 3b 1a 5c a5 3d af 47 d6 3d
       0.0008170431 0.0033817797 0.080742076 0.10462891
0003b0 f3 ac 70 3d 2b cd 27 3d 79 87 9d 3d 64 3c 5f 3d
       0.058758687 0.040967148 0.07691855 0.054500952
0003c0 0c 1b a7 3c d0 b4 44 3d 88 21 1d 3d 93 4a a4 3d
       0.02039864 0.048024 0.038362056 0.080220364
0003d0 15 ad 9e 3d 7e 42 aa 3d cf 93 cf 3d 53 4a 98 3d
       0.077478565 0.08313464 0.10135614 0.07436051
0003e0 f0 ce c4 3d e2 1b c0 3d e2 f6 81 3d 9f 47 6c 3d
       0.09609783 0.09380318 0.06345917 0.05768549
0003f0 c2 bd 80 3c 77 66 b7 3c 52 b4 c0 bb 86 67 c1 bb
       0.015715484 0.022387726 -0.005880871 -0.0059022335

model.2.main.0.weight f4 [32, 32, 3, 3]
000000 82 92 2e 3e e6 bd 4b 3d ca 7f a3 3d ac 10 6e bd
       0.17048076 0.04974165 0.07983358 -0.05812137
000010 bc 2f 68 bd 37 29 02 3d 8d 5b 1b 3b 49 64 ec bd
       -0.056686148 0.031777587 0.0023705692 -0.115425654
000020 ac 0f 9c 3d ed 71 ba 3b 7f c5 87 3d 9d 14 c4 3d
       0.07620177 0.0056898505 0.06629466 0.09574244
000030 b7 27 7d 3d d1 2a 08 3e af f7 aa bc 2f c1 4b 3e
       0.061805453 0.13297583 -0.020870058 0.19897912
000040 60 97 ed bc bf 60 f9 3c a8 4f 3d 3e 19 45 f9 3c
       -0.029002845 0.03044164 0.18487418 0.030428456
000050 52 2a 94 bb a3 99 1c bd 76 0b ab 3d f5 8b 8c bb
       -0.0045216465 -0.038232457 0.083517954 -0.004289145
000060 ac 0a cb bd ff 67 22 be f3 c5 67 3d 45 d2 58 bd
       -0.09914145 -0.15859984 0.056585263 -0.052934904
000070 31 53 3e be 1f 06 94 bc ec be 24 3e cd 4b 88 3d
       -0.18586423 -0.018069325 0.16088456 0.06655083
000080 9a 10 aa 3b f9 66 e0 3d 1b ce 04 bd 0a 77 15 be
       0.0051899673 0.109571405 -0.03242312 -0.14596191
000090 52 d6 bd bd 31 3f 4f bc 30 da ef 3d 9c b0 7b bd
       -0.09269394 -0.012649343 0.11711538 -0.061447725
0000a0 44 e0 95 3b e2 69 b9 3c b2 b4 2b be 83 cf 14 3e
       0.0045738537 0.022633497 -0.16768149 0.14532284
0000b0 4e 00 00 bd d4 9a 6d 3d 75 32 d9 bd 22 87 c3 bc
       -0.03125029 0.058008984 -0.10605327 -0.023868147
0000c0 2e 10 22 3d 0d 7d 3b bd fb e2 32 3e cc 2f 42 be
       0.03956621 -0.045773555 0.17469399 -0.18963546
0000d0 2b 2e 82 3c db e2 24 bd c4 cc 02 3d 6c 27 02 be
       0.015891155 -0.04025541 0.03193356 -0.12710351
0000e0 29 f1 ce bd 90 92 df bc 70 3e 00 be ce a4 ea bd
       -0.101045914 -0.027291566 -0.12523818 -0.11457215
0000f0 d6 87 a5 bb 5e 43 f5 ba 82 b6 d3 3b 61 83 f1 3c
       -0.0050515933 -0.0018712094 0.0064609656 0.029481592
000100 29 de 41 be ba df 23 bd 9f bd 6a 3d db c9 0a be
       -0.18932404 -0.040008284 0.057309743 -0.13553564
000110 cc dd 68 bd ec 3e eb bc 2b e3 28 3d d1 3d 31 3c
       -0.056852147 -0.028716527 0.04123227 0.010817961
000120 87 78 87 bc eb 4e 18 3d 1c 95 e3 3d 48 a6 24 3d
       -0.016536964 0.037184637 0.11112425 0.04019764
000130 80 e1 cc 3d c2 a4 4b bd 9a e6 b5 bc 8b dc 34 bd
       0.10003948 -0.049717672 -0.022204686 -0.04415564
000140 a7 d8 03 3e 34 2f b8 bd 8e 19 cd 3b 42 f5 72 bd
       0.12875615 -0.08993378 0.00625915 -0.059315927
000150 26 d7 0c 3c 80 55 30 bd f9 08 c5 3d c0 ce 17 3d
       0.008596217 -0.04305029 0.09620852 0.037062407
000160 52 c0 9c 3d cc 00 56 bd df 13 d2 3c e7 60 23 3c
       0.0765387 -0.052246854 0.02564424 0.009971834
000170 03 5c b8 bd 77 2e 8f bd 7c 99 f2 bd 75 9f 2b 3e
       -0.09001925 -0.06991284 -0.11845681 0.16760047
000180 26 f9 b2 3c ba c6 0b be 70 74 b1 bd 18 71 62 bd
       0.021847319 -0.13650027 -0.08664787 -0.055283636
000190 c7 c7 89 bd d2 83 65 3d d2 47 d7 bd 44 03 b9 3d
       -0.06727558 0.056033917 -0.105117455 0.09033826
0001a0 10 53 0b 3d 21 7d 8f 3e 11 43 10 3d 1a 84 cb 3d
       0.03401476 0.28025153 0.03522021 0.09937306
0001b0 d3 33 7f bc b7 15 e5 3a b2 4e aa bc 20 cd 82 bd
       -0.015576321 0.0017477785 -0.020789478 -0.06386781
0001c0 76 0a cd 3c 54 be 65 bd 59 f2 44 be b5 13 9a 3d
       0.025029402 -0.056089714 -0.19233073 0.0752329
0001d0 33 91 00 bd 6e 1f e1 bc 03 c3 41 3d 09 1c a0 bc
       -0.031388473 -0.027480807 0.04730512 -0.019544618
0001e0 96 3a 02 3e 53 68 15 3e de 96 ab 3c 2f 3a 2b 3e
       0.12717661 0.14590578 0.020945963 0.16721414
0001f0 b9 07 ff bd c5 e9 01 bc dd 55 4c 3c f8 60 8e bc
       -0.12452645 -0.00792927 0.012471643 -0.017380223
000200 d1 fd 84 3d c6 11 9c 3d 32 fd 93 3d f9 eb cb bb
       0.06493724 0.076205775 0.072260275 -0.0062231985
000210 99 e6 e2 3c 30 d3 80 3d be 34 9c 3d 00 2e 69 3e
       0.027697848 0.06290281 0.07627247 0.22771454
000220 14 a4 28 3e 71 17 85 bd 42 03 f1 bd 44 98 86 3d
       0.16468841 -0.06498612 -0.117681995 0.06572011
000230 7d 85 e2 3c 87 c5 45 3d 9c b9 60 3c b9 1c 9f 3c
       0.027651543 0.04828408 0.013716128 0.019422876
000240 27 19 8d 3c 0a d1 86 bd 30 85 29 bc 2f 0c 1f 3b
       0.017223908 -0.0658284 -0.010346696 0.0024268737
000250 cc de 12 bc 57 2d 41 3c 8c 36 85 3d d6 3c 2f be
       -0.008964252 0.011790595 0.065045446 -0.17113051
000260 b0 c0 15 3d c2 7a 8d 3d c3 21 83 bd e2 12 8e 3d
       0.036560714 0.0690818 -0.06402924 0.06937195
000270 39 b0 2d 3d 38 95 fa 3b 3b ff b1 3c 4a 49 03 be
       0.042404387 0.007647183 0.021728149 -0.12820926
000280 f9 fe a8 bd 45 3f 37 bd 38 12 f1 3b d1 0c 8b bc
       -0.08251757 -0.044738073 0.007356908 -0.016973885
000290 ae 6e bd 3c ff da 3d 3d bd cd a6 3d 2c e1 1b 3c
       0.023124065 0.04635143 0.0814471 0.009514134
0002a0 1c cd 13 be bc 9f 19 bd af 9a 73 3c 9f 2d a8 bc
       -0.14433712 -0.03750585 0.014868422 -0.020529566
0002b0 ed 30 6c bc 5e 17 cb bc 29 1e 99 3d 55 c1 a8 bd
       -0.014415962 -0.024791416 0.07476456 -0.0824
0002c0 71 da 48 3c 4f 79 01 3d dd 48 04 3e 8e c9 b5 3d
       0.012259112 0.03160983 0.1291842 0.08876334
0002d0 95 f3 26 3e 60 e6 26 bd 6a a2 24 bc 12 27 e0 3d
       0.16303857 -0.040747046 -0.010048488 0.10944952
0002e0 73 00 15 bc 7c 1b 4e bd a3 88 5c bc 4a e3 c3 3d
       -0.009094345 -0.05031918 -0.013460311 0.09564836
0002f0 df 0d da 3d 2b 02 bc bd db 32 58 3c fc 6a f5 3c
       0.10647177 -0.09180101 0.013195719 0.02995824
000300 3a 22 99 3d c8 1b 00 bd 3f f6 67 bc 69 5f 27 3d
       0.07477231 -0.031276494 -0.014157831 0.040862475
000310 c8 9c 78 bd 29 1d 13 3e 65 59 cb 3d 16 23 63 bd
       -0.060696393 0.14366592 0.0992916 -0.055453382
000320 fb bb 50 bd 2f 09 bd bc 63 b8 06 bd 60 c6 a5 bd
       -0.050960522 -0.023075668 -0.03289069 -0.08094478
000330 f9 35 d3 3c f1 e7 b4 bd ff 7c 44 bd 68 15 0b 3e
       0.025782572 -0.08833302 -0.047970768 0.13582385
000340 78 d3 3c bc 3c 17 2f bd c6 28 96 bc e4 38 00 bd
       -0.011525027 -0.042746767 -0.01832999 -0.031304255
000350 16 d2 35 bd e8 68 b1 bc 74 66 b7 3c 9b 3f 6f bd
       -0.044389807 -0.021656469 0.02238772 -0.05841027
000360 19 0e 0e be 40 2a e4 3d ff c2 2e be a6 86 0c be
       -0.13872565 0.11140871 -0.17066573 -0.1372324
000370 91 b2 37 3d 39 35 2b 3e 60 e6 2a 3b 23 30 46 bc
       0.04484803 0.16719522 0.0026077256 -0.012096438
000380 cb 3d ac bb c6 b9 a8 bd 8f 72 d7 3c 6e 81 19 bd
       -0.0052563897 -0.082385585 0.026299743 -0.03747695
000390 1f 77 f2 bd a9 81 41 bd d2 68 b5 3c be 61 aa 3d
       -0.11839127 -0.047242794 0.022144709 0.08319424
0003a0 8e 76 bf bd 7f 86 ca bb eb 6c 2d be 7c d4 68 3d
       -0.093487844 -0.006180584 -0.1693608 0.056843266
0003b0 e8 4c cb bc 0d 38 ea 3a 52 50 80 3d de 35 b6 3c
       -0.024816945 0.0017869488 0.0626532 0.022242483
0003c0 50 14 8d bd 51 1a 7b bc 61 26 9b bd 6e ea 49 3d
       -0.0688864 -0.015326099 -0.075756796 0.049295835
0003d0 f4 3e 18 3e a3 35 b4 3d 2b fd 16 3c 2c 86 de 3c
       0.14867765 0.08799293 0.009215633 0.027163588
0003e0 40 f8 da 3c 9f bf 9d 3c 0b 11 3a 3c 58 83 9a bc
       0.026729703 0.019256411 0.011356602 -0.018861458
0003f0 bc da 8e 3d ba 41 3c 3c a0 6a 2d be 37 ee 4b bd
       0.06975314 0.01149028 -0.16935205 -0.049787726

model.2.main.1.weight f4 [32]
000000 b2 b2 7d 3f f7 60 80 3f 20 07 83 3f 62 43 82 3f
       0.9910079 1.0029591 1.0236549 1.0176814
000010 31 94 7b 3f c1 5f 7e 3f 5a 2c 87 3f 7d 4e 7d 3f
       0.98273 0.9936486 1.056041 0.9894789
000020 a1 1f 87 3f 79 2e 80 3f b5 9e 7f 3f 70 28 7c 3f
       1.0556527 1.0014182 0.9985154 0.984992
000030 05 86 80 3f d9 8d 82 3f bc f8 83 3f ab 61 7d 3f
       1.00409 1.0199538 1.0310283 0.98977154
000040 80 c3 83 3f 77 aa 7a 3f bb 12 7e 3f fb 1f 80 3f
       1.0294037 0.9791636 0.9924733 1.000976
000050 a1 61 82 3f 24 2b 7f 3f 94 67 81 3f d6 9a 7d 3f
       1.0186044 0.996752 1.0109735 0.99064386
000060 6c 9c 7e 3f 22 f5 78 3f 45 2d 7f 3f af 73 80 3f
       0.9945743 0.97249043 0.9967845 1.0035304
000070 dc c2 7f 3f 4d 4e 7e 3f 03 d4 7c 3f 5e c8 7e 3f
       0.99906707 0.9933823 0.98761004 0.99524486

model.2.main.1.bias f4 [32]
000000 31 a5 15 bc d2 5f ee bb 05 2d 82 3b b7 bc 01 bd
       -0.009133623 -0.0072746063 0.003972652 -0.031674113
000010 7b 32 a5 3c ef 30 33 bc a0 88 00 bd 5c 00 f8 3b
       0.020165673 -0.01093696 -0.031380296 0.007568402
000020 3b 6a 2e 3d f9 93 c9 bc c5 a1 9b 3c f7 70 0b bc
       0.042581778 -0.024606692 0.018998036 -0.00851082
000030 e3 86 05 3c 8b 38 fe bb 38 3d 9b 3c 9c d1 a8 ba
       0.008149835 -0.0077582053 0.01895009 -0.0012879851
000040 0f e9 03 3c 4a 5f aa 3c b4 f6 ae bb 86 46 9f 3b
       0.008051171 0.02079739 -0.005339468 0.004860702
000050 72 73 9b 3b 29 4d 4d bd 3b 08 ee 3c 52 fd c0 bb
       0.0047439868 -0.050122414 0.029056659 -0.005889573
000060 82 e9 9d bc d4 36 80 bc 5e 9c cd bc b9 3c 0d bc
       -0.019276384 -0.015651144 -0.025098976 -0.008620434
000070 83 f9 14 3c d9 4c 3d bb 5f 98 03 3d e1 c8 4a 3c
       0.009092691 -0.0028884916 0.032127734 0.012376995

model.2.main.1.gate f4 [32]
000000 a9 25 82 3f 79 ef 82 3f bb 70 8a 3f ee 8d 86 3f
       1.0167743 1.0229331 1.0815653 1.0512064
000010 cf 46 77 3f 99 cf 72 3f be ac 81 3f 47 f4 7d 3f
       0.9659242 0.9484802 1.0130842 0.9920086
000020 d3 57 86 3f 7b 02 86 3f 0b 0f 6f 3f 4c dc 80 3f
       1.0495552 1.0469507 0.9338233 1.0067229
000030 ec 7c 66 3f 4f 5a 74 3f 2f 2f 8f 3f d8 16 83 3f
       0.90034366 0.954503 1.1186274 1.0241346
000040 0a ae 85 3f 50 51 86 3f 99 d0 83 3f e1 b7 84 3f
       1.0443738 1.0493565 1.0298034 1.0368615
000050 19 de 85 3f 3e 4a 87 3f 59 b6 82 3f 15 04 40 3f
       1.0458404 1.0569532 1.0211898 0.7500623
000060 b4 3f 66 3f 6e 73 87 3f c3 6d 8b 3f cf 44 85 3f
       0.89940953 1.0582101 1.0892872 1.0411624
000070 76 ba 82 3f dc 2a 76 3f 47 50 7f 3f 66 3e 79 3f
       1.0213153 0.9615915 0.9973187 0.9736084

model.2.main.1.running_mean f4 [32]
000000 95 b7 8b 40 80 47 50 bf 4e d1 85 bf 94 e2 c2 bf
       4.36616 -0.813591 -1.04545 -1.5225396
000010 81 cc ff bf d4 07 b8 bf 38 55 b6 be 1e 5b 0b 40
       -1.9984285 -1.4377389 -0.35611892 2.1774364
000020 7d 81 6c bf 84 52 b6 3e 31 1d 9e bf d3 38 a7 40
       -0.92385083 0.3560983 -1.2352659 5.2256866
000030 3b 09 0b c0 bc e5 00 c0 aa 83 17 3f 1f c6 9f bf
       -2.1724384 -2.0140219 0.5918528 -1.2482337
000040 80 59 4b 40 3f 2f f4 3e c8 67 a1 3d d5 0b 30 40
       3.1773376 0.47692296 0.07881123 2.7507222
000050 33 9d c1 3f 0d 5d 22 c0 31 51 f6 3e f3 ea 61 c0
       1.5126098 -2.5369294 0.4810882 -3.5299652
000060 7b a2 53 3f 2f 79 31 c0 64 9c 29 bf ab 7b e6 bf
       0.826698 -2.7730215 -0.6625426 -1.800649
000070 af 86 8d 3f 7b db be 40 87 e0 6b 3f da 1e 7a 40
       1.1056727 5.964292 0.92139477 3.908133

model.2.main.1.running_var f4 [32]
000000 27 1b 64 40 65 ed ff 3f c7 0d a4 3f c9 df 4d 3f
       3.5641572 1.9994322 1.2816705 0.80419594
000010 20 85 44 40 94 eb 51 40 c4 71 02 3f b7 73 86 3f
       3.0706253 3.2800035 0.5095484 1.0504063
000020 7e 69 f2 3f bb 91 cf 3f 13 84 b1 3f c5 e6 80 40
       1.8938444 1.6216348 1.3868431 4.02817
000030 7f 6a 7a 3f fc cb f9 3f 6c a4 af 3f 61 98 2a 40
       0.9781875 1.9515376 1.3722053 2.6655505
000040 f7 61 b1 3f cd b5 6b 3f a4 f8 9a 3f 5b e1 8b 3f
       1.3858021 0.9207428 1.2107129 1.0928148
000050 8d cf 93 3f e8 bf c1 3f a8 21 a1 3f 2b f3 91 40
       1.1547714 1.513669 1.2588396 4.5609336
000060 e0 40 f1 3f 25 12 f3 3f b0 3b 33 40 9b ee 8e 3f
       1.8847923 1.8989912 2.800518 1.1166567
000070 13 4a 62 3f fd e3 d4 40 64 70 db 3f e8 59 62 40
       0.8839428 6.6528306 1.7143674 3.5367374

model.2.main.3.weight f4 [32, 32, 3, 3]
000000 34 23 35 bd bf c6 3d bd e5 42 0b 3d 70 cc 1f 3c
       -0.044223025 -0.046332117 0.033999342 0.009753332
000010 7d 95 a9 bd 6f fb 49 bc 85 76 ee 3b b4 05 e3 3d
       -0.08280466 -0.012328013 0.007277312 0.11085072
000020 2b 50 f2 3c 59 3e 68 bd 8a a1 b0 bd 53 f8 63 bd
       0.029579243 -0.056700084 -0.08624561 -0.055656742
000030 d7 06 ca 3c f3 a7 10 3d 5f 7e 20 be 97 ba 3e bd
       0.024661465 0.03531642 -0.15673207 -0.046564665
000040 17 9b 1b 3d 1e 55 1e bd f9 ab d1 3d 6d 01 52 3c
       0.037989702 -0.038655393 0.10237879 0.012817723
000050 99 30 3a bd 61 5c 9e bd 62 04 30 3e c6 e1 cf bd
       -0.045456503 -0.07732464 0.17189172 -0.10150485
000060 91 a1 48 3e ac ca 0c 3e 9d fc fa bd fa ff 66 3e
       0.19592883 0.13749188 -0.122552134 0.22558585
000070 57 f9 e2 3d 92 ab 4d 3d 9d b6 1d 3e 03 ea 2a bc
       0.11082714 0.05021245 0.15401693 -0.010431769
000080 33 38 2d 3d 4d d4 0a 3d 96 b4 72 3c 62 ad fd 3d
       0.042289924 0.033893872 0.014813563 0.12386586
000090 70 9a fd 3c ac 40 a9 3d 6a d8 c5 3d 82 ce d0 3d
       0.03095743 0.08264288 0.09660418 0.10195638
0000a0 7e bb bf 3d ff e3 f9 3d 28 be 0b be b1 47 5d 3c
       0.09361933 0.1220169 -0.13646758 0.013505862
0000b0 96 6d bf 3c 19 ab a8 bc 93 ad 25 3d d0 79 8a 3d
       0.023367684 -0.020589398 0.040448736 0.06761515
0000c0 3e 3f bd 3d ce fd 8d bd 96 89 98 bd e7 f8 3e 3d
       0.09240578 -0.06933175 -0.074481174 0.04662409
0000d0 b0 18 c2 3d 6d 60 bf 3d 88 74 95 3d 4f c8 d9 3b
       0.09477365 0.09344564 0.07297617 0.006646193
0000e0 ec 3c be 3d 03 cb b7 3d 15 66 80 3d 84 79 ac bc
       0.09288964 0.08974268 0.062694706 -0.021054037
0000f0 77 3f 33 3d d8 e7 9f bd d6 8a 09 3c f3 f9 ef 3d
       0.043761697 -0.078078926 0.0083949175 0.11717596
000100 c3 79 a2 3b b9 32 66 3d 0c 04 21 bd 2d e5 c9 bd
       0.004958363 0.056200717 -0.0393105 -0.09858165
000110 06 95 a0 3d 83 dc 4f bc 47 2d 94 bc ec e9 1f 3d
       0.07840924 -0.012686851 -0.018087996 0.039041445
000120 30 71 7f bd 32 2a 14 3c 1a 81 04 bb 13 94 8d 3d
       -0.062363803 0.009043263 -0.0020218552 0.069130085
000130 38 55 07 be d3 6a d3 3d c1 b1 c4 3d 3c 78 19 3d
       -0.13216102 0.103231095 0.09604216 0.03746818
000140 14 6a 9c bd 16 ee d4 3d a6 9c 9c 3d 63 0e 33 3e
       -0.0763742 0.10396974 0.07647066 0.17485957
000150 d7 c5 45 3d 2c 5e 58 bc 60 48 9c bc 93 cd 4f 3d
       0.048284378 -0.013206046 -0.01907748 0.05073316
000160 11 0c dc bc 81 07 94 bd d0 4c 65 3c 76 0f 64 3c
       -0.026861222 -0.07227994 0.013995364 0.013919702
000170 2d 53 c6 bd eb 90 0e be 81 41 ad bd bc 72 2a 3d
       -0.09683833 -0.1392247 -0.084597595 0.041613325
000180 b7 d2 a9 bd 3a d5 5f be 74 50 f6 3c 06 55 d0 bd
       -0.08292144 -0.21858683 0.03006766 -0.10172467
000190 79 37 02 3e b9 e0 07 bd 79 46 58 3d ae 66 9b bd
       0.12716474 -0.033173297 0.052801583 -0.07587944
0001a0 1e f6 13 3e e1 13 e0 3d 7c 8b a6 3b 09 f4 32 3d
       0.14449355 0.109412916 0.005082546 0.04368976
0001b0 0d 9d 9b 3c 78 0a cf bb 3c 5f 02 bb 67 f4 38 bd
       0.018995786 -0.0063183866 -0.001989319 -0.045154955
0001c0 0c 81 0f 3e d3 90 91 3d cf fe ca bd 81 e0 57 3d
       0.14014071 0.07107701 -0.09911882 0.052704338
0001d0 76 a1 6d 3d c8 bc 57 bd 32 00 ad bd 38 aa 5a 3d
       0.05801531 -0.05267027 -0.08447303 0.05338499
0001e0 24 7d 04 3e e3 af 46 3d 13 b5 b4 bc 54 01 6a 3d
       0.12938362 0.048507582 -0.022059 0.057130173
0001f0 53 53 0c 3c bf 72 c6 bc b4 14 d1 3b 05 3d fd bc
       0.008564788 -0.024224637 0.006380642 -0.030912885
000200 37 78 26 bd a2 f0 e7 bd b8 05 d2 3d 92 23 68 3d
       -0.04064199 -0.11325194 0.10254997 0.056674547
000210 2c a4 1a 3d 9d 14 05 be 81 f2 91 3c 7a 67 d4 3d
       0.037754223 -0.12996145 0.01781583 0.10371299
000220 39 18 2d be 9a ac 5f 3d 41 f9 d2 3d 2f 06 52 bd
       -0.16903771 0.054607965 0.10301448 -0.05127543
000230 eb e0 69 bd c2 c0 71 bc a5 e1 9c bd 16 91 51 ba
       -0.057099264 -0.01475543 -0.07660226 -0.0007994337
000240 ce 0e 8e bd b8 7b 47 bc 66 d4 b5 3d d5 df 3b bc
       -0.069364175 -0.012175493 0.088784024 -0.01146694
000250 d8 3e 6d 3d 33 86 12 be 2b 6f 7b bd 1e fe 31 be
       0.05792126 -0.14309005 -0.061385315 -0.17382094
000260 2c d2 aa bd 94 71 21 bd 00 ce f5 bd 14 20 fd bc
       -0.08340868 -0.039414957 -0.12002182 -0.030899085
000270 ab 8c 00 be ff e8 4c bc 17 f4 11 bd b9 7e 12 bd
       -0.1255366 -0.0125067225 -0.035633173 -0.035765383
000280 a8 f5 ac 3d 98 2f 86 3d 8a 28 ac bd b0 c4 bb ba
       0.08445293 0.065520465 -0.0840617 -0.0014325585
000290 00 5a dd 3d ba 8c 7a 3d b3 9d 2d 3e b3 dc bf bd
       0.10808182 0.061169364 0.16954689 -0.09368267
0002a0 09 d0 df bc 8a 50 50 3e f8 8a ae bc 2c 56 da 3c
       -0.027320879 0.20343223 -0.0213065 0.026652418
0002b0 c7 04 b3 bd b4 52 e8 bd 0f ca 2b be e5 fd 14 3e
       -0.087411456 -0.11343899 -0.16776298 0.14549978
0002c0 ea df 0e bd d4 3c 43 3d 35 79 21 be 1b 31 c0 3d
       -0.03488151 0.047665432 -0.15768893 0.09384366
0002d0 7e be da 3c cc 5c 20 3e 4c 4f a8 3d 92 44 31 3d
       0.026702162 0.15660399 0.0821825 0.043278284
0002e0 f8 76 1a bd bf eb 4c bd 26 e5 be bd f0 67 47 bd
       -0.037711114 -0.050029512 -0.0932105 -0.048683107
0002f0 d6 fd 1e 3e d5 8f d2 3c 0f be e0 bc d7 53 aa 3d
       0.15526518 0.02570335 -0.027434377 0.083167724
000300 ff cc 86 3d 76 ad 97 3b c9 7d 2e be 5e 6b 0d 3d
       0.06582069 0.0046288325 -0.1704017 0.03452622
000310 84 ea 1b 3c a0 8c 67 3d 4b c5 84 3c de 53 a6 bd
       0.009516362 0.056530595 0.016207358 -0.08121465
000320 4f 8a 19 be 58 92 f3 3b d9 f6 b0 3d d0 73 37 3b
       -0.14994167 0.007433217 0.086408325 0.0027992614
000330 e0 1a 5f 3d 92 f9 a1 3d 1c a9 60 3d d5 98 a2 bc
       0.05446899 0.0790893 0.054848775 -0.019848267
000340 1a b3 06 bd 09 a0 26 be 99 7d 89 bb b7 74 3a 3d
       -0.03288565 -0.16271986 -0.0041958806 0.045521464
000350 37 61 89 bd c5 43 46 be 77 f9 a7 3b c8 9d 9c bb
       -0.067079954 -0.1936179 0.005126174 -0.004779551
000360 fb d7 60 be f9 d1 1d be bd 8e 7f bc 58 41 57 3b
       -0.2195739 -0.1541213 -0.015597996 0.0032845344
000370 a9 bb 2d bd c7 dd 3e 3d cd a7 02 bd ef a3 11 3d
       -0.042415295 0.046598222 -0.03189831 0.03555673
000380 8d 37 85 bd af 10 a6 3d d3 a6 27 bd c0 9d 92 3d
       -0.06504736 0.08108651 -0.04093058 0.07158995
000390 f8 07 28 3d 17 46 00 be 2c 97 1f 3e d6 ab b8 3d
       0.041023225 -0.12526737 0.15585011 0.0901715
0003a0 5f 73 21 be f7 e5 f1 bc a9 54 8d bd 25 12 0f 3d
       -0.15766667 -0.029528601 -0.06900913 0.034929413
0003b0 d8 88 cb bc 6f c5 fb bc 7d 9c 67 3d 95 9f b5 3d
       -0.024845526 -0.030733792 0.056545723 0.088683285
0003c0 de 71 17 3d da 82 0b be 97 39 4c bd 33 0e df bd
       0.036973827 -0.13624135 -0.04985961 -0.1089138
0003d0 f1 29 4c 3e 89 93 5d 3d 9d 31 93 3d c4 95 88 3d
       0.19937874 0.05409578 0.07187197 0.066691905
0003e0 78 39 19 3e 43 c6 98 bd c1 63 9f bd 76 20 b8 3d
       0.14963329 -0.074596904 -0.077826984 0.089905664
0003f0 67 41 20 3c 59 c8 24 3d 50 93 50 3c 6c df 02 3e
       0.009781218 0.04023013 0.012730435 0.12780541

model.2.main.4.weight f4 [32]
000000 ee 43 81 3f a9 9f 7c 3f ae 2a 7d 3f 94 7e 80 3f
       1.0098855 0.9868112 0.9889325 1.0038629
000010 a4 c5 75 3f ff a9 7c 3f 52 be 7b 3f dd ef 79 3f
       0.960047 0.98696893 0.9833728 0.9763163
000020 d8 e8 6b 3f 1f a1 79 3f 97 7a 75 3f 50 ac 79 3f
       0.92152166 0.97511476 0.9589018 0.97528553
000030 62 c8 7e 3f 8a be 76 3f 70 c8 73 3f 3d 72 7a 3f
       0.9952451 0.9638449 0.9522772 0.97830564
000040 60 ac 74 3f a4 fe 81 3f 72 f4 7b 3f 2f 0f 71 3f
       0.95575523 1.0155835 0.9841987 0.94163793
000050 74 b7 7d 3f 4d 17 77 3f f2 32 7b 3f 7b ce 78 3f
       0.9910805 0.9651993 0.9812461 0.97190064
000060 67 54 7a 3f 01 19 7c 3f df 95 7e 3f 56 4c 7c 3f
       0.9778504 0.9847565 0.99447435 0.9855398
000070 79 96 7f 3f a2 23 79 3f dc d3 72 3f 61 58 76 3f
       0.9983898 0.97319996 0.9485452 0.96228606

model.2.main.4.bias f4 [32]
000000 f4 e5 69 3d b4 ae f7 3c bb a7 8f 3c c7 bc 69 3d
       0.057104066 0.030234672 0.017536035 0.057064798
000010 b0 d1 b0 39 42 bb 14 3c 7e d7 64 bc 42 38 a1 bc
       0.00033725565 0.009077849 -0.013967393 -0.019680146
000020 9b 40 31 bc e9 87 9b 3c 10 90 5a bc 91 e9 7a bc
       -0.010818626 0.018985705 -0.013340011 -0.015314476
000030 0c 7e a3 3c 03 0b f4 bc d9 ce 92 bb c1 62 a9 bc
       0.019957565 -0.029790407 -0.0044802246 -0.020676972
000040 ea 75 43 3b 31 43 51 3d b0 2f fe bb 80 e6 53 bb
       0.002982492 0.05108947 -0.0077571496 -0.0032333434
000050 a9 84 d4 3d ec 68 05 3c 5e 9b 35 bb 0e e0 a2 bc
       0.103768654 0.008142691 -0.0027711014 -0.019882228
000060 77 c5 1c 3c 1a 23 9f 3c 19 40 d8 bc 2c 10 7e 3c
       0.009568564 0.019425917 -0.026397752 0.015506785
000070 94 b7 39 3c 49 7d 73 3a 53 f7 0e 3d c3 b8 b7 3c
       0.011335272 0.00092883833 0.034903836 0.022426968

model.2.main.4.gate f4 [32]
000000 64 f1 5a 3f 95 8e 83 3f c4 d3 6b 3f b1 1f 89 3f
       0.8552458 1.0277888 0.92120004 1.0712796
000010 39 00 87 3f 70 c4 77 3f eb 13 82 3f 3c 03 6a 3f
       1.0546943 0.96784115 1.0162328 0.91411185
000020 16 fc 85 3f bf 02 74 3f c6 3f 83 3f 9c cf 7c 3f
       1.0467556 0.9531669 1.0253837 0.98754287
000030 f9 a2 82 3f ce 34 87 3f da 64 87 3f fa 96 83 3f
       1.0205985 1.056299 1.0577652 1.0280449
000040 17 5b 7c 3f 11 b5 60 3f 04 3e 86 3f 6c 8d 80 3f
       0.9857649 0.87776285 1.0487676 1.0043159
000050 fb 4c 84 3f a3 55 7f 3f 22 0c 81 3f 25 4e 81 3f
       1.0335993 0.99740046 1.0081828 1.0101973
000060 be a9 6d 3f 61 b6 79 3f 8b 21 77 3f be cd 81 3f
       0.9283713 0.97543913 0.9653556 1.0140913
000070 e0 d3 80 3f 00 93 75 3f 43 23 8a 3f cf 78 86 3f
       1.0064659 0.9592743 1.0792011 1.0505618

model.2.main.4.running_mean f4 [32]
000000 1a 78 8a 3e ac 0b 00 3f 8c 4a 4e 3e c8 01 a3 3f
       0.27044755 0.5001781 0.20145625 1.2734919
000010 f5 ed 1a 3f c5 4e 6a bf c4 7d b5 3e f4 b7 3e 3f
       0.60519344 -0.9152644 0.35447514 0.7449944
000020 f5 42 19 be 38 e0 43 bf 8e 3b a7 be 63 7c 11 be
       -0.14966948 -0.76514006 -0.32662624 -0.14207606
000030 a7 2e 23 3f 9b a6 27 3d 11 b7 29 3f 7a 2e 01 3f
       0.6374306 0.04093037 0.6629496 0.5046154
000040 9f 7c c3 be 15 01 24 be 20 17 05 bf fd c9 10 3f
       -0.38181016 -0.16016038 -0.5198841 0.5655821
000050 67 79 db 3d d9 eb 2e be a9 fc c1 3c 75 c8 0e 3e
       0.10716515 -0.17082156 0.023680048 0.13943656
000060 39 9e 1c be 70 7c b0 3e 17 00 5d 3f 7b 55 ee 3e
       -0.15294732 0.34469938 0.8632826 0.4654959
000070 9c 28 94 bf 81 bc 50 bf 27 d4 93 bf de 0f 4b 3d
       -1.1574893 -0.81537634 -1.1549119 0.04957568

model.2.main.4.running_var f4 [32]
000000 ae 3a 44 3f b6 94 e9 3f 9c bb 69 3f 4a b2 ed 3f
       0.7665204 1.8248508 0.91301894 1.8570035
000010 da 0f ee 3f 40 91 a3 3f 7a fb 21 3f a0 3a b5 3f
       1.8598588 1.2778702 0.6327435 1.4158516
000020 61 84 84 3f c5 86 8b 3f 93 2e f9 3f 18 e7 08 40
       1.0352899 1.0900503 1.9467338 2.1391048
000030 c4 6f c2 3f bf 73 49 3f 12 3a 87 3f 29 f1 5c 3f
       1.5190358 0.7869224 1.0564597 0.8630548
000040 f2 ac b2 3f 1a 89 07 3f d0 30 2a 40 e3 e5 02 40
       1.3959029 0.52943575 2.6592293 2.0452812
000050 d1 d4 80 3f 7e fb 06 40 90 40 8c 3f bd 34 99 3f
       1.0064946 2.1090999 1.0957203 1.196922
000060 c5 fe c0 3f 84 13 b1 3f 38 32 d6 3f 0e 79 e1 3f
       1.507775 1.3834081 1.6734076 1.7615068
000070 a2 ed 72 40 8e 5f a4 3f 10 6e 19 40 2e 3b 32 3f
       3.795754 1.2841661 2.3973427 0.6962155

model.3.main.0.weight f4 [32, 32, 3, 3]
000000 f5 e7 2b bd cb 97 aa bd 5d 14 1e 3e 0d 51 cb 3d
       -0.04196926 -0.083297335 0.15437455 0.099275686
000010 15 ac 82 3d 93 cd e2 3c 13 72 95 3d fa 59 87 bd
       0.06380478 0.027685916 0.072971486 -0.066089585
000020 82 13 d6 3c b1 9c e0 3c 46 f6 31 3d d1 e0 91 bd
       0.026132349 0.027418466 0.043447755 -0.071229585
000030 f8 96 a5 bd e6 b9 97 3d b6 be 0d 3d 6c db 55 be
       -0.08085436 0.07408504 0.034605704 -0.20884484
000040 1f 9d 73 3d f8 69 45 bd 64 b8 c6 3d 67 54 14 bd
       0.059476014 -0.048196763 0.097031385 -0.036213305
000050 3f 59 7e bc 8f 5f 0d 3e e4 10 85 bc 40 5a 19 3d
       -0.015524208 0.13805984 -0.016243406 0.037439585
000060 2d 1a f6 bd e9 e0 68 3d f0 2c e3 3d 61 77 29 3e
       -0.120167114 0.056855116 0.110925555 0.16549446
000070 83 4a d5 bd 9a 83 88 bb 6d 9e cb 3c f2 ba d0 3d
       -0.104146026 -0.0041660788 0.024855817 0.10191907
000080 65 61 4c bd 9c d8 54 bd b6 e7 a0 3d 32 a5 0c 3e
       -0.04989757 -0.051964387 0.07856695 0.13734892
000090 c7 04 81 bd 15 81 15 3e 70 e2 b7 3d 32 d8 02 bd
       -0.06299739 0.14600022 0.089787364 -0.03194446
0000a0 09 b8 23 3d 73 01 87 bd 58 8d 20 bd 52 f0 dc 3c
       0.03997043 -0.06592073 -0.039197296 0.026970062
0000b0 3b 9d 9b 3c 9c 34 76 bc 48 8e 69 3d 6e 45 c5 3b
       0.018995872 -0.0150271915 0.057020456 0.0060202396
0000c0 35 5d ea 3d b2 61 e0 bb 44 d2 5f 3d bf 2a 99 bb
       0.11443559 -0.0068475837 0.054643884 -0.004674285
0000d0 c0 50 a0 bc 57 3e ff bc 46 51 5b 3d 93 0b d4 3d
       -0.019569755 -0.031157656 0.053544305 0.1035377
0000e0 45 2b 01 bd 96 25 e6 3d fb 2a ca 3d 81 28 4e 3c
       -0.031535406 0.11237638 0.09871479 0.012582899
0000f0 eb e5 9a bd ee 6c 8f bb f8 be 06 3e 02 79 5c 3e
       -0.075633846 -0.004376999 0.13158786 0.21530536
000100 f0 d5 5d bc fd d7 21 3d 68 a8 8a 3d 3a 1c 90 3d
       -0.013539776 0.039512623 0.06770402 0.07036634
000110 a3 33 ef bd b8 9c cf bd be 02 ab 3d 36 7b 0f be
       -0.11679771 -0.101373136 0.083501324 -0.14011845
000120 47 e8 5d 3e 3d 82 91 3c 25 7f 90 bd 85 2e 18 be
       0.21670638 0.017762298 -0.07055501 -0.14861496
000130 3e d2 81 bd 0a ca da bd ad 25 24 bd 5d df 69 3c
       -0.06338929 -0.10683067 -0.040074993 0.014274445
000140 7b 70 0a 3e d8 fd 3d 3c f0 59 5d bd fa cc b4 bc
       0.1351947 0.011596166 -0.05404085 -0.022070397
000150 8e f1 b5 3d 04 d9 e5 3d 78 c3 66 bd 96 13 94 bd
       0.088839635 0.11223033 -0.056338757 -0.07230298
000160 57 48 82 3d b3 19 67 3c 8e 16 31 bc cc 2f 6d 3e
       0.06361454 0.014105248 -0.0108086 0.23162764
000170 7e 6c d1 3a 47 34 a9 3d 15 ef 21 bd 87 12 0f bd
       0.0015977768 0.08261924 -0.039534647 -0.03492978
000180 18 5a b2 bd 0e de 16 3d 2d 8b fd ba 73 a5 eb bc
       -0.0870859 0.03683286 -0.0019343846 -0.028765416
000190 eb 02 2d bd 4b be 3b bd fa af 6f bd 61 42 14 3d
       -0.04223911 -0.045835774 -0.058517434 0.036196116
0001a0 0a b2 49 3d 5b ec 8b be 23 7c 8c 3c 53 a0 7e 3d
       0.049242057 -0.27328762 0.017149037 0.062164616
0001b0 43 52 c1 3c d5 c4 47 3d 53 bd c9 bc ea 65 86 bd
       0.023598796 0.048771698 -0.02462641 -0.06562407
0001c0 9c 96 07 3e 70 6e a1 bc 8a 8f 72 bc b2 10 e6 bd
       0.13241047 -0.019705981 -0.01480473 -0.11233653
0001d0 b2 5c 74 3d d1 d4 85 bd 95 76 c7 3c 36 16 d9 bd
       0.059658714 -0.06534732 0.024348537 -0.105999395
0001e0 27 9f 0e 3e 28 f7 7d 3d 8d c9 c7 bd 6f 1f 2e 3e
       0.139279 0.062003285 -0.0975524 0.17004178
0001f0 b0 8f f6 bd e1 4c 77 bd d8 e8 5c bd 3f 36 53 3e
       -0.12039125 -0.06037605 -0.053932995 0.20626162
000200 11 e2 76 3d 4f 3c 74 3d 2e ad 90 bd 87 c4 91 3c
       0.060274187 0.059627827 -0.070642814 0.017793907
000210 cc 0f 16 3e eb e7 7d 39 fd be 86 bd 94 ae 16 bd
       0.14654464 0.00024214356 -0.06579397 -0.036787584
000220 59 9e 01 3e c6 77 8c 3d 91 bc 25 3d 7c db c5 3c
       0.12658061 0.068587825 0.040463034 0.02415251
000230 fd 4d 2b be 00 52 76 3d ed 78 45 bd 59 55 01 be
       -0.16728969 0.060136795 -0.048211027 -0.12630214
000240 5e e7 7f bd 25 10 e0 3d 28 a7 29 3e 7b aa bf bc
       -0.06247651 0.10940579 0.16567671 -0.023396721
000250 3c 45 90 bd 9b f0 80 3c 3f 4f 1a bc ef fa 60 bd
       -0.070444554 0.01573973 -0.009418308 -0.05492681
000260 a2 b8 09 be f7 20 05 3d 4c a7 16 3c 71 cc eb bc
       -0.13449338 0.03250214 0.00919516 -0.028784009
000270 9d 26 86 3c f5 a0 b8 3d 80 0b 19 3e 64 fe 69 3e
       0.016375834 0.09015075 0.14945793 0.22850949
000280 61 9c cd 3c 70 92 26 3d 0e 32 69 3c 8e 3b a1 bd
       0.025098981 0.040666997 0.014233125 -0.07872687
000290 31 4e 66 3c 29 7e 2c 3d d4 c4 91 be 8d f0 05 be
       0.014056728 0.042112503 -0.2847048 -0.13080044
0002a0 e6 ea c6 3d 68 d8 2c 3d 16 d4 0e be fd f9 5e 3d
       0.09712772 0.04219857 -0.13948092 0.054437626
0002b0 63 33 83 3d aa e4 94 3d d1 ee 63 3b d5 c9 94 3d
       0.064062856 0.07270177 0.0034779797 0.07265059
0002c0 6c be fa 3d 74 90 98 3d 84 7c df 3d 89 b9 97 3d
       0.12243351 0.07449427 0.10912421 0.07408435
0002d0 94 1f ef bd 66 f0 14 bd 33 b9 e1 bd 9b a4 8d bd
       -0.11675945 -0.036362074 -0.11021652 -0.069161616
0002e0 93 8d 56 3d 35 c9 cd bd 38 93 37 bd ac b1 7e bc
       0.05238111 -0.10048143 -0.044818133 -0.01554529
0002f0 d6 99 ce 3d b9 85 11 3e a1 aa 8a 3d 99 07 65 bd
       0.100879356 0.14211167 0.06770826 -0.05591545
000300 f4 71 b6 bc 86 c0 2f 3e 10 38 7f 3c 75 07 41 bd
       -0.022271134 0.17163286 0.015577331 -0.047126252
000310 f4 cb da 3d 7b 19 3e 3d c7 e2 59 3d 6c b8 1e 3d
       0.10683432 0.04641102 0.053194787 0.038750097
000320 61 eb 17 bd 70 c2 9c bd d5 d8 4a 3e d8 7b d5 bd
       -0.03708971 -0.076542735 0.19809277 -0.10424012
000330 4d 4e b9 bd 74 cb 87 bd d2 d5 c3 bd 9e b1 4c bc
       -0.09048138 -0.066306025 -0.09562267 -0.012493519
000340 49 49 ba bd d2 14 c0 bc 39 69 b2 bd af 5e 8b 3e
       -0.09096009 -0.023447428 -0.08711476 0.27220675
000350 a0 1b 3f bd f5 53 98 bd 1f 43 e0 bc fe f4 37 be
       -0.046657205 -0.074378885 -0.027375756 -0.17964551
000360 f0 4f 0c be 01 9b 8b 3d dc 90 c6 bc 52 ef 8d 3c
       -0.13702369 0.06816674 -0.024238996 0.01732603
000370 4f 14 81 bd 5b 4a 88 bd e6 57 ee 3d 3a ee f4 bd
       -0.06302702 -0.06654807 0.11637859 -0.119595006
000380 85 84 ed 3a 38 85 97 3d 8f 9c 9c bd 9b 64 c2 3d
       0.0018121159 0.07398456 -0.07647049 0.09491845
000390 7e 7b 25 be 0e 64 6b bd 93 1c 01 bd 7c 22 84 bd
       -0.1616039 -0.057468466 -0.03152139 -0.0645189
0003a0 81 a8 39 bc 0c 94 ba bb 40 11 c4 3d 12 12 05 bd
       -0.011331678 -0.005693918 0.09573603 -0.032487936
0003b0 c0 72 1d bd 04 49 10 3d 7c e4 48 bc 12 46 03 bd
       -0.038439512 0.035225883 -0.012261506 -0.032049246
0003c0 25 8a f6 3b 49 69 d1 3d 85 75 85 3b 10 c4 c1 bc
       0.0075237923 0.1022516 0.0040728473 -0.02365306
0003d0 93 79 7b bd 3c d8 e4 bc 66 b3 8d 3d bd 60 b6 3a
       -0.06139524 -0.02793514 0.06918983 0.0013914328
0003e0 7e c1 ce bd 44 ff bf bc 02 ad 41 3d 20 93 fa ba
       -0.100954995 -0.02343715 0.047284134 -0.0019117333
0003f0 e0 a5 53 3d 78 0f 94 3d 27 11 e4 bb cd 06 37 3d
       0.051671863 0.07229513 -0.0069600525 0.04468422

model.3.main.1.weight f4 [32]
000000 c2 03 7f 3f 3b 38 81 3f 96 81 80 3f 81 77 7e 3f
       0.9961511 1.0095285 1.0039546 0.994011
000010 35 ad 78 3f ce 16 7f 3f 73 3d 77 3f 48 b6 82 3f
       0.9713929 0.9964417 0.9657814 1.0211878
000020 9b 8b 7b 3f 2c 8a 7d 3f f3 bc 7b 3f 96 06 80 3f
       0.98259896 0.9903896 0.9833519 1.000201
000030 6f ed 7f 3f 46 41 7f 3f 80 76 7e 3f a5 59 80 3f
       0.9997167 0.99708974 0.99399567 1.0027357
000040 c6 77 7c 3f 8a af 80 3f f9 47 83 3f ff 36 80 3f
       0.9862026 1.005357 1.0256339 1.0016783
000050 b9 e0 80 3f b4 22 7f 3f 5c 13 82 3f 38 31 7e 3f
       1.006858 0.9966233 1.0162158 0.9929385
000060 8b 88 82 3f 6f 21 82 3f c3 57 7d 3f ee 5f 80 3f
       1.019792 1.0166453 0.9896204 1.0029275
000070 34 20 7d 3f 69 8e 87 3f e5 c8 7f 3f 2a 1c 81 3f
       0.98877263 1.0590335 0.99915916 1.008672

model.3.main.1.bias f4 [32]
000000 fb 0e b0 bb 03 35 5f 3b 36 fc 6a 3d 26 9f ab bb
       -0.0053728796 0.0034058697 0.057369433 -0.005237478
000010 b7 28 83 3c 75 ba ab 3c fa 63 3e bc 28 89 f4 3c
       0.016010625 0.020962933 -0.011620516 0.029850557
000020 d4 60 13 bd fd 45 bb bc c4 a8 25 3d de 85 09 3b
       -0.035981014 -0.022860521 0.04044415 0.0020984332
000030 03 d3 d8 ba 9f 84 19 3d 45 9c 60 bc 24 07 b8 3a
       -0.0016542379 0.037479993 -0.013709133 0.0014040214
000040 ff 91 ac 3c 2b 14 db ba 1c 44 29 3d 88 63 cb ba
       0.02106571 -0.0016714385 0.04132472 -0.0015517334
000050 12 bb cb 3b 22 2e 64 bb 79 7c 05 3d 4f fd 99 3b
       0.006217369 -0.0034817536 0.03258941 0.004699386
000060 0a 9c 5e 3b d1 33 2d bb a6 a6 77 bb c6 b1 46 3d
       0.0033967518 -0.002642859 -0.003778854 0.04850938
000070 d9 86 c9 3c 31 54 66 3d 25 f5 b1 3c 26 b2 4b bc
       0.024600433 0.056232635 0.02172334 -0.012432611

model.3.main.1.gate f4 [32]
000000 16 e7 7f 3f 68 1d 87 3f cb 0b 72 3f 1f 6d 7c 3f
       0.99961984 1.0555849 0.94549245 0.98604006
000010 9b af 85 3f e1 7b 5d 3f 34 1b 83 3f 9c 16 84 3f
       1.0444216 0.8651715 1.0242677 1.03194
000020 d0 0d 81 3f 5a 0c 7f 3f 7b c0 55 3f 7c fc 7f 3f
       1.008234 0.9962822 0.83496827 0.99994636
000030 4d ba 80 3f ab b4 73 3f dd 4f 87 3f b6 49 85 3f
       1.0056854 0.9519755 1.0571247 1.041312
000040 89 9a 7c 3f 0c 2d 8a 3f 4e 00 85 3f 77 fd 7b 3f
       0.986733 1.0794997 1.0390718 0.9843363
000050 4e 95 80 3f 51 45 82 3f f9 fe 7c 3f 64 ca 76 3f
       1.0045564 1.0177404 0.9882656 0.96402574
000060 cb f3 82 3f f9 5a 86 3f d3 44 84 3f e3 80 6c 3f
       1.023065 1.0496513 1.0333503 0.92384166
000070 40 17 49 3f 65 b1 84 3f 58 db 80 3f 84 8a 71 3f
       0.785511 1.0366637 1.0066938 0.94351983

model.3.main.1.running_mean f4 [32]
000000 2d de 1c 3f 93 9d 9b 3e ec 6c 5f c0 88 46 12 40
       0.61276513 0.30393657 -3.491023 2.285555
000010 7a cc a1 3f 29 9f dc be e3 7c 91 bf c6 1a 4a 40
       1.2640526 -0.4309018 -1.1366237 3.1578841
000020 39 85 03 3d 44 e9 cd 3e d7 4f 9e bf 22 3c 93 40
       0.032109473 0.4021703 -1.2368115 4.6010904
000030 01 35 40 40 3b 10 23 c0 4f 9c 1e 40 37 74 39 40
       3.003235 -2.5478656 2.4782903 2.8977182
000040 f3 ce ac bd 36 cc 22 c0 d9 5b b0 bf fe 40 9b bf
       -0.0843791 -2.543714 -1.377803 -1.2129209
000050 21 0e 81 40 31 75 ee 3f 5c db c5 bf 12 e3 75 40
       4.0329747 1.8629514 -1.5457568 3.8419843
000060 e7 24 d0 bf 90 e1 88 bf d6 5a 2f 3e d5 b5 2c c0
       -1.6261262 -1.0693836 0.17124495 -2.6985981
000070 8e 6e 2b c0 79 a2 1b be f3 ef a6 40 2a 57 13 40
       -2.6786227 -0.15198697 5.2167907 2.302195

model.3.main.1.running_var f4 [32]
000000 2c 53 a3 40 b7 c5 65 40 f9 b7 95 40 3f 24 82 40
       5.103903 3.5901926 4.6787076 4.0669246
000010 94 5e 34 40 67 b5 04 40 e9 76 a7 40 82 b8 a4 40
       2.8182726 2.073572 5.2332654 5.147523
000020 95 e8 e5 40 8b e8 0b 40 90 09 c2 40 b8 86 08 41
       7.1846414 2.1860683 6.0636673 8.53289
000030 28 3a 89 40 57 fb 90 40 bb 3a 8b 40 3b 83 95 40
       4.288349 4.530681 4.3509192 4.6722693
000040 a1 13 69 40 91 51 c9 40 bf 5b a3 40 4d 00 ca 40
       3.641823 6.291207 5.1049495 6.3125367
000050 b1 8e e0 40 52 b0 81 40 b7 d3 f0 3f f5 75 68 40
       7.0174184 4.0527735 1.881461 3.6321995
000060 a2 0e d2 40 b1 15 3c 40 0f 00 84 40 50 57 95 40
       6.564286 2.938824 4.125007 4.6669083
000070 f9 a4 9a 40 a4 f1 aa 40 11 9e ae 40 bc 3d a9 40
       4.8326383 5.341997 5.456795 5.288786
