checkpoint/clf/experiment_name_lr1/1000/netE.pth (torch, 241318 bytes, 33 tensors)

model.0.weight f4 [32, 3, 4, 4]
0	0xbe0d9775	-0.13827308
1	0x3d94ad76	0.072596475
2	0xbcfc474e	-0.03079572
3	0x3cf62891	0.03004864
4	0xbda36b8b	-0.079794966
5	0x3d55c262	0.05218733
6	0xbc025aca	-0.007956216
7	0x3c68f357	0.014218173
8	0x3d41dfa9	0.04733244
9	0x3d291338	0.041278094
10	0x3dc73f21	0.09728838
11	0xbcecc63c	-0.02890312
12	0xbd02c768	-0.03192845
13	0xbcc49a80	-0.023999453
14	0xbc2a37fa	-0.010389322
15	0x3d1abe82	0.03777934
16	0x3d6f911f	0.058488008
17	0xbd9698b0	-0.073533416
18	0x3dfff9db	0.12498828
19	0x3d54c9e2	0.051950343
20	0xbd4fac39	-0.050701354
21	0xbd31015a	-0.04321418
22	0xbe2956ed	-0.16537066
23	0xbd90d692	-0.07072176
24	0xbc1d1d9d	-0.00958958
25	0x3d5c6ec5	0.053816576
26	0x3d937022	0.07199122
27	0x3e05ddb6	0.13072857
28	0xbc74e10c	-0.0149462335
29	0x3d389b89	0.045070205
30	0xbcedf3e8	-0.029046968
31	0xbc2d819d	-0.010589984
32	0xbdb396f0	-0.087690234
33	0xbdba37ea	-0.09092696
34	0xbc999140	-0.018746018
35	0x3c452096	0.012031695
36	0xbe29d81b	-0.16586344
37	0xbca47595	-0.020075599
38	0x3d12d593	0.03584821
39	0xbc794d43	-0.015216175
40	0xbd44d140	-0.04805112
41	0x3d28e626	0.04123511
42	0x3c0365d4	0.008019883
43	0xbd13805c	-0.036011085
44	0xbd417b3f	-0.047236677
45	0xbd689142	-0.056779154
46	0xbd6c674b	-0.057715695
47	0xbd6d97a7	-0.058005955
48	0xbc22d27f	-0.0099378815
49	0x3d9d77a0	0.07688832
50	0x3d9f475d	0.07777283
51	0xbd99b169	-0.075045414
52	0x3e1c99a9	0.15292992
53	0x3cf51872	0.029918883
54	0x3c57908d	0.013157022
55	0x3ccbea83	0.024892097
56	0x3db627bb	0.08894297
57	0xbc88ba34	-0.016690351
58	0xbd875e8e	-0.06609832
59	0x3cc20b26	0.023686957
60	0xbac01787	-0.0014655449
61	0x3d3235d9	0.043508384
62	0x3d8186d0	0.063245416
63	0xbc33a772	-0.010965215
64	0xbd842e8a	-0.06454189
65	0x3cada9db	0.021199157
66	0xbd63dc95	-0.055630285
67	0x3d1e54e1	0.038655166
68	0xbd14e222	-0.03634847
69	0x3c4067cb	0.011743496
70	0x3ca2b27d	0.0198605
71	0xbd570656	-0.052496277
72	0x3db9e23d	0.09076355
73	0x3c36a95b	0.011148776
74	0xbc817735	-0.015803913
75	0x3d0b0913	0.0339442
76	0xbd257b5d	-0.04040085
77	0xbd990865	-0.07472304
78	0xbd601189	-0.054704223
79	0x3ca898cf	0.020580677
80	0xbdb31c06	-0.087455794
81	0xbd5fa043	-0.054596197
82	0xbdac5b76	-0.08415882
83	0x3ce97a0e	0.028500583
84	0x3da0d25b	0.07852622
85	0xbd89e7ff	-0.06733703
86	0x3e1f4b27	0.15556012
87	0x3d8b7944	0.06810239
88	0x3d1dbb81	0.038508896
89	0xbd8602f4	-0.06543532
90	0xbd10b751	-0.035331074
91	0x3d0d17ce	0.03444653
92	0x3e040638	0.12892997
93	0x3d6dc9b6	0.058053695
94	0x3d6fc5f6	0.0585384
95	0xbc23f819	-0.010007882
96	0xbda3a672	-0.07990731
97	0x3d01bc0c	0.031673476
98	0x3daacb82	0.08339597
99	0xbdf1b1c9	-0.11801488
100	0xbca19478	-0.019724116
101	0x3d0612ed	0.032732893
102	0xbca74bbf	-0.02042186
103	0x3da7b4d5	0.08188788
104	0xbd8a01f4	-0.06738654
105	0xbcc2e660	-0.023791492
106	0xbd5b0fbd	-0.053481806
107	0xbe1fc130	-0.15601039
108	0x3d6eba2f	0.058283027
109	0xbdc83759	-0.09776182
110	0x3d5b23fe	0.05350112
111	0x3c29bbfb	0.010359759
112	0xbdee93cd	-0.116492845
113	0xbbffbe8b	-0.007804697
114	0x3d98e068	0.07464677
115	0x3d94b313	0.07260718
116	0x3b3031e6	0.002688521
117	0x3da99a1b	0.082813464
118	0xbbf8eaa8	-0.0075963326
119	0x3cc907f5	0.024539927
120	0xbcfee254	-0.031113781
121	0x3d272447	0.04080608
122	0xbd8a8a36	-0.06764643
123	0x3d1f5da9	0.03890768
124	0xbdabb4e7	-0.08384114
125	0xbc31bada	-0.010847772
126	0x3c1085eb	0.008820991
127	0x3c137f9f	0.009002595
128	0x3d926384	0.07147887
129	0xbd297422	-0.04137052
130	0x3b8fae39	0.0043847826
131	0xbafe8000	-0.0019416809
132	0xbca9408e	-0.020660665
133	0x3d7c73fe	0.061634056
134	0xbdc4c942	-0.096086994
135	0x3d909eea	0.070615605
136	0x3cdafe95	0.026732722
137	0xbd316a9e	-0.04331457
138	0x3baaebfd	0.0052161203
139	0x3dde0613	0.10841002
140	0x3c900ea2	0.017585102
141	0xbd05dce3	-0.032681357
142	0xbd745dce	-0.05965977
143	0x3d4aa514	0.049473837
144	0x3da10c07	0.07863622
145	0x3cdb9e8c	0.026809
146	0xbd7c1521	-0.061543588
147	0xbc9bf0d4	-0.019035734
148	0xbdfa01a4	-0.12207344
149	0xbd57b40f	-0.05266195
150	0xbcfbe59b	-0.030749133
151	0x3a47572a	0.0007604236
152	0xbc7dde94	-0.015494961
153	0x3dac6d97	0.0841934
154	0xbd141cab	-0.036160152
155	0x3d210664	0.039312735
156	0xbd3f2c8f	-0.046673354
157	0x3bc7a90e	0.006093151
158	0xbab92b8c	-0.0014127358
159	0x3c8cb024	0.017173834
160	0x3c484f84	0.012225989
161	0xbd7ae9c9	-0.06125811
162	0xbb631ff6	-0.0034656501
163	0xbaa3bee5	-0.0012492804
164	0xb923dcd4	-0.00015627156
165	0xbc010fbd	-0.007877287
166	0x3d126f26	0.03575053
167	0xbd0fff7b	-0.035155755
168	0x3b49daf3	0.003080067
169	0xbd6a7555	-0.057240803
170	0x3daa6d97	0.08321684
171	0x3db7ff31	0.08984221
172	0xbe0da91e	-0.13834044
173	0xbcdc9242	-0.02692521
174	0x3de20708	0.11036497
175	0xbd5f633c	-0.054537997
176	0xbdbe2dee	-0.09286104
177	0xbdadff8e	-0.08496009
178	0xbc0e37f0	-0.008680329
179	0x3d979f9b	0.07403489
180	0xbce1b718	-0.027553126
181	0x3df12d67	0.11776238
182	0xbd0f4719	-0.034979913
183	0x3dacc432	0.08435859
184	0x3da7883f	0.08180284
185	0x3cf25557	0.029581709
186	0xbcd2c80b	-0.025730154
187	0xbc09f389	-0.00841988
188	0x3d5e5008	0.054275542
189	0x3b484f49	0.0030564836
190	0x3dacf8d5	0.084458984
191	0xbc25d40e	-0.010121359
192	0x3cfa8785	0.030582199
193	0xbd6c3c15	-0.057674486
194	0xbd0b78ea	-0.03405086
195	0x3c00bbfc	0.007857319
196	0x3caaaedb	0.02083533
197	0xbcc72bf0	-0.024312943
198	0xbd9ef88a	-0.07762249
199	0x3c2ed71a	0.010671401
200	0x3d8dc92a	0.069231346
201	0xbc165e9e	-0.009177832
202	0x3d5ea29b	0.05435429
203	0x3b8bc8a6	0.0042658625
204	0x3ca300e7	0.019897891
205	0x3cef67fc	0.029224388
206	0xbcb82956	-0.022480648
207	0xbd1dba20	-0.03850758
208	0x3d98a6c6	0.074536845
209	0xbd565dae	-0.052335434
210	0xbd4b307d	-0.04960679
211	0x3dfc9627	0.12333327
212	0x3d6c7b03	0.0577345
213	0xbd633232	-0.05546779
214	0xbded811d	-0.11596892
215	0xbd2384e9	-0.039921675
216	0x3db51e3b	0.08843657
217	0x3e0646e2	0.13112977
218	0x3b2258aa	0.0024772086
219	0x3c8f512b	0.017494759
220	0xbc893625	-0.016749451
221	0xbdcf912a	-0.1013511
222	0xbdf038b3	-0.117295645
223	0x3d3ccab9	0.04609177
224	0x3d809b1a	0.06279583
225	0xbb198e55	-0.0023430784
226	0x3c0e5912	0.008688228
227	0xbcc688fc	-0.024235241
228	0x3d5f429f	0.054506894
229	0xbc07ba8c	-0.008284222
230	0x3d8d9e44	0.069149524
231	0x3d2e7c56	0.042599045
232	0x3cc0ffd3	0.023559486
233	0x3cdc4a73	0.026890969
234	0xbd03f233	-0.0322134
235	0xbe1b1dd6	-0.151481
236	0x3ccb8adf	0.024846492
237	0x3b907acd	0.0044091702
238	0x3cc38045	0.023864875
239	0xbdb761d8	-0.08954209
240	0x3c96dafe	0.01841497
241	0xbd2401d8	-0.04004082
242	0xbd0d9f98	-0.03457603
243	0xbe0bdf8d	-0.13659497
244	0xbc858cf5	-0.016302565
245	0xbd83b461	-0.06430889
246	0xbd3521a4	-0.044221535
247	0xbc8d72c1	-0.017266633
248	0xbd8391a5	-0.06424264
249	0x3c442a92	0.01197304
250	0x3c5604a6	0.013062632
251	0xbd033621	-0.032034043
252	0xbd5558c0	-0.05208659
253	0xbd8dd6e6	-0.06925754
254	0xbd6a58b7	-0.05721351
255	0xbd89198c	-0.06694326

model.0.bias f4 [32]
0	0x00000000	0.0
1	0x00000000	0.0
2	0x00000000	0.0
3	0x00000000	0.0
4	0x00000000	0.0
5	0x00000000	0.0
6	0x00000000	0.0
7	0x00000000	0.0
8	0x00000000	0.0
9	0x00000000	0.0
10	0x00000000	0.0
11	0x00000000	0.0
12	0x00000000	0.0
13	0x00000000	0.0
14	0x00000000	0.0
15	0x00000000	0.0
16	0x00000000	0.0
17	0x00000000	0.0
18	0x00000000	0.0
19	0x00000000	0.0
20	0x00000000	0.0
21	0x00000000	0.0
22	0x00000000	0.0
23	0x00000000	0.0
24	0x00000000	0.0
25	0x00000000	0.0
26	0x00000000	0.0
27	0x00000000	0.0
28	0x00000000	0.0
29	0x00000000	0.0
30	0x00000000	0.0
31	0x00000000	0.0

model.1.weight f4 [32]
0	0x3f800000	1.0
1	0x3f800000	1.0
2	0x3f800000	1.0
3	0x3f800000	1.0
4	0x3f800000	1.0
5	0x3f800000	1.0
6	0x3f800000	1.0
7	0x3f800000	1.0
8	0x3f800000	1.0
9	0x3f800000	1.0
10	0x3f800000	1.0
11	0x3f800000	1.0
12	0x3f800000	1.0
13	0x3f800000	1.0
14	0x3f800000	1.0
15	0x3f800000	1.0
16	0x3f800000	1.0
17	0x3f800000	1.0
18	0x3f800000	1.0
19	0x3f800000	1.0
20	0x3f800000	1.0
21	0x3f800000	1.0
22	0x3f800000	1.0
23	0x3f800000	1.0
24	0x3f800000	1.0
25	0x3f800000	1.0
26	0x3f800000	1.0
27	0x3f800000	1.0
28	0x3f800000	1.0
29	0x3f800000	1.0
30	0x3f800000	1.0
31	0x3f800000	1.0

model.1.bias f4 [32]
0	0x00000000	0.0
1	0x00000000	0.0
2	0x00000000	0.0
3	0x00000000	0.0
4	0x00000000	0.0
5	0x00000000	0.0
6	0x00000000	0.0
7	0x00000000	0.0
8	0x00000000	0.0
9	0x00000000	0.0
10	0x00000000	0.0
11	0x00000000	0.0
12	0x00000000	0.0
13	0x00000000	0.0
14	0x00000000	0.0
15	0x00000000	0.0
16	0x00000000	0.0
17	0x00000000	0.0
18	0x00000000	0.0
19	0x00000000	0.0
20	0x00000000	0.0
21	0x00000000	0.0
22	0x00000000	0.0
23	0x00000000	0.0
24	0x00000000	0.0
25	0x00000000	0.0
26	0x00000000	0.0
27	0x00000000	0.0
28	0x00000000	0.0
29	0x00000000	0.0
30	0x00000000	0.0
31	0x00000000	0.0

model.1.gate f4 [32]
0	0x3f800000	1.0
1	0x3f800000	1.0
2	0x3f800000	1.0
3	0x3f800000	1.0
4	0x3f800000	1.0
5	0x3f800000	1.0
6	0x3f800000	1.0
7	0x3f800000	1.0
8	0x3f800000	1.0
9	0x3f800000	1.0
10	0x3f800000	1.0
11	0x3f800000	1.0
12	0x3f800000	1.0
13	0x3f800000	1.0
14	0x3f800000	1.0
15	0x3f800000	1.0
16	0x3f800000	1.0
17	0x3f800000	1.0
18	0x3f800000	1.0
19	0x3f800000	1.0
20	0x3f800000	1.0
21	0x3f800000	1.0
22	0x3f800000	1.0
23	0x3f800000	1.0
24	0x3f800000	1.0
25	0x3f800000	1.0
26	0x3f800000	1.0
27	0x3f800000	1.0
28	0x3f800000	1.0
29	0x3f800000	1.0
30	0x3f800000	1.0
31	0x3f800000	1.0

model.1.running_mean f4 [32]
0	0x00000000	0.0
1	0x00000000	0.0
2	0x00000000	0.0
3	0x00000000	0.0
4	0x00000000	0.0
5	0x00000000	0.0
6	0x00000000	0.0
7	0x00000000	0.0
8	0x00000000	0.0
9	0x00000000	0.0
10	0x00000000	0.0
11	0x00000000	0.0
12	0x00000000	0.0
13	0x00000000	0.0
14	0x00000000	0.0
15	0x00000000	0.0
16	0x00000000	0.0
17	0x00000000	0.0
18	0x00000000	0.0
19	0x00000000	0.0
20	0x00000000	0.0
21	0x00000000	0.0
22	0x00000000	0.0
23	0x00000000	0.0
24	0x00000000	0.0
25	0x00000000	0.0
26	0x00000000	0.0
27	0x00000000	0.0
28	0x00000000	0.0
29	0x00000000	0.0
30	0x00000000	0.0
31	0x00000000	0.0

model.1.running_var f4 [32]
0	0x3f800000	1.0
1	0x3f800000	1.0
2	0x3f800000	1.0
3	0x3f800000	1.0
4	0x3f800000	1.0
5	0x3f800000	1.0
6	0x3f800000	1.0
7	0x3f800000	1.0
8	0x3f800000	1.0
9	0x3f800000	1.0
10	0x3f800000	1.0
11	0x3f800000	1.0
12	0x3f800000	1.0
13	0x3f800000	1.0
14	0x3f800000	1.0
15	0x3f800000	1.0
16	0x3f800000	1.0
17	0x3f800000	1.0
18	0x3f800000	1.0
19	0x3f800000	1.0
20	0x3f800000	1.0
21	0x3f800000	1.0
22	0x3f800000	1.0
23	0x3f800000	1.0
24	0x3f800000	1.0
25	0x3f800000	1.0
26	0x3f800000	1.0
27	0x3f800000	1.0
28	0x3f800000	1.0
29	0x3f800000	1.0
30	0x3f800000	1.0
31	0x3f800000	1.0

model.3.main.0.weight f4 [32, 32, 3, 3]
0	0xbc8542f9	-0.016267287
1	0x3cab35b7	0.020899637
2	0x3ddf7fdf	0.10913061
3	0xbdd3605b	-0.10321113
4	0x3d8d26e1	0.06892181
5	0xbe09bd75	-0.13451178
6	0xbe09abe6	-0.1344448
7	0xbc9ad978	-0.018902525
8	0x3ccfc694	0.025363244
9	0xbe271a96	-0.16318735
10	0xbdf2fd7a	-0.11864753
11	0x3c0d91b8	0.008640699
12	0x3d1b5a01	0.03792763
13	0xbdd8ea5c	-0.105915755
14	0x3e1f5f60	0.15563726
15	0xbde85c94	-0.11345783
16	0xbe2f457c	-0.1711635
17	0xbc3a5730	-0.011373326
18	0xbd741198	-0.05958709
19	0xbdea1120	-0.114290476
20	0xbda03153	-0.07821908
21	0xbcb1d640	-0.021708608
22	0x3d12951b	0.03578673
23	0x3c04736e	0.008084161
24	0xbda74cb7	-0.08168929
25	0x3dbe0bd2	0.09279598
26	0x3d05784e	0.032585435
27	0xbe1451b8	-0.14484298
28	0xbd92cfd2	-0.07168545
29	0xbcd09f1b	-0.025466492
30	0xbdf75250	-0.12076247
31	0x3dc7cf68	0.097563565
32	0xbde075d7	-0.10959976
33	0x3d6b33eb	0.05742256
34	0x3c166b55	0.009180863
35	0x3c7f0b13	0.015566605
36	0xbe34e6ec	-0.17666215
37	0x3b9f418f	0.00486011
38	0xbdbcd0d2	-0.09219517
39	0xbdce5e88	-0.10076624
40	0x3cff66a6	0.031176876
41	0xbb874c4e	-0.0041289693
42	0xbd26d774	-0.040732816
43	0x3d2fb49c	0.042896852
44	0xbd5685d4	-0.052373722
45	0xbd9694ab	-0.07352575
46	0xbcf98153	-0.030457174
47	0xbd72af0c	-0.05924897
48	0x3dc12b86	0.094321296
49	0xbdddec4c	-0.10836086
50	0xbca856d2	-0.020549212
51	0xbd837540	-0.06418848
52	0xbbf3e29c	-0.0074427854
53	0xbba587d2	-0.0050515914
54	0x3cde43fe	0.02713203
55	0xbdc6d484	-0.09708503
56	0x3c215487	0.009846813
57	0xbdb3714f	-0.08761846
58	0x3d83ea56	0.064411804
59	0xbd2efbf8	-0.042720765
60	0x3d32a103	0.043610584
61	0x3d0bde66	0.034147643
62	0xbcba2a27	-0.022725178
63	0x3d9b7e2f	0.07592427
64	0x3db59c8a	0.08867748
65	0x3dcbf448	0.09958702
66	0xbcdbc3e7	-0.026826812
67	0x3d806068	0.06268388
68	0xbcde88ce	-0.027164843
69	0x3d8886cd	0.06666336
70	0xbe14fcd8	-0.14549577
71	0xbd8d76b7	-0.06907409
72	0xbc82fec0	-0.015990615
73	0x3d921d51	0.07134498
74	0xbdcb9ef3	-0.099424265
75	0xbcfb7322	-0.030694548
76	0xbe39dc13	-0.18150358
77	0xbe04c00a	-0.12963882
78	0xbd642d78	-0.055707425
79	0x3d66574f	0.056235608
80	0x3daf4bf8	0.08559412
81	0xbdd5b9ef	-0.10435855
82	0x3d637018	0.055526823
83	0xbcffce6f	-0.031226365
84	0xbe45191b	-0.19247858
85	0xbce644c7	-0.028108967
86	0xbcf8ae6f	-0.030356614
87	0xbd8fc24e	-0.070194826
88	0x3c43a4d7	0.011941156
89	0xbdd8a83f	-0.105789654
90	0xbe327e4c	-0.17430991
91	0xbd47f3bc	-0.048816428
92	0xbce99a1a	-0.028515864
93	0xbcc6202e	-0.024185266
94	0x3c7cb3bb	0.01542371
95	0xbd885c1c	-0.066581935
96	0x3da52bc7	0.080649905
97	0xbc85e2b4	-0.016343452
98	0xbe19b160	-0.1500907
99	0x3b664614	0.0035136985
100	0x3d680046	0.056640886
101	0x3d04265e	0.032263152
102	0x3cf93168	0.030419067
103	0xbe1a5a0c	-0.15073413
104	0xbd58ab30	-0.052897632
105	0x3c2a6084	0.010398988
106	0xbdcae994	-0.09907833
107	0x3df38c67	0.11892014
108	0x3d21557c	0.039388165
109	0xbdf937b6	-0.12168829
110	0xbd4765a7	-0.048680928
111	0xbdd07642	-0.10178806
112	0x3ceba233	0.028763866
113	0xbce9444c	-0.02847495
114	0xbd0e865d	-0.034796108
115	0xbd0fe120	-0.035126805
116	0xbe674e68	-0.22588503
117	0x3e208831	0.15676953
118	0xbc41b1b4	-0.011822153
119	0xbe096591	-0.13417651
120	0xbdf0090a	-0.11720474
121	0x3e1cdee6	0.15319404
122	0x3c674ffb	0.01411819
123	0xbdec9922	-0.11552645
124	0x3d1934ef	0.037403997
125	0x3e3d743c	0.18501371
126	0xbd1e64a6	-0.038670205
127	0x3d9f5c2b	0.077812515
128	0xbd67426a	-0.05645982
129	0x3d5b4743	0.053534757
130	0xbdb37f37	-0.08764499
131	0x3e0b04e6	0.13576087
132	0xbe10edb2	-0.14153174
133	0xbcfa7967	-0.030575467
134	0x3e64571b	0.22298853
135	0x3ded9aac	0.11601767
136	0xbc8aff17	-0.01696734
137	0x3d3a9ee8	0.0455617
138	0xbddcb898	-0.10777396
139	0xbe28e8ae	-0.1649501
140	0x3b8e0df4	0.0043351594
141	0xbb3cb380	-0.0028793514
142	0xbc655c17	-0.013999007
143	0x3e3e4758	0.18581903
144	0xbdc251f0	-0.094882846
145	0x3cfc78d7	0.03081934
146	0x390c6d32	0.00013392119
147	0xbdeb74e7	-0.11496907
148	0x3d8968e6	0.06709461
149	0x3d90f82a	0.070785835
150	0xbc2c093c	-0.0105002485
151	0xbd11d4e9	-0.035603438
152	0xbbaa1062	-0.0051899413
153	0x3d98b77c	0.07456872
154	0xbdc49380	-0.09598446
155	0x3d3519e6	0.04421415
156	0xbd42fd7a	-0.047605015
157	0xbc491eea	-0.012275437
158	0xbe25eb74	-0.162031
159	0x3d55422e	0.052065067
160	0xbd8041e8	-0.062625706
161	0xbe29f3a0	-0.16596842
162	0x3cc8a464	0.02449245
163	0x3d9b8463	0.0759361
164	0x3d5a36e8	0.05327502
165	0x3bab6f80	0.0052317977
166	0x3c1c33fb	0.0095338775
167	0xbdf860a8	-0.12127811
168	0xbd603d9b	-0.05474625
169	0xbe2649c4	-0.16239077
170	0x3e3462c7	0.17615806
171	0xbb6e9c90	-0.0036409236
172	0x3d0cc3ab	0.03436629
173	0x3df87fa7	0.12133723
174	0xbc5c8903	-0.0134604005
175	0xbdec6d3c	-0.11544272
176	0xbe767ce4	-0.2407108
177	0xbd0ee3ba	-0.034885146
178	0x3baa4b7d	0.005196987
179	0x3d2ae104	0.041718498
180	0xbd41934c	-0.047259614
181	0xbda7a0ce	-0.08184968
182	0x3bb986b0	0.005661808
183	0x3ddbdf40	0.10735941
184	0xbb7c5fd6	-0.003850927
185	0x3d97b8ee	0.074083194
186	0x3d70b854	0.05876954
187	0xbd6982b7	-0.057009425
188	0xbe2ec4da	-0.1706728
189	0xbd92807b	-0.07153412
190	0x3d4d1143	0.05006529
191	0xbd4a052e	-0.049321346
192	0x3e269440	0.1626749
193	0xbd2e554a	-0.042561807
194	0x3d915e12	0.070980206
195	0xbd137b86	-0.036006473
196	0xbdb9ae68	-0.090664685
197	0xbd953ef6	-0.072873995
198	0xbcd69980	-0.026196241
199	0xbdd8dd4a	-0.105890825
200	0xbe01aac5	-0.126628
201	0x3e2acdbe	0.16680047
202	0x3d2b7913	0.041863512
203	0xbc369ee6	-0.011146283
204	0xbb9bbfe0	-0.004753098
205	0xbd058c1d	-0.032604326
206	0xbd02c136	-0.03192254
207	0xbdc0c856	-0.09413211
208	0x3d89db77	0.06731313
209	0xbd783f1a	-0.060607053
210	0x3d5b3c6b	0.053524416
211	0xbe74ee23	-0.23918967
212	0xbd8c80bd	-0.068604924
213	0xbc324937	-0.010881714
214	0xbcfa6777	-0.030566914
215	0x3da6ffb0	0.08154237
216	0xb9b6a200	-0.00034834445
217	0xbd056c46	-0.03257396
218	0x3cc6c3e6	0.024263334
219	0x3e36afa4	0.17840439
220	0xbae0accf	-0.0017141345
221	0x3dde9ff3	0.10870352
222	0x3d751f84	0.05984451
223	0xbba7bee3	-0.005119191
224	0xbe410556	-0.18849692
225	0xbbde6efa	-0.006788132
226	0xbd2a1707	-0.041525867
227	0x3e17ecd7	0.14836441
228	0xbb034049	-0.002002733
229	0x3c8798a2	0.016552273
230	0xbdbfa572	-0.09357728
231	0xbcb7cc5f	-0.022436319
232	0xbcb358e0	-0.021892965
233	0x3c8130eb	0.015770396
234	0xbd879958	-0.06621045
235	0x3e425680	0.1897831
236	0xbd96c2cd	-0.07361374
237	0xbd2c2728	-0.04202953
238	0x3c9c6506	0.01909114
239	0xbe008ec2	-0.12554458
240	0x3da8915e	0.082308516
241	0xbd529134	-0.051408008
242	0x3d84bcc6	0.06481318
243	0x3c95da73	0.018292641
244	0x3d7bc986	0.061471485
245	0x3e12f4fe	0.1435127
246	0xbd11cd40	-0.035596132
247	0xbd3eaf56	-0.046553932
248	0xbd4896c7	-0.048971917
249	0x3ca43b5f	0.020047842
250	0x3c17ab90	0.009257212
251	0x3d9bbba2	0.076041475
252	0xbc9a0e4c	-0.018805645
253	0xbd6548d8	-0.055977672
254	0x3db1c1a4	0.08679512
255	0xbc94ada4	-0.018149205

model.3.main.1.weight f4 [32]
0	0x3f800000	1.0
1	0x3f800000	1.0
2	0x3f800000	1.0
3	0x3f800000	1.0
4	0x3f800000	1.0
5	0x3f800000	1.0
6	0x3f800000	1.0
7	0x3f800000	1.0
8	0x3f800000	1.0
9	0x3f800000	1.0
10	0x3f800000	1.0
11	0x3f800000	1.0
12	0x3f800000	1.0
13	0x3f800000	1.0
14	0x3f800000	1.0
15	0x3f800000	1.0
16	0x3f800000	1.0
17	0x3f800000	1.0
18	0x3f800000	1.0
19	0x3f800000	1.0
20	0x3f800000	1.0
21	0x3f800000	1.0
22	0x3f800000	1.0
23	0x3f800000	1.0
24	0x3f800000	1.0
25	0x3f800000	1.0
26	0x3f800000	1.0
27	0x3f800000	1.0
28	0x3f800000	1.0
29	0x3f800000	1.0
30	0x3f800000	1.0
31	0x3f800000	1.0

model.3.main.1.bias f4 [32]
0	0x00000000	0.0
1	0x00000000	0.0
2	0x00000000	0.0
3	0x00000000	0.0
4	0x00000000	0.0
5	0x00000000	0.0
6	0x00000000	0.0
7	0x00000000	0.0
8	0x00000000	0.0
9	0x00000000	0.0
10	0x00000000	0.0
11	0x00000000	0.0
12	0x00000000	0.0
13	0x00000000	0.0
14	0x00000000	0.0
15	0x00000000	0.0
16	0x00000000	0.0
17	0x00000000	0.0
18	0x00000000	0.0
19	0x00000000	0.0
20	0x00000000	0.0
21	0x00000000	0.0
22	0x00000000	0.0
23	0x00000000	0.0
24	0x00000000	0.0
25	0x00000000	0.0
26	0x00000000	0.0
27	0x00000000	0.0
28	0x00000000	0.0
29	0x00000000	0.0
30	0x00000000	0.0
31	0x00000000	0.0

model.3.main.1.gate f4 [32]
0	0x3f800000	1.0
1	0x3f800000	1.0
2	0x3f800000	1.0
3	0x3f800000	1.0
4	0x3f800000	1.0
5	0x3f800000	1.0
6	0x3f800000	1.0
7	0x3f800000	1.0
8	0x3f800000	1.0
9	0x3f800000	1.0
10	0x3f800000	1.0
11	0x3f800000	1.0
12	0x3f800000	1.0
13	0x3f800000	1.0
14	0x3f800000	1.0
15	0x3f800000	1.0
16	0x3f800000	1.0
17	0x3f800000	1.0
18	0x3f800000	1.0
19	0x3f800000	1.0
20	0x3f800000	1.0
21	0x3f800000	1.0
22	0x3f800000	1.0
23	0x3f800000	1.0
24	0x3f800000	1.0
25	0x3f800000	1.0
26	0x3f800000	1.0
27	0x3f800000	1.0
28	0x3f800000	1.0
29	0x3f800000	1.0
30	0x3f800000	1.0
31	0x3f800000	1.0

model.3.main.1.running_mean f4 [32]
0	0x00000000	0.0
1	0x00000000	0.0
2	0x00000000	0.0
3	0x00000000	0.0
4	0x00000000	0.0
5	0x00000000	0.0
6	0x00000000	0.0
7	0x00000000	0.0
8	0x00000000	0.0
9	0x00000000	0.0
10	0x00000000	0.0
11	0x00000000	0.0
12	0x00000000	0.0
13	0x00000000	0.0
14	0x00000000	0.0
15	0x00000000	0.0
16	0x00000000	0.0
17	0x00000000	0.0
18	0x00000000	0.0
19	0x00000000	0.0
20	0x00000000	0.0
21	0x00000000	0.0
22	0x00000000	0.0
23	0x00000000	0.0
24	0x00000000	0.0
25	0x00000000	0.0
26	0x00000000	0.0
27	0x00000000	0.0
28	0x00000000	0.0
29	0x00000000	0.0
30	0x00000000	0.0
31	0x00000000	0.0

model.3.main.1.running_var f4 [32]
0	0x3f800000	1.0
1	0x3f800000	1.0
2	0x3f800000	1.0
3	0x3f800000	1.0
4	0x3f800000	1.0
5	0x3f800000	1.0
6	0x3f800000	1.0
7	0x3f800000	1.0
8	0x3f800000	1.0
9	0x3f800000	1.0
10	0x3f800000	1.0
11	0x3f800000	1.0
12	0x3f800000	1.0
13	0x3f800000	1.0
14	0x3f800000	1.0
15	0x3f800000	1.0
16	0x3f800000	1.0
17	0x3f800000	1.0
18	0x3f800000	1.0
19	0x3f800000	1.0
20	0x3f800000	1.0
21	0x3f800000	1.0
22	0x3f800000	1.0
23	0x3f800000	1.0
24	0x3f800000	1.0
25	0x3f800000	1.0
26	0x3f800000	1.0
27	0x3f800000	1.0
28	0x3f800000	1.0
29	0x3f800000	1.0
30	0x3f800000	1.0
31	0x3f800000	1.0

model.3.main.3.weight f4 [32, 32, 3, 3]
0	0xbc38290f	-0.011240258
1	0x3c4e2950	0.012583092
2	0xbd9aa624	-0.0755122
3	0x3e44aaec	0.19205827
4	0xbde9c1b3	-0.11413898
5	0xbcb9d274	-0.02268336
6	0xbdcad72c	-0.09904322
7	0xbc459dc7	-0.012061543
8	0xbddb9518	-0.10721797
9	0x3d3a3b9b	0.045467
10	0x3d19ff5e	0.037597053
11	0x3c99547d	0.018717045
12	0xbc6ae577	-0.014336935
13	0xbd03dc32	-0.032192416
14	0xbd33fc7b	-0.043941956
15	0xbddaa47b	-0.106759034
16	0xbc6e805c	-0.01455697
17	0xbdb5cc00	-0.088768005
18	0xbcb1c19c	-0.021698765
19	0x3d9ceed2	0.07662739
20	0x3dd333c3	0.10312607
21	0xbdb992a4	-0.090611726
22	0x3dc0d07a	0.09414764
23	0xbdc7b644	-0.09751561
24	0x3d9879d0	0.07445109
25	0xbd1f5654	-0.03890069
26	0xbd55fd18	-0.052243322
27	0xbd951f12	-0.07281317
28	0xbe0d8b1e	-0.138226
29	0x3d4b2cee	0.049603395
30	0x3c9fd686	0.019511472
31	0x3df52702	0.11970331
32	0xbdc453f2	-0.09586324
33	0x3d883385	0.066504516
34	0xbd9118a8	-0.07084781
35	0xbe275eab	-0.16344707
36	0x3b0e223d	0.0021687888
37	0x3e3033d4	0.17207271
38	0xbc9102e6	-0.017701577
39	0xbc70cfb6	-0.01469796
40	0xbde5066e	-0.11182867
41	0x3b070959	0.0020604937
42	0x3cd11237	0.02552138
43	0x3e41c117	0.18921314
44	0xbb87822a	-0.00413539
45	0x3dfd852c	0.12378916
46	0xbe293cdc	-0.16527122
47	0xbe20bfe7	-0.15698205
48	0x3d7a49ae	0.061105423
49	0x3c266fcc	0.01015849
50	0x3e173fa5	0.14770372
51	0xbd5a0202	-0.05322457
52	0x3c98fd98	0.01867561
53	0x3c99f402	0.01879311
54	0xbd159612	-0.03652007
55	0x3df43a36	0.11925165
56	0x3c9a1c80	0.018812418
57	0xbcddf04c	-0.027092122
58	0xbdc74983	-0.09730818
59	0x3d959065	0.07302932
60	0xbd360617	-0.0444394
61	0xbdcb7a9e	-0.09935497
62	0x3d4b68af	0.04966038
63	0xbdd63cd4	-0.10460821
64	0x3c4a176b	0.012334685
65	0x3d6484eb	0.055790823
66	0x3b2b43f6	0.0026133037
67	0x3d94139d	0.072303034
68	0x3cd75abc	0.026288383
69	0xbd15f35c	-0.03660904
70	0x3dddb07c	0.10824677
71	0x3d050d82	0.032483585
72	0x3ddbfce7	0.10741597
73	0x3d260c02	0.040538795
74	0xbd5a4ab2	-0.05329389
75	0x3e190a54	0.14945346
76	0xbd377a56	-0.044794403
77	0xbc81ae92	-0.015830312
78	0xbd83d828	-0.06437713
79	0x3dc0efeb	0.09420761
80	0xbe032b8e	-0.12809584
81	0xbd1ada08	-0.037805587
82	0x3d9ac116	0.075563595
83	0x3d2adeb0	0.041716278
84	0x3e13740a	0.14399734
85	0xbdbe8682	-0.09302999
86	0xbcabbb44	-0.020963319
87	0xbdb9750f	-0.0905553
88	0x3c876224	0.01652629
89	0xbaf17858	-0.0018422706
90	0x3d2d6bf8	0.042339295
91	0xbdb82f54	-0.08993402
92	0x3dae9c7a	0.08525939
93	0xbd9a27d9	-0.075271316
94	0xbda097c0	-0.07841444
95	0x3e01744a	0.12642017
96	0xbd42bdbf	-0.047544237
97	0xbd0e5230	-0.03474635
98	0x3cc29f80	0.023757696
99	0x3dd05490	0.10172379
100	0xbc469c02	-0.012122156
101	0xbd46af26	-0.04850688
102	0x3d528782	0.05139876
103	0x3c83caab	0.01608785
104	0x3dc506f3	0.09620466
105	0xbca65546	-0.020304333
106	0xbe1cff4a	-0.1533176
107	0x3cebb408	0.028772369
108	0x3d709257	0.05873331
109	0x3dfbc267	0.12292939
110	0xbe22916c	-0.15875787
111	0xbd9df4fc	-0.07712743
112	0x3e04af1c	0.12957424
113	0xbc77d70f	-0.015126958
114	0xbd7e2970	-0.062051237
115	0xbacfb96a	-0.0015848104
116	0x3cd1b11a	0.025597144
117	0xbd3a8d04	-0.04554464
118	0x3d52b217	0.05143937
119	0x3d38c404	0.04510881
120	0xbd05dac8	-0.03267935
121	0x3d34707f	0.044052597
122	0x3aadbdf6	0.0013255465
123	0x3df547cf	0.11976587
124	0x3b9d734b	0.0048050038
125	0xbdb8e7d8	-0.09028596
126	0xbdaa07e7	-0.083022885
127	0xbe1f33e1	-0.15547134
128	0xbe1726f6	-0.14760956
129	0xbd23a1ab	-0.0399491
130	0x3c88ce4f	0.016699938
131	0xbc4e1c3e	-0.012579976
132	0xbd7a740b	-0.061145823
133	0x3e17025a	0.14746991
134	0xbe035f2a	-0.12829271
135	0xbe236aec	-0.15958756
136	0xbaef9dd7	-0.0018281293
137	0x3db201cc	0.08691749
138	0xbcd29346	-0.025704991
139	0x3dc0ab0c	0.094076246
140	0x3d5c5e4e	0.053800873
141	0x3c977312	0.018487487
142	0xbd4ad600	-0.049520493
143	0x3c9d3134	0.019188501
144	0xbd46aaca	-0.04850272
145	0x3dcbbf34	0.099485785
146	0x3cf7c94e	0.030247357
147	0xbd45a0ca	-0.048249044
148	0xbcb27b8b	-0.021787426
149	0x3e3f66ae	0.18691513
150	0x3d628764	0.0553049
151	0x3d49d868	0.049278647
152	0xbd2aafa4	-0.04167141
153	0x3ddc4a2c	0.10756335
154	0x3d46239b	0.0483738
155	0x3cc3ef18	0.02391772
156	0xbd9d89aa	-0.07692273
157	0x3d439968	0.04775372
158	0xbe561868	-0.20907748
159	0x3cbd96af	0.02314314
160	0x3d4cb290	0.049974978
161	0xbdb3fdce	-0.08788644
162	0x3e163cac	0.14671582
163	0xbd1eca02	-0.03876687
164	0xbc599894	-0.013281006
165	0x3da8c512	0.08240713
166	0x3d17d509	0.0370684
167	0x3cc5496a	0.024082858
168	0x3da5d792	0.080977574
169	0xbd0e8dd2	-0.03480322
170	0xbe290d94	-0.16509086
171	0x3d47915e	0.048722617
172	0xbcfd7c4f	-0.030943064
173	0xbce88d20	-0.028387606
174	0xbde6d342	-0.11270763
175	0xbc641a33	-0.013922262
176	0x3ac844a7	0.0015279249
177	0x3da3d82c	0.08000216
178	0xbd60c05a	-0.05487094
179	0xbdb5e9e6	-0.08882503
180	0x3de3fe6b	0.11132511
181	0xbdf14aa6	-0.11781816
182	0x3dd84288	0.10559565
183	0x3ddd40f8	0.108034074
184	0x3c34dd74	0.011039127
185	0x3e1ff0f3	0.15619259
186	0x3cb0b494	0.021570481
187	0xbd8c04c8	-0.068368495
188	0xbe185e34	-0.14879686
189	0x3c243262	0.010021778
190	0x3c18dae1	0.009329529
191	0x3e190046	0.1494151
192	0x3c63eb1a	0.013911033
193	0x3c68899c	0.014192965
194	0xbc2aab9c	-0.010416891
195	0xbe22a5f4	-0.15883619
196	0xbd390c34	-0.045177653
197	0xbd3f7808	-0.04674533
198	0xbdca1d66	-0.098688886
199	0x3cfe8667	0.031069947
200	0xbd7fd106	-0.0624552
201	0xbe1af276	-0.15131554
202	0x3dd3f6aa	0.10349782
203	0x3ccf4418	0.025301024
204	0xbd8065fe	-0.062694535
205	0x3dde95f3	0.10868444
206	0x3cf9d562	0.030497257
207	0x3d272d77	0.040814843
208	0x3e467e37	0.19384085
209	0xbda04442	-0.07825519
210	0x3d9bb2f5	0.07602493
211	0xbb990775	-0.0046700784
212	0xbd537f77	-0.05163523
213	0xbd65b40a	-0.0560799
214	0xbcf38d43	-0.029730445
215	0x3d87bc90	0.06627762
216	0xbd482158	-0.048859924
217	0x3de5744b	0.11203822
218	0x3d4d321c	0.050096616
219	0xbda73253	-0.081638955
220	0xbc6b479a	-0.014360333
221	0x3d533294	0.051561907
222	0x3cfe5d03	0.03105021
223	0xbdb7ad5e	-0.08968614
224	0xbc3eb0d8	-0.0116388425
225	0x3da0e582	0.07856275
226	0xbe2f1110	-0.17096353
227	0x3cc25ac8	0.023724928
228	0x3e0281da	0.12744847
229	0xbdccb8fa	-0.09996219
230	0x3da557e4	0.080734044
231	0x3b25d4ef	0.002530392
232	0x3d861acf	0.06548082
233	0xbe112317	-0.14173542
234	0x3ca9b4dc	0.020716123
235	0x3d861ee4	0.06548861
236	0xbdd6b716	-0.104841396
237	0x3a928cae	0.0011180842
238	0xbce2f7ce	-0.027706053
239	0xbdd7582c	-0.10514864
240	0x3c47c696	0.012193343
241	0xbb24d1c0	-0.0025149435
242	0xbe440ce6	-0.19145545
243	0x3e091979	0.13388623
244	0x3e237539	0.15962686
245	0xbc8b160a	-0.016978282
246	0x3db4316e	0.087984905
247	0x3e379e67	0.1793152
248	0x3d5a52b4	0.053301528
249	0xbd75e69a	-0.060034372
250	0x3cbdb167	0.023155881
251	0xbd325d8c	-0.043546245
252	0x3dd3947e	0.10331057
253	0xbda419f0	-0.0801276
254	0xbd85429e	-0.06506847
255	0xbd81960e	-0.06327449

model.3.main.4.weight f4 [32]
0	0x3f800000	1.0
1	0x3f800000	1.0
2	0x3f800000	1.0
3	0x3f800000	1.0
4	0x3f800000	1.0
5	0x3f800000	1.0
6	0x3f800000	1.0
7	0x3f800000	1.0
8	0x3f800000	1.0
9	0x3f800000	1.0
10	0x3f800000	1.0
11	0x3f800000	1.0
12	0x3f800000	1.0
13	0x3f800000	1.0
14	0x3f800000	1.0
15	0x3f800000	1.0
16	0x3f800000	1.0
17	0x3f800000	1.0
18	0x3f800000	1.0
19	0x3f800000	1.0
20	0x3f800000	1.0
21	0x3f800000	1.0
22	0x3f800000	1.0
23	0x3f800000	1.0
24	0x3f800000	1.0
25	0x3f800000	1.0
26	0x3f800000	1.0
27	0x3f800000	1.0
28	0x3f800000	1.0
29	0x3f800000	1.0
30	0x3f800000	1.0
31	0x3f800000	1.0

model.3.main.4.bias f4 [32]
0	0x00000000	0.0
1	0x00000000	0.0
2	0x00000000	0.0
3	0x00000000	0.0
4	0x00000000	0.0
5	0x00000000	0.0
6	0x00000000	0.0
7	0x00000000	0.0
8	0x00000000	0.0
9	0x00000000	0.0
10	0x00000000	0.0
11	0x00000000	0.0
12	0x00000000	0.0
13	0x00000000	0.0
14	0x00000000	0.0
15	0x00000000	0.0
16	0x00000000	0.0
17	0x00000000	0.0
18	0x00000000	0.0
19	0x00000000	0.0
20	0x00000000	0.0
21	0x00000000	0.0
22	0x00000000	0.0
23	0x00000000	0.0
24	0x00000000	0.0
25	0x00000000	0.0
26	0x00000000	0.0
27	0x00000000	0.0
28	0x00000000	0.0
29	0x00000000	0.0
30	0x00000000	0.0
31	0x00000000	0.0

model.3.main.4.gate f4 [32]
0	0x3f800000	1.0
1	0x3f800000	1.0
2	0x3f800000	1.0
3	0x3f800000	1.0
4	0x3f800000	1.0
5	0x3f800000	1.0
6	0x3f800000	1.0
7	0x3f800000	1.0
8	0x3f800000	1.0
9	0x3f800000	1.0
10	0x3f800000	1.0
11	0x3f800000	1.0
12	0x3f800000	1.0
13	0x3f800000	1.0
14	0x3f800000	1.0
15	0x3f800000	1.0
16	0x3f800000	1.0
17	0x3f800000	1.0
18	0x3f800000	1.0
19	0x3f800000	1.0
20	0x3f800000	1.0
21	0x3f800000	1.0
22	0x3f800000	1.0
23	0x3f800000	1.0
24	0x3f800000	1.0
25	0x3f800000	1.0
26	0x3f800000	1.0
27	0x3f800000	1.0
28	0x3f800000	1.0
29	0x3f800000	1.0
30	0x3f800000	1.0
31	0x3f800000	1.0

model.3.main.4.running_mean f4 [32]
0	0x00000000	0.0
1	0x00000000	0.0
2	0x00000000	0.0
3	0x00000000	0.0
4	0x00000000	0.0
5	0x00000000	0.0
6	0x00000000	0.0
7	0x00000000	0.0
8	0x00000000	0.0
9	0x00000000	0.0
10	0x00000000	0.0
11	0x00000000	0.0
12	0x00000000	0.0
13	0x00000000	0.0
14	0x00000000	0.0
15	0x00000000	0.0
16	0x00000000	0.0
17	0x00000000	0.0
18	0x00000000	0.0
19	0x00000000	0.0
20	0x00000000	0.0
21	0x00000000	0.0
22	0x00000000	0.0
23	0x00000000	0.0
24	0x00000000	0.0
25	0x00000000	0.0
26	0x00000000	0.0
27	0x00000000	0.0
28	0x00000000	0.0
29	0x00000000	0.0
30	0x00000000	0.0
31	0x00000000	0.0

model.3.main.4.running_var f4 [32]
0	0x3f800000	1.0
1	0x3f800000	1.0
2	0x3f800000	1.0
3	0x3f800000	1.0
4	0x3f800000	1.0
5	0x3f800000	1.0
6	0x3f800000	1.0
7	0x3f800000	1.0
8	0x3f800000	1.0
9	0x3f800000	1.0
10	0x3f800000	1.0
11	0x3f800000	1.0
12	0x3f800000	1.0
13	0x3f800000	1.0
14	0x3f800000	1.0
15	0x3f800000	1.0
16	0x3f800000	1.0
17	0x3f800000	1.0
18	0x3f800000	1.0
19	0x3f800000	1.0
20	0x3f800000	1.0
21	0x3f800000	1.0
22	0x3f800000	1.0
23	0x3f800000	1.0
24	0x3f800000	1.0
25	0x3f800000	1.0
26	0x3f800000	1.0
27	0x3f800000	1.0
28	0x3f800000	1.0
29	0x3f800000	1.0
30	0x3f800000	1.0
31	0x3f800000	1.0

model.4.main.0.weight f4 [32, 32, 3, 3]
0	0xbda9780f	-0.082748525
1	0x3d005e50	0.031339943
2	0xbe1588fa	-0.14603034
3	0xbd571db3	-0.052518558
4	0x3d867faa	0.06567319
5	0xbc8282d7	-0.01593153
6	0xbadeb8d8	-0.0016992344
7	0xbcd7f7b8	-0.026363239
8	0xbdc9c0a2	-0.09851195
9	0x3d9f5c49	0.07781274
10	0x3cc2b34f	0.023767142
11	0xbd46f5af	-0.048574146
12	0xbd87c75d	-0.066298224
13	0x3d242cdb	0.04008184
14	0xbe38d2e0	-0.18049192
15	0xbddd658c	-0.10810384
16	0xbdbd8d44	-0.0925546
17	0x3d9d6f70	0.07687271
18	0x3d7b30ee	0.06132596
19	0x3e02b44f	0.12764095
20	0xbdbef890	-0.09324753
21	0x3bbe9996	0.0058166487
22	0x3d410394	0.047122553
23	0xbb33e56b	-0.0027449976
24	0xbd9573e4	-0.07297495
25	0x3d3a97e8	0.045555025
26	0x3da69cfa	0.0813541
27	0xbe00ef16	-0.12591204
28	0x3dfa3278	0.122166574
29	0x3dbff850	0.09373534
30	0xbcadf5ff	-0.021235464
31	0xbdcd353a	-0.10019918
32	0xbdbc857f	-0.0920515
33	0x3dffdf38	0.124937475
34	0x3deb04bf	0.114755146
35	0x3cee9b87	0.029126896
36	0xbd2a4947	-0.04157379
37	0x3d90801a	0.070556834
38	0xbb36b7a8	-0.0027880464
39	0xbe499830	-0.19686961
40	0xbddb02f6	-0.10693924
41	0x3d8db24f	0.06918775
42	0xbc470fb8	-0.012149744
43	0x3ce35100	0.027748585
44	0x3dd8c27a	0.105839685
45	0xbd4576e2	-0.04820908
46	0xbdadc6db	-0.08485194
47	0x3c741224	0.014896903
48	0x3d077520	0.033070683
49	0x3d2a2430	0.041538417
50	0x3d03ea12	0.03220565
51	0x3cd92f1b	0.02651172
52	0xbe67e766	-0.22646865
53	0x3e64f9e6	0.22360954
54	0x3d25a31f	0.040438768
55	0xbd1af616	-0.037832342
56	0x3e113005	0.14178474
57	0x3d968d90	0.0735122
58	0xbca2ea05	-0.01988698
59	0x3e3e755f	0.18599461
60	0xbbbe3827	-0.0058050337
61	0x3dc061e2	0.0939367
62	0xbe4dee48	-0.20110428
63	0xbdaf7064	-0.08566359
64	0xbd0d0a19	-0.034433458
65	0x3e15b006	0.14617929
66	0xbdf986eb	-0.12183937
67	0xbbf0f4ac	-0.007353386
68	0xbd44183a	-0.047874667
69	0x3b7caec8	0.0038556326
70	0x3d3e34c8	0.046437055
71	0x3d4584fc	0.048222527
72	0x3e43d832	0.1912544
73	0x3e1710bc	0.14752477
74	0xbd084080	-0.033264637
75	0x3d1c6419	0.038181398
76	0xbda027a6	-0.07820062
77	0x3c83dcde	0.016096529
78	0xba32de6e	-0.0006823306
79	0xbd355568	-0.044270903
80	0x3c6cf952	0.0144637395
81	0xbe4b0f58	-0.19830072
82	0x3db88992	0.090106145
83	0xbd842212	-0.06451811
84	0x3d68ab6c	0.056804106
85	0x3d703c30	0.05865115
86	0x3de457fe	0.11149596
87	0xbd6cd4dc	-0.057820186
88	0xbd2c5cbc	-0.042080626
89	0x3d94feba	0.07275148
90	0xbd6b4bfa	-0.057445504
91	0xbd23f6ef	-0.040030416
92	0x3e2a674e	0.1664097
93	0xbdb03fb4	-0.086059004
94	0x3dc170ac	0.094453186
95	0xbd8854c1	-0.066567905
96	0xbd9e4f34	-0.077299505
97	0xbd51b480	-0.05119753
98	0x3c772596	0.015084645
99	0x3d30bbb3	0.043147754
100	0xbe06dfb1	-0.13171269
101	0x3db76e68	0.08956605
102	0x3d7c0cd3	0.061535668
103	0x3dbdd04b	0.09268244
104	0x3d9bd73a	0.076094106
105	0x3da8d40a	0.08243568
106	0xbc2fccb6	-0.010729959
107	0xbe0b96a1	-0.13631679
108	0x3db96a7a	0.09053512
109	0x3cab4442	0.020906571
110	0xbdf3df50	-0.11907828
111	0xbe067314	-0.13129836
112	0x3bbe4ed0	0.005807735
113	0xbda256f8	-0.07926744
114	0x3e58129b	0.21100847
115	0x3e31e56b	0.17372672
116	0xbd8ad011	-0.06777967
117	0xbe4c592f	-0.19955896
118	0xbd4bfc2c	-0.049801037
119	0x3d1dde64	0.038542166
120	0xbd05d4a4	-0.032673493
121	0x3ccbc253	0.024872934
122	0x3d87ebea	0.06636794
123	0x3d67b046	0.05656459
124	0xbd518e7e	-0.05116128
125	0xbd574afb	-0.05256174
126	0x3d810eea	0.06301673
127	0x3d65e4c2	0.056126364
128	0x3d561723	0.05226816
129	0xbd0455ba	-0.032308318
130	0xbd36d028	-0.044632107
131	0x3d1e375a	0.038627006
132	0xbc09d9d8	-0.008413754
133	0x3d6200a6	0.0551764
134	0x3d4d9b7b	0.050197106
135	0x3d627640	0.055288553
136	0xbd96cbf2	-0.07363118
137	0xbd229ac5	-0.03969838
138	0xbd47f29a	-0.048815347
139	0x3e1a1f5f	0.1505103
140	0x3baceaf6	0.005277033
141	0xbdd6277c	-0.1045675
142	0xbdd574b8	-0.10422653
143	0xbc4025e6	-0.011727786
144	0x3dd64416	0.10462205
145	0xbdc862c6	-0.097844645
146	0xbdda3b3f	-0.106558315
147	0xbcd8fe5c	-0.026488476
148	0x3dde6987	0.108599715
149	0x3c454947	0.012041396
150	0xbd904182	-0.070437446
151	0x3d0279b2	0.03185434
152	0xbe030082	-0.12793162
153	0x3b874901	0.004128576
154	0x3cc4d207	0.02402593
155	0x3d54b9da	0.051935054
156	0xbe410e47	-0.18853103
157	0x3c13751e	0.009000091
158	0xbd420053	-0.04736359
159	0xbd944598	-0.072398365
160	0x3d65e324	0.05612482
161	0x3dd7d410	0.105384946
162	0x3d6738d8	0.056450695
163	0xbcc40f46	-0.023933064
164	0x3cefeae2	0.029286806
165	0xbd087f54	-0.033324555
166	0x3d861160	0.06546283
167	0x3d951991	0.07280267
168	0xbe747304	-0.23872
169	0x3cca6336	0.02470551
170	0x3d862bea	0.06551345
171	0xbdd8b4fe	-0.105813965
172	0xbd7cdb9a	-0.061732866
173	0x3c07d242	0.008289875
174	0xbd7ab73b	-0.0612099
175	0xbd35770a	-0.044302978
176	0x3dda0b84	0.10646728
177	0xbdf357e3	-0.118819974
178	0xbd97a326	-0.07404165
179	0x3d470ac6	0.04859426
180	0x3b2abe60	0.0026053414
181	0x3d1fd5da	0.039022304
182	0xbd1115ad	-0.035421062
183	0xbddb0e0f	-0.10696041
184	0xbd98572a	-0.074385
185	0x3cec3ccb	0.028837582
186	0xbd20eacf	-0.03928643
187	0x3d35d942	0.044396646
188	0x3c886eca	0.01665439
189	0xbe2ea6f3	-0.17055874
190	0xbd5f493a	-0.054513194
191	0xbd6e4e13	-0.058179926
192	0xbcf05858	-0.029339
193	0x3d7103c3	0.058841478
194	0x3c6bb327	0.014385975
195	0x3d85612a	0.06512673
196	0x3c8158a8	0.015789345
197	0xbdc4e247	-0.096134715
198	0xbc45f974	-0.0120834
199	0xbdb64000	-0.08898926
200	0x3d3828a4	0.044960633
201	0xbd61a71e	-0.055091016
202	0xbc629167	-0.013828612
203	0x3d8ada30	0.06779897
204	0xbc3a19ca	-0.011358688
205	0xbd89b3fc	-0.067237824
206	0xbcba0f04	-0.022712238
207	0xbc1d2d02	-0.00959325
208	0xbd2d3e96	-0.042296015
209	0x3da7b3ba	0.08188577
210	0x3cc6317a	0.024193514
211	0xbd7773dc	-0.060413226
212	0xbb9c0ed1	-0.0047625084
213	0x3c59ab7b	0.013285513
214	0xbd809452	-0.0627829
215	0x3d375e0b	0.04476742
216	0x3d1efe1e	0.038816564
217	0xbdd0da77	-0.10197919
218	0x3dbd2c3b	0.09236952
219	0xbcc29a3f	-0.02375519
220	0x3df47807	0.11936956
221	0xbe04f048	-0.12982285
222	0xbdab053b	-0.08350607
223	0xbdb8ac14	-0.09017196
224	0x3e1abdee	0.15111515
225	0xbe0447b8	-0.12917984
226	0x3d410933	0.047127914
227	0xbded88d0	-0.115983605
228	0x3d4d6f20	0.050154805
229	0x3dc7ca0c	0.09755334
230	0xbc499ae6	-0.012304997
231	0x3c8e1560	0.017344177
232	0xbd716d1f	-0.058941957
233	0xbdcafc00	-0.099113464
234	0xbdc7f12c	-0.09762797
235	0x3d91b7fa	0.07115169
236	0xbcb2c06b	-0.021820268
237	0x3ccbc742	0.024875287
238	0xbcf017e6	-0.02930827
239	0x3e0c3a1a	0.13694039
240	0xbd0b8281	-0.034060005
241	0x3e009b36	0.12559208
242	0xbd180b77	-0.03712031
243	0x3d171017	0.03688058
244	0xbd9532aa	-0.07285054
245	0xbd32930e	-0.043597274
246	0xbcb0f88f	-0.021602897
247	0xbe284f64	-0.16436535
248	0xbc9de572	-0.019274447
249	0xbd83bd30	-0.06432569
250	0x3d04458c	0.032292888
251	0x3d054f21	0.032546166
252	0x3e468f02	0.1939049
253	0x3ca479a8	0.020077541
254	0x3d0700d6	0.03295978
255	0x3e40ead6	0.18839583

model.4.main.1.weight f4 [32]
0	0x3f800000	1.0
1	0x3f800000	1.0
2	0x3f800000	1.0
3	0x3f800000	1.0
4	0x3f800000	1.0
5	0x3f800000	1.0
6	0x3f800000	1.0
7	0x3f800000	1.0
8	0x3f800000	1.0
9	0x3f800000	1.0
10	0x3f800000	1.0
11	0x3f800000	1.0
12	0x3f800000	1.0
13	0x3f800000	1.0
14	0x3f800000	1.0
15	0x3f800000	1.0
16	0x3f800000	1.0
17	0x3f800000	1.0
18	0x3f800000	1.0
19	0x3f800000	1.0
20	0x3f800000	1.0
21	0x3f800000	1.0
22	0x3f800000	1.0
23	0x3f800000	1.0
24	0x3f800000	1.0
25	0x3f800000	1.0
26	0x3f800000	1.0
27	0x3f800000	1.0
28	0x3f800000	1.0
29	0x3f800000	1.0
30	0x3f800000	1.0
31	0x3f800000	1.0

model.4.main.1.bias f4 [32]
0	0x00000000	0.0
1	0x00000000	0.0
2	0x00000000	0.0
3	0x00000000	0.0
4	0x00000000	0.0
5	0x00000000	0.0
6	0x00000000	0.0
7	0x00000000	0.0
8	0x00000000	0.0
9	0x00000000	0.0
10	0x00000000	0.0
11	0x00000000	0.0
12	0x00000000	0.0
13	0x00000000	0.0
14	0x00000000	0.0
15	0x00000000	0.0
16	0x00000000	0.0
17	0x00000000	0.0
18	0x00000000	0.0
19	0x00000000	0.0
20	0x00000000	0.0
21	0x00000000	0.0
22	0x00000000	0.0
23	0x00000000	0.0
24	0x00000000	0.0
25	0x00000000	0.0
26	0x00000000	0.0
27	0x00000000	0.0
28	0x00000000	0.0
29	0x00000000	0.0
30	0x00000000	0.0
31	0x00000000	0.0

model.4.main.1.gate f4 [32]
0	0x3f800000	1.0
1	0x3f800000	1.0
2	0x3f800000	1.0
3	0x3f800000	1.0
4	0x3f800000	1.0
5	0x3f800000	1.0
6	0x3f800000	1.0
7	0x3f800000	1.0
8	0x3f800000	1.0
9	0x3f800000	1.0
10	0x3f800000	1.0
11	0x3f800000	1.0
12	0x3f800000	1.0
13	0x3f800000	1.0
14	0x3f800000	1.0
15	0x3f800000	1.0
16	0x3f800000	1.0
17	0x3f800000	1.0
18	0x3f800000	1.0
19	0x3f800000	1.0
20	0x3f800000	1.0
21	0x3f800000	1.0
22	0x3f800000	1.0
23	0x3f800000	1.0
24	0x3f800000	1.0
25	0x3f800000	1.0
26	0x3f800000	1.0
27	0x3f800000	1.0
28	0x3f800000	1.0
29	0x3f800000	1.0
30	0x3f800000	1.0
31	0x3f800000	1.0

model.4.main.1.running_mean f4 [32]
0	0x00000000	0.0
1	0x00000000	0.0
2	0x00000000	0.0
3	0x00000000	0.0
4	0x00000000	0.0
5	0x00000000	0.0
6	0x00000000	0.0
7	0x00000000	0.0
8	0x00000000	0.0
9	0x00000000	0.0
10	0x00000000	0.0
11	0x00000000	0.0
12	0x00000000	0.0
13	0x00000000	0.0
14	0x00000000	0.0
15	0x00000000	0.0
16	0x00000000	0.0
17	0x00000000	0.0
18	0x00000000	0.0
19	0x00000000	0.0
20	0x00000000	0.0
21	0x00000000	0.0
22	0x00000000	0.0
23	0x00000000	0.0
24	0x00000000	0.0
25	0x00000000	0.0
26	0x00000000	0.0
27	0x00000000	0.0
28	0x00000000	0.0
29	0x00000000	0.0
30	0x00000000	0.0
31	0x00000000	0.0

model.4.main.1.running_var f4 [32]
0	0x3f800000	1.0
1	0x3f800000	1.0
2	0x3f800000	1.0
3	0x3f800000	1.0
4	0x3f800000	1.0
5	0x3f800000	1.0
6	0x3f800000	1.0
7	0x3f800000	1.0
8	0x3f800000	1.0
9	0x3f800000	1.0
10	0x3f800000	1.0
11	0x3f800000	1.0
12	0x3f800000	1.0
13	0x3f800000	1.0
14	0x3f800000	1.0
15	0x3f800000	1.0
16	0x3f800000	1.0
17	0x3f800000	1.0
18	0x3f800000	1.0
19	0x3f800000	1.0
20	0x3f800000	1.0
21	0x3f800000	1.0
22	0x3f800000	1.0
23	0x3f800000	1.0
24	0x3f800000	1.0
25	0x3f800000	1.0
26	0x3f800000	1.0
27	0x3f800000	1.0
28	0x3f800000	1.0
29	0x3f800000	1.0
30	0x3f800000	1.0
31	0x3f800000	1.0

model.4.main.3.weight f4 [32, 32, 3, 3]
0	0xbe3dc222	-0.18531087
1	0xbd47949b	-0.048725706
2	0x3c87225d	0.016495878
3	0xbd97b82f	-0.07408177
4	0xbdaacbcf	-0.08339655
5	0x3bb36f06	0.0054758815
6	0x3da29a9a	0.07939644
7	0xbd0a986a	-0.03383676
8	0x3d8875a6	0.06663065
9	0xbe075086	-0.13214311
10	0xbd4af6aa	-0.049551643
11	0x3d18e352	0.037326165
12	0x3b313378	0.0027038734
13	0x3d9295ef	0.07157504
14	0xbd5231a7	-0.051316883
15	0xbdd233ab	-0.10263761
16	0xbd7e7d10	-0.062130988
17	0xbd91d37b	-0.07120415
18	0xbcb8e2fb	-0.02256917
19	0x3dcc63cb	0.099799715
20	0xbdda4893	-0.10658374
21	0x3d4d3528	0.050099522
22	0xbd5630be	-0.052292578
23	0x3e541bb8	0.20713699
24	0xbc89ea3d	-0.016835326
25	0xbc372ab6	-0.011179617
26	0x3cefa3f0	0.029252976
27	0xbd29f65a	-0.041494705
28	0xbca01b3f	-0.019544242
29	0xbdf7aef3	-0.12093916
30	0xbd0919bc	-0.033471808
31	0xbd85585f	-0.06510996
32	0xbd4e8610	-0.05042082
33	0xbe129174	-0.14313298
34	0xbd950b74	-0.07277575
35	0xbca57030	-0.020195097
36	0xbc3d75f7	-0.01156377
37	0xbc9a83bc	-0.018861644
38	0x3d8ae43e	0.06781815
39	0xbd1c45d9	-0.03815255
40	0x3e46ab93	0.19401388
41	0xbd5e3627	-0.054250862
42	0xbcd479c8	-0.025936976
43	0x3db88be6	0.090110585
44	0x3d8e9308	0.06961638
45	0xbe12aa1b	-0.14322703
46	0x3a297204	0.0006463828
47	0x3da084b0	0.07837808
48	0xbd9a7056	-0.07540958
49	0xbdff44b6	-0.124642774
50	0xbcc5eed7	-0.02416174
51	0xbd055c19	-0.032558534
52	0xbd76e6a4	-0.06027855
53	0xbe15b524	-0.14619881
54	0xbcac036c	-0.020997725
55	0x3dc7d48f	0.09757339
56	0xbdcf5110	-0.10122883
57	0x3c9b0354	0.018922485
58	0x3d931f1c	0.07183668
59	0xbcce764a	-0.025202889
60	0x3c33f054	0.010982592
61	0xbd370b12	-0.04468829
62	0xbe196406	-0.14979562
63	0xbc0aa890	-0.00846304
64	0x3ced5ce8	0.028974965
65	0xbd30ef88	-0.043197185
66	0xbbbc66fe	-0.0057495823
67	0xbe012c4e	-0.12614557
68	0xbc990c19	-0.018682526
69	0xbe037631	-0.12838055
70	0x3b515e28	0.003194699
71	0xbd8ec678	-0.06971449
72	0xbd67d9f0	-0.056604326
73	0xbe03d60c	-0.12874621
74	0x3d6c909e	0.057755105
75	0xbd0f2dea	-0.034955896
76	0xbd621383	-0.05519439
77	0xbdd82b40	-0.10555124
78	0x3de3163e	0.11088227
79	0x3d99f8ba	0.07518144
80	0x3d54f292	0.051989146
81	0x3d435c3a	0.047695376
82	0x3da64a6b	0.08119663
83	0xbc11d49c	-0.008900788
84	0xbe0a64f9	-0.1351508
85	0xbd2b5d3f	-0.041836973
86	0x3d7db100	0.06193638
87	0xbcc102fb	-0.023560992
88	0x3e40f2cb	0.18842618
89	0xbdfb62b4	-0.122746855
90	0x3d226c5f	0.039654132
91	0xbd23d594	-0.039998606
92	0xbe150cc8	-0.14555657
93	0x3d2a6366	0.0415987
94	0x3db7f344	0.08981946
95	0xbbfb320a	-0.007665877
96	0xbd76ac2e	-0.060222797
97	0x3d4421f3	0.04788394
98	0x3d9526fe	0.07282828
99	0x3de8293b	0.11335989
100	0x3cbcc2fb	0.023042193
101	0xbd928420	-0.07154107
102	0x3dcad672	0.099041834
103	0xbdb4d683	-0.08829977
104	0x3c6c3c82	0.014418723
105	0xbb608588	-0.0034259278
106	0x3b3a72ac	0.0028449697
107	0x3e21e3a3	0.15809493
108	0xbc882c45	-0.016622672
109	0x3d64469f	0.055731412
110	0x3e718514	0.23585922
111	0xbda83a45	-0.08214239
112	0xbc442c1a	-0.011973405
113	0xbd4dfeff	-0.05029201
114	0x3e23e205	0.16004188
115	0x3b6cfa33	0.0036159873
116	0x3d416214	0.047212675
117	0xbd7dcf7b	-0.061965447
118	0xbd329802	-0.043601997
119	0x3d527d0e	0.051388793
120	0xbc859618	-0.016306922
121	0x3d0daa60	0.03458631
122	0xbe034a6e	-0.12821361
123	0xbd5730c6	-0.05253675
124	0x3c4c5214	0.012470741
125	0xbca7985f	-0.020458398
126	0xbccfb087	-0.02535273
127	0xbddcc888	-0.10780436
128	0xbbecab48	-0.0072225668
129	0xbce22b23	-0.02760846
130	0x3c6235c2	0.013806762
131	0x3d9e8155	0.07739512
132	0xbcc34607	-0.023837103
133	0xbe37e418	-0.17958105
134	0x3d9cf022	0.07662989
135	0xbc3f0158	-0.011658035
136	0x3ae611bf	0.0017552896
137	0x3dde1afe	0.10844992
138	0xbd901284	-0.070347816
139	0x3e237a97	0.15964733
140	0xbda97d32	-0.08275832
141	0x3c521a58	0.012823664
142	0xbd48c5c4	-0.04901673
143	0xbd5e65b6	-0.054296218
144	0xbdfbd4f8	-0.1229648
145	0x3d70bf9a	0.058776475
146	0x3ca226bb	0.019793859
147	0x3d796b74	0.06089349
148	0xbe1c2254	-0.1524747
149	0x3dc6d2fb	0.0970821
150	0x3d8d9464	0.06913069
151	0xbceff08e	-0.02928951
152	0xbdad0c93	-0.08449664
153	0xbd54de5a	-0.051969863
154	0x3d56d0e0	0.052445292
155	0x3d72fb47	0.059321668
156	0xbd4bef98	-0.04978904
157	0xbd10f37a	-0.035388447
158	0xbe0604aa	-0.13087717
159	0x3c7bbc14	0.015364666
160	0x3b95b9ec	0.0045692828
161	0x3d2555c3	0.040364992
162	0xbc00ba01	-0.007856847
163	0xbdd4c034	-0.10388222
164	0x3c370662	0.011170955
165	0xbd3a489f	-0.045479413
166	0x3d1671cf	0.03672963
167	0xbcbb42e8	-0.022859052
168	0xbc84e798	-0.016223714
169	0x3dd40717	0.10352915
170	0x3ddb9cf0	0.10723293
171	0xbd2a6fd6	-0.04161056
172	0xbd8768c6	-0.06611781
173	0x3c1410f1	0.009037242
174	0xbd9b6e8c	-0.075894445
175	0x3bd42d2b	0.006475111
176	0x3c8bd625	0.017069886
177	0xbe30f3de	-0.17280528
178	0x3daabac8	0.08336407
179	0x3e3af317	0.18256794
180	0xbd85efb7	-0.065398626
181	0x3cd1957b	0.025583973
182	0x3da19c28	0.078911126
183	0xbdbd0923	-0.09230258
184	0x3ccdddc2	0.025130156
185	0x3d9b1e34	0.0757412
186	0xbd8e2ad0	-0.069417596
187	0xbd972afe	-0.07381247
188	0xbdad215b	-0.08453628
189	0x3d010a28	0.031503826
190	0xbda8bd1d	-0.082391955
191	0xbe66c5bb	-0.22536366
192	0x3d8d0f85	0.06887726
193	0xbd035da5	-0.03207173
194	0x3e15b042	0.14618018
195	0x3d6fe4e4	0.058567896
196	0x3d845dac	0.06463179
197	0x3dea1264	0.11429289
198	0x3e4e0b2f	0.20121454
199	0xbd3a28f0	-0.045449197
200	0xbdb20fb6	-0.08694403
201	0x3d0aefb4	0.033920005
202	0x3c056290	0.008141175
203	0x3dac0dc2	0.084010616
204	0x3d06b102	0.03288365
205	0x3daff63f	0.085918896
206	0x3d9c6109	0.076356955
207	0xbd22a08e	-0.039703898
208	0x3d345580	0.04402685
209	0xbdf66b8f	-0.12032234
210	0x3dd20bf6	0.102561876
211	0xbc450cdf	-0.0120269945
212	0x3d0ea932	0.034829326
213	0x3cd253c7	0.025674714
214	0xbd9e869d	-0.07740519
215	0xbd836a1c	-0.06416723
216	0xbca1e949	-0.01976456
217	0xbd91b57d	-0.07114694
218	0xbc10bc31	-0.008833931
219	0xbd2d9f94	-0.042388514
220	0xbdfd3b26	-0.12364797
221	0xbe216386	-0.15760621
222	0xbd25dc36	-0.040493213
223	0xbbf85b3b	-0.007579235
224	0xbd90b862	-0.07066418
225	0xbce3b0a0	-0.027794182
226	0x3bfe9f2b	0.007770439
227	0x3d2a1575	0.04152437
228	0x3d51dd43	0.051236402
229	0x3dc55508	0.09635359
230	0x3d562d63	0.052289378
231	0x3e173909	0.14767851
232	0x3dab4842	0.083633915
233	0x3c51a258	0.012795053
234	0xbd4c83fa	-0.04993055
235	0xbccbc9ea	-0.024876554
236	0x3e03fa7a	0.12888518
237	0x3dcb42f7	0.09924882
238	0xbdceef6b	-0.10104259
239	0x3d64c70c	0.05585389
240	0xbdf55543	-0.11979153
241	0xbd99fb12	-0.07518591
242	0xbc69aa62	-0.014261814
243	0x3da83802	0.08213808
244	0x3cbdfd4e	0.023192074
245	0x3d9ee5ec	0.07758698
246	0x3bccf5fa	0.0062549086
247	0xbd212df2	-0.039350457
248	0xbdb3de24	-0.08782604
249	0x3d3d7cc2	0.046261556
250	0x3dc552f8	0.09634966
251	0xbdffa424	-0.12482479
252	0xbdf52d67	-0.119715504
253	0xbe092bbc	-0.1339559
254	0xbcb07548	-0.021540299
255	0xbb4c0d00	-0.0031135678

model.4.main.4.weight f4 [32]
0	0x3f800000	1.0
1	0x3f800000	1.0
2	0x3f800000	1.0
3	0x3f800000	1.0
4	0x3f800000	1.0
5	0x3f800000	1.0
6	0x3f800000	1.0
7	0x3f800000	1.0
8	0x3f800000	1.0
9	0x3f800000	1.0
10	0x3f800000	1.0
11	0x3f800000	1.0
12	0x3f800000	1.0
13	0x3f800000	1.0
14	0x3f800000	1.0
15	0x3f800000	1.0
16	0x3f800000	1.0
17	0x3f800000	1.0
18	0x3f800000	1.0
19	0x3f800000	1.0
20	0x3f800000	1.0
21	0x3f800000	1.0
22	0x3f800000	1.0
23	0x3f800000	1.0
24	0x3f800000	1.0
25	0x3f800000	1.0
26	0x3f800000	1.0
27	0x3f800000	1.0
28	0x3f800000	1.0
29	0x3f800000	1.0
30	0x3f800000	1.0
31	0x3f800000	1.0

model.4.main.4.bias f4 [32]
0	0x00000000	0.0
1	0x00000000	0.0
2	0x00000000	0.0
3	0x00000000	0.0
4	0x00000000	0.0
5	0x00000000	0.0
6	0x00000000	0.0
7	0x00000000	0.0
8	0x00000000	0.0
9	0x00000000	0.0
10	0x00000000	0.0
11	0x00000000	0.0
12	0x00000000	0.0
13	0x00000000	0.0
14	0x00000000	0.0
15	0x00000000	0.0
16	0x00000000	0.0
17	0x00000000	0.0
18	0x00000000	0.0
19	0x00000000	0.0
20	0x00000000	0.0
21	0x00000000	0.0
22	0x00000000	0.0
23	0x00000000	0.0
24	0x00000000	0.0
25	0x00000000	0.0
26	0x00000000	0.0
27	0x00000000	0.0
28	0x00000000	0.0
29	0x00000000	0.0
30	0x00000000	0.0
31	0x00000000	0.0

model.4.main.4.gate f4 [32]
0	0x3f800000	1.0
1	0x3f800000	1.0
2	0x3f800000	1.0
3	0x3f800000	1.0
4	0x3f800000	1.0
5	0x3f800000	1.0
6	0x3f800000	1.0
7	0x3f800000	1.0
8	0x3f800000	1.0
9	0x3f800000	1.0
10	0x3f800000	1.0
11	0x3f800000	1.0
12	0x3f800000	1.0
13	0x3f800000	1.0
14	0x3f800000	1.0
15	0x3f800000	1.0
16	0x3f800000	1.0
17	0x3f800000	1.0
18	0x3f800000	1.0
19	0x3f800000	1.0
20	0x3f800000	1.0
21	0x3f800000	1.0
22	0x3f800000	1.0
23	0x3f800000	1.0
24	0x3f800000	1.0
25	0x3f800000	1.0
26	0x3f800000	1.0
27	0x3f800000	1.0
28	0x3f800000	1.0
29	0x3f800000	1.0
30	0x3f800000	1.0
31	0x3f800000	1.0

model.4.main.4.running_mean f4 [32]
0	0x00000000	0.0
1	0x00000000	0.0
2	0x00000000	0.0
3	0x00000000	0.0
4	0x00000000	0.0
5	0x00000000	0.0
6	0x00000000	0.0
7	0x00000000	0.0
8	0x00000000	0.0
9	0x00000000	0.0
10	0x00000000	0.0
11	0x00000000	0.0
12	0x00000000	0.0
13	0x00000000	0.0
14	0x00000000	0.0
15	0x00000000	0.0
16	0x00000000	0.0
17	0x00000000	0.0
18	0x00000000	0.0
19	0x00000000	0.0
20	0x00000000	0.0
21	0x00000000	0.0
22	0x00000000	0.0
23	0x00000000	0.0
24	0x00000000	0.0
25	0x00000000	0.0
26	0x00000000	0.0
27	0x00000000	0.0
28	0x00000000	0.0
29	0x00000000	0.0
30	0x00000000	0.0
31	0x00000000	0.0

model.4.main.4.running_var f4 [32]
0	0x3f800000	1.0
1	0x3f800000	1.0
2	0x3f800000	1.0
3	0x3f800000	1.0
4	0x3f800000	1.0
5	0x3f800000	1.0
6	0x3f800000	1.0
7	0x3f800000	1.0
8	0x3f800000	1.0
9	0x3f800000	1.0
10	0x3f800000	1.0
11	0x3f800000	1.0
12	0x3f800000	1.0
13	0x3f800000	1.0
14	0x3f800000	1.0
15	0x3f800000	1.0
16	0x3f800000	1.0
17	0x3f800000	1.0
18	0x3f800000	1.0
19	0x3f800000	1.0
20	0x3f800000	1.0
21	0x3f800000	1.0
22	0x3f800000	1.0
23	0x3f800000	1.0
24	0x3f800000	1.0
25	0x3f800000	1.0
26	0x3f800000	1.0
27	0x3f800000	1.0
28	0x3f800000	1.0
29	0x3f800000	1.0
30	0x3f800000	1.0
31	0x3f800000	1.0
