checkpoint/clf/experiment_name_lr1/1000/netS.pth (torch, 828110 bytes, 10 tensors)

conv.0.bias f4 [64]
00000000: 0000 0000 0000 0000 0000 0000 0000 0000
00000010: 0000 0000 0000 0000 0000 0000 0000 0000
00000020: 0000 0000 0000 0000 0000 0000 0000 0000
00000030: 0000 0000 0000 0000 0000 0000 0000 0000
00000040: 0000 0000 0000 0000 0000 0000 0000 0000
00000050: 0000 0000 0000 0000 0000 0000 0000 0000
00000060: 0000 0000 0000 0000 0000 0000 0000 0000
00000070: 0000 0000 0000 0000 0000 0000 0000 0000
00000080: 0000 0000 0000 0000 0000 0000 0000 0000
00000090: 0000 0000 0000 0000 0000 0000 0000 0000
000000a0: 0000 0000 0000 0000 0000 0000 0000 0000
000000b0: 0000 0000 0000 0000 0000 0000 0000 0000
000000c0: 0000 0000 0000 0000 0000 0000 0000 0000
000000d0: 0000 0000 0000 0000 0000 0000 0000 0000
000000e0: 0000 0000 0000 0000 0000 0000 0000 0000
000000f0: 0000 0000 0000 0000 0000 0000 0000 0000
0.0 0.0 0.0 0.0 0.0 0.0 0.0 0.0
0.0 0.0 0.0 0.0 0.0 0.0 0.0 0.0
0.0 0.0 0.0 0.0 0.0 0.0 0.0 0.0
0.0 0.0 0.0 0.0 0.0 0.0 0.0 0.0
0.0 0.0 0.0 0.0 0.0 0.0 0.0 0.0
0.0 0.0 0.0 0.0 0.0 0.0 0.0 0.0
0.0 0.0 0.0 0.0 0.0 0.0 0.0 0.0
0.0 0.0 0.0 0.0 0.0 0.0 0.0 0.0

conv.0.weight_orig f4 [64, 64, 3, 3]
00000000: cbf2 333d 1b84 89bc f78a a8bc 98c2 b4bd
00000010: 6dfb a0bd a16f 7bbb 4328 7bbd 1826 063d
00000020: f1db edbc 1e91 273d 0b46 ba3d efc2 a1bb
00000030: e9ff fd3d a4b0 f1bc 15ff 88bd cb0a 86bc
00000040: 3618 6fbc 79a3 563c c99e cc3c eff5 293e
00000050: 61c3 d43c e716 db3d 46a5 69bc 5693 bc3d
00000060: 3878 15bd f011 a63d 76b4 a4bd b052 bbbd
00000070: 5776 64bd 9346 6d3b a39e 783d d25d aebd
00000080: dd53 4cbc b3d5 0c3d 2b7c e23c 8757 14bc
00000090: 2b7d e03c 3ad5 45bc e2fb 1e3d 2288 dcbc
000000a0: e717 583d c9ee 973d e021 c13c 524a a23d
000000b0: 3c0d 1c3d 83f2 483d f10f b63d d5bd a4bc
000000c0: f0a2 8a3c 6bf4 8b3d 727e 4f3d 9a94 06bc
000000d0: de9b 5d3d 0123 113e 1914 3abd 4510 0cbc
000000e0: 527f 96bc d0a5 b23c 0eae ed3d 1152 e6bd
000000f0: c13a 0f3c a2a5 a2bc 845f cb3d b6e0 d43d
00000100: 1ee3 303d e264 ed3d 8a97 94bd 349d c93d
00000110: 181c 04bd 218c 1abc d9c2 bbbb c59c 113d
00000120: c582 583d e75d fd3c 44f8 39bd b265 d13d
00000130: ba61 dc3c 7714 5b3d caa6 35bd 6a8b 6e3d
00000140: 769a 283b d70d 163d b0b0 d8bd 1a96 153c
00000150: 2992 cebd d024 793d 4da7 08bc af8a 2dbd
00000160: d141 89bc 3c45 3e3d d262 1d3b 8379 803d
00000170: a918 b6bd 4f80 7d3d 62ed 473c 337d 353c
00000180: 5ee3 a3bc a032 febc c0a4 6a3d c0d6 ff3d
00000190: 8c87 69bc 0c5e 82bc 6802 a63c 6db1 cabd
000001a0: 2ef4 b43d c780 aabc 70e4 ae3b 1ba1 a8bc
000001b0: 7c0e 8ebd 7729 16bd 5fae 7bba e79a db3c
000001c0: 7787 b93c b9cb 56bd 75d4 5d3d 86f1 f13b
000001d0: f8d9 563c 779b 42bd b958 963c 9231 04be
000001e0: 2fef c2bb 1c5a 8b3d 1e90 df3b 43a0 b43c
000001f0: 5e4d 39bd d4ce 803d fd1e 0e3e 33ae 2d3d
00000200: a160 15bd 9b63 6cbc 9ecf d0bd f566 bcbd
00000210: fcf8 d9bc e856 31bd 8e0f 2c3c 16f1 08bd
00000220: 0880 183d 1491 eb3d aa7f 93bc 30f7 4b3d
00000230: 20d0 b2bd c5b8 7a3c 2803 6e3c 3802 c73b
00000240: 0398 573d 71ef cdbc 288c a73d af47 10bc
00000250: 3f02 b73c 927c 16bd 3dca f03b c979 45bc
00000260: e08d 523d 1b9f 333d 5b68 c13c 39c3 59bc
00000270: e074 be3d e24e d3bd 9945 30bd f34a 6b3d
00000280: 0eb5 f33c d5ee d5bd 8bc1 5ebb 25a2 6c3d
00000290: bec6 933b 8856 e43d 92bc 313b 3fdf d8bd
000002a0: 67e6 12be d398 1e3d c6a1 26bd 8e21 1abe
000002b0: 04f4 5cbb 4415 6c3d 325e 04bd 9092 4fbe
000002c0: ea9f dbbc f00b 843d c4c6 5dbb 45b8 c13c
000002d0: 7273 c4bc 69ab c0bb 432a 703d 3aa8 3b3d
000002e0: 1d1f 77bd 8adf bcbd 11eb b8bd 1961 023d
000002f0: d3a9 3b3d f941 61bd ca27 943b 6c65 c73c
00000300: efbe 6f3d e70f 09bc 7b76 ae3c 2168 243d
00000310: c81e 453d 7c39 11bd 258a 28bd f3a4 973d
00000320: 818b 103d fa4d 863d 7075 d93c a2a1 f63c
00000330: c98f 1d3d 7c9d a5bc 60ad 493d e718 81bd
00000340: 8cf7 ad3c df73 0bbe 6940 503d 6614 a03d
00000350: 57be 443c b021 23be 647f 4abd b74c bc3c
00000360: 8f75 aebd 1968 483b 2458 613b f874 253d
00000370: 2123 22bd 4ab2 be3c c433 e43c 5a4f 293d
00000380: 05e2 acbc a163 9cbd d77e d63a 4f77 c03c
00000390: 8ba7 a93b a94a a7bd b74c 33bd b4c9 6cbd
000003a0: 5062 7c3d 3fc5 85bc e1a0 9e3d 46ed 93bc
000003b0: b7b3 f33c 694a 353d d296 47bc ca15 edbc
000003c0: 5551 67bd 3cf2 213e 135f babd b246 edbd
000003d0: e122 cdbc 530d 30bc 50af 1cbc 4205 aa3c
000003e0: 8dc0 093d f447 56bd 99b2 f7bd bce9 1a3c
000003f0: 62d7 05bd 1a18 423c b4bf 6fbc 6a86 753c
0.043932717 -0.016786626 -0.020574076 -0.08826178 -0.07860456 -0.0038366097 -0.061317693 0.032751173
-0.02903554 0.04090988 0.09095391 -0.004936568 0.124023266 -0.029503174 -0.06689278 -0.016362568
-0.014593175 0.013100498 0.024978058 0.16597722 0.02597207 0.10697728 -0.014260596 0.092077896
-0.036491603 0.0810889 -0.08042233 -0.09146631 -0.05577692 0.0036205396 0.060698163 -0.085139886
-0.012471166 0.034383487 0.027647099 -0.009054071 0.027403435 -0.012074763 0.038814433 -0.026920382
0.05275717 0.074185915 0.023575723 0.07924332 0.03809856 0.049059402 0.08889759 -0.02011005
0.016923398 0.068337284 0.050657697 -0.00821414 0.054103725 0.14173509 -0.045429323 -0.008548801
-0.018371258 0.021807581 0.11605464 -0.11246122 0.008742035 -0.01985437 0.099303275 0.10394423
0.043185346 0.115915075 -0.07255466 0.09844437 -0.032253355 -0.009432823 -0.0057300148 0.035549898
0.052859087 0.030928565 -0.04540278 0.10224475 0.026902068 0.053486314 -0.044348516 0.058238424
0.0025726832 0.036634292 -0.105805755 0.009130025 -0.100864716 0.060826123 -0.008340669 -0.042368587
-0.016755017 0.046452746 0.00240152 0.062731765 -0.08891422 0.061889943 0.012202593 0.011077213
-0.020005878 -0.03103 0.057286024 0.12492132 -0.014253508 -0.015913986 0.02026482 -0.098971225
0.08835636 -0.020813359 0.0053372905 -0.020584634 -0.069363564 -0.036660638 -0.00096008735 0.026807262
0.022647602 -0.05244038 0.054157693 0.007383528 0.013113491 -0.047511544 0.018352853 -0.12909535
-0.005948923 0.068042964 0.0068226 0.022049075 -0.0452398 0.06289449 0.13879009 0.042402457
-0.036469106 -0.014428045 -0.1019585 -0.09199325 -0.026607983 -0.04329577 0.010501755 -0.033433042
0.037231475 0.11502281 -0.01800521 0.049796283 -0.08731103 0.015302842 0.01452712 0.0060732625
0.052635204 -0.025138589 0.081810296 -0.008806153 0.022339938 -0.036739893 0.0073483274 -0.012052962
0.051404834 0.043852907 0.02360933 -0.013291174 0.09299636 -0.1031778 -0.043035123 0.057444524
0.02974942 -0.10445944 -0.0033989872 0.05777182 0.004509776 0.11149317 0.0027120453 -0.10589456
-0.14345704 0.038719963 -0.040681623 -0.15051863 -0.003371478 0.057637468 -0.032316394 -0.20270753
-0.026809651 0.064475894 -0.0033840397 0.023647437 -0.02398083 -0.0058798087 0.058634054 0.04581473
-0.060332406 -0.09222324 -0.0902921 0.03183088 0.045816254 -0.054994557 0.004521345 0.024340354
0.058531698 -0.008365608 0.02129673 0.040138368 0.04812506 -0.035455212 -0.04114737 0.074045084
0.03528929 0.065578416 0.026545256 0.03010637 0.038467202 -0.020216696 0.04923761 -0.06303578
0.021236204 -0.1361842 0.050842676 0.07816391 0.012008271 -0.1593082 -0.049437895 0.0229858
-0.08518516 0.0030579625 0.0034384811 0.040394753 -0.039584283 0.023278374 0.027856715 0.04133544
-0.021103868 -0.0763619 0.0016364706 0.02349439 0.0051774434 -0.08168537 -0.043774333 -0.057809547
0.061617196 -0.016329406 0.07745529 -0.018057477 0.02974878 0.044260416 -0.012181954 -0.028941054
-0.05647405 0.15815061 -0.09100165 -0.1158575 -0.025041046 -0.010745364 -0.009563282 0.02075446
0.033630896 -0.052314714 -0.12094612 0.009455141 -0.03267611 0.011846567 -0.014633108 0.01498566

conv.0.weight_u f4 [64]
00000000: ee3e 163c a8c4 5c3e 8feb acbd 06a6 173c
00000010: db93 0ebe 267b ba3d 0362 a63d 9cc1 15bd
00000020: 9e62 f63c 1b65 ee3d 80cb 9b3c 523b a8bd
00000030: 12c9 ba3d 0ec3 753e 7054 b93c 2e1b af3d
00000040: a2d3 103e 2a1c 52be dc27 39bd 616b d3bb
00000050: 3f0f 02bd ea21 93be 0957 0d3c 6f8e 153d
00000060: a62e 6e3d b7db 74bd 0638 bbbd 4c4e 40bd
00000070: 7b04 5f3d 5d2a 03be 7358 25be e29a 8f3d
00000080: 9e89 9f3d f5f9 0abd 6af3 ee3d 669e 183e
00000090: 8a08 97bb 18e5 133e a150 0b3e 7f66 8bbd
000000a0: 9fd3 a93d da63 48be 51f9 cabd 431e 82be
000000b0: ef43 9abe 9ca9 b3bd 3808 52bd 0456 433d
000000c0: 3451 413e 37a9 df3d 1be6 a03e 75d1 763e
000000d0: 2c71 0fbd 02b9 bbbc 19de bbbd 94f5 8dbc
000000e0: 7c10 05be f90e 16bd eba5 19be e7f5 cb3d
000000f0: 45c7 ee3d da55 2abd c61d 863d 1523 623d
0.009170277 0.21559393 -0.08443367 0.009255892 -0.1392359 0.0910552 0.08124163 -0.036561593
0.030076321 0.11640378 0.019017935 -0.082144395 0.09120382 0.24000189 0.02262327 0.08550106
0.14143232 -0.20518556 -0.04520403 -0.0064520095 -0.03175282 -0.28736812 0.008626708 0.03651279
0.058149956 -0.05977985 -0.09141545 -0.04694967 0.054447632 -0.12809129 -0.16147022 0.070119634
0.0778992 -0.033929784 0.11667521 0.14904174 -0.004609172 0.14442861 0.13604976 -0.06806659
0.08292317 -0.1956934 -0.099108346 -0.25413713 -0.30129954 -0.08772585 -0.05127737 0.047689453
0.18878633 0.10920947 0.31425557 0.24103339 -0.03502004 -0.022915367 -0.09173221 -0.017329015
-0.1299457 -0.036635373 -0.15004699 0.099590115 0.116591014 -0.04158578 0.065486476 0.055209238

conv.0.weight_v f4 [576]
00000000: 0499 f7bb 4a23 dbbc 41f1 9abb e3b6 44bc
00000010: a19b 80bc 35df aa3d 3be1 b33d 9bf4 3a3c
00000020: 2c1b 4fbd deef 5cbc b3fd 473d 8bc7 da3d
00000030: 395c 55bb 076f 813d 938c e83c 0010 653c
00000040: 33ac c2ba 6b73 5abc dd14 943c dab3 64bd
00000050: ab97 9d3c 740f bdbc 3f95 34bd 7d66 853d
00000060: 007e a03b 4ed4 77bc 2e01 a53d d648 563d
00000070: ce2e 173c 7322 a6b9 58d8 4c3d 548a 5d3d
00000080: 68e2 6d3c 4c0d ffbc 85e0 cbbd b46b 6dbd
00000090: 48f4 50bd 63ff 2ebd 7106 283d b33d 98bd
000000a0: 575b a7bc 35a1 9b3c a68f 71bd 0a3a 16bd
000000b0: 8fd2 1dbd fe7b c63b af35 e13b 4bf8 aa3d
000000c0: f9c0 dcbc 81f3 b73c 856f 7d3d 2755 febc
000000d0: 3fe6 c93c 1d43 1e3c 1140 aabb 800c be3b
000000e0: e626 2b3d 5bbc 823c 5562 723b c75f f73c
000000f0: 0d8b c13c 0a98 ab3c 042e c03c c7d0 1f3c
00000100: 4bcf 463d 984f 5d3b 4217 00bd 2cee 1bbd
00000110: 1f7f db3c 47c3 48bd ee87 1f3d b3d8 18bd
00000120: 99ae 223d bb0c 8abc 52da dfba 2c2c e0bc
00000130: 3f4a 323c 3ec7 5d3c f12c b93b c637 e53c
00000140: fa70 793d 8df0 0cbd f955 b5bc 5c5d 0fbd
00000150: c3f1 513d 88e2 d8bc 8a4a 64bd 71d7 eabc
00000160: 1a74 393d d99d 003d b16b 1ebd 5256 543d
00000170: 8abe b03c b48d 6fbd c89c 17bd 1500 d43c
00000180: eae9 08bd 705f 91bb 4cac b33c ac15 993c
00000190: e8e8 773b 15b2 0dbb c797 6a3d a934 9abc
000001a0: 609b 9e3d c0f6 97bd 635a 38bc 85a0 393d
000001b0: 41b5 b83c 4b8a 053d 14fb ad3c fece 26bc
000001c0: b61e e2bc 1bfc 033b f304 243d f754 e83c
000001d0: 524e 283d d59d d13a 8369 d93c 29fe 243d
000001e0: 70ac 89bd ad38 9c3b 6d6d c93b 44fd 163d
000001f0: 1ad0 fc3c e662 03bd 7ea6 0e3d 3752 c03a
00000200: f13d 033c 9895 38bd 8cdd 12bd de6b fe3c
00000210: 18ff d6bc efc3 b6bd 073e 243d cb00 13bb
00000220: 554c 613d 6c58 7e3d 9090 ca3b c82a e638
00000230: c099 393c 914e 73bc 385f 3ebc fd9c 2cbd
00000240: 0574 873d 700b 953c e260 5a3c fa50 7c3b
00000250: 2a01 bbbc 80ca 32bc f3b3 ae3b 2eef 4dbd
00000260: d7eb 84bc b2a3 753d 9a17 163d c4b4 f63b
00000270: 8194 c9bc 3685 ebbc 553d 453c 6daa 85bc
00000280: a908 2abb 1d47 253c 3076 51bb 2980 4ebd
00000290: 35ae b23d 6842 2b3d cd14 4ebc b30b 62bd
000002a0: 5acd 633d 0637 69bd 5bd0 2d3d 7405 27bd
000002b0: 471d c7bc 0aec 32bd 40bf babb 51bb d13c
000002c0: 8505 9abd cf9e 66bd 07fa d5bc ee9a 0d3d
000002d0: 8aa9 623b f183 bbbc edb1 49bc fa2f 803d
000002e0: a5b5 c3bc 2e38 6abb e617 b0bc 083f 54ba
000002f0: 2c58 0bbd 47b4 4d3d 66bb 973d 3021 133d
00000300: 0223 063d da96 25bc 2aa5 883d 034d 69bd
00000310: 1a50 8abd fa66 303d 5c7a f2bb cb4b 2e3c
00000320: 5299 d2bc d77c 0ebd 1ae2 833c da58 b93c
00000330: dd3b 0a3c f681 07bd 523a b7bb 8587 a13c
00000340: 455a 533d 4193 13bb a702 143d 6c37 84bd
00000350: 9082 0bbd 9d32 96bc e522 2f3d 8548 98bc
00000360: c70b 5a3c 40c9 9c3d 6aa3 663b b50f ee3c
00000370: c9ad bebc adc1 1cbd b6c8 80bc a343 a93d
00000380: 53a9 19bd cfa2 29bd 117f ac3d 1a3a 573c
00000390: efec 1cbc b327 263d 7247 56bc 44fc 983a
000003a0: c472 923d 8156 0d3d e9db c73c 108a 06bd
000003b0: 7cc7 5f3d 6f8d f33c f2bc 14bd 507d d03c
000003c0: 0469 c43b 2e49 4fbc f89a 113c b099 703c
000003d0: 151a 993c f399 03bd b5b8 f6bc 2af1 083c
000003e0: 4251 bc3a 1b6b 9a3b 2fff 643c f9f9 93bd
000003f0: 16b2 963d fad8 253d d6f9 163d e836 a03b
-0.0075560827 -0.026750226 -0.0047284667 -0.012006494 -0.01569921 0.083433546 0.08783194 0.011410858
-0.050563022 -0.013484923 0.04882593 0.10682591 -0.003255619 0.06320005 0.028387344 0.0139808655
-0.0014852345 -0.013333182 0.018076355 -0.055835582 0.01923736 -0.023078658 -0.044087645 0.06513689
0.004897833 -0.015126301 0.08056866 0.052315556 0.009227468 -0.00031687654 0.05001101 0.054086998
0.0145193115 -0.03113427 -0.09954933 -0.05796404 -0.051014215 -0.042724025 0.041021768 -0.07433643
-0.020429296 0.018997768 -0.058974884 -0.036676444 -0.038530882 0.0060572615 0.0068728547 0.083481394
-0.026947485 0.022454979 0.06187393 -0.031046463 0.024645923 0.009659556 -0.0051956256 0.00579983
0.041785143 0.015958956 0.003698488 0.030197037 0.023625875 0.020946521 0.023459442 0.009754366
0.048537534 0.0033769365 -0.03127218 -0.038068935 0.026794014 -0.049014356 0.038947992 -0.037316035
0.03971729 -0.016851773 -0.0017078614 -0.027364813 0.010881959 0.013536273 0.0056511094 0.027980696
0.06089876 -0.034409095 -0.022135722 -0.035001144 0.051255953 -0.026475206 -0.05573515 -0.028667184
0.04527674 0.031400535 -0.03867692 0.051840134 0.021575231 -0.058484748 -0.037014753 0.025878945
-0.033426203 -0.004436426 0.021932743 0.018687092 0.0037828032 -0.0021621038 0.057273652 -0.018823938
0.07744479 -0.07420111 -0.011252019 0.0453191 0.022547366 0.03260259 0.021237887 -0.010181187
-0.027602535 0.002013928 0.040043782 0.028360827 0.041090317 0.0015992472 0.02653957 0.04028145
-0.06722343 0.0047674985 0.006147078 0.036862627 0.03086095 -0.03207674 0.034826748 0.001467294
0.008010373 -0.04506454 -0.035855815 0.031057294 -0.026244685 -0.0892409 0.040098216 -0.0022430893
0.055004437 0.062096044 0.006181784 0.00010975223 0.011328161 -0.014850275 -0.011619382 -0.042141903
0.06613926 0.01819393 0.013328763 0.0038500414 -0.022827704 -0.010912538 0.00533151 -0.050276928
-0.016225738 0.059970565 0.036643602 0.007528873 -0.024606945 -0.028750043 0.0120385485 -0.016316617
-0.0025945103 0.0100877555 -0.0031961314 -0.05041519 0.087246336 0.041811377 -0.0125782015 -0.05518694
0.05561576 -0.05693724 0.04243503 -0.040776685 -0.024305953 -0.043682136 -0.0056990683 0.025602015
-0.07520584 -0.056303795 -0.026120199 0.03457158 0.0034585916 -0.022890063 -0.012310487 0.06259151
-0.023890326 -0.0035739052 -0.02149577 -0.00080965506 -0.034019634 0.050220754 0.0740879 0.035920322
0.03274823 -0.010106767 0.066721275 -0.05695821 -0.067535594 0.043066956 -0.0073998403 0.010638188
-0.025707874 -0.034787025 0.016099025 0.022625376 0.008437124 -0.033082925 -0.005591669 0.019717941
0.05159976 -0.002251819 0.036135342 -0.064558834 -0.03406006 -0.018334681 0.042757887 -0.018589268
0.013308472 0.07655573 0.0035192617 0.029060224 -0.023276227 -0.03827064 -0.015720706 0.08264854
-0.037514996 -0.041415032 0.084226735 0.013136411 -0.009577974 0.040565204 -0.013078557 0.0011671861
0.07150796 0.034506325 0.024396854 -0.03284651 0.054633602 0.029730527 -0.036313005 0.025450379
0.005993964 -0.012651725 0.008887045 0.014685079 0.018689195 -0.03212924 -0.030117372 0.008358279
0.0014367478 0.004712475 0.013976856 -0.07225413 0.07358186 0.040490128 0.036859356 0.004889358

conv.2.bias f4 [64]
00000000: 0000 0000 0000 0000 0000 0000 0000 0000
00000010: 0000 0000 0000 0000 0000 0000 0000 0000
00000020: 0000 0000 0000 0000 0000 0000 0000 0000
00000030: 0000 0000 0000 0000 0000 0000 0000 0000
00000040: 0000 0000 0000 0000 0000 0000 0000 0000
00000050: 0000 0000 0000 0000 0000 0000 0000 0000
00000060: 0000 0000 0000 0000 0000 0000 0000 0000
00000070: 0000 0000 0000 0000 0000 0000 0000 0000
00000080: 0000 0000 0000 0000 0000 0000 0000 0000
00000090: 0000 0000 0000 0000 0000 0000 0000 0000
000000a0: 0000 0000 0000 0000 0000 0000 0000 0000
000000b0: 0000 0000 0000 0000 0000 0000 0000 0000
000000c0: 0000 0000 0000 0000 0000 0000 0000 0000
000000d0: 0000 0000 0000 0000 0000 0000 0000 0000
000000e0: 0000 0000 0000 0000 0000 0000 0000 0000
000000f0: 0000 0000 0000 0000 0000 0000 0000 0000
0.0 0.0 0.0 0.0 0.0 0.0 0.0 0.0
0.0 0.0 0.0 0.0 0.0 0.0 0.0 0.0
0.0 0.0 0.0 0.0 0.0 0.0 0.0 0.0
0.0 0.0 0.0 0.0 0.0 0.0 0.0 0.0
0.0 0.0 0.0 0.0 0.0 0.0 0.0 0.0
0.0 0.0 0.0 0.0 0.0 0.0 0.0 0.0
0.0 0.0 0.0 0.0 0.0 0.0 0.0 0.0
0.0 0.0 0.0 0.0 0.0 0.0 0.0 0.0

conv.2.weight_orig f4 [64, 64, 3, 3]
00000000: ee81 f93a 4757 543d 548d 2bbd db7e cabd
00000010: 0c4c 23be bb3b 8f3c 15a3 523c 841f 9dbd
00000020: f0d0 293b c23f e2bc 2b14 adbc 4aab 25bc
00000030: ebd3 2a3d 837a 963c a4b7 eabc 9293 dd39
00000040: ffb2 01bd 6f5a c9bd 6352 04bd c74c d53c
00000050: 4f3f 5abd fba5 a0bc 9ac8 c6bc 2bd2 5a3d
00000060: a69d d7bd 6987 eabc e976 e23c c934 ebbc
00000070: 2fe8 893c e8b4 013d 3f16 843c 5d45 77bd
00000080: 07b0 a93c a16e 403d f319 763d 3ea3 9f3d
00000090: 3efb 863d c9b0 6f3d 89e9 403d 8a93 e23d
000000a0: f20d d4ba e764 8ebd e133 313d 6d39 59bc
000000b0: 54d2 7e3c d87a 0dbd 4e4f 88bd d550 8dbd
000000c0: eb48 ab3c 53f0 e53b aa5a f6bc 3c32 ed3b
000000d0: 27a9 d1bc 958d 0fbd 3402 013c c06e 69bd
000000e0: e28a 313c 17f7 a3bd 6a78 21bc 0703 bcbc
000000f0: edec 143c 75ef 27bd 26e5 5f3d c7b7 9bbd
00000100: fbd0 2dbc 84af b3bc d0c1 28bc 4df0 de3d
00000110: beb4 43bd fac5 8bbd b734 07bd 0e6a aa3d
00000120: e3ba 073d fa04 81bc b5b1 0fbd 33a4 8fbc
00000130: dc16 1f3c aa78 893c 93d8 8bbd 6001 38bc
00000140: 3f93 14bd f93d d8bc a33a 8ebc a004 c73c
00000150: 3405 313d 1f51 10bd d8c8 cfbc 13af 40bc
00000160: 14e8 dbbd bb2e 1dbd b472 2bbd e751 21bd
00000170: c67c 2ebd d36d d3bd f46f 053e d2a4 e53d
00000180: 766c f8bc d029 81bc 1c49 323d 4aa7 3c3c
00000190: ea0d ae3d 9df8 b3bb 3381 6b3d 22ba 7f3c
000001a0: dfb3 48bc 746d 873d 2018 863d 39ad 23bc
000001b0: d21f d33d ec46 bb3d ebdc e8bc ca89 d3bc
000001c0: 9b0a 193b db98 9dbd 211f cbbd c9da 17bc
000001d0: d5a5 f83b e5b8 84bd b3ac cb3c 4966 593d
000001e0: 0bd1 af3c a4a7 11bc dc92 3bbd 69c8 63bc
000001f0: 1c7c 76bd ecab 1cbd 1a28 f9bc 0bb8 0bbd
00000200: ab10 aa3c 8c1b c13d f8c5 033d ad66 6e3d
00000210: 0ef7 aa3c d222 963d 9001 9c3c 1b64 15bb
00000220: 5ee1 3bbe bb19 12bc 645b b63d a63c 00bd
00000230: 54e6 483d c60d 9bbd fcc0 fcbb 5a76 5abc
00000240: 3ea0 89bd c9aa cebc 0ff3 2a3d 4dd0 b13b
00000250: 3662 cb3b c6d3 4d3d 9c26 6ebd 799c b03d
00000260: 8ac0 cbbc fea4 df3c 8204 393d e269 b6bd
00000270: b82f 13bd 379d d53c 2aa3 1cbd 06b9 c33d
00000280: 24c0 98bc df06 f3bc 3f7f 1dbc 5ad7 643d
00000290: 0793 39bc 0372 983d af6b 57bd dc8d 16bd
000002a0: e8c2 de3c 4a72 3c3d 99f0 c93a 1245 053e
000002b0: cb1e 793d 570f 9ebb d2dc 41bd bbd6 c8bc
000002c0: c3d2 493c 4fd7 a63a 5220 e53d 3bdb 403d
000002d0: 7707 463d e40c 1a3d 9c50 c83d b4c8 aebd
000002e0: 8e12 d6bc 71fb bf3a 7825 76bd 6bb8 8cbd
000002f0: d2ef cdbd 0538 f23c 4628 c93c 49e1 17bd
00000300: f165 17be 2eb0 b9bc 5a94 b43d 831e 0a3d
00000310: c768 9a3d ea0d 17bd 6bd8 4fbc 97ba fbbd
00000320: 4499 a1bc 48d0 78bd ea4e 2cbd 0e13 763c
00000330: 9428 4dbd 1912 b93d 046f 7d3c d389 0dbd
00000340: cabf 8ebc b50e bdbc 16ef c83d f564 a839
00000350: 0ec6 2b3c 6f33 a2bd 5f16 55bc 9a61 573d
00000360: 91a5 9a3d ac83 a93c 8b45 b23c a745 38bd
00000370: b8f0 c63d 2c53 5ebc a665 adbc 1dff 5a3d
00000380: b445 04bc f285 c53c 944e e8ba b6a5 87bd
00000390: e14b 67bb 9a22 e4bb a436 263d ea35 10bd
000003a0: 287b 10bd 493b acbd 8ee9 07bb 70e7 f6bc
000003b0: 9728 833d 99d3 91bc 78e1 0e3e 6eb8 60bc
000003c0: de38 6d3c 7595 47bc 62ce 48bd 1c0a 913d
000003d0: 08c6 72bc 58f4 2fbd a391 91bc c6ab 3a3d
000003e0: b3ad 1f3e 23b4 853d 3513 873d 20ee 0dbe
000003f0: c566 043d 9aea 0d3d 94e3 a23d 53f0 b3bc
0.0019035914 0.051841047 -0.041882828 -0.09887477 -0.15946978 0.017484536 0.012856265 -0.07672027
0.002591189 -0.027618293 -0.02112778 -0.010111639 0.041706007 0.018368965 -0.02865202 0.00042262353
-0.031664845 -0.09831702 -0.032305133 0.026037587 -0.053283032 -0.019610396 -0.024265576 0.053423088
-0.10528116 -0.028629022 0.027644591 -0.028711693 0.016834347 0.031666666 0.016123889 -0.060368884
0.02071382 0.046980504 0.06008334 0.07794808 0.065908894 0.058518205 0.047097716 0.11063297
-0.0016178472 -0.06952839 0.043262366 -0.01325832 0.015553076 -0.03454098 -0.06655751 -0.06900183
0.020908793 0.0070171743 -0.030072529 0.0072386544 -0.025593353 -0.035047133 0.00787406 -0.056990385
0.010836335 -0.08006113 -0.009855369 -0.022950662 0.009089691 -0.04099985 0.054661892 -0.07603412
-0.010608907 -0.021934278 -0.010300115 0.108856775 -0.04777979 -0.068248704 -0.033009257 0.083210096
0.033137213 -0.015749443 -0.035081584 -0.017534351 0.00971004 0.01678117 -0.06828418 -0.011230797
-0.036273237 -0.026396738 -0.017361945 0.024294198 0.043217853 -0.035233613 -0.025364324 -0.011760491
-0.10737625 -0.038374644 -0.041857436 -0.03938475 -0.042599462 -0.10323682 0.13030988 0.112130776
-0.030325156 -0.015767008 0.043526754 0.011514494 0.08498748 -0.0054922835 0.05749626 0.015608342
-0.012249916 0.066126734 0.0654757 -0.00999003 0.103088036 0.09144387 -0.028425654 -0.025822539
0.0023352269 -0.076951705 -0.09918047 -0.009268471 0.007588128 -0.06480578 0.024862623 0.053076062
0.021461984 -0.008890066 -0.045794353 -0.013902762 -0.060176954 -0.038249895 -0.03041463 -0.034111064
0.020759901 0.09429082 0.03217122 0.058203388 0.020869758 0.0733086 0.019043714 -0.0022795263
-0.1834769 -0.008917267 0.0890415 -0.03130784 0.049047783 -0.075709864 -0.007713435 -0.013333881
-0.06720017 -0.025227921 0.041735705 0.0054264427 0.006206776 0.05025079 -0.05814229 0.08623595
-0.024872083 0.027300354 0.045170315 -0.08906914 -0.03593418 0.026075942 -0.038241543 0.09556775
-0.018646307 -0.029666362 -0.009612857 0.055869438 -0.011326558 0.07443621 -0.05259293 -0.03675638
0.027192548 0.046007432 0.0015406787 0.1301463 0.060820382 -0.004823606 -0.04732973 -0.024516454
0.012318316 0.0012728962 0.11187805 0.047084074 0.048346963 0.03760995 0.09781 -0.08534375
-0.026131894 0.0014647079 -0.060094327 -0.068711124 -0.10055508 0.029567728 0.024555337 -0.037080083
-0.14784981 -0.022667017 0.08817358 0.033720504 0.07539516 -0.036878504 -0.012685875 -0.122914486
-0.019726403 -0.060745507 -0.042067446 0.015019191 -0.050087526 0.09036655 0.015468363 -0.034555268
-0.017425437 -0.023078302 0.09811227 0.00032118676 0.010484232 -0.079199664 -0.013005822 0.052583314
0.075511105 0.020692669 0.021761676 -0.0449883 0.09713882 -0.013569634 -0.021166634 0.05346595
-0.008073259 0.024111722 -0.0017723613 -0.06623404 -0.003529303 -0.0069621326 0.040579453 -0.035207666
-0.0352737 -0.08409745 -0.0020738575 -0.030139655 0.06404226 -0.017801093 0.13953197 -0.013715846
0.01447889 -0.012181629 -0.049024947 0.07082006 -0.014817722 -0.042957634 -0.01776964 0.045573972
0.15593605 0.06528499 0.0659546 -0.13860369 0.03232457 0.03464756 0.07953563 -0.021965181

conv.2.weight_u f4 [64]
00000000: 0530 313d 9ab9 513d 76da 29ba 120d fabd
00000010: 0da3 193d aa65 98bd a64e d73d 7347 e6bd
00000020: 99de 073e 0d2f 6abc b637 ff3d a96a 72be
00000030: 4183 423d 9218 d1bd f2da 87bd cbcd 6c3e
00000040: 0eaa 4f3d 1ade 93bc 3ebf 9abd f9a6 a2bc
00000050: 7e9c 13be f6e0 eebd 53c0 7d3e 9298 b3bc
00000060: fab0 84bc 4bbf de3c 2195 23bb f933 e93d
00000070: 2161 b8bc a5a6 b13d 942d 8b3c 666e 5f3d
00000080: 74ba 133d 51f3 9ebd eff3 44be 7e76 c0bd
00000090: ccdf 16be 7033 083e de72 80be 18cb a3bd
000000a0: a137 9dbd f7f7 313e 7301 83bc 5cac d53c
000000b0: fe28 8b3e 30f5 c03d 96a0 393d ea00 8bbd
000000c0: 7196 11bd 52a2 623c 8aa6 983e 9529 393d
000000d0: ce1c 003d 87df 1b3e b4a5 e6bd 39a0 9fbd
000000e0: 6f2e dbbd 6619 22be 3c37 0fbe 6cb2 91be
000000f0: 74c7 f1bd b9f9 9e3d 4de3 5ebe cfa0 35be
0.043258686 0.051202394 -0.00064793916 -0.12209524 0.037509013 -0.07441266 0.10513048 -0.112440966
0.13268508 -0.014293444 0.12461798 -0.236735 0.047488455 -0.102097645 -0.066335574 0.23125379
0.050699286 -0.018050242 -0.07556008 -0.01985501 -0.14415166 -0.11664002 0.24780397 -0.021923337
-0.01619767 0.027190825 -0.0024960714 0.11386866 -0.022507252 0.08674363 0.016989507 0.054548644
0.036066487 -0.07761253 -0.19233678 -0.093976006 -0.14733809 0.13300872 -0.25087637 -0.079977214
-0.07676626 0.17379747 -0.015991902 0.026083164 0.27179712 0.09421766 0.045319162 -0.06787284
-0.035543863 0.0138326455 0.2981456 0.04520567 0.03127747 0.15221988 -0.11262074 -0.07794232
-0.10702216 -0.15830001 -0.13985914 -0.28456438 -0.11805621 0.077624746 -0.21766396 -0.17737125

conv.2.weight_v f4 [576]
00000000: 0679 5abd 704c b33d 26c8 aa3c cb2c d4bc
00000010: 93f1 593d 8e61 e9bc 47a0 633d 0a3a 4a3c
00000020: 65d8 4bbc f15d 033c f8cb 6f3c c7af b2bd
00000030: ea9c 43ba 149c 7bbd 9ee3 3d3d 431d bcbd
00000040: 2c83 2ebc 9a1f 6c3d 1e7e 17bd b5a6 b13c
00000050: 4f0e 21bd 949e fbbb 4b04 9fbd 4ba0 453c
00000060: 0350 d2bc 5a53 a83d 0d32 60bc 8c5a ae3c
00000070: 6748 4c3d 9a79 2a3c 0c9c 663d 42b3 8c3c
00000080: 8c21 07bc b293 32bd 9204 d83c 84f2 33bd
00000090: 1097 0d3c 51fc 38bd 7122 833c c55a bf3c
000000a0: 13d1 89bd 0d6f 8ebd 5850 c7bd 2a0f 383d
000000b0: c8a9 823c 8a6e 3f3d 294e 383d e1ae 06bd
000000c0: 206e 7a3c 0699 6ebd 132c 543c e902 9d3d
000000d0: 088a 33bd 6cb9 8abd 2a63 58bd d3a2 35bd
000000e0: 48f0 933c cdad 2a3c b42a f23b a1c6 0fba
000000f0: fd55 aa3c b228 8e3c 8d91 973d 3518 73bd
00000100: 3212 1e3d 465c 14bd 3fcf 89bc 7961 9f3c
00000110: 3cd1 efbc bc3b 07bc 3d3c 6bbc 58ca c83d
00000120: 5930 10bb 701d 20bd d0f6 26bc b890 08bd
00000130: cabb eebd 121b 2a3d ea5a 09ba 1280 053d
00000140: d1d2 0abc 8ead 273d 49f1 25bc a9e6 893c
00000150: 5f05 093d 4b5f 6f3d b2af a73c 0019 ae3c
00000160: 02f9 d5bc c816 13be c4f8 30bd 11fd 223c
00000170: 4cc4 37ba 1801 8e3d 41b3 d6bc 3d1e ab3d
00000180: 7625 0cbd bac4 fc3b 80df 413c cc81 8dbb
00000190: 8e45 6ebb 2f1c 743d edf5 313d 6090 89bd
000001a0: f219 cab7 dcc1 cc3d 6fa0 64bc c96d 133d
000001b0: 0a7e bfbc efcc 87bc d301 05bd 8046 f43c
000001c0: 533e ec3d 9d59 a53d 8ee5 253d 896e b0bc
000001d0: c87e db3b e41c 48bc e967 f3bd 3115 edbc
000001e0: b7de 73bc b41f a2bc 0f20 943c e563 9f3b
000001f0: f7e0 c73c c4c8 ad3c 18e4 0c3d b68d 32bb
00000200: a8a5 cb3c 6077 2b3d 8e43 75bd b1a7 cebd
00000210: f26d 8abd 5176 26bd 30cf c3bc 3e0e 9bbc
00000220: 923d bd3d 3de4 4ebd d481 6bbd 3f27 143d
00000230: dc7a d83d 8284 3a3c ef92 8c3d 7d89 873d
00000240: 0792 95bd a57a f93c 4428 e83c 7b8d 42bd
00000250: 2ab3 483d 77f3 8a3d c02a 9fbc 0e32 d1bc
00000260: a495 c13c 735b 86bc 7358 e63b f020 56bc
00000270: 5576 f93c b4c3 1c3d 2925 a23c f282 d5bd
00000280: bbee 183d 02ea e5bc 4899 b43b 0131 e53c
00000290: b86e 503c e537 853c 51f2 12bc c73f f43c
000002a0: 9e7a 373d 29bb 80bc 5c2c 6ebb 1d82 1bbd
000002b0: 225d 4cbd 0eed b83b e927 93bb 6aa9 ad3d
000002c0: 5358 633d 66c0 8ebc 58d3 a3bc 7618 b93c
000002d0: 1302 13bd 9b68 2bbc ae30 1abd d8cf 8fbc
000002e0: 64d4 1ebc 8a61 623d 8eee 463d 88be 34bd
000002f0: e8f3 3abc 365b cbbb 8de4 6abc 2591 4abd
00000300: 705a 353c 80f6 9b3c bca1 4b3d 6a0a 87bd
00000310: ffbb b43d 62dc d13c abd6 bfbc f064 e8bc
00000320: d339 b73c 02de 393d 418c cf3b c98c 9d3c
00000330: 9526 933c 301c 69bd ab6e dfbc cacf 893b
00000340: 3ab6 49bd 982d 3c3c ace2 b93c 6951 483b
00000350: db61 aebc cc69 e4bc 1140 0dbd 1b0e 83bd
00000360: 2182 15bd feca 973c 0050 403c ae67 f63c
00000370: 4c47 ad3c 520d a63a 39e9 1f3c b1d0 8dbc
00000380: f4c3 89bd c58e 023d e8c2 133b 1671 833c
00000390: 19b5 633d 179b c4bc 9d42 853c 3b33 923d
000003a0: fcdc c23c 6e27 a93c e874 1cbd 8e04 05bb
000003b0: 78ee 4ab9 a304 1d3d ecc3 f43c 0bba c739
000003c0: 0a12 ff3c 829e fe3b b7da 853c 00dc 3ebc
000003d0: 421d c73d 6236 2ebc 8b42 96bd 3db1 0abd
000003e0: dd54 8bbd c8b2 cdbd c010 30bb 1a6b 30bd
000003f0: 841b dd3d c3f2 853d 9eb8 8fbb 860b 9a3b
-0.053338073 0.08754814 0.020847391 -0.025900265 0.0532089 -0.0284889 0.055572774 0.012342939
-0.012441729 0.008018003 0.014636032 -0.08724933 -0.00074620417 -0.061428145 0.04635965 -0.09185269
-0.010651391 0.057647325 -0.03698551 0.021685937 -0.039320286 -0.007678816 -0.07764491 0.012062143
-0.025672918 0.08219023 -0.013683808 0.02128341 0.049873736 0.010404969 0.05630116 0.01717532
-0.008247744 -0.043597884 0.026369367 -0.043932453 0.008641973 -0.045162503 0.016007634 0.023358712
-0.06729331 -0.06954775 -0.09732121 0.044936337 0.015950099 0.046736278 0.044996414 -0.03288162
0.015285045 -0.058251403 0.012949961 0.07666571 -0.04383281 -0.06773648 -0.052828945 -0.044344734
0.018058911 0.010417414 0.0073903445 -0.0005484615 0.020792956 0.01735339 0.074008085 -0.059349257
0.03859157 -0.03622081 -0.016822455 0.019455658 -0.029274575 -0.008253988 -0.014357624 0.09804219
-0.0022001474 -0.039090574 -0.010190681 -0.03334114 -0.11656912 0.041529723 -0.00052396825 0.03259284
-0.008473114 0.040937 -0.010128328 0.01683362 0.033452388 0.058440488 0.02046952 0.021252155
-0.026119713 -0.14364159 -0.04320599 0.009948031 -0.00070101465 0.06933802 -0.026208522 0.08355377
-0.034215413 0.0077138813 0.011833072 -0.0043184515 -0.0036357376 0.05959719 0.043447424 -0.067169905
-2.4092358e-05 0.09997913 -0.013954266 0.03599337 -0.02337553 -0.016577212 -0.032472443 0.029818773
0.11535325 0.08073733 0.040502124 -0.021537082 0.006698463 -0.012213919 -0.11885054 -0.028940769
-0.014884642 -0.019790508 0.018081693 0.0048642033 0.024399264 0.021213897 0.034397215 -0.002724511
0.024859264 0.04186189 -0.05987888 -0.10090578 -0.06759252 -0.04064018 -0.023902506 -0.01892769
0.09240259 -0.050510634 -0.05749686 0.03617024 0.105703086 0.011384131 0.06863963 0.06618021
-0.07303243 0.03045399 0.028339513 -0.047498208 0.04899899 0.067847185 -0.019429564 -0.025536563
0.023630925 -0.016401028 0.007029587 -0.013069376 0.030451933 0.038272575 0.01979311 -0.104253665
0.037337046 -0.028065685 0.0055114366 0.027977468 0.01272171 0.016262004 -0.008968906 0.029815568
0.04479467 -0.015714245 -0.0036342358 -0.037965883 -0.049893506 0.0056434935 -0.0044908416 0.08479579
0.055504154 -0.017425727 -0.019998237 0.022594672 -0.03589065 -0.010461952 -0.03764408 -0.017555162
-0.009694193 0.0552688 0.048567347 -0.044127017 -0.011410691 -0.0062059416 -0.014336717 -0.049454827
0.011068925 0.019038439 0.04971479 -0.06593783 0.0882492 0.025617782 -0.023417791 -0.028368443
0.02236644 0.04537774 0.0063338582 0.01923217 0.017962733 -0.056911647 -0.02727445 0.0042056786
-0.04924605 0.01148548 0.022691093 0.0030566102 -0.021286895 -0.02788248 -0.034484927 -0.06399175
-0.036501054 0.018529411 0.0117378235 0.030078735 0.021152161 0.0012668765 0.009760194 -0.017311426
-0.06726828 0.031874437 0.0022546593 0.016045135 0.05559263 -0.023999734 0.016267115 0.07138678
0.023787014 0.020648684 -0.038197428 -0.0020296904 -0.00019353058 0.0383345 0.02987858 0.0003809485
0.031136531 0.0077703604 0.016339643 -0.011649132 0.09722377 -0.010633083 -0.07336911 -0.033860434
-0.06803296 -0.100438654 -0.0026865453 -0.04307089 0.10796264 0.06540444 -0.0043860218 0.0047010807

w.M2MM f4 [1, 64, 32, 32]
00000000: 0000 803f 0000 803f 0000 803f 0000 803f
00000010: 0000 803f 0000 803f 0000 803f 0000 803f
00000020: 0000 803f 0000 803f 0000 803f 0000 803f
00000030: 0000 803f 0000 803f 0000 803f 0000 803f
00000040: 0000 803f 0000 803f 0000 803f 0000 803f
00000050: 0000 803f 0000 803f 0000 803f 0000 803f
00000060: 0000 803f 0000 803f 0000 803f 0000 803f
00000070: 0000 803f 0000 803f 0000 803f 0000 803f
00000080: 0000 803f 0000 803f 0000 803f 0000 803f
00000090: 0000 803f 0000 803f 0000 803f 0000 803f
000000a0: 0000 803f 0000 803f 0000 803f 0000 803f
000000b0: 0000 803f 0000 803f 0000 803f 0000 803f
000000c0: 0000 803f 0000 803f 0000 803f 0000 803f
000000d0: 0000 803f 0000 803f 0000 803f 0000 803f
000000e0: 0000 803f 0000 803f 0000 803f 0000 803f
000000f0: 0000 803f 0000 803f 0000 803f 0000 803f
00000100: 0000 803f 0000 803f 0000 803f 0000 803f
00000110: 0000 803f 0000 803f 0000 803f 0000 803f
00000120: 0000 803f 0000 803f 0000 803f 0000 803f
00000130: 0000 803f 0000 803f 0000 803f 0000 803f
00000140: 0000 803f 0000 803f 0000 803f 0000 803f
00000150: 0000 803f 0000 803f 0000 803f 0000 803f
00000160: 0000 803f 0000 803f 0000 803f 0000 803f
00000170: 0000 803f 0000 803f 0000 803f 0000 803f
00000180: 0000 803f 0000 803f 0000 803f 0000 803f
00000190: 0000 803f 0000 803f 0000 803f 0000 803f
000001a0: 0000 803f 0000 803f 0000 803f 0000 803f
000001b0: 0000 803f 0000 803f 0000 803f 0000 803f
000001c0: 0000 803f 0000 803f 0000 803f 0000 803f
000001d0: 0000 803f 0000 803f 0000 803f 0000 803f
000001e0: 0000 803f 0000 803f 0000 803f 0000 803f
000001f0: 0000 803f 0000 803f 0000 803f 0000 803f
00000200: 0000 803f 0000 803f 0000 803f 0000 803f
00000210: 0000 803f 0000 803f 0000 803f 0000 803f
00000220: 0000 803f 0000 803f 0000 803f 0000 803f
00000230: 0000 803f 0000 803f 0000 803f 0000 803f
00000240: 0000 803f 0000 803f 0000 803f 0000 803f
00000250: 0000 803f 0000 803f 0000 803f 0000 803f
00000260: 0000 803f 0000 803f 0000 803f 0000 803f
00000270: 0000 803f 0000 803f 0000 803f 0000 803f
00000280: 0000 803f 0000 803f 0000 803f 0000 803f
00000290: 0000 803f 0000 803f 0000 803f 0000 803f
000002a0: 0000 803f 0000 803f 0000 803f 0000 803f
000002b0: 0000 803f 0000 803f 0000 803f 0000 803f
000002c0: 0000 803f 0000 803f 0000 803f 0000 803f
000002d0: 0000 803f 0000 803f 0000 803f 0000 803f
000002e0: 0000 803f 0000 803f 0000 803f 0000 803f
000002f0: 0000 803f 0000 803f 0000 803f 0000 803f
00000300: 0000 803f 0000 803f 0000 803f 0000 803f
00000310: 0000 803f 0000 803f 0000 803f 0000 803f
00000320: 0000 803f 0000 803f 0000 803f 0000 803f
00000330: 0000 803f 0000 803f 0000 803f 0000 803f
00000340: 0000 803f 0000 803f 0000 803f 0000 803f
00000350: 0000 803f 0000 803f 0000 803f 0000 803f
00000360: 0000 803f 0000 803f 0000 803f 0000 803f
00000370: 0000 803f 0000 803f 0000 803f 0000 803f
00000380: 0000 803f 0000 803f 0000 803f 0000 803f
00000390: 0000 803f 0000 803f 0000 803f 0000 803f
000003a0: 0000 803f 0000 803f 0000 803f 0000 803f
000003b0: 0000 803f 0000 803f 0000 803f 0000 803f
000003c0: 0000 803f 0000 803f 0000 803f 0000 803f
000003d0: 0000 803f 0000 803f 0000 803f 0000 803f
000003e0: 0000 803f 0000 803f 0000 803f 0000 803f
000003f0: 0000 803f 0000 803f 0000 803f 0000 803f
1.0 1.0 1.0 1.0 1.0 1.0 1.0 1.0
1.0 1.0 1.0 1.0 1.0 1.0 1.0 1.0
1.0 1.0 1.0 1.0 1.0 1.0 1.0 1.0
1.0 1.0 1.0 1.0 1.0 1.0 1.0 1.0
1.0 1.0 1.0 1.0 1.0 1.0 1.0 1.0
1.0 1.0 1.0 1.0 1.0 1.0 1.0 1.0
1.0 1.0 1.0 1.0 1.0 1.0 1.0 1.0
1.0 1.0 1.0 1.0 1.0 1.0 1.0 1.0
1.0 1.0 1.0 1.0 1.0 1.0 1.0 1.0
1.0 1.0 1.0 1.0 1.0 1.0 1.0 1.0
1.0 1.0 1.0 1.0 1.0 1.0 1.0 1.0
1.0 1.0 1.0 1.0 1.0 1.0 1.0 1.0
1.0 1.0 1.0 1.0 1.0 1.0 1.0 1.0
1.0 1.0 1.0 1.0 1.0 1.0 1.0 1.0
1.0 1.0 1.0 1.0 1.0 1.0 1.0 1.0
1.0 1.0 1.0 1.0 1.0 1.0 1.0 1.0
1.0 1.0 1.0 1.0 1.0 1.0 1.0 1.0
1.0 1.0 1.0 1.0 1.0 1.0 1.0 1.0
1.0 1.0 1.0 1.0 1.0 1.0 1.0 1.0
1.0 1.0 1.0 1.0 1.0 1.0 1.0 1.0
1.0 1.0 1.0 1.0 1.0 1.0 1.0 1.0
1.0 1.0 1.0 1.0 1.0 1.0 1.0 1.0
1.0 1.0 1.0 1.0 1.0 1.0 1.0 1.0
1.0 1.0 1.0 1.0 1.0 1.0 1.0 1.0
1.0 1.0 1.0 1.0 1.0 1.0 1.0 1.0
1.0 1.0 1.0 1.0 1.0 1.0 1.0 1.0
1.0 1.0 1.0 1.0 1.0 1.0 1.0 1.0
1.0 1.0 1.0 1.0 1.0 1.0 1.0 1.0
1.0 1.0 1.0 1.0 1.0 1.0 1.0 1.0
1.0 1.0 1.0 1.0 1.0 1.0 1.0 1.0
1.0 1.0 1.0 1.0 1.0 1.0 1.0 1.0
1.0 1.0 1.0 1.0 1.0 1.0 1.0 1.0

w.MM2M f4 [1, 64, 32, 32]
00000000: 0000 803f 0000 803f 0000 803f 0000 803f
00000010: 0000 803f 0000 803f 0000 803f 0000 803f
00000020: 0000 803f 0000 803f 0000 803f 0000 803f
00000030: 0000 803f 0000 803f 0000 803f 0000 803f
00000040: 0000 803f 0000 803f 0000 803f 0000 803f
00000050: 0000 803f 0000 803f 0000 803f 0000 803f
00000060: 0000 803f 0000 803f 0000 803f 0000 803f
00000070: 0000 803f 0000 803f 0000 803f 0000 803f
00000080: 0000 803f 0000 803f 0000 803f 0000 803f
00000090: 0000 803f 0000 803f 0000 803f 0000 803f
000000a0: 0000 803f 0000 803f 0000 803f 0000 803f
000000b0: 0000 803f 0000 803f 0000 803f 0000 803f
000000c0: 0000 803f 0000 803f 0000 803f 0000 803f
000000d0: 0000 803f 0000 803f 0000 803f 0000 803f
000000e0: 0000 803f 0000 803f 0000 803f 0000 803f
000000f0: 0000 803f 0000 803f 0000 803f 0000 803f
00000100: 0000 803f 0000 803f 0000 803f 0000 803f
00000110: 0000 803f 0000 803f 0000 803f 0000 803f
00000120: 0000 803f 0000 803f 0000 803f 0000 803f
00000130: 0000 803f 0000 803f 0000 803f 0000 803f
00000140: 0000 803f 0000 803f 0000 803f 0000 803f
00000150: 0000 803f 0000 803f 0000 803f 0000 803f
00000160: 0000 803f 0000 803f 0000 803f 0000 803f
00000170: 0000 803f 0000 803f 0000 803f 0000 803f
00000180: 0000 803f 0000 803f 0000 803f 0000 803f
00000190: 0000 803f 0000 803f 0000 803f 0000 803f
000001a0: 0000 803f 0000 803f 0000 803f 0000 803f
000001b0: 0000 803f 0000 803f 0000 803f 0000 803f
000001c0: 0000 803f 0000 803f 0000 803f 0000 803f
000001d0: 0000 803f 0000 803f 0000 803f 0000 803f
000001e0: 0000 803f 0000 803f 0000 803f 0000 803f
000001f0: 0000 803f 0000 803f 0000 803f 0000 803f
00000200: 0000 803f 0000 803f 0000 803f 0000 803f
00000210: 0000 803f 0000 803f 0000 803f 0000 803f
00000220: 0000 803f 0000 803f 0000 803f 0000 803f
00000230: 0000 803f 0000 803f 0000 803f 0000 803f
00000240: 0000 803f 0000 803f 0000 803f 0000 803f
00000250: 0000 803f 0000 803f 0000 803f 0000 803f
00000260: 0000 803f 0000 803f 0000 803f 0000 803f
00000270: 0000 803f 0000 803f 0000 803f 0000 803f
00000280: 0000 803f 0000 803f 0000 803f 0000 803f
00000290: 0000 803f 0000 803f 0000 803f 0000 803f
000002a0: 0000 803f 0000 803f 0000 803f 0000 803f
000002b0: 0000 803f 0000 803f 0000 803f 0000 803f
000002c0: 0000 803f 0000 803f 0000 803f 0000 803f
000002d0: 0000 803f 0000 803f 0000 803f 0000 803f
000002e0: 0000 803f 0000 803f 0000 803f 0000 803f
000002f0: 0000 803f 0000 803f 0000 803f 0000 803f
00000300: 0000 803f 0000 803f 0000 803f 0000 803f
00000310: 0000 803f 0000 803f 0000 803f 0000 803f
00000320: 0000 803f 0000 803f 0000 803f 0000 803f
00000330: 0000 803f 0000 803f 0000 803f 0000 803f
00000340: 0000 803f 0000 803f 0000 803f 0000 803f
00000350: 0000 803f 0000 803f 0000 803f 0000 803f
00000360: 0000 803f 0000 803f 0000 803f 0000 803f
00000370: 0000 803f 0000 803f 0000 803f 0000 803f
00000380: 0000 803f 0000 803f 0000 803f 0000 803f
00000390: 0000 803f 0000 803f 0000 803f 0000 803f
000003a0: 0000 803f 0000 803f 0000 803f 0000 803f
000003b0: 0000 803f 0000 803f 0000 803f 0000 803f
000003c0: 0000 803f 0000 803f 0000 803f 0000 803f
000003d0: 0000 803f 0000 803f 0000 803f 0000 803f
000003e0: 0000 803f 0000 803f 0000 803f 0000 803f
000003f0: 0000 803f 0000 803f 0000 803f 0000 803f
1.0 1.0 1.0 1.0 1.0 1.0 1.0 1.0
1.0 1.0 1.0 1.0 1.0 1.0 1.0 1.0
1.0 1.0 1.0 1.0 1.0 1.0 1.0 1.0
1.0 1.0 1.0 1.0 1.0 1.0 1.0 1.0
1.0 1.0 1.0 1.0 1.0 1.0 1.0 1.0
1.0 1.0 1.0 1.0 1.0 1.0 1.0 1.0
1.0 1.0 1.0 1.0 1.0 1.0 1.0 1.0
1.0 1.0 1.0 1.0 1.0 1.0 1.0 1.0
1.0 1.0 1.0 1.0 1.0 1.0 1.0 1.0
1.0 1.0 1.0 1.0 1.0 1.0 1.0 1.0
1.0 1.0 1.0 1.0 1.0 1.0 1.0 1.0
1.0 1.0 1.0 1.0 1.0 1.0 1.0 1.0
1.0 1.0 1.0 1.0 1.0 1.0 1.0 1.0
1.0 1.0 1.0 1.0 1.0 1.0 1.0 1.0
1.0 1.0 1.0 1.0 1.0 1.0 1.0 1.0
1.0 1.0 1.0 1.0 1.0 1.0 1.0 1.0
1.0 1.0 1.0 1.0 1.0 1.0 1.0 1.0
1.0 1.0 1.0 1.0 1.0 1.0 1.0 1.0
1.0 1.0 1.0 1.0 1.0 1.0 1.0 1.0
1.0 1.0 1.0 1.0 1.0 1.0 1.0 1.0
1.0 1.0 1.0 1.0 1.0 1.0 1.0 1.0
1.0 1.0 1.0 1.0 1.0 1.0 1.0 1.0
1.0 1.0 1.0 1.0 1.0 1.0 1.0 1.0
1.0 1.0 1.0 1.0 1.0 1.0 1.0 1.0
1.0 1.0 1.0 1.0 1.0 1.0 1.0 1.0
1.0 1.0 1.0 1.0 1.0 1.0 1.0 1.0
1.0 1.0 1.0 1.0 1.0 1.0 1.0 1.0
1.0 1.0 1.0 1.0 1.0 1.0 1.0 1.0
1.0 1.0 1.0 1.0 1.0 1.0 1.0 1.0
1.0 1.0 1.0 1.0 1.0 1.0 1.0 1.0
1.0 1.0 1.0 1.0 1.0 1.0 1.0 1.0
1.0 1.0 1.0 1.0 1.0 1.0 1.0 1.0
