checkpoint/clf/experiment_name/300/netE.pth (torch, 241318 bytes, 33 tensors)

model.0.weight f4 [32, 3, 4, 4]
000000 7f 26 18 be 16 97 75 3d eb 08 29 bd bb 7f 9e 3c
       -0.14858435 0.05995854 -0.04126827 0.019348016
000010 f0 e2 c6 bd 5f 30 0f 3d 12 c2 b4 bc 72 fb 3e 3b
       -0.09711254 0.03495824 -0.022065196 0.0029141572
000020 01 58 d5 3c 03 13 aa 3c 87 40 a5 3d 88 57 2f bd
       0.02604294 0.020761019 0.08068948 -0.042808086
000030 d4 7e 49 bd 1c 08 1e bd 1e 55 c7 bc 9e 65 d7 3c
       -0.04919322 -0.038581952 -0.02433258 0.026293572
000040 a1 63 3d 3d db a0 a6 bd e3 0b f2 3d 4a fa 34 3d
       0.04623759 -0.081361495 0.118186735 0.044184007
000050 ea ef 63 bd a7 ff 3b bd ad 5c 2b be a7 1b 9c bd
       -0.05564872 -0.045898106 -0.16734572 -0.07622462
000060 82 39 23 bc b1 76 5d 3d 9e 55 92 3d 28 59 01 3e
       -0.009962441 0.05406827 0.071452364 0.12631667
000070 a4 44 67 bc 50 8e 3b 3d e4 2c f6 bc b1 1c 85 bc
       -0.014115486 0.045790017 -0.030050702 -0.016249033
000080 c6 99 c8 bd 4e 15 d0 bd 44 8d c7 bc 1e a9 a1 38
       -0.09794955 -0.101603135 -0.024359353 7.708579e-05
000090 b3 7d 27 be 9c 2d 95 bc 40 42 3b 3d ce d7 c1 bc
       -0.16356544 -0.018210225 0.045717478 -0.023662474
0000a0 02 58 3e bd 0e eb 32 3d 98 e3 86 3c 1e bf 38 bd
       -0.04647065 0.043681197 0.016465947 -0.04510414
0000b0 95 ba 39 bd 5e a7 70 bd dd 6f 55 bd b9 21 8a bd
       -0.045343954 -0.058753364 -0.052108634 -0.06744713
0000c0 8a a5 1a bd 36 07 81 3d 69 93 9c 3d 1d df a5 bd
       -0.037755527 0.063002035 0.07645304 -0.08099196
0000d0 61 85 04 3e d2 3a dd 3c 6d 36 a2 3c 9f 60 0e 3d
       0.12941505 0.027005587 0.019801343 0.034760114
0000e0 b9 0b 97 3d 35 73 93 bc 80 c5 68 bd 2f ae 0f 3d
       0.07375283 -0.01799927 -0.056828976 0.035078224
0000f0 ba 24 21 bb f3 78 50 3d 60 5b 9a 3d ed 06 02 3c
       -0.002458854 0.050896596 0.0753696 0.007936222
000100 58 25 b8 bd 23 37 73 3c 53 57 87 bd e3 5f f4 3c
       -0.08991498 0.014844689 -0.06608453 0.029830879
000110 e2 26 6f bd 50 6c 33 3b 3b fb a5 3c 78 cf 7a bd
       -0.05838669 0.0027377792 0.020261398 -0.061233014
000120 24 5c 93 3d fe cf 92 3c 67 93 59 bc aa ec fc 3c
       0.07195309 0.017921444 -0.013279772 0.030874569
000130 0f cc 52 bd 88 7e 95 bd a1 6f 47 bd 4b 8b 6a 3c
       -0.051464137 -0.072995245 -0.048690442 0.014315437
000140 a4 0e d5 bd ee a3 72 bd 2f e9 b0 bd b7 0c bf 3c
       -0.10403183 -0.059238367 -0.08638226 0.023321493
000150 c1 32 8c 3d 1e b1 86 bd 46 12 24 3e 7f d9 8a 3d
       0.06845618 -0.06576751 0.16022596 0.06779765
000160 1a c2 d6 3c 4c c1 84 bd ed 40 f4 bc 9c 56 0d 3d
       0.026215602 -0.06482181 -0.029816115 0.034506425
000170 fa 12 f1 3d 19 ad 83 3d cd 41 91 3d d1 6d ca bb
       0.117711976 0.064295 0.07092629 -0.006177642
000180 be cd 8c bd 5d cb 44 3d 75 d4 c6 3d ac b1 eb bd
       -0.0687518 0.048045505 0.09708492 -0.115084976
000190 61 da 5e bc c4 1b 24 3d cd 94 56 bc dd 01 aa 3d
       -0.01360187 0.040065542 -0.013097 0.08301137
0001a0 ed 4a 82 bd 96 16 86 bc 85 98 48 bd 86 b4 1d be
       -0.06361947 -0.016368192 -0.04897358 -0.15400895
0001b0 44 eb 87 3d fc ad b6 bd 6d 82 79 3d 09 83 3c 3c
       0.0663667 -0.08919904 0.0609154 0.011505851
0001c0 7f 12 c0 bd 4e c5 d5 3b fb 09 b8 3d a3 cc b0 3d
       -0.09378528 0.0065237647 0.089862786 0.08632781
0001d0 7f a1 bd 3c 8e 1b c7 3d 94 cf 80 3b 54 cd 17 3d
       0.023148296 0.097220525 0.0039309952 0.03706105
0001e0 77 2b 6e bc ea be 42 3d 7e 8a 67 bd b7 1a 30 3d
       -0.01453673 0.04754535 -0.05652856 0.042994227
0001f0 42 72 a2 bd 70 bc f7 bb 98 11 52 3c 01 a7 52 3c
       -0.07931949 -0.0075603053 0.0128215775 0.0128572
000200 25 88 8b 3d e5 39 1f bd 42 44 08 3c 86 e2 01 bb
       0.06813077 -0.038873572 0.008317055 -0.0019818856
000210 23 8f d2 bc 0d 42 80 3d 40 7a b8 bd cc 31 95 3d
       -0.025703019 0.06262598 -0.09007692 0.072848886
000220 c3 b3 93 3c e0 58 38 bd d0 86 0e 3c 19 f7 e3 3d
       0.018030053 -0.045006633 0.008699134 0.111311145
000230 4e 5f ec 3b 1f 44 1d bd 11 cf 73 bd 3f 49 4f 3d
       0.0072135096 -0.038395043 -0.059523646 0.050606962
000240 67 db 83 3d 69 e5 78 3c 5d 1f a1 bd 07 3b 8b bc
       0.06438332 0.015191414 -0.0786731 -0.01699592
000250 24 b8 09 be ca 51 9f bd 50 b8 36 bd bc 5d 09 b9
       -0.1344915 -0.07779272 -0.044609368 -0.00013100257
000260 f7 81 16 bd 81 3a 8e 3d 2c c7 73 bd ab 41 2b 3d
       -0.036745038 0.069447525 -0.059516117 0.041810673
000270 59 37 80 bd 3e b3 a9 bc aa b6 9e bc b3 df 5a 3c
       -0.06260557 -0.020715352 -0.01937421 0.013358998
000280 8d ef 1c 3b 0d 53 93 bd b0 fd 53 bc 65 a2 a8 ba
       0.0023946494 -0.07193575 -0.012938902 -0.001286578
000290 37 32 25 bc 69 e7 5a bc c5 24 db 3c ba bd 03 bd
       -0.010082773 -0.013360837 0.026750932 -0.03216336
0002a0 5c dc 81 bb cf 7d 90 bd c7 e3 98 3d b5 ec b2 3d
       -0.0039630365 -0.07055246 0.0746532 0.087365545
0002b0 43 ed 16 be c9 64 0a bd 3b 82 cf 3d 1a 4d 65 bd
       -0.14738946 -0.033787522 0.10132261 -0.055981733
0002c0 bc cf cb bd 48 b9 bb bd fb 81 8a bc b2 46 91 3d
       -0.099517316 -0.09166199 -0.016907683 0.07093562
0002d0 9e d5 2e bd 77 b6 db 3d 49 c6 40 bd 53 16 a1 3d
       -0.04268419 0.10728162 -0.0470641 0.07865586
0002e0 88 cb 8e 3d 9f fc b6 3c e1 bc 08 bd 9b 28 4b bc
       0.06972414 0.022337256 -0.033383254 -0.012399818
0002f0 5f ef 19 3d 89 ef ce bb fe 9f 93 3d a2 7f 80 bc
       0.037581798 -0.006315176 0.072082505 -0.01568586
000300 7e 43 50 3d 78 45 50 bd 5d df e7 bc 97 2a 69 3c
       0.050845616 -0.0508475 -0.02830475 0.014231346
000310 27 d9 18 3d 76 e3 d7 bc 4e 25 94 bd 25 73 50 3c
       0.037316468 -0.026353579 -0.07233678 0.012722765
000320 43 45 a8 3d 46 be 7e bc d3 0c 5c 3d 70 36 15 3c
       0.082163356 -0.015548294 0.053723168 0.009107217
000330 76 99 00 3d 80 c8 e8 3c 7d 6c 5a bc 02 40 d6 bc
       0.03139635 0.028415918 -0.01333153 -0.026153568
000340 83 46 a1 3d 3e f6 5f bd f5 0c 43 bd 24 a0 01 3e
       0.07874777 -0.054678194 -0.04761978 0.12658745
000350 7f 73 71 3d 2f 9a a4 bd 3d f3 03 be 90 52 18 bd
       0.058948036 -0.08037221 -0.12885757 -0.037188113
000360 9b d8 bc 3d 39 a9 bf 3d d3 ad b5 ba 8d 3d 8f 3c
       0.09221002 0.093584485 -0.0013861008 0.017485404
000370 03 cb a3 bb 08 58 ca bd 5a 0f dc bd 8c 69 6a 3d
       -0.004998566 -0.09880072 -0.107451156 0.057229564
000380 cf 32 90 3d ed da 41 bb 6a 65 d6 3b a1 62 b1 bc
       0.07040941 -0.0029579953 0.006542851 -0.021653475
000390 71 28 81 3d af be 88 bc 7b 12 75 3d 50 54 2b 3d
       0.06306542 -0.016692488 0.059832077 0.041828454
0003a0 eb c8 19 3d 17 60 0b 3d b1 bb e0 bc 60 8b 0d be
       0.037545126 0.034027185 -0.027433248 -0.13822699
0003b0 7a 5e 1d 3d b3 45 67 3c b9 b3 17 3d 5e 38 98 bd
       0.038420178 0.014115739 0.03703663 -0.07432626
0003c0 e0 d0 a2 3d 5b 6c ec bc 9b d1 dc bc b2 c9 0a be
       0.07949996 -0.028860262 -0.026955416 -0.13553503
0003d0 b8 53 8a 3c 3c ec c0 bc 8e 0f 71 bc c4 21 ac 3b
       0.016885623 -0.023550145 -0.014713181 0.0052530486
0003e0 15 c0 09 bd bb 6e 14 3d 6f 36 25 3d c9 2a 42 bb
       -0.03363045 0.036238413 0.040335115 -0.0029627553
0003f0 20 2e d7 bc 4b 27 3d bd bb d2 28 bd 1c 91 b3 bd
       -0.026267111 -0.04618005 -0.041216593 -0.08767912

model.0.bias f4 [32]
000000 8d 29 db 39 42 53 9b 38 2b ff 83 b9 a7 a6 fd 39
       0.00041801893 7.406484e-05 -0.00025176382 0.00048380086
000010 7d 0b b6 38 9f ca 8d 39 86 31 64 ba 0e 95 8d b9
       8.680576e-05 0.0002704458 -0.00087048893 -0.0002700467
000020 18 1e 03 b9 1c da d8 3a 06 f3 5d 39 87 08 30 ba
       -0.00012504344 0.0016544494 0.00021166736 -0.0006715138
000030 f3 63 d4 39 09 5f 2c b9 5a a1 85 b8 f7 71 a1 39
       0.0004051026 -0.00016438602 -6.371988e-05 0.00030793223
000040 dd 5a b2 3a cd 03 90 37 0a 1e 9f 39 53 9c 75 3a
       0.0013607402 1.7167908e-05 0.00030349224 0.00093693024
000050 49 4d 89 3a c4 ce f1 38 b9 05 b0 b8 4b 89 86 b9
       0.0010475303 0.000115302886 -8.3934e-05 -0.00025660763
000060 af f6 9c 39 5b 55 1a 39 b1 2f f6 b3 99 2b c6 3a
       0.00029938432 0.00014718382 -1.1463943e-07 0.0015119194
000070 b5 50 8f b9 16 d2 4b ba 16 af 36 b9 7a 91 c9 b7
       -0.00027335217 -0.00077751407 -0.00017422097 -2.402881e-05

model.1.weight f4 [32]
000000 7e 26 82 3f 76 46 7d 3f a1 92 7d 3f 3e 9f 7b 3f
       1.0167997 0.9893564 0.9905186 0.9828986
000010 61 fb 81 3f c6 4e 81 3f 64 b2 7d 3f a3 b1 7f 3f
       1.015484 1.0102165 0.9910033 0.9988043
000020 f7 3e 7e 3f cc 58 81 3f 19 76 83 3f d4 ab 7e 3f
       0.99314827 1.0105224 1.0270416 0.9948094
000030 93 a1 80 3f 9a e0 80 3f 24 6d 7e 3f 2e c4 7c 3f
       1.0049309 1.0068543 0.99385285 0.98736846
000040 7b 2f 82 3f 54 43 81 3f 6f 3f 82 3f e1 f1 7d 3f
       1.017074 1.0098672 1.0175608 0.991972
000050 94 51 80 3f 9f 33 7d 3f 62 21 81 3f 91 62 85 3f
       1.0024896 0.9890689 1.0088313 1.0420705
000060 72 28 7e 3f a3 00 7c 3f 26 9f 84 3f 49 c1 79 3f
       0.99280465 0.9843847 1.0361068 0.97560555
000070 06 bd 7f 3f 9e 1a 81 3f df d5 7d 3f 09 f6 7d 3f
       0.998978 1.0086248 0.99154466 0.99203545

model.1.bias f4 [32]
000000 9f 97 dd 3c 63 1f d9 3b 95 dc 96 bc 02 6d ce bb
       0.027049838 0.006626056 -0.018415729 -0.006299616
000010 45 0d 16 3c f6 45 79 3c f4 8e 97 b8 b1 9b a1 3b
       0.009158437 0.015214434 -7.226868e-05 0.00493189
000020 07 04 51 bb 61 18 2a 3c 15 70 cc 3c 3d 0f a4 3c
       -0.003189327 0.010381789 0.024955789 0.020026797
000030 ad 05 d5 3c 27 01 11 3c 85 18 26 bc f9 57 18 bc
       0.026003683 0.008850372 -0.010137682 -0.009298318
000040 b0 b8 c9 3c 74 05 5c 3c 4f 9f a5 3c 83 c7 0d 3a
       0.024624199 0.0134290345 0.020217566 0.00054084527
000050 57 24 d7 3b 62 d8 e3 3c 1b be 0b 3d a0 a3 8e 3c
       0.0065656113 0.02781314 0.034116846 0.017412007
000060 df 07 0c 3c 90 53 5e bc 7f 64 24 3d a0 51 3a 3c
       0.0085467985 -0.013569728 0.040134903 0.011372
000070 07 16 22 3c ab 30 c2 3c be bd 78 3c 2a 68 3d 3c
       0.009892947 0.023704847 0.015181957 0.011560479

model.1.gate f4 [32]
000000 ce e0 88 3f e2 5f 80 3f 1b 24 7c 3f 19 cb 81 3f
       1.0693605 1.0029261 0.9849259 1.0140105
000010 05 43 7b 3f 15 c1 7d 3f 98 43 73 3f cf 6a 72 3f
       0.9814914 0.99122745 0.95025015 0.94694227
000020 95 bb 75 3f fc bc 92 3f 81 c1 7e 3f 58 a8 6d 3f
       0.9598935 1.1463923 0.99514014 0.92835
000030 5a af 7e 3f 80 24 7d 3f c4 c5 80 3f f7 c8 7b 3f
       0.99486315 0.9888382 1.0060353 0.98353523
000040 e4 d7 77 3f f8 98 72 3f a4 e2 80 3f db f8 74 3f
       0.968138 0.9476466 1.0069165 0.95692223
000050 97 a8 82 3f 38 de 76 3f a9 6c 87 3f 10 95 75 3f
       1.02077 0.9643283 1.0580035 0.95930576
000060 b9 c0 7a 3f 4c d0 82 3f c3 2e 80 3f 51 32 9a 3f
       0.9795032 1.0219817 1.001427 1.2046605
000070 22 35 75 3f 0a da 79 3f 80 bc 75 3f 04 a7 69 3f
       0.957842 0.97598326 0.95990753 0.9127047

model.1.running_mean f4 [32]
000000 24 35 32 3f fb 4c a0 be 67 2f fb bd b2 15 bc 3e
       0.69612336 -0.3130873 -0.12264901 0.36735302
000010 e2 18 0c be db 37 2d 3f 3a c3 6e be f4 aa 03 bf
       -0.13681367 0.67663354 -0.2331666 -0.5143273
000020 a6 e1 ad be 2b d2 64 bd be 68 65 3f 85 0d 98 be
       -0.3396122 -0.055864494 0.8961295 -0.29697815
000030 e2 47 13 be ec 81 07 3f 3c 3e 21 3b ea 1c 22 3f
       -0.1438289 0.5293262 0.0024603745 0.6332537
000040 97 02 8c be 02 77 92 3f 5d 89 2a 3f 52 73 a6 be
       -0.27345726 1.1442568 0.6661585 -0.32509857
000050 4a 9d f8 3e e2 d2 64 bf 12 90 fa 3e 7f e4 c4 3e
       0.48557502 -0.8938428 0.48938042 0.3845558
000060 eb 31 25 be af 64 8e be ef 21 71 3f 14 fd d9 3e
       -0.16132323 -0.2781119 0.94192404 0.42575896
000070 28 d0 5d bf 24 2a 0d bd ca 3b 81 bd e8 69 f6 3b
       -0.86645746 -0.034464017 -0.06310232 0.007519949

model.1.running_var f4 [32]
000000 ce 0a 8b 3d c3 7b 1d 3d b8 9c 65 3c 7b 08 c8 3c
       0.0678917 0.038448106 0.014014415 0.024418106
000010 7b ef 99 3c 35 42 02 3d 9f 1f 48 3d bf 0b d9 3c
       0.018790951 0.03180142 0.04885828 0.026494859
000020 96 9d e0 3c bd ea 35 3c ec cd 39 3d 5f ba 17 3c
       0.027418893 0.011103329 0.045362398 0.009260743
000030 d1 5a a0 3c f8 85 22 3d a1 1d 8d 3c ab bf 83 3d
       0.019574555 0.039678544 0.017226042 0.06433042
000040 9d f6 b4 3c 23 8c 8e 3d cc c1 0f 3d a0 64 88 3c
       0.02209025 0.06960323 0.03509693 0.016649544
000050 99 23 99 3c 10 25 1b 3d 96 05 24 3d 6a 11 b7 3c
       0.018693732 0.037877142 0.04004439 0.02234717
000060 22 7b a9 3d 08 c6 5d 3d bf b3 52 3d 02 38 1f 3d
       0.08275439 0.054143935 0.05144095 0.038871773
000070 af 89 37 3d 97 db 00 3c f8 71 ac 3c 48 15 1d 3d
       0.04480904 0.007864854 0.021050438 0.038350374

model.3.main.0.weight f4 [32, 32, 3, 3]
000000 f1 b9 04 bd ef 22 83 3b 30 3d b8 3d 0d d4 f7 bd
       -0.03240389 0.004001967 0.089960456 -0.12100992
000010 6b 69 69 3d e6 49 19 be fc 5c 0f be 9b 91 a6 bc
       0.0569853 -0.14969596 -0.14000314 -0.020333102
000020 8a 36 ea 3c 72 bc 2a be 47 53 00 be bf e6 85 3b
       0.02859046 -0.16673449 -0.12531768 0.004086345
000030 d5 c0 15 3d 72 be de bd 99 4e 1e 3e 3f fd f6 bd
       0.036560852 -0.10876168 0.1545967 -0.120600216
000040 8c 0a 43 be 84 57 c5 bc d5 d9 61 bd f2 54 ea bd
       -0.19046992 -0.024089582 -0.05513938 -0.11441983
000050 94 48 71 bd b9 e7 ec bb c4 1d 18 3d d2 21 e2 3c
       -0.058907107 -0.007229772 0.03713776 0.027604017
000060 68 69 98 bd e7 1b c2 3d 23 94 6a 3d db e2 0f be
       -0.0744198 0.09477978 0.05727018 -0.14051382
000070 a0 f3 85 bd 7d 5c 4f bc e4 74 f6 bd 96 18 c7 3d
       -0.065406084 -0.012656328 -0.12034014 0.09721486
000080 00 09 d3 bd 9b fc 72 3d ce f4 0d 3b fe 5b 1c 3c
       -0.10304451 0.059322935 0.0021660808 0.009543417
000090 78 48 2c be 98 a6 2b 3c ea 2a 99 bd b6 7e cb bd
       -0.1682452 0.010476731 -0.07478888 -0.099362776
0000a0 4d 23 0d 3d 3d eb ba ba 04 f2 37 bd a0 4a 1d 3d
       0.034457494 -0.001426078 -0.04490854 0.038401246
0000b0 5b c0 8a bd e5 25 ab bd 05 7e 14 bd 1b 1c 81 bd
       -0.0677497 -0.08356837 -0.036252994 -0.06304189
0000c0 5a ea bc 3d 57 c0 db bd f4 4f a6 bc a6 42 2e bd
       0.092243865 -0.10730045 -0.020301796 -0.04254403
0000d0 d5 a5 18 3c ab da 3b 3c 70 02 fe 3c ee eb bd bd
       0.009316881 0.011465709 0.031007022 -0.09273516
0000e0 fc 83 95 3c 50 07 ab bd 01 ce 85 3d 74 a3 21 bd
       0.018251412 -0.08351004 0.06533433 -0.03946252
0000f0 69 0c 2b 3d ed 1c e7 3c 19 68 e3 bc fa a9 9f 3d
       0.041759882 0.028212035 -0.027759599 0.07796092
000100 2b 46 af 3d 6e 44 c6 3d 0f 1c d8 bc 6c 5b 80 3d
       0.08558305 0.09681021 -0.026380567 0.06267437
000110 22 c1 cf bc 8e e0 86 3d 3e 18 14 be 06 22 8c bd
       -0.025360648 0.06585799 -0.14462373 -0.06842427
000120 ac 0e 46 bc e8 4f 94 3d 0b ca c9 bd cf 48 e5 bc
       -0.012088459 0.072418034 -0.0985299 -0.02798882
000130 1c 1a 39 be 44 b3 04 be 2f b7 6a bd d3 8f 55 3d
       -0.18076366 -0.1295901 -0.057303604 0.052139115
000140 68 41 a5 3d 89 bc a1 bd cf 8d b0 3d 4a 62 92 3b
       0.08069116 -0.07897288 0.08620798 0.0044672834
000150 53 a3 55 be 52 12 11 bd 68 c9 4b bc 7a 93 af bd
       -0.20863084 -0.035417862 -0.012438156 -0.08573051
000160 ff a7 ca bc ad 4f f7 bd cb 00 3a be 36 1a 58 bd
       -0.02473831 -0.12075744 -0.18164365 -0.05275937
000170 a2 a7 fa bc 87 53 f5 bc 89 69 28 3c 3d b6 92 bd
       -0.030597512 -0.029947056 0.010279068 -0.071636654
000180 fd 5d a7 3d 75 42 5d bc f5 0e 16 be 66 5d 07 3b
       0.08172224 -0.013504614 -0.14654143 0.0020655035
000190 99 2d 5f 3d fe 3d 0b 3d 74 f8 03 3d ad 4c 18 be
       0.054486845 0.033994667 0.032219365 -0.14873
0001a0 86 f8 4d bd 76 03 e9 3b 77 75 d5 bd e0 55 e8 3d
       -0.05028584 0.0071110083 -0.10422795 0.11344504
0001b0 c4 ee 38 3d 21 65 f7 bd 8d 19 39 bd 1f c7 c9 bd
       0.04514958 -0.12079836 -0.045190383 -0.098524325
0001c0 c9 5c ee 3c 14 c0 da bc b2 90 07 bd df 4a 15 bd
       0.029096978 -0.026702918 -0.033096977 -0.036448356
0001d0 03 47 65 be 60 cf 13 3e 87 c2 92 bc f5 68 05 be
       -0.2239037 0.14434576 -0.017915023 -0.13028319
0001e0 45 4b 00 be f5 ca 16 3e 57 88 47 3c 93 e3 fd bd
       -0.12528713 0.1472586 0.012178502 -0.12396922
0001f0 de 61 1c 3d 47 20 3e 3e fc 8c d0 bc f2 ec ba 3d
       0.03817927 0.18567 -0.025457852 0.09127225
000200 ba fb 20 bd 7b 32 6d 3d a5 a1 a7 bd 73 8c 10 3e
       -0.039302565 0.05790947 -0.08185128 0.14116077
000210 ae 83 06 be 32 a7 99 bc da 60 67 3e 12 5a 50 3d
       -0.1313617 -0.018756483 0.2259554 0.050867148
000220 a6 7a 57 bd 66 f4 3e bb 82 94 fb bd a0 44 3c be
       -0.0526072 -0.0029137372 -0.12284185 -0.18385553
000230 dc 43 a2 bc 06 f0 c5 bc 71 a4 d9 bc 6f 10 37 3e
       -0.019807748 -0.024162304 -0.02656767 0.17877363
000240 01 0a c3 bd 40 f2 04 3d 9a 9b 49 3a 7a ac e4 bd
       -0.095233925 0.03245759 0.0007690728 -0.1116571
000250 8f 3b 92 3d ce 95 90 3d 85 4c 3c bc 8d c4 29 bd
       0.07140266 0.07059823 -0.011492853 -0.04144721
000260 31 2b 62 bc 0b 47 85 3d eb c4 d5 bd 31 e9 28 3d
       -0.013804243 0.06507691 -0.1043795 0.041238014
000270 f7 96 5d bd 10 ed 91 bc c6 ba 28 be 06 0d 5b 3d
       -0.05409905 -0.017813236 -0.16477498 0.053479217
000280 3f 84 69 bd d6 bf 24 be d9 fa b1 3c aa 8d 91 3d
       -0.057010885 -0.16088805 0.021726059 0.071070984
000290 58 2f 40 3d 5f 7b 59 3c b1 98 6c 3c 62 ca ea bd
       0.04692015 0.013274043 0.014440701 -0.11464383
0002a0 c1 3c f1 bc e8 e4 0f be 9c 09 50 3e a9 cc c7 3a
       -0.029447915 -0.14052165 0.20316166 0.0015243489
0002b0 bf ae 39 3d f7 cd 05 3e 2a e9 35 bc ec 9c e0 bd
       0.045332666 0.1306685 -0.011102954 -0.109674305
0002c0 0e 12 71 be 95 2e 11 bd 1f b7 b2 3b bc 73 2a 3d
       -0.23542044 -0.035444815 0.0054539586 0.04161428
0002d0 7c 4b 77 bd 4c f9 b0 bd 55 36 dd 3a 48 27 c4 3d
       -0.060374722 -0.086412996 0.0016877154 0.09577805
0002e0 c5 b6 f4 bb 33 61 93 3d 5e 2d 33 3d 48 47 5e bd
       -0.007468077 0.07196274 0.043744437 -0.054267198
0002f0 7a 43 27 be 27 e7 8a bd fc 84 44 3d 2f d4 4a bd
       -0.16334334 -0.0678237 0.047978386 -0.04951876
000300 bc 05 29 3e 1f f7 34 bd e3 80 8c 3d 17 66 22 bd
       0.16506094 -0.044180986 0.06860521 -0.03964814
000310 b6 55 ca bd 5c ea a8 bd 83 1e b7 bc e4 0a d8 bd
       -0.09879629 -0.082478255 -0.022353416 -0.10548952
000320 1d 9a 03 be 87 d5 2a 3e 28 7a 23 3d dc d1 3e bc
       -0.12851758 0.16683017 0.03991142 -0.011646714
000330 d9 b3 da bb e1 f8 0d bd 46 34 0e bd a9 b6 df bd
       -0.0066742715 -0.034661178 -0.03471782 -0.109235115
000340 d4 bf 0f 3d 77 c3 9d bd 98 06 46 3d c6 86 7f be
       0.03509505 -0.077032976 0.048346132 -0.24953756
000350 3e 2c 93 bd de 84 8d bc 55 97 5e bd 3c c9 b6 3d
       -0.07186173 -0.01727527 -0.05434354 0.08925101
000360 e4 fb cc 3b 6d f7 e8 bc 25 69 ed 3c dc 76 3a 3e
       0.0062556136 -0.028438294 0.0289808 0.18209404
000370 ac d4 0e 3b 8c df e6 3d 43 30 80 3d f1 0e 68 ba
       0.0021794243 0.11273107 0.06259205 -0.0008852324
000380 3a f2 3a be 56 57 31 3a a1 a1 09 bd 0c 2e 26 3e
       -0.18256465 0.0006765028 -0.033601407 0.16228503
000390 5c e3 82 3b 48 5d a5 3c d5 d4 b4 bd 4b 4e a0 bc
       0.0039943885 0.020186082 -0.08829657 -0.019568583
0003a0 7a 5c b6 bc 09 5d 87 3c 70 f2 99 bd d7 70 3b 3e
       -0.022260893 0.016523855 -0.075169444 0.18304764
0003b0 6c 84 95 bd 10 d0 3c bd cc a9 8e 3c bd 31 ff bd
       -0.07300648 -0.04609686 0.01741495 -0.12460659
0003c0 b9 2d b3 3d f8 6f 29 bd 2a 83 9a 3d a6 51 c9 3c
       0.08748955 -0.041366547 0.07544549 0.024575066
0003d0 f4 7b 89 3d fd b7 17 3e 9d dc 06 bd 27 b7 35 bd
       0.06713095 0.1481628 -0.032925237 -0.04436412
0003e0 75 17 30 bd a2 2c 9f 3c 85 c7 1b 3c f6 e0 a1 3d
       -0.04299112 0.019430462 0.009508018 0.07904236
0003f0 bf 63 a8 bc 9e bd 6b bd 1d 53 b4 3d 27 2e 8f bc
       -0.020555375 -0.05755388 0.08804915 -0.017478062

model.3.main.1.weight f4 [32]
000000 60 2f 82 3f ba 27 80 3f 00 15 81 3f aa b5 81 3f
       1.0170708 1.0012124 1.0084534 1.0133564
000010 b4 ac 80 3f 43 cd 80 3f 00 6d 7e 3f b0 3b 80 3f
       1.0052705 1.0062641 0.9938507 1.0018215
000020 9d df 7f 3f 7c ae 81 3f a0 e3 7f 3f c8 81 7e 3f
       0.9995058 1.0131373 0.99956703 0.9941678
000030 f4 0f 7f 3f 40 05 7e 3f 29 d5 7a 3f ce 70 7c 3f
       0.9963372 0.9922676 0.97981507 0.98609626
000040 f4 e6 81 3f 9a ae 7f 3f c0 4b 80 3f 0b 4c 7e 3f
       1.0148606 0.99875796 1.0023117 0.9933478
000050 42 65 82 3f 88 53 7e 3f 92 0b 81 3f 89 7d 7d 3f
       1.0187151 0.9934621 1.0081656 0.99019676
000060 e6 1d 80 3f 69 01 7f 3f e4 6b 80 3f 9b 88 7e 3f
       1.0009124 0.99611527 1.0032926 0.99427193
000070 a8 62 7e 3f cb da 7f 3f 01 2e 7c 3f 90 9e 81 3f
       0.9936929 0.99943227 0.98507696 1.0126514

model.3.main.1.bias f4 [32]
000000 ee 16 52 3b 21 ea 2f 3c 79 94 cb 39 29 2f 9f 3c
       0.0032057124 0.010736973 0.00038829798 0.019431667
000010 f4 54 87 39 3b 7d 8e 3c 26 d9 cf 3b 3b ca 81 3c
       0.00025812502 0.017393699 0.006343025 0.015843501
000020 6e c8 aa 3c de a0 65 3c 7e 5c ab 3c ba e6 bf 3b
       0.020847525 0.0140154045 0.020918127 0.005856362
000030 1a f8 d7 3b 48 4c fc 3a 7b 8d 5f 3a fa 60 a0 bb
       0.0065908553 0.0019248808 0.0008527857 -0.004894373
000040 2c c2 1a 3c d4 7b 4f 3c b2 87 08 3c f5 7b 18 bb
       0.009445708 0.0126638 0.0083331335 -0.0023267244
000050 db 7e 38 3b 66 a6 21 bb 55 51 69 3a 95 1d 83 bc
       0.0028151784 -0.0024665832 0.0008900364 -0.016005317
000060 5d 61 8b ba c4 93 2c ba e1 82 97 bb ca 67 87 b9
       -0.0010633875 -0.0006583298 -0.0046237563 -0.00025826535
000070 c8 9f d0 bb 55 65 17 3d f7 9c 9c bb ab 01 85 3d
       -0.0063667037 0.036961872 -0.004779454 0.06494459

model.3.main.1.gate f4 [32]
000000 25 1d 84 3f a5 94 8a 3f 3c 7b 83 3f 2e 5f 79 3f
       1.0321394 1.0826613 1.0271983 0.9741086
000010 00 86 7d 3f 8d f5 61 3f 31 c3 74 3f bf be 7f 3f
       0.9903259 0.88265306 0.9561034 0.9990043
000020 7e dc 81 3f 0c 76 7d 3f 69 83 6b 3f b3 50 7b 3f
       1.0145414 0.9900825 0.9199739 0.9817001
000030 ed d8 7d 3f 04 b3 89 3f 45 8b 7b 3f b4 3d 86 3f
       0.9915913 1.0757756 0.98259383 1.048758
000040 37 c2 7c 3f 6f 0d 90 3f 09 b2 7b 3f a6 6a 82 3f
       0.9873385 1.12541 0.98318535 1.0188797
000050 a2 ce 7a 3f 10 7e 81 3f 34 e0 76 3f da 49 84 3f
       0.97971547 1.0116596 0.96435857 1.0335038
000060 b7 39 82 3f 87 55 72 3f 1e 18 7f 3f f1 6f 7e 3f
       1.0173863 0.94661754 0.99646175 0.9938956
000070 42 24 82 3f ad 4f 61 3f 5b 6a 84 3f ae 1f 6e 3f
       1.0167315 0.880122 1.0344957 0.9301709

model.3.main.1.running_mean f4 [32]
000000 05 95 aa bf cf 3e 97 3f 59 52 a0 3e 13 79 05 bf
       -1.3326727 1.1816043 0.31312826 -0.5213787
000010 f7 75 38 3f 45 fc 36 bf af 88 c2 be 33 70 95 be
       0.72055 -0.7147868 -0.37994906 -0.29187164
000020 fc 31 12 3f 44 6d ae 3e a9 f7 0f bf 73 32 35 3d
       0.5710752 0.34067738 -0.56237274 0.044237565
000030 4f cf 6b be 4d 5b 51 bd 75 0d 4b be 3f bf 0b bf
       -0.230283 -0.05111246 -0.19829352 -0.54588693
000040 3c 14 64 bf 5e bc 97 be 9a 06 31 3d 5f 51 c6 3e
       -0.89093375 -0.296359 0.043219186 0.38733956
000050 a0 a3 3f bd 7d ff cd 3d 49 07 0f 3f 86 ff bc be
       -0.046786904 0.10058496 0.5587049 -0.369137
000060 b3 c5 56 3f b6 4e 13 3f 3f 52 6e 3e d4 34 3f 3e
       0.83895415 0.5754198 0.23273562 0.18672496
000070 2c bb 85 bf 6d 69 a6 3d cd db 9d 3d 4f 6f ad 3c
       -1.0447745 0.08125577 0.07707939 0.02117124

model.3.main.1.running_var f4 [32]
000000 56 84 0f 3f 07 a0 c2 3f fd 0a 66 3f 8f 8d c3 3f
       0.56061304 1.5205086 0.89860517 1.5277575
000010 d4 fa d3 3f 36 4a fb 3f 45 c0 51 3f 8a cd ea 3e
       1.6560922 1.9632022 0.81934005 0.4585994
000020 37 00 ac 3f e4 d9 68 3f 23 0f 04 3f 9e 5a 02 3f
       1.3437566 0.90957475 0.51585597 0.5091952
000030 d0 6e 3d 3f 9e 52 08 3f bf 1e b0 3f 6c 79 71 3f
       0.7399721 0.53251064 1.3759383 0.943259
000040 6c 2a 16 3f ad 82 6a 3f e5 e5 fb 3e b2 05 87 3f
       0.5865848 0.91605645 0.49198833 1.0548613
000050 54 7f ef 3e 2a 13 8a 3f 74 91 1f 3f 5c b9 8f 3f
       0.4677683 1.0787098 0.6233132 1.1228442
000060 42 7a b1 3f 1a 87 16 40 4d ba 88 3f 1a d4 15 3f
       1.3865435 2.351996 1.0681854 0.58526766
000070 20 1c 1a 3f 57 86 8d 3f 67 f7 01 3f 09 f2 54 3f
       0.60199165 1.1056622 0.5076813 0.83181816

model.3.main.3.weight f4 [32, 32, 3, 3]
000000 d9 d9 a6 bc c9 1d 99 3b c3 01 9a bd b6 b1 32 3e
       -0.02036755 0.00467274 -0.07519867 0.17450604
000010 fd 09 f2 bd 79 fd 8f bc 64 1c f4 bd f5 90 d1 bc
       -0.11818311 -0.01757692 -0.119194776 -0.025581816
000020 a2 83 e6 bd f8 9a 0f 3d 66 d2 d8 3c e4 16 1e 3c
       -0.11255576 0.0350599 0.026467513 0.009649012
000030 34 55 b7 bc 6e 69 2d bd 2f d3 57 bd b8 5f e0 bd
       -0.022379495 -0.042336874 -0.052691635 -0.10955757
000040 58 0c 9a bc ab 79 c7 bd 69 30 4c bd d5 8c 78 3d
       -0.018804714 -0.09740003 -0.049850855 0.060681183
000050 47 cc b3 3d 40 83 c5 bd 79 de b3 3d 53 6a d2 bd
       0.08779197 -0.096441746 0.08782668 -0.10274186
000060 e3 e1 95 3d 76 77 22 bd 8b 39 55 bd 58 ca 9e bd
       0.07318475 -0.039664708 -0.05205683 -0.07753438
000070 5a fa 13 be 45 32 7c 3d a7 99 b1 3a 10 94 e6 3d
       -0.1445097 0.06157138 0.001354982 0.112587094
000080 93 45 aa bd de 22 2f 3d fc b5 9c bd f5 90 1f be
       -0.083140515 0.04275786 -0.07651898 -0.1558264
000090 be 69 d8 3b d2 b4 31 3e f1 26 92 bc e6 93 27 bc
       0.0066044023 0.17354134 -0.017840834 -0.010228133
0000a0 ab a5 e6 bd 49 99 a6 ba 3e 7a d3 3c 85 d0 3c 3e
       -0.112620674 -0.0012710477 0.025815126 0.18438919
0000b0 03 9e 56 bc c5 8b 02 3e 75 26 28 be 7b 2c 21 be
       -0.013099196 0.1274863 -0.1642092 -0.15739624
0000c0 d9 85 6c 3d 2d 8a 41 3b 39 52 10 3e 91 bb 77 bd
       0.057744835 0.0029531822 0.14093865 -0.06048161
0000d0 12 ac 09 3c c7 7d 27 3c fd 2f cc bc f9 d1 fc 3d
       0.008402841 0.010222859 -0.024925226 0.123447366
0000e0 d4 f9 78 3c 38 ef 9f bc fe 90 bb bd 0e a4 93 3d
       0.015196282 -0.019523248 -0.091585144 0.07209025
0000f0 97 80 4c bd f2 e2 d0 bd 2a cc 50 3d fb ac c6 bd
       -0.04992732 -0.101995364 0.050975956 -0.09700962
000100 91 13 84 3c f7 df 44 3d 06 ae b2 3b 70 bc 95 3d
       0.016122611 0.048065152 0.005452874 0.07311332
000110 d8 61 9b 3c 63 ab 03 bd 4c ec e5 3d bc 00 0c 3d
       0.018967554 -0.03214587 0.11226711 0.034180388
000120 75 e9 f7 3d 6a 7e 2b 3d 67 6e 5f bd cb e6 24 3e
       0.12105075 0.041868605 -0.054548647 0.16103666
000130 fa 84 27 bd fd 4b 73 bc 64 53 81 bd 3b 5c bb 3d
       -0.0408983 -0.01484966 -0.063147336 0.09148451
000140 9f 09 03 be 36 69 12 bd 8d b7 a7 3d a1 10 22 3d
       -0.12796639 -0.03574487 0.081893064 0.03956664
000150 55 3e 1a 3e 16 8c b1 bd e0 85 c1 bc 93 58 c1 bd
       0.1506284 -0.086692974 -0.023623407 -0.09440722
000160 e0 da 57 3c 2a 24 00 bc 1a 5e 6c 3d 74 77 b7 bd
       0.013174742 -0.007821122 0.05770693 -0.08958331
000170 26 21 a2 3d e9 fd 86 bd f5 9d b0 bd c2 67 ea 3d
       0.07916479 -0.06591398 -0.08623878 0.114455715
000180 42 da 33 bd 50 83 1d bd 51 70 86 3c 6e 2b d5 3d
       -0.04390932 -0.038455307 0.016410979 0.10408674
000190 85 9b 4a bc 63 38 4d bd fa 7e 59 3d 89 8d 82 3c
       -0.01236618 -0.050102603 0.05309961 0.01593663
0001a0 24 6b c5 3d f6 f0 60 bc bf 5a 17 be af 38 03 3d
       0.09639576 -0.013729325 -0.1478071 0.03203648
0001b0 65 c6 9e 3d 31 25 0f 3e df 8a 19 be 7c 7b 4b bd
       0.077526845 0.13979031 -0.14994381 -0.04967831
0001c0 55 9a 0f 3e a8 9d 23 bc e0 3e 20 bd 34 b8 cb 3b
       0.14023717 -0.009986319 -0.039122462 0.006217027
0001d0 ae 9e e3 3c 07 c2 2e bc 41 69 be 3d 19 24 8c 3d
       0.027785625 -0.010666377 0.09297419 0.068428226
0001e0 d6 5a ac bc 83 1a 68 3d d0 fa 99 3b e1 a5 03 3e
       -0.021039408 0.05666591 0.0046990886 0.12856247
0001f0 f0 84 e0 3c 70 04 c5 bd d4 40 b9 bd 9f 1a 25 be
       0.02740714 -0.09619987 -0.09045568 -0.16123436
000200 af 64 0f be 82 68 2b bd 22 65 1d 3c 55 37 53 bc
       -0.14003251 -0.041847713 0.0096066315 -0.01289161
000210 4e e9 8d bd 18 ae 0a 3e 75 00 08 be 7c c6 19 be
       -0.06929265 0.13542974 -0.13281424 -0.15017122
000220 b0 c3 56 3c aa fe c0 3d 05 89 50 bc 99 57 e0 3d
       0.013108179 0.09423573 -0.0127279805 0.10954208
000230 44 31 8e 3d 24 78 4f 3c 6d d9 3c bd f0 53 cd 3c
       0.069429904 0.012662921 -0.04610579 0.025064439
000240 19 c6 32 bd bb 9d 08 3e 52 51 ed 3c e4 f1 37 bd
       -0.043645952 0.1334142 0.02896944 -0.04490842
000250 dd 8c 16 bc 79 5a 31 3e 75 c0 7b 3d 2a ec 8f 3d
       -0.009188858 0.17319669 0.06146284 0.070274666
000260 9a d6 4f bd 4d 28 f9 3d 5d 0f 5f 3d 9a dc ab 3c
       -0.05074177 0.1216589 0.05445801 0.020979214
000270 ed 7e 63 bd dc 37 84 3d 5a 32 58 be d6 e3 1c 3d
       -0.055540968 0.06455967 -0.21112958 0.03830322
000280 6b 75 86 3d cd d7 d1 bd 1c 4b 19 3e 00 90 0b bd
       0.065653645 -0.10246239 0.14970058 -0.034072876
000290 43 f9 57 bb 1f e7 94 3d 13 b4 0d 3d 72 67 0b 3d
       -0.0032954968 0.07270645 0.03459556 0.0340342
0002a0 53 bb 8f 3d e6 43 1e bd db 50 28 be 37 74 8b 3d
       0.07018151 -0.03863897 -0.16437094 0.068092756
0002b0 d7 3f 08 bd c6 53 08 bd 4c 52 cf bd fb df 95 bc
       -0.033264007 -0.033283018 -0.10123119 -0.018295279
0002c0 e7 f3 fc ba 71 4f 9e 3d 0b 0c 72 bd 0b aa b3 bd
       -0.0019298763 0.07729996 -0.059093516 -0.087726675
0002d0 bc 56 de 3d 90 a8 c7 bd bf 05 cd 3d bc 32 e7 3d
       0.10856387 -0.097489476 0.100108616 0.11288974
0002e0 77 5b 3f 3d 9f 58 26 3e 07 3a d6 3c 5f be 37 bd
       0.046718087 0.16244744 0.026150716 -0.044859286
0002f0 d5 44 10 be b7 6b 86 3b f8 fe d1 bc 11 97 1d 3e
       -0.14088757 0.004102196 -0.025634274 0.15389659
000300 15 fb 15 3b 38 5a 61 bd ad 77 59 bb 90 96 29 be
       0.0022885252 -0.05501768 -0.0033182905 -0.16561341
000310 43 2a 74 bd 88 96 16 bd f6 16 c1 bd 56 76 05 3d
       -0.059610616 -0.03676465 -0.094282076 0.032583557
000320 b1 99 83 bd 35 2c 13 be 13 26 d5 3d 92 44 b0 3c
       -0.06425799 -0.14372332 0.10407653 0.021517072
000330 34 05 6e bd 27 a0 dd 3d c4 fa e0 3c 44 7a 0e 3d
       -0.05811043 0.10821562 0.027463324 0.03478457
000340 66 19 42 3e 5c 0e ab bd 19 2b 97 3d 11 14 08 bc
       0.18955001 -0.08352348 0.07381267 -0.008305565
000350 de 43 64 bd 60 1e 85 bd db 02 1a bd cb a0 51 3d
       -0.055728786 -0.06499934 -0.03760038 0.051178735
000360 a7 6c 3a bd a6 44 de 3d 07 e7 35 3d 2d 5f a4 bd
       -0.045513775 0.108529374 0.044409778 -0.08025966
000370 dd 9a 9f bc 91 e7 39 3d d2 46 e4 3c db f4 c4 bd
       -0.019483024 0.045386855 0.027865801 -0.09617015
000380 cd 36 92 bc 31 52 c2 3d ba ce 27 be e0 6e b7 3c
       -0.017848397 0.09488333 -0.16387454 0.022391737
000390 b5 58 08 3e 41 4a d4 bd 71 f7 95 3d 6e b2 96 ba
       0.13315089 -0.10365725 0.07322586 -0.0011497268
0003a0 5a 81 6b 3d 27 61 19 be dc 82 c1 3c 90 53 85 3d
       0.057496406 -0.14978467 0.023621969 0.06510079
0003b0 a1 e9 d8 bd c1 b0 61 3b d4 72 e5 bc 3a 25 da bd
       -0.10591436 0.003443763 -0.028008856 -0.10651632
0003c0 80 8c 55 3c 4c c8 42 bb 45 8a 45 be 56 70 1d 3e
       0.013033986 -0.0029721437 -0.19291027 0.15374884
0003d0 a0 9f 29 3e c2 d9 7b bc 95 65 c6 3d dc d4 39 3e
       0.16564798 -0.015371742 0.09687344 0.18147606
0003e0 70 0f 65 3d ac 10 62 bd 7c ba c4 3c 3d a3 19 bd
       0.055922925 -0.05519168 0.024014704 -0.03750919
0003f0 20 05 cf 3d 74 5e a3 bd ee 67 89 bd 09 e8 88 bd
       0.101083994 -0.07977 -0.06709276 -0.06684882

model.3.main.4.weight f4 [32]
000000 16 4c 7a 3f 0c ae 7c 3f 3f 81 7d 3f a1 48 7c 3f
       0.9777235 0.98703074 0.9902534 0.9854832
000010 f6 d4 7e 3f 6b 69 80 3f 05 40 7d 3f ea 03 7a 3f
       0.995437 1.0032171 0.9892581 0.9766222
000020 30 bd 7b 3f be 5e 80 3f 5a 10 7f 3f 57 a1 7e 3f
       0.9833555 1.0028913 0.99634326 0.99464935
000030 44 63 7c 3f ff af 80 3f ee 5f 7d 3f 3b 3a 7f 3f
       0.9858897 1.005371 0.989745 0.9969823
000040 39 32 80 3f 62 ad 7d 3f 24 cf 77 3f a7 ef 7d 3f
       1.0015327 0.99092686 0.96800447 0.99193805
000050 7e 42 80 3f dd 01 76 3f d8 85 80 3f 05 a6 7f 3f
       1.0020292 0.96096593 1.0040846 0.998627
000060 29 13 7d 3f 62 91 7a 3f bd c6 7c 3f c9 ef 7a 3f
       0.9885736 0.97878087 0.9874075 0.98022133
000070 ff 71 7e 3f 0b c9 7d 3f 34 da 7d 3f 3e a5 7d 3f
       0.99392694 0.9913489 0.99161077 0.99080265

model.3.main.4.bias f4 [32]
000000 59 42 71 3c 87 5b 75 ba 8b 12 c9 bc 52 ab 7f 3c
       0.014725291 -0.0009359647 -0.024544975 0.015604811
000010 7f 44 e4 3b e0 e3 ca 3c d5 30 92 bb 01 f5 96 3a
       0.006966173 0.024766862 -0.0044613876 0.0011517109
000020 98 8d 63 3b c0 64 d2 3c e1 ab b6 3d 6c ad dd 3c
       0.0034721848 0.025682807 0.08919502 0.027060233
000030 d2 b5 33 3c 31 b3 0c 3c b3 7d a4 bc f3 6a 03 bc
       0.010968642 0.008587644 -0.02007947 -0.008021104
000040 90 c6 b2 3c 99 6b 9d 3c e4 c3 10 3c b2 ac 09 bc
       0.021823198 0.019216346 0.008835766 -0.00840299
000050 cd f1 b4 3b d7 00 85 3b 14 ba c6 3c 4a a5 14 3d
       0.005521989 0.004058938 0.02425865 0.036290444
000060 dd d1 a0 3b 2a f7 e6 3b 89 10 d5 3c e3 80 22 3d
       0.00490783 0.007048507 0.026008861 0.039673697
000070 88 77 99 bc 1d 37 0c 3d b3 3a 37 3c d4 d3 08 bd
       -0.018733755 0.034232248 0.011183429 -0.03340514

model.3.main.4.gate f4 [32]
000000 1d 8e 7e 3f 9d d8 7d 3f bc 3f 70 3f aa 2c 89 3f
       0.994356 0.9915865 0.9384725 1.0716755
000010 18 06 75 3f 32 66 7b 3f ef 3e 86 3f 76 01 84 3f
       0.95712423 0.9820281 1.0487956 1.0312946
000020 9d eb 7e 3f b8 75 88 3f 19 9f 81 3f 9b 99 73 3f
       0.9957827 1.0660925 1.0126678 0.9515626
000030 39 7c 74 3f d6 a2 7b 3f ec d2 79 3f 18 3d 71 3f
       0.9550205 0.9829534 0.97587466 0.94233847
000040 19 f4 76 3f a5 d0 81 3f 8a 91 6b 3f 11 53 71 3f
       0.96466213 1.0141798 0.9201895 0.94267374
000050 27 e5 75 3f 15 0a 75 3f 25 d9 76 3f ad dd 87 3f
       0.96052784 0.9571851 0.96425086 1.0614525
000060 56 4d 85 3f d3 3a 7f 3f aa b5 86 3f f3 5d 85 3f
       1.0414226 0.99699134 1.052419 1.0419296
000070 d2 d8 85 3f 52 42 72 3f 78 c8 7a 3f 56 4c 85 3f
       1.0456793 0.94632447 0.9796214 1.0413921

model.3.main.4.running_mean f4 [32]
000000 37 a6 93 3d 0a 6f 25 bf d1 1d 3d 3f 1c 2e 83 be
       0.07209437 -0.6462256 0.7387362 -0.25621116
000010 89 6f aa be 4b 88 4f bf 72 52 08 bf 89 2c 21 bf
       -0.3328822 -0.8106734 -0.532508 -0.6295858
000020 09 79 ec 3e 80 10 8d bf 10 59 b6 bf a8 bc 9e 3e
       0.46186092 -1.102066 -1.424593 0.31003308
000030 44 7a 99 be 5c ef d3 3d e7 c5 a6 3f ca 77 a2 be
       -0.29976094 0.103483886 1.3029145 -0.31732017
000040 03 0d 8a 3d f4 8a 49 bf 4e f7 59 be 5e ed 34 bf
       0.06740763 -0.7872765 -0.21285746 -0.70674694
000050 cc 68 49 3f ce cb 11 3f 2e ee 24 bf 3b 5a dd 3e
       0.7867553 0.56951606 -0.64425933 0.43232903
000060 96 29 9a 3e 07 9f 74 be a0 db 27 bf 50 cb 12 bf
       0.30109853 -0.23888789 -0.65569496 -0.5734148
000070 21 41 91 3f 4b e0 fd 3e 2c f1 a1 bd 3f f5 5e 3f
       1.1348001 0.49585184 -0.07907328 0.87092966

model.3.main.4.running_var f4 [32]
000000 57 4e 85 3f 41 b4 91 3f ab b0 8a 40 c6 f0 49 3f
       1.0414532 1.1383134 4.334066 0.78883016
000010 d1 a5 eb 3f 02 6e 6e 3f b9 e8 31 3f f8 71 82 3f
       1.8409978 0.9313661 0.6949573 1.019103
000020 c6 c8 a3 3f f7 55 f9 3f ca 31 3b 40 f8 46 19 40
       1.2795646 1.9479359 2.924914 2.3949566
000030 fa 71 3c 3f 6b 80 f0 3f 91 c8 27 40 31 a1 b4 3f
       0.73611414 1.878919 2.6216166 1.4111692
000040 a8 21 ed 3f 11 b7 bd 3f e4 9e 0d 3f cf 22 12 40
       1.8525896 1.4821492 0.5532057 2.2833745
000050 3b ab ba 3f e1 bd 9e 3f 62 3a ef 3f 19 8e c7 3f
       1.4583505 1.2401696 1.8689692 1.559024
000060 dc 81 a3 3f bd e3 7d 3f 79 32 ea 3f e2 9b 0e 40
       1.2774005 0.99175626 1.8296653 2.2282643
000070 68 e5 f6 3f 54 85 86 3f 16 31 7c 3f 31 e7 72 3f
       1.9288759 1.0509439 0.985124 0.9488402

model.4.main.0.weight f4 [32, 32, 3, 3]
000000 36 b4 d1 bd ec c8 8f 3c d4 e6 18 be d4 cd a9 bd
       -0.10239451 0.017551862 -0.14931804 -0.08291212
000010 ec 5c 23 3d a8 51 db bc 2a 66 56 bc c6 f7 03 bd
       0.03988354 -0.026772335 -0.013085881 -0.032218717
000020 a7 89 e4 bd b0 c0 b0 3d 0c 29 bb 3c b2 ba 43 bd
       -0.111590676 0.08630502 0.022846721 -0.04778547
000030 85 57 8d bd 98 fd 22 3d 9e 3b 2a be 48 90 e3 bd
       -0.06901459 0.039792627 -0.16624305 -0.11111504
000040 52 7d bc bd 94 e7 a2 3d 82 35 03 3d 4b ae ef 3d
       -0.092035905 0.07954326 0.03203345 0.117031656
000050 c1 51 c6 bd 94 df cd 3a d3 26 40 3d 4c 6b 88 bb
       -0.09683562 0.001570689 0.046912026 -0.0041631814
000060 09 e0 90 bd 0a a1 3f 3d 1f de a7 3d 0c 21 01 be
       -0.07073981 0.04678444 0.08196663 -0.12610263
000070 78 e8 fd 3d aa 5f bd 3d 84 be 9c bc 51 74 ce bd
       0.123978555 0.09246762 -0.019133814 -0.10080779
000080 a4 c0 be bd 39 88 fe 3d bc 3e e8 3d 92 09 ee 3c
       -0.09314087 0.12428326 0.11340091 0.029057298
000090 43 7b 41 bd 01 38 83 3d 8f 94 ec ba a0 06 50 be
       -0.047236692 0.06407166 -0.0018049645 -0.20315027
0000a0 60 fc e6 bd c9 26 90 3d 90 03 8f bc ae f7 bd 3c
       -0.112786055 0.07038648 -0.017457753 0.023189392
0000b0 d5 85 e6 3d ff 6b 5a bd 50 55 b4 bd 09 cc 40 3c
       0.11255995 -0.05332565 -0.088053346 0.011767396
0000c0 53 07 e9 3c e8 91 22 3d 8a 09 ed 3c 6f a3 95 3c
       0.028445875 0.03968993 0.028935213 0.018266408
0000d0 18 7b 6a be 70 c3 60 3e 15 25 56 3d 52 94 df bc
       -0.22898519 0.21949553 0.052281458 -0.027292404
0000e0 4c 43 19 3e e8 57 a2 3d eb 20 6d bc bd 88 42 3e
       0.14967078 0.07926923 -0.01447318 0.18997474
0000f0 c6 5b 1d bb 86 21 cd 3d ab aa 44 be b8 46 b1 bd
       -0.0024011 0.1001616 -0.1920573 -0.08656067
000100 df 63 24 bd 51 ae 11 3e 30 b1 fd bd e8 10 36 bc
       -0.040134307 0.14226653 -0.123873115 -0.011112429
000110 13 74 47 bd 58 03 8d 3b f2 a0 22 3d 46 23 0f 3d
       -0.04869468 0.004303377 0.03970427 0.03494575
000120 cd 10 46 3e 48 ab 2a 3e f5 9d ba bc 5b 2c 52 3d
       0.19342346 0.16666901 -0.022780398 0.051311832
000130 f4 f8 8c bd c7 0f b2 3c fe 52 f7 3b 52 7f 19 bd
       -0.068834215 0.021736039 0.0075477352 -0.037474938
000140 d1 78 99 3c e6 d1 47 be e0 1d b1 3d 12 fc 85 bd
       0.018734368 -0.19513664 0.08648276 -0.06542219
000150 7b 6a 51 3d 93 3f 3f 3d 8e 13 db 3d fc 08 85 bd
       0.05112694 0.04669149 0.10697089 -0.06495854
000160 7b 8c 4d bd 3c 39 89 3d f9 e5 74 bd 9d 98 24 bd
       -0.0501828 0.0670037 -0.05978963 -0.040184606
000170 c6 1f 2e 3e df 8f bc bd 86 ee ba 3d 4a 3e 85 bd
       0.17004308 -0.09207129 0.09127526 -0.06506021
000180 7a 7d a3 bd 2a 30 5d bd 2b b0 6a 3c 17 43 45 3d
       -0.07982917 -0.05400101 0.014324228 0.048159685
000190 b3 51 fe bd 6e 24 be 3d 0a ca 86 3d 76 fd c7 3d
       -0.12417927 0.09284292 0.06581505 0.09765141
0001a0 47 a4 9f 3d 4c 22 c8 3d 00 eb ce 3a 80 73 09 be
       0.07795005 0.097721666 0.0015786588 -0.13422966
0001b0 71 1d ca 3d d5 b9 d1 3c 72 78 e7 bd 0f 39 08 be
       0.09868897 0.025601307 -0.1130227 -0.13303016
0001c0 05 76 61 3b 5b a3 ad bd 73 4f 51 3e 02 3f 2e 3e
       0.003440262 -0.08478423 0.20440464 0.17016223
0001d0 fd ef 9d bd 2a b1 49 be e0 c1 07 bd c9 e7 63 3d
       -0.0771179 -0.19696489 -0.033143878 0.05564097
0001e0 cc 66 08 bd 04 c7 e7 3c 5c d6 92 3d 9d 52 56 3d
       -0.03330116 0.02829314 0.07169792 0.05232488
0001f0 3f 4d 53 bd b5 90 51 bd 39 9f 73 3d da 41 46 3d
       -0.05158734 -0.051163394 0.05947802 0.048402645
000200 5f e3 28 3d 00 98 e0 bc d9 3c 31 bd fa ad 17 3d
       0.041232463 -0.02741623 -0.04327092 0.03703115
000210 a9 f8 a1 bb 28 75 6e 3d c1 31 5f 3d 7a 35 81 3d
       -0.0049429727 0.058217198 0.05449081 0.06309028
000220 e7 db 85 bd 77 2e 0f bd d6 12 2c bd 52 fc 1e 3e
       -0.06536084 -0.03495642 -0.04201015 0.1552594
000230 90 83 c9 3b f9 a7 c5 bd b4 de ca bd 7c 69 44 bc
       0.0061497167 -0.09651179 -0.099057585 -0.01198804
000240 9a b7 d1 3d 1e 6d ca bd 02 44 de bd 33 9c 89 bc
       0.10240097 -0.09884094 -0.10852815 -0.016798114
000250 58 17 f2 3d f7 d2 66 3c 81 2e 83 bd 5c cc 0d 3d
       0.11820859 0.014088384 -0.06405354 0.03461872
000260 97 d4 03 be 7c ad 28 3c a3 90 07 3d 10 43 6b 3d
       -0.12874065 0.010295268 0.03309692 0.057437003
000270 2d 69 2f be 08 2c 82 3c 42 16 13 bd b7 ac 8d bd
       -0.17129965 0.015890136 -0.0359099 -0.06917708
000280 b9 3c 6e 3d 04 74 ee 3d cd fb 4f 3d b8 b4 9d bc
       0.05816338 0.11643222 0.050777245 -0.019251212
000290 88 06 1e 3d 72 1b 24 bd 84 8b 83 3d aa 86 af 3d
       0.038580447 -0.040065236 0.06423095 0.08570607
0002a0 8c 54 79 be 26 98 c0 3c 9e 3e 8b 3d 32 48 c1 bd
       -0.24348658 0.02351005 0.06799053 -0.09437598
0002b0 fc 7c 4f bd ee 69 86 3c b8 cf 51 bd 52 78 f6 bc
       -0.050656304 0.016407933 -0.051223487 -0.03008667
0002c0 60 db fb 3d 24 65 e4 bd 2e c1 76 bd b4 e5 81 3d
       0.12297702 -0.111521035 -0.060242824 0.063426405
0002d0 9e ca 79 3a f0 a3 1b 3d a7 57 12 bd 65 b3 db bd
       0.00095287885 0.03799814 -0.035728123 -0.10727576
0002e0 67 7c 9a bd ef 78 de 3c ce 81 14 bd a8 b6 2f 3d
       -0.07543259 0.027157275 -0.036256604 0.042898804
0002f0 9e b7 65 3c 36 d9 25 be 82 4a 58 bd 04 7b 81 bd
       0.0140208285 -0.1619614 -0.05280543 -0.063222915
000300 42 b7 9c bc 76 e8 74 3d a7 4f 35 3c e1 19 99 3d
       -0.019130353 0.059792005 0.011066354 0.07475639
000310 dc e1 b9 3c 70 b6 bf bd f3 9f 2d bc 1f 75 b1 bd
       0.022690706 -0.09360969 -0.010597217 -0.08664917
000320 a7 d8 3a 3d 8e ab 78 bd 8b 76 77 bc 2c a5 8a 3d
       0.045616772 -0.060710482 -0.015103946 0.06769785
000330 de 2d 8b bc cf 59 8c bd 2b 30 b8 bc 4d 2e 67 bc
       -0.016989645 -0.06853067 -0.022483906 -0.01411016
000340 dc 43 3a bd d6 d3 9c 3d 67 e4 c8 3c a2 2d 79 bd
       -0.045474872 0.07657592 0.024522973 -0.060834534
000350 2a 4f d4 bb d9 b0 78 3c 22 32 80 bd 17 23 2b 3d
       -0.0064791637 0.0151788825 -0.06259562 0.04178151
000360 c9 d6 3e 3d d7 9b bf bd ea 26 ca 3d d3 9b 4a ba
       0.046591554 -0.09355896 0.098707035 -0.0007728908
000370 fe 70 01 3e 41 bd 02 be 04 57 9c bd d9 75 b0 bd
       0.1264076 -0.12767507 -0.076337844 -0.08616228
000380 fd 2a 1d 3e b7 89 02 be ac 20 45 3d 29 64 f8 bd
       0.1534843 -0.12747847 0.04812686 -0.12128479
000390 f3 d7 47 3d 06 56 cf 3d 29 7b 9f bb 8e de 20 3c
       0.04878993 0.101238295 -0.0048669768 0.009818686
0003a0 16 c2 46 bd 6f a8 b6 bd 78 1f c3 bd 27 af 8e 3d
       -0.04852494 -0.08918845 -0.095274866 0.069670014
0003b0 0c af dc bc 99 3a de 3c e6 da 22 bd f2 7e 04 3e
       -0.026938938 0.02712755 -0.03975954 0.12939051
0003c0 ab 7d 19 bd f8 86 de 3d 49 aa 48 bd fc 3e 19 3d
       -0.037473362 0.10865587 -0.04899052 0.037413582
0003d0 84 33 7b bd fe e9 10 bd ba 91 ce bc 78 7e 23 be
       -0.061328426 -0.035379402 -0.025215972 -0.15966213
0003e0 da be 60 bc bb 6e 82 bd e1 ed 11 3d 0b f8 0f 3d
       -0.013717378 -0.063687764 0.03562725 0.03514866
0003f0 2f bd 4b 3e 8b 09 87 3c 5c 4e ef 3c da 3c 45 3e
       0.19896387 0.016484043 0.02921217 0.19261494

model.4.main.1.weight f4 [32]
000000 89 7a 7b 3f 20 bf 82 3f 39 59 80 3f 41 d8 78 3f
       0.9823385 1.0214577 1.0027229 0.9720498
000010 f2 a9 80 3f d2 40 7e 3f 28 64 79 3f b3 40 82 3f
       1.0051863 0.9931766 0.9741845 1.0175995
000020 9e ff 82 3f 40 28 7e 3f 27 7a 80 3f 39 93 82 3f
       1.0234258 0.99280167 1.0037278 1.0201179
000030 c4 82 7e 3f 49 37 7d 3f 4b e4 7d 3f ad 03 7f 3f
       0.9941828 0.98912483 0.9917647 0.99614984
000040 45 ce 7f 3f c0 34 80 3f ba 80 80 3f 14 3c 80 3f
       0.9992412 1.0016098 1.0039284 1.0018334
000050 bb 84 81 3f 39 75 80 3f 4c ba 80 3f f7 4d 7c 3f
       1.0118631 1.0035774 1.0056853 0.98556465
000060 f8 5c 7f 3f 1d d7 7e 3f d4 6d 7f 3f 2e 6b 80 3f
       0.99751234 0.99546987 0.9977696 1.0032709
000070 9c c6 82 3f d3 8a 80 3f f2 b2 80 3f 3f e9 7d 3f
       1.0216861 1.0042366 1.005461 0.9918403

model.4.main.1.bias f4 [32]
000000 ee 0a 5d bc 58 ba 86 3c 15 31 35 3c 76 61 00 bd
       -0.013491375 0.016446277 0.011059065 -0.031342946
000010 0c f5 b7 3c 41 d5 18 3c f7 1a a6 bb d6 d5 29 3c
       0.022455715 0.009328187 -0.0050691324 0.010365924
000020 97 5c 5f 3c 1f b8 ef 3b a3 cc 87 bb 6c 07 1f 3d
       0.013632915 0.00731565 -0.0041442676 0.038825437
000030 8e 63 ae 3b 71 53 e0 3b d5 c0 93 bc e1 1e fb bb
       0.0053219264 0.0068458845 -0.018036285 -0.007663593
000040 a1 52 3a bb 3f 32 aa 3c 34 51 08 3d 1f 5b 5b 3a
       -0.0028430598 0.020775912 0.033280566 0.0008367765
000050 50 04 1d 3c e1 ee 9f 3b 9b 55 75 3c 01 70 30 bc
       0.009583548 0.0048807715 0.014974023 -0.010768891
000060 ce f9 3b 3c 8d 58 4f bb 87 89 59 bc 5e ca 24 3b
       0.011473132 -0.0031638474 -0.013277418 0.0025145034
000070 46 97 d9 b9 41 ad b2 3c 52 74 c7 3a d2 de 3f bb
       -0.00041502173 0.02181113 0.0015217161 -0.0029277098

model.4.main.1.gate f4 [32]
000000 38 d1 86 3f b3 c4 8c 3f c4 11 87 3f 7e 13 7f 3f
       1.0532598 1.0997528 1.0552297 0.9963912
000010 83 56 7f 3f f0 95 95 3f 6c 7b 82 3f be e7 7f 3f
       0.9974138 1.1686382 1.0193915 0.99962986
000020 33 84 87 3f 6e 6d 86 3f ec 5f 87 3f ab 26 7e 3f
       1.0587219 1.0502145 1.0576148 0.9927775
000030 18 be 79 3f 14 4a 88 3f 67 e0 83 3f b5 17 7c 3f
       0.97555685 1.0647607 1.0302857 0.98473674
000040 ec 15 75 3f c3 6b 6d 3f 9d ba 74 3f 28 93 8d 3f
       0.95736575 0.92742556 0.9559725 1.1060534
000050 08 19 7f 3f 9b 0c 7a 3f 95 11 80 3f 19 63 6a 3f
       0.9964757 0.97675484 1.0005366 0.9155746
000060 10 ec 83 3f db 22 82 3f 99 69 84 3f 2b 36 83 3f
       1.0306416 1.0166887 1.0344726 1.0250906
000070 28 dd 7b 3f ba fb 56 3f de ea 71 3f c0 7e 81 3f
       0.9838433 0.83977854 0.94499004 1.0116806

model.4.main.1.running_mean f4 [32]
000000 2f f9 b8 be 44 61 fa be 39 f1 06 bf 55 e8 47 bc
       -0.36127612 -0.48902333 -0.52711827 -0.012201388
000010 b6 83 54 be 87 80 ff bd 36 52 1f 3f 31 b1 f3 be
       -0.20753369 -0.124756865 0.6223482 -0.47596124
000020 20 7e 59 be 1c ee bd bd 0a f3 0e 3f a5 77 ae 3d
       -0.21239519 -0.092739314 0.558396 0.08518914
000030 42 47 27 bf d7 f0 9e be ff 86 8a 3e c8 05 45 bf
       -0.65343106 -0.3104312 0.2705612 -0.76961946
000040 0c 5c 5f bf 1d ec 0c bf 43 3f 8d bb f0 df b2 3d
       -0.8724983 -0.5504778 -0.00431052 0.08734119
000050 d9 85 ba be d4 42 4f 3d 73 b4 f5 3d 15 6c 1a 3e
       -0.36430243 0.05060084 0.119973086 0.15080293
000060 da d1 59 3e 13 ce 03 3f 0e 2e ec 3e 4d 78 6f be
       0.21271458 0.5148632 0.46128887 -0.23385735
000070 59 08 75 bd cb 7c 15 3f 98 24 a0 be d7 b9 d4 3e
       -0.059822414 0.58393544 -0.3127792 0.41548035

model.4.main.1.running_var f4 [32]
000000 03 ff 91 40 37 da 91 40 52 1c 82 40 2d d3 6b 40
       4.5623794 4.5578876 4.065957 3.6847641
000010 e1 4d e1 40 2b 85 8b 40 32 da 30 40 d2 06 1b 41
       7.0407567 4.360006 2.7633176 9.689165
000020 76 1e 52 40 3c 84 4b 40 34 c1 c0 40 03 d7 4a 40
       3.2831092 3.179946 6.0235844 3.1693733
000030 d2 d0 36 40 46 bc 95 40 fc d4 1d 40 ff cf e6 3f
       2.8564954 4.6792326 2.4661245 1.8032225
000040 59 c4 79 40 9a f0 5f 40 8a ac c6 40 39 8e 4a 40
       3.902609 3.4990602 6.208562 3.1649306
000050 1f 56 fc 40 c4 71 0f 40 b1 e0 70 40 c4 b1 80 40
       7.885513 2.2413187 3.763714 4.0217
000060 fa 92 76 40 a1 41 57 40 e7 c9 18 40 da 8e c2 40
       3.8527207 3.3633807 2.3873231 6.079938
000070 9c 5c 9b 40 28 6e ae 40 35 67 17 40 43 f3 96 40
       4.855055 5.450947 2.3656743 4.717195
