checkpoint/clf/experiment_name/300/netG.pth (torch, 244594 bytes, 32 tensors)

model.0.bias f4 [32]
-0.016517773 -0.008912698 0.017062848 0.0580684 -0.02955952 0.058424357 0.019566687 -0.007507514
-0.057519287 0.04957752 0.0060967593 -0.033281337 0.04254041 0.035136733 0.0056032836 0.010692976
-0.026093712 0.018496387 -0.047544856 -0.041475788 0.09739343 -0.019666811 0.034912374 -0.016395804
-0.0066525554 -0.044417825 -0.059775475 -0.048807546 0.047414746 0.054148965 0.026793985 -0.011260613
00000000: 4850 87bc 9106 12bc 63c7 8b3c 21d9 6d3d
00000010: ce26 f2bc 614e 6f3d 514a a03c 9801 f6bb
00000020: 5899 6bbd cc11 4b3d 53c7 c73b 0352 08bd
00000030: da3e 2e3d 89eb 0f3d c09b b73b 9831 2f3c
00000040: 7bc2 d5bc bc85 973c 65be 42bd 84e2 29bd
00000050: 3576 c73d 4b1c a1bc 4700 0f3d 7e50 86bc
00000060: aefd d9bb 77ef 35bd 21d7 74bd 6cea 47bd
00000070: f735 423d 4ecb 5d3d 0f7f db3c 6f7e 38bc

model.0.weight_orig f4 [64, 32, 3, 3]
-0.006501118 -0.0074191117 0.006906333 0.012402802 0.04385562 -0.036671124 0.0051242798 0.043182075
0.014706215 0.028657978 0.0638044 -0.033602074 0.015457069 0.04162166 -0.029722778 0.005089367
0.0034473394 -0.044103697 0.05686123 -0.014215386 0.003632321 -0.037290197 -0.0013229433 -0.006900384
-0.0291403 -0.048654873 -0.025017424 -0.015810626 0.015836695 0.04893491 0.055792753 0.076787174
-0.0008962846 0.041571997 -0.02495082 0.057589605 -0.024827754 -0.06464623 -0.055708136 -0.051143922
-0.0015603626 0.022749646 -0.042011444 -0.050844315 -0.0605923 -0.016852472 0.031080276 0.0041138045
-0.017995901 -0.008801579 -0.043274734 -0.012578437 0.039812934 -0.057246663 -0.00810937 -0.034058757
-0.057831235 0.0041511944 -0.026272446 0.052142758 0.031081822 -0.034084592 -0.013823715 0.042705376
-0.029934922 -0.0017307726 -0.0065325913 0.02686132 -0.052404765 -0.023355003 -0.039360113 -0.04290967
-0.046648394 0.03215519 0.037764236 -0.047972117 0.003884564 -0.028658574 0.037084036 -0.040573146
0.05200798 -0.0049722227 0.055921163 -0.019247377 0.025405202 -0.016846512 0.014517986 0.0637094
-0.011065896 -0.048748378 0.0037061633 -0.053683203 0.039966565 -0.03484633 0.029565433 -0.0034854603
-0.0150795225 0.047172356 -0.042848613 -0.052135587 0.03770871 0.003425887 -0.049775645 -0.011487497
0.029419392 0.018620592 -0.013413364 0.011332349 0.008829546 0.044518992 -0.013046674 0.059339155
0.07200467 -0.026523966 -0.0059486767 0.0047101374 -0.03667534 -0.00088682637 -0.02964112 0.00053799106
0.028679661 0.0047076433 -0.04864494 0.02782253 -0.053650137 -0.02466543 0.018621184 -0.00219351
0.034591395 -0.015290854 0.018883297 0.037514232 -0.037206598 0.057270322 -0.037333895 0.029392822
0.02741452 0.050034683 0.04873742 -0.048274267 0.018828865 -0.03161115 -0.0460823 -0.024151621
0.037892744 -0.051577408 -0.039343234 0.012259349 -0.056992102 0.039224274 0.042472206 -0.03453093
0.031919204 0.0484466 0.0014691716 0.021643966 0.050993577 0.006908655 -0.01305966 0.05038052
0.050751224 -0.022503264 0.04946376 -0.04565008 0.018482797 0.002061598 0.01838632 -0.058282826
0.03303376 0.04008912 0.024733836 0.029562298 -0.02989198 0.024721444 -0.019635763 0.0066289795
0.059034575 0.007040861 0.014648875 0.024875162 0.031433284 -0.013055672 -0.0380845 0.054433357
-0.01798737 0.05658795 0.05596194 -0.009766238 0.023584139 -0.020347636 0.053275872 -0.035308678
-0.048858136 0.020016557 -0.009570749 0.051894717 0.0036682854 -0.05359227 0.0022983414 -0.06011187
0.0056629456 0.028311532 0.042842656 -0.030637005 -0.048787836 -0.04660752 -0.034854166 0.003400817
0.018521974 -0.018948624 -0.047111347 0.008055287 0.014995248 -0.010028617 -0.056848213 -0.045757238
-0.028055033 -0.0074914405 0.014467464 -0.047829147 0.044764422 0.023247367 -0.034667153 -0.0034201187
0.05578027 -0.0014032222 0.0150403045 -0.04170632 -0.047608532 0.004480087 0.035314225 0.050733794
0.05704015 0.032971118 0.03735879 -0.016016757 -0.014123455 0.037440915 -0.032486185 -0.037329316
0.02710317 -0.0012258888 0.022591712 -0.042801764 0.060706977 -0.029177705 0.0068201562 -0.006980117
-0.025804298 0.05947952 0.033407945 0.023237644 0.034869753 0.027077148 -0.025211366 -0.048363734
00000000: 5507 d5bb 051c f3bb 854e e23b 1f35 4b3c
00000010: f3a1 333d 7634 16bd 93e9 a73b b0df 303d
00000020: 56f2 703c 23c4 ea3c e2ab 823d 54a2 09bd
00000030: a53f 7d3c 797b 2a3d 2f7d f3bc b4c4 a63b
00000040: c2ec 613b 14a6 34bd 52e7 683d a6e7 68bc
00000050: 3c0c 6e3b 9bbd 18bd 9c66 adba 9e1c e2bb
00000060: a3b7 eebc 554a 47bd 57f1 ccbc 4985 81bc
00000070: f5bb 813c f96f 483d f186 643d 9842 9d3d
00000080: a4f4 6aba 6647 2a3d a965 ccbc 14e3 6b3d
00000090: 9363 cbbc 3e65 84bd 372e 64bd 4a7c 51bd
000000a0: 1585 ccba 775d ba3c 3114 2cbd 2142 50bd
000000b0: a22f 78bd 320e 8abc 109c fe3c 18cd 863b
000000c0: 246c 93bc 7f34 10bc d940 31bd ca15 4ebc
000000d0: e312 233d 7a7b 6abd 2add 04bc 3281 0bbd
000000e0: 72e0 6cbd be06 883b 5039 d7bc a593 553d
000000f0: 4e9f fe3c 499c 0bbd dd7c 62bc d5eb 2e3d
00000100: 153a f5bc 17db e2ba 590f d6bb 450c dc3c
00000110: 61a6 56bd fe52 bfbc 1238 21bd 0dc2 2fbd
00000120: 6312 3fbd 29b5 033d acae 1a3d 697e 44bd
00000130: 2b94 7e3b 63c5 eabc 6ee5 173d 0730 26bd
00000140: 5206 553d 07ee a2bb 970d 653d adac 9dbc
00000150: 921e d03c b201 8abc d9dc 6d3c 137a 823d
00000160: bb4d 35bc 61ac 47bd 1ae3 723b ebe2 5bbd
00000170: fbb3 233d 06bb 0ebd 3533 f23c 526c 64bb
00000180: 1a10 77bc cd37 413d 0782 2fbd 208c 55bd
00000190: 7374 1a3d d984 603b 8ce1 4bbd 0e36 3cbc
000001a0: f000 f13c 368a 983c bac3 5bbc 51ab 393c
000001b0: cda9 103c 8c59 363d b8c1 55bc 9d0d 733d
000001c0: 2f77 933d ca48 d9bc 1eed c2bb 7f57 9a3b
000001d0: e238 16bd e979 68ba efd1 f2bc f807 0d3a
000001e0: 9cf1 ea3c 9342 9a3b eb3f 47bd 13ec e33c
000001f0: 3fc0 5bbd 280f cabc 748b 983c fec0 0fbb
00000200: b5af 0d3d 7d86 7abc 25b1 9a3c 86a8 193d
00000210: f265 18bd 4994 6a3d 6deb 18bd 37c9 f03c
00000220: 6a94 e03c 2bf1 4c3d e4a0 473d 3dbb 45bd
00000230: fe3e 9a3c b17a 01bd cbc0 3cbd 9fd9 c5bc
00000240: 6c35 1b3d d542 53bd 5f26 21bd 70db 483c
00000250: 8d70 69bd a2a9 203d 56f7 2d3d 4e70 0dbd
00000260: b6bd 023d f16f 463d 3891 c03a b04e b13c
00000270: a4de 503d 0062 e23b 2ff8 55bc ce5b 4e3d
00000280: 84e0 4f3d c458 b8bc 839a 4a3d 94fb 3abd
00000290: 3c69 973c e01b 073b e89e 963c f9b9 6ebd
000002a0: 684e 073d 7d34 243d 9d9e ca3c a22c f23c
000002b0: 07e0 f4bc a084 ca3c 2edb a0bc e937 d93b
000002c0: 3dce 713d 06b7 e63b d601 703c ffc6 cb3c
000002d0: 30c0 003d 75e7 55bc 7efe 1bbd 83f5 5e3d
000002e0: 405a 93bc c4c8 673d 5938 653d 9202 20bc
000002f0: 8633 c13c 16b0 a6bc cd37 5a3d d59f 10bd
00000300: 781f 48bd c3f9 a33c a1ce 1cbc 8e8f 543d
00000310: 9e67 703b 9183 5bbd c59f 163b dd37 76bd
00000320: 3b90 b93b 96ed e73c c87b 2f3d 75fa fabc
00000330: c1d5 47bd 87e7 3ebd 3ec3 0ebd 3ee0 5e3b
00000340: 65bb 973c 253a 9bbc d4f7 40bd 53fa 033c
00000350: a1ae 753c 124f 24bc acd9 68bd f16b 3bbd
00000360: abd3 e5bc c27a f5bb f108 6d3c 7fe8 43bd
00000370: e65a 373d 4371 be3c 25ff 0dbd 1224 60bb
00000380: da79 643d 53ec b7ba 9c6b 763c 3fd4 2abd
00000390: 2a01 43bd b2cd 923b a6a5 103d 3dce 4f3d
000003a0: efa2 693d b90c 073d 8805 193d 9335 83bc
000003b0: 1066 67bc a55b 193d 3c10 05bd a0e6 18bd
000003c0: 7807 de3c 01ae a0ba 4112 b93c e750 2fbd
000003d0: e1a7 783d 1506 efbc 9e7b df3b 77b9 e4bb
000003e0: 8963 d3bc cca0 733d c5d6 083d df5c be3c
000003f0: 96d3 0e3d e5d0 dd3c 1188 cebc 0d19 46bd

model.0.weight_u f4 [32]
0.091719694 0.27679318 0.10125917 0.35287827 -0.0037804162 0.006412531 0.016674181 -0.047712248
-0.07069759 0.25333673 -0.040824573 0.0017388415 0.11921222 -0.047989603 0.06525337 -0.035817467
-0.053555988 0.23023854 -0.04106578 -0.04727074 0.75042397 0.04646621 -0.06802114 -0.0404097
0.037850697 0.04742181 -0.048988182 0.07829894 -0.009228094 0.14456946 0.06807781 0.12449005
00000000: 89d7 bb3d d6b7 8d3e f860 cf3d 76ac b43e
00000010: dcc0 77bb 3520 d23b 4b98 883c eb6d 43bd
00000020: e6c9 90bd 5ab5 813e ab37 27bd d7e9 e33a
00000030: 8925 f43d bf90 44bd 8fa3 853d 56b5 12bd
00000040: 865d 5bbd a7c3 6b3e 9734 28bd f79e 41bd
00000050: c91b 403f 5a53 3e3d ab4e 8bbd a484 25bd
00000060: 5509 1b3d 5f3d 423d d5a7 48bd 325b a03d
00000070: 6e31 17bc 040a 143e 616c 8b3d a4f4 fe3d

model.0.weight_v f4 [576]
0.029725768 0.053021234 -0.024287347 0.072520986 0.032841977 0.03472894 0.081814654 0.013271323
0.0024901086 0.0051098545 0.0315841 0.09753472 0.04699578 0.073047265 0.10054437 0.058730308
0.071803965 0.061260793 -0.0039726403 0.024867432 0.069549434 0.026059855 0.028848074 0.030419752
0.035684526 0.0738416 0.08169184 0.0397507 0.03002637 0.016678855 0.030602027 0.045255184
0.0029751447 0.045434684 0.088771716 0.014397919 0.037247602 0.053087495 0.062165763 0.032230586
0.053459868 0.08247189 -0.01065933 0.050472345 0.041356295 0.040209226 0.06985706 0.000696937
0.0319046 0.066612884 0.030381989 0.014697413 0.046330586 0.02709045 0.040173423 0.047322504
0.08368987 0.063622095 0.057626918 0.043950725 0.076996475 0.043820232 0.046617057 0.004785267
0.054094616 -0.0023902638 0.040821306 0.042198654 -0.008797863 0.043884013 -0.0012758704 -0.008846555
0.02586013 0.058585312 0.0942412 0.114804424 0.08112598 0.105147675 0.043252505 0.03647691
0.02749315 0.01445124 0.06738326 0.040665064 0.02701625 0.08526753 -0.0010238444 0.017694267
-0.01702577 0.0082972655 0.0017618461 0.01633298 0.003040613 0.03160618 0.025710955 -0.005353785
0.043490715 0.03198528 0.0044873175 0.017674636 0.032590594 -0.010279363 -0.01322545 -0.012722103
-0.011639407 0.01809272 -0.011747988 -0.0005096576 -0.00019000286 0.00028565832 0.03175462 0.013171486
0.06168045 0.056558933 0.013229395 0.022027016 0.086614855 0.028870974 -0.021838935 0.040731404
0.015819043 -0.0009539544 0.02958137 0.013318805 -0.008382132 0.06818769 0.051186454 0.09131357
0.032989625 0.015804576 0.018171782 0.07424936 0.076716736 0.078486286 0.03734184 0.06322576
0.07338481 0.015415078 0.047011703 0.06799508 0.036180638 0.06263168 0.05581829 0.013019698
0.0513223 0.0015948388 0.06818915 -0.04534753 0.005636104 0.05309398 -0.005659685 0.064066984
0.056949966 0.042318214 0.031724017 0.048424534 0.004184107 0.05618466 0.036821183 0.024797225
0.038121894 0.020265391 0.08780397 0.028475545 0.025313811 0.08024609 0.049228843 0.068568744
0.0486215 0.06670854 0.052871864 0.048623785 -0.009819945 0.040684234 -0.009295442 0.026985187
0.01418857 0.050740313 0.026144011 0.04319884 0.027100008 0.06957265 0.08933984 0.095088035
0.015364265 0.080138065 0.09515013 0.041839976 0.06812106 0.05900039 0.027996836 0.023598269
0.0015901336 0.022422746 0.007751832 0.007531091 0.02518214 0.039711762 -0.0024136489 0.047095045
-0.022412837 -0.012164813 0.010290802 0.0009783793 0.021841483 0.048835304 0.0016910232 -0.00896407
0.027246535 0.029959746 0.042377416 0.015635237 -0.01510896 0.04943005 0.015841767 0.02961156
0.030476108 0.04313455 0.01032259 0.006882532 -0.012971996 0.03201217 0.022191543 0.007291607
0.033960037 0.00013831157 -0.012968838 0.0028645329 0.034913156 0.056695025 0.044260073 -0.00049550727
-0.013805592 -0.00455443 0.050220173 0.09157098 0.060348444 0.062807105 0.08353609 0.020222574
-0.019811727 0.08358356 0.018901767 0.017313188 0.037528507 0.035782196 0.07453266 0.054178182
0.07274719 0.062010106 0.020925127 0.029413892 0.063888416 0.033088215 0.032789122 0.055603754
00000000: 7483 f33c cb2c 593d 42f6 c6bc e285 943d
00000010: 4f85 063d ef3f 0e3d 718e a73d f76f 593c
00000020: 1731 233b 9170 a73b 545e 013d 49c0 c73d
00000030: a67e 403d ce99 953d 35ea cd3d 318f 703d
00000040: f50d 933d 99ec 7a3d ec2c 82bb c9b6 cb3c
00000050: ef6f 8e3d 7a7b d53c cc52 ec3c d832 f93c
00000060: f029 123d 443a 973d 0d4e a73d a1d1 223d
00000070: ddf9 f53c 18a2 883c 1ab1 fa3c 805d 393d
00000080: a5fa 423b b819 3a3d f2cd b53d 40e5 6b3c
00000090: f190 183d 4672 593d 87a1 7e3d 3804 043d
000000a0: bcf8 5a3d 06e7 a83d 78a4 2ebc 17bc 4e3d
000000b0: 3865 293d 6eb2 243d 3811 8f3d a6b2 363a
000000c0: 66ae 023d 566c 883d a6e3 f83c 6bcd 703c
000000d0: 24c5 3d3d cbec dd3c e38c 243d 3ed5 413d
000000e0: 9865 ab3d 4d4c 823d 340a 6c3d ad05 343d
000000f0: 54b0 9d3d d87c 333d 87f1 3e3d bbcd 9c3b
00000100: 5192 5d3d f9a5 1cbb 3e34 273d 7fd8 2c3d
00000110: e924 10bc b9bf 333d 1b3b a7ba 24f1 10bc
00000120: a0d8 d33c 27f7 6f3d 8801 c13d 951e eb3d
00000130: 6125 a63d aa57 d73d 8a29 313d d068 153d
00000140: 5139 e13c e5c4 6c3c 3c00 8a3d 6990 263d
00000150: 2f51 dd3c bea0 ae3d 8432 86ba 91f3 903c
00000160: a179 8bbc 41f1 073c bfed e63a becc 853c
00000170: 0545 473b 7b75 013d c89f d23c ce6e afbb
00000180: 5223 323d ff02 033d 590a 933b 66ca 903c
00000190: b77d 053d c66a 28bc 8faf 58bc 5e70 50bc
000001a0: 36b3 3ebc 2f37 943c a27a 40bc 8b9a 05ba
000001b0: 813b 47b9 69c4 9539 2211 023d 37cd 573c
000001c0: a4a4 7c3d 57aa 673d 1bc0 583c 0072 b43c
000001d0: 2163 b13d d282 ec3c 91e7 b2bc f9d5 263d
000001e0: f096 813c cc12 7aba a154 f23c 1e37 5a3c
000001f0: 3655 09bc fda5 8b3d e3a8 513d 9c02 bb3d
00000200: 2120 073d 9978 813c fddc 943c 0c10 983d
00000210: aa1d 9d3d 6bbd a03d c2f3 183d 827c 813d
00000220: c64a 963d 868f 7c3c 588f 403d 0141 8b3d
00000230: 2632 143d 0a45 803d b8a1 643d 9250 553c
00000240: 5537 523d e909 d13a c1a6 8b3d 55be 39bd
00000250: 11af b83b 1379 593d e174 b9bb 8d35 833d
00000260: 5e44 693d dd55 2d3d 0bf1 013d ce58 463d
00000270: d51a 893b e321 663d cfd1 163d 8d23 cb3c
00000280: b425 1c3d 9b03 a63c 91d2 b33d 8c45 e93c
00000290: e95e cf3c 1058 a43d 2fa4 493d c56d 8c3d
000002a0: 5727 473d 7d9e 883d 2b90 583d bc29 473d
000002b0: d6e3 20bc 83a4 263d e94b 18bc 0a10 dd3c
000002c0: 2d77 683c 13d5 4f3d f72b d63c 44f1 303d
000002d0: d600 de3c 1b7c 8e3d cef7 b63d 84bd c23d
000002e0: 66ba 7b3c 6d1f a43d 12de c23d 6560 2b3d
000002f0: 0e83 8b3d 65aa 713d 9f59 e53c 2851 c13c
00000300: 086c d03a e8af b73c 1403 fe3b 5fc7 f63b
00000310: c64a ce3c cda8 223d 4f2e 1ebb bce6 403d
00000320: 209b b7bc ec4e 47bc c19a 283c f63c 803a
00000330: e9ec b23c 8707 483d 53a5 dd3a 09de 12bc
00000340: 2034 df3c 246e f53c f193 2d3d 7815 803c
00000350: 928b 77bc 2a77 4a3d 98c6 813c f193 f23c
00000360: 08a9 f93c dbad 303d 1520 293c dd86 e13b
00000370: 7f88 54bc 311f 033d 0acb b53c 6fee ee3b
00000380: ae19 0b3d bb07 1139 407b 54bc e3ba 3b3b
00000390: 1901 0f3d 0b39 683d 0d4a 353d eee4 01ba
000003a0: da30 62bc 543d 95bb abb3 4d3d 9189 bb3d
000003b0: ee2f 773d 03a1 803d f814 ab3d d0a9 a53c
000003c0: 344c a2bc dc2d ab3d e1d7 9a3c 63d4 8d3c
000003d0: 7eb7 193d 5a90 123d 94a4 983d f1e9 5d3d
000003e0: 7bfc 943d 4ffe 7d3d 2c6b ab3c 67f5 f03c
000003f0: eed7 823d 8287 073d e34d 063d c3c0 633d

model.2.main.0.weight f4 [32, 32, 3, 3]
0.16623423 0.053960897 0.09213912 -0.050534498 -0.04133176 0.057729 0.005923505 -0.107469335
0.10041378 0.0071823583 0.08160042 0.100235574 0.0611304 0.14383738 -0.013883737 0.20074916
-0.016316254 0.03811227 0.18006758 0.026820628 -0.003693601 -0.042991 0.08151732 -0.0018642313
-0.10102222 -0.15679991 0.06256267 -0.06224237 -0.18923903 -0.01230442 0.13861452 0.05561653
0.0036032605 0.08714776 -0.031860743 -0.13108061 -0.09805425 -0.016822398 0.11581222 -0.06619598
0.0015104176 0.023542838 -0.16714966 0.14861974 -0.024531992 0.053282935 -0.10896533 -0.025503213
0.03540323 -0.046185993 0.17530535 -0.19505806 0.01629307 -0.038206447 0.031788442 -0.12694092
-0.100660324 -0.02912377 -0.1260872 -0.11488429 -0.0068948544 -0.0025250677 0.0061949845 0.028267475
-0.19090979 -0.041955706 0.05573846 -0.13787457 -0.059176102 -0.030942367 0.03828449 0.008356186
-0.015285806 0.038539477 0.11174558 0.042353712 0.10175577 -0.049452096 -0.02022889 -0.043393563
0.12896857 -0.102693304 -0.0019775317 -0.059638772 -0.004743551 -0.05700946 0.091439486 0.016986586
0.057225343 -0.0575666 0.025823144 0.011443834 -0.09271477 -0.069029 -0.11356485 0.16688274
0.023323834 -0.12942867 -0.08600987 -0.059668884 -0.074344404 0.054584555 -0.106938615 0.09276838
0.036253046 0.28324237 0.038655818 0.0997711 -0.018478425 0.007454302 -0.011155954 -0.057971183
0.039795313 -0.04322269 -0.18227737 0.08915462 -0.020969808 -0.026823033 0.044643972 -0.02836318
0.12663685 0.1425563 0.0016486 0.16341026 -0.1321426 -0.03362716 0.011953082 -0.018113207
0.06250944 0.071720526 0.066999555 -0.010875645 0.019018533 0.054989975 0.07095583 0.22681482
0.16359046 -0.06588762 -0.11847246 0.06483285 0.026584301 0.047493376 0.013142936 0.018646862
0.017474264 -0.0655984 -0.0102234185 0.002544302 -0.008749222 0.0118955225 0.06515657 -0.17100419
0.036561854 0.069276474 -0.061501957 0.07568147 0.04032843 0.0051244237 0.021438139 -0.13664053
-0.09147368 -0.04933953 0.000593644 -0.018825231 0.023206294 0.04214463 0.07927736 0.0067866934
-0.1489445 -0.040967107 0.010664203 -0.028878102 -0.021624338 -0.0323018 0.07334184 -0.08976702
-0.0023645859 0.03200665 0.12490995 0.07780494 0.1574169 -0.036977522 0.007231849 0.09624174
-0.00962379 -0.03098317 -0.022566961 0.103098676 0.13096516 -0.09408692 0.011250717 0.03077571
0.07298473 -0.03388499 -0.0169053 0.036392678 -0.0659024 0.13775083 0.10185504 -0.054037802
-0.050759647 -0.022866676 -0.033280548 -0.08397322 0.02526652 -0.09119087 -0.056129508 0.13619104
-0.011770912 -0.041840985 -0.020218302 -0.034478825 -0.046014234 -0.02460201 0.019184256 -0.06046565
-0.13752584 0.102432355 -0.16226074 -0.13246869 0.04509893 0.17871106 0.0069808555 -0.017952723
-0.00020925117 -0.09383986 0.021418588 -0.04641433 -0.12520841 -0.046734136 0.02411666 0.08065895
-0.094078936 -0.0069918437 -0.1694531 0.05646886 -0.024372999 0.0018914761 0.062066186 0.022187654
-0.069764875 -0.017777488 -0.07673093 0.03956776 0.13098387 0.046596285 -0.0016880742 0.010288912
0.03224315 0.019848011 -0.0018150711 -0.007047772 0.046795372 0.024987573 -0.16367404 -0.06543304
00000000: 4e39 2a3e 1a06 5d3d 6fb3 bc3d 43fd 4ebd
00000010: 7e4b 29bd 3e75 6c3d f619 c23b e218 dcbd
00000020: bda5 cd3d fd59 eb3b 1f1e a73d 4f48 cd3d
00000030: df63 7a3d 1b4a 133e 9d78 63bc 3091 4d3e
00000040: aaa9 85bc 9d1b 1c3d a363 383e efb6 db3c
00000050: 5710 72bb 5517 30bd 8df2 a63d 3959 f4ba
00000060: bde4 cebd 2890 20be db20 803d dbf1 7ebd
00000070: e0c7 41be 7a98 49bc f7f0 0d3e 29ce 633d
00000080: ae24 6c3b 867a b23d 6980 02bd ff39 06be
00000090: abd0 c8bd 20cf 89bc f52e ed3d c291 87bd
000000a0: 34f9 c53a e9dc c03c 4829 2bbe c62f 183e
000000b0: 51f7 c8bc 353f 5a3d 3729 dfbd 1dec d0bc
000000c0: fa02 113d 862d 3dbd 3f83 333e 4dbd 47be
000000d0: 0b79 853c 5d7e 1cbd 9934 023d cdfc 01be
000000e0: 0027 cebd f994 eebc 011d 01be 7448 ebbd
000000f0: 3bee e1bb 9b7b 25bb 4cff ca3b 3191 e73c
00000100: db7d 43be bfd9 2bbd 034e 643d fe2e 0dbe
00000110: a462 72bd d97a fdbc 33d0 1c3d 62e8 083c
00000120: 5171 7abc 92db 1d3d deda e43d 167b 2d3d
00000130: 5465 d03d 488e 4abd 0fb7 a5bc 73bd 31bd
00000140: 5610 043e de50 d2bd 7a99 01bb c947 74bd
00000150: ca6f 9bbb c082 69bd a044 bb3d 7427 8b3c
00000160: 1f65 6a3d f5ca 6bbd 0f8b d33c eb7e 3b3c
00000170: 3ee1 bdbd 145f 8dbd b094 e8bd 4fe3 2a3e
00000180: a011 bf3c f388 04be f125 b0bd 5c67 74bd
00000190: e141 98bd 0e94 5f3d a202 dbbd 59fd bd3d
000001a0: 137e 143d 2505 913e 9055 1e3d ca54 cc3d
000001b0: 1160 97bc 3843 f43b 76c7 36bc 3173 6dbd
000001c0: 6900 233d 460a 31bd eba6 3abe b396 b63d
000001d0: e0c8 abbc fabb dbbc 99dc 363d e659 e8bc
000001e0: 17ad 013e 47fa 113e d615 d83a 0555 273e
000001f0: 6450 07be a2bc 09bd dcd6 433c 2662 94bc
00000200: f304 803d 36e2 923d 1037 893d c32f 32bc
00000210: c1cc 9b3c 2b3d 613d 4a51 913d 2542 683e
00000220: 4284 273e 17f0 86bd b0a1 f2bd 16c7 843d
00000230: 52c7 d93c 6a88 423d 7855 573c 4ec1 983c
00000240: 3026 8f3c 7458 86bd 2080 27bc 4ebe 263b
00000250: e658 0fbc 70e5 423c cf70 853d b91b 2fbe
00000260: e2c1 153d d3e0 8d3d 7ae9 7bbd e3fe 9a3d
00000270: 6c2f 253d c8ea a73b 099f af3c 7feb 0bbe
00000280: 8e56 bbbd 3f18 4abd c69e 1b3a 5f37 9abc
00000290: 201b be3c d99f 2c3d 2b5c a23d e962 de3b
000002a0: e884 18be 20cd 27bd e9b8 2e3c c591 ecbc
000002b0: 8625 b1bc e44e 04bd 3f34 963d c5d7 b7bd
000002c0: 2bf7 1abb 6819 033d cad0 ff3d 3258 9f3d
000002d0: e531 213e be75 17bd 25f9 ec3b 641a c53d
000002e0: 1aad 1dbc 6bd0 fdbc 59de b8bc 6625 d33d
000002f0: bb1b 063e a5b0 c0bd ed54 383c 571d fc3c
00000300: 0579 953d fdca 0abd fc7c 8abc 7d10 153d
00000310: d6f7 86bd 8e0e 0d3e 6099 d03d be56 5dbd
00000320: 59e9 4fbd e552 bbbc 2f51 08bd 27fa abbd
00000330: bcfb ce3c 47c2 babd 0ee8 65bd aa75 0b3e
00000340: c9da 40bc 7461 2bbd daa0 a5bc ab39 0dbd
00000350: 6c79 3cbd 288a c9bc 4d28 9d3c d4aa 77bd
00000360: 93d3 0cbe 0ec8 d13d ae27 26be dfa5 07be
00000370: a8b9 383d 0800 373e a9bf e43b 9711 93bc
00000380: 6f6a 5bb9 1d2f c0bd 0976 af3c f41c 3ebd
00000390: a236 00be 4b6c 3fbd 4d90 c53c 8530 a53d
000003a0: 75ac c0bd d61b e5bb 1d85 2dbe e44b 673d
000003b0: e2a9 c7bc 68eb f73a 1d39 7e3d e2c2 b53c
000003c0: e3e0 8ebd 18a2 91bc 1b25 9dbd ce11 223d
000003d0: a320 063e bfdb 3e3d 5f42 ddba d392 283c
000003e0: 6511 043d 4c98 a23c aee7 edba fff0 e6bb
000003f0: 81ac 3f3d bdb2 cc3c 2b9a 27be c201 86bd

model.2.main.1.weight f4 [32]
0.9951586 1.0128344 0.9862983 0.99598074 0.9944051 0.99241275 1.0288734 1.0059313
1.0300288 1.0040895 1.000629 0.9889123 0.99332035 1.0282258 1.0185674 0.9992488
1.0206939 0.986092 0.99807465 0.9981458 1.0318724 0.9929018 0.999674 0.99905926
0.99821955 0.9848222 0.9893764 0.99794126 0.9990132 0.99081266 1.0006295 1.0018706
00000000: b7c2 7e3f 8fa4 813f 0c7e 7c3f 98f8 7e3f
00000010: 5591 7e3f c30e 7e3f 20b2 833f 5bc2 803f
00000020: fcd7 833f 0186 803f 9c14 803f 5b29 7d3f
00000030: 3e4a 7e3f e79c 833f 6b60 823f c5ce 7f3f
00000040: 19a6 823f 8670 7c3f d281 7f3f 7c86 7f3f
00000050: 6514 843f d02e 7e3f a3ea 7f3f 59c2 7f3f
00000060: 518b 7f3f 4f1d 7c3f c647 7d3f 1479 7f3f
00000070: 54bf 7f3f e6a5 7d3f a114 803f 4c3d 803f

model.2.main.1.bias f4 [32]
0.0030165042 0.00165725 0.002467291 -0.0019011857 0.015352151 -0.006457176 -0.0075812964 0.013947298
0.0046913787 -0.02859337 0.0067428052 -0.0100471005 -0.0054816892 -0.0040412736 0.021264413 -0.010735714
0.013357515 0.003882689 0.002274775 0.001978439 0.0020640534 0.0032647618 0.002601001 -0.000555186
0.009026906 -0.010087945 -0.022500109 -0.0022186502 -0.002632397 -0.0035173811 0.039399933 -0.006273096
00000000: 8bb0 453b 1538 d93a 46b2 213b 3531 f9ba
00000010: 9787 7b3c b896 d3bb 866c f8bb 3583 643c
00000020: 23ba 993b a53c eabc c0f2 dc3b 989c 24bc
00000030: be9f b3bb a96c 84bb b532 ae3c d9e4 2fbc
00000040: 7bd9 5a3c b674 7e3b 6414 153b b3a8 013b
00000050: 1245 073b 9df5 553b 8e75 2a3b e789 11ba
00000060: 97e5 133c e847 25bc 2652 b8bc c666 11bb
00000070: 4b84 2cbb dd83 66bb d361 213d 8b8e cdbb

model.2.main.1.gate f4 [32]
0.99989414 1.0643531 1.0533198 0.9952717 1.0203785 0.9951707 1.0354393 0.9987444
1.0526683 1.0377582 0.99911684 1.0194411 1.0434458 0.9616988 1.0306927 1.0213944
1.04928 1.0291144 1.0386891 1.0199033 1.0414053 1.0371311 1.0197179 0.9287818
0.9510888 1.0316948 1.0678765 1.0587212 1.0058476 0.98600143 1.0052308 1.0092272
00000000: 10f9 7f3f b93c 883f 2fd3 863f 20ca 7e3f
00000010: c39b 823f 82c3 7e3f 4689 843f b7ad 7f3f
00000020: d6bd 863f 43d5 843f 1fc6 7f3f 0c7d 823f
00000030: a28f 853f e431 763f bded 833f 0dbd 823f
00000040: cf4e 863f 05ba 833f c4f3 843f 318c 823f
00000050: c54c 853f b6c0 843f 1e86 823f a5c4 6d3f
00000060: 8e7a 733f 930e 843f 2db0 883f 2d84 873f
00000070: 9dbf 803f 976a 7c3f 67ab 803f 5b2e 813f

model.2.main.1.running_mean f4 [32]
6.6577697 -3.571163 0.87066597 0.7443483 -1.7331485 -1.1467448 -2.6356595 -0.19406721
-1.2727321 0.6216622 -1.3166255 7.31923 -6.1761727 -0.2804215 1.2183971 -2.6422782
5.474811 -0.18596669 0.2759332 3.8600821 -0.9439831 -1.3297964 -0.3637755 -1.904853
-0.020257998 -0.3046157 -0.913213 -1.650687 3.1843092 8.374033 2.6438813 3.6604846
00000000: 730c d540 ef8d 64c0 f7e3 5e3f 9c8d 3e3f
00000010: cfd7 ddbf 89c8 92bf a5ae 28c0 8eb9 46be
00000020: e3e8 a2bf 4125 1f3f 2f87 a8bf 2237 ea40
00000030: 35a3 c5c0 6893 8fbe 70f4 9b3f 161b 29c0
00000040: a731 af40 0d6e 3ebe 1e47 8d3e 960b 7740
00000050: e0a8 71bf c536 aabf c840 babe 39d2 f3bf
00000060: 1af4 a5bc 97f6 9bbe 54c8 69bf b649 d3bf
00000070: b9cb 4b40 0afc 0541 5a35 2940 6145 6a40

model.2.main.1.running_var f4 [32]
4.945745 3.7203116 1.8831198 2.1722584 2.6333048 3.5811682 1.8458523 1.1802634
3.4562871 3.0724683 1.9914119 4.6565146 2.5336182 2.4804933 2.2741015 3.3639271
3.4694343 2.3107116 2.6407042 2.5158374 4.3007174 1.5202119 1.4906219 5.7680326
3.367271 2.9378603 3.4211936 1.1032522 1.6809415 7.0184774 2.4018402 5.0526614
00000000: 8b43 9e40 9619 6e40 120a f13f 4806 0b40
00000010: 1188 2840 dc31 6540 e344 ec3f df12 973f
00000020: cf33 5d40 52a3 4440 96e6 fe3f 2b02 9540
00000030: cd26 2240 67c0 1e40 e18a 1140 954a 5740
00000040: 360b 5e40 b3e2 1340 4c01 2940 7b03 2140
00000050: 7a9f 8940 4e96 c23f b3cc be3f b993 b840
00000060: 5e81 5740 e705 3c40 d6f4 5a40 5e37 8d3f
00000070: 1729 d73f 5e97 e040 c0b7 1940 67af a140

model.2.main.3.weight f4 [32, 32, 3, 3]
-0.035386715 -0.040038623 0.038199984 0.021129014 -0.0753156 -0.00989314 0.00950043 0.120372705
0.04129176 -0.052059703 -0.08680684 -0.06731746 0.014198933 0.020520464 -0.17877452 -0.07691602
-0.0060165916 -0.053341106 0.060657468 -0.02857887 -0.07306923 -0.14043824 0.13539109 -0.10806018
0.15367335 0.11532438 -0.10877397 0.21200453 0.05336799 -0.028081352 0.12967165 -0.08750404
-0.04919281 0.014511913 -0.07424708 0.05125846 0.052359268 0.06854152 0.0586626 0.105310656
0.06872997 0.084280506 -0.12628214 0.015663924 0.013685001 -0.027830036 0.024298312 0.02451176
0.07554022 -0.0934222 -0.11677187 0.03541934 0.0840382 0.07806752 0.099009514 0.0011363813
0.09154395 0.078600876 0.04955091 -0.04124357 0.029607877 -0.06452833 -0.02138572 0.12950575
-0.008303932 0.030564643 -0.03589138 -0.11309701 0.05988911 -0.006335066 -0.02373887 0.038221516
-0.06041519 0.0026201038 -0.030479757 0.06636833 -0.11014328 0.10440964 0.09895215 0.043340914
-0.068769604 0.08351316 0.06328903 0.17880398 0.06654051 0.004893813 -0.01425386 0.064577386
-0.010094368 -0.06748225 0.005581037 0.01511816 -0.0967385 -0.13272499 -0.07712032 0.055646807
-0.06497459 -0.20768684 0.023964623 -0.083385296 0.124279656 -0.039105922 0.07360403 -0.07563465
0.1383022 0.10564236 -0.01638067 0.033386298 0.038353015 -0.0007602947 0.031947397 -0.04548409
0.12634723 0.11047974 -0.10407002 0.053481843 0.083364084 -0.044204496 -0.07779848 0.06530043
0.11473265 0.042760693 -0.0003898058 0.027433015 0.014527945 0.03788165 0.023857908 -0.008863212
-0.037686773 -0.10953958 0.10144776 0.053378668 0.035129253 -0.12625785 0.021256536 0.13308214
-0.15969738 0.055346385 0.1149646 -0.04876746 -0.05201612 -0.017066285 -0.07847188 -0.004190553
-0.05473651 -0.0027238214 0.10545744 0.01629656 0.08587197 -0.12043144 -0.033693198 -0.16090009
-0.07029386 -0.055503324 -0.115092404 -0.0011407699 -0.12099598 0.009328347 0.00579825 -0.041220684
0.06914937 0.081136994 -0.10549284 -0.014097823 0.110236935 0.03345177 0.15432231 -0.09486879
-0.043259438 0.19870839 -0.016968872 0.03388295 -0.07260244 -0.10009932 -0.14480004 0.15361054
-0.03230673 0.043431655 -0.1710533 0.074669704 0.038677096 0.16622908 0.091185756 0.039869566
-0.03202446 -0.04866475 -0.10218009 -0.05162442 0.14580691 0.022294778 -0.03920656 0.052738212
0.053382616 -0.014871976 -0.19960845 0.015204577 -0.016798439 0.011505037 0.018893909 -0.08376994
-0.18681434 -0.013112005 0.0715403 0.014336246 0.023347467 0.070160404 0.062485684 -0.0009778318
-0.012141009 -0.14620373 0.0053077107 0.05331671 -0.06102469 -0.18883607 0.0014755125 -0.008911196
-0.24117476 -0.1669218 -0.008677579 0.005767296 -0.030926824 0.06206684 -0.02811582 0.04688525
-0.056462653 0.067217045 -0.08220622 -0.005868123 0.02969624 -0.15871854 0.09772402 0.07480186
-0.17875017 -0.053461574 -0.07142331 0.009828937 -0.03566508 -0.021267429 0.06576912 0.0934162
0.054345034 -0.12087619 -0.014458418 -0.122921005 0.15522656 -0.04004499 0.05453004 0.02007058
0.09519112 -0.08790284 -0.1258172 0.057937168 0.024299756 0.047683045 0.012218796 0.12819383
00000000: a9f1 10bd 8aff 23bd 9677 1c3d c116 ad3c
00000010: 113f 9abd d616 22bc b1a7 1b3c f785 f63d
00000020: 8c21 293d 8e3c 55bd c9c7 b1bd bddd 89bd
00000030: a4a2 683c 881a a83c ab10 37be 2586 9dbd
00000040: d426 c5bb 347c 5abd f773 783d 3c1e eabc
00000050: 52a5 95bd 0bcf 0fbe f6a3 0a3e a84e ddbd
00000060: 8c5c 1d3e 302f ec3d e3c4 debd b717 593e
00000070: 6598 5a3d dd0a e6bc a5c8 043e 5135 b3bd
00000080: 667e 49bd 60c3 6d3c da0e 98bd 64f4 513d
00000090: ac76 563d 7f5f 8c3d 3248 703d 1dad d73d
000000a0: 4cc2 8c3d 429b ac3d 1b50 01be a151 803c
000000b0: 0e37 603c d1fb e3bc 410d c73c e3cc c83c
000000c0: d5b4 9a3d 2354 bfbd 1726 efbd df13 113d
000000d0: 381c ac3d dde1 9f3d 80c5 ca3d a1f2 943a
000000e0: 657b bb3d 7ff9 a03d e5f5 4a3d 05ef 28bd
000000f0: 388c f23c 6e27 84bd 1b31 afbc 289d 043e
00000100: 370d 08bc b462 fa3c d702 13bd 689f e7bd
00000110: 494e 753d 6396 cfbb 0578 c2bc 2a8e 1c3d
00000120: eb75 77bd 0cb6 2b3b afb0 f9bc 1eec 873d
00000130: cd92 e1bd b9d4 d53d 6da7 ca3d 3e86 313d
00000140: 14d7 8cbd f308 ab3d ae9d 813d 6418 373e
00000150: 6446 883d 475c a03b 0689 69bc 2641 843d
00000160: d962 25bc 2234 8abd 22e1 b63b 29b2 773c
00000170: d61e c6bd 0fe9 07be 42f1 9dbd e8ed 633d
00000180: 6611 85bd dcab 54be 7551 c43c e9c5 aabd
00000190: 5586 fe3d 882d 20bd b6bd 963d 57e6 9abd
000001a0: 189f 0d3e 065b d83d c130 86bc 12c0 083d
000001b0: 0d18 1d3d 834e 47ba 46db 023d 864d 3abd
000001c0: 2b61 013e 3443 e23d aa22 d5bd c70f 5b3d
000001d0: caba aa3d c60f 35bd cf54 9fbd 3bbc 853d
000001e0: f4f8 ea3d d625 2f3d d95e ccb9 34bb e03c
000001f0: 9e06 6e3c ca29 1b3d a971 c33c 0137 11bc
00000200: 725d 1abd 4a56 e0bd d8c3 cf3d 97a3 5a3d
00000210: b1e3 0f3d bd49 01be 3022 ae3c af46 083e
00000220: b687 23be e4b2 623d 8f72 eb3d 63c0 47bd
00000230: db0e 55bd 98ce 8bbc ddb5 a0bd e850 89bb
00000240: 6433 60bd 2482 32bb 12fa d73d 5d80 853c
00000250: a5dd af3d c2a4 f6bd e101 0abd fec2 24be
00000260: 3af6 8fbd 7457 63bd 91b5 ebbd e385 95ba
00000270: becc f7bd ecd5 183c 3fff bd3b 05d7 28bd
00000280: 2f9e 8d3d 272b a63d a10c d8bd 8efa 66bc
00000290: e7c3 e13d b904 093d ab06 1e3e 914a c2bd
000002a0: cf30 31bd 367a 4b3e 4e02 8bbc d9c8 0a3d
000002b0: 97b0 94bd df00 cdbd 7646 14be 154c 1d3e
000002c0: 1054 04bd 64e5 313d 9928 2fbe 6eec 983d
000002d0: e06b 1e3d f537 2a3e 99bf ba3d 454e 233d
000002e0: 152c 03bd b054 47bd cc43 d1bd 2174 53bd
000002f0: 684e 153e 8aa3 b63c 0f97 20bd 0604 583d
00000300: bba7 5a3d 97a9 73bc 2866 4cbe 9e1c 793c
00000310: e19c 89bc 9f7f 3c3c 66c7 9a3c 938f abbd
00000320: 424c 3fbe bcd3 56bc b983 923d 93e2 6a3c
00000330: 3043 bf3c 42b0 8f3d fdf0 7f3d 972a 80ba
00000340: 15eb 46bc 6eb6 15be 4eec ad3b 9f62 5a3d
00000350: 06f5 79bd 3e5e 41be fc65 c13a 4400 12bc
00000360: 84f6 76be 8ced 2abe 682c 0ebc 96fb bc3b
00000370: 405a fdbc cc39 7e3d 2653 e6bc bf0a 403d
00000380: 6245 67bd 17a9 893d bc5b a8bd 6249 c0bb
00000390: 8745 f33c 1d87 22be 8823 c83d b831 993d
000003a0: 490a 37be 86fa 5abd 6246 92bd 8d09 213c
000003b0: 8c15 12bd 0839 aebc f6b1 863d fe50 bf3d
000003c0: e698 5e3d f08d f7bd 00e3 6cbc 02be fbbd
000003d0: b6f3 1e3e 3706 24bd e45a 5f3d 0f6b a43c
000003e0: 90f3 c23d 6706 b4bd 39d6 00be 864f 6d3d
000003f0: 4810 c73c 4c4f 433d 5831 483c 3e45 033e

model.2.main.4.weight f4 [32]
1.0226 0.9985478 1.0033405 1.0024748 0.979884 0.99662805 0.9934859 0.99392664
0.94750863 1.0000023 0.97570145 0.98445326 0.9923654 0.97816324 0.96467584 0.9858143
0.97299016 1.0028069 0.99335045 0.95997095 1.0034758 0.9842813 0.98855525 0.9855977
0.9914316 0.99338377 1.0095996 0.97592556 0.9871827 0.9831475 0.96857977 0.9720701
00000000: 8fe4 823f d4a0 7f3f 766d 803f 1851 803f
00000010: aed9 7a3f 0423 7f3f 1855 7e3f fa71 7e3f
00000020: ed8f 723f 1300 803f 92c7 793f 2105 7c3f
00000030: a90b 7e3f e868 7a3f fff4 763f 535e 7c3f
00000040: e215 793f fa5b 803f 374c 7e3f a8c0 753f
00000050: e571 803f dcf9 7b3f f511 7d3f 2250 7c3f
00000060: 76ce 7d3f 664e 7e3f 8f3a 813f 42d6 793f
00000070: 01b8 7c3f 8eaf 7b3f d8f4 773f 96d9 783f

model.2.main.4.bias f4 [32]
0.038092695 0.020053606 0.011583627 0.039104186 -0.0020595232 0.008097606 -0.014511336 -0.015975779
-0.010732486 0.014267772 -0.013877773 -0.0099359 0.016444948 -0.023456687 -0.003438225 -0.014841537
0.005055658 0.03664949 -0.0052046543 -0.0049480596 0.07311221 0.0054087215 -0.0012174625 -0.017737208
0.0057213414 0.012490188 -0.021203455 0.0059613897 0.010333536 0.00094907917 0.03173153 0.0195134
00000000: 1607 1c3d 7647 a43c 41c9 3d3c b62b 203d
00000010: 11f9 06bb d2ab 043c f4c0 6dbc a3df 82bc
00000020: 4fd7 2fbc 60c3 693c 995f 63bc 2fca 22bc
00000030: 8eb7 863c 3d28 c0bc d853 61bb eb29 73bc
00000040: efa9 a53b c71d 163d ce8b aabb 5523 a2bb
00000050: dbbb 953d a53b b13b 4393 9fba 9f4d 91bc
00000060: 177a bb3b a5a3 4c3c deb2 adbc c357 c33b
00000070: fe4d 293c a0cb 783a ecf8 013d 91da 9f3c

model.2.main.4.gate f4 [32]
0.91961837 1.0362533 1.0083797 1.0816993 1.0510107 0.9858302 1.0349661 0.94421417
1.0511414 0.9941361 1.0275398 1.0141971 1.0330328 1.0356895 1.0457382 0.9954633
1.0067229 0.99075514 1.0067539 1.0069678 1.0301604 1.0028659 1.0048981 1.0313709
0.9755587 0.9794284 0.9798099 1.0220473 1.106132 0.9823054 1.0562072 1.0566398
00000000: 1c6c 6b3f f3a3 843f 9612 813f 1f75 8a3f
00000010: 8587 863f 5e5f 7c3f c579 843f 05b8 713f
00000020: cd8b 863f b47f 7e3f 6d86 833f 36d1 813f
00000030: 6b3a 843f 7991 843f c0da 853f afd6 7e3f
00000040: 4cdc 803f 21a2 7d3f 50dd 803f 52e4 803f
00000050: 4cdc 833f e95d 803f 80a0 803f f603 843f
00000060: 37be 793f d2bb 7a3f d2d4 7a3f 72d2 823f
00000070: bc95 8d3f 5e78 7b3f cc31 873f f93f 873f

model.2.main.4.running_mean f4 [32]
-0.39962322 0.22096848 0.28234985 1.3447709 0.28422815 -1.2492212 0.36692792 0.4796947
-0.15533634 -0.7378547 -0.5893104 0.18751626 0.7104862 -0.013548042 0.7232254 0.46555135
0.017872792 -0.7530591 -0.28017133 0.48466983 -0.35916236 -0.034599733 0.18561414 0.14038773
-0.28102332 -0.41679433 0.74812603 -0.038256597 -0.5297918 -0.75481087 -1.3781105 -0.27568373
00000000: 6a9b ccbe 9045 623e 2990 903e 7421 ac3f
00000010: 5a86 913e 7be6 9fbf fadd bb3e 8b9a f53e
00000020: 7d10 1fbe 0ce4 3cbf 0cdd 16bf 4304 403e
00000030: 6ce2 353f 9bf8 5dbc 4d25 393f bf5c ee3e
00000040: f669 923c 7bc8 40bf 9e72 8fbe a526 f83e
00000050: 21e4 b7be 73b8 0dbd a211 3e3e cdc1 0f3e
00000060: 4ae2 8fbe 1166 d5be 3085 3f3f f3b2 1cbd
00000070: 6fa0 07bf 493b 41bf ed65 b0bf 6b26 8dbe

model.2.main.4.running_var f4 [32]
1.0088786 0.69298995 1.0580906 1.1347498 0.87562114 1.3903669 0.4272498 1.1256557
0.9567744 0.5785478 1.0737941 1.4981318 1.0946037 0.40234244 0.8016428 0.9256089
1.1236268 1.2900903 1.5306029 0.9764375 0.8988586 1.0916699 1.1456676 0.66074616
0.78051865 0.8965313 1.0216966 0.81933725 2.0419524 0.99869823 1.0941988 0.7766891
00000000: ef22 813f ca67 313f 836f 873f 7b3f 913f
00000010: b528 603f 8bf7 b13f 7cc0 da3e 7c15 903f
00000020: 2bef 743f b51b 143f 1672 893f c8c2 bf3f
00000030: f91b 8c3f d4ff cd3e 7638 4d3f b4f4 6c3f
00000040: 01d3 8f3f ae21 a53f ccea c33f cff7 793f
00000050: 991b 663f d7bb 8b3f 3ca5 923f a926 293f
00000060: 12d0 473f 1383 653f f4c6 823f 16c0 513f
00000070: 59af 0240 b0aa 7f3f b50e 8c3f 19d5 463f

model.3.main.0.weight f4 [32, 32, 3, 3]
-0.05462428 -0.07213278 0.15989858 0.091315426 0.06405988 0.03464229 0.065593965 -0.07108182
0.040369876 0.027543446 0.047737725 -0.06610752 -0.07828285 0.08345004 0.046337746 -0.19461533
0.06922523 -0.03908178 0.11004184 -0.025355536 -0.018046025 0.16825403 -0.00077740836 0.03049479
-0.08060328 0.075797334 0.10621897 0.16378441 -0.09562224 0.0072633834 0.027194917 0.10435095
-0.03199922 -0.050738614 0.08390166 0.15753217 -0.0697815 0.13756712 0.0805179 -0.04999238
0.021376012 -0.08005364 -0.05778843 0.00782596 -0.007882583 -0.021687387 0.06539429 0.017993374
0.10361356 0.0038495075 0.070137195 -0.019424813 -0.010876556 -0.016263261 0.03308555 0.08657308
-0.040443562 0.09984541 0.0990132 0.014394673 -0.07660284 0.0023700222 0.14167866 0.20992771
-0.019206615 0.04668504 0.07878521 0.08117558 -0.10680172 -0.09813913 0.08597809 -0.13957861
0.23033117 0.024079714 -0.07619129 -0.1373738 -0.06281464 -0.11061253 -0.031381357 0.010913795
0.13638486 0.009273942 -0.036565173 -0.0045442963 0.08793437 0.12665734 -0.038883116 -0.062166296
0.07605461 0.02850053 -0.0102725 0.22870192 -0.0016240784 0.08623889 -0.04239816 -0.036987655
-0.07652314 0.03882894 0.0026747787 -0.032500483 -0.044542477 -0.05957763 -0.053543266 0.029062046
0.023673149 -0.26709527 0.004730804 0.032839283 0.021585146 0.04832634 -0.028991465 -0.073273234
0.12622438 -0.020381385 -0.017800793 -0.11941058 0.06372187 -0.065756746 -0.006677041 -0.121322125
0.14125332 0.02889327 -0.12501709 0.16035728 -0.16233198 -0.11098854 -0.05431254 0.21262223
0.05031765 0.057700127 -0.05764059 0.019724185 0.15022428 0.017733844 -0.054754402 -0.05496401
0.10615491 0.04430926 0.04064614 0.01702636 -0.17756966 0.06591554 -0.05045386 -0.13186607
-0.06961056 0.10289598 0.15510376 -0.028727006 -0.076764844 0.010191859 -0.014349908 -0.056659505
-0.13629217 0.022537187 0.019777702 -0.026319427 0.0041016117 0.07455259 0.13817793 0.22581178
0.014429373 0.056386005 0.007903537 -0.0836247 0.014007938 0.042109665 -0.28312317 -0.12481097
0.101899326 0.051852595 -0.12629633 0.050975606 0.05219937 0.007576935 -0.005817649 0.06982307
0.094277754 0.06313916 0.113115266 0.05628782 -0.12898785 -0.025055395 -0.08454228 -0.07966412
0.0649037 -0.07430876 -0.04499315 -0.006458931 0.12357383 0.13907115 0.07168934 -0.04950459
-0.023046566 0.17710108 0.022432992 -0.038448486 0.118786305 0.05267411 0.061880965 0.034679346
-0.043265544 -0.06311507 0.20941357 -0.10358303 -0.063525595 -0.05246758 -0.092968866 -0.011704316
-0.09017016 -0.020508204 -0.08342073 0.2703012 -0.04516669 -0.07334789 -0.027896253 -0.17866622
-0.14416082 0.06596279 -0.03444256 0.009847363 -0.06876767 -0.07688931 0.10659479 -0.12713322
-0.0021750345 0.07312661 -0.06878002 0.10057389 -0.15891612 -0.05102935 -0.026364911 -0.06117484
-0.0036008826 0.0048361802 0.091259755 -0.04386038 -0.04831402 0.032656483 -0.022076411 -0.042560197
0.003998234 0.09665792 -0.0030055023 -0.020320604 -0.03638305 -0.0036467197 0.08456903 0.027401524
-0.08206747 -0.016994126 0.058064118 0.010782806 0.042174052 0.05949367 -0.01881321 0.02803895
00000000: b6bd 5fbd 5aba 93bd 74bc 233e 9503 bb3d
00000010: d431 833d 13e5 0d3d 2156 863d 5893 91bd
00000020: e25a 253d cba2 e13c a288 433d 6163 87bd
00000030: c252 a0bd dbe7 aa3d a6cc 3d3d 3e49 47be
00000040: f5c5 8d3d 3714 20bd 9e5d e13d 6ab6 cfbc
00000050: 42d5 93bc c94a 2c3e feca 4bba 36d0 f93c
00000060: 5513 a5bd a23b 9b3d 5589 d93d 1ab7 273e
00000070: 98d5 c3bd ad01 ee3b e0c7 de3c f3b5 d53d
00000080: 9d11 03bd 4bd3 4fbd a2d4 ab3d 1d50 213e
00000090: 9ae9 8ebd 65de 0c3e 92e6 a43d cfc4 4cbd
000000a0: bf1c af3c 2af3 a3bd 90b3 6cbd 7538 003c
000000b0: f325 01bc bfa9 b1bc 71ed 853d d766 933c
000000c0: 5933 d43d 0548 7c3b 17a4 8f3d c920 9fbc
000000d0: 9533 32bc 883a 85bc b784 073d 3a4d b13d
000000e0: 26a8 25bd c07b cc3d 6fc7 ca3d a2d7 6b3c
000000f0: f3e1 9cbd 6052 1b3b 3614 113e 4af7 563e
00000100: 3157 9dbc d038 3f3d 245a a13d 623f a63d
00000110: dcba dabd 2bfd c8bd 4815 b03d b2ed 0ebe
00000120: efdb 6b3e d242 c53c 2e0a 9cbd b8ab 0cbe
00000130: f6a4 80bd d288 e2bd bd89 00bd c6cf 323c
00000140: 79a8 0b3e bbf1 173c 5dc5 15bd 52e8 94bb
00000150: ef16 b43d 76b2 013e e743 1fbd 16a2 7ebd
00000160: 85c2 9b3d f279 e93c fd4d 28bc d630 6a3e
00000170: 07df d4ba 049e b03d b1a9 2dbd 5e80 17bd
00000180: 2ab8 9cbd 180b 1f3d 574b 2f3b 3a1f 05bd
00000190: 2c72 36bd ac07 74bd 2f50 5bbd 8713 ee3c
000001a0: 31ee c13c b6c0 88be dc04 9b3b 7c82 063d
000001b0: 55d3 b03c d7f1 453d 827f edbc 4710 96bd
000001c0: f740 013e ddf6 a6bc f8d2 91bc 898d f4bd
000001d0: 9d80 823d 79ab 86bd 14cb dabb bc77 f8bd
000001e0: b6a4 103e 94b1 ec3c 7b04 00be b334 243e
000001f0: 5b3a 26be f64d e3bd d376 5ebd a4b9 593e
00000200: e119 4e3d f856 6c3d 8a18 6cbd 9d94 a13c
00000210: 65d4 193e 9146 913c 2746 60bd f121 61bd
00000220: bf67 d93d a07d 353d 917c 263d dd7a 8b3c
00000230: d2d4 35be bafe 863d b5a8 4ebd e607 07be
00000240: fb8f 8ebd 21bb d23d 85d3 1e3e e654 ebbc
00000250: e336 9dbd c1fb 263c e01b 6bbc cc13 68bd
00000260: 2d90 0bbe e89f b83c d904 a23c d79b d7bc
00000270: d066 863b 07af 983d 847e 0d3e 343b 673e
00000280: 2d69 6c3c 03f5 663d d67d 013c 6d43 abbd
00000290: 8d81 653c 2f7b 2c3d 85f5 90be e59c ffbd
000002a0: 98b0 d03d 6363 543d d353 01be cccb 503d
000002b0: 02cf 553d f047 f83b faa1 bebb 66ff 8e3d
000002c0: b214 c13d 1b4f 813d faa8 e73d 0f8e 663d
000002d0: 6415 04be f940 cdbc 8124 adbd f126 a3bd
000002e0: 3bec 843d 312f 98bd bd4a 38bd 71a5 d3bb
000002f0: 4714 fd3d ab68 0e3e dcd1 923d 53c5 4abd
00000300: 27cc bcbc fc59 353e 65c5 b73c 297c 1dbd
00000310: 3c46 f33d cfc0 573d e576 7d3d ee0b 0e3d
00000320: 3637 31bd 7942 81bd 8370 563e 5723 d4bd
00000330: b519 82bd 3fe8 56bd 7666 bebd 76c3 3fbc
00000340: 22ab b8bd d200 a8bc 7dd8 aabd eb64 8a3e
00000350: b500 39bd 6b37 96bd af86 e4bc 47f4 36be
00000360: e59e 13be 8017 873d a413 0dbd d656 213c
00000370: 10d6 8cbd 2478 9dbd 5f4e da3d 362f 02be
00000380: 068b 0ebb 67c3 953d 8adc 8cbd aff9 cd3d
00000390: e8ba 22be 2704 51bd 3afb d7bc 7892 7abd
000003a0: c9fc 6bbb d278 9e3b 65e6 ba3d f1a6 33bd
000003b0: ece4 45bd cec2 053d 97d9 b4bc 9a53 2ebd
000003c0: 9e03 833b 96f4 c53d f6f7 44bb 6577 a6bc
000003d0: 6506 15bd cefd 6ebb 8732 ad3d 2979 e03c
000003e0: fd12 a8bd 4437 8bbc a4d4 6d3d 5eaa 303c
000003f0: b3be 2c3d a2af 733d 291e 9abc f1b1 e53c

model.3.main.1.weight f4 [32]
0.995923 0.99651 1.0056393 1.0020849 0.97064155 0.9984817 0.97536063 1.0014116
0.990611 0.98313534 0.9991215 0.9999603 0.9952548 1.0022324 0.9953054 0.99441165
0.99322903 1.0080132 1.0146675 1.0007776 1.0064394 1.0011538 1.0135199 0.9900224
1.0211502 1.0028496 0.9949673 1.0050702 0.9990484 1.0436703 1.0047666 1.0103713
00000000: cff4 7e3f 481b 7f3f cab8 803f 5144 803f
00000010: f77b 783f 7f9c 7f3f 3cb1 793f 412e 803f
00000020: af98 7d3f c2ae 7b3f 6dc6 7f3f 66fd 7f3f
00000030: 05c9 7e3f 2749 803f 56cc 7e3f c391 7e3f
00000040: 4244 7e3f 9406 813f a0e0 813f 7b19 803f
00000050: 02d3 803f cf25 803f 05bb 813f 1c72 7d3f
00000060: 0db5 823f 605d 803f 2db6 7e3f 24a6 803f
00000070: a3c1 7f3f fd96 853f 319c 803f d953 813f

model.3.main.1.bias f4 [32]
-0.0025538697 -0.0019801522 0.037905518 0.00085386593 0.016247615 0.012425612 0.007684911 0.01643998
-0.017469244 -0.0010879415 0.03363916 0.00054823124 -0.0059076645 0.011427434 -0.013726408 0.013726014
0.025751501 0.0024805525 0.026994435 0.0043900185 0.014372029 -0.005480878 0.009557138 -0.002959888
0.004995491 0.0016381784 -0.004271402 0.026461402 0.01882007 0.062142346 0.030982517 -0.0076976377
00000000: d35e 27bb 71c5 01bb d142 1b3d f9d5 5f3a
00000010: b819 853c cb94 4b3c b5d1 fb3b 23ad 863c
00000020: a91b 8fbc 4299 8eba 37c9 093d 2db7 0f3a
00000030: 1595 c1bb 223a 3b3c bae4 60bc 13e3 603c
00000040: d0f4 d23c c490 223b 6f23 dd3c 25da 8f3b
00000050: a978 6b3c f098 b3bb 8b95 1c3c aefa 41bb
00000060: 37b1 a33b 25b8 d63a 1ef7 8bbb 95c5 d83c
00000070: 8c2c 9a3c f988 7e3d 0ccf fd3c 773c fcbb

model.3.main.1.gate f4 [32]
1.0074669 1.0396132 1.0668124 0.99162614 0.995739 0.9618848 1.0300134 1.0126077
1.0022773 1.0253927 0.9392881 1.0009143 1.0128193 1.039591 1.0471246 1.0213581
0.995361 1.0611477 1.0587896 0.98650527 1.0061978 1.014442 1.0023516 0.98306334
1.0502753 1.0449384 1.0283159 0.987955 0.9466044 1.0312328 0.9883793 1.0096709
00000000: adf4 803f 0c12 853f 4f8d 883f 36db 7d3f
00000010: c0e8 7e3f 153e 763f 7bd7 833f 219d 813f
00000020: 9f4a 803f 1140 833f 2f75 703f f61d 803f
00000030: 10a4 813f 5111 853f 2e08 863f ddbb 823f
00000040: facf 7e3f b0d3 873f 6b86 873f 9c8b 7c3f
00000050: 17cb 803f 3cd9 813f 0f4d 803f 0aaa 7b3f
00000060: 6c6f 863f 8bc0 853f db9f 833f 9eea 7c3f
00000070: aa54 723f 70ff 833f 6d06 7d3f e53c 813f

model.3.main.1.running_mean f4 [32]
1.5345172 2.865851 -2.0743675 2.0565717 -3.0126595 0.9142681 -0.0063448134 4.420686
-1.7369308 1.7633336 1.0233669 7.9906635 4.4715962 -3.9930067 0.6400365 2.0465596
-1.0960623 -4.0931487 2.4198282 -0.30374545 5.662433 3.6663601 -2.3434079 1.6348412
-0.45607793 -0.065390155 1.2228886 -1.9532042 -3.018869 -2.5332139 4.169517 -0.18506682
00000000: 0f6b c43f 1a6a 3740 70c2 04c0 df9e 0340
00000010: 6acf 40c0 790d 6a3f 27e8 cfbb 4276 8d40
00000020: c053 debf eab4 e13f b0fd 823f 84b3 ff40
00000030: 5117 8f40 6c8d 7fc0 6fd9 233f d5fa 0240
00000040: c54b 8cbf 13fb 82c0 77de 1a40 8684 9bbe
00000050: a732 b540 a5a5 6a40 65fa 15c0 7a42 d13f
00000060: 0c83 e9be 46eb 85bd 9d87 9c3f 9802 fabf
00000070: 2635 41c0 2d20 22c0 af6c 8540 2882 3dbe

model.3.main.1.running_var f4 [32]
4.3707156 4.7849765 7.1410546 3.773681 4.66552 4.1887617 6.582278 4.222591
6.006038 3.962979 6.0554285 6.7789936 6.6614733 6.4173746 5.3790717 4.284818
3.7438905 7.16275 8.800622 5.2144604 5.868673 6.053281 4.7034945 3.427189
8.783885 4.1741834 3.1547992 4.3989315 3.1581051 10.787934 4.610663 6.528731
00000000: e7dc 8b40 871e 9940 8583 e440 fd83 7140
00000010: f14b 9540 560a 8640 05a2 d240 771f 8740
00000020: 7731 c040 73a1 7d40 12c6 c140 84ed d840
00000030: ca2a d540 225b cd40 5b21 ac40 3b1d 8940
00000040: e79b 6f40 3f35 e540 59cf 0c41 dcdc a640
00000050: 2bcc bb40 7ab4 c140 0783 9640 1157 5b40
00000060: cb8a 0c41 e992 8540 3be8 4940 0cc4 8c40
00000070: 651e 4a40 619b 2c41 8d8a 9340 5deb d040
