checkpoint/clf/experiment_name/300/netS.pth (torch, 828110 bytes, 10 tensors)

conv.0.bias f4 [64]
-0.002029847 0.005384758 -0.0043962677 0.025161643 0.0014896272 0.00094426883 -0.012443443 -0.008123441
0.00016719403 0.007111872 -0.0046364223 -0.009869696 0.0055419304 -0.0017363314 -0.006832363 -0.0024874876
0.0018170727 -0.0038407801 -0.005409347 -0.011855437 0.009813451 -0.0080808895 -0.010950661 -0.00727909
-0.0033216507 -0.0019300692 -0.004846035 0.0074421773 -0.0036913843 0.00076373125 0.00040305205 -0.007853801
-0.000372164 0.0022689044 -0.0036887869 -0.0017752366 -0.0035971843 0.012119784 0.0065918593 -0.0067162206
-0.007648115 -0.0010246115 0.018634187 -0.0016966112 -0.008573433 -0.0041221958 -0.009231252 0.006656268
0.005148939 -0.0011553799 0.009346678 0.006596219 0.0055840896 -0.0131158335 -0.005261855 0.0036582705
0.0036738913 -0.0073567284 0.0059811603 0.0088343695 0.020919943 -0.004459138 0.023101063 0.010558173
00000000: 2e07 05bb a072 b03b 910e 90bb ca1f ce3c
00000010: 983f c33a cf88 773a 95df 4bbc 2e18 05bc
00000020: ce50 2f39 b50a e93b 21ed 97bb 81b4 21bc
00000030: 1599 b53b 9d95 e3ba 04e2 dfbb 1e05 23bb
00000040: d82a ee3a 99b5 7bbb e440 b1bb 4f3d 42bc
00000050: 99c8 203c b565 04bc 676a 33bc 6f85 eebb
00000060: 0db0 59bb 60fa fcba 7dcb 9ebb 82dd f33b
00000070: 27eb 71bb 2335 483a bb50 d339 3bad 00bc
00000080: 021f c3b9 e6b1 143b 93bf 71bb 0eaf e8ba
00000090: bdbe 6bbb 0f92 463c 8600 d83b be13 dcbb
000000a0: 0a9d fabb 424c 86ba b9a6 983c d360 deba
000000b0: 9677 0cbc 7c13 87bb ad3e 17bc d31c da3b
000000c0: 6eb8 a83b 1e70 97ba cf22 193c 1825 d83b
000000d0: bdfa b63b cbe3 56bc a46b acbb 98bf 6f3b
000000e0: abc5 703b b610 f1bb 9cfd c33b 08be 103c
000000f0: 4d60 ab3c f61d 92bb 713e bd3c 30fc 2c3c

conv.0.weight_orig f4 [64, 64, 3, 3]
0.03686666 -0.02400691 -0.026941923 -0.09887187 -0.09775509 -0.0178001 -0.05738025 0.030826114
-0.036954332 0.026621703 0.080848016 -0.010553916 0.11747384 -0.033513192 -0.07153647 -0.032729797
-0.022073656 0.0030193434 0.049717646 0.19230746 0.061217915 0.12829465 0.0021927983 0.11919605
-0.00766726 0.10796132 -0.046235226 -0.09670985 -0.061076675 -0.002344176 0.06496456 -0.07997501
-0.0048144413 0.039745692 0.03327395 0.0043779896 0.011761415 -0.029060144 0.028249105 -0.035091937
0.04892162 0.07310584 0.020363314 0.07799265 0.04723482 0.047287896 0.09250442 -0.017360706
0.02114649 0.068709895 0.056159776 0.003701592 0.060358442 0.15399733 -0.020439265 0.01983931
0.04752543 0.032762505 0.13215688 -0.059136357 0.015565398 -0.008645044 0.14608115 0.12333908
0.051465258 0.12032962 -0.05844834 0.10799598 -0.025559954 0.004950409 0.006140464 0.047874156
0.079787314 0.06254442 -0.009028278 0.12512903 0.06445661 0.06873254 -0.026310062 0.070683464
0.012673083 0.044258732 -0.08098549 0.028658783 -0.099086486 0.07192402 0.000107083964 -0.040219568
-0.012661957 0.05010839 -0.0032529847 0.057858735 -0.09446288 0.058371175 0.008757038 0.0051552556
-0.022332825 -0.033538353 0.050052416 0.12542377 -0.013360229 -0.020461455 0.022321865 -0.09187754
0.08495855 -0.017996307 0.0069995434 -0.032519564 -0.04620386 -0.02751833 0.008028749 0.04305363
0.03167144 -0.04276532 0.07603095 0.023087272 0.03516989 -0.062948704 0.009133371 -0.12256751
-0.019607145 0.06141756 0.008970444 0.0076905135 -0.056505557 0.058758486 0.12555817 0.039984833
-0.033936884 -0.023011396 -0.10431073 -0.08602411 -0.030559817 -0.03956849 0.019879932 -0.004138202
0.06697182 0.12766951 0.009268776 0.0750721 -0.06705377 0.044185948 0.03725777 0.025676813
0.05015334 -0.02456076 0.0880768 -0.007383966 0.025818523 -0.028747972 0.008561687 -0.009279582
0.052935332 0.03688887 0.021210313 -0.005804635 0.08906553 -0.10509126 -0.038172167 0.059187196
0.029589092 -0.10016574 0.0040184073 0.068537414 0.018664796 0.13568537 0.013002605 -0.08915495
-0.12600496 0.048266925 -0.02373049 -0.14859381 8.4830055e-05 0.0594393 -0.030910557 -0.20516874
-0.028626528 0.06704989 -0.011243466 0.015288295 -0.028001454 -0.010805798 0.058487333 0.030440534
-0.07742764 -0.09709173 -0.11789539 0.004186141 0.030338852 -0.09853443 -0.01594023 0.010413586
0.00329096 -0.04368948 -0.0068106726 -0.008774892 -0.01367189 -0.08156608 -0.038960878 0.08130987
0.04281514 0.067300774 0.03312319 0.036569852 0.04427413 -0.011292033 0.05771765 -0.052844398
0.02461432 -0.13543157 0.06453637 0.07760154 -0.006988267 -0.1374819 -0.0494871 0.0032341846
-0.087432146 0.013768399 0.02612614 0.04375713 -0.033161957 0.03505298 0.043351974 0.047046747
-0.012234839 -0.08245236 0.010452828 0.029601384 -0.008564364 -0.07329063 -0.036063265 -0.057577223
0.066163026 -0.014182298 0.06202097 -0.020114286 0.031978 0.034624077 -0.011116209 -0.02445397
-0.060092617 0.16130711 -0.09404788 -0.11649791 -0.029786652 -0.01749649 -0.01014519 0.014220524
0.021260886 -0.058477167 -0.1315704 -0.009317987 -0.01458532 0.024188945 -0.022802178 0.030448083
00000000: 7f01 173d 24aa c4bc 4fb5 dcbc 567d cabd
00000010: d233 c8bd 84d1 91bc 8e07 6bbd 0c87 fc3c
00000020: 6d5d 17bd c215 da3c a593 a53d 55ea 2cbc
00000030: 2096 f03d 2145 09bd b681 92bd ae0f 06bd
00000040: d0d3 b4bc 2de0 453b bba4 4b3d 3fec 443e
00000050: a3bf 7a3d ac5f 033e 0db5 0f3b 0f1d f43d
00000060: a33d fbbb d31a dd3d 2661 3dbd d00f c6bd
00000070: 892b 7abd bfa0 19bb 240c 853d f0c9 a3bd
00000080: 76c2 9dbb 61cc 223d 444a 083d 3d75 8f3b
00000090: f3b2 403c 8a0f eebc ab6a e73c 90bc 0fbd
000000a0: 0962 483d 84b8 953d f7d0 a63c 9cba 9f3d
000000b0: 4c79 413d f4b0 413d f572 bd3d 0a38 8ebc
000000c0: 673b ad3c c6b7 8c3d cb07 663d 6996 723b
000000d0: 6a3a 773d 7ab1 1d3e 3f70 a7bc 0c86 a23c
000000e0: 06aa 423d fa31 063d 2254 073e f738 72bd
000000f0: 0306 7f3c f1a3 0dbc 4c96 153e 3399 fc3d
00000100: 3ccd 523d 606f f63d 8767 6fbd ff2c dd3d
00000110: 1c63 d1bc 0a37 a23b f235 c93b b117 443d
00000120: 8867 a33d 4a17 803d 58eb 13bc d321 003e
00000130: d401 843d a5c3 8c3d 3388 d7bc 7ec2 903d
00000140: c3a2 4f3c a548 353d b8db a5bd d3c5 ea3c
00000150: dbed cabd e74c 933d 4492 e038 46bd 24bd
00000160: 1974 4fbc 753e 4d3d 0730 55bb 48fd 6c3d
00000170: c175 c1bd 9d16 6f3d ae79 0f3c 6bed a83b
00000180: 54f3 b6bc 835f 09bd c303 4d3d 176f 003e
00000190: dde4 5abc c89e a7bc 58dc b63c 4b2a bcbd
000001a0: c0fe ad3d fe6c 93bc 6d5c e53b 3c33 05bd
000001b0: 4240 3dbd 1f6e e1bc 048b 033c 0159 303d
000001c0: e9b9 013d b02a 2fbd 1db6 9b3d 8521 bd3c
000001d0: 4d0e 103d 40eb 80bd 22a4 153c ad04 fbbd
000001e0: 2a9f a0bc fb90 7b3d c5f8 123c b400 fc3b
000001f0: 5f72 67bd bdac 703d 5292 003e 23c7 233d
00000200: 6701 0bbd 6582 bcbc dda0 d5bd 692d b0bd
00000210: 9558 fabc 9212 22bd 3ddb a23c c199 87bb
00000220: 8628 893d ccbb 023e 10dc 173c 67bf 993d
00000230: 7d53 89bd 53fc 343d 9a9b 183d 2e58 d23c
00000240: 976d 4d3d a633 c9bc 9c61 b43d 32f5 f1bb
00000250: 5e81 d33c de80 ebbc 5146 0c3c 6309 18bc
00000260: b8d2 583d c918 173d 40c1 ad3c cf34 bebb
00000270: fd67 b63d 163a d7bd 6b5a 1cbd 466e 723d
00000280: d364 f23c b223 cdbd d8ac 833b 585d 8c3d
00000290: eae6 983c 1bf1 0a3e e108 553c df96 b6bd
000002a0: 7207 01be 8ab3 453d 7266 c2bc fa28 18be
000002b0: cae6 b138 a076 733d 2338 fdbc c117 52be
000002c0: 2e82 eabc 7451 893d 8436 38bc c27b 7a3c
000002d0: 4e63 e5bc cd0a 31bc 6a90 6f3d 6d5e f93c
000002e0: 6292 9ebd 07d8 c6bd 2373 f1bd e52b 893b
000002f0: 2f89 f83c 6bcc c9bd 1695 82bc bf9d 2a3c
00000300: 26ad 573b bdf3 32bd 102c dfbb 91c4 0fbc
00000310: 1000 60bc 1e0c a7bd 7195 1fbd ca85 a63d
00000320: ee5e 2f3d fdd4 893d 2fac 073d 45ca 153d
00000330: ca58 353d 3802 39bc 5869 6c3d 5e73 58bd
00000340: f8a3 c93c 93ae 0abe a52b 843d 8eed 9e3d
00000350: d5fd e4bb 0ec8 0cbe fcb2 4abd 9df4 533b
00000360: a00f b3bd da94 613c 7d06 d63c ad3a 333d
00000370: d5d4 07bd b793 0f3d d791 313d 17b4 403d
00000380: a274 48bc c8dc a8bd 5742 2b3c 9a7e f23c
00000390: 8c51 0cbc 6619 96bd 13b7 13bd 18d6 6bbd
000003a0: 7b80 873d df5c 68bc b309 7e3d b7c6 a4bc
000003b0: 5dfb 023d fad1 0d3d c320 36bc b153 c8bc
000003c0: ad23 76bd b12d 253e 2d9c c0bd 7596 eebd
000003d0: 2303 f4bc cd54 8fbc 0338 26bc 33fd 683c
000003e0: 4f2b ae3c c185 6fbd 64ba 06be 78aa 18bc
000003f0: 44f7 6ebc e527 c63c a2cb babc 426e f93c

conv.0.weight_u f4 [64]
0.16515958 0.30746257 0.06142483 0.27567956 -0.07480104 0.008131228 -0.07260682 -0.24953945
0.11511146 -0.01963912 -0.075200714 -0.038077835 -0.052659307 0.1843606 -0.12914817 -0.1416752
0.035251282 -0.19655536 -0.011374461 0.107462816 -0.0587811 0.01392061 0.09535369 0.1361415
-0.032251067 -0.1280023 -0.055946752 -0.21664168 0.077280656 0.10789127 -0.37784156 -0.030576773
-0.17185073 0.09516783 0.041596085 0.064413846 -0.09251855 0.2561395 -0.009149498 0.07752431
0.032733764 0.24093771 -0.06654005 0.022117084 -0.10380802 0.16584215 -0.10322894 0.044356477
0.0145560475 0.0017566867 -0.0177023 -0.08654951 -0.07536715 -0.118734814 0.0063325525 -0.056790244
-0.0041181184 -0.16106659 -0.03831773 0.003184886 0.029607585 0.0885713 -0.009360824 0.11111713
00000000: 981f 293e bc6b 9d3e 9a98 7b3d df25 8d3e
00000010: 4a31 99bd d838 053c e2b2 94bd 4587 7fbe
00000020: 8fbf eb3d 38e2 a0bc d502 9abd 81f7 1bbd
00000030: 49b1 57bd 06c9 3c3e 6b3f 04be 4e13 11be
00000040: a663 103d cf45 49be f35b 3abc 7715 dc3d
00000050: 73c4 70bd 4513 643c cc48 c33d ad68 0b3e
00000060: b219 04bd 0913 03be 6c28 65bd 51d7 5dbe
00000070: 5245 9e3d 19f6 dc3d 7374 c1be 247c fabc
00000080: a3f9 2fbe 5ae7 c23d a860 2a3d 68eb 833d
00000090: 5e7a bdbd b724 833e c7e7 15bc 11c5 9e3d
000000a0: d713 063d 60b8 763e 2646 88bd e32e b53c
000000b0: 4d99 d4bd 86d2 293e b269 d3bd 23af 353d
000000c0: 7d7c 6e3c a040 e63a 6a04 91bc df40 b1bd
000000d0: 185a 9abd 3d2b f3bd 4d81 cf3b e39c 68bd
000000e0: 48f1 86bb a4ee 24be 0df3 1cbd 85b9 503b
000000f0: 9b8b f23c df64 b53d 245e 19bc 6191 e33d

conv.0.weight_v f4 [576]
-0.045239244 -0.043774303 0.041987434 0.08327698 0.0313803 -0.03374614 0.016096683 0.023117173
-0.08162648 0.032381836 -0.14003174 0.048318733 0.14490183 0.007698628 -0.053147584 0.0039826506
-0.05705324 -0.03664627 0.0689757 0.066526406 0.03114447 0.00896002 0.016202603 0.04317968
0.06127282 0.06975025 0.08078655 -0.030448688 -0.0036473926 0.019303545 -0.0033357863 -0.002381325
0.0020735103 0.054046504 -0.024233982 0.016661905 -0.00718822 -0.05202272 0.024225892 -0.025115969
0.04872552 -0.027498657 -0.016077023 0.016249884 0.026503745 -0.03742228 0.027306335 0.024716789
-0.039276138 -0.016004693 0.026172517 0.00914545 0.09448497 -0.017553406 0.10140936 0.08941212
-0.019156812 0.018282836 0.061255466 -0.0045873187 -0.059087723 -0.010691524 0.07138684 0.05884625
0.039420716 0.043027885 0.0841071 0.062656425 0.049206562 0.057045802 -0.018435298 0.003258974
0.025577182 -0.03823733 0.028061528 0.015418825 0.064300634 0.05220482 0.024768027 0.0013564159
0.024157008 0.029391121 -0.033559415 0.03131805 -0.009361414 0.049766477 0.054033626 0.05549656
-0.011165051 -0.043170832 -0.063074365 0.012665613 0.04459256 0.014879543 0.060115796 0.037976716
-0.02309046 -0.0113975555 -0.08368122 0.01532625 -0.050587375 -0.021111835 -0.05359068 0.005247943
0.03243332 -0.0246762 -0.0067836675 -0.053838484 0.021735149 -0.008615729 0.032529373 0.045037583
0.06135997 -0.015118269 0.016889712 0.019823603 0.020957489 -0.05782886 -0.067126736 0.03454798
-0.02966983 0.0023148726 -0.00025540686 0.0060136393 -0.06829885 -0.0124920085 -0.011540609 0.04357892
-0.040249445 -0.011909696 0.00041242587 -0.00094585767 -0.0069554644 0.01737783 -0.008771141 -0.060183425
0.0006853026 0.019259907 -0.05417824 0.017542088 -0.026342263 -0.01782477 0.040435966 -0.0282689
0.054762363 -0.0038910727 0.049323056 0.009536804 0.00944861 -0.05407316 0.019606503 0.09702573
0.07106202 0.026899403 0.04660848 0.021340977 0.012996781 0.037525784 0.02527892 -0.026049795
-0.030263474 0.011401504 0.0034795408 0.08066026 -0.06785024 0.06471205 0.09404827 -0.06729817
0.01647455 -0.014583093 0.017703863 -0.014346536 0.081983835 -0.06748098 -0.017192792 0.014497681
-0.0017609666 0.06376542 -0.01422583 0.10269046 0.020540526 -0.039714523 -0.01744506 0.04084407
0.0110147875 -0.04545704 0.032134004 0.029355854 -0.008910829 -0.021907939 -0.07965444 0.0012593915
0.0069258115 -0.042708565 -0.02161745 -0.022192974 0.0068771336 -0.08821128 -0.04581623 -0.027208915
-0.021998873 -0.007373523 0.029545214 -0.0028151243 -0.06644447 0.051822495 0.024395628 -0.026994381
-0.061050974 -0.012731553 0.0755105 -0.008064275 -0.070398785 -0.0006090852 0.016130833 -0.0041606934
-0.07181584 -0.024824752 0.084919475 0.02213362 0.031964034 -0.0088425 -0.019246476 -0.012973834
-0.016018417 -0.03691802 0.03129295 -0.03917296 -0.14697711 0.0039060647 0.06920362 0.02328494
0.038712136 0.05478197 0.01869746 -0.0040853885 0.0643851 0.04068211 -0.023779895 -0.023399336
0.039782424 0.081642404 -0.057364445 -0.077674784 0.006348294 0.04385588 0.016157787 0.020238645
-0.024323085 0.035035364 0.09124427 -0.026680123 0.023219623 0.033141084 -0.0084404675 -0.0059499983
00000000: c94c 39bd af4c 33bd 04fb 2b3d 1f8d aa3d
00000010: a188 003d 6439 0abd 31dd 833c 3a60 bd3c
00000020: c92b a7bd d1a2 043d 7b64 0fbe dde9 453d
00000030: 2561 143e c644 fc3b 48b1 59bd e580 823b
00000040: a8b0 69bd 661a 16bd 2243 8d3d ff3e 883d
00000050: b022 ff3c 0ccd 123c 52bb 843c 2ddd 303d
00000060: 35f9 7a3d 38d9 8e3d 6b73 a53d 876f f9bc
00000070: 1809 6fbb 7822 9e3c 359d 5abb 0110 1cbb
00000080: bbe3 073b de5f 5d3d 5886 c6bc 8c7e 883c
00000090: 298b ebbb c715 55bd 6175 c63c 01c0 cdbc
000000a0: 6994 473d dd44 e1bc f6b3 83bc 7a1e 853c
000000b0: 621e d93c 1b48 19bd 89b1 df3c dd7a ca3c
000000c0: 04e0 20bd 461c 83bc bf67 d63c ccd6 153c
000000d0: 5681 c13d 29cc 8fbc b6af cf3d b41d b73d
000000e0: bfee 9cbc e3c5 953c 03e7 7a3d 3851 96bb
000000f0: f805 72bd 802b 2fbc 4333 923d c408 713d
00000100: 9e77 213d 023e 303d 5840 ac3d 0352 803d
00000110: d28c 493d dca8 693d 9f05 97bc 8394 553b
00000120: 3d87 d13c bf9e 1cbd 4ae1 e53c 3d9f 7c3c
00000130: 0db0 833d b9d4 553d 51e6 ca3c c4c9 b13a
00000140: ebe4 c53c a6c5 f03c 9975 09bd 5b47 003d
00000150: 9e60 19bc efd7 4b3d 5d52 5d3d 5c50 633d
00000160: 9eed 36bc e6d3 30bd 222d 81bd 6e83 4f3c
00000170: b0a6 363d 54c9 733c fb3b 763d 798d 1b3d
00000180: 3428 bdbc d0bc 3abc 0f61 abbd f41a 7b3c
00000190: b534 4fbd baf2 acbc e781 5bbd f0f6 ab3b
000001a0: cdd8 043d be25 cabc 8749 debb be85 5cbd
000001b0: e90d b23c fd28 0dbc 853d 053d 5479 383d
000001c0: 9854 7b3d 9eb2 77bc 4b5c 8a3c 1c65 a23c
000001d0: 0aaf ab3c f4dd 6cbd be79 89bd 2f82 0d3d
000001e0: 250e f3bc 1eb5 173b 21e8 85b9 100e c53b
000001f0: 44e0 8bbd 48ab 4cbc d314 3dbc cf7f 323d
00000200: 9adc 24bd e320 43bc dd3a d839 6ff3 77ba
00000210: aaea e3bb f35b 8e3c d5b4 0fbc e582 76bd
00000220: e1a5 333a f4c6 9d3c 01ea 5dbd 6db4 8f3c
00000230: bbcb d7bc 4105 92bc 2fa0 253d 2e94 e7bc
00000240: 804e 603d 5e01 7fbb f906 4a3d 4140 1c3c
00000250: 58ce 1a3c d17b 5dbd d19d a03c 6db5 c63d
00000260: f788 913d 235c dc3c 89e8 3e3d 46d3 ae3c
00000270: 73f0 543c a3b4 193d bd15 cf3c 6166 d5bc
00000280: 1beb f7bc 60cd 3a3c 0209 643b 3531 a53d
00000290: 11f5 8abd c087 843d 619c c03d 9fd3 89bd
000002a0: a3f5 863c eded 6ebc b107 913c bc0d 6bbc
000002b0: 24e7 a73d 7833 8abd e6d7 8cbc ae87 6d3c
000002c0: 3cd0 e6ba 7297 823d 7513 69bc 604f d23d
000002d0: 9b44 a83c b2ab 22bd f1e8 8ebc 1d4c 273d
000002e0: 5e77 343c 2931 3abd f29e 033d b07b f03c
000002f0: bafe 11bc 4778 b3bc de21 a3bd 2b12 a53a
00000300: ebf1 e23b 2def 2ebd 1417 b1bc 0ace b5bc
00000310: 9459 e13b 1ea8 b4bd cda9 3bbd 3be5 debc
00000320: fb36 b4bc 989d f1bb ce08 f23c f37d 38bb
00000330: 0a14 88bd d343 543d 57d9 c73c 5223 ddbc
00000340: 9610 7abd 0198 50bc 40a5 9a3d 0520 04bc
00000350: 3d2d 90bd 04ab 1fba cf24 843c 6d56 88bb
00000360: 2f14 93bd 475d cbbc 43ea ad3d 9151 b53c
00000370: b8ec 023d 22e0 10bc c9aa 9dbc 3490 54bc
00000380: 0e39 83bc 5a37 17bd 092d 003d d373 20bd
00000390: 2b81 16be e4fc 7f3b a1ba 8d3d 0fc0 be3c
000003a0: 9e90 1e3d 0f63 603d 6a2b 993c b9de 85bb
000003b0: 56dc 833d 49a2 263d 0ece c2bc f7af bfbc
000003c0: e5f2 223d 2234 a73d fbf6 6abd f513 9fbd
000003d0: 5a05 d03b 39a2 333d 565d 843c 84cb a53c
000003e0: 3541 c7bc 3e81 0f3d 47de ba3d 4690 dabc
000003f0: 1437 be3c f2be 073d e349 0abc 34f8 c2bb

conv.2.bias f4 [64]
-0.008848314 -0.020349653 0.01585416 -0.004178365 -0.005752454 -0.0059002023 -0.0014370967 -0.007788834
0.0019853932 -0.00023925155 0.005073502 -0.013804122 -0.0077754203 -0.006371876 -0.01695278 -0.01126449
-0.009925179 -0.016082345 -0.007834332 -0.005367343 -0.016529458 -0.010645667 -0.005125935 -0.006171355
-0.036673732 -0.0073604267 -0.01804685 -0.0072212974 -0.009453094 -0.0027731468 -0.03822731 -0.0042023417
-0.012480688 -0.02859282 -0.008518386 -0.053764902 -0.0064829504 -0.012192037 -0.0064968118 -0.019190269
-0.00856518 -0.0059575117 -0.013214584 -0.004320992 -0.027730549 -0.007564597 -0.0017805914 -0.00512754
-0.004796565 -0.009530621 -0.020567575 -0.0066716396 -0.0044395654 -0.0070783175 -0.007039425 -0.007594888
-0.003685144 -0.011729806 -0.0088110855 -0.0057199528 -0.0335079 -0.0028894953 -0.010051315 -0.014495519
00000000: 85f8 10bc 51b4 a6bc 95e0 813c abea 88bb
00000010: 157f bcbb 7c56 c1bb f75c bcba 7a39 ffbb
00000020: 5f1d 023b 99df 7ab9 9f3f a63b af2a 62bc
00000030: f4c8 febb 2ccb d0bb 8ee0 8abc b28e 38bc
00000040: 389d 22bc 1fbf 83bc 925b 00bc 89e0 afbb
00000050: c968 87bc 2a6b 2ebc 76f7 a7bb 1439 cabb
00000060: 3237 16bd bc2f f1bb fdd6 93bc a2a0 ecbb
00000070: 26e1 1abc afbd 35bb 3d94 1cbd ccb3 89bb
00000080: cd7b 4cbc 7d3b eabc b390 0bbc 9638 5cbd
00000090: ee6e d4bb 1cc1 47bc 35e3 d4bb e934 9dbc
000000a0: f854 0cbc 3b37 c3bb fc81 58bc 1c97 8dbb
000000b0: 2d2b e3bc 70e0 f7bb bc62 e9ba ec04 a8bb
000000c0: 812c 9dbb 5226 1cbc 557d a8bc c59d dabb
000000d0: c679 91bb 3bf1 e7bb faaa e6bb 8ade f8bb
000000e0: 7582 71bb 5f2e 40bc 5f5c 10bc 716e bbbb
000000f0: 943f 09bd b05d 3dbb 45ae 24bc 9d7e 6dbc

conv.2.weight_orig f4 [64, 64, 3, 3]
-0.00780565 0.044796772 -0.051514573 -0.10774964 -0.16274768 0.004539483 0.0070178537 -0.08153939
-0.0014984158 -0.032387286 -0.020677103 -0.010209117 0.040179603 0.019178879 -0.02967263 -0.008254545
-0.03053722 -0.094827116 -0.03451112 0.022695431 -0.05833151 -0.022792077 -0.029563338 0.045309477
-0.111000866 -0.036496587 0.016413582 -0.03945135 -0.0019020177 0.0130488165 0.0067355544 -0.09271183
0.013135177 0.016722323 0.045775767 0.07262696 0.051869377 0.04605749 0.025137262 0.09866957
-0.010474534 -0.0741782 0.02577021 -0.018110892 0.010522547 -0.035621524 -0.06670057 -0.071726285
0.017207073 0.0052686306 -0.031509053 0.0016947794 -0.03876301 -0.042623118 0.0041993055 -0.06108141
0.004748518 -0.083702885 -0.015447148 -0.03062212 0.004597696 -0.047594998 0.04561336 -0.08227678
-0.013844984 -0.028804358 -0.013375364 0.104256004 -0.05205289 -0.07207475 -0.042780615 0.080850326
0.02084316 -0.02421622 -0.043870736 -0.026886335 0.0048115444 0.011606115 -0.074253395 -0.015680412
-0.042567577 -0.029594036 -0.022598362 0.019516863 0.040197343 -0.043069176 -0.03063688 -0.012435524
-0.11059519 -0.0435018 -0.04222101 -0.0438997 -0.043327197 -0.10411947 0.13079202 0.10394007
-0.03183829 -0.025980394 0.038620155 0.0017045503 0.08075139 -0.009994304 0.046572387 0.0029199417
-0.01739609 0.055481814 0.055644915 -0.014654756 0.09739277 0.085164905 -0.0337685 -0.030821977
-0.0016844812 -0.08061366 -0.10276257 -0.012014917 0.0048003355 -0.06554117 0.01855871 0.048817262
0.0218911 -0.01049849 -0.05039798 -0.010167229 -0.06024893 -0.040500462 -0.03241767 -0.03470971
0.01652954 0.09106862 0.030281452 0.057641793 0.020849068 0.07173599 0.015005194 -0.0022938633
-0.18508933 -0.0096162 0.090101846 -0.034758866 0.041785806 -0.079402015 -0.0083951475 -0.014959396
-0.06809976 -0.022987576 0.041399818 0.0019564559 0.004902056 0.048971303 -0.048069175 0.090862714
-0.034469962 0.03559696 0.054645617 -0.09511192 -0.021693934 0.023606764 -0.031254712 0.09304697
-0.0254444 -0.025098795 -0.014487223 0.05159604 -0.016515568 0.06902034 -0.057923816 -0.042469118
0.021776449 0.041532185 -0.0055237683 0.122818865 0.0535046 -0.01567286 -0.052820407 -0.031906813
0.0070783733 -0.003424402 0.10432791 0.039527114 0.027364168 0.02644849 0.075453706 -0.09748901
-0.03379033 -0.008400257 -0.0762655 -0.07495758 -0.10957416 0.025070272 0.021459918 -0.043394364
-0.15294255 -0.027271114 0.079493895 0.027484976 0.06998097 -0.048737954 -0.014776577 -0.13067351
-0.022394823 -0.06139443 -0.044707842 0.011898727 -0.049563855 0.08658067 0.011916824 -0.041519
-0.022352798 -0.027771022 0.09533546 -0.0021751323 0.006182946 -0.081126645 -0.016791549 0.04670659
0.0704303 0.010432615 0.018443063 -0.04905125 0.09236116 -0.016889244 -0.02542818 0.05038962
-0.010865468 0.018064832 -0.0050127367 -0.06677509 -0.0057894466 -0.0069647613 0.044142466 -0.035744898
-0.03431587 -0.085516915 -0.0047597513 -0.03375269 0.059469383 -0.021700967 0.1349593 -0.018606622
0.011630121 -0.01553963 -0.05176382 0.0641546 -0.026143352 -0.052621447 -0.0232872 0.036006387
0.14611214 0.058614854 0.059904534 -0.14789933 0.02315235 0.026549548 0.07477565 -0.027078811
00000000: 8ac6 ffbb d27c 373d f200 53bd d8ab dcbd
00000010: 54a7 26be f2bf 943b 06f6 e53b 20fe a6bd
00000020: 7e66 c4ba 88a8 04bd 0763 a9bc 2444 27bc
00000030: 5e93 243d 061d 9d3c 0414 f3bc 123e 07bc
00000040: 3129 fabc b834 c2bd 885b 0dbd c5eb b93c
00000050: 05ed 6ebd 73b6 babc d02e f2bc 6e96 393d
00000060: 6c54 e3bd 727d 15bd c775 863c bd97 21bd
00000070: 204d f9ba b4ca 553c edb5 dc3b b3df bdbd
00000080: ed34 573c 41fd 883c 5f7f 3b3d 72bd 943d
00000090: fc74 543d c7a6 3c3d a9ec cd3c 4613 ca3d
000000a0: 619d 2bbc bdea 97bd 0c1c d33c 4b5d 94bc
000000b0: c366 2c3c e0e7 11bd 4f9a 88bd 3be5 92bd
000000c0: d9f5 8c3c 7aa4 ac3b a30f 01bd 5c23 de3a
000000d0: f6c5 1ebd 9495 2ebd 549a 893b 8030 7abd
000000e0: 7599 9b3b 6b6c abbd 0916 7dbc 3ddb fabc
000000f0: 45a8 963b f9f2 42bd 13d5 3a3d ba80 a8bd
00000100: 12d6 62bc 1ef7 ebbc 5824 5bbc 2c84 d53d
00000110: 6935 55bd ed9b 93bd ba3a 2fbd db94 a53d
00000120: 46bf aa3c 1861 c6bc cdb1 33bd bb40 dcbc
00000130: 29aa 9d3b 9327 3e3c 2a12 98bd 3574 80bc
00000140: 575b 2ebd 316f f2bc 3320 b9bc d4e1 9f3c
00000150: f8a5 243d 4e69 30bd 32fa fabc 5ebe 4bbc
00000160: bb7f e2bd f22e 32bd f0ef 2cbd 2cd0 33bd
00000170: dc77 31bd 973c d5bd 58ee 053e 88de d43d
00000180: de68 02bd d6d4 d4bc 2b30 1e3d 386b df3a
00000190: fc60 a53d 26bf 23bc b0c2 3e3d 7e5c 3f3b
000001a0: 3f82 8ebc e640 633d eceb 633d 801a 70bc
000001b0: dc75 c73d f06a ae3d d750 0abd 5f7e fcbc
000001c0: cfc9 dcba c618 a5bd 2f75 d2bd 37da 44bc
000001d0: 224c 9d3b 733a 86bd 7008 983c 9cf4 473d
000001e0: f754 b33c dc01 2cbc 1d6e 4ebd 7394 26bc
000001f0: 95c7 76bd d0e3 25bd 64c8 04bd c52b 0ebd
00000200: f568 873c 2f82 ba3d cf10 f83c cd19 6c3d
00000210: aacb aa3c 52ea 923d 58d8 753c a454 16bb
00000220: 0f88 3dbe 448d 1dbc 5187 b83d 505f 0ebd
00000230: 9827 2b3d 869d a2bd cd8b 09bc 4118 75bc
00000240: e377 8bbd 7150 bcbc db92 293d e237 003b
00000250: 6da1 a03b 2296 483d 2fe4 44bd 3b16 ba3d
00000260: 6030 0dbd 1ece 113d 15d4 5f3d 0aca c2bd
00000270: 7ab7 b1bc f962 c13c f104 00bd 698f be3d
00000280: c670 d0bc fd9b cdbc d15b 6dbc 5f56 533d
00000290: a84b 87bc 895a 8d3d 8641 6dbd 19f4 2dbd
000002a0: 8664 b23c a71d 2a3d ba00 b5bb 7588 fb3d
000002b0: a427 5b3d 5f64 80bc 365a 58bd b8b0 02bd
000002c0: b3f1 e73b ef6b 60bb dfa9 d53d 2fe7 213d
000002d0: d22a e03c 81aa d83c 7987 9a3d 51a8 c7bd
000002e0: bb67 0abd 3ba1 09bc 1631 9cbd 5c83 99bd
000002f0: 6b68 e0bd 2c60 cd3c b6cc af3c 4abe 31bd
00000300: f99c 1cbe ac67 dfbc b2cd a23d 2c28 e13c
00000310: 2f52 8f3d 73a1 47bd 7519 72bc 47cf 05be
00000320: 5975 b7bc ba78 7bbd 921f 37bd e1f2 423c
00000330: 7803 4bbd 3551 b13d c83e 433c d40f 2abd
00000340: 371d b7bc 0e80 e3bc 3d3f c33d aa8c 0ebb
00000350: 4f9a ca3b ba25 a6bd 6e8e 89bc 694f 3f3d
00000360: c33d 903d 8fed 2a3c e815 973c f7e9 48bd
00000370: d927 bd3d 505b 8abc c24e d0bc 5965 4e3d
00000380: 1305 32bc b3fc 933c e241 a4bb 61c1 88bd
00000390: 66b5 bdbb a738 e4bb bbce 343d 3e69 12bd
000003a0: cc8e 0cbd 7e23 afbd b0f7 9bbb 4340 0abd
000003b0: 2b96 733d 3ac6 b1bc c532 0a3e ea6c 98bc
000003c0: 438c 3e3c ef99 7ebc 4d06 54bd 7d63 833d
000003d0: 952a d6bc 9689 57bd ccc4 bebc 6f7b 133d
000003e0: 6c9e 153e 2116 703d 755e 753d ec72 17be
000003f0: ffa9 bd3c 707e d93c fa23 993d 62d4 ddbc

conv.2.weight_u f4 [64]
0.06786367 0.021959024 -0.00017826523 0.04191304 0.09499623 -0.037376996 0.086607635 0.049071584
0.1985748 -0.024171399 0.059145793 -0.057462152 -0.043802496 -0.066001624 -0.2022382 0.18597764
0.033905655 0.027992057 -0.031145342 -0.0111711 -0.024703952 -0.058535185 -0.05996875 -0.051242717
0.11037487 0.056342933 -0.12963928 -0.007526127 0.02750587 0.059014563 -0.14950046 -0.100871354
0.009009521 -0.08513259 -0.1954723 -0.041937884 -0.10939441 -0.09738535 0.31932202 -0.06102355
0.124817446 -0.09687119 -0.049926925 -0.03460537 0.17562084 0.0032025345 0.15751907 -0.06653798
-0.16728778 0.02984443 -0.09736298 -0.47000316 -0.11689396 0.10650232 -0.06384632 -0.17615966
-0.135857 0.1707923 0.20285787 -0.18856493 0.093178555 0.1417796 0.15899393 -0.031910017
00000000: 1cfc 8a3d 69e3 b33c b5ec 3ab9 02ad 2b3d
00000010: 628d c23d 9f18 19bd 585f b13d 49ff 483d
00000020: 3157 4b3e 1903 c6bc dc42 723d 6f5d 6bbd
00000030: 3f6a 33bd dc2b 87bd 8817 4fbe ec70 3e3e
00000040: a8e0 0a3d 994f e53c 8424 ffbc fd06 37bc
00000050: f15f cabc 97c2 6fbd cba1 75bd e2e3 51bd
00000060: 380c e23d d9c7 663d 29c0 04be bb9d f6bb
00000070: fe53 e13c 41b9 713d a616 19be a495 cebd
00000080: ac9c 133c ff59 aebd e429 48be 0fc7 2bbd
00000090: 2d0a e0bd f871 c7bd 2d7e a33e d4f3 79bd
000000a0: 4aa0 ff3d 6764 c6bd 2d80 4cbd 5cbe 0dbd
000000b0: f3d5 333e 9de1 513b ae4c 213e 1145 88bd
000000c0: 7d4d 2bbe 4e7c f43c 3e66 c7bd 41a4 f0be
000000d0: 1a66 efbd e31d da3d dcc1 82bd 3363 34be
000000e0: 191e 0bbe 2de4 2e3e f9b9 4f3e 2a17 41be
000000f0: 66d4 be3d ac2e 113e 4ecf 223e 14b4 02bd

conv.2.weight_v f4 [576]
-0.0139674125 -0.038347363 -0.021367056 0.040688884 0.02789908 0.020776266 0.03761176 -0.061145406
0.067003034 -0.006420528 -0.0073985914 0.0023117394 0.079027265 0.011971088 -0.017650126 -0.011035453
0.031522587 -0.009510305 0.011894756 -0.039099526 -0.052456383 -0.018496921 -0.04927861 0.04928116
-0.05249233 -0.021648755 0.0873112 0.07727072 -0.010197457 0.013345411 0.10923633 -0.07072614
0.046877667 0.046543833 0.008839841 0.018697254 0.018241024 -0.0040556705 0.030744905 0.045523778
-0.00237123 -0.019824672 -0.079558104 -0.045179978 -0.049985103 -0.02535823 0.0326107 -0.01544963
0.050788797 0.03534945 0.050024103 0.02049924 -0.073952444 0.059338324 -0.00020134113 0.015473741
-0.048251096 -0.004723726 -0.07623089 0.045459215 0.008563245 -0.023098612 -0.027426606 -0.013795407
0.047076795 -0.025899768 -0.0240706 0.035652418 -0.008752557 -0.02367506 -0.011299542 -0.010178248
0.034897104 0.037128057 0.037665006 0.0117785465 0.052624222 0.03695227 0.0059824293 -0.057254408
0.022450073 0.028869824 -0.059004918 0.022694865 0.056347933 -0.00052287144 -0.012825051 -0.033484783
-0.02538863 0.054409984 0.04669971 -0.035009593 0.068298794 -0.026609521 0.056495126 -0.055569217
-0.07806599 -0.04990994 0.03216143 -0.058022115 0.027854526 -0.014199652 0.013530116 -0.053346537
0.024827566 0.04761005 -0.012091196 0.022787802 0.04032535 0.011305132 -0.018208185 -0.02709684
-0.033618487 -0.05834869 -0.053572606 -0.0012750602 0.04404176 -0.04451082 -0.028379273 0.07831639
0.053148914 0.06918256 -0.021189079 0.004746445 0.017199602 0.04134232 0.0037208907 0.053195305
-0.015290892 -0.0126993265 0.075013556 -0.020993702 0.047580063 -0.027886301 -0.019640218 0.007088231
0.02735652 -0.04327648 0.060713414 -0.03514867 -0.06289771 -0.050148666 0.037669647 0.014231757
0.053248666 0.057468735 0.0022307534 0.05133066 -0.028282182 0.04787772 0.016296973 0.05998094
-0.016208123 0.063999295 0.052076492 -0.052999098 0.10712577 -0.00841065 0.07485002 0.010400547
-0.08301266 0.030813647 0.020998595 -0.040212743 -0.04246183 0.011883925 -0.036942262 0.024744358
0.012863708 -0.007551718 -0.035718806 0.05406678 -0.07339079 -0.009134044 -0.06335289 0.04236578
-0.005768807 -0.048233256 0.032214485 0.048727777 -0.08946742 -0.046387564 -0.034544054 1.7389193e-05
-0.029423375 0.014748538 -0.0111143505 -0.1250871 -0.056256372 0.011298364 0.014786269 0.051141396
0.00827738 0.004676836 0.01598019 0.042957135 0.07044785 0.012719926 0.067483075 -0.062930435
0.043213446 0.09361423 0.06781353 0.015428829 0.033901036 -0.007218975 -0.013578091 -0.02298122
0.036571413 -0.0010343462 -0.021151023 -0.0043359045 0.057593837 0.030552853 -0.024456698 0.01326352
-0.03609248 0.0025556835 0.06919226 0.055559848 0.0732505 -0.025568875 -0.025219133 0.029341348
0.025790842 0.009057195 -0.0189292 -0.005859565 -0.08632651 0.017933404 0.0034057922 -0.017344344
0.07092298 -0.043958142 0.032496963 0.07107552 0.04028654 -0.009231698 0.040819492 0.02253436
0.042768847 -0.017818753 -0.03346678 -0.03163267 0.08958699 0.0032979238 -0.050413378 -0.036543798
-0.031017432 0.015958743 0.025245821 -0.02177146 -0.009932102 0.023377147 -0.0114333555 -0.029319765
00000000: 93d7 64bc 2012 1dbd f709 afbc 63a9 263d
00000010: 9d8c e43c fd32 aa3c ca0e 1a3d 9b73 7abd
00000020: e338 893d 4b63 d2bb e26f f2bb 8d80 173b
00000030: 0cd9 a13d 6222 443c ff96 90bc 0bce 34bc
00000040: d41d 013d 1cd1 1bbc 39e2 423c d326 20bd
00000050: 81dc 56bd db86 97bc 5ed8 49bd 0bdb 493d
00000060: 3302 57bd bb58 b1bc 37d0 b23d 1c40 9e3d
00000070: 3c13 27bc b6a6 5a3c 4cb7 df3d ded8 90bd
00000080: cc02 403d bfa4 3e3d fbd4 103c fc2a 993c
00000090: 336e 953c 6ee5 84bb bddc fb3c 2477 3a3d
000000a0: a366 1bbb 5a67 a2bc 5cef a2bd a40e 39bd
000000b0: 2ebd 4cbd 10bc cfbc cc92 053d 7220 7dbc
000000c0: ea07 503d 96ca 103d 13e6 4c3d 06ee a73c
000000d0: 6174 97bd be0c 733d 191f 53b9 9385 7d3c
000000e0: f1a2 45bd 7cc9 9abb f11e 9cbd 7133 3a3d
000000f0: da4c 0c3c 4d39 bdbc c3ad e0bc 2106 62bc
00000100: 99d3 403d c02b d4bc b52f c5bc 4508 123d
00000110: e366 0fbc 33f2 c1bc b721 39bc abc2 26bc
00000120: 44f0 0e3d 9713 183d 9f46 1a3d cefa 403c
00000130: 7f8c 573d 435b 173d 4108 c43b 9983 6abd
00000140: 37e9 b73c 6980 ec3c 24af 71bd 95ea b93c
00000150: 17cd 663d 4f11 09ba 2a20 52bc 5727 09bd
00000160: d1fb cfbc 01dd 5e3d 3248 3f3d 3866 0fbd
00000170: 3de0 8b3d 36fc d9bc 6f67 673d 8c9c 63bd
00000180: 10e1 9fbd 5e6e 4cbd b4bb 033d 99a8 6dbd
00000190: 2d2f e43c a8a5 68bc 6bad 5d3c e681 5abd
000001a0: 2e63 cb3c c102 433d 271a 46bc 7cad ba3c
000001b0: 322c 253d 2939 393c 5529 95bc 31fa ddbc
000001c0: 8ab3 09bd 09ff 6ebd f36e 5bbd ec1f a7ba
000001d0: 2265 343d fa50 36bd a67b e8bc 5864 a03d
000001e0: adb2 593d 96af 8d3d b894 adbc 1188 9b3b
000001f0: 2ee6 8c3c 9156 293d 30da 733b 52e3 593d
00000200: a686 7abc d610 50bc b5a0 993d fcfa abbc
00000210: 50e3 423d d071 e4bc 86e4 a0bc 6444 e83b
00000220: c81a e03c ae42 31bd a1ae 783d 0df8 0fbd
00000230: 84d0 80bd b068 4dbd 7d4b 1a3d 512c 693c
00000240: 461b 5a3d 5664 6b3d d531 123b 1940 523d
00000250: 09b0 e7bc 6e1b 443d 3b81 853c 93ae 753d
00000260: e6c6 84bc 1012 833d 294e 553d 9515 59bd
00000270: c164 db3d d3cc 09bc f84a 993d 0e67 2a3c
00000280: 8b02 aabd e76c fc3c 3f05 ac3c 1eb6 24bd
00000290: 75ec 2dbd cbb4 423c c550 17bd aeb4 ca3c
000002a0: 4dc2 523c 6774 f7bb e24d 12bd 2175 5d3d
000002b0: e94d 96bd f5a6 15bc 29bf 81bd bd87 2d3d
000002c0: 4308 bdbb 3c90 45bd 56f3 033d c796 473d
000002d0: b23a b7bd e300 3ebd 117e 0dbd 02df 9137
000002e0: 4a09 f1bc daa3 713c f718 36bc d516 00be
000002f0: 156d 66bd c61c 393c 1b42 723c a479 513d
00000300: d99d 073c 2540 993b e3e8 823c d2f3 2f3d
00000310: f646 903d 3d67 503c 9134 8a3d ace1 80bd
00000320: 9500 313d d1b8 bf3d d2e1 8a3d 33c9 7c3c
00000330: d0db 0a3d 278d ecbb a476 5ebc 1d43 bcbc
00000340: e8cb 153d e692 87ba e944 adbc 3414 8ebb
00000350: 84e7 6b3d fa49 fa3c 6a59 c8bc 3c4f 593c
00000360: b5d5 13bd 417d 273b acb4 8d3d b992 633d
00000370: 5c04 963d d175 d1bc 5b98 cebc 445d f03c
00000380: 5147 d33c a164 143c 6911 9bbc 9801 c0bb
00000390: f4cb b0bd 13e9 923c b633 5f3b ba15 8ebc
000003a0: 1140 913d 740d 34bd 891b 053d 0b90 913d
000003b0: 8003 253d 8c40 17bc 5732 273d fa99 b83c
000003c0: 632e 2f3d a2f8 91bc 7614 09bd 4291 01bd
000003d0: 6279 b73d fb21 583b 427e 4ebd f3ae 15bd
000003e0: 4518 febc e9bb 823c 53d0 ce3c 105a b2bc
000003f0: 41ba 22bc 6e81 bf3c f852 3bbc 0130 f0bc

w.M2MM f4 [1, 64, 32, 32]
1.0398628 1.0454222 1.0202495 1.0159013 0.9716501 0.9779422 1.0704807 1.1297956
1.1786714 1.1563182 1.1153084 1.0660495 1.0949738 1.0778611 1.0345303 0.9997229
1.0030429 1.0061032 0.9827038 0.9526164 0.9797624 1.0213199 0.99667126 1.032895
0.9967693 1.0184649 1.1278802 1.1292437 0.9770371 1.0121759 0.9995848 1.1001563
1.0402755 1.0056511 1.0084152 1.0120751 0.99891555 0.99365914 1.0042433 1.005729
0.9937077 0.99194205 0.99884164 0.9892328 0.99020076 0.987117 0.9917492 0.98488027
0.9723855 0.9776719 0.98675317 0.98950464 0.9899553 0.9881615 0.99834776 1.0011784
0.997327 0.9882669 0.99274826 1.0034649 0.9800314 0.9622677 0.9866937 1.0334234
0.99903804 0.9739681 0.98985904 0.9817848 0.98474604 0.9887732 0.9892397 1.0072556
1.0062488 0.9834468 0.98614454 0.9614661 0.9869328 0.9761901 0.9892579 0.99120176
1.0014974 0.9884099 0.99413246 0.9835784 1.0011455 0.9894355 1.00281 1.0075153
1.0100862 0.9869049 0.9936702 1.0113885 0.9697594 0.9924716 0.9854363 0.9891162
0.9911999 0.97414804 0.99911594 0.9992539 0.99473625 0.9886336 0.9742357 0.95240045
0.9496552 0.9828134 0.97023356 0.97026753 0.99318886 0.98324186 0.9847207 0.99967974
1.0233845 1.0041286 1.0283492 0.99856025 1.0058359 1.0049542 1.0024378 1.0005964
0.9998623 0.96727943 0.9673563 0.97158194 0.97004193 1.0053726 0.98452395 0.936904
0.9976279 1.0013357 0.98033255 1.0265584 1.0008109 0.9954825 0.9903708 0.9973627
0.99781907 0.98908985 0.9964924 0.9931937 1.0037144 1.005337 0.9972628 0.9944005
0.9900851 0.9893294 0.9946671 0.9936498 0.9886985 0.9874132 0.9915986 0.9893562
0.9968142 0.9589189 0.98777586 0.9982041 0.98784065 1.0099013 0.9825265 0.96889436
0.99226326 1.001216 0.9877858 0.99355197 0.9970262 0.9937494 0.98411864 0.9947328
0.97732395 0.9701317 0.97905976 0.9902235 0.96753776 0.9784155 0.9836626 0.99211735
0.9820506 0.9909536 0.967685 0.976818 0.9879538 0.9671416 0.9788512 0.98033816
0.9932474 0.98238015 0.9446497 0.99375856 0.9915915 0.99662536 0.98964417 0.9663073
0.99954927 1.006523 0.9667179 1.0105425 0.9892185 0.9985974 0.99110514 0.9822805
0.9865196 0.9875959 0.9767902 0.990629 0.9894148 0.98794234 0.98558325 0.9649164
0.9779251 0.98365915 0.9647812 0.98878866 0.9803705 0.9585427 0.9823457 0.96048045
0.9720586 0.9754551 0.94158727 0.99417424 0.9848464 0.99302846 0.9702021 0.98227286
1.000039 1.0006244 0.9493987 1.0132247 0.9986392 0.9977814 0.98914397 0.99561584
0.9873742 0.9914032 0.9993449 0.9936651 0.9809167 0.98377603 0.9600519 0.9721794
0.98805153 0.9863702 0.979139 0.9855406 0.98305935 0.98671424 0.96360916 0.98548865
0.96934 0.9787484 0.94854414 0.9935861 0.9980065 0.99189186 0.9626488 0.9372642
00000000: 391a 853f 65d0 853f 8997 823f 0e09 823f
00000010: 10be 783f 6c5a 7a3f 8305 893f 249d 903f
00000020: b4de 963f 3c02 943f 6dc2 8e3f 4f74 883f
00000030: 1a28 8c3f 5af7 893f 7d6b 843f d7ed 7f3f
00000040: b663 803f fdc7 803f 7a92 7b3f abde 733f
00000050: b5d1 7a3f 9cba 823f d925 7f3f e735 843f
00000060: 462c 7f3f 0f5d 823f 615e 903f 0f8b 903f
00000070: 1a1f 7a3f fb8e 813f cae4 7f3f ecd1 8c3f
00000080: bf27 853f 2db9 803f c013 813f ad8b 813f
00000090: eeb8 7f3f 7260 7e3f 0b8b 803f babb 803f
000000a0: a163 7e3f eaef 7d3f 16b4 7f3f 5c3e 7d3f
000000b0: cc7d 7d3f b3b3 7c3f 47e3 7d3f 1d21 7c3f
000000c0: 42ee 783f b548 7a3f db9b 7c3f 2d50 7d3f
000000d0: b66d 7d3f 27f8 7c3f b893 7f3f 9d26 803f
000000e0: d350 7f3f 0fff 7c3f c024 7e3f 8a71 803f
000000f0: 56e3 7a3f 2d57 763f f597 7c3f 3847 843f
00000100: f5c0 7f3f f955 793f 6767 7d3f 4056 7b3f
00000110: 5118 7c3f 3e20 7d3f d03e 7d3f c0ed 803f
00000120: c3cc 803f 2bc3 7b3f f873 7c3f a422 763f
00000130: a1a7 7c3f 98e7 793f 0140 7d3f 66bf 7d3f
00000140: 1131 803f 6e08 7d3f 777f 7e3f cbcb 7b3f
00000150: 8925 803f a54b 7d3f 145c 803f 43f6 803f
00000160: 814a 813f cda5 7c3f 2c61 7e3f 2e75 813f
00000170: 2742 783f 9e12 7e3f 8e45 7c3f b836 7d3f
00000180: 47bf 7d3f c461 793f 10c6 7f3f 1bcf 7f3f
00000190: 09a7 7e3f 1717 7d3f 8367 793f 84d0 733f
000001a0: 9a1c 733f a999 7b3f 3a61 783f 7463 783f
000001b0: a041 7e3f bdb5 7b3f a816 7c3f 03eb 7f3f
000001c0: 43fe 823f 4987 803f f2a0 833f a5a1 7f3f
000001d0: 3bbf 803f 57a2 803f e24f 803f 8b13 803f
000001e0: faf6 7f3f a09f 773f aaa4 773f 98b9 783f
000001f0: ab54 783f 0db0 803f c309 7c3f f1d8 6f3f
00000200: 8b64 7f3f c52b 803f 13f7 7a3f 4466 833f
00000210: 921a 803f f1d7 7e3f f188 7d3f 2953 7f3f
00000220: 1271 7f3f fe34 7d3f 201a 7f3f f141 7e3f
00000230: b779 803f e2ae 803f 9d4c 7f3f 0891 7e3f
00000240: 3876 7d3f b144 7d3f 81a2 7e3f d55f 7e3f
00000250: 581b 7d3f 1dc7 7c3f 68d9 7d3f 7346 7d3f
00000260: 372f 7f3f b67b 753f e1de 7c3f 4e8a 7f3f
00000270: 20e3 7c3f 7244 813f db86 7b3f 7609 783f
00000280: f704 7e3f d927 803f 88df 7c3f 6c59 7e3f
00000290: 1c3d 7f3f 5c66 7e3f 33ef 7b3f cfa6 7e3f
000002a0: e731 7a3f 8d5a 783f a9a3 7a3f 4a7f 7d3f
000002b0: 8eb0 773f 7079 7a3f 50d1 7b3f 67fb 7d3f
000002c0: ab67 7b3f 23af 7d3f 34ba 773f bf10 7a3f
000002d0: 8aea 7c3f 9896 773f fe95 7a3f 71f7 7a3f
000002e0: 7645 7e3f 447d 7b3f 90d4 713f f666 7e3f
000002f0: f1d8 7d3f d722 7f3f 5259 7d3f ea5f 773f
00000300: 76e2 7f3f bfd5 803f d37a 773f 7559 813f
00000310: 6c3d 7d3f 14a4 7f3f 11b9 7d3f bc76 7b3f
00000320: 8c8c 7c3f 16d3 7c3f ec0e 7a3f dd99 7d3f
00000330: 4a4a 7d3f cae9 7c3f 2f4f 7c3f c304 773f
00000340: 4d59 7a3f 16d1 7b3f e7fb 763f 4121 7d3f
00000350: 90f9 7a3f 0e63 753f 027b 7b3f 0ce2 753f
00000360: d5d8 783f 6db7 793f dd0b 713f 3482 7e3f
00000370: e51e 7c3f 1d37 7e3f 2a5f 783f 3c76 7b3f
00000380: 4701 803f 7614 803f cb0b 733f 59b1 813f
00000390: d2a6 7f3f 9a6e 7f3f 8a38 7d3f aee0 7e3f
000003a0: 8ec4 7c3f 9acc 7d3f 11d5 7f3f d660 7e3f
000003b0: 5b1d 7b3f bfd8 7b3f f6c5 753f c0e0 783f
000003c0: f2f0 7c3f c282 7c3f daa8 7a3f 644c 7c3f
000003d0: c7a9 7b3f 4e99 7c3f 17af 763f fc48 7c3f
000003e0: ab26 783f 418f 7a3f cad3 723f a95b 7e3f
000003f0: 5b7d 7f3f a0ec 7d3f 2770 763f 8cf0 6f3f

w.MM2M f4 [1, 64, 32, 32]
0.98950565 1.0566615 1.0543973 1.0372624 0.9978879 1.0104359 1.0779815 1.0599864
1.0857993 1.0993972 1.0573394 1.0444899 1.0556817 1.0255798 0.99900067 1.0020913
0.97965705 0.985948 0.9558005 0.90045005 0.892735 0.9335833 0.9328363 0.9862062
0.94599587 0.96494246 1.0501995 1.1014931 0.9904239 1.041324 0.98138094 1.21142
1.0180279 1.0062119 0.99456507 0.982458 1.0001616 1.0094503 1.0193174 1.0281584
0.99064267 0.9909502 0.9987639 0.9855954 0.9774745 0.98235476 0.98347205 0.9469721
0.9521806 0.94671947 0.9592683 0.94715375 0.9595839 0.9591268 0.95965946 0.9806353
0.9956047 0.9737911 0.9778858 1.0096534 0.9124097 0.9900749 0.9803102 1.0901791
0.99785715 0.98648226 1.0040809 0.99263734 1.004621 1.0192952 1.0010868 1.0330303
1.0311931 1.0085015 0.98877156 0.993494 1.0062275 0.9887563 0.9850919 0.97165143
0.9889798 1.0028183 0.99553734 0.99613094 1.0187645 1.0068953 0.99992514 1.0057817
1.0443454 1.0022421 1.0034378 1.0311443 0.9900831 0.9930228 0.9655524 0.9985884
0.9878281 0.980333 0.9971 0.992772 0.9707059 0.9302703 0.95763326 0.91666776
0.92397505 0.9331929 0.9273225 0.9557391 0.96794456 0.9585629 0.98663354 0.9844632
1.0003649 0.9758165 0.98944587 0.9828575 1.0050277 0.9688764 0.9802151 0.99007547
0.9811685 0.9457226 0.9360964 0.94840974 0.9583058 1.0540823 0.96738446 0.8790542
1.0034575 1.0040132 0.9289354 1.0045116 0.994345 0.9817162 0.97647893 1.0098479
0.9880905 0.96010226 0.97377664 0.9746749 0.9816298 0.98794675 1.0060694 0.98283595
0.98016644 0.97108364 0.9784579 0.9583297 0.99942344 0.9821426 0.98304474 0.9765585
0.97072864 0.93885434 0.95653194 0.96292806 0.9665448 1.0166752 0.9763013 0.92741907
0.9822529 1.0161947 0.956763 0.9816872 0.97882295 0.9608004 0.9854309 0.9812713
0.9822222 0.9762611 0.9629635 0.9746266 0.98381436 0.9941369 0.9938569 1.0028045
1.000499 1.0189356 1.0056133 0.9954905 0.99739486 0.9970966 0.98082954 0.9946156
0.9902822 0.96188444 0.95818734 0.98984456 0.98948634 0.99272853 0.93958724 0.9444125
0.9994175 1.0214645 0.9197663 1.0032042 0.9724427 0.9927424 0.9683264 0.9567232
0.9617257 0.9768931 0.98304284 0.9815576 0.99804807 1.0123489 1.0225279 0.99751866
0.9907095 0.99621654 1.0026995 0.9996958 0.995816 0.9840013 0.9972853 0.99338937
0.9784161 0.9844803 0.94996226 0.9858893 0.97328377 0.97854036 0.9158319 0.9476765
0.9931865 1.0105251 0.8940935 0.9779336 0.9810961 0.98123634 0.9671471 0.9753895
0.98420584 0.97560436 0.9955297 0.99280244 1.0280694 1.0137398 1.0021354 1.0144192
0.9889871 1.0060742 1.0017022 1.0048667 0.9984599 0.9939494 0.9977775 0.9894172
0.98815364 0.9763893 0.9567292 0.98085314 0.9646528 0.9807961 0.97989905 0.95789564
00000000: 3e50 7d3f af40 873f 7ef6 863f 04c5 843f
00000010: 9575 7f3f f755 813f 4cfb 893f a2ad 873f
00000020: 79fb 8a3f 0cb9 8c3f e656 873f d8b1 853f
00000030: 9420 873f 3346 833f 82be 7f3f 8744 803f
00000040: ceca 7a3f 1767 7c3f 57af 743f e583 663f
00000050: 488a 643f 51ff 6e3f 5cce 6e3f 0278 7c3f
00000060: c92c 723f 7806 773f f06c 863f bafd 8c3f
00000070: 6c8c 7d3f 1b4a 853f c83b 7b3f d00f 9b3f
00000080: bd4e 823f 8dcb 803f d19b 7e3f 5e82 7b3f
00000090: 4c05 803f ab35 813f fe78 823f b29a 833f
000000a0: c29a 7d3f eaae 7d3f feae 7f3f fb4f 7c3f
000000b0: c53b 7a3f 9a7b 7b3f d3c4 7b3f c36c 723f
000000c0: 1cc2 733f 355c 723f 9b92 753f ab78 723f
000000d0: 4aa7 753f 5589 753f 3eac 753f ea0a 7b3f
000000e0: f3df 7e3f 604a 793f b956 7a3f 533c 813f
000000f0: af93 693f 8c75 7d3f 9cf5 7a3f fd8a 8b3f
00000100: 9173 7f3f 1a8a 7c3f b985 803f 7b1d 7e3f
00000110: 6c97 803f 4478 823f 9d23 803f 563a 843f
00000120: 23fe 833f 9416 813f 2220 7d3f 9f55 7e3f
00000130: 10cc 803f 221f 7d3f fc2e 7c3f 26be 783f
00000140: c82d 7d3f 5a5c 803f 89db 7e3f 7002 7f3f
00000150: e066 823f f2e1 803f 18fb 7f3f 74bd 803f
00000160: 1cad 853f 7849 803f a670 803f 89fc 833f
00000170: 1676 7d3f be36 7e3f 712e 773f 7da3 7f3f
00000180: 4de2 7c3f 1af7 7a3f f241 7f3f 4e26 7e3f
00000190: 2f80 783f 3226 6e3f 7427 753f bdaa 6a3f
000001a0: a189 6c3f bbe5 6e3f 0265 6d3f 51ab 743f
000001b0: 37cb 773f 6164 753f 0494 7c3f c805 7c3f
000001c0: f50b 803f 1ccf 793f 534c 7d3f 8d9c 7b3f
000001d0: bfa4 803f 4908 783f 60ef 7a3f 9675 7d3f
000001e0: dc2d 7b3f e01a 723f 03a4 6f3f fbca 723f
000001f0: 8753 753f 2bec 863f 82a6 773f b209 613f
00000200: 4c71 803f 8183 803f b6ce 6d3f d693 803f
00000210: 658d 7e3f c151 7b3f 86fa 793f b242 813f
00000220: 80f3 7c3f 43c9 753f 6d49 793f 4b84 793f
00000230: 174c 7b3f 14ea 7c3f e2c6 803f 239b 7b3f
00000240: 30ec 7a3f f098 783f 387c 7a3f 1855 753f
00000250: 37da 7f3f b36d 7b3f d2a8 7b3f bdff 793f
00000260: ac81 783f c258 703f 47df 743f 7482 763f
00000270: 7b6f 773f 6a22 823f e2ee 793f 566b 6d3f
00000280: ed74 7b3f ab12 823f 6cee 743f da4f 7b3f
00000290: 2494 7a3f 04f7 753f 3345 7c3f 9934 7b3f
000002a0: ea72 7b3f 3fec 793f c784 763f 2181 793f
000002b0: 42db 7b3f c27f 7e3f 686d 7e3f e65b 803f
000002c0: 5a10 803f 7b6c 823f f0b7 803f 77d8 7e3f
000002d0: 4555 7f3f b941 7f3f a517 7b3f 219f 7e3f
000002e0: 2283 7d3f 0f3e 763f c44b 753f 7466 7d3f
000002f0: fa4e 7d3f 7523 7e3f ca88 703f 05c5 713f
00000300: d3d9 7f3f 59bf 823f ce75 6b3f ff68 803f
00000310: 01f2 783f 5e24 7e3f 3de4 773f d0eb 743f
00000320: a833 763f ab15 7a3f b2a8 7b3f 5c47 7b3f
00000330: 1480 7f3f a694 813f 32e2 823f 625d 7f3f
00000340: 239f 7d3f 0c08 7f3f 7558 803f 10ec 7f3f
00000350: cced 7e3f 82e7 7b3f 174e 7f3f c44e 7e3f
00000360: 7a79 7a3f e706 7c3f ba30 733f 3e63 7c3f
00000370: 2029 793f 9f81 7a3f f673 6a3f ed9a 723f
00000380: 7841 7e3f e358 813f 50e3 643f db59 7a3f
00000390: 1d29 7b3f 4e32 7b3f f496 773f 20b3 793f
000003a0: eaf4 7b3f 35c1 793f 09db 7e3f 4d28 7e3f
000003b0: c797 833f 3ac2 813f f945 803f 7dd8 813f
000003c0: 422e 7d3f 0ac7 803f c737 803f 799f 803f
000003d0: 119b 7f3f 7873 7e3f 596e 7f3f 724a 7d3f
000003e0: a3f7 7c3f a6f4 793f 34ec 743f 3119 7b3f
000003f0: 7cf3 763f 7415 7b3f aada 7a3f a638 753f
