checkpoint/clf/experiment_name/600/netE.pth (torch, 241318 bytes, 33 tensors)

model.0.weight f4 [32, 3, 4, 4]
000000 31 2a 10 be 3f ed 7d 3d 4e da 35 bd 5e e4 99 3c
       -0.14078595 0.061993834 -0.044397645 0.018785652
000010 f5 97 c3 bd 1d 63 06 3d 30 f1 da bc f0 44 b7 3a
       -0.09550468 0.032809366 -0.026726335 0.0013982337
000020 38 80 f0 3c be a1 bc 3c ed a4 a2 3d bb ca 30 bd
       0.029358014 0.023026343 0.07941613 -0.04316209
000030 99 c2 26 bd 5a 6d f9 bc b4 d0 9e bc 7e ed e1 3c
       -0.040712927 -0.03044765 -0.019386627 0.027579065
000040 b7 95 0d 3d f9 2a b9 bd 69 f8 e2 3d 7e 25 1c 3d
       0.034566607 -0.090413995 0.11082537 0.038121693
000050 7a cc 81 bd 6a f7 52 bd 48 1d 30 be 6b 33 a4 bd
       -0.06337829 -0.051505484 -0.1719867 -0.0801762
000060 47 9d 5f bc 6e 54 55 3d 5a d1 8e 3d 61 81 fe 3d
       -0.013648338 0.05208247 0.069735244 0.12427021
000070 19 b3 6d bc 77 b7 3e 3d c6 d4 f2 bc 6d 8c 87 bc
       -0.014508032 0.046561684 -0.029642474 -0.016546452
000080 5a 5b d8 bd 1d e4 e3 bd a4 f0 fb bc 0b 6f c9 b9
       -0.10564299 -0.111274935 -0.030754395 -0.0003842044
000090 57 0b 2b be 97 7f bc bc 2d 68 30 3d 4e 55 c4 bc
       -0.16703545 -0.023010058 0.0430681 -0.023966458
0000a0 b5 aa 57 bd c0 ff 1b 3d 73 15 61 3c d0 7c 3a bd
       -0.052653033 0.0380857 0.013738024 -0.045529187
0000b0 16 7b 49 bd 26 5b 70 bd 22 25 48 bd a8 95 87 bd
       -0.04918965 -0.058680676 -0.048863538 -0.066203415
0000c0 cd ad 06 bd 2a ed 84 3d 48 af a2 3d 40 3a 9a bd
       -0.032880593 0.06490548 0.079435885 -0.075306416
0000d0 84 c7 03 3e e6 f5 cf 3c d2 27 a9 3c 99 d0 22 3d
       0.12869078 0.025385808 0.02064887 0.039749715
0000e0 57 15 8f 3d 23 9d ae bc 09 d5 64 bd 0e 8c 2b 3d
       0.06986492 -0.021315163 -0.05586723 0.041881613
0000f0 f0 59 cb bb ce 0f 45 3d 64 aa 9b 3d 7a ba 82 3c
       -0.0062057897 0.048110776 0.07600859 0.01595806
000100 db 83 bc bd 28 0e 0e 3c 2e dd 92 bd eb 22 e3 3c
       -0.09204837 0.008670367 -0.07171093 0.027726611
000110 a4 83 71 bd 1d 7c 02 bb bd 17 82 3c 5c fb 7d bd
       -0.058963433 -0.0019910403 0.01588046 -0.062007293
000120 2c 29 93 3d db 46 60 3c fd 34 8a bc 09 36 f7 3c
       0.07185587 0.013688768 -0.01687097 0.030177133
000130 a0 ac 47 bd 1b 56 94 bd 92 c0 44 bd 4e 90 7f 3c
       -0.048748612 -0.07242986 -0.04803521 0.01559837
000140 48 f7 d8 bd c7 ec 7d bd d6 42 b6 bd 5e c7 b6 3c
       -0.1059404 -0.061993387 -0.08899467 0.022311863
000150 2a 1a 8b 3d a1 b5 89 bd 7c 76 22 3e 85 f3 89 3d
       0.067921 -0.06724096 0.1586551 0.06735901
000160 69 75 d1 3c 23 f1 87 bd e8 52 01 bd f3 d7 0a 3d
       0.02556868 -0.0663779 -0.031573206 0.03389735
000170 6e 3c f7 3d 11 37 86 3d ef bd 93 3d 38 30 ac bb
       0.12072073 0.06553472 0.07213961 -0.0052547716
000180 8c 72 88 bd 70 dc 53 3d 72 c8 ce 3d af 73 e6 bd
       -0.06662473 0.051723897 0.10096826 -0.11252534
000190 5a 34 22 bc d5 2d 3a 3d 47 f8 fe bb 7e f5 b0 3d
       -0.009900177 0.045453865 -0.007781062 0.08640574
0001a0 ef 8c 76 bd 2c f4 3e bc da 98 33 bd 6c 45 1a be
       -0.060193 -0.011654895 -0.043846942 -0.15065545
0001b0 01 18 91 3d 00 1f ad bd 4d 33 85 3d 46 b4 73 3c
       0.070846565 -0.084531784 0.065039255 0.0148745235
0001c0 e0 99 ce bd f5 1a b1 3b 7d 16 b7 3d fd 9c b5 3d
       -0.10087943 0.005404825 0.08939836 0.08867834
0001d0 aa 3e 97 3c 9b 10 cd 3d d9 1d 0e 3c 6d b4 2b 3d
       0.018462498 0.10012933 0.008674108 0.041920114
0001e0 f3 00 ba bc 0b 63 4c 3d 19 69 59 bd c7 c2 37 3d
       -0.02270553 0.049899142 -0.053078745 0.04486349
0001f0 94 1e ba bd a7 d3 38 bc 43 66 29 3c 66 cb ef 3b
       -0.090878636 -0.011280931 0.0103393225 0.007317948
000200 80 7b 89 3d 29 e5 18 bd af e2 46 3c 74 b4 c0 3a
       0.06713009 -0.03732792 0.0121390065 0.0014702217
000210 bd 4c e1 bc 55 11 80 3d 5e 05 b3 bd d5 a3 98 3d
       -0.027502412 0.06253306 -0.08741258 0.074531235
000220 3e 7a 64 3c 38 e0 42 bd e8 5f f7 3b 3c 17 e2 3d
       0.01394516 -0.047577113 0.0075492747 0.11039588
000230 50 91 bd 3a 31 84 34 bd 81 7c 82 bd de ad 46 3d
       0.0014462862 -0.04407138 -0.063714035 0.048505656
000240 2a a3 6f 3d c6 03 22 3c 25 ee a9 bd f9 cf 6d bc
       0.058505215 0.009888595 -0.082973756 -0.014514917
000250 41 00 0e be fa 03 ab bd 21 ab 48 bd 48 90 07 3b
       -0.13867284 -0.08350368 -0.048991326 0.0020685364
000260 ee 20 26 bd a5 30 83 3d 8e 55 85 bd 3f a0 32 3d
       -0.040558748 0.064057626 -0.06510459 0.043609854
000270 69 e0 83 bd e9 f7 cc bc f7 11 c9 bc 5c 4a 67 3c
       -0.06439287 -0.025020557 -0.0245447 0.01411685
000280 1f 4d 54 ba 15 08 9a bd 1b 5b 7f bc d9 0e a8 3a
       -0.000809865 -0.07521073 -0.015585686 0.0012821808
000290 8e aa 61 bc bf 3a 87 bc 0f b5 c5 3c 8f 71 f1 bc
       -0.013773574 -0.016507505 0.024134187 -0.029473094
0002a0 a2 fb ee bb f4 aa 95 bd 9c d2 92 3d b7 91 b6 3d
       -0.0072931806 -0.07307997 0.07169077 0.08914512
0002b0 f0 98 18 be 05 e2 0d bd 8d 16 cb 3d e2 b9 61 bd
       -0.14902091 -0.034639377 0.099164106 -0.055108912
0002c0 7c 1b c7 bd 99 e8 b4 bd f1 64 52 bc 2c 1e a1 3d
       -0.09722039 -0.08833427 -0.012841449 0.07867083
0002d0 f7 10 30 bd 3b f1 db 3d 3d 10 3f bd 97 be ac 3d
       -0.04298493 0.107393704 -0.046646345 0.0843479
0002e0 a5 4a 86 3d dc 57 9b 3c 31 d5 10 bd 57 25 0e bc
       0.06557206 0.018962793 -0.035359565 -0.008675895
0002f0 25 8e f0 3c ca 8a 63 bc 77 86 88 3d ce 3c 83 bc
       0.029364655 -0.01388807 0.06666272 -0.016020205
000300 cf f3 70 3d 0c 58 4c bd 83 fc e4 bc b5 f5 63 3c
       0.058826264 -0.049888656 -0.027952438 0.013913562
000310 98 97 41 3d 77 44 cd bc f4 4a 90 bd ba b2 0d 3c
       0.04726371 -0.02505706 -0.07045546 0.008648569
000320 84 29 b5 3d a9 48 8d bc b9 7c 55 3d 0e 96 41 3b
       0.08845809 -0.017246561 0.052120898 0.0029538902
000330 42 b7 04 3d d1 6a c0 3c 89 05 5c bc 83 4c f0 bc
       0.03240133 0.023488434 -0.013429054 -0.029333359
000340 47 4c a8 3d 1f 8b 5d bd 9a bf 3e bd 6d 6c 04 3e
       0.08217674 -0.054087754 -0.046569444 0.12931986
000350 7d 8a 8a 3d 56 95 a4 bd 51 3a 03 be 07 b9 01 bd
       0.06764696 -0.08036296 -0.12815215 -0.031670596
000360 d5 0e d0 3d 7e e5 bd 3d 60 aa 1a 3a 41 13 bd 3c
       0.10159079 0.09272288 0.00059000216 0.02308047
000370 e2 e7 8e 3a e7 47 c9 bd 74 b9 d9 bd 21 71 7a 3d
       0.0010902847 -0.098281674 -0.106310755 0.061143044
000380 ad 4c 92 3d 7e 58 f6 bb 8b 63 e4 3a 36 17 cc bc
       0.07143531 -0.0075178733 0.0017424686 -0.024913412
000390 16 b7 84 3d 91 30 ce bc 94 e6 55 3d a6 ba 1e 3d
       0.06480233 -0.025169643 0.05222185 0.03875222
0003a0 3d fc 1d 3d 90 3d f1 3c d2 de d8 bc fe 6c 08 be
       0.03857063 0.0294483 -0.026473437 -0.13322827
0003b0 40 83 11 3d 27 68 1a 3c cb a4 28 3d 24 b1 88 bd
       0.03552556 0.009424246 0.041172784 -0.06674412
0003c0 d3 60 ba 3d 54 a3 c0 bc 71 4b ac bc 6b 9d 06 be
       0.09100499 -0.02351538 -0.021032067 -0.13145988
0003d0 c8 c2 c2 3c 63 58 a5 bc 4a 83 84 b9 cf 4b 9e 3c
       0.02377452 -0.020183748 -0.0002527482 0.019323258
0003e0 be 21 e0 bc ab d8 36 3d d3 53 63 3d 21 28 f2 3c
       -0.02735984 0.044640224 0.055499863 0.02956015
0003f0 c3 01 b4 bc 03 da 45 bd 11 55 d6 bc 71 a0 88 bd
       -0.021973496 -0.048303615 -0.02616361 -0.06671227

model.0.bias f4 [32]
000000 2e f0 81 3a f8 70 ee b9 b7 2d 4c 3a b9 34 1c ba
       0.0009913498 -0.00045479066 0.00077887945 -0.0005958784
000010 70 3e b9 b9 a2 e5 0e 3a 9d 91 ad ba 88 a8 b3 36
       -0.0003533247 0.0005451088 -0.0013242249 5.3542353e-06
000020 27 cc b8 ba 97 f7 ea 39 4e f6 73 b9 f7 ed ad b9
       -0.0014098928 0.00044816427 -0.00023266042 -0.0003317443
000030 30 74 31 ba 0b f1 a7 b6 bc 80 11 b8 61 a9 20 ba
       -0.00067693274 -5.005049e-06 -3.4690587e-05 -0.0006128755
000040 4c fe c0 39 6a e4 a5 b9 e9 fc 92 39 1a dd 00 ba
       0.0003681056 -0.00031641434 0.00028035723 -0.0004915759
000050 be 36 a6 3a 32 21 0e ba 3d 2e b9 38 55 6b 15 ba
       0.0012681109 -0.00054218166 8.8301e-05 -0.00056998926
000060 ac 30 54 3a 8f e7 53 b9 b6 02 f7 39 ef 72 4c 38
       0.0008094411 -0.0002020879 0.0004711353 4.874443e-05
000070 20 cf 46 3a f5 c3 77 ba a8 d0 9a 39 3c aa 00 3a
       0.00075839646 -0.0009451502 0.0002952863 0.00049081794

model.1.weight f4 [32]
000000 b6 f3 80 3f 6b 33 7c 3f 71 be 7b 3f 91 08 7a 3f
       1.0074375 0.9851596 0.98337466 0.9766932
000010 6a 18 82 3f 12 11 82 3f 63 e1 7d 3f 66 b7 7f 3f
       1.01637 1.016146 0.9917204 0.9988922
000020 c6 c0 7b 3f a8 1d 80 3f 54 7b 84 3f e6 3e 7a 3f
       0.98341024 1.000905 1.0350137 0.97752225
000030 06 10 80 3f e9 d2 80 3f 0e 3b 7e 3f b4 db 7c 3f
       1.000489 1.0064365 0.9930886 0.9877274
000040 f4 da 7f 3f b4 ee 81 3f 41 46 82 3f 87 87 7b 3f
       0.9994347 1.0150971 1.017769 0.98253673
000050 26 24 81 3f df 17 7c 3f 2c f9 7f 3f 6b 35 87 3f
       1.0089157 0.98473924 0.9998958 1.0563177
000060 3d 49 7e 3f a3 f7 7a 3f c5 21 87 3f 39 38 79 3f
       0.993305 0.98034114 1.0557181 0.97351414
000070 2e 9b 7e 3f 01 0f 81 3f 47 49 7e 3f a1 57 7e 3f
       0.99455535 1.0082704 0.9933056 0.9935246

model.1.bias f4 [32]
000000 98 c9 de 3c 10 cb 4b 3b 5d c5 ed bc 9f f5 59 bc
       0.027195737 0.0031096376 -0.029024774 -0.01330319
000010 88 fb c5 3b 44 48 d8 3c c6 ec 0b 3c 9a 9d f5 3b
       0.0060419478 0.026401646 0.008540338 0.007495594
000020 bb 35 4b bc 16 d0 f6 3a 3a f0 f0 3c b7 f7 c6 3c
       -0.012402947 0.0018830325 0.029411424 0.024288042
000030 cc 1e 37 3c 57 25 2f 3c e5 3d 3b bc 4f f3 dd bb
       0.011176776 0.010690055 -0.011428331 -0.0067733894
000040 70 47 0d 3d 4b f1 98 3c 1d 02 94 3c e8 af 58 3c
       0.034491956 0.018669745 0.018067414 0.013225533
000050 ea b7 5e 3c e3 c6 f3 3c 48 d5 34 3d 85 09 e0 3c
       0.013593653 0.029757923 0.044148713 0.02734829
000060 01 d2 c9 3c 23 a2 11 bc c8 48 4b 3d f6 8e fa 3c
       0.02463627 -0.008888754 0.049629956 0.030585747
000070 2e 2b 62 3c e0 21 a0 3c 1b 15 8c 3c 43 ef da 3c
       0.01380424 0.019547403 0.017099908 0.026725417

model.1.gate f4 [32]
000000 65 a3 8b 3f 7f 8b 7f 3f 6f 63 7e 3f 87 5a 85 3f
       1.0909239 0.9982223 0.99370474 1.0418252
000010 95 68 82 3f e6 cd 82 3f f7 46 69 3f f3 94 6b 3f
       1.0188166 1.0219085 0.9112391 0.92024153
000020 3b c8 6b 3f 08 23 95 3f 02 ed 8b 3f e4 be 5f 3f
       0.921024 1.1651316 1.0931704 0.8740065
000030 98 e4 7e 3f e5 e3 6d 3f 2a a5 82 3f 91 f1 77 3f
       0.99567556 0.92925864 1.0206654 0.96852976
000040 55 fb 75 3f bb c0 84 3f 7c 9f 82 3f 4c d6 6a 3f
       0.9608663 1.0371317 1.0204921 0.9173324
000050 f2 cc 84 3f e3 c9 74 3f 5f eb 88 3f ff 12 72 3f
       1.0375044 0.95620555 1.069683 0.94560236
000060 1a 79 6d 3f c7 8d 80 3f bd d1 81 3f a2 c8 a1 3f
       0.9276291 1.0043267 1.0142132 1.2639353
000070 9d 0b 73 3f c4 e2 7b 3f eb ee 75 3f 13 19 53 3f
       0.94939595 0.9839289 0.96067685 0.82460135

model.1.running_mean f4 [32]
000000 af 88 48 3f 96 e1 9b be 78 9b 0e be a0 2c dd 3e
       0.7833356 -0.30445546 -0.13926494 0.4319811
000010 37 d7 2b be c2 cf 14 3f 91 77 a9 bd d2 a1 27 bf
       -0.16781317 0.58129513 -0.082747586 -0.65481293
000020 14 f4 b0 be 39 f4 a6 bd 39 1c 6a 3f 0c c2 bd be
       -0.34561217 -0.081520505 0.91449314 -0.3706211
000030 72 24 4b be 6a f3 1e 3f 35 f4 5c 3c 08 8b 4a 3f
       -0.19838122 0.6209017 0.013485958 0.79118395
000040 c2 74 e6 bd 64 f1 98 3f 5c 3c 47 3f 98 14 dc be
       -0.112527385 1.1948667 0.77826476 -0.42984462
000050 7c d8 0f 3f 6c e2 6a bf a7 4c 1d 3f 8b 21 e9 3e
       0.56189704 -0.9175174 0.6144509 0.45533404
000060 38 23 64 3b 9b 03 71 be e8 2e 78 3f 58 35 0f 3f
       0.003481103 -0.23536532 0.96946573 0.5594077
000070 f6 c2 74 bf 18 d2 0d bd 42 29 ec bb 95 16 8d 3d
       -0.95609987 -0.03462419 -0.0072070668 0.06889073

model.1.running_var f4 [32]
000000 1f 43 95 3d 6b db 29 3d 5f fd 4d 3c 1d dd f0 3c
       0.07288193 0.04146902 0.012572615 0.02940231
000010 98 74 9e 3c 5a 3a f2 3c d1 18 5d 3d a4 21 15 3d
       0.019342706 0.02956884 0.053978745 0.036409035
000020 01 2c 24 3d 42 81 5f 3c 90 65 42 3d 48 42 55 3c
       0.040081028 0.013641657 0.04746014 0.013016291
000030 0c b4 cc 3c 14 2f 74 3d d6 0f 7f 3c af 6d 94 3d
       0.024988197 0.05961521 0.01556774 0.07247483
000040 c8 61 c8 3c 9a f1 95 3d cf f0 3a 3d 6a 3c bd 3c
       0.024460688 0.073214725 0.04563981 0.023100097
000050 87 5b b0 3c dc 81 1e 3d d7 59 68 3d 5e 27 f3 3c
       0.021528019 0.038698062 0.056726303 0.029681858
000060 60 d2 ba 3d 81 57 34 3d 2e 04 6e 3d 79 12 66 3d
       0.09122157 0.044028763 0.058109455 0.05616996
000070 37 32 58 3d 5a e8 41 3c f4 f0 be 3c 50 08 7d 3d
       0.052782264 0.011835182 0.023308255 0.061775506

model.3.main.0.weight f4 [32, 32, 3, 3]
000000 5c 32 06 bd 06 28 94 bb 5e 57 9e 3d 41 07 f0 bd
       -0.03276287 -0.0045213727 0.07731508 -0.117201336
000010 04 3e 57 3d d0 bc 1e be 9f 2d 0f be b5 c8 ac bc
       0.052549377 -0.15501714 -0.13982247 -0.021091798
000020 ce 2f ea 3c 32 a1 2e be eb 64 03 be 7b a6 c7 ba
       0.028587248 -0.17053679 -0.12831466 -0.001523211
000030 a5 e2 08 3d 32 4b e0 bd be a1 1b 3e 93 f6 fd bd
       0.03341927 -0.10951842 0.15198418 -0.12400546
000040 6c 3a 40 be 76 f3 c5 bc fc 8a 97 bd c8 3a fe bd
       -0.18772286 -0.024163943 -0.07399556 -0.124135554
000050 6c 52 61 bd cb 43 6b bc 5d 5b d7 3c 98 18 98 3c
       -0.055010244 -0.014359425 0.026288683 0.018566415
000060 50 8c 93 bd 86 d6 af 3d 92 28 36 3d 75 4f 0b be
       -0.07204497 0.08585839 0.044472285 -0.13604529
000070 20 1f 75 bd fc 18 f7 3b d0 be f5 bd 9f bb cb 3d
       -0.059844136 0.00754082 -0.11999285 0.09947895
000080 de 66 b3 bd 96 71 7c 3d f0 e2 fd 3b 0d dc ed 3c
       -0.08759855 0.06163176 0.0077480003 0.029035592
000090 f3 8f 30 be 89 43 48 3c ef 9a 88 bd f0 3d d2 bd
       -0.17242412 0.012223133 -0.06670176 -0.1026572
0000a0 ac fb 0f 3d 59 18 2d 3b e1 b5 57 bd d9 90 1e 3d
       0.035152122 0.0026412217 -0.052663688 0.038712356
0000b0 02 eb 72 bd b0 71 bb bd 5f 69 25 bd e3 cd 8e bd
       -0.059306152 -0.091525435 -0.040383693 -0.069728635
0000c0 c4 11 bc 3d fe c8 dc bd 28 c6 d6 bc 0a 38 2e bd
       0.09183076 -0.10780524 -0.026217535 -0.04253391
0000d0 f3 76 48 3c 26 0b 41 3c 7b e2 8c 3c ce d0 d2 bd
       0.012235391 0.011782443 0.017197838 -0.102937326
0000e0 8c ea 77 3c 22 40 bb bd 4c 9f 74 3d af 32 23 bd
       0.015131604 -0.09143092 0.05972223 -0.039843258
0000f0 13 b9 1f 3d f0 1e da 3c 60 fc cc bc 50 89 a1 3d
       0.03899486 0.02662608 -0.025022686 0.078875184
000100 db c0 b1 3d 28 38 c0 3d 26 4e c3 bc 83 d8 83 3d
       0.086793624 0.09385711 -0.023840975 0.06437781
000110 91 a2 d0 bc 52 d4 8c 3d 45 1d 0e be f4 a7 86 bd
       -0.025468143 0.068764344 -0.13878353 -0.06575003
000120 c0 76 56 bc d7 27 91 3d 1e 5b d6 bd 03 e9 da bc
       -0.013089836 0.07087677 -0.10466598 -0.026722437
000130 2a bf 36 be 08 a7 08 be d8 bd 57 bd 2d c4 68 3d
       -0.17846361 -0.13344967 -0.052671283 0.056827713
000140 58 bc a9 3d c9 c5 7b bd a4 7b ae 3d 0d 63 95 bc
       0.08287877 -0.06146792 0.08519676 -0.018235708
000150 e4 fd 34 be 11 63 22 bc f7 52 aa 3c b0 92 68 bd
       -0.17674977 -0.009911315 0.020791514 -0.056780517
000160 3e ad a8 3b 14 48 82 bd 95 eb 3a be 27 4d 5c bd
       0.005147605 -0.06361404 -0.1825393 -0.053784516
000170 5c bd ed bc c2 d2 09 bd 3b fb cd 3b eb 82 9a bd
       -0.029020958 -0.03364826 0.0062860525 -0.07544502
000180 5c 91 ab 3d c0 3b 2e bc 15 4d 13 be 1d a5 18 3b
       0.083773345 -0.010634363 -0.14384873 0.0023291775
000190 9a 07 4f 3d 4f 63 f2 3c d7 4b 0f 3d 4c 75 18 be
       0.05054436 0.02958837 0.034984436 -0.14888495
0001a0 52 6f 59 bd 52 5d 8f 3b 75 5b dd bd a1 01 e2 3d
       -0.05308468 0.0043751383 -0.1080846 0.11035467
0001b0 9a c1 23 3d 9a cd fd bd b7 0e 2e bd 88 29 ca bd
       0.039979555 -0.12392731 -0.042494502 -0.09871203
0001c0 39 5c e3 3c d0 a9 e8 bc e5 bd f7 bc 00 f3 17 bd
       0.027753936 -0.028401285 -0.030241916 -0.037096977
0001d0 9a 2c 69 be 63 6b 0e 3e 49 88 c2 bc e2 0d 06 be
       -0.2277092 0.13908152 -0.023746626 -0.13091233
0001e0 81 d2 04 be 27 67 12 3e 99 4b 45 3c db 4d 08 be
       -0.12970926 0.14297162 0.01204195 -0.1331095
0001f0 6a 67 05 3d 9e 04 3c 3e d6 ba 29 bd 4c eb a8 3d
       0.032569326 0.18361136 -0.041437946 0.08248004
000200 21 fa 22 bd 16 ca 61 3d a5 1c af bd ab 3f 0e 3e
       -0.039789323 0.055124365 -0.085503854 0.13891475
000210 4b a7 11 be 24 c9 04 bd b1 38 5d 3e 11 f6 17 3d
       -0.14223973 -0.032418385 0.21603657 0.0370999
000220 ae 93 92 bd 6a 2e e2 bc b7 5e f9 bd 76 fb 47 be
       -0.07157074 -0.027610023 -0.121762685 -0.19529518
000230 c6 5a 26 bd 3e 75 a8 bc 69 53 da bc 73 cd 33 3e
       -0.040613912 -0.020563718 -0.026651101 0.17558841
000240 f7 27 d1 bd 86 81 ca 3c c6 8c f6 ba 1e da ea bd
       -0.10212701 0.024719965 -0.0018810264 -0.11467384
000250 43 29 8e 3d 51 8b 8a 3d a4 4c 94 bc ce d1 3b bd
       0.06941464 0.06764854 -0.018102951 -0.045854382
000260 93 15 9d bc 6f 7e 89 3d 07 2d da bd b6 90 24 3d
       -0.019175326 0.067135684 -0.106531195 0.04017707
000270 3d d5 62 bd 69 fb a7 bc fc c0 28 be 35 42 68 3d
       -0.05537914 -0.020505624 -0.16479868 0.056703765
000280 db 8b 56 bd 42 ea 21 be 89 63 8d 3c 4c 0d 86 3d
       -0.05237947 -0.15812019 0.017259376 0.06545505
000290 aa bf 38 3d 81 00 ac 3b 78 98 ef 3b 78 df e9 bd
       0.04510466 0.0052490835 0.007311877 -0.114195764
0002a0 86 9f 0e bd 36 13 07 be 94 ac 5d 3e c4 7b 4b ba
       -0.034820102 -0.13190922 0.21647865 -0.0007762278
0002b0 8c db 2a 3d 06 c0 ff 3d 5e 09 28 bc 88 83 e0 bd
       0.041713282 0.124877974 -0.01025614 -0.109625876
0002c0 f4 c2 71 be ad 96 1e bd 8f 99 21 3b 29 0f 28 3d
       -0.23609525 -0.038717914 0.0024658178 0.041030083
0002d0 0b 12 75 bd ee 41 bc bd ec 37 db bb 74 a8 be 3d
       -0.05983166 -0.091922626 -0.006690016 0.09309474
0002e0 6f e1 2a bc a2 ff 89 3d c1 ce 60 3d f8 74 3f bd
       -0.010429724 0.06738211 0.054884676 -0.04674241
0002f0 7e d0 27 be 02 89 9d bd 65 46 1f 3d 65 c1 6a bd
       -0.16388127 -0.07692148 0.038885493 -0.05731334
000300 9f 41 23 3e 5a 85 45 bd 54 bb 76 3d d3 f0 12 bd
       0.15943001 -0.048222877 0.060237244 -0.0358742
000310 8b d1 c0 bd 75 12 ab bd 99 66 c1 bc 95 83 dc bd
       -0.09414967 -0.0835313 -0.023608493 -0.10767285
000320 7c 45 05 be a6 32 2c 3e 6f 24 29 3d 8b c1 93 bb
       -0.13014787 0.16816196 0.04129451 -0.004509156
000330 c4 32 15 bb d6 0c f0 bc 5b 6b de bc 35 34 d7 bd
       -0.0022765854 -0.029302996 -0.0271508 -0.105080046
000340 5e 41 08 3d 9d 59 98 bd da fa 55 3d 08 2c 80 be
       0.033265464 -0.074389674 0.052241184 -0.25033593
000350 95 35 96 bd 6c 57 54 bc 60 89 5d bd 60 12 b9 3d
       -0.07334439 -0.012960296 -0.05408609 0.09036708
000360 1c 8d f6 3b 19 07 dc bc 72 41 f9 3c e6 ff 3c 3e
       0.0075241458 -0.026858853 0.030426715 0.18456993
000370 70 44 a1 3b 55 fc e9 3d dc 93 88 3d 56 14 6f 3b
       0.0049214885 0.11425082 0.06668827 0.0036480627
000380 d2 b7 36 be dd c3 1c bc b9 d3 22 bd cf c3 26 3e
       -0.1784356 -0.009568182 -0.039752696 0.16285633
000390 d4 63 1a 3a 4d 99 94 3c d7 8b b2 bd f4 63 a1 bc
       0.00058895093 0.018139506 -0.087180786 -0.019700982
0003a0 8e ed ac bc 4a fb 95 3c 61 95 a2 bd d1 7b 36 3e
       -0.021109369 0.0183083 -0.07938648 0.1782067
0003b0 e3 21 98 bd 21 5d 46 bd 13 34 82 3c 08 35 02 be
       -0.074283384 -0.04842866 0.015893972 -0.12715542
0003c0 0d d8 b9 3d 40 83 20 bd a2 27 9a 3d c7 70 c0 3c
       0.090744115 -0.03918767 0.075270906 0.023491276
0003d0 0d 90 83 3d 49 6e 0f 3e ee 02 03 bd 3c 76 36 bd
       0.0642396 0.14006914 -0.031985216 -0.04454635
0003e0 0d d0 3d bd a1 36 b3 3c 1e e7 38 3c ab 20 a1 3d
       -0.04634099 0.021876635 0.011285571 0.07867559
0003f0 be 48 eb bc d1 f4 85 bd e3 bc a8 3d f2 b0 a3 bc
       -0.02872121 -0.06540836 0.08239152 -0.019981835

model.3.main.1.weight f4 [32]
000000 eb a9 7d 3f 91 56 80 3f 1b 07 82 3f a8 16 82 3f
       0.990874 1.0026418 1.0158418 1.0163164
000010 96 de 81 3f bc c4 80 3f b3 0d 7c 3f e8 33 80 3f
       1.0146053 1.0060039 0.98458403 1.001584
000020 bd 57 80 3f 9d 8b 82 3f 83 2b 80 3f 18 5f 7f 3f
       1.0026776 1.0198857 1.0013279 0.99754477
000030 53 5f 7d 3f 4b f0 7e 3f c2 a4 79 3f 9f c5 7c 3f
       0.9897358 0.9958541 0.97517025 0.98739046
000040 df 95 81 3f d4 0c 80 3f 67 26 80 3f ce be 7d 3f
       1.0123862 1.0003915 1.001172 0.9911927
000050 16 bc 82 3f d2 18 7d 3f 6b c9 7d 3f 0e 04 7b 3f
       1.0213649 0.98866 0.99135464 0.9805306
000060 d5 0a 80 3f fc e2 7e 3f a2 65 80 3f f3 8d 7d 3f
       1.0003306 0.995651 1.0031016 0.9904472
000070 af d7 7e 3f 83 43 80 3f 8e 40 7f 3f e3 36 82 3f
       0.9954786 1.0020603 0.9970788 1.0173

model.3.main.1.bias f4 [32]
000000 dc bf 51 39 e8 88 fb 3b aa c9 b1 bb 2e 44 88 3c
       0.00020003266 0.0076762326 -0.0054256516 0.016634073
000010 34 53 85 3b 36 4e 99 3c 37 60 2f 3c 68 0d af 3c
       0.0040687565 0.018714052 0.010704092 0.021368697
000020 c4 24 01 3d 32 4e 88 3c d7 57 02 3d 52 25 d5 3c
       0.031529203 0.016638849 0.03182205 0.026018772
000030 20 44 38 3b 15 27 74 3c a4 7b cc b9 d0 c3 d4 bb
       0.0028116778 0.014901896 -0.00039002032 -0.006493069
000040 98 9c 80 3c 9c 61 c8 3c 7d ed 0c 3c 19 45 fd ba
       0.01569967 0.024460606 0.0086015435 -0.0019322961
000050 04 37 d1 bc fa 4a df bb 53 f7 16 bc d5 e9 fa bc
       -0.025538929 -0.006814358 -0.00921424 -0.030629078
000060 6e d7 8d bb 73 4b 44 ba 4f 3a bd bb 2b 7b 4b bc
       -0.0043286597 -0.00074880495 -0.005774773 -0.012419502
000070 ab 31 8b bc e2 39 16 3d f3 6b 9f bb 49 f6 c8 3d
       -0.016991457 0.036676295 -0.0048651635 0.098126

model.3.main.1.gate f4 [32]
000000 95 6b 7d 3f 61 a0 90 3f 6c 9b 8a 3f 39 a1 75 3f
       0.9899228 1.1298944 1.0828681 0.9594913
000010 36 31 7a 3f ee 9f 50 3f d4 73 66 3f ce c3 81 3f
       0.9773134 0.81494033 0.9002049 1.013788
000020 70 0a 85 3f 55 00 7c 3f 18 02 65 3f e4 ed 73 3f
       1.039381 0.98438007 0.8945632 0.9528487
000030 42 f6 7e 3f ea aa 93 3f 20 9a 74 3f 11 00 9e 3f
       0.9959451 1.1536534 0.95547676 1.234377
000040 65 f7 7e 3f 3d e5 94 3f 7f e9 78 3f 56 3a 86 3f
       0.99596244 1.1632458 0.97231287 1.0486553
000050 cf f9 79 3f 02 9a 7e 3f 01 7d 6e 3f c8 32 8c 3f
       0.976468 0.9945375 0.9315949 1.0952997
000060 13 8f 80 3f 12 bb 64 3f 67 ae 7b 3f 66 7e 82 3f
       1.0043663 0.89347947 0.9831299 1.0194824
000070 6b 51 85 3f 0e 98 44 3f ff b0 84 3f 5a 9f 5b 3f
       1.0415472 0.7679452 1.0366515 0.85790026

model.3.main.1.running_mean f4 [32]
000000 53 b6 b0 bf 49 0e 80 3f e8 0b 95 3e 69 b9 a4 be
       -1.3805641 1.000436 0.29110646 -0.32172707
000010 5b 52 0c 3f 56 c9 37 bf 40 5b 07 bf 80 e2 d2 be
       0.54813164 -0.7179159 -0.5287361 -0.4118843
000020 80 f6 0f 3f ab e5 8f 3e ac 14 42 bf 51 35 8d bb
       0.56235504 0.2810491 -0.7581279 -0.0043093343
000030 d6 9c c3 be 21 3b 11 be d3 b9 46 be d0 f3 fc be
       -0.38205594 -0.14182712 -0.19406824 -0.49404764
000040 02 8b 54 bf d9 8e c9 be 32 18 60 3e cf fb a3 3e
       -0.8302461 -0.39366797 0.2188423 0.32028052
000050 ec 4f 35 be c2 64 0a 3e 25 cf 11 3f 8d 95 19 bf
       -0.17706269 0.13514999 0.569567 -0.5999382
000060 4a 5c 4f 3f 8f 20 22 3f 7a ea f2 3c c8 2c ef 3d
       0.81000197 0.6333093 0.029652823 0.11678463
000070 1d 14 96 bf 5f ce 88 3e d2 c1 0c 3e 6a 2b 01 be
       -1.1724888 0.2671995 0.13745812 -0.12614217

model.3.main.1.running_var f4 [32]
000000 00 b1 13 3f 2a 94 a5 3f 89 7f 50 3f ae ee ab 3f
       0.57691956 1.2935841 0.81444603 1.3432214
000010 c3 e2 da 3f 31 1d 2a 40 76 a9 4b 3f c1 56 0b 3f
       1.7100452 2.6580317 0.7955545 0.5442925
000020 e8 6c de 3f 41 35 4e 3f f9 78 00 3f b0 07 0d 3f
       1.7376986 0.8055001 0.5018459 0.55089855
000030 94 c3 56 3f 63 22 f9 3e 6a 5d a2 3f cf 0c a5 3f
       0.8389218 0.48659047 1.2684758 1.2894534
000040 c5 59 23 3f 24 e5 61 3f b9 6e e3 3e 59 e5 8d 3f
       0.6380885 0.88240266 0.44420412 1.1085616
000050 6a a2 1d 3f 4a 3f 9e 3f e2 87 49 3f e1 61 97 3f
       0.6157595 1.2363064 0.78722966 1.1826745
000060 c7 6e a7 3f 64 99 08 40 f8 ab 8b 3f f6 09 f6 3e
       1.3080682 2.1343622 1.0911856 0.48054475
000070 99 52 03 3f 94 ac a4 3f 20 a4 05 3f df da 87 3f
       0.5129791 1.2865167 0.5220356 1.0613669

model.3.main.3.weight f4 [32, 32, 3, 3]
000000 b9 79 e0 bc fd d1 f4 b9 90 d5 93 bd 32 43 20 3e
       -0.027401792 -0.0004669576 -0.07218468 0.15650633
000010 61 bd fd bd c3 5f 53 bc 26 f6 f5 bd 5e 29 ed bc
       -0.12389637 -0.012901249 -0.1200984 -0.02895039
000020 f1 8c d3 bd c7 d3 15 3d 88 76 ca 3c d1 c6 23 3c
       -0.10329617 0.03657892 0.024714723 0.009996132
000030 58 1d a5 bc 65 2e 32 bd a3 8c 5f bd 06 44 e0 bd
       -0.020155594 -0.043501277 -0.05457748 -0.109504744
000040 35 1e 9c bc a0 93 c3 bd 1a 65 51 bd 69 91 80 3d
       -0.019057373 -0.095496416 -0.05112181 0.06277735
000050 fd 54 b3 3d a2 64 c6 bd 82 06 b4 3d 07 c1 d4 bd
       0.087564446 -0.09687163 0.08790304 -0.103883795
000060 3b 42 91 3d b5 7b 1a bd 15 a6 4d bd fb 66 a1 bd
       0.070927106 -0.037715632 -0.050207216 -0.0788097
000070 f4 52 13 be ce df 80 3d 5e 5e 3d 3b 38 b1 f1 3d
       -0.14387113 0.06292687 0.0028895359 0.1180138
000080 bc dc 9b bd 5a 31 32 3d 3a 72 98 bd ae e7 1a be
       -0.07610461 0.043504097 -0.07443662 -0.15127441
000090 ec f6 26 3c 3c bd 35 3e 8c 70 76 bc 22 53 dd bb
       0.010190707 0.17747968 -0.015041482 -0.006754295
0000a0 91 08 e3 bd b1 16 a4 ba 94 6b df 3c 26 48 3d 3e
       -0.11085618 -0.001251897 0.027272977 0.18484554
0000b0 c4 db 79 bc ca 99 08 3e 02 c7 23 be 44 0b 20 be
       -0.01525015 0.13339916 -0.15993884 -0.15629297
0000c0 01 d0 78 3d 92 77 24 3b 41 b5 0d 3e a9 aa 80 bd
       0.060745243 0.0025095684 0.13838674 -0.06282551
0000d0 cd 20 b3 3b aa cd fc 3b 48 83 86 bc f8 92 ff 3d
       0.0054665566 0.0077149468 -0.016420022 0.12479204
0000e0 86 bc 25 3c b4 1c 4d bc ab 8e bb bd c8 9a 88 3d
       0.010115748 -0.01251905 -0.09158071 0.06670147
0000f0 90 d9 38 bd ce e1 d1 bd 7b 95 45 3d 5e 55 bb bd
       -0.04512936 -0.10248147 0.04823826 -0.09147142
000100 5a e3 ae 3c c1 c3 58 3d d2 37 12 3c a7 0c 98 3d
       0.021348644 0.05292106 0.008924441 0.07424288
000110 5f 0e 8e 3c 37 56 f8 bc 39 c3 dd 3d 5d 78 df 3c
       0.017340837 -0.030314548 0.108282514 0.027279073
000120 42 6f fc 3d 27 57 30 3d 9d 59 63 bd cc 16 2a 3e
       0.12325908 0.043051865 -0.055505384 0.16610259
000130 c2 46 1b bd a2 df 5c bc 18 55 65 bd 69 7e bf 3d
       -0.037909277 -0.013481053 -0.055989355 0.09350283
000140 e6 a8 02 be 70 70 0f bd 5e 5c ab 3d 7e f7 23 3d
       -0.12759742 -0.035019338 0.08367227 0.04003095
000150 63 7e 1e 3e 4c c4 ac bd df 87 c4 bc f1 a6 be bd
       0.154779 -0.08435878 -0.02399057 -0.09309185
000160 ba 2a 25 3c 44 34 23 bc 97 0f 90 3d 83 27 ab bd
       0.010080988 -0.009961192 0.070342235 -0.08357146
000170 bb 37 a3 3d c9 48 58 bd ad 85 b3 bd 0a 4e df 3d
       0.07969614 -0.05280379 -0.08765731 0.10903557
000180 64 4b 1d bd f1 19 2a bd 85 01 34 3c 3b 54 d3 3d
       -0.038401976 -0.041528646 0.01098669 0.103188
000190 c4 fc 61 bc 08 01 56 bd 69 0e 5f 3d 4b b9 95 3c
       -0.013793174 -0.052247077 0.054457102 0.018276831
0001a0 df 20 cb 3d 14 bc 1e bc 0c 86 14 be ef 7f 07 3d
       0.09918379 -0.009688396 -0.1450426 0.03308099
0001b0 0a b2 a4 3d 3f 8f 10 3e ef d9 18 be 59 ea 2f bd
       0.08041771 0.14117144 -0.14926885 -0.0429481
0001c0 64 a3 0f 3e 4e 96 4a bc 80 dd b8 bc e6 39 19 3c
       0.14027172 -0.012364937 -0.022566557 0.009352183
0001d0 8f 55 c8 3c a8 4d dc bb 9e b5 c4 3d f1 9c 94 3d
       0.02445486 -0.0067231245 0.09604953 0.07256497
0001e0 89 93 76 bc d1 fb 7a 3d 03 a6 14 3b 77 c4 15 3e
       -0.015049824 0.061275307 0.0022681959 0.14625727
0001f0 4c 11 39 3d c0 11 bd bd 22 1d b9 bd 02 b8 2f be
       0.04518251 -0.09231901 -0.0903876 -0.17160037
000200 8a d9 11 be c6 ad 1e bd a4 e8 24 3c 27 97 53 bc
       -0.14243141 -0.038739942 0.0100652315 -0.0129144555
000210 0b 06 88 bd d0 65 0c 3e 18 65 05 be 94 f3 19 be
       -0.066417776 0.13710713 -0.13026845 -0.15034324
000220 3f fd 87 3c 88 79 cc 3d ce c0 87 bc 93 04 e7 3d
       0.01660025 0.09984118 -0.016571429 0.11280169
000230 2f 2b 9f 3d 5d 3a 21 3c 25 b2 36 bd f4 6c fe 3c
       0.077719085 0.009840575 -0.044603486 0.031057812
000240 cb 77 3a bd 11 b3 11 3e e8 a1 0a 3d 14 ec 47 bd
       -0.0455244 0.14228465 0.033845812 -0.048809126
000250 db 08 1c bc 8e c8 34 3e e5 34 78 3d 1f 45 9c 3d
       -0.009523596 0.1765463 0.06059732 0.07630371
000260 b3 3b 30 bd 50 56 f6 3d f4 ab 57 3d bb d5 9c 3c
       -0.043025684 0.120281816 0.05265422 0.019144883
000270 ec 39 4c bd 08 f2 85 3d db 6d 5c be c5 9a 3d 3d
       -0.049859926 0.065403044 -0.21526282 0.046290178
000280 a3 bb 8c 3d d3 df dd bd f3 d9 14 3e 09 aa f5 bc
       0.06871726 -0.10833707 0.14536266 -0.029988306
000290 d3 90 6e 3b 64 39 87 3d 22 f6 08 3d 64 27 de 3c
       0.003640224 0.06602743 0.033437856 0.027118392
0002a0 5e 9f 88 3d 8a 03 18 bd 5a 7e 2e be ea 77 95 3d
       0.06671022 -0.03711275 -0.17040387 0.072982624
0002b0 ea b0 07 bd de de 14 bd 35 b9 c1 bd dd 81 94 bc
       -0.033127703 -0.036345355 -0.094591536 -0.01812833
0002c0 ac 5c db ba 2b 4f 9c 3d d8 a2 74 bd 1d ae b4 bd
       -0.0016735992 0.076322876 -0.059725612 -0.08822272
0002d0 c2 3f d8 3d 53 4f bc bd 97 c4 d8 3d 0c ca dd 3d
       0.10559036 -0.091948174 0.105843715 0.10829553
0002e0 f2 69 5b 3d a2 e9 2a 3e a1 0a d0 3c 1f 7b 26 bd
       0.053567834 0.16690686 0.025395693 -0.04064476
0002f0 a3 c9 11 be 6c 41 c1 3b 1c 4b d9 bc 04 fa 1a 3e
       -0.14237075 0.0058976915 -0.026525073 0.15134436
000300 91 07 f0 3a 28 66 81 bd 67 b0 cc bb fe d6 2b be
       0.0018312802 -0.06318313 -0.0062466147 -0.16781232
000310 b4 07 85 bd 28 5f 22 bd d1 f6 bf bd 06 0f 0c 3d
       -0.0649561 -0.03964153 -0.09373248 0.034194015
000320 ca bd 82 bd 64 31 13 be 36 54 ce 3d 62 9c 98 3c
       -0.06383856 -0.1437431 0.10074656 0.018629257
000330 a5 02 69 bd 26 b7 d9 3d 47 e1 e2 3c 05 78 ee 3c
       -0.056887288 0.10630636 0.027695311 0.029109964
000340 a4 a7 40 3e 6c c4 ad bd e5 06 99 3d 41 7e 09 bc
       0.1881395 -0.0848473 0.07472018 -0.008391918
000350 e3 2e 62 bd f6 91 76 bd e3 1f 18 bd af ae 58 3d
       -0.055220496 -0.060197793 -0.037139785 0.052900966
000360 16 43 2f bd 5a 80 de 3d 47 30 30 3d 19 9f 9f bd
       -0.042788588 0.10864325 0.04301479 -0.07794017
000370 b9 db 8e bc ea 4f 41 3d 89 4d de 3c 5e fe c9 bd
       -0.017438756 0.047195353 0.027136581 -0.0986297
000380 fb a8 96 bc 5a 83 d0 3d d8 8e 1f be 89 d2 c1 3c
       -0.018391123 0.10181303 -0.15581834 0.023659961
000390 da 1c 11 3e 54 4e c7 bd b7 ce 99 3d a0 dd 7c 3a
       0.14171162 -0.09731737 0.07510131 0.0009646062
0003a0 28 00 71 3d 70 d5 17 be 29 3e dd 3c c9 00 89 3d
       0.05883804 -0.14827514 0.02700718 0.06689603
0003b0 4d d5 d8 bd 4a 10 b3 3b 9f 90 df bc da 8f db bd
       -0.10587559 0.0054645883 -0.02729064 -0.10720797
0003c0 ea d5 5c 3c 5f 80 49 bb d7 63 46 be 03 bb 1b 3e
       0.013478735 -0.003074668 -0.19374023 0.15208058
0003d0 d3 cd 2a 3e bf 3a ae bc 08 7b df 3d 22 13 3d 3e
       0.16680078 -0.021268247 0.10912138 0.1846433
0003e0 be 60 5f 3d ff 99 42 bd 35 33 d9 3c 4e 9c 0c bd
       0.05453562 -0.047510143 0.026513675 -0.03432875
0003f0 68 9b cc 3d 1e 0c a8 bd 1a eb 86 bd a6 3c 92 bd
       0.09990579 -0.08205436 -0.06587811 -0.07140474

model.3.main.4.weight f4 [32]
000000 35 f4 78 3f a4 cd 7a 3f cc b4 7c 3f a4 23 75 3f
       0.9724763 0.9797003 0.98713374 0.9575751
000010 fa 70 7c 3f 36 11 7e 3f ea c1 7b 3f 38 b9 78 3f
       0.9860989 0.9924501 0.98342764 0.9715762
000020 4d 4d 79 3f 1e 0c 7f 3f 6e 98 7d 3f cb 1b 7a 3f
       0.97383577 0.99627864 0.99060714 0.9769866
000030 13 14 7a 3f 9b c8 80 3f 09 92 7b 3f 77 e3 7b 3f
       0.9768688 1.006122 0.98269707 0.9839396
000040 b8 14 80 3f a2 8e 77 3f 9f 11 74 3f 1d dd 7b 3f
       1.0006323 0.96702015 0.9533939 0.9838427
000050 0d c3 7d 3f 59 7a 72 3f 60 f0 7d 3f c4 8a 7e 3f
       0.9912575 0.9471794 0.9919491 0.9943049
000060 70 c3 79 3f 09 8a 75 3f a9 d5 78 3f 42 0d 7b 3f
       0.9756384 0.9591375 0.9720102 0.98067105
000070 cd 8e 7b 3f 5e b4 79 3f d4 a5 7d 3f 5b 5b 79 3f
       0.9826477 0.97540843 0.9908116 0.9740502

model.3.main.4.bias f4 [32]
000000 69 aa 38 3c a5 de 0c 3c 06 a6 ec bc 62 22 2d 3c
       0.011271098 0.0085980045 -0.02888776 0.0105672795
000010 0a b9 b1 3b 9a d6 21 3d f8 f1 8c bb 33 8b f6 ba
       0.0054236697 0.0395113 -0.004301306 -0.0018809795
000020 d0 77 70 3a d0 db 9f 3c 7c b4 c3 3d 20 29 1c 3d
       0.0009173127 0.019513994 0.09555909 0.038125157
000030 4d 7d 5c 3c 2d b2 2a 3c 17 86 a3 bc 4d fe 30 ba
       0.013457608 0.010418457 -0.0199614 -0.0006751761
000040 8c dc c8 3c 38 bb 06 3d 03 4c 21 3c 26 8d 0c bc
       0.024519227 0.03289339 0.009844783 -0.008578574
000050 e8 70 8d 3c f2 6d b3 3b 84 d4 fe 3c d5 1f 63 3d
       0.017265752 0.005475753 0.031107195 0.05545028
000060 35 1a ba 3b 29 89 2c 3c ec cb 31 3d 2f 49 4e 3d
       0.0056793937 0.010530748 0.043407366 0.050362762
000070 f2 40 51 bc cd e8 37 3d 6a 97 96 3c 93 a9 11 bd
       -0.012771832 0.04489975 0.018382747 -0.03556211

model.3.main.4.gate f4 [32]
000000 cb 6c 6e 3f f4 93 83 3f ba a9 6d 3f 9c 7f 8f 3f
       0.93134755 1.0279527 0.9283711 1.1210818
000010 b6 2c 73 3f c9 41 7b 3f 07 cb 8c 3f 24 8d 87 3f
       0.949901 0.98147255 1.0999459 1.0589948
000020 80 22 81 3f 57 21 8d 3f 4d 7d 84 3f 3b d2 70 3f
       1.0088654 1.10258 1.0350739 0.94070786
000030 0c 64 65 3f dd 32 79 3f 30 fd 7d 3f d6 3b 6e 3f
       0.89605784 0.97343236 0.9921446 0.9306005
000040 de 2a 76 3f d6 4a 8d 3f 11 c3 6a 3f f8 43 6e 3f
       0.9615916 1.1038463 0.917039 0.9307246
000050 af de 78 3f 54 80 6e 3f 3f a4 6f 3f b4 e9 89 3f
       0.9721479 0.93164563 0.93609995 1.0774446
000060 c1 e6 87 3f 9a 58 7b 3f d5 65 83 3f ad ef 8b 3f
       1.0617296 0.9818207 1.0265452 1.0932518
000070 a6 cf 88 3f c2 1a 71 3f e4 84 7d 3f f4 34 89 3f
       1.0688369 0.94181454 0.990309 1.0719285

model.3.main.4.running_mean f4 [32]
000000 67 30 32 3e d1 bb 2d bf 6f 9c 3d 3f 85 da 02 bf
       0.17401277 -0.6786471 0.74066824 -0.51114684
000010 1a f5 ee be f5 98 6d bf cd ce 17 bf 8a 79 30 bf
       -0.46671373 -0.9281152 -0.5929993 -0.68935454
000020 83 21 ff 3e 87 78 96 bf 98 e6 d3 bf 69 ba a6 3e
       0.49830255 -1.1755532 -1.6554747 0.32564095
000030 e2 b5 c2 be b7 52 7e 3e 42 cb a8 3f 82 68 a3 be
       -0.3802939 0.2483624 1.3187029 -0.3191567
000040 58 81 e3 bc dc 0e 12 bf ad d2 f5 bc 03 e8 3b bf
       -0.027771637 -0.57053924 -0.030007685 -0.73400897
000050 10 14 6d 3f b2 fc 3e 3f 58 cc 3c bf be 4b e6 3e
       0.9260874 0.7460433 -0.73749304 0.44979662
000060 9d e1 be 3e 19 90 b6 bd 19 36 40 bf ba c9 29 bf
       0.37281504 -0.08914203 -0.75082546 -0.66323435
000070 db fe 96 3f ec ac d1 3e 1c fd 32 be 09 1b 3e 3f
       1.1796526 0.4095224 -0.17479366 0.7426

model.3.main.4.running_var f4 [32]
000000 34 27 9b 3f b9 c8 bc 3f ed 89 90 40 d0 1f c7 3f
       1.2121339 1.4748756 4.5168366 1.5556583
000010 c5 f3 1a 40 53 da a6 3f 93 71 55 3f 83 96 bc 3f
       2.4211285 1.3035377 0.83376426 1.4733433
000020 9f be cb 3f a7 0c 09 40 00 77 94 40 ad 2e 26 40
       1.5917548 2.1413972 4.6395264 2.5965989
000030 20 64 64 3f 6c 8e 0a 40 e3 68 4c 40 c9 95 d8 3f
       0.8921528 2.1649427 3.1939018 1.6920711
000040 2e 07 d1 3f cc 17 8e 3f 93 0b 19 3f 87 bc 2b 40
       1.6330316 1.1101012 0.59783286 2.6833818
000050 4e a8 12 40 a4 dd de 3f 24 5c 19 40 46 0e e9 3f
       2.2915225 1.7411389 2.3962488 1.8207481
000060 3c 7a bf 3f 8b 18 b9 3f 91 12 fb 3f c9 e2 2f 40
       1.4959178 1.4460615 1.9615041 2.7482169
000070 e9 3a 0b 40 91 76 b2 3f 19 55 67 3f 56 b9 aa 3f
       2.1754706 1.3942434 0.90364224 1.333781

model.4.main.0.weight f4 [32, 32, 3, 3]
000000 de d9 d9 bd f0 55 6c 3c 63 0f 17 be 37 a1 c0 bd
       -0.10637258 0.014424786 -0.14751963 -0.09405749
000010 81 b0 e9 3c 9a b0 eb bc c5 fd c0 bc af 64 27 bd
       0.028526546 -0.028770734 -0.023558507 -0.040867504
000020 77 05 eb bd 10 ca a5 3d 12 bd a4 3c 09 30 43 bd
       -0.11475652 0.08095181 0.020109687 -0.04765323
000030 d3 6d 9d bd 8e e1 22 3d 04 51 25 be 8a d1 ef bd
       -0.07686963 0.039765887 -0.16144186 -0.11709888
000040 70 fa ba bd 46 76 ad 3d 02 56 b3 3c c9 22 d8 3d
       -0.091297984 0.084698245 0.021891598 0.1055351
000050 f0 d3 d6 bd f3 b8 76 3b a1 e3 31 3d 45 6a 25 bc
       -0.104896426 0.003764686 0.043429974 -0.010096137
000060 c0 5d 88 bd c6 3b 45 3d 6a 00 a5 3d 13 e7 fe bd
       -0.066585064 0.048152708 0.080567196 -0.12446418
000070 7d 4b 00 3e 30 f8 c5 3d a2 35 79 bc 38 b9 cb bd
       0.12528796 0.09666479 -0.015210541 -0.09947437
000080 c3 55 be bd 94 40 03 3e 38 d5 e8 3d c6 53 e1 3c
       -0.092937015 0.12817603 0.11368793 0.027505767
000090 3d a1 4c bd dc 74 79 3d a8 25 db b9 29 80 58 be
       -0.049958456 0.06090246 -0.0004179899 -0.21142639
0000a0 18 c8 f4 bd d2 10 92 3d 6d 2c d1 bc 36 a4 96 3c
       -0.11952227 0.071321145 -0.02553388 0.018388849
0000b0 2b 58 f2 3d eb c4 57 bd 3b f8 b5 bd 95 5c 39 3c
       0.11833223 -0.05267803 -0.08885237 0.011313577
0000c0 19 34 f3 3c c1 59 1f 3d 93 4b e3 3c e8 cd ad 3c
       0.029687928 0.038903955 0.027745998 0.021216348
0000d0 5e 0a 6d be 66 c4 5a 3e a1 a9 69 3d d0 4e b1 bc
       -0.23148486 0.21363983 0.057046536 -0.021644026
0000e0 e6 70 16 3e 22 cd a3 3d a8 d5 62 bc 57 32 40 3e
       0.14691505 0.0799811 -0.013844885 0.18769203
0000f0 f9 11 50 bb 52 47 cd 3d 7c b3 42 be 76 50 b0 bd
       -0.0031748994 0.10023369 -0.1901378 -0.08609097
000100 3f d0 2a bd 46 2b 13 3e 1a ea fd bd f8 2f 40 bc
       -0.041702505 0.14371976 -0.12398167 -0.011730187
000110 6a c0 3a bd 90 3b 08 3b c8 58 0f 3d 69 04 18 3d
       -0.045593657 0.0020787455 0.034996778 0.03711358
000120 25 62 41 3e bc b7 2c 3e fe 61 a9 bc f9 27 40 3d
       0.18885095 0.16866964 -0.02067661 0.04691312
000130 b6 cf 8a bd e0 b0 c8 3c 61 f7 a1 3b 97 0f 1b bd
       -0.06777899 0.024498403 0.00494282 -0.037856665
000140 43 6f a0 3c fe 88 42 be eb f6 ac 3d 0e 98 91 bd
       0.019584304 -0.18997571 0.08445533 -0.0710908
000150 c0 6e 4c 3d ac f1 24 3d b5 25 dd 3d d4 dd 96 bd
       0.049910307 0.04026954 0.10798208 -0.07366529
000160 a9 05 63 bd e8 0d 8a 3d 56 c1 67 bd 7b c3 1e bd
       -0.05542532 0.06740934 -0.056580864 -0.038760643
000170 e1 48 30 3e a2 4e bb bd d1 fa b6 3d 69 ca 85 bd
       0.17215301 -0.091458574 0.08934558 -0.06532747
000180 e7 2c a6 bd c8 11 6e bd 6b 27 40 3c ee 92 3d 3d
       -0.08114033 -0.058122426 0.011728148 0.0462827
000190 7b 41 f8 bd c2 d8 c7 3d a1 13 87 3d 00 48 d3 3d
       -0.121218644 0.0975814 0.06595541 0.10316467
0001a0 a0 24 aa 3d 52 38 c6 3d ee 98 38 3c 71 a3 fc bd
       0.08307767 0.09678711 0.01126693 -0.123358615
0001b0 3c 2e e4 3d 30 37 16 3d 94 f0 d2 bd 74 af fb bd
       0.11141631 0.036673725 -0.10299793 -0.122893244
0001c0 05 9a 07 3c 69 7e aa bd 2a 39 60 3e 4b 52 31 3e
       0.008276467 -0.08324892 0.21896806 0.17316549
0001d0 0c 14 a4 bd 0e 62 4f be a3 9b 1a bd 7d bc 64 3d
       -0.08011636 -0.20252249 -0.037746083 0.05584382
0001e0 49 5e 17 bd 3d fa db 3c 53 d0 95 3d 57 65 2d 3d
       -0.03695515 0.026852721 0.07315125 0.042332973
0001f0 d9 ec 67 bd 3a 81 57 bd ae a4 65 3d 5e c3 30 3d
       -0.05662236 -0.052613474 0.056065254 0.043155067
000200 3b ac 14 3d 3d 02 e3 bc f0 5e 29 bd c3 ae 19 3d
       0.036297064 -0.027711028 -0.041350305 0.03752018
000210 a2 60 13 bb 26 22 7e 3d 11 63 69 3d f9 fd 80 3d
       -0.0022488018 0.062044285 0.056979243 0.062984414
000220 5d 53 88 bd 8b c7 12 bd f6 79 1d bd c5 0b 21 3e
       -0.06656525 -0.03583483 -0.03844639 0.15727146
000230 d4 6c 7b 3b eb 6c b7 bd 5f bc c2 bd 90 ed 71 bc
       0.0038364427 -0.08956321 -0.09508585 -0.014766112
000240 eb d0 cb 3d 30 84 d0 bd 96 d8 e5 bd 94 b9 82 bc
       0.09951957 -0.10181463 -0.11222951 -0.015957631
000250 0e 4f f8 3d a6 bc 93 3c 3b 3b 7a bd 63 3c 24 3d
       0.121244535 0.01803429 -0.061091643 0.04009665
000260 62 02 fe bd 85 ce 56 3c a5 26 24 3d bf 15 7c 3d
       -0.12402798 0.0131107615 0.040075917 0.061544176
000270 e2 a0 28 be 9c e5 ad 3c a8 4b 13 bd a2 83 7c bd
       -0.16467622 0.02122765 -0.035960823 -0.061648972
000280 11 f8 76 3d f1 21 e5 3d 7c b1 2e 3d ae bf b8 bc
       0.06029517 0.111881144 0.04264973 -0.022552337
000290 3c 88 2f 3d ef a9 37 bd 51 ea 78 3d ac cb c6 3d
       0.042854533 -0.044839796 0.060770337 0.09706816
0002a0 61 30 7c be b8 c3 b8 3c 56 c0 95 3d 36 21 be bd
       -0.2462783 0.022554263 0.07312076 -0.09283678
0002b0 c2 d3 3a bd 2e 3c c1 3c ce 8f 4e bd c3 b9 ce bc
       -0.045612104 0.023588266 -0.05043011 -0.025235062
0002c0 68 e9 08 3e 7b e1 eb bd f8 09 7d bd 47 ce 8a 3d
       0.13370287 -0.11517616 -0.061777085 0.067776255
0002d0 8d 4c c9 ba 08 1a 14 3d c3 7a 18 bd c8 9d e2 bd
       -0.0015357897 0.036157638 -0.03722645 -0.11065251
0002e0 27 c1 9b bd bb 07 e6 3c 19 4a 11 bd 5d 44 2f 3d
       -0.076052 0.028079858 -0.035471056 0.042789806
0002f0 81 e5 67 3c 93 76 28 be 45 51 4e bd 6d 6e 7c bd
       0.014153839 -0.16451482 -0.050370473 -0.061628748
000300 88 c4 83 bc 51 e9 83 3d 2b f5 4d 3c 63 53 9c 3d
       -0.016084924 0.06440986 0.01257066 0.07633092
000310 f6 33 fa 3c e9 c7 ae bd b2 3b 39 3b a3 4b a2 bd
       0.030542355 -0.085342236 0.002826434 -0.07924583
000320 82 c2 3b 3d a4 92 6e bd 99 5a 5a bc a6 59 92 3d
       0.045839794 -0.058245316 -0.013327264 0.07146005
000330 22 0a 92 bc 87 06 8e bd 56 22 a2 bc 30 8d a3 bc
       -0.017827097 -0.06934839 -0.019791763 -0.019964784
000340 b9 ca 3c bd 93 12 9f 3d ea 9d c7 3c ff dd 70 bd
       -0.04609177 0.077672146 0.024367291 -0.058805462
000350 c9 f0 8b bb ec 16 8b 3c 54 72 77 bd 8d ca 2f 3d
       -0.004270647 0.016978703 -0.060411766 0.042917777
000360 49 40 59 3d 8c 16 b4 bd 8d 95 cc 3d cf 9c 87 3c
       0.053039823 -0.08793363 0.09989462 0.016554264
000370 7c 14 07 3e 50 ac 03 be 0e 6a 93 bd 67 a3 ae bd
       0.13191408 -0.12858701 -0.07197963 -0.0852726
000380 6f 0e 1c 3e e3 4f 01 be cc b8 63 3d 40 21 ea bd
       0.15239881 -0.1262813 0.055596158 -0.11432123
000390 fb 00 44 3d 75 65 db 3d 08 2e 68 ba 83 e3 40 3c
       0.047852498 0.10712711 -0.0008856957 0.011772993
0003a0 68 f1 3b bd 00 4f b9 bd f6 f3 b3 bd f9 99 99 3d
       -0.04588452 -0.09048271 -0.08786766 0.07500071
0003b0 80 ca b9 bc 71 97 36 3d 47 ee 0e bd 1d 04 06 3e
       -0.022679567 0.04457802 -0.034895208 0.13087507
0003c0 68 c7 f7 bc 5a 8c cf 3d eb f8 5a bd 97 54 52 3d
       -0.030246451 0.10134192 -0.053460043 0.051350202
0003d0 2a 17 48 bd 98 0a cb bc 1e 82 ac bc fa d2 1d be
       -0.048850216 -0.024785325 -0.021058138 -0.15412512
0003e0 3e 6f 07 bc a2 af 7a bd be b4 1c 3d 34 98 1f 3d
       -0.008266268 -0.061202653 0.038258307 0.03896351
0003f0 dd 61 3b 3e 7d 1a 64 3c bc 4c fd 3c 9e 18 42 3e
       0.1829905 0.013922331 0.030920379 0.18954703

model.4.main.1.weight f4 [32]
000000 a8 25 7d 3f 3c b1 82 3f 8b 4f 80 3f b9 f6 72 3f
       0.98885584 1.0210338 1.0024275 0.9490772
000010 59 8c 80 3f 33 12 80 3f bc a7 77 3f 31 8a 82 3f
       1.0042831 1.0005554 0.9674032 1.0198423
000020 97 87 81 3f 73 64 7c 3f d0 c7 7f 3f e8 08 83 3f
       1.0119504 0.98590773 0.99914265 1.0237093
000030 f8 96 7c 3f 80 3a 7c 3f 63 e6 7d 3f 65 87 7f 3f
       0.9866786 0.98526764 0.9917967 0.9981597
000040 0b 1a 82 3f 10 98 7e 3f 4c 77 80 3f 68 49 80 3f
       1.0164198 0.9945078 1.0036407 1.0022402
000050 70 d1 82 3f a4 4c 82 3f 9f 21 80 3f 1c 2b 7b 3f
       1.0220165 1.0179639 1.001026 0.98112655
000060 ca 12 7f 3f 34 79 7f 3f 09 62 7d 3f 40 94 80 3f
       0.99638045 0.99794316 0.98977715 1.0045242
000070 c9 21 82 3f 30 95 81 3f 56 ff 80 3f 21 30 7c 3f
       1.016656 1.0123653 1.0077922 0.9851094

model.4.main.1.bias f4 [32]
000000 ca 3c 11 bc ee fe e3 3c 01 c3 a7 3a 5b 98 e2 bc
       -0.008864591 0.02783152 0.0012799205 -0.02766054
000010 61 d6 c8 3c 95 22 0b 3d 1d fe a8 3b 97 e9 5e 3c
       0.024516286 0.033968527 0.005157246 0.013605497
000020 7b 4a 2c 3c fb 00 31 3c 41 9b 41 ba 59 86 60 3d
       0.010515804 0.010803456 -0.00073855004 0.054815624
000030 61 ca 61 ba e9 1a 70 3b fd 40 8b bc 03 89 5d ba
       -0.00086132257 0.0036637133 -0.016998762 -0.00084508973
000040 dc 15 b4 3b 40 12 ca 3c da 22 1a 3d 9e f6 1e ba
       0.00549577 0.024666905 0.037630893 -0.00060639705
000050 3e e2 59 3c 88 0d eb 3b ff 97 4f 3c 2f ed 9e bc
       0.013298569 0.007173244 0.012670516 -0.019400207
000060 8f 88 47 3c e0 23 8b bb 33 50 ad 3b 38 71 cc 3a
       0.012178554 -0.00424622 0.0052891015 0.0015597707
000070 c3 3b 56 ba b3 c0 e6 3c d5 41 2b 39 2e a4 53 bc
       -0.00081723573 0.028168058 0.00016332355 -0.012917561

model.4.main.1.gate f4 [32]
000000 98 27 8c 3f 40 3a 98 3f 64 e2 88 3f 46 36 7a 3f
       1.0949583 1.1892776 1.0694089 0.97739065
000010 45 1d 87 3f 96 01 9e 3f 5d 64 87 3f e8 c6 83 3f
       1.0555807 1.2344234 1.0577503 1.0295076
000020 2d 8d 8d 3f 16 15 88 3f cb d3 8b 3f 80 69 71 3f
       1.1058708 1.0631435 1.0924009 0.94301605
000030 7f ee 74 3f fb 18 8b 3f 97 04 83 3f 5e 4b 7c 3f
       0.95676416 1.0866998 1.0235776 0.985525
000040 8f 99 73 3f e4 db 69 3f 3c 05 6f 3f 68 92 97 3f
       0.95156187 0.9135115 0.9336736 1.1841555
000050 a7 f0 7b 3f b3 5e 58 3f 3c c9 81 3f 05 04 56 3f
       0.9841408 0.845195 1.0139537 0.83599883
000060 2b b2 84 3f 31 9f 85 3f 36 cc 86 3f 0a 8a 8b 3f
       1.0366873 1.0439206 1.053107 1.0901501
000070 78 d8 86 3f 88 6e 35 3f a0 75 73 3f 72 70 82 3f
       1.0534811 0.7087178 0.95101357 1.0190566

model.4.main.1.running_mean f4 [32]
000000 40 e2 9c be dc c5 17 bf 8c 54 06 bf 5d c9 3d bd
       -0.30641365 -0.59286284 -0.5247276 -0.046334613
000010 e8 9d 7a be 55 c7 39 be 39 09 15 3f 6f 53 d0 be
       -0.24474299 -0.18142445 0.582172 -0.40688655
000020 db b7 6f be 25 4e d4 bd 5c b1 e4 3e 8e ff 05 3e
       -0.23409979 -0.103664674 0.44666564 0.13085768
000030 49 6b 33 bf b3 2c 93 be 49 ec 7b 3e 92 51 39 bf
       -0.7008558 -0.2874504 0.24601854 -0.7239009
000040 a5 f5 75 bf 75 88 11 bf 64 c3 77 bc 1c 12 24 3e
       -0.9607795 -0.5684884 -0.015122268 0.16022533
000050 2b 30 e6 be b6 89 2c 3e 7f 89 f3 3d eb d8 98 3e
       -0.44958624 0.16849408 0.1189146 0.29852995
000060 4b 1e 14 3e bd ba 11 3f 1e 4b 82 3e a6 af 80 be
       0.14464681 0.56925565 0.25447935 -0.2513401
000070 e6 3d 18 be f1 9c 00 3f e6 b9 b4 be dd 2f 97 3e
       -0.14867362 0.50239474 -0.3529808 0.29528704

model.4.main.1.running_var f4 [32]
000000 98 e3 8f 40 93 8a 92 40 fd 01 23 40 cf 35 8c 40
       4.4965324 4.579416 2.5469964 4.3815684
000010 f4 98 0b 41 52 c8 93 40 38 ed 3b 40 f5 66 2b 41
       8.724842 4.618203 2.9363537 10.712636
000020 00 25 57 40 2f 5a 80 40 63 e0 b6 40 2f 31 69 40
       3.3616333 4.0110087 5.714891 3.643627
000030 be 2c 61 40 d7 4d 72 40 aa 72 3b 40 07 21 09 40
       3.5183558 3.786001 2.9288735 2.1426408
000040 19 83 3b 40 79 b4 89 40 3f 51 d5 40 60 76 57 40
       2.9298766 4.3032804 6.6661677 3.3666
000050 2b 00 85 40 75 2a 15 40 9f 91 88 40 a5 d0 cb 40
       4.1562705 2.3307164 4.267776 6.3692193
000060 be cc 84 40 68 1b 5b 40 84 8f 2e 40 3b d7 c2 40
       4.149993 3.4235477 2.7275095 6.0887733
000070 e6 47 a2 40 9a b4 91 40 6e 5d 16 40 00 a5 82 40
       5.0712767 4.553296 2.3494525 4.0826416
