checkpoint/clf/experiment_name/600/netG.pth (torch, 244594 bytes, 32 tensors)

model.0.bias f4 [32]
00000000: e7e9 64bc dc67 6bbb 33e7 9d3c 78f8 943d
00000010: 82fb dcbc 5a0e 783d 2149 b13c aa87 e7bb
00000020: d874 6cbd 6f2e 583d b319 b13b 2115 1dbd
00000030: 1d93 393d f774 e23c acb7 b43b 6507 243c
00000040: 1e85 bdbc d0d5 fe3c dc9e 44bd a343 28bd
00000050: 3ad5 e23d f6d2 b5bc 1789 0b3d b169 8abc
00000060: e1ee 9ebb a8f5 3cbd f8c0 7cbd 8d6a 45bd
00000070: ec2b 833d 36b8 5d3d 893b ee3c 7519 5bbc
-0.013971782 -0.003592006 0.019275283 0.07273954 -0.026975397 0.06056056 0.021641316 -0.007065733
-0.05772862 0.052778658 0.005404675 -0.03835023 0.045306314 0.027643664 0.0055150595 0.010011529
-0.023134764 0.031107813 -0.048003063 -0.04108013 0.11075826 -0.02219532 0.034066286 -0.0168961
-0.004850254 -0.046132714 -0.061707467 -0.048197318 0.06404862 0.054130755 0.029081123 -0.013372769

model.0.weight_orig f4 [64, 32, 3, 3]
00000000: 3794 c9bb 8677 07bc 9005 043c d6f6 653c
00000010: e7a0 3f3d dfb8 f7bc 1afe b73b eda9 373d
00000020: 7e3c a33c 52b3 023d 3f65 863d 83de f5bc
00000030: b3d5 9d3c 2ba8 363d ac32 cfbc fe12 b23b
00000040: 25fe b03b 4047 29bd 7680 6b3d 07d5 78bc
00000050: 8903 a63a f381 1dbd f5dd 36bb 0578 11bc
00000060: 60e0 ebbc 1eb5 44bd 771e c2bc 3e14 8abc
00000070: 1fd3 5d3c badf 4c3d e509 6d3d 5870 ae3d
00000080: 77c2 c33b 5753 4d3d 908f 86bc f2d9 883d
00000090: bde9 c3bc ef30 83bd 09f2 62bd cb56 39bd
000000a0: 4e66 583b 5ad7 b83c c273 29bd bd46 53bd
000000b0: 2b2e 7fbd 4228 88bb 316e 0a3d 2887 0b3c
000000c0: ee80 8cbc d849 14bc ff81 31bd f255 12bc
000000d0: f7dc 253d eb14 7abd 22ad c7bb 667e 08bd
000000e0: 69d1 6abd 195c b63b 6f54 d7bc 83e9 503d
000000f0: a587 013d 2ca6 0dbd 9802 7fbc 02c5 263d
00000100: 1b74 00bd 24e3 99bb 9fb9 8dbb 1a5e dd3c
00000110: cea8 51bd 2eaf 89bc 417d 20bd d89c 2cbd
00000120: 88e5 3cbd 8458 063d 1de3 193d 211a 41bd
00000130: 8a25 8c3b d436 e9bc 1148 1d3d 37e2 23bd
00000140: 11a5 543d 1619 2fbb 8ea3 723d 8ea6 85bc
00000150: c5e5 d33c 33a3 69bc 3f03 793c 890c 813d
00000160: 6f3a 8ebb 9ceb 3fbd 5c92 4d3b f15d 60bd
00000170: 2951 143d 7cb3 0fbd 2017 e93c 35b8 e8bb
00000180: bf85 76bc 4cb0 3d3d 5a38 38bd f64d 5ebd
00000190: e1c3 0e3d dc92 c5bb e657 4cbd 92a8 51bc
000001a0: 48d2 8e3c b2fa 9d3c 64ca 66bc d1bc d23b
000001b0: 1339 283c 7528 423d 566b 3bbc 4f39 783d
000001c0: 6ba7 af3d 2b5e 9abc 7486 a4bb a865 883c
000001d0: ea8d dcbc c501 a7ba ef49 f1bc 0ff5 24bb
000001e0: 7535 013d 920d a73b 5b81 47bd b25a e33c
000001f0: a3f8 61bd 2fd0 d5bc 3e1c 943c ca0c 13bb
00000200: 0495 0c3d 38a7 6ebc 0fb3 a13c 2da2 153d
00000210: df8b 0fbd 26ed 6f3d 3c02 1abd 1d2f ee3c
00000220: 02c5 e23c 0bc9 4a3d 2763 4c3d 15d9 41bd
00000230: 8460 9f3c 33e6 fdbc ec42 3bbd 8ecc c3bc
00000240: 19c4 103d da1f 52bd 1b75 20bd 6480 563c
00000250: 0faa 64bd 1115 1d3d 3749 323d a9c5 04bd
00000260: a2b4 0a3d 26ae 583d 200e 863b fd53 f43c
00000270: 3b52 4c3d f02e f33b c4d5 24bc 6b3d 533d
00000280: ffdf 6c3d b0a7 99bc 61d6 4a3d 60c8 3abd
00000290: 0db3 963c 4598 153b 6b1f 973c b1a4 6ebd
000002a0: ba37 083d 0e66 243d 2b60 ca3c b277 f03c
000002b0: 737f e7bc 20da bd3c 8bfb 9bbc e41f e73b
000002c0: fd3e 6e3d 88f4 fb3b 0536 733c d7db c43c
000002d0: 8555 063d 0f8f 6fbc eaf0 07bd d5fb 563d
000002e0: 8204 78bc b476 623d 65ab 4f3d 0af1 c8bb
000002f0: 40e2 e93c 8d58 8fbc 37c4 613d 683b 06bd
00000300: 415b 4abd 1723 a03c e0f2 21bc 2890 543d
00000310: e2d3 7d3b e97c 5cbd c938 cc3b a357 6ebd
00000320: 6b65 a43b 09c2 053d e263 353d 7618 fabc
00000330: 07c6 36bd 2121 3dbd 19d7 10bd 9485 043b
00000340: dfa2 773c 6842 c4bc 850d 43bd f785 d93b
00000350: 6284 3d3c 83c5 07bc 2084 68bd d8a3 41bd
00000360: fe26 ffbc e4c4 1fbc 1233 7b3c 2d3d 4ebd
00000370: 49cf 313d c252 c03c c24f 08bd 9e73 3abb
00000380: 3153 733d 33f0 1dba 3db1 933c c8c0 1dbd
00000390: c900 44bd 5399 033c 6a40 213d 8bf6 4c3d
000003a0: 192a 7b3d 4e9f 0f3d 3257 133d cb07 91bc
000003b0: 8311 8dbc 4e5f 1a3d 4f03 09bd 8217 20bd
000003c0: 060e db3c 4e66 65ba f5d3 b93c 9315 2fbd
000003d0: 3b5d 7d3d d787 d5bc 222a e93b aeb8 cabb
000003e0: 61a6 a6bc 4c69 743d 5847 0f3d e235 c73c
000003f0: 41e2 133d 31d6 0c3d 6136 d8bb 326c 4abd
-0.006151702 -0.008268243 0.008057967 0.014035901 0.046784308 -0.03023952 0.005615008 0.04483979
0.019926306 0.031909294 0.0656228 -0.030013328 0.019266939 0.04459397 -0.025292717 0.005434393
0.00540139 -0.041327715 0.057495557 -0.015187508 0.0012665848 -0.038454007 -0.0027903293 -0.008878713
-0.028793514 -0.04802429 -0.023696167 -0.016855355 0.013539105 0.05001805 0.057870764 0.085175216
0.0059741098 0.050128307 -0.016425878 0.06682195 -0.023915166 -0.06405818 -0.055406604 -0.045248788
0.0033019963 0.022563625 -0.04137016 -0.051581133 -0.06229989 -0.0041551897 0.033796493 0.0085161105
-0.017151322 -0.009050809 -0.043336865 -0.008931624 0.04049393 -0.061055105 -0.006093637 -0.033323668
-0.057328615 0.005565178 -0.026285378 0.051003944 0.0316235 -0.034582302 -0.015564583 0.040715225
-0.031360727 -0.0046962667 -0.0043251063 0.02702241 -0.051186375 -0.016807165 -0.03918195 -0.042141765
-0.046117336 0.03279926 0.037570108 -0.04714406 0.004276936 -0.028468527 0.038398806 -0.040010657
0.051915232 -0.0026717833 0.05923801 -0.016314771 0.025866399 -0.014260101 0.015198528 0.06301219
-0.004340462 -0.046855554 0.0031367755 -0.05477709 0.036210213 -0.03508328 0.02845341 -0.0071020373
-0.015046536 0.046310708 -0.044975616 -0.054273568 0.034854773 -0.00602947 -0.049888514 -0.012796538
0.017434254 0.01928458 -0.01408634 0.0064312 0.010267514 0.047401864 -0.011439165 0.06060153
0.08576854 -0.01884373 -0.005020911 0.016650036 -0.026923139 -0.0012741616 -0.0294542 -0.002517048
0.03154512 0.0050980533 -0.048707347 0.027753208 -0.05516876 -0.026100246 0.018079873 -0.0022438043
0.0343218 -0.014566235 0.019738702 0.036531616 -0.0350455 0.05857577 -0.037599787 0.0290752
0.027681831 0.049508136 0.049899247 -0.047326166 0.019455202 -0.030993557 -0.04571812 -0.02390125
0.035343263 -0.051299907 -0.03917418 0.013092134 -0.055826243 0.03835017 0.043526854 -0.032415066
0.03386367 0.052900456 0.0040910393 0.029825205 0.04988311 0.007421367 -0.010060731 0.051572245
0.057830807 -0.018756717 0.049520854 -0.04560125 0.018395925 0.0022826355 0.018447598 -0.05826253
0.03325627 0.04013639 0.02470406 0.02935395 -0.028259015 0.0231753 -0.019040843 0.007053362
0.05816554 0.0076890625 0.014844422 0.024030609 0.0327964 -0.01462151 -0.033188738 0.05248626
-0.0151377935 0.055288985 0.050700564 -0.0061322497 0.028550267 -0.017498279 0.055118766 -0.032771498
-0.049403433 0.019547982 -0.009884566 0.05189529 0.0038731028 -0.05383006 0.0062323553 -0.058189046
0.005016973 0.03265575 0.04428471 -0.030529242 -0.044622447 -0.046174172 -0.035361383 0.002022122
0.015114515 -0.023957446 -0.047620315 0.0066382843 0.011567207 -0.008286837 -0.05676663 -0.047275394
-0.031146523 -0.009751532 0.015332 -0.05035131 0.043410573 0.023476962 -0.033279188 -0.002845026
0.05940551 -0.0006024867 0.01802885 -0.03851393 -0.04785231 0.008032161 0.03936807 0.05003981
0.061319444 0.035064034 0.035971828 -0.017703911 -0.017220264 0.037688546 -0.03345042 -0.03908492
0.026740085 -0.00087509013 0.022684077 -0.042745184 0.06185649 -0.02606575 0.0071156183 -0.0061865663
-0.020343008 0.05967073 0.034980148 0.024317686 0.036104444 0.034383956 -0.0065982793 -0.04941959

model.0.weight_u f4 [32]
00000000: beea e13d 0edf 863e c926 8e3d 6537 a43e
00000010: cd75 06bd 06ac fe3c 1817 f2bc 04c0 a6bc
00000020: 6011 41bd a5a8 633e 4577 0abd 15a1 9bbd
00000030: b2b6 523e 4176 d6bd 63f5 b23b d4b5 88bd
00000040: daa4 71bc fb59 be3e 79e3 ecbc 84ee 77bd
00000050: b58e 343f 29e5 2a3d 1782 5abd 3fe4 e0bc
00000060: 9857 b53d 7994 083d 115c 40bd 4074 813d
00000070: 5c07 0cbe 57e2 203d ecf0 643d 2dfe a83d
0.11031102 0.26342052 0.069409914 0.32073513 -0.032827187 0.031087887 -0.029552028 -0.020355232
-0.04713571 0.22232302 -0.03380515 -0.07599083 0.20577505 -0.10471774 0.0054613813 -0.06675306
-0.014748776 0.37178025 -0.028917061 -0.0605302 0.70530254 0.04172245 -0.05334672 -0.027452586
0.08854598 0.03334472 -0.0469628 0.06321001 -0.13674682 0.039278354 0.055893824 0.08251605

model.0.weight_v f4 [576]
00000000: 0934 043d b3ef 373d eefb 10bc 0313 a93d
00000010: 938a 403d b602 003d 25eb a93d 744e 103d
00000020: c1d6 2c3c 9489 ce3c f5c6 0d3d 17d9 a83d
00000030: b033 683d c1c9 a83d 899b cd3d 26ab 8e3d
00000040: bad9 af3d 27b8 ad3d 65a0 233c 40b3 103d
00000050: abc7 973d 2a2f ab3c 9763 d33c eb7b 733d
00000060: f541 413d 5226 b23d 95e0 ae3d 4b28 d43c
00000070: 8d9f e83a 76b3 b63b 59ca 253d d241 e83c
00000080: 9b48 14bc b42a 423d 3370 973d b966 a83c
00000090: efc8 493d f9dc 733d 6692 8a3d cb17 eb3c
000000a0: b0f7 533d eeff de3d fd65 02bd 75e2 623d
000000b0: eae6 653d 88e3 043d f61c 553d 8a02 ba3b
000000c0: 539a 033d a62c 923d 02d4 673c 9290 d03c
000000d0: 6567 223d 59e9 38bb d1dd 1b3d 1c6f 283d
000000e0: f28c 993d 7934 6d3d 7755 573d 8d1f 283d
000000f0: d2e9 ac3d 1e09 6b3d 8547 793d 5bd9 953b
00000100: 8dc0 f73c 7f0f 993b 0344 f93c b3fa cf3c
00000110: d06b a0bc 78d5 3f3d 620a 1abc 5580 a43b
00000120: 283c f43c 26ce a73d bf99 f33d 2266 f43d
00000130: c179 d43d ed26 ea3d 88ae 543d 8b40 383d
00000140: 9292 0a3d f64c b83c 07c8 823d 51fd f23c
00000150: 97df 053d 8e72 b23d 46df af3b c636 b33b
00000160: 6355 66bc fbc9 843a 7984 48bc 80f9 753c
00000170: f451 8dbb 629a eb3c aa94 6e3c efe1 5ebb
00000180: 7483 1f3d a2be 3a3d f8de ba3c 1581 9b3c
00000190: d261 433c 3948 0bba 7526 3abc 37fb 0ebc
000001a0: df7e 64bb 5cee 2e3c 2ecc 8a3a 20e2 d73b
000001b0: b9a7 c4bc 8858 363b 1c12 ff3c c4e5 18bc
000001c0: 5226 8e3d 3122 913d 0b21 09bb ba75 883c
000001d0: b4e6 a43d 0184 f33c da34 7dbc 3866 bb3c
000001e0: 9af5 c43c 9e50 833b caa1 d83c c19d d13c
000001f0: 7458 023c 04ff 393d fc65 6b3d a90a 9f3d
00000200: b7d3 6e3d 26e5 ac3c 36df db3c 8114 973d
00000210: 966b 933d 6ccb 993d 41a6 393d ed61 663d
00000220: b0a2 693d c505 143b ecc0 853d fc3b 943d
00000230: 1503 7cbb cbb1 783d 53ad 6a3d 96b2 a0bc
00000240: e1af 693d f61c 9d3c 3de7 ab3d 04a6 a9bc
00000250: 1d8e 233d d847 833d 0f46 933c 4ba8 933d
00000260: ce1a 7a3d 8ab0 563d c55b f53c eae0 313d
00000270: aee3 6f3c 7cd9 2f3d 7bf8 b43c 7537 a63c
00000280: cb94 013d bf23 893c 3df6 cb3d 150f df3c
00000290: 7b74 d83c c556 a63d df00 323d 2831 b03d
000002a0: a549 673d 2b17 203d 7c25 463d 5e8c 043d
000002b0: 5b68 68bb 51d6 023d a712 84bb b5b9 af3c
000002c0: e70e f13c 83ff 4b3d da3a 483d 779d 523d
000002d0: 0a8e 103d bf2f 873d 455c bd3d c217 bb3d
000002e0: 7735 053d 5840 943d e179 d73d 19ec 653d
000002f0: 6872 883d 1250 853d f2f3 2a3d 2c65 003d
00000300: 8396 ac3c 997b 5a3c 73b9 b53b 7bbd 6b3c
00000310: 5296 d83c 5940 543d 89a2 ee3b ee18 243d
00000320: d8b9 4fbc 3ffc e7bb a60c cc3b 2323 f33a
00000330: 6083 663c 7795 453d 67e8 053c 50a9 e9bb
00000340: 32fd cb3c bb50 973c 552a 6c3d 4fd7 9e3c
00000350: 2c37 ebbb 79fd 393d 0495 383c 127f 2f3c
00000360: e71d 973c 55f3 0d3d 7b48 f53b adbe 7fbc
00000370: 9926 16bc 4feb 8d3c d986 883c f253 cf3b
00000380: d471 193d fa68 1cbc f5e3 49bc a97e 3cbc
00000390: 55b2 c43c 1ea2 443d 9711 083d 5867 4b3b
000003a0: fc57 1ebb dec0 4bbb 3b0e 803d 0139 c03d
000003b0: 7e37 923d 219c 6f3d ce64 943d d709 8a3c
000003c0: c8b9 0b3b c14e 953d d43d 913c d71c 543c
000003d0: 81aa 283d 1221 543d 5d6d 713d d847 463d
000003e0: 23da 653d 2583 793d a6e9 333c 1e40 5b3c
000003f0: 1484 433d e1c6 5a3d 5a68 df3c f72c 2c3d
0.032276187 0.04490633 -0.008849127 0.08255579 0.047007155 0.031252585 0.082968034 0.03523107
0.010549248 0.025212087 0.03461357 0.082445316 0.056689918 0.082416065 0.100394316 0.06966238
0.0858645 0.0848239 0.0099869715 0.035327196 0.074111305 0.020896513 0.025804324 0.05944435
0.047182042 0.08698715 0.085389294 0.02589812 0.0017747745 0.0055755926 0.040476177 0.028351698
-0.009050514 0.047404006 0.07394447 0.020556794 0.04926389 0.059536908 0.067662045 0.028697869
0.051749885 0.108886585 -0.031835545 0.055391748 0.05612842 0.032443553 0.052029572 0.005676572
0.032129597 0.07137422 0.014149668 0.025459561 0.039649386 -0.0028215258 0.038053337 0.041121587
0.07497586 0.05791137 0.05257174 0.041045714 0.08443035 0.05738174 0.060859222 0.00457303
0.030243183 0.0046710367 0.030427938 0.025388097 -0.019582659 0.04683444 -0.0094018895 0.005020181
0.029813841 0.081936166 0.11894559 0.11933543 0.10374785 0.11433206 0.05192426 0.044983428
0.033831187 0.022497635 0.063858084 0.029661806 0.032683935 0.08713256 0.0053671924 0.005469176
-0.014058444 0.0010130996 -0.012238615 0.015013099 -0.004312748 0.028760139 0.014561811 -0.0034009179
0.038943723 0.045591958 0.022811398 0.01898245 0.011925178 -0.0005313191 -0.011361708 -0.0087268865
-0.003486566 0.0106769465 0.0010589415 0.0065882355 -0.024005758 0.0027823765 0.031136565 -0.009332124
0.06940903 0.070865996 -0.0020924236 0.016657699 0.08051816 0.02972603 -0.015454495 0.02287589
0.024042893 0.004007413 0.026444335 0.025587918 0.007955659 0.045409217 0.057470307 0.07765705
0.058307376 0.02110536 0.026839834 0.07376958 0.07198255 0.07509503 0.045324568 0.056245733
0.057039917 0.0022586447 0.065309376 0.072380036 -0.0038453985 0.06071643 0.0572942 -0.019616406
0.057052497 0.019178849 0.083937146 -0.020709045 0.03993045 0.064101875 0.017977742 0.07209834
0.06106072 0.052414455 0.029950986 0.043427385 0.014641685 0.04293202 0.022091141 0.020290116
0.03163604 0.016740678 0.099590756 0.027228871 0.02642273 0.08122019 0.043457862 0.08603126
0.056466717 0.039084595 0.04837559 0.032360427 -0.0035462591 0.03194267 -0.004030544 0.021450857
0.029426051 0.04980422 0.04888425 0.0514197 0.03529171 0.06600904 0.09246115 0.09135391
0.03252169 0.07238835 0.105212934 0.056133363 0.06662446 0.06509413 0.04173655 0.031346485
0.021067863 0.013335132 0.005545789 0.014388437 0.026438866 0.05181918 0.0072825593 0.040062837
-0.012678586 -0.0070796306 0.0062270937 0.00185499 0.014069408 0.048238244 0.008173085 -0.0071307793
0.024901006 0.018471112 0.05765756 0.019389777 -0.007178208 0.045407746 0.011265997 0.010711448
0.018446876 0.034655888 0.007485447 -0.0156094255 -0.009164476 0.017324118 0.016665863 0.0063271457
0.03746207 -0.009546513 -0.012322416 -0.0115048075 0.024010817 0.04800617 0.0332199 0.003103694
-0.002416133 -0.00310903 0.06252714 0.09385873 0.071394905 0.058498506 0.072457895 0.016850395
0.002132045 0.07290412 0.017729677 0.012946329 0.04117823 0.05178935 0.058942188 0.04840836
0.056116235 0.060916085 0.010980999 0.013381986 0.04773338 0.053412322 0.027271438 0.04203507

model.2.main.0.weight f4 [32, 32, 3, 3]
00000000: 4ec1 293e 1c69 623d 3e90 ba3d dfdc 52bd
00000010: 59ef 27bd cd90 663d 1056 ae3b 24d7 d8bd
00000020: f1c2 cc3d 910a 383c 60ec ae3d cddb cc3d
00000030: 2613 823d d73c 143e ddb3 7cbc 1541 4e3e
00000040: 4bd5 97bc c615 0e3d 2585 383e e2db d03c
00000050: b696 d9bb b701 2fbd a799 a53d ad3e 7cbb
00000060: a071 cdbd f871 21be 6c28 773d 581e 9dbd
00000070: cd12 51be f2bb 9abc 4dbe 083e 8bc6 3f3d
00000080: e68d 69bb a7f7 b23d 31ff 06bd 7aba 0cbe
00000090: 2d7e cbbd 4626 95bc 8f6f ea3d a746 89bd
000000a0: 0ac1 4f3a 4d76 bd3c cb30 2cbe 457a 173e
000000b0: ecbc ccbc 3650 533d 5492 e2bd 9782 dfbc
000000c0: 4bc5 0b3d 6eca 42bd 583a 323e 8f1a 49be
000000d0: 2939 783c b461 1fbd d63d fe3c cf49 02be
000000e0: 3bd0 cebd 1499 eebc 3913 01be 1d04 ebbd
000000f0: fa46 e2bb 5427 28bb a90b c93b 378c e93c
00000100: 7f91 43be 13e8 2bbd dd31 663d f211 0dbe
00000110: 8ee7 71bd 878a fcbc d2a8 1d3d fc66 103c
00000120: d46c 7abc f2ef 1d3d c1dc e43d 4f75 2d3d
00000130: bd70 d03d ad7a 4abd bfa1 a5bc 288a 31bd
00000140: 0513 043e 95ae d3bd f00e d3bb 92ce 85bd
00000150: 7b86 8cba 347b 67bd 03af b63d 6e63 a03c
00000160: 417e 613d 0168 7fbd 7865 ce3c cedd 0a3c
00000170: bb7a c3bd 7e7c 8cbd 09de e6bd 4c97 2a3e
00000180: 00cc c13c 9491 03be 8590 b0bd b8b8 6fbd
00000190: 54a1 97bd 1906 5d3d 94b3 c8bd d108 c93d
000001a0: a077 1c3d 2255 943e d09c 2b3d 8699 cf3d
000001b0: 71de a0bc 54ad 543b 3be1 73bc d1df 7abd
000001c0: bdef 0d3d bf9e 3bbd 6c1d 42be b18a a93d
000001d0: ed11 c5bc 7d4d d0bc 81d6 373d 30aa e6bc
000001e0: 4fc9 053e 9f93 123e 8044 adb9 c748 2a3e
000001f0: c079 09be 3692 18bd b9a2 1e3c e675 9dbc
00000200: 804e 7e3d d753 8e3d a32e 883d d703 2abc
00000210: 6b32 953c 5b7c 653d 3f48 923d 0c3f 683e
00000220: 3b7d 273e 88f4 86bd 1195 f2bd 91cf 843d
00000230: 53e8 d93c 1c9b 423d 0eb4 573c d9f3 983c
00000240: 0e97 8e3c 8885 86bd 2900 2bbc 2e6e 1f3b
00000250: bd14 12bc c016 403c 3140 853d b256 2fbe
00000260: 49ab 153d 1ec1 883d 9c51 88bd b243 903d
00000270: 1b76 143d 974f ae39 28ca 903c fc45 10be
00000280: 0c92 c2bd c8fa 51bd 4fe9 373a 5c29 99bc
00000290: 84f3 be3c 66d0 2c3d 506e a23d 82d5 e33b
000002a0: 2d7d 18be ccc0 27bd 1e08 2f3c ff48 e9bc
000002b0: 153d acbc 2bc8 05bd 7f93 983d 9aab b4bd
000002c0: f33f 08bb f048 063d 08e2 003e 84ce 9f3d
000002d0: 37b4 1d3e 4120 35bd dbd8 4abb 0cb3 bd3d
000002e0: 979d 88bc 313a 26bd e21c dcbc 737b c23d
000002f0: a334 f63d d15e c2bd a9cd 293c b87a f93c
00000300: d569 943d 1153 0ebd c55b 90bc b6d8 143d
00000310: bf16 87bd 1eb0 0c3e 8c9a d13d 6733 5bbd
00000320: 9671 4fbd 037b b8bc 9843 06bd 0dcc aabd
00000330: 528e cf3c 0b85 babd 1e93 63bd 5002 0b3e
00000340: 2fed 3dbc 54ba 29bd 8cc4 a7bc 43ff 0cbd
00000350: b862 3cbd 86ca c4bc 7c24 a03c 59c7 78bd
00000360: 7a04 0cbe ae06 d43d 641e 24be 28b0 07be
00000370: 6946 333d 63f8 333e 88d3 bf3b 039b a8bc
00000380: 7b19 b3bb d59b bdbd 02ae ba3c 1663 3cbd
00000390: 9966 f7bd 2e68 2ebd 9c48 e93c a9c1 aa3d
000003a0: 1b66 b9bd cd6e 55bb 7809 2dbe 006e 683d
000003b0: 9079 c5bc 2526 1a3b e4a0 803d 903b b73c
000003c0: 8427 8fbd 95e0 97bc d42a 9dbd 555c 0a3d
000003d0: 3523 033e a504 293d c60e d4bb b402 103c
000003e0: 15ad fc3c 888a 9b3c a22c 82bb 5044 15bc
000003f0: 6f11 463d ed69 b43c 430e 37be 7e71 80bd
0.16577646 0.05527602 0.09109543 -0.05148017 -0.040999744 0.056290437 0.005320318 -0.1058791
0.099981196 0.011232988 0.08541179 0.10002861 0.063513085 0.14476334 -0.015423742 0.20142014
-0.018534323 0.034688734 0.1801954 0.025495473 -0.0066402806 -0.042726245 0.080859475 -0.0038489506
-0.10031438 -0.15766132 0.060341284 -0.07671803 -0.20417328 -0.018888447 0.13353844 0.046820205
-0.0035637557 0.08738642 -0.032958213 -0.1374301 -0.099361755 -0.018206727 0.11447059 -0.06702929
0.00079251884 0.0231277 -0.16815488 0.14792736 -0.024992429 0.051590167 -0.11063066 -0.02728395
0.0341237 -0.047556333 0.17405069 -0.19639038 0.015150347 -0.038911536 0.031035345 -0.12723468
-0.100983106 -0.029125728 -0.12604989 -0.11475394 -0.0069054337 -0.0025658207 0.006135423 0.028509242
-0.19098471 -0.04196937 0.056199897 -0.13776377 -0.05905872 -0.030827774 0.038491078 0.008813616
-0.015284736 0.038558908 0.11174918 0.042348202 0.10177753 -0.0494334 -0.020218728 -0.043344647
0.1289788 -0.10336033 -0.0064409897 -0.06533541 -0.0010721231 -0.05651398 0.089200996 0.019578662
0.055052046 -0.062355045 0.025194868 0.008475734 -0.09544893 -0.068596825 -0.112728186 0.16659278
0.023656845 -0.12848502 -0.08621315 -0.05852577 -0.07403818 0.053960893 -0.09799877 0.09816135
0.03820002 0.289712 0.041897595 0.10136704 -0.019637318 0.0032451944 -0.014885242 -0.061248604
0.03465246 -0.04580569 -0.18956536 0.082784064 -0.0240564 -0.025427574 0.0448823 -0.028157324
0.13065074 0.14314125 -0.00033048168 0.16629325 -0.1342535 -0.037248813 0.009682351 -0.019221257
0.062086582 0.06949585 0.0664952 -0.010376892 0.018212518 0.056026798 0.07142686 0.226803
0.16356365 -0.065896094 -0.118448384 0.06484903 0.026600039 0.047511205 0.013165487 0.018670963
0.017406013 -0.06568438 -0.01043705 0.0024327147 -0.008916077 0.011724174 0.06506384 -0.17122915
0.036540303 0.06677459 -0.06656191 0.07044162 0.036245447 0.00033247165 0.01767452 -0.14089197
-0.095005125 -0.051264554 0.00070156617 -0.01869648 0.023309477 0.04219093 0.07931197 0.0069529423
-0.14891501 -0.04095535 0.010683088 -0.02847719 -0.02102522 -0.0326616 0.07450008 -0.08821793
-0.002079007 0.032784402 0.12586224 0.078030616 0.15400778 -0.044220213 -0.003095201 0.09262666
-0.016676707 -0.04058284 -0.026869241 0.09496202 0.120217584 -0.09490741 0.010363975 0.030454025
0.07246748 -0.034747187 -0.017621884 0.036339484 -0.06596135 0.13739058 0.102345556 -0.053515818
-0.050645433 -0.022519594 -0.032779306 -0.08339701 0.025336418 -0.09107407 -0.055560224 0.13575101
-0.0115921935 -0.041437462 -0.020479463 -0.034423124 -0.045992583 -0.024022352 0.019548647 -0.060736988
-0.13673583 0.103528365 -0.16027218 -0.13250792 0.04376832 0.17575221 0.005854074 -0.020581728
-0.005465684 -0.09258238 0.022788052 -0.045992933 -0.12080116 -0.042579822 0.028477006 0.08337719
-0.09052678 -0.0032567263 -0.16898143 0.05674553 -0.024105817 0.002352127 0.062806875 0.022367269
-0.06989959 -0.018539706 -0.076741844 0.03377946 0.12806399 0.041264195 -0.0064714877 0.008789707
0.03084425 0.018986955 -0.003972606 -0.009110525 0.04835647 0.022023166 -0.17876534 -0.06271647

model.2.main.1.weight f4 [32]
00000000: 571a 7e3f 0c20 843f 54fe 7e3f 2d5b 7e3f
00000010: 8a53 7d3f 40c4 7d3f 6b3c 873f d676 813f
00000020: 8b45 853f daab 803f 86e8 7e3f e039 7c3f
00000030: fba5 813f 0d32 833f 8582 843f c755 7f3f
00000040: bfef 823f cbf5 793f 376a 7e3f e374 7e3f
00000050: a0f2 823f 1ab4 7d3f a5e3 803f 4264 7d3f
00000060: b0aa 7d3f d1d0 7a3f fc88 7d3f 13ed 803f
00000070: a26e 7f3f 2eec 7c3f ca4c 7f3f 9ab8 7f3f
0.9925894 1.032228 0.99606824 0.99357873 0.98955595 0.9912758 1.0565313 1.0114391
1.0411848 1.0052445 0.9957355 0.9852581 1.0128778 1.0249649 1.0352331 0.9974026
1.0229415 0.97640675 0.9938082 0.99397105 1.0230293 0.9910294 1.0069472 0.98981106
0.99088573 0.9797488 0.99037147 1.0072349 0.9977819 0.9879788 0.99726546 0.99891055

model.2.main.1.bias f4 [32]
00000000: 0084 1e3a ebb9 1dba 7e83 8d3b 899a a4bb
00000010: af78 133c 6b05 c7bb 684f 01ba d282 2c3c
00000020: 260a f43b 36c4 cebc 21d6 263c 2361 62bc
00000030: 702c beba eeb4 6bbc 86ae 653c 56e7 44bc
00000040: a305 0e3c 8a88 cabb 2bd1 ffba d76a 89b9
00000050: eba1 55bc 41ba 2cbb 3cd3 90b9 b7b6 74bb
00000060: b625 08bc 5f7e 72bc 37bb e9bc 10a3 c6bb
00000070: 224d fa39 6544 c5bb 6742 2a3d 49cf 8e3b
0.0006046891 -0.00060167786 0.0043186536 -0.005023305 0.009000941 -0.006073644 -0.0004932792 0.010529237
0.007447499 -0.025240045 0.010182888 -0.0138171045 -0.0014509093 -0.014386399 0.01401866 -0.012018045
0.008668336 -0.0061808275 -0.0019517293 -0.00026210278 -0.0130390925 -0.0026356133 -0.00027623202 -0.0037340352
-0.008309772 -0.014800637 -0.028531654 -0.006061919 0.00047741184 -0.006020116 0.041567232 0.0043582064

model.2.main.1.gate f4 [32]
00000000: 60e7 7e3f 7c0a 8c3f 2228 893f bf3a 803f
00000010: 305d 813f 980e 783f a062 803f 4939 7e3f
00000020: c3f8 8a3f a0dc 843f b2d5 7b3f f78b 823f
00000030: a8cb 923f f50d 7a3f c90d 8f3f 8396 833f
00000040: 9615 8c3f da7c 803f b920 853f 09e9 833f
00000050: af87 863f 444d 863f b84b 823f 1f5d 603f
00000060: 6b15 683f 6bc8 833f a7a5 8b3f a741 903f
00000070: 0acc 803f f651 7c3f 02d2 833f 9f35 843f
0.995718 1.09407 1.0715373 1.0017928 1.0106564 0.9689727 1.0030098 0.9930616
1.0857166 1.037983 0.9837295 1.0198964 1.1468401 0.97677547 1.1176082 1.0280308
1.0944088 1.0038102 1.0400611 1.0305492 1.0510157 1.049233 1.0179358 0.8764209
0.9065768 1.0295538 1.0909928 1.1270036 1.0062268 0.9856256 1.0298464 1.0328864

model.2.main.1.running_mean f4 [32]
00000000: 4d05 8640 9c01 48c0 3826 563f 5d95 d93e
00000010: f26a 39c0 9521 d3bf 80c8 b5bf 9fcb f4be
00000020: 085d b63d b4c6 003f 2701 7cbf 6da6 d040
00000030: 945e 93c0 002a 9e3d 4fbd 1b40 fce3 9bbf
00000040: b00a 6140 56c8 103f 0f08 efbf 4aa5 8940
00000050: 2284 db3f c5cb 89c0 5714 e63e 0db8 fdbf
00000060: b264 45be 09d2 703f de48 04c0 7082 80c0
00000070: 55aa 5140 1787 f340 6952 0540 03bf 0140
4.188147 -3.1250982 0.8365207 0.42496768 -2.8971524 -1.6494623 -1.4201813 -0.478116
0.08904463 0.50303197 -0.9843926 6.5203156 -4.605295 0.077228546 2.4334295 -1.217895
3.5162773 0.5655569 -1.8674334 4.301427 1.7149699 -4.306124 0.44937393 -1.9821793
-0.19276693 0.9407049 -2.0669475 -4.0159225 3.2760212 7.6102405 2.083155 2.0272834

model.2.main.1.running_var f4 [32]
00000000: 5f6e 5d40 5219 2e40 77c4 f03f 2df7 0240
00000010: 52c1 5040 2ce1 7040 0bc4 923f e580 463f
00000020: e497 5e40 58ab 2240 ff45 fc3f 4937 8440
00000030: 30cb 1040 2e68 e23f eecb 4a40 cf5d 1f40
00000040: 4474 fd3f 8d77 453f 12eb 2440 c211 ee3f
00000050: 9ba2 4240 7c51 b63f 7942 ef3f 1a84 8540
00000060: 79d7 1d40 cfc2 1740 b15a 1b40 d4c7 1c40
00000070: 18de e63f e1e0 d440 00cd 1d40 d01d 9a40
3.4598615 2.7202954 1.8809956 2.0463364 3.2617993 3.7637434 1.1466078 0.7754043
3.4780207 2.541708 1.9708861 4.1317487 2.2624016 1.7688043 3.1686969 2.4901006
1.9801106 0.77135545 2.5768476 1.8599169 3.0411747 1.4243617 1.8692161 4.1723757
2.4662764 2.3712652 2.4274104 2.4496965 1.8036528 6.652451 2.4656372 4.816139

model.2.main.3.weight f4 [32, 32, 3, 3]
00000000: 2e8d 16bd e04e 2fbd 60fa ff3c ff64 9a3c
00000010: 091f 9fbd fcbe 72bc 6ddf 4f3c db04 fb3d
00000020: c176 343d f035 06bd 7cd2 4ebd 6531 f9bc
00000030: 069b 143d 4b2e 5c3d 043d 1cbe e889 4ebd
00000040: 8f05 003d 6ab0 e7bc 012f 5c3d 49b9 39bd
00000050: f25f afbd 3abf 12be dcc0 003e b1a3 eebd
00000060: 0791 0f3e a654 d23d 7f25 e5bd 4bbe 533e
00000070: 0e55 3b3d 428c e0bc cbaa 023e d2c1 c0bd
00000080: 1bb7 43bd 5595 713c 17ce 92bd 841d 6e3d
00000090: fe7b 383d dce3 963d fe04 973d 3807 d93d
000000a0: b409 b03d bec9 d63d a02e f0bd ffaa f83c
000000b0: 267f bb3c 3635 e1bc 8adc f53c 5807 5a3d
000000c0: 5817 973d cae7 b7bd ddf2 adbd 8d92 143d
000000d0: 732f b33d 9f40 cd3d 8aa6 ac3d 7d83 caba
000000e0: 1cd3 c73d cf96 b23d 2a32 613d a74f 17bd
000000f0: b722 253d 219e 7cbd 82cf 53bc 8d26 023e
00000100: 9d87 52bc 52dd cb3c 83bf 0dbd 9a37 f1bd
00000110: 714c 4b3d d0e5 64bc f0e1 04bd 4332 053d
00000120: 2c2a 7abd 0423 d3ba 277a edbc 4b00 763d
00000130: 5996 f2bd e9b6 ce3d 45c3 cb3d 69b6 453d
00000140: 815f 83bd 4fe0 b83d 8624 943d aa3a 353e
00000150: 7ff0 8b3d 6786 223b 44ef b5bc b9e1 823d
00000160: 6ac5 81bc 1862 92bd 7f8e 2e39 fbbe 893c
00000170: a721 c9bd 2e72 01be d3ac 9ebd 25c0 3d3d
00000180: 867e 7ebd 6cfa 54be ccf2 c33c b913 d0bd
00000190: 13a0 e93d a936 30bd f46b 7c3d 1ac5 a5bd
000001a0: 9399 0d3e eb91 dc3d d91b 13bc 351e 253d
000001b0: 8f8c 7e3d 2ffe 833c 0479 b23d e206 e8bc
000001c0: 72c9 0e3e 959d 0b3e 7804 a4bd 1d80 8d3d
000001d0: 049c ee3d f64f 8cbd d440 c6bd 7df0 673d
000001e0: e487 e43d dbad 193d f705 c5bb dccb c73c
000001f0: a4e9 b43a ae49 843c 14ac 1c3c 01bf e5bc
00000200: 4436 43bd 6a45 e5bd 5a1c cd3d add9 543d
00000210: 5b3e 073d 5a3c 04be 280e a63c 42ee 0e3e
00000220: 3829 12be 23d1 8a3d 6c45 033e 7c60 01bd
00000230: f8d7 33bd a75a 63bb 466c 7dbd 77c5 c63b
00000240: cc8b 7cbd 4dde 99bb b8a3 d23d 7564 6b3b
00000250: b583 983d 1297 01be f3b6 39bd 4d89 2bbe
00000260: 4724 91bd 2e45 75bd f84d f5bd 77f3 fdbb
00000270: 518f 01be 38c8 bcbb 2c42 03bb feb4 2fbd
00000280: b0d0 743d a1d3 933d 80fe bcbd f4c0 343b
00000290: c10d 0f3e 3d64 5b3d f899 2a3e ab5e aebd
000002a0: 4fb1 b8bc 50c6 4e3e 24ef 99bc 274e 173d
000002b0: 511f 87bd 4a49 c0bd bb4c 15be a31c 213e
000002c0: dea2 cebc b8f5 1d3d a100 30be 803c a13d
000002d0: 5717 2d3d cd88 2e3e 3260 b63d 72da 3f3d
000002e0: ac70 dbbc 3cb8 3cbd 6870 c5bd 53e9 38bd
000002f0: 0c43 203e c468 ce3c 3d2e f3bc 2bb5 993d
00000300: 4609 833d 0383 dc3a 10f6 34be 149a 103d
00000310: db4a 893a f91f 273d eee6 373c a48a d8bd
00000320: 4bf8 56be bbb9 b0bc 1eeb 5e3d 255e f0bb
00000330: bf87 a23c d7bb 8b3d f67b 6b3d 35dc 4b3b
00000340: cbf5 74bb bec2 10be c415 e93b bf3a 6c3d
00000350: 46a7 64bd f5c8 41be ac09 9b3b e52e e6b8
00000360: 2e70 6fbe 5e60 27be d797 33bc 2a5b f03b
00000370: cda9 2cbd 4e15 5e3d af95 05bd d6ed 053d
00000380: 0e6e 8dbd b556 693d 5c6c acbd 6fa5 18bc
00000390: 36a0 e63c f50a 22be 50fa c43d 7eac 9d3d
000003a0: db24 34be 2b30 65bd 1440 97bd 8528 ae3c
000003b0: 6c95 f0bb 0fd1 a1bc 7361 9a3d e5bf e43d
000003c0: f450 6b3d 77bf e8bd 8bad 97bb 016c dfbd
000003d0: c4a4 433e 0f75 0d3d 543e 903d 50e4 6f3d
000003e0: ec7e 0c3e 4875 8cbd 17c5 a4bd b669 b93d
000003f0: 93d2 fe3c 2774 503d b3af 743c 6b19 023e
-0.036755733 -0.04279983 0.031247318 0.018846987 -0.07769591 -0.014816042 0.012687546 0.122567855
0.044058565 -0.032766283 -0.050493702 -0.030419061 0.036280654 0.053755086 -0.1525765 -0.050424486
0.0312553 -0.028282363 0.053755764 -0.045342717 -0.08563222 -0.1433076 0.1257357 -0.116523154
0.14020167 0.10270052 -0.111887924 0.2067806 0.04573541 -0.02741063 0.12760465 -0.09411968
-0.047782045 0.014745076 -0.07168215 0.058133617 0.045040123 0.073676795 0.07373999 0.1059708
0.08595601 0.10487698 -0.11727643 0.030354975 0.022887778 -0.027491193 0.030012388 0.05322966
0.07377499 -0.08979757 -0.08493588 0.036272574 0.087492846 0.10022091 0.08430202 -0.0015450564
0.09757063 0.08720171 0.05497948 -0.036941197 0.04031631 -0.06167424 -0.012927892 0.12710018
-0.012849716 0.024885807 -0.034606468 -0.11778183 0.049633447 -0.013970807 -0.032442033 0.032518636
-0.061075374 -0.0016108458 -0.02898891 0.060058873 -0.11845083 0.10093481 0.09949354 0.048269663
-0.064147 0.090271585 0.07233529 0.1769816 0.0683298 0.0024799348 -0.022208817 0.063907094
-0.015841205 -0.07147616 0.00016647017 0.0168147 -0.09820872 -0.12641212 -0.07747807 0.04632582
-0.06213238 -0.20798653 0.023919486 -0.10160012 0.11407485 -0.043020878 0.06162639 -0.08094235
0.13828115 0.10770019 -0.008978807 0.04031201 0.062145766 0.016112415 0.08714488 -0.028323594
0.13944033 0.13634332 -0.08008665 0.06909201 0.11650851 -0.06851189 -0.09680334 0.056625832
0.111587316 0.037519317 -0.006012674 0.0243892 0.001380254 0.016148414 0.009562511 -0.02804518
-0.047659174 -0.1119488 0.10015173 0.051965404 0.03301845 -0.12913647 0.020270422 0.13958076
-0.14273536 0.06778171 0.12819451 -0.031586155 -0.043907136 -0.0034691484 -0.061870836 0.00606602
-0.06165676 -0.00469569 0.10285133 0.0035918031 0.07446996 -0.12655285 -0.04534049 -0.16751595
-0.070869975 -0.059880428 -0.11977762 -0.0077499705 -0.12652327 -0.0057611726 -0.0020028455 -0.042897217
0.059769332 0.072180994 -0.092282295 0.002758083 0.1397009 0.05356239 0.16660297 -0.0851415
-0.022545485 0.20192838 -0.018790789 0.036939766 -0.0659777 -0.09388979 -0.14580052 0.1573358
-0.025224146 0.038564414 -0.1718774 0.078728676 0.042258587 0.17044373 0.089050665 0.046839185
-0.026787125 -0.046074137 -0.096405804 -0.04514439 0.15650576 0.02519644 -0.029685134 0.07505258
0.06398253 0.0016823713 -0.1767199 0.03530319 0.0010474579 0.040801976 0.0112244915 -0.105733186
-0.20993154 -0.021572938 0.054423444 -0.0073354417 0.01984012 0.06822937 0.057491265 0.0031106595
-0.003737795 -0.14136788 0.0071131904 0.057673212 -0.055823587 -0.18924315 0.0047313776 -0.000109759894
-0.23382637 -0.16345355 -0.010961494 0.0073350864 -0.042154122 0.054219536 -0.032613453 0.03269752
-0.06905757 0.056967456 -0.084191054 -0.009316786 0.028152566 -0.15824492 0.09618056 0.07698916
-0.17592184 -0.05595414 -0.07385269 0.021259556 -0.007342031 -0.019753007 0.07538118 0.111694135
0.05745025 -0.11364644 -0.004628842 -0.10909272 0.19105822 0.034535464 0.07043138 0.058567345
0.13720292 -0.06858307 -0.080454044 0.09053366 0.031106269 0.05089202 0.014934468 0.12705009

model.2.main.4.weight f4 [32]
00000000: 655e 823f f72f 7d3f cd97 803f 6f37 813f
00000010: 4eb3 783f 8804 7f3f 08e3 7e3f 5d55 7e3f
00000020: 1b7f 6f3f 2b28 7e3f 2d20 783f ec92 7b3f
00000030: deff 7e3f 2430 783f 3a4f 753f 7839 7d3f
00000040: cc20 753f 557e 823f 8f4c 7e3f 5353 743f
00000050: 34d3 803f 34b2 7c3f 07fe 7c3f 2f9b 7b3f
00000060: 55db 7d3f 8877 7e3f a204 813f 3091 7a3f
00000070: f3c5 7c3f 54bd 7a3f 8f4c 753f 60e1 793f
1.0185057 0.98901314 1.0046326 1.0095042 0.971486 0.9961629 0.9956517 0.99349004
0.9355332 0.9928004 0.96924096 0.9827106 0.9960917 0.96948457 0.95824015 0.98915815
0.9575317 1.0194803 0.9933557 0.9543964 1.0064454 0.98709416 0.98825115 0.98283666
0.991628 0.9940114 1.0079539 0.9787779 0.98739547 0.9794514 0.95819944 0.9760952

model.2.main.4.bias f4 [32]
00000000: 647f 423d 4640 cb3c 1ee2 3a3c 6a27 383d
00000010: e2a5 b7ba b2c0 193c f214 63bc c330 85bc
00000020: 1fcf 37bc 2924 8c3c 29b1 53bc 7c5a 5cbc
00000030: f5a6 963c 1dda d8bc 3e8b 89bb 1b4d 7cbc
00000040: 0047 8f3b 0c9b 293d b5ea ccbb 7863 93bb
00000050: 5b1f b53d 1818 cb3b dd41 01bb e7e4 a0bc
00000060: 383f e43b fa9e 903c 10b2 d6bc 7748 323c
00000070: 172e 2c3c 6a38 473a b00f 133d c82c ba3c
0.04748477 0.024810921 0.01140645 0.044959463 -0.0014011229 0.009384321 -0.013859974 -0.016258603
-0.011218815 0.017107086 -0.012920656 -0.0134493075 0.018390158 -0.026471192 -0.004197507 -0.015399243
0.0043724775 0.04140763 -0.006253565 -0.0044979416 0.08843871 0.0061979406 -0.0019723095 -0.0196404
0.006965544 0.017653931 -0.026207954 0.010881535 0.010509036 0.0007599654 0.035903633 0.022726431

model.2.main.4.gate f4 [32]
00000000: e1d1 623f bd02 7b3f b6e6 813f 5863 8b3f
00000010: ba27 843f a277 7a3f f88c 823f e832 6f3f
00000020: 7fbc 863f fd5d 7b3f 660e 833f 88c9 803f
00000030: 7c75 873f 49a3 893f 9386 873f 402c 803f
00000040: 6d28 7f3f 492e 793f 15d7 823f 0802 813f
00000050: 7f7e 873f 56c5 7f3f 30ea 813f c7ec 853f
00000060: 4ece 743f 5120 7f3f 1e92 7b3f 33ae 813f
00000070: f338 8d3f 81f7 793f 0246 853f 0815 893f
0.886015 0.98051053 1.0148532 1.0889692 1.0324624 0.97838795 1.019927 0.9343705
1.0526274 0.9819029 1.0238769 1.0061502 1.0582728 1.0752956 1.0587944 1.0013504
0.9967106 0.9733625 1.0221888 1.0078745 1.0585479 0.99910486 1.0149593 1.0462884
0.95627296 0.99658686 0.9826983 1.0131286 1.1033005 0.97643286 1.041199 1.0709543

model.2.main.4.running_mean f4 [32]
00000000: 1e34 51bd 051b 323e 8164 633e 9e58 923f
00000010: 4f4e 8e3e 9d89 68bf c8d5 3e3f 97b5 073f
00000020: 2e5e 81be e2f4 5dbf ec5a 24bf 04fd 163d
00000030: a6cc 3a3f 48dd 6dba f434 2f3f 4bda fa3e
00000040: e5b4 61be 8ddf 42bf 8b50 f6be 5e44 ef3e
00000050: 4e14 c8bd 7d1c 82be 1688 233d 9544 103d
00000060: f53f 53be 6851 43be fe79 013f 03ac 753e
00000070: 017f 1dbf 8f63 56bf 61cb afbf 0701 28be
-0.051075093 0.1739312 0.22206308 1.1433294 0.2779412 -0.9083498 0.74544954 0.5301146
-0.25267166 -0.86701787 -0.64201236 0.03686239 0.7296852 -0.0009073806 0.68440175 0.4899467
-0.22041662 -0.7612236 -0.48108324 0.46731848 -0.09769498 -0.2541236 0.039924704 0.035221655
-0.20629866 -0.19074023 0.5057677 0.23991399 -0.6152192 -0.83745664 -1.3733941 -0.16406642

model.2.main.4.running_var f4 [32]
00000000: 903d 7c3f affb 3e3f ace2 673f cc39 0e40
00000010: 96cc c63f 57a6 8c3f a251 b93e ab62 943f
00000020: f1a3 413f 1f7e 783f bbe1 c63f 6786 0540
00000030: 1c98 b83f 5ab1 c03e 1684 853f 82ed 593f
00000040: 040f 973f 5b9f 3f3f d407 1240 1f66 bf3f
00000050: 6ef9 a33f dea9 b33f 7019 833f 40ca 3d3f
00000060: 4441 993f 7272 843f 87c0 f73f 1dd0 6c3f
00000070: c0cc 4740 b982 6a3f a022 0240 f077 323f
0.98531437 0.7460279 0.9058025 2.2222776 1.5531185 1.0988263 0.36195093 1.1592611
0.7564078 0.97067446 1.5537637 2.0863283 1.442142 0.37635309 1.0430934 0.85128033
1.1801457 0.7485253 2.2817278 1.495304 1.2810495 1.4036214 1.0242138 0.74136734
1.1973042 1.0347426 1.935563 0.92505056 3.121872 0.91605717 2.0333633 0.6971426

model.3.main.0.weight f4 [32, 32, 3, 3]
00000000: 448e 51bd b670 95bd f39a 1d3e a6b9 c43d
00000010: fad6 823d d925 ed3c 10a6 8b3d cd52 94bd
00000020: 8606 ff3c e751 863c 4ad7 103d f760 a5bd
00000030: 2035 b5bd 28ad 913d 441e f73c a3ae 4fbe
00000040: 3ca2 753d a5d0 5bbd ffa1 d33d 3e0d efbc
00000050: 886c bbbc 2a60 223e 3328 babb 44ee fd3c
00000060: 1acf b4bd 244b 923d 1f6b df3d f924 1e3e
00000070: fa08 ddbd ecf9 9ebb 129c 803c 2465 c23d
00000080: 0701 30bd e16d 60bd 5fc8 9f3d 6bfa 163e
00000090: 118b 8cbd da63 0c3e a523 9b3d cd44 36bd
000000a0: bcbe b83c efce acbd 6c70 52bd 238c 263c
000000b0: bc4d fbbb 43bf 37bc 8141 8d3d 553a 873c
000000c0: eccf df3d 439f 2d3b 4719 843d 57d5 79bc
000000d0: 92d7 53bc 71a0 b1bc ab27 223d b70a b03d
000000e0: e1f5 24bd 53b1 d73d 4ac2 bb3d e0b6 233c
000000f0: 0e1b 9fbd a3ef 10bc b065 073e 89e4 4e3e
00000100: 0256 e1bc ddd3 2c3d 33bf 903d 1599 913d
00000110: 4142 e5bd dcbe dfbd f905 9a3d 5882 14be
00000120: b1d8 6e3e 76ce e83c 59a6 96bd 7f66 09be
00000130: 6a17 79bd 9709 e2bd 0b83 d0bc b884 083c
00000140: d882 083e 7311 4f3c 9936 0cbd 3cd5 29bc
00000150: 9f6f b83d 4aa0 063e c4c7 0abd af91 7cbd
00000160: 3ae3 ac3d f3fa 093d 5522 19bc edfa 683e
00000170: 227f cebb 3b82 af3d 5036 2dbd c05d 1dbd
00000180: 3db9 a8bd 02cd 123d 856c 22bb 41f2 0abd
00000190: a91f 31bd 7fa8 65bd 7e1b 68bd 3bc9 e03c
000001a0: 0fac f33c a465 89be b2d4 d43b 9827 393d
000001b0: 1245 a73c b767 303d a159 03bd c166 95bd
000001c0: d135 fd3d 9ea4 bfbc db1d 8cbc 917a f5bd
000001d0: bf5c 7f3d 96cb 99bd 1056 57bc ef11 00be
000001e0: 97ad 023e eea1 943c b179 ffbd 2d4b 1f3e
000001f0: 7b36 2ebe d35d dabd d885 71bd 0d25 583e
00000200: e17b 5f3d 0cda 5d3d 7504 81bd 13b4 a73c
00000210: 628b 193e f21f 6f3c 8c01 57bd e4ab 6bbd
00000220: 4f5d db3d eec4 3f3d c98d 223d 2822 8b3c
00000230: 9d2c 34be 16a2 863d ec22 51bd 9c65 05be
00000240: 4422 78bd 7671 e53d 0880 223e 0c4d a7bc
00000250: 3e64 8dbd 844d 403c c455 d9bb dbad 50bd
00000260: 3890 0abe c2f9 883c 7ae3 6a3c a27e f2bc
00000270: e6a1 c33b 313d a43d ca71 133e ce01 6c3e
00000280: 8540 b73c dbd6 663d 16e5 bd3b 358f b0bd
00000290: 6d7c 593c 92e7 1a3d 9b26 95be fcab 02be
000002a0: 1f5f c03d 5e6e 1c3d 15f9 09be e697 713d
000002b0: 70fa 863d 7dfa a53c 8463 dc3b e739 a83d
000002c0: 5b5b cd3d 8c6a a93d 3b22 023e a274 833d
000002d0: 564e 05be 6191 13bd e0ec c9bd ee35 9cbd
000002e0: acf1 6d3d ce0d b4bd 7713 1abd 7719 a0bb
000002f0: 4ca2 e53d f74f 0c3e e8cb 8b3d 0798 4bbd
00000300: b010 cebc 0785 363e ad81 c63c 77a1 29bd
00000310: 5df7 fc3d 2e19 7d3d c011 693d cc60 003d
00000320: b739 31bd de94 94bd 3f5e 4e3e d708 d0bd
00000330: 0925 93bd e6fa 61bd d23e b2bd 643d 2bbc
00000340: f21c babd 7b4c a4bc b70d acbd c8fe 893e
00000350: 7050 3dbd a368 9ebd 3154 eebc 13db 38be
00000360: a13a 13be 7f2a 883d dda2 01bd e4fc 5d3c
00000370: 6362 83bd 56b3 93bd 436c e23d 710e f6bd
00000380: 2ad0 beba a2a2 8f3d ea51 94bd 1635 c43d
00000390: 405b 24be 257e 63bd 1859 08bd 4eff 7bbd
000003a0: 84de 0bbc 52ba a2bb c10c b43d c157 36bd
000003b0: 6e72 4cbd 5aa5 db3c b0a2 cebc 4356 37bd
000003c0: f63e 28ba 647e bd3d bb66 deba c249 d6bc
000003d0: 0277 4dbd 7cb7 aebc 579a a03d 8111 863c
000003e0: 4dcb c0bd abf3 c4bc fb15 443d f6d9 8abb
000003f0: e60e 2c3d 3d29 713d ce85 80bc 999b ee3c
-0.051161066 -0.072968885 0.1539114 0.09605722 0.0638866 0.028948711 0.06818783 -0.072423555
0.03113104 0.016396476 0.035361566 -0.08075135 -0.088480234 0.07113105 0.030165799 -0.20281462
0.059969172 -0.053665776 0.10333633 -0.029181119 -0.0228789 0.15856996 -0.0056810617 0.030997403
-0.08828564 0.07143238 0.109091036 0.15443791 -0.10792728 -0.0048515704 0.01569942 0.09491947
-0.04296973 -0.05479229 0.0780189 0.14743964 -0.06862462 0.13709965 0.07575158 -0.044499207
0.022551887 -0.08437907 -0.051376745 0.010165247 -0.007669179 -0.011215034 0.068972595 0.016507307
0.1092833 0.0026492632 0.06450134 -0.015248618 -0.012929814 -0.02168295 0.03958861 0.08595794
-0.04027355 0.10531869 0.09167917 0.009992331 -0.07768832 -0.008846196 0.13222384 0.20204367
-0.027506832 0.042194236 0.07067718 0.07109276 -0.111942776 -0.109250754 0.075206704 -0.14502847
0.23324849 0.02841876 -0.07355947 -0.13418005 -0.060813345 -0.11036985 -0.025453111 0.008332424
0.13331163 0.012638438 -0.034231756 -0.01036578 0.09005665 0.13147083 -0.033881918 -0.061662372
0.084417775 0.03368659 -0.009346564 0.2275197 -0.0063017765 0.08569761 -0.042288125 -0.038419485
-0.082384564 0.035840042 -0.002478392 -0.033922438 -0.043243084 -0.056068894 -0.056666844 0.027439704
0.02974513 -0.26835358 0.006495082 0.045203775 0.020418677 0.04306766 -0.0320679 -0.072949894
0.1236378 -0.023393925 -0.01710408 -0.11986268 0.06234431 -0.07509534 -0.0131430775 -0.12506841
0.12761532 0.01814362 -0.12474383 0.15556021 -0.1701297 -0.10662427 -0.058965534 0.21107884
0.0545615 0.054163024 -0.06299678 0.020471608 0.14994577 0.014595019 -0.05249171 -0.057536975
0.107111566 0.046818666 0.039685998 0.01698406 -0.17595144 0.06573884 -0.051058695 -0.13027042
-0.060579553 0.112032816 0.15869153 -0.020422481 -0.06903885 0.011737231 -0.0066325385 -0.05094705
-0.13531578 0.016720656 0.014336461 -0.029601399 0.0059702275 0.08019484 0.14398876 0.23047563
0.022369632 0.056357246 0.0057951314 -0.086210646 0.013274294 0.0378185 -0.29131016 -0.1276092
0.09393143 0.03819119 -0.13473924 0.058982752 0.06590736 0.020261044 0.0067257304 0.08214169
0.1002719 0.08272275 0.1270837 0.0641873 -0.13018164 -0.036027316 -0.098596334 -0.07627474
0.058091804 -0.087916955 -0.03761622 -0.004885848 0.11212596 0.13702379 0.068260014 -0.04970553
-0.025154442 0.17824183 0.024231756 -0.04141375 0.12351868 0.06179159 0.056901693 0.031342313
-0.04326793 -0.07254957 0.2015314 -0.10157936 -0.07184798 -0.055170916 -0.08703388 -0.010451648
-0.09087552 -0.020056 -0.084010534 0.26952195 -0.04621929 -0.077348016 -0.02909288 -0.1805232
-0.14377834 0.066487305 -0.03164946 0.013549063 -0.0641525 -0.0721194 0.110558055 -0.12014473
-0.0014557887 0.070134416 -0.07242186 0.09580438 -0.16050434 -0.055540223 -0.03328809 -0.061522774
-0.008536939 -0.004966059 0.08791495 -0.044517282 -0.049913816 0.026812244 -0.02522406 -0.04476
-0.00064180733 0.09252623 -0.0016967872 -0.026158217 -0.050162323 -0.021327727 0.07841938 0.016365768
-0.094137765 -0.024041971 0.047872525 -0.0042374087 0.042006396 0.05887722 -0.015688803 0.02912693

model.3.main.1.weight f4 [32]
00000000: e8fe 7e3f 6e2b 7f3f e2f1 813f d019 803f
00000010: 891a 743f acc4 7f3f c757 773f dd2a 803f
00000020: 90c0 7c3f f155 803f 89cd 7d3f c4bf 7f3f
00000030: 7376 7e3f 2399 7f3f 29f9 7e3f 2ef0 7f3f
00000040: 7d3d 803f 4480 813f 93c4 823f 8512 803f
00000050: d60c 803f d851 7f3f 85b4 803f 934f 7d3f
00000060: f86c 843f 99a8 803f 08b5 7e3f 1910 823f
00000070: 0893 7d3f 28d2 873f 21c5 7f3f c1ca 813f
0.99607706 0.99675643 1.0151942 1.0007877 0.9535299 0.9990947 0.9661831 1.0013081
0.9873133 1.0026227 0.99141747 0.99901986 0.9939949 0.99843043 0.9959894 0.9997586
1.0018765 1.0117269 1.021624 1.0005652 1.0003917 0.9973426 1.005509 0.98949546
1.0345755 1.0051452 0.9949498 1.0161163 0.99052477 1.061101 0.9991017 1.014

model.3.main.1.bias f4 [32]
00000000: fc39 c6ba 7957 ac3a 3424 0b3d f0f8 bd3b
00000010: 5ee3 883c 4436 7a3c 5b8e 7abc 7625 843c
00000020: e15d e5bc d9b8 a43b af6f 553d 08cd 56ba
00000030: c327 2dbb 6699 de3c 6871 20bc a652 593c
00000040: b508 8b3c 2aaf d3b9 1a7d 3c3d 1782 e63b
00000050: 905a 743c b843 adbb b6c0 343c 5f88 ebba
00000060: a3f7 253b a401 36ba e7c6 a5bb 2a10 f03c
00000070: 3c59 ad3c 5719 a83d 2a60 203d 6a25 0b3b
-0.0015123482 0.0013148627 0.033970073 0.005797498 0.01670998 0.015271727 -0.015292729 0.016131144
-0.027998867 0.0050269184 0.052108463 -0.0008194004 -0.0026421405 0.027172755 -0.009792663 0.013264334
0.016971925 -0.00040375564 0.046017744 0.007034551 0.01491417 -0.0052876137 0.011032274 -0.0017969719
0.0025324605 -0.00069429935 -0.0050591114 0.029304583 0.021160714 0.08207958 0.03915421 0.0021232017

model.3.main.1.gate f4 [32]
00000000: 17f4 7e3f f1a7 873f 136d 843f eeba 803f
00000010: 316d 753f 73b7 783f 2739 843f 9cca 843f
00000020: b549 7e3f d675 813f fd69 5f3f 36c0 7e3f
00000030: f24f 813f 14bd 813f 5d2d 863f 271e 813f
00000040: f073 863f 07f1 8b3f 8264 8b3f 28ee 7a3f
00000050: 8f91 7d3f 0c7d 823f 24af 7d3f cd8a 7c3f
00000060: 26ab 8b3f 8c12 873f 28a9 833f 39d4 803f
00000070: 82f2 6b3f 822c 833f 7a9a 7e3f 5064 793f
0.995912 1.0598127 1.0345787 1.0057046 0.9586974 0.9715492 1.0329942 1.0374331
0.9933122 1.0114086 0.872711 0.9951204 1.0102522 1.0135827 1.0482594 1.0087327
1.0504131 1.0932931 1.0890048 0.9801965 0.9905023 1.0194411 0.9909537 0.98649293
1.0911605 1.0552535 1.0285997 1.0064765 0.9216691 1.0247958 0.9945446 0.9741869

model.3.main.1.running_mean f4 [32]
00000000: 7114 123f 9661 0e3d 8f9a 633e 1a6e 1f40
00000010: 2052 48c0 7ad5 493f b70a e73f cd2c 6040
00000020: eea6 d7be 3d2b 863f 5d3a fabf ff2a ce40
00000030: e0c4 5f40 47bb 83c0 fa0f cb3f 9c19 e9bf
00000040: 0684 db3f 1b54 5ac0 b658 8abf b76c a7bf
00000050: 800f a440 fca6 9c40 c5d3 20c0 a0de 4340
00000060: 473c bdbf 8a94 4c3e f801 0840 5cf8 ddbf
00000070: 1202 44c0 d4ca cebe 9faa 4e40 f324 59bf
0.5706244 0.034761034 0.22226928 2.491095 -3.1300125 0.78841364 1.8050145 3.5027344
-0.42119545 1.0481945 -1.9549061 6.4427485 3.4963913 -4.116611 1.5864251 -1.821094
1.7149665 -3.4113834 -1.0808322 -1.3080052 5.126892 4.895384 -2.5129254 3.060463
-1.478402 0.19978538 2.1251202 -1.7341418 -3.0626264 -0.4038912 3.229164 -0.84822005

model.3.main.1.running_var f4 [32]
00000000: f659 c140 e085 8540 5877 ee40 c33d a140
00000010: cf22 a240 9335 3f40 0a45 ef40 0642 5d40
00000020: 2de9 8940 7882 3340 f5f7 cf40 b9c5 1e41
00000030: 72f1 ca40 9066 b240 cf69 d840 58b9 ca40
00000040: b08a 8d40 e598 0f41 1ca9 1d41 abac a040
00000050: 1895 0c41 0568 0041 8d09 6440 64dd 8940
00000060: ae12 0d41 d3f2 6440 d52a 8240 557d 4a40
00000070: 9652 4640 0845 2941 f234 4740 402d a240
6.0422316 4.172592 7.4520683 5.0387893 5.066749 2.987645 7.4771776 3.4571548
4.309714 2.8048382 6.499018 9.923272 6.3419733 5.57502 6.762916 6.335125
4.4231796 8.974828 9.853786 5.0210776 8.7864 8.025395 3.563083 4.308275
8.81706 3.5773208 4.0677285 3.1638997 3.0987906 10.579353 3.1126065 5.0680237
